experiment/decoder_0_seed123.pt (torch, 96498 bytes, 6 tensors)

decoder_net.0.weight f4 [128, 2]
0	0x3eafddbb	0.34348854
1	0xbfd10584	-1.6329808
2	0x3fbb6c8c	1.4642501
3	0xbf409c70	-0.75238705
4	0x3f958acf	1.1682986
5	0xbe89910c	-0.26868474
6	0xbf9bd33a	-1.2173836
7	0xbf21ac09	-0.6315313
8	0x3fa98482	1.3243563
9	0x3d8ea181	0.06964398
10	0x3fa29634	1.2702088
11	0xbf45c5cd	-0.77254945
12	0x3f77bd20	0.96772957
13	0xbd4e226c	-0.050325796
14	0x3f9d2542	1.2276995
15	0xbfa01718	-1.2507048
16	0xbfbb5d68	-1.463788
17	0xbf38196c	-0.7191379
18	0xbf6282f0	-0.88481045
19	0x3f9b83c6	1.2149589
20	0xbfbe0cc6	-1.4847648
21	0xbf3b0929	-0.7306085
22	0x3f5ccb4b	0.862477
23	0x3f5314ea	0.8245379
24	0x3f8dda14	1.1082177
25	0x3d72b0ef	0.05925077
26	0x3f7ed7b7	0.99547905
27	0x3eb5622a	0.35426456
28	0xbfa52e0f	-1.2904681
29	0xbf7ebfda	-0.9951149
30	0x3fae9731	1.363989
31	0xbf293b61	-0.6610623
32	0x3f91e9f6	1.1399524
33	0xbf35b7d3	-0.7098362
34	0xbf890eef	-1.0707682
35	0x3f238349	0.638722
36	0x3f796b78	0.9742961
37	0x3c395880	0.011312604
38	0x3f163edf	0.58689684
39	0xbfc53137	-1.5405644
40	0xbf982050	-1.1884861
41	0xbf125186	-0.57155645
42	0xbd9c6e0e	-0.07638179
43	0x3fd243bc	1.6426921
44	0xbfaa9385	-1.3326269
45	0xbf97a8f4	-1.1848435
46	0x3ddde5b7	0.1083483
47	0x3fc744d5	1.5567881
48	0xbf87b36e	-1.0601633
49	0x3f466a11	0.77505594
50	0xbef70c9b	-0.48251805
51	0x3f89e46f	1.0772837
52	0x3f883337	1.064063
53	0xbf893987	-1.0720681
54	0x3fa6ffe2	1.3046839
55	0xbf202062	-0.6254941
56	0x3f961900	1.1726379
57	0xbe805112	-0.25061852
58	0xbf938285	-1.1524206
59	0x3f96a637	1.1769475
60	0x3f92ac5c	1.145885
61	0xbf9c9751	-1.2233678
62	0x3e9c9a09	0.3058627
63	0xbfc76984	-1.5579076
64	0xbf2798e4	-0.6546767
65	0xbf9bb98b	-1.2165998
66	0xbe2aa6ef	-0.16665243
67	0xbf9dd4ba	-1.2330544
68	0xbf1ac672	-0.60459054
69	0xbfa3e862	-1.2805293
70	0xbf9b7c36	-1.2147281
71	0x3f741b00	0.953537
72	0x3f84172f	1.0319575
73	0x3d68ae52	0.05680687
74	0x3f4cf4f3	0.8006126
75	0x3fe15f72	1.7607253
76	0xbf95fbf8	-1.171752
77	0xbf169b34	-0.5883057
78	0x3f5e79b6	0.86904466
79	0xbfa27082	-1.2690585
80	0xbf626bc7	-0.88445705
81	0x3f665216	0.89969003
82	0x3f98d614	1.1940331
83	0x3ed005a8	0.40629315
84	0xbeb7eb0d	-0.35921517
85	0xbfbaa58b	-1.458177
86	0xbf98ea02	-1.1946414
87	0x3f990b71	1.1956617
88	0xbfbc6565	-1.4718443
89	0x3f8b13b8	1.0865393
90	0xbf831239	-1.0239936
91	0x3f854dd2	1.0414374
92	0xbe19133e	-0.14948747
93	0xbfce8276	-1.6133564
94	0xbf2e4d4a	-0.68086684
95	0x3fc445ce	1.5333803
96	0xbf8ab428	-1.0836229
97	0xbf038b0a	-0.5138403
98	0xbfab84b4	-1.3399873
99	0x3edcf521	0.4315577
100	0xbfa82910	-1.3137531
101	0xbb3e8315	-0.002906983
102	0xbf8c6dbb	-1.0970987
103	0x3d7e5e17	0.06210145
104	0xbf4e0ba5	-0.8048652
105	0x3f9d998a	1.2312481
106	0xbf954627	-1.1662034
107	0x3f0b4284	0.5439837
108	0xbfa635d6	-1.298518
109	0xbf0cc1be	-0.5498313
110	0xbf10b04e	-0.5651902
111	0x3fcc7b36	1.5975101
112	0x3f9a3c48	1.2049646
113	0x3f02b266	0.51053464
114	0x3f724860	0.94641685
115	0xbfb93d32	-1.44718
116	0x3f984bfd	1.189819
117	0xbda821a8	-0.082095444
118	0xbf9f4f78	-1.2446127
119	0xbf75edc1	-0.9606591
120	0xbf4248a5	-0.75892097
121	0x3ebd7a39	0.3700731
122	0xbf8430ac	-1.0327353
123	0x3ef8df69	0.48607948
124	0x3fa93667	1.3219727
125	0xbf4baa79	-0.79556996
126	0xbf2af536	-0.6678041
127	0x3fbfbdcd	1.4979798
128	0x3f9b9476	1.2154682
129	0x3f9a1ac6	1.2039421
130	0x3f5db2ec	0.8660114
131	0x3fb91d11	1.4461995
132	0xbf7a15a8	-0.97689295
133	0x3fbe2e23	1.485783
134	0xbf37766d	-0.7166508
135	0x3f5f5bda	0.8724953
136	0x3ebf4cd0	0.3736329
137	0xbf8bf3f4	-1.0933824
138	0xbf8e1a34	-1.1101747
139	0xbf57a973	-0.84242934
140	0x3fc80d8c	1.5629134
141	0x3f38c29e	0.7217196
142	0xbf1f283b	-0.6217076
143	0xbf98208d	-1.1884934
144	0x3fae487d	1.3615872
145	0xbec55e5d	-0.38548556
146	0xbf56bac8	-0.83878756
147	0x3f56239d	0.8364809
148	0xbf975c65	-1.1825072
149	0xbf108e5d	-0.5646723
150	0x3ed80d09	0.42197445
151	0xbf4de472	-0.80426705
152	0x3e34e13d	0.17664047
153	0x3fbeac06	1.4896247
154	0x3fac0eda	1.3442032
155	0x3dc7b266	0.09750824
156	0xbf86a24b	-1.0518278
157	0x3f5ef70a	0.870957
158	0xbf4a9984	-0.79140496
159	0x3f892a04	1.0715947
160	0x3f5984e6	0.8496841
161	0x3e1ec7ca	0.15505901
162	0xbf0c5821	-0.54821974
163	0xbfb9a06a	-1.450208
164	0x3f94df0f	1.1630572
165	0xbf9caa67	-1.2239503
166	0xbfae6cfc	-1.3627009
167	0x3dd60888	0.10450846
168	0x3fa8b23d	1.3179394
169	0x3f3255e5	0.69662315
170	0x3f803755	1.0016886
171	0x3f945644	1.1588826
172	0x3f834982	1.0256808
173	0x3f0c23dc	0.5474222
174	0xbfaa4826	-1.3303268
175	0x3e349a69	0.17637028
176	0xbf873bb6	-1.0565097
177	0xbf022799	-0.5084167
178	0xbf727dc6	-0.94723165
179	0xbf7963f7	-0.9741816
180	0x3f9236f7	1.1423024
181	0xbda9f4ae	-0.08298622
182	0x3e181fc7	0.14855872
183	0x3f9c1e43	1.2196735
184	0x3f9b418c	1.2129378
185	0xbf9fa77c	-1.2472987
186	0x3fa34f7d	1.2758633
187	0x3f0ff1ea	0.56228507
188	0xbf1ebf65	-0.62010795
189	0x3fbb9ca8	1.4657183
190	0x3f30fb1d	0.6913317
191	0x3fce0324	1.6094708
192	0xbf1084b5	-0.56452495
193	0x3fa4b8af	1.2868861
194	0xbfcf8a30	-1.6214046
195	0x3eeec2ad	0.466329
196	0xbf999246	-1.1997764
197	0xbf78a040	-0.9711952
198	0xbf26e78e	-0.65197074
199	0x3fb864a0	1.4405708
200	0xbfa24e3b	-1.2680124
201	0x3ca50ad9	0.020146774
202	0xbe57396b	-0.21017997
203	0xbfca8f73	-1.5825027
204	0x3fa09556	1.2545574
205	0x3f2d0063	0.67578715
206	0xbfcc912c	-1.5981803
207	0x3eee4689	0.4653819
208	0xbf10b3aa	-0.56524146
209	0x3fa07dec	1.2538428
210	0x3d0ff5c8	0.035146505
211	0x3fb726d8	1.4308729
212	0x3f03aa8b	0.514321
213	0xbf3c6f68	-0.7360749
214	0x3f492d26	0.78584516
215	0x3f6a75fd	0.91586286
216	0x3f953273	1.1656021
217	0xbd0a1d10	-0.033719122
218	0xbf447f25	-0.7675651
219	0xbfa0c669	-1.256055
220	0xbf2b25d7	-0.66854614
221	0x3f96e785	1.1789404
222	0xbf7d6014	-0.9897473
223	0xbf437857	-0.763555
224	0xbfc557f9	-1.5417472
225	0xbe1065b3	-0.14101295
226	0xbf8821ad	-1.0635277
227	0xbf4f7a4e	-0.81046
228	0x3f34a59c	0.705652
229	0x3fcd07cf	1.6018008
230	0x3f8bfdc1	1.0936815
231	0x3dfc23bc	0.12311503
232	0xbfa8ba81	-1.3181916
233	0xbf2eb05c	-0.68237853
234	0xbf9815f9	-1.1881706
235	0x3f5d933e	0.865528
236	0xbf3f5061	-0.74732023
237	0xbf8ac2c4	-1.0840688
238	0x3f57b1b2	0.84255517
239	0xbfa3594c	-1.2761626
240	0x3fa91dc4	1.3212209
241	0xbf8cc666	-1.0998046
242	0xbf58f4fa	-0.84748805
243	0x3f1eaf5b	0.6198632
244	0xbf95da88	-1.1707315
245	0x3ca57262	0.020196144
246	0x3eef9d16	0.46799535
247	0xbfcce930	-1.6008663
248	0x3f70c953	0.94057196
249	0x3db2f88b	0.08738812
250	0xbfbb8cb4	-1.4652314
251	0xbf35e7e0	-0.7105694
252	0x3f9ecccc	1.2406249
253	0x3edd825f	0.43263528
254	0xbd182c39	-0.03715155
255	0xbfbd6032	-1.4794981

decoder_net.0.bias f4 [128]
0	0x3f2a00a6	0.6640724
1	0x3fb5c2cf	1.4200076
2	0x3cf0e868	0.029407695
3	0x3cf83990	0.030300885
4	0x3f3abde1	0.7294598
5	0x3f45d1c5	0.7727321
6	0x3f8992ec	1.0747962
7	0x3df8c303	0.121465705
8	0x3cb13e5c	0.02163618
9	0x3d9f73d7	0.077857666
10	0x3d32e444	0.043674722
11	0x3fa052f9	1.2525321
12	0x3f57dfa0	0.843256
13	0x4017c5d3	2.3714492
14	0x3fae0b04	1.3597112
15	0x3fd4f597	1.6637448
16	0x3f419591	0.75618845
17	0x3e8a5279	0.27016047
18	0x3fbc5dcc	1.4716125
19	0x3d9c88ef	0.076433055
20	0xbc8471f5	-0.01616762
21	0xba599a84	-0.00083009177
22	0x3fbf7310	1.4956989
23	0x3fcb7f90	1.5898304
24	0x3df021d9	0.11725206
25	0xbe1933c1	-0.14961149
26	0x3df50eb4	0.11965695
27	0x3eba1821	0.36346534
28	0xbd55efbc	-0.05223058
29	0xbe94d20c	-0.29066503
30	0x3cb4b6e0	0.022059858
31	0x3f4146b1	0.7549849
32	0x3f9022f3	1.1260666
33	0x3ef7f7ed	0.4843134
34	0x3f8c56b0	1.0963955
35	0x3d70e9e7	0.058816817
36	0x3f1f84c8	0.62311983
37	0x3ff37590	1.9020252
38	0x3d6208ef	0.0551843
39	0xbe88464a	-0.26616126
40	0xbe6755ef	-0.22591375
41	0x3f1f8ecc	0.62327266
42	0x40068199	2.10166
43	0x3e821c8e	0.2541241
44	0x3e259fe1	0.1617427
45	0xbe7543ea	-0.23951688
46	0x3ffb7c9c	1.9647403
47	0xbe5bccd3	-0.21464853
48	0x3ac91a8b	0.0015342993
49	0x3f7b8343	0.98247164
50	0x3f764dc7	0.9621243
51	0x3eb9cc88	0.36288857
52	0x3e54de64	0.2078796
53	0xbe7920ee	-0.24328968
54	0x3e824138	0.25440383
55	0x3f90f088	1.1323404
56	0x3f355aa5	0.7084144
57	0xbede3244	-0.43397725
58	0x3eb168a9	0.34650162
59	0x3fa8e4ae	1.3194788
60	0xbe079278	-0.13239467
61	0xbe7bec53	-0.2460187
62	0x3f441432	0.76593316
63	0xbe2d1fc1	-0.16906644
64	0x3fe2d36a	1.7720768
65	0xbf3d7bf2	-0.7401725
66	0x3e7f006f	0.24902509
67	0x3f6ede70	0.9330816
68	0x402286aa	2.5394692
69	0x3f528f17	0.8224959
70	0x3ec1eb08	0.37874627
71	0x3f8ec428	1.1153612
72	0xbe6d2922	-0.23160222
73	0xbe3cfdad	-0.18456145
74	0x3c38790e	0.01125933
75	0x400d6d79	2.2098067
76	0x3ff05a8c	1.8777633
77	0x3e24aea6	0.16082248
78	0xbb28e398	-0.0025770422
79	0x3d9c44e9	0.07630331
80	0x3f529891	0.8226405
81	0x3fc173e0	1.5113487
82	0x3d91d010	0.07119763
83	0xbdf39b98	-0.118949115
84	0x3f91aa27	1.1380051
85	0x3f5db7ef	0.86608785
86	0x3fad76bc	1.355186
87	0x3f5367af	0.82580084
88	0xbbbf3656	-0.005835335
89	0x400010d4	2.001027
90	0x3e79bac2	0.24387649
91	0x3ff79674	1.934279
92	0x3d978983	0.07399275
93	0x3ee0b6c8	0.4388945
94	0xbe18f695	-0.14937814
95	0x3fda959a	1.7076905
96	0xbe033163	-0.12811808
97	0x3f95facb	1.1717161
98	0x3f8bdb7f	1.092636
99	0xbe686547	-0.22694884
100	0x3d84bce5	0.06481341
101	0x3f11e747	0.56993526
102	0x3eb16805	0.34649673
103	0x3ebedc41	0.37277415
104	0xbe45ecf6	-0.19328675
105	0x3ee9c1e5	0.45655742
106	0x402074d5	2.5071309
107	0x3f9cac3f	1.2240065
108	0x3e86aeca	0.26305228
109	0x3f895099	1.0727721
110	0x3ebf5c4e	0.3737511
111	0x3f996abf	1.1985701
112	0x3f831865	1.024182
113	0x3f92bc79	1.1463767
114	0x3fd7fbcc	1.6873717
115	0x3fbe025a	1.4844468
116	0x3dede600	0.11616135
117	0xbf410b24	-0.75407624
118	0x3f3e3104	0.7429354
119	0x3f1da218	0.6157546
120	0x3eb2c395	0.34914842
121	0xbf09e1c5	-0.5386012
122	0x3ea2f033	0.31823882
123	0xbe7252ec	-0.23664445
124	0x3f95fb87	1.1717385
125	0x3b1f0448	0.0024264026
126	0x3f2e17b1	0.680049
127	0x3fa71550	1.3053379

decoder_net.2.weight f4 [128, 128]
0	0x3e1c74b1	0.15278889
1	0x3de9cec6	0.11416392
2	0xbd0c21ef	-0.03421205
3	0xbeddd840	-0.43329048
4	0x3b35635c	0.002767763
5	0x3e1f13e4	0.15534931
6	0x3e32bc6c	0.1745469
7	0x3c9ba202	0.01899815
8	0xbec011d1	-0.37513593
9	0xbe8759b5	-0.2643563
10	0xbebda9b9	-0.3704355
11	0x3d5e01c0	0.054200888
12	0x3dcd9ecc	0.10040054
13	0x3e237820	0.15963793
14	0xbe77c74f	-0.24197124
15	0x3e020bc2	0.12699798
16	0x3de5edc3	0.1122699
17	0xbec96670	-0.39335966
18	0x3e032989	0.12808813
19	0x3e8943c7	0.26809523
20	0xbf240712	-0.6407329
21	0xbd608117	-0.05481061
22	0xbe4c38f1	-0.19943596
23	0x3e0b02dd	0.13575311
24	0xbef3657c	-0.47538364
25	0x3defc17c	0.11706826
26	0xbd100cca	-0.035168447
27	0x3d531bf4	0.05154033
28	0x3da5db96	0.08098523
29	0xbe81fb60	-0.25387096
30	0xba8e1a22	-0.0010841528
31	0x3e4a5ffe	0.1976318
32	0xbe04076b	-0.12893455
33	0xbd91d47e	-0.07120608
34	0xbdf44fae	-0.1192926
35	0xbe8cd9a6	-0.27509803
36	0x3ae8f12b	0.0017772069
37	0x3d74f531	0.059804145
38	0xbede700c	-0.4344486
39	0x3ba4f8d5	0.005034546
40	0xbe7bacab	-0.24577586
41	0x3d3b96c0	0.045798063
42	0x3e9b0ae0	0.30281734
43	0xbe501a08	-0.2032243
44	0xbea30903	-0.31842813
45	0xbe6f17bc	-0.23348898
46	0x3ee4671b	0.44609913
47	0x3c44c658	0.012010179
48	0xbf3f75de	-0.74789226
49	0xbf60ee2c	-0.8786342
50	0xbf692f99	-0.91088253
51	0xbe7f77dd	-0.24948068
52	0xbcb3814c	-0.02191224
53	0xbd7d47c3	-0.061836015
54	0xbefce9ac	-0.49397027
55	0x3c6ab02a	0.014324227
56	0x3ce6f305	0.028192053
57	0x3c90e70b	0.017688295
58	0xbbb56b30	-0.0055364594
59	0xbe7b1b73	-0.2452219
60	0xbdee4e64	-0.116360456
61	0x3cd914f6	0.026499253
62	0x3e29238e	0.1651747
63	0x3cfe75ae	0.031061973
64	0x3d974295	0.073857464
65	0x3d9cc3e6	0.07654552
66	0x3af4baae	0.0018671358
67	0x3dde29c7	0.10847812
68	0x3e6b1c6a	0.22960058
69	0xbe9cb4ec	-0.30606782
70	0xbca7e7a7	-0.020496203
71	0xbd6f0b5d	-0.058360446
72	0x3dd9977b	0.10624596
73	0xbf28f118	-0.6599288
74	0xbf26089c	-0.64856887
75	0x3e6917f3	0.22763042
76	0x3e7d5732	0.24740294
77	0x3dedc477	0.11609738
78	0xbeb082fc	-0.34474933
79	0xbe1e6fef	-0.15472387
80	0x3e0daa7c	0.13834566
81	0x3e490039	0.19628991
82	0x3d6f831f	0.058474656
83	0xbdbef659	-0.09324331
84	0x3d664da2	0.05622638
85	0xbc3c39c6	-0.011488384
86	0x3e070f34	0.13189393
87	0xbf259800	-0.6468506
88	0xbf1ab30b	-0.6042945
89	0x3e7f4262	0.24927667
90	0x3b85888a	0.0040751146
91	0x3e8dd995	0.27705064
92	0x3d888c01	0.066673286
93	0xbb8e5d46	-0.004344615
94	0x3e2da72f	0.16958307
95	0x3cfded28	0.030996874
96	0x3c7738e2	0.0150892455
97	0xbf74400c	-0.9541023
98	0xbe053d49	-0.1301166
99	0x3e022504	0.12709433
100	0xbda79c15	-0.08184067
101	0xbdc36133	-0.09540024
102	0x3bacc006	0.0052719144
103	0xbe265198	-0.16242063
104	0x3d5bf7f3	0.05370326
105	0x3d81014a	0.06299074
106	0x3e74c6d4	0.23903972
107	0x3d1d2509	0.038365398
108	0x3e021f74	0.12707311
109	0xbdd82911	-0.10554708
110	0x3dd896c0	0.10575628
111	0xbeaedabe	-0.34151262
112	0xbf3b9ed0	-0.73289204
113	0xbe932489	-0.28738812
114	0x3e1edfa8	0.15515006
115	0x3e0eb452	0.13935974
116	0xbead0840	-0.33795357
117	0xbd39143c	-0.045185313
118	0x3d5a5d6e	0.053311758
119	0x3c8d5d3e	0.017256375
120	0x3db2fe28	0.08739883
121	0xbd890dc1	-0.066920765
122	0xbde84105	-0.113405265
123	0x3dd0be43	0.101925395
124	0x3e22bc20	0.15892076
125	0xbf008e44	-0.5021708
126	0xbc94b690	-0.018153459
127	0x3e32037f	0.17384146
128	0x3dff40e1	0.124635465
129	0x3e6a66c1	0.2289076
130	0xbca79791	-0.020458015
131	0xbd8a8b85	-0.067648925
132	0x3ccbf902	0.02489901
133	0x3e40e8c9	0.188388
134	0x3e1569ea	0.14591184
135	0x3e16897b	0.14700882
136	0xbdf8b617	-0.12144106
137	0xbe9b0950	-0.30280542
138	0xbd33ddaf	-0.043912586
139	0x3e9a625e	0.30153173
140	0x3e0e424f	0.13892482
141	0x3e18a459	0.14906444
142	0x3cb71bd5	0.022352139
143	0x3e827b99	0.25484923
144	0x3e770f9b	0.24127047
145	0xbf1a375b	-0.60240716
146	0x3e5d4e27	0.21611844
147	0x3df2f1f7	0.118625574
148	0xbdd50fb7	-0.10403388
149	0xbe7fd35b	-0.2498297
150	0x3dda966a	0.106732205
151	0x3dc52c0f	0.09627544
152	0xbedd03fe	-0.43167108
153	0xbf006894	-0.50159574
154	0x3e8397d1	0.25701764
155	0x3e905a98	0.28194118
156	0xbd66d198	-0.056352228
157	0xbeb3e4b7	-0.35135433
158	0x3e81f7ed	0.25384465
159	0x3e228446	0.15870771
160	0x3e244a5e	0.16043994
161	0x3dc355f5	0.095378794
162	0x3df30306	0.11865811
163	0xbe850c8b	-0.25986132
164	0x3e2b8a01	0.16751863
165	0x3de79aee	0.11308847
166	0xbdd1bb61	-0.10240818
167	0x3e2516b5	0.16121943
168	0xbea3f7ef	-0.32025096
169	0x3e5e5930	0.2171371
170	0x3d167622	0.036733754
171	0xbea6a61c	-0.32548606
172	0xbed552ec	-0.41664827
173	0xbeb6f3cf	-0.35732886
174	0x3dd52a03	0.10408404
175	0xbecd1a26	-0.40059012
176	0xbe37c015	-0.17944367
177	0xbeb1d086	-0.34729403
178	0xbe8d2b4a	-0.2757209
179	0xbf28c61b	-0.65927285
180	0xbee09d2a	-0.43869907
181	0xbe72dbc2	-0.23716643
182	0xbe3b6ebd	-0.18303962
183	0xbd6b741e	-0.057483785
184	0x3e3784a4	0.17921692
185	0x3d9c9f0f	0.076475255
186	0x3e1a54ff	0.15071486
187	0xbcf672fa	-0.030084122
188	0xbe4cddd9	-0.20006503
189	0xbe447141	-0.19183828
190	0x3e548453	0.20753603
191	0xbed345c0	-0.41264153
192	0x3de31919	0.110887714
193	0x3e11833a	0.14210215
194	0xbeebacb9	-0.46030214
195	0xbe421d22	-0.18956426
196	0x3e13c466	0.14430389
197	0xbdc3e509	-0.09565169
198	0x3de10077	0.10986417
199	0x3d51350f	0.05107599
200	0x3d91fa49	0.07127816
201	0xbf38c3bd	-0.7217367
202	0xbe874f0a	-0.2642749
203	0x3e141c52	0.14463928
204	0x3dadb78b	0.08482274
205	0x3c86165a	0.01636808
206	0xbe977378	-0.29580283
207	0xbea53bbd	-0.3227214
208	0x3d132d8d	0.035932112
209	0x3e1af79a	0.15133515
210	0x3e835278	0.25648856
211	0xbee52b5d	-0.44759646
212	0x3e2573aa	0.16157404
213	0x3dd9edd4	0.10641065
214	0x3dd890fa	0.10574527
215	0xbeebd355	-0.4605967
216	0xbe63ae5e	-0.22234485
217	0x3db2c506	0.087289855
218	0xbc0bd51a	-0.008534694
219	0x3e6052a0	0.21906519
220	0x3e7f1bbe	0.24912927
221	0x3e76a96b	0.24088065
222	0xbf03696d	-0.5133274
223	0x3e037a7d	0.12839694
224	0xbe9966b8	-0.2996118
225	0xbf1cd7de	-0.6126689
226	0xbc3377b8	-0.010953836
227	0xbea068cd	-0.31329957
228	0xbee5848e	-0.44827694
229	0x3da595b5	0.08085195
230	0x3e39d982	0.18149379
231	0xbf6020e8	-0.8755021
232	0xbea7454e	-0.32670063
233	0xbdeec44a	-0.11658533
234	0x3ea599d5	0.32343927
235	0x3e902746	0.28154963
236	0x3cb6b288	0.022301927
237	0x3d63269a	0.055456735
238	0xbf015f6e	-0.5053624
239	0x3dc1736d	0.09445844
240	0xbe058207	-0.13037883
241	0xbb03c288	-0.0020104963
242	0x3e8085d3	0.251021
243	0x3e09b85a	0.13449231
244	0xbe370314	-0.17872268
245	0xbe14fb4f	-0.14548992
246	0x3d35e228	0.044405133
247	0x3e574183	0.21021084
248	0x3e49ad27	0.19694959
249	0xbe4bf601	-0.19918062
250	0xbf2919a1	-0.6605473
251	0x3a87f9a4	0.0010374081
252	0x3df055e9	0.11735136
253	0xbdc7f38e	-0.09763251
254	0x3d38782c	0.04503648
255	0xbd092161	-0.0334791

decoder_net.2.bias f4 [128]
0	0x3ee7fad4	0.45308554
1	0x3e236b9c	0.15959018
2	0x3f157c86	0.5839313
3	0x3e9e838a	0.3095973
4	0x3cd92ef1	0.026511641
5	0xbdd9ea42	-0.10640384
6	0x3e99b922	0.30024058
7	0x3f0e3948	0.55556154
8	0xbea71b3d	-0.3263797
9	0xbe3dddcc	-0.1854164
10	0xbd80ccc6	-0.062890574
11	0xbc953323	-0.01821286
12	0xbd44acf6	-0.04801651
13	0x3e376481	0.17909433
14	0xbc1cf99d	-0.009580997
15	0x3d520625	0.05127539
16	0x3e8e2601	0.2776337
17	0x3dd56690	0.10419953
18	0x3f20858e	0.6270379
19	0xbdc0e730	-0.094190955
20	0x3f259879	0.6468578
21	0x3c5b980c	0.01340295
22	0xbda62d3b	-0.08114096
23	0xbd95c3fb	-0.07312771
24	0x3f28b711	0.6590434
25	0xbee3e2d8	-0.44509006
26	0x3eae6019	0.34057692
27	0xbdf35847	-0.11882072
28	0x3cbd1dbc	0.023085468
29	0x3f16ce56	0.58908594
30	0xbeca8855	-0.39557138
31	0xbde2af30	-0.110685706
32	0xbe26e9cf	-0.16300128
33	0x3f02bf23	0.510729
34	0x3f0a4f3f	0.5402717
35	0x3c408a29	0.01175169
36	0xbdbf87f2	-0.093521014
37	0xbc023ed6	-0.007949552
38	0xbdec69ec	-0.115436405
39	0x3e17a93d	0.14810653
40	0x3f213d14	0.6298382
41	0xbc76665f	-0.015039056
42	0x3f0b732c	0.54472613
43	0x3efe72be	0.49696916
44	0x3de22ecf	0.11044084
45	0xbdfa0e5a	-0.122097686
46	0xbdb95d9a	-0.09051056
47	0xbe6a9207	-0.22907268
48	0xbd705213	-0.058672022
49	0x3cdda228	0.027054861
50	0xbeec09f2	-0.46101338
51	0x3e9cd9d9	0.30634955
52	0x3e227def	0.15868352
53	0xbcafc408	-0.02145578
54	0x3ec7b843	0.39007768
55	0x3ca49aa1	0.020093264
56	0x3e646799	0.22305144
57	0x3e8fe5d8	0.28105044
58	0x3e97950b	0.29605898
59	0x3f00b264	0.502722
60	0x3e8ecce9	0.2789071
61	0x3e5aca50	0.21366239
62	0x3ea260c3	0.31714448
63	0x3eb63cc0	0.35593224
64	0x3f003eed	0.5009602
65	0x3e295612	0.1653674
66	0x3ec58644	0.38579
67	0xbedca042	-0.43091017
68	0x3dd1706d	0.10226522
69	0xbf030141	-0.5117379
70	0x3cc896a9	0.024485903
71	0x3e773ef3	0.24145107
72	0x3d60b582	0.0548606
73	0xbeb37014	-0.35046446
74	0xbec1b9d3	-0.37837085
75	0x3b32feea	0.0027312585
76	0x3e555195	0.20831902
77	0x3f013c72	0.5048286
78	0x3ea3988f	0.3195233
79	0x3f1592a3	0.58426875
80	0xbd3a12c0	-0.045428038
81	0xbde139e0	-0.10997367
82	0x3ccfeb93	0.025380885
83	0x3d23c14c	0.039979264
84	0x3c6ca56b	0.014443736
85	0xbe1c62b4	-0.15272027
86	0xbe324a53	-0.17411165
87	0xbe929834	-0.28631747
88	0x3e73132c	0.23737782
89	0xbe75ba60	-0.23996878
90	0x3ea8abe8	0.32943654
91	0xbbb6ec0a	-0.0055823373
92	0x3eb1af78	0.34704185
93	0x3d913aee	0.07091318
94	0xbdb503ed	-0.088386394
95	0xbd3cd51d	-0.04610168
96	0x3e6e8791	0.23293902
97	0xbda0d3ea	-0.078529194
98	0x3e7b19b0	0.24521518
99	0xbb3fd32e	-0.002927016
100	0x3eb8da21	0.3610392
101	0x3dc39a93	0.09550967
102	0xbe4b5c2c	-0.1985938
103	0xbeb94ed8	-0.36192966
104	0x3e6bee89	0.23040213
105	0x3e8df365	0.27724758
106	0xbcbcde2c	-0.023055159
107	0x3ec63a17	0.38716194
108	0x3ec0a8f7	0.3762891
109	0x3eafbafe	0.3432235
110	0x3c40eb55	0.0117748575
111	0x3c68983f	0.014196455
112	0xbe6d4701	-0.23171617
113	0x3e0e4940	0.1389513
114	0x3d35e03c	0.0444033
115	0x3c229c83	0.009925011
116	0x3e91c3f6	0.2846982
117	0x3f7497a8	0.9554391
118	0x3c710677	0.014711014
119	0xbe55e22e	-0.20887062
120	0x3d834312	0.06409277
121	0x3ec0f00a	0.37683135
122	0x3da56a41	0.08076907
123	0x3e8fba91	0.28072026
124	0x3dc1ef5b	0.094694816
125	0xbec92b62	-0.3929091
126	0x3eb2f8a7	0.34955332
127	0xbc77817e	-0.015106557

decoder_net.4.weight f4 [50, 128]
0	0x3e6ec1ef	0.23316167
1	0x3e284430	0.16432261
2	0x3e9bf285	0.30458465
3	0xbebe5821	-0.37176612
4	0xbebcc9bf	-0.3687267
5	0x3d22cdf1	0.039747182
6	0x3e200a4e	0.15628931
7	0x3e5fe594	0.21864921
8	0xbe0a0ca4	-0.13481385
9	0xbe0c3617	-0.13692509
10	0x3d970606	0.07374196
11	0xbd719bd9	-0.05898652
12	0x3d9ff4b1	0.07810343
13	0xbe017257	-0.12641273
14	0x3e4550bf	0.19269083
15	0xbe18852d	-0.14894553
16	0xbd27b330	-0.04094237
17	0x3e9a63bc	0.30154216
18	0xbe94d1f0	-0.2906642
19	0x3d2ee610	0.042699873
20	0xbdc98563	-0.098398946
21	0x3e0b3fea	0.135986
22	0x3cde4209	0.027131097
23	0xbdc6af07	-0.097013526
24	0xbe36fc34	-0.17869645
25	0xbdfeab22	-0.12434985
26	0x3ea15f4b	0.31518015
27	0xbe18325e	-0.14862964
28	0x3e15d04d	0.14630242
29	0xbd9820d2	-0.07428135
30	0x3de20be8	0.11037427
31	0xbe127df2	-0.14305857
32	0xbdd66987	-0.104693465
33	0xbe7347c0	-0.23757839
34	0xbe0ef2f8	-0.13959873
35	0x3f596461	0.8491879
36	0xbd271127	-0.040787842
37	0x3e3a97fd	0.18222041
38	0xbdae4678	-0.085095346
39	0xbd45de18	-0.04830751
40	0xbd7249c0	-0.059152365
41	0xbd339935	-0.04384728
42	0xbee0b755	-0.4388987
43	0xbdc456c6	-0.09586863
44	0xbdd4bc6d	-0.10387502
45	0x3e4af489	0.19819845
46	0xbc4f976e	-0.012670381
47	0xbe437cfc	-0.19090647
48	0x3d12bcea	0.035824694
49	0xbd22b60b	-0.03972439
50	0xbe032912	-0.12808636
51	0xbe18b3d2	-0.14912346
52	0x3d0562c4	0.032564893
53	0x3d9ffb39	0.07811589
54	0xbd9ae1f7	-0.075626306
55	0xbd4eeed6	-0.05052074
56	0xbd9756c4	-0.07389596
57	0xbe397c0c	-0.18113726
58	0xbddee692	-0.108838215
59	0xbe62ac3c	-0.22136015
60	0x3de70c23	0.11281612
61	0x3e2363b7	0.15956007
62	0x3e73cfe2	0.2380977
63	0xbe31b54a	-0.17354313
64	0xbf2e3f47	-0.68065304
65	0xbdcce8f7	-0.10005372
66	0xbe4be19d	-0.19910283
67	0x3dd1a0d0	0.10235751
68	0xbe4c78a3	-0.19967894
69	0xbe362836	-0.17788777
70	0xbe47475d	-0.19460817
71	0x3eb6bd6a	0.35691386
72	0xbdc4b850	-0.09605467
73	0x3e28a301	0.16468431
74	0xbd8bae94	-0.068204075
75	0xbd304b94	-0.043040827
76	0x3e175593	0.14778738
77	0x3e5d395e	0.21603915
78	0xbe031583	-0.12801175
79	0x3cf737dd	0.030178005
80	0x3d489561	0.048970584
81	0x3cb61785	0.022228012
82	0xbda5a678	-0.08088392
83	0xbe084b0b	-0.13309877
84	0x3bd8a755	0.0066117444
85	0x3e397be3	0.18113665
86	0x3c85033f	0.0162369
87	0x3de6468e	0.11243926
88	0xbdf57ff2	-0.11987294
89	0x3df6cb7b	0.120505296
90	0xbea1d412	-0.3160711
91	0xbc8c653d	-0.017138118
92	0xbbe4ca98	-0.006982159
93	0xbd875794	-0.06608501
94	0xbe1663c1	-0.1468649
95	0xbd90bb67	-0.07066994
96	0xbe360882	-0.17776683
97	0xbd0af609	-0.033926044
98	0x3e0dd346	0.13850126
99	0x3d87365d	0.06602166
100	0xbe3f26e7	-0.18667184
101	0xbd476a52	-0.04868538
102	0x3d49ed0c	0.04929833
103	0xbe860b33	-0.2618042
104	0x3e1aed86	0.1512967
105	0x3e4131eb	0.18866698
106	0x3da58095	0.08081166
107	0xbe599ba0	-0.21250772
108	0xbe80963f	-0.2511463
109	0x3e258d8d	0.16167279
110	0x3c57143b	0.013127382
111	0xbe5570f4	-0.2084387
112	0x3e759a0f	0.2398455
113	0x3e22a10b	0.15881746
114	0x3bcd0cd7	0.006257634
115	0xbcecad08	-0.028891101
116	0x3e89845f	0.26858804
117	0xbe95ca9b	-0.29256138
118	0xbcd9054d	-0.026491785
119	0xbe4f119b	-0.2022156
120	0x3da258bf	0.07927083
121	0x3d9f4299	0.07776374
122	0xbdee966a	-0.11649783
123	0x3e988d35	0.29795232
124	0x3d1ee3fc	0.03879164
125	0x3effa93b	0.499338
126	0xbeb92668	-0.36162114
127	0x3cd8cc36	0.026464563
128	0xbe875ee0	-0.2643957
129	0xbe38e834	-0.18057328
130	0xbd81c310	-0.06336033
131	0xbebab86b	-0.36468825
132	0x3dac5141	0.084139355
133	0x3d5ecfaa	0.054397263
134	0x3eadc2e1	0.33937743
135	0xbd4bbb28	-0.049739033
136	0x3e106357	0.14100395
137	0xbdb8f543	-0.09031155
138	0x3c53a346	0.012917345
139	0xbd84ec93	-0.064904355
140	0x3d476854	0.04868348
141	0xbc364a5c	-0.011126127
142	0x3e1a906c	0.15094155
143	0x3d01f026	0.031723164
144	0xbdf03660	-0.11729121
145	0xbec020bb	-0.3752497
146	0x3e9eaee0	0.30992794
147	0xbdb2b3f2	-0.08725728
148	0x3e8e9601	0.2784882
149	0xbbf99423	-0.007616536
150	0x3e7bdd74	0.24596196
151	0xbd402a92	-0.0469156
152	0xbcc6d3cd	-0.024270916
153	0xbe8fe310	-0.28102922
154	0x3e10e886	0.141512
155	0x3e1ea6d4	0.15493327
156	0xbe69bdf5	-0.22826369
157	0x3e535490	0.20637727
158	0xbe9648ec	-0.2935251
159	0xbe5fde40	-0.21862125
160	0xbe355b88	-0.17710698
161	0xb9145736	-0.00014146868
162	0xbea298f9	-0.31757334
163	0x3dd9421c	0.106083125
164	0xbdcb61eb	-0.09930786
165	0xbe7b3b56	-0.24534354
166	0xbe312650	-0.17299771
167	0xbe85ac2b	-0.26107916
168	0x3e873782	0.26409537
169	0xbcf44d85	-0.02982212
170	0xbe0d5993	-0.13803701
171	0x3e0e39e2	0.13889268
172	0x3e4acaa1	0.1980386
173	0x3d486a7f	0.048929688
174	0xbd069a43	-0.03286196
175	0xbed165e3	-0.40898046
176	0xbe788de6	-0.2427288
177	0xbcb58c7a	-0.022161711
178	0x3e079a58	0.13242471
179	0x3e00a0da	0.1256136
180	0xbea14bdc	-0.3150319
181	0xbd63c376	-0.055606328
182	0xbe5b8ce3	-0.21440463
183	0xbd635b79	-0.055507157
184	0x3d9301fa	0.071781114
185	0x3de6df5a	0.1127307
186	0x3e41d639	0.18929376
187	0x3e11675c	0.14199585
188	0x3e72ac7e	0.23698613
189	0xbe3d90a1	-0.18512203
190	0xbec887d8	-0.3916614
191	0x3e8c0a44	0.27351582
192	0x3ed078ed	0.4071726
193	0x3def51b7	0.11685508
194	0xbeb269d8	-0.34846377
195	0xbe10f337	-0.14155279
196	0xbe6d1891	-0.23153903
197	0xbf1a54bd	-0.6028555
198	0xbe6887d8	-0.2270807
199	0xbe7533e2	-0.23945573
200	0xbe861a48	-0.26191926
201	0x3d604534	0.054753497
202	0xbdb8b10b	-0.09018143
203	0x3d525072	0.05134625
204	0xbde3ee2b	-0.11129411
205	0xbe31efdb	-0.17376654
206	0x3e99832f	0.29982898
207	0x3e9927a9	0.2991307
208	0x3c6b0be8	0.0143461
209	0x3d64672e	0.055762462
210	0xbeb5f484	-0.35538113
211	0x3e691292	0.2276099
212	0xbd889218	-0.0666849
213	0x3e2ae6c5	0.16689594
214	0x3e3f6dc7	0.1869422
215	0x3e51f542	0.20503715
216	0x3dfea72f	0.124342315
217	0xbe60f80e	-0.21969625
218	0xbdd9cc17	-0.1063463
219	0xbad24740	-0.0016042963
220	0x3eaadb67	0.33370516
221	0xbe7bcd9d	-0.24590154
222	0xbd9affe9	-0.07568342
223	0xbcb82cc4	-0.022482283
224	0x3e06de0f	0.13170646
225	0x3d59093f	0.052987333
226	0x3e8f04e6	0.27933425
227	0xbcb00a28	-0.021489218
228	0x3cdf0f25	0.027228901
229	0xbe587d46	-0.21141538
230	0xbcbe7823	-0.023250645
231	0xbe6bf4a7	-0.23042546
232	0x3e03d9d5	0.12876065
233	0xbe3ae6fe	-0.18252179
234	0x3c2a4495	0.010392328
235	0xbcd063e7	-0.025438262
236	0xbe76e110	-0.24109292
237	0xbed453b0	-0.41470098
238	0xbea75036	-0.32678384
239	0xbe07620d	-0.13220997
240	0x3e8eb548	0.27872682
241	0x3eb279f3	0.34858665
242	0xbc23d3a0	-0.009999186
243	0xbddd9bcc	-0.108207315
244	0xbdf3dfb4	-0.11907902
245	0xba4ebea5	-0.00078866846
246	0x3d8f03e8	0.06983167
247	0x3edcd2a1	0.43129447
248	0xbe0bac6a	-0.1363999
249	0xbd25fd38	-0.04052469
250	0x3ce14fd2	0.027503882
251	0xbe4069ef	-0.1879041
252	0x3e88ee4e	0.26744312
253	0x3da7df9d	0.08196948
254	0x3e9b24bb	0.3030146
255	0xbd13991b	-0.036034685

decoder_net.4.bias f4 [50]
0	0xbecb4c7f	-0.397068
1	0x3ea10b26	0.31453818
2	0x3eaa00e2	0.332038
3	0xbe26ea8c	-0.1630041
4	0x3e56f4b0	0.20991778
5	0xbe65199f	-0.22373055
6	0x3e8dae65	0.27672115
7	0xbdace63f	-0.084423535
8	0xbe50ea82	-0.20401958
9	0x3e6992bc	0.22809881
10	0xbe1a91b1	-0.1509464
11	0xbecfa687	-0.40556738
12	0xbdf6e09d	-0.1205456
13	0xbd6a1c1a	-0.057155706
14	0x3f188718	0.59581137
15	0xbe8f41d5	-0.27979913
16	0xbe784eea	-0.24248853
17	0xbdc1d087	-0.094636016
18	0xbee7ccdd	-0.45273486
19	0xbe72bdd3	-0.23705225
20	0xbf21f694	-0.63266873
21	0x3dd161e7	0.102237515
22	0x3de8829c	0.11353037
23	0xbe7398ae	-0.23788711
24	0xbc7b9ac3	-0.015356722
25	0x3e2e5ac2	0.17026809
26	0x3d11da24	0.035608426
27	0xbdb3b97d	-0.087756135
28	0xbd90d124	-0.070711404
29	0xbd7b29de	-0.061319225
30	0xbd0a8731	-0.033820335
31	0x3daf6859	0.085648246
32	0x3d7aa66e	0.061193876
33	0x3ba9f332	0.005186462
34	0xbc61473d	-0.013749895
35	0xbe296eb2	-0.16546133
36	0x3c015207	0.007893092
37	0xbe049a8c	-0.1294958
38	0x3b896614	0.004193077
39	0x3d4a26d0	0.04935342
40	0x3d0ee360	0.03488481
41	0x3e6110da	0.21979085
42	0x3d2a3c87	0.04156163
43	0xbe026c50	-0.1273663
44	0xbd90f48c	-0.070778936
45	0x3d35d83b	0.044395667
46	0x3d5af08e	0.053452067
47	0x3d620989	0.055184875
48	0x3de27247	0.11056953
49	0xbcdcf958	-0.026974365
