experiment/decoder_3_seed123.pt (torch, 96498 bytes, 6 tensors)

decoder_net.0.weight f4 [128, 2]
000000 15 75 ad 3e 7d 99 d8 bf 3c 12 c1 3f 73 74 31 bf
       0.3387839 -1.6921841 1.508369 -0.6931831
000010 19 72 9e 3f d6 1f 07 be 8d 7b 9d bf 59 bc 28 bf
       1.237857 -0.13195738 -1.230333 -0.65912396
000020 6b 26 b8 3f 30 a4 66 bd 62 12 a8 3f 3c e8 33 bf
       1.4386724 -0.056308925 1.313061 -0.70276237
000030 20 6c 81 3f 9d 66 d5 bc 61 ef a2 3f 49 b7 a8 bf
       1.0111122 -0.026049906 1.2729303 -1.3180934
000040 52 02 c0 bf 2e 77 3f bf e1 55 99 bf bd 76 7e 3f
       -1.5000708 -0.7479123 -1.1979333 0.9939993
000050 ea 1c bd bf cc 4e 41 bf 84 ce 3c 3f e1 be 7a 3f
       -1.4774449 -0.7551086 0.7375262 0.9794751
000060 12 87 96 3f db f1 65 bd 66 d2 80 3f 6e 17 a4 3e
       1.175997 -0.056138854 1.0064209 0.32049125
000070 3c cd a7 bf fd 3e 83 bf 7d b2 b2 3f 6f 15 2a bf
       -1.3109508 -1.0253597 1.396072 -0.66438955
000080 33 70 87 3f 45 4a 38 bf 7b ef 95 bf 04 2d 24 3f
       1.0581115 -0.71988326 -1.1713709 0.6413119
000090 15 ac 82 3f e8 a8 b5 3c f0 c6 1b 3f be 87 d1 bf
       1.0208765 0.022175267 0.6085043 -1.636955
0000a0 72 e8 97 bf 6d 86 14 bf 24 98 16 bf 35 ae c2 3f
       -1.1867812 -0.5801762 -0.588259 1.5209414
0000b0 42 a3 7c bf f5 0f c7 bf 7a f0 32 3e e0 96 bf 3f
       -0.9868661 -1.5551745 0.17474547 1.4967918
0000c0 da d4 89 bf 71 44 3f 3f 78 6c 00 bf 01 6c 8f 3f
       -1.0768082 0.7471381 -0.5016551 1.1204835
0000d0 fc 1f 92 3f 26 87 9a bf 27 52 a9 3f 4a 24 fb be
       1.1416011 -1.2072494 1.3228196 -0.49051124
0000e0 87 1c ab 3f 31 87 83 be 31 99 92 bf 37 c9 95 3f
       1.3368081 -0.2568908 -1.1453 1.1702031
0000f0 df 00 9a 3f 58 7a a3 bf ef 5e ab 3e 6a e3 d5 bf
       1.2031516 -1.2771711 0.33470866 -1.6710026
000100 84 ff 28 bf 5e cf 9c bf 39 61 b3 3e d9 aa bd bf
       -0.66014886 -1.2250783 0.35035113 -1.4817764
000110 3f cd ec be b0 13 af bf 32 1a 9e bf 4d 3e 7c 3f
       -0.4625034 -1.3677883 -1.2351744 0.98532563
000120 4e b3 9d 3f 9f 67 90 bd ff b7 4c 3f 6d a4 c0 3f
       1.2320344 -0.07051014 0.79968256 1.5050179
000130 18 cd a7 bf 92 16 73 be 4b 1c 57 3f 70 bc a1 bf
       -1.3109465 -0.23739079 0.84027547 -1.2635632
000140 35 9f 5f bf b3 66 63 3f 64 a9 ae 3f 7b 0b 08 3f
       -0.87352306 0.8882858 1.3645444 0.5314252
000150 64 8c 16 bf 10 b9 c6 bf 62 fb 96 bf 1d 4d 9d 3f
       -0.5880797 -1.5525227 -1.1795466 1.2289158
000160 a4 4e bc bf f1 f6 90 3f 76 63 86 bf 71 32 8b 3f
       -1.4711499 1.132536 -1.0499103 1.0874768
000170 83 d8 74 be 95 14 aa bf 74 6b 3a bf 3c 13 cf 3f
       -0.23910718 -1.3287531 -0.7282021 1.6177745
000180 be 2c 8c bf 47 65 08 bf 15 07 97 bf 3b c0 bd 3e
       -1.0951154 -0.53279537 -1.1799036 0.37060723
000190 1b 4b af bf a9 0f 4b be 7d 55 9b bf be bd 73 3d
       -1.3694795 -0.19830193 -1.2135464 0.059507124
0001a0 1a a4 6a bf 5b 32 a7 3f 73 03 87 bf f1 8f 8b 3e
       -0.9165665 1.3062242 -1.0547928 0.27258256
0001b0 a6 50 ac bf 5d 94 d9 be 1c 8a 5b bf ac bc b8 3f
       -1.3462112 -0.42496005 -0.85757613 1.4432578
0001c0 e4 cd 95 3f 94 ed 53 3f 1f aa 71 3f 01 55 bf bf
       1.1703458 0.8278439 0.9440021 -1.4947816
0001d0 58 85 9c 3f 5d dd bf bd 1b 4c a3 bf 10 45 82 bf
       1.2228193 -0.093683936 -1.27576 -1.0177326
0001e0 71 69 50 bf a7 4c e2 3e 51 db 84 bf 93 6c 3f 3d
       -0.8141089 0.44199106 -1.037943 0.046734404
0001f0 1e cf af 3f 5f d6 57 bf 17 14 31 bf 57 13 c6 3f
       1.3735082 -0.8431148 -0.6917128 1.5474652
000200 2c 06 a4 3f 90 30 9b 3f 0e 1a 67 3f 58 5b ba 3f
       1.2814384 1.2124195 0.9027413 1.4559126
000210 18 8e 56 bf fc 9f c0 3f de 5b 57 bf dc 99 3b 3f
       -0.8381057 1.5048823 -0.84124553 0.73281646
000220 41 52 d1 3e 24 8d 92 bf 65 85 72 bf dc 92 92 bf
       0.40883067 -1.1449323 -0.94734794 -1.1451068
000230 5e b2 d4 3f 93 86 3d 3f 85 18 24 bf 42 ee 97 bf
       1.6616933 0.7403347 -0.64099914 -1.1869586
000240 fc d8 b5 3f cb 14 4f bf 59 58 5b bf 59 42 5c 3f
       1.4206843 -0.808911 -0.8568168 0.8603874
000250 6a 2f a0 bf 1c 74 0b be 5d 0d 14 3f e9 5e 37 bf
       -1.251447 -0.13618511 0.5783289 -0.71629196
000260 5e c0 bf 3e 35 52 d4 3f ab fb bd 3f 20 5f e7 bd
       0.37451452 1.6587588 1.4842428 -0.112974405
000270 aa 61 83 bf 20 df 75 3f 8a ae 52 bf 1c 65 8d 3f
       -1.026418 0.96043587 -0.82297575 1.1046481
000280 4b ea 83 3f 28 65 e0 bb ae 49 19 bf 1b 6e bd bf
       1.0305876 -0.0068479963 -0.5987805 -1.4799227
000290 2d 72 a5 3f 0e 68 ae bf 7f 0a b5 bf ad 1b 52 3d
       1.2925469 -1.3625505 -1.4143828 0.051295925
0002a0 e1 2b 9b 3f 5d 18 8e 3f dd 0d 86 3f 0f 3a bc 3f
       1.2122766 1.1101185 1.0472981 1.4705218
0002b0 87 2d 9f 3f d4 32 21 3f f7 62 b2 bf 76 79 8d 3e
       1.2435769 0.6296818 -1.3936452 0.2763173
0002c0 02 21 89 bf a6 c7 08 bf 89 2b ba be a6 08 b9 bf
       -1.0713198 -0.5342964 -0.3636134 -1.4455764
0002d0 73 9b 9a 3f 41 00 dc bd b3 a8 cd 3e e1 aa ac 3f
       1.2078689 -0.10742236 0.4016777 1.3489648
0002e0 50 70 9f 3f 49 e3 a7 bf 42 56 a8 3f 96 a0 16 3f
       1.245615 -1.3116237 1.3151324 0.58838785
0002f0 78 c7 26 bf 12 2d c0 3f a2 9f 23 3f 53 37 cb 3f
       -0.65148115 1.5013754 0.63915455 1.5876259
000300 e1 6c 1e bf 93 0f b9 3f 29 35 c0 bf 02 84 b8 3e
       -0.61884886 1.4457878 -1.5016223 0.36038214
000310 6e d2 5b bf 15 d9 a3 bf a9 50 33 bf fa 87 cc 3f
       -0.85867965 -1.2800623 -0.7004495 1.5978997
000320 63 85 b0 bf 63 e0 6b 3d 20 ff 55 be ec 70 d5 bf
       -1.3790706 0.05758704 -0.20898104 -1.6675086
000330 e6 00 a9 3f 66 b8 73 3f 17 96 bc bf fb 08 be 3e
       1.3203399 0.95203245 -1.4733304 0.37116227
000340 e1 67 14 bf 6f 40 a5 3f fe 90 c6 bd 11 c7 b2 3f
       -0.57971007 1.2910289 -0.09695624 1.3967
000350 8e 85 11 3f 4e ab 48 bf 3c 9c 50 3f 5d 8a 6f 3f
       0.56844413 -0.7838639 0.81488395 0.935705
000360 92 f1 a2 3f 5d d4 9d 3d 60 61 4d bf 32 2b b2 bf
       1.2729971 0.07706521 -0.8022671 -1.3919432
000370 38 70 41 bf 70 7a 90 3f 1f df 93 bf 42 b1 28 bf
       -0.7556186 1.1287365 -1.1552466 -0.65895474
000380 13 5a c6 bf f0 fa 82 be d1 03 90 bf 8e 49 5c bf
       -1.5496238 -0.25582075 -1.1251165 -0.86049736
000390 33 ad 2c 3f 51 1d c6 3f d0 26 8d 3f 2d de 05 3e
       0.6745178 1.5477697 1.102747 0.13073035
0003a0 88 02 b0 bf 95 cf 42 bf af a4 8f bf a3 43 4e 3f
       -1.3750772 -0.76097995 -1.1222132 0.80571955
0003b0 e7 66 58 bf ac d9 92 bf 1a 8e 8d 3f 90 46 a7 bf
       -0.84532017 -1.1472678 1.1058991 -1.3068409
0003c0 cf 7a a6 3f 18 87 ac bf 8e 51 5d bf 5f 7d 5d 3f
       1.3006228 -1.3478727 -0.8645257 0.86519426
0003d0 c8 a1 9e bf ac d0 e4 3d 9d 4b c4 3e 88 d1 dc bf
       -1.2393122 0.111726135 0.38338938 -1.7251444
0003e0 92 be 90 3f 54 e4 c5 3e e7 45 be bf 45 91 3b bf
       1.1308157 0.38650763 -1.4865083 -0.7326854
0003f0 1d 16 a1 3f ed 6c e7 3e 19 f8 53 be 2e f3 ce bf
       1.2584873 0.4520029 -0.2070011 -1.6167963

decoder_net.0.bias f4 [128]
000000 c3 d2 38 3f 11 3d d6 3f a1 09 cb 3e b6 d5 e6 3d
       0.72196597 1.6737386 0.39655784 0.11271231
000010 11 d7 22 3f 84 4c 7c 3f bc a8 88 3f bc 2e 12 3e
       0.63609415 0.98554254 1.0676494 0.1427564
000020 81 51 e0 3c 83 98 20 3c 4f 87 ed 3d 10 75 80 3f
       0.027382614 0.009801987 0.11598074 1.0035725
000030 e0 a2 1e 3f 81 5e 14 40 88 4d b4 3f 3f 42 ee 3f
       0.6196728 2.318268 1.4086161 1.8613967
000040 18 c7 72 3f e2 ba cf 3e 9c 1e c3 3f 89 27 a8 bd
       0.9483504 0.40572268 1.5243716 -0.08210666
000050 a9 d7 85 bc 41 3a 44 bb 9c 2f ad 3f 65 ae 00 40
       -0.016338186 -0.0029941949 1.3530154 2.0106442
000060 31 a7 32 3e 73 b1 36 be ba 07 07 3e 90 75 6e 3e
       0.17446591 -0.17841129 0.13186541 0.23287034
000070 f0 32 04 bd 7a 27 8b be ea 3f a7 3d bb 49 5e 3f
       -0.03227514 -0.27178556 0.081664875 0.86831254
000080 e6 26 90 3f e2 b3 c0 be 75 a4 85 3f 6d 50 7d 3d
       1.1261871 -0.3763724 1.0440813 0.061844278
000090 33 09 f3 3e 7d 2c d3 3f b5 c4 43 3f 7f 1f a3 be
       0.47467956 1.6497952 0.76472026 -0.31859967
0000a0 9d f1 5a be b0 0e d0 3e 1a 92 eb 3f 42 03 36 3e
       -0.2138123 0.40636206 1.8403962 0.1777468
0000b0 d9 54 f5 3d d4 e5 61 be 3d e3 dd 3f 71 10 7c be
       0.11979074 -0.22060329 1.7334973 -0.24615647
0000c0 35 7e a7 bb a0 e8 51 3f 10 71 a0 3f 04 34 0b be
       -0.0051114806 0.8199558 1.2534504 -0.13594061
0000d0 89 fc 10 3e 4e c5 32 bf 6d 5c b1 3f b1 e2 ca 3e
       0.14158835 -0.69832313 1.3856331 0.39626077
0000e0 4c a6 3d 3f cc 40 e5 be 1c 95 b3 3e bb 3c bb 3f
       0.74081874 -0.44776 0.350747 1.4627908
0000f0 f0 ab 95 3e 54 2b 46 be e3 24 53 3f b9 84 69 be
       0.2923274 -0.19352466 0.8247816 -0.22804536
000100 1d 26 eb 3f 9f 26 29 bf cb 3c 6b 3e f7 b2 7b 3f
       1.8371006 -0.66074556 0.2297241 0.98319954
000110 63 29 36 40 54 4c fd 3e 04 22 b7 3e 0a 60 8b 3f
       2.846276 0.49472296 0.3576814 1.0888684
000120 c3 38 fc be c4 cd 4b be c9 25 55 3f 4d a5 13 40
       -0.49262056 -0.19902712 0.8326078 2.3069642
000130 bc da dc 3f 81 9d 9d 3e d9 0c 05 be 69 56 85 3d
       1.7254252 0.30784228 -0.12993182 0.06510622
000140 38 2e f9 3e 40 d3 db 3f 5f d9 20 3e ae 95 91 be
       0.48668075 1.7173843 0.1570792 -0.2843451
000150 0e 37 a4 3f fc 71 2f bf 58 7a 87 3f 9f 2a 7f 3f
       1.2829301 -0.685333 1.0584211 0.9967441
000160 f3 93 38 3d d6 60 02 40 2e 7a bd 3e c1 7a d6 3f
       0.04506297 2.0371604 0.37007278 1.6756212
000170 dd 05 04 3e 14 b7 a8 3e d3 54 6f be 12 54 c9 3f
       0.12892862 0.32952178 -0.23372202 1.5728781
000180 b5 d4 08 be 3d e3 92 3f 3f d0 75 3f 08 cb 38 be
       -0.13362391 1.1475598 0.96020883 -0.180462
000190 b5 02 53 be f1 c8 0e 3f b3 85 f5 3d 5b 7e 03 3f
       -0.20606501 0.5577536 0.11988392 0.5136468
0001a0 b9 18 56 be 1a 60 80 bd 8b 3b 28 40 b6 c7 70 3f
       -0.20907868 -0.0626833 2.6286342 0.94054735
0001b0 e6 cf d4 3d 8c 44 9a 3f 97 00 1b 3e f7 9b b1 3f
       0.10391216 1.2052169 0.15136944 1.3875722
0001c0 80 5b ab 3f c5 e9 94 3f 36 3b d9 3f 43 d2 c0 3f
       1.3387299 1.1633841 1.6971195 1.5064167
0001d0 60 2b 72 3e cb b9 34 bf 0c 5a 31 3f 33 5a d5 3e
       0.23649359 -0.70596 0.69278026 0.4167038
0001e0 3b 45 3b 3e 3c e6 50 be 45 1d 80 3d a1 51 d5 be
       0.18288128 -0.20400327 0.06255583 -0.4166384
0001f0 7b e1 2b 3f a7 8a ac 3c 2b 43 3f 3f 7d 11 13 3f
       0.6714093 0.021062208 0.74711865 0.5744856

decoder_net.2.weight f4 [128, 128]
000000 8f ae 5f 3e 60 83 1d 3e b3 8e 54 bb bd 47 ed be
       0.21843933 0.15382147 -0.0032433688 -0.46343794
000010 a8 c3 18 3c 2f 1b 44 3e f1 84 48 3e 50 7d b5 3c
       0.009323992 0.19150995 0.19581963 0.02215448
000020 36 72 ed be 20 d9 e0 be ae 0b d3 be 58 09 cf 3c
       -0.463762 -0.43915653 -0.41219848 0.02527301
000030 cb f0 dd 3d 69 50 4b 3e c1 61 43 be 38 3e 33 3e
       0.10836943 0.19854893 -0.19080259 0.17504203
000040 55 77 0e 3e 29 3f fc be c3 81 24 3e 88 5c 59 3e
       0.13912709 -0.49266937 0.16065125 0.21226704
000050 d5 73 3d bf 8d 18 24 3e ea 41 f6 bd 76 81 2e 3e
       -0.7400487 0.1602499 -0.12024291 0.17041573
000060 a3 65 09 bf 12 85 04 3e 87 69 fc bc 0f 10 70 3d
       -0.5367071 0.12941387 -0.030812038 0.058609065
000070 53 da 9e 3d 75 03 a5 be b2 dc 13 3c 0f 10 89 3e
       0.07756486 -0.322292 0.009024786 0.26770064
000080 1c 79 ba bd 90 35 20 be 52 f3 12 be 0f 12 ab be
       -0.09105131 -0.15645432 -0.14350632 -0.33412215
000090 99 26 cf 3b 64 e9 37 3d da 7c 05 bf 2a 07 0a 3d
       0.00632174 0.044900313 -0.52143633 0.03369824
0000a0 d0 6e a1 be 33 1c 9a 3b 29 3a 8b 3e 70 ed 82 be
       -0.31529856 0.0047030686 0.2719281 -0.25571775
0000b0 7b 9b c0 be fb 43 97 be aa 2d d8 3e 60 b3 09 3d
       -0.37618622 -0.29544052 0.4222234 0.03361833
0000c0 ea 80 6e bf 28 62 35 bf 48 1b 83 bf 98 67 76 be
       -0.9316546 -0.708529 -1.02427 -0.24062955
0000d0 8b c0 af bd 1e 1f c7 bd 57 07 4c bf fb 55 20 3e
       -0.085816465 -0.09722732 -0.796987 0.15657799
0000e0 83 de 37 3c c8 6c db 3c 86 df 3c 3b 3a 89 7c be
       0.0112224845 0.02678527 0.0028819754 -0.24661723
0000f0 8b 38 15 bf 09 e5 84 bc 6d 47 3d 3e a3 09 50 3d
       -0.582894 -0.016222494 0.18484278 0.05079044
000100 b2 36 b9 3d 2f 03 7e bb 62 9b f4 3d 6f 69 4d 3e
       0.090436354 -0.0038759222 0.119436994 0.20059751
000110 0d 51 b4 3e e5 63 85 be 4d 99 35 bd 03 54 c1 bb
       0.35218087 -0.26052776 -0.044335652 -0.0058999076
000120 98 25 88 3d 57 c9 51 bf 2c 5e 4f bf c3 67 ab 3e
       0.066477954 -0.81947845 -0.8100307 0.334776
000130 6a 10 6e 3e 6e e5 f3 3d e5 e2 d0 be b3 83 63 be
       0.23248449 0.119089946 -0.40798107 -0.22218208
000140 43 3a 09 3e 72 26 95 3e 1a 93 7a 3d 80 cb 01 be
       0.13401131 0.29130894 0.061175443 -0.12675285
000150 19 f4 26 3d 4b 7f 9a bd 5d 5f 0e 3e 21 9c 61 bf
       0.040760133 -0.075438105 0.13903566 -0.8812886
000160 e3 47 2a bf 34 f1 15 3f da 2b 5f 3c 32 26 6a 3e
       -0.6651594 0.5857117 0.013621295 0.22866133
000170 ea df 9e 3d 51 fa 05 bd 07 c6 3d 3e 2d 5e 0f 3d
       0.07757552 -0.032709423 0.18532573 0.035001922
000180 32 23 77 3d 04 5c 5e bf 63 18 9b bd 44 dd 27 3e
       0.0603363 -0.86859155 -0.07573011 0.16393
000190 4f bd f4 bd 42 a5 01 be e1 7a e1 bc a2 d1 b7 bd
       -0.1195017 -0.12660697 -0.027524414 -0.08975531
0001a0 08 87 8d 3d a8 18 0e bd 1c 35 b1 3e 69 68 65 3c
       0.06910521 -0.034691483 0.34610832 0.014001944
0001b0 b3 a2 f0 3d 99 04 e1 bd 2b a2 04 3e ca cb 96 be
       0.117497824 -0.10987205 0.12952487 -0.29452354
0001c0 3e b4 51 bf 7e d4 73 be 41 05 22 3e 0b ec 2a 3e
       -0.8191565 -0.23811528 0.15822317 0.16691606
0001d0 a2 1e c3 be 67 81 2e bd 1e 69 0d bc 3c fd 7e 3c
       -0.38109308 -0.042603876 -0.008631019 0.0155633055
0001e0 af 4d be 3d 08 73 49 bf 8c 28 08 bc 50 bc 04 3d
       0.09292161 -0.7869115 -0.008310448 0.03240615
0001f0 d8 83 23 3e fe 2c 1a bf 2a a7 08 3b 06 33 92 bb
       0.15968263 -0.602249 0.002085159 -0.004461649
000200 9e b5 12 3d 35 ee 4a 3e 83 80 0b 3d 35 31 24 bd
       0.035817735 0.19817431 0.034058105 -0.04008599
000210 76 13 c6 3c ba 4a 15 3e a2 9e 03 3e 8d 88 1e 3e
       0.024179202 0.14579287 0.12853482 0.15481777
000220 86 25 c8 bd b2 84 4a be 94 2e 52 bc 3d ce 62 3e
       -0.09772782 -0.19777182 -0.012828488 0.22148986
000230 eb cd 0d 3e ca 67 dc 3d 72 c5 20 3d 7e fd 62 3e
       0.13848083 0.10761984 0.0392508 0.22167012
000240 6e ab 3c 3e 40 a0 cb be a3 24 51 3e e9 fd cf 3d
       0.1842477 -0.397707 0.20424132 0.101558514
000250 fb ff 5e bd 41 4d ad be 44 79 ff 3d a0 f5 f0 3c
       -0.05444334 -0.33848003 0.124743015 0.029413998
000260 cc ea 8f be 80 29 de be 3d 9e 82 3e 15 2b 81 3e
       -0.28108823 -0.43391037 0.2551135 0.2522818
000270 88 92 61 3c 0b ad 53 be 69 9d 70 3e a3 89 50 3d
       0.013767846 -0.2067148 0.23497547 0.05091251
000280 37 27 3a 3e 61 3c 56 3e a8 57 3a 3e 18 20 1e be
       0.18179022 0.2092147 0.181975 -0.1544193
000290 bc 97 29 3e 12 5d c0 3d d6 58 93 bd 29 6e f5 3d
       0.16561788 0.09392752 -0.071946785 0.11983902
0002a0 51 b0 59 be ad c9 6b 3e 4e 33 37 3c ec 2f 74 be
       -0.21258666 0.23026152 0.011181666 -0.23846406
0002b0 ae 1e 96 be ad af 7c be fa 7a 5d 3c c3 c8 b7 be
       -0.29320282 -0.2467639 0.013518089 -0.35895357
0002c0 4a c9 e0 bd c7 d3 82 be d3 8f 8d be 1d cd 28 bf
       -0.10975893 -0.25552198 -0.27648792 -0.6593798
0002d0 a7 eb aa be 44 2f 12 be c9 9d 11 be 64 0e b1 be
       -0.33382913 -0.14275843 -0.14220347 -0.34581292
0002e0 f6 1a 3a 3e 4d 84 33 3d d8 cd 29 3e d6 04 6e bc
       0.18174347 0.043827344 0.1658243 -0.01452752
0002f0 13 72 d4 be 14 2b 88 bf 5f 30 42 3e cc 43 b9 be
       -0.41493282 -1.0638146 0.18963765 -0.36184537
000300 d4 15 8d 3d 8f dc 7a 3e 35 f2 d3 be 5f df 6d be
       0.06888929 0.24498199 -0.41395727 -0.2322974
000310 a6 7d 3d 3d 5e f6 16 b9 5b 67 00 3e 0f 4a 47 3d
       0.046262406 -0.00014396894 0.12539427 0.048654612
000320 ae 4e 3f 3e 30 c4 00 bf 32 19 72 be 2e 8b 94 3d
       0.18682358 -0.5029936 -0.23642424 0.07253109
000330 51 bf 0d 3e 55 2d de 3c 9b a6 3f be be 14 58 be
       0.13842513 0.027121225 -0.18715899 -0.21101663
000340 15 6b 37 3d a3 4a e7 3d 4a 22 88 3e 9c d4 d7 be
       0.044779856 0.11293533 0.2658866 -0.42154396
000350 46 04 1e 3e 04 5f 0e 3e 48 28 86 3d cb ad b0 be
       0.15431318 0.13903433 0.06550652 -0.34507594
000360 e3 6f 3c be 98 36 6e bc 31 e1 23 3d c9 68 5b 3e
       -0.18402056 -0.014539383 0.04000968 0.21426691
000370 ff 67 6f 3e bb 12 80 3e 18 fe dc be 1a 74 d7 3d
       0.23379515 0.2501429 -0.43162608 0.105201915
000380 db 8b 8d be d0 56 10 bf f5 fb 94 3c 93 ea 8f be
       -0.27645764 -0.56382465 0.018186549 -0.28108653
000390 18 b3 e8 be 45 ee f7 3d 54 c4 4d 3e 02 48 35 bf
       -0.45449138 0.12105993 0.20094424 -0.70813
0003a0 09 99 8b be 1e 76 5f bd a1 e9 71 3e 8d 2b 74 3e
       -0.27265194 -0.054556005 0.23624279 0.23844738
0003b0 e9 ba 61 3d 75 97 c4 3d e5 2d 0b bf 5c cb b2 3d
       0.055109892 0.09599201 -0.54366904 0.08730194
0003c0 6b ad e6 bd 38 f0 65 bc 31 65 5c 3e 1e 4e 02 3e
       -0.112635456 -0.014034323 0.21522976 0.12725112
0003d0 8b 1a 27 be 4c d2 ea bd e7 40 03 3e 72 df 41 3e
       -0.16318719 -0.11465892 0.12817727 0.18932894
0003e0 33 76 4d 3e c6 ed 12 bf c2 e6 2c bf 7e 52 80 3d
       0.2006462 -0.57394063 -0.6753961 0.06265734
0003f0 10 16 a3 3d fd 73 85 bd 2e 99 0a 3d 4a 59 04 bd
       0.079631925 -0.06516264 0.03383749 -0.032311715

decoder_net.2.bias f4 [128]
000000 5d b8 10 3f a3 be 9f 3c a7 ac 21 3f 4e 6d fd 3e
       0.56531316 0.019500082 0.6315407 0.49497455
000010 2c c9 81 be 3c b5 cc bd 82 26 8b 3e bd 1b f7 3e
       -0.25348794 -0.09995505 0.27177817 0.4826335
000020 6e 61 93 be 81 07 98 be c6 cc 80 bd 03 d2 96 bc
       -0.2878527 -0.29693225 -0.062890574 -0.018410688
000030 82 20 02 3a 69 8c 60 bd 2a 2b cc bd b9 e3 8a 3d
       0.00049639505 -0.054821406 -0.099691704 0.06781716
000040 28 93 b1 3e 74 f1 f5 3d a2 60 27 3f 3e 87 86 be
       0.34682584 0.12008944 0.65381825 -0.26275057
000050 a7 eb a1 3e 3a 40 99 3d 1a 9b aa be 56 25 fc 3e
       0.316251 0.07482953 -0.33321458 0.49247235
000060 cb da 00 3f e0 f7 02 bf b9 15 cd 3e 9d dd b9 bd
       0.5033385 -0.5115948 0.40055636 -0.090754725
000070 0f 02 e0 be 72 f9 12 3f 0e ec e4 be 0d bf a5 bd
       -0.4375157 0.57411873 -0.44711345 -0.08093081
000080 81 a0 4c be a8 fe e8 3e bd 56 08 3f cb cc 93 3d
       -0.19983102 0.45506787 0.5325735 0.072167955
000090 ca 76 c0 bd 24 47 22 be 8c 88 7a be 1c ba f2 3d
       -0.09397657 -0.1584745 -0.24466151 0.11851904
0000a0 5b 11 dc 3e f5 86 3d 3e 7b 42 80 3e d6 a8 1d 3c
       0.4298199 0.18508513 0.2505072 0.009622773
0000b0 2b 56 1d 3e 59 16 6c 3e 23 0d ba bd 2c e7 a9 bd
       0.15364902 0.230554 -0.09084537 -0.08296046
0000c0 4d fc 36 be 57 36 f9 3c 49 9b 73 bf bf 47 4a 3e
       -0.17869683 0.03042142 -0.9515882 0.19753931
0000d0 cb 9c bb 3d 6e 61 d6 bc 59 54 cb 3e 50 19 70 3c
       0.09160765 -0.026169505 0.3971279 0.0146544725
0000e0 90 3f 66 be ad 6e ca 3e 30 2c d1 3e e6 48 d0 3e
       -0.22485185 0.39537564 0.40854025 0.40680617
0000f0 a3 b1 f2 3e d3 47 b3 3d bf 60 95 3e 7c fd 01 3e
       0.4740115 0.08753934 0.29175374 0.12694353
000100 e7 a6 0a 3f b3 2c e3 3d 21 b8 80 3e 86 7f 14 bf
       0.5416092 0.1109251 0.2514048 -0.58007085
000110 84 50 1c 3e 56 e2 da be 0b 45 0f 3e 1b 14 b2 3d
       0.1526509 -0.42750806 0.13991182 0.08695241
000120 a1 35 19 3e 7e b3 92 3e df 5e 33 be e3 cd 00 bf
       0.14961864 0.28652567 -0.17516659 -0.5031416
000130 8f 7b 94 3e 1e 80 0f 3f 44 73 ac 3e a0 59 11 3f
       0.29000518 0.56054866 0.3368169 0.5677738
000140 bd 74 a7 bd e5 bb e3 bd 6f 71 fa bc 82 78 b9 3e
       -0.08176563 -0.111198224 -0.030571667 0.36224753
000150 6b a5 6c 3c 93 54 85 bd 5c fa 13 be b7 36 8a be
       0.014443736 -0.06510272 -0.14450973 -0.2699487
000160 20 f7 c2 3d d1 c3 a6 be 96 5c a4 3e 6e f3 a3 bb
       0.095197916 -0.3257127 0.32101887 -0.0050033843
000170 9e ea a6 3e f2 cd e1 3c 9d b6 47 3e 1f 3f 39 bd
       0.32600874 0.027564023 0.19503255 -0.045226213
000180 81 71 2d be 6c ed db bd 8b 59 4d 3e 47 d1 cf 3e
       -0.1693783 -0.10738644 0.20053689 0.40589353
000190 4d 3a c2 3e ba 77 bc 3d 4a fe 87 be 6b ca ab be
       0.37935105 0.092025235 -0.26561195 -0.3355287
0001a0 48 c0 fa 3e 8c fc 13 3e 2c de bc bc cb d9 7d 3e
       0.48974824 0.14451808 -0.023055159 0.24790113
0001b0 ca ef ce 3c 5b 2f af 3e b4 7b 95 bd d7 8d e4 3c
       0.025260825 0.34215817 -0.07298985 0.027899666
0001c0 a1 57 1e 3e 30 0f 52 3e 0a 5c 17 3d 87 d1 70 bd
       0.15463115 0.20513606 0.03695301 -0.05879357
0001d0 ce 86 07 3b b5 44 5f 3f b4 4e f5 bd e9 05 8a be
       0.0020679715 0.87214214 -0.11977902 -0.26957634
0001e0 d5 ee 19 bd b3 47 ad 3e 06 fa fd 3c 9e a1 be 3e
       -0.037581284 0.33843765 0.03100301 0.3723268
0001f0 37 59 09 3d e8 2d 60 be f2 6f d6 3e b2 bc 80 bc
       0.033532348 -0.21892512 0.41882282 -0.015714977

decoder_net.4.weight f4 [50, 128]
000000 5e cb 78 3e 75 ef b4 3d 16 a3 ba 3e a8 37 de be
       0.24296328 0.08834735 0.3645255 -0.43401837
000010 a7 e8 9e 39 70 bd 3b 3c 1c 7f 4e 3e ef bc 0f 3e
       0.00030309448 0.01145874 0.20165676 0.14036916
000020 23 34 20 be 25 01 b3 bd 06 06 97 3d 4e 77 6d bd
       -0.15644889 -0.08740453 0.07374196 -0.057975106
000030 01 e1 a4 3d 61 6e 07 be da 9c 9d 3e fa 9f fe bd
       0.080507286 -0.132257 0.3078373 -0.12432857
000040 71 a4 ec 3d 81 6c 7c 3e ec b3 a6 be 1b 9e 98 3d
       0.11554802 0.24650766 -0.32559144 0.07452031
000050 81 21 37 be 37 b1 0f 3e 9b 3c 8a bd 2a bf 06 be
       -0.17883874 0.14032446 -0.06749841 -0.13158861
000060 85 1a 3a be 97 d1 83 bd bc 9f 98 3e b6 4e b1 bd
       -0.18174179 -0.064364605 0.29809368 -0.08657591
000070 b5 a9 b3 3d a3 ba 78 bc 5d 1f 89 3d b2 30 23 be
       0.087726034 -0.015181216 0.06695435 -0.15936545
000080 30 58 c7 bd 21 ed 04 be 67 22 2c bd 5e c8 20 3f
       -0.09733617 -0.12981082 -0.042024996 0.62805736
000090 7d 8b 27 bd c2 2e 17 3e f3 b3 4d bc 01 4c 16 bd
       -0.04090451 0.1476393 -0.01255511 -0.036693577
0000a0 a0 8c 7b bd a6 56 0a bf b2 bc a1 be 6e 58 a6 bd
       -0.061413407 -0.54038465 -0.31589276 -0.081223354
0000b0 5f 8e f8 bc d5 37 8f bc 6d 3f 52 bd 93 b0 33 be
       -0.030341325 -0.017482677 -0.05133002 -0.17547826
0000c0 19 84 ab 3d 85 96 12 bd 85 20 9d 3e 0a 9e 0b be
       0.08374805 -0.035788078 0.30688873 -0.13634506
0000d0 35 2f 1a 3e 8b 88 96 3d 1f bc 24 be a7 1f 4c bd
       0.1505707 0.07350262 -0.16087388 -0.049834874
0000e0 2f 57 ad be cc 35 52 be e4 54 9b be 1c ce 4c be
       -0.33855578 -0.20528334 -0.30338204 -0.200005
0000f0 cd fa d0 3d dd 91 d2 3d 8f d6 69 3e 47 e7 93 bd
       0.102040865 0.102817275 0.22835754 -0.07221847
000100 b0 7c 16 bf 52 55 ae bd 4b 76 76 be bc ae 44 3e
       -0.5878401 -0.08512367 -0.24068563 0.19207281
000110 62 99 69 be 5b c9 20 be f0 c7 85 be f6 c9 6c bc
       -0.22812417 -0.15701811 -0.26129103 -0.014452448
000120 7f c0 9e be 29 3b 15 be 76 6c 02 be 29 c0 2b 3e
       -0.31006238 -0.14573349 -0.12736687 0.16772522
000130 6e 3b 60 3e 27 8c 43 3e 0e 5a 12 be f1 9b d0 3c
       0.2189767 0.19096433 -0.14292166 0.025464984
000140 29 f9 fd 3e 88 0f c0 3c 4b ee ef bd 10 70 8c be
       0.49604157 0.023444906 -0.11715373 -0.27429247
000150 55 a7 d8 3b 78 cb 7a 3d 5c b2 43 3c f3 87 7d 3d
       0.0066117444 0.0612292 0.01194438 0.06189723
000160 0e fb e7 bd 4f 1d bd 3d 15 d1 9d be 5b 86 94 bc
       -0.11327182 0.09234106 -0.3082358 -0.018130472
000170 22 9f 60 bd 9d 09 7a bd 53 2e 82 bd 10 0c 90 bd
       -0.05483926 -0.061044324 -0.06356492 -0.07033551
000180 c6 5e 5b 3d 2d 81 d7 bb 41 9f 16 3e a0 7c 44 3e
       0.05355718 -0.0065766782 0.14709188 0.19188166
000190 51 bd 42 be 3a 10 8d bd 4d b1 9d 3d 2b d0 18 be
       -0.19017531 -0.068878606 0.07699833 -0.1492316
0001a0 d3 ba cc 3d d3 e1 26 3e 95 80 a5 3d 64 c1 3d be
       0.099965714 0.16297083 0.08081166 -0.18530804
0001b0 26 a6 9f bd 47 b8 20 3e c7 55 b3 ba 1a ce 6e be
       -0.07795362 0.15695296 -0.001368218 -0.23320809
0001c0 d6 00 d7 3d c6 92 b8 3d 6a de ab 39 89 d2 a0 ba
       0.10498206 0.0901237 0.00032781373 -0.0012269776
0001d0 13 ac 67 3e 07 b7 76 be 63 53 31 bd 18 01 a0 bd
       0.22624235 -0.24093257 -0.043292414 -0.078127086
0001e0 78 29 10 3d 8c 6e 8a 3d bd 4a 08 be 7f bd b8 3e
       0.035195798 0.067593664 -0.1330976 0.36082074
0001f0 4e 43 39 3e f0 1d 6c 3e c9 98 b2 3e 90 ff e0 3c
       0.18092081 0.23058295 0.3488219 0.027465612
000200 3d a7 85 be e1 a9 1f be 20 d3 5e 3d 5a 57 ca be
       -0.26104155 -0.15592147 0.054400563 -0.3951977
000210 03 7f 4b 3e f8 6d a4 3c 6c c9 35 3e c6 26 4e bd
       0.1987267 0.020071968 0.17752618 -0.050329946
000220 19 33 21 3e 2c 81 cc bd 46 a3 53 3c 8f 8b 7b bd
       0.15742148 -0.09985575 0.012917345 -0.06141239
000230 bc 45 62 3d 97 69 93 bc ab a0 b4 bd ff 6a 56 3d
       0.055242285 -0.017994685 -0.088197075 0.052348133
000240 ee 7b 30 bd 78 37 b6 be a0 e7 a4 3e 07 9b 06 bf
       -0.04308694 -0.35589194 0.32207966 -0.525803
000250 8f bc 41 3e 28 93 00 bd 6e dc 00 3e 22 8d 9f 3c
       0.18919586 -0.03139034 0.12584087 0.019476477
000260 41 6d cb bc d4 3a a7 be 78 2b 2a be 84 a5 46 3e
       -0.02483237 -0.3266207 -0.16618145 0.19399077
000270 ee 17 85 be 5c d9 84 3e aa 8e 2a be 10 6d 6d be
       -0.2599482 0.25947082 -0.16655985 -0.23186135
000280 c1 95 2e be a5 c4 e8 bc 2d f7 0e be a9 cf ec 3d
       -0.17049314 -0.02841408 -0.13961478 0.115630455
000290 03 c3 18 bd fd 38 13 be 30 77 48 be 35 f1 97 be
       -0.037295353 -0.14377208 -0.19576716 -0.29676214
0002a0 4d 13 75 3e 56 57 3b 3b 37 a3 97 be 18 04 29 3e
       0.23933144 0.0028585992 -0.2961671 0.16505468
0002b0 52 62 5d 3e 00 60 62 3e 34 e8 ca bc 92 cf a5 be
       0.21619537 0.22106934 -0.024768926 -0.32384926
0002c0 53 84 97 be dc 64 bd bc f9 a8 0c 3e fa b8 e4 3d
       -0.29593143 -0.023119383 0.13736333 0.11168094
0002d0 2f b8 8b be 2c 77 49 bd 5b e0 08 be fe fa 72 bd
       -0.27288958 -0.049185917 -0.13366835 -0.059321396
0002e0 a3 b0 78 be 96 77 97 3d bd 4c dc 3e b3 b6 02 3e
       -0.24286132 0.07395856 0.43027297 0.12765007
0002f0 d1 0e a5 3e 73 1a 30 be b3 47 9f be e0 3b 61 3e
       0.32237867 -0.1719759 -0.3110939 0.21995497
000300 88 96 b2 3e cc 77 ea 3d 0b 11 41 be 44 c7 48 be
       0.3488047 0.11448631 -0.18854158 -0.19607264
000310 6c 04 75 be 43 a9 05 bf 6f 24 3c be ba ab f0 bd
       -0.23927468 -0.522114 -0.18373273 -0.11751504
000320 06 ed 76 be 3d c8 12 3e 26 eb 99 bd 53 aa ed bd
       -0.24113855 0.14334197 -0.07515554 -0.116047524
000330 52 f1 d1 bd 4b ac 29 be d2 5b 86 3e 92 56 9b 3e
       -0.10251106 -0.16569631 0.26241928 0.30339485
000340 88 94 72 bd 73 b0 7a 3d b7 6c b8 be f8 39 dc 3d
       -0.05922368 0.06120343 -0.36020443 0.10753244
000350 18 92 88 bd d0 cf 79 3e f4 a5 6a 3e 1b 41 70 3e
       -0.0666849 0.2439568 0.22914869 0.23462336
000360 0b 75 b6 3d 57 b7 61 be 94 24 f1 bd 0f f7 39 ba
       0.08909043 -0.22042595 -0.11774555 -0.00070940045
000370 c9 de a9 3e 04 2a 49 be 00 8a 25 3e ad 41 c3 bc
       0.33177784 -0.19644934 0.16165924 -0.023835028
000380 6a c9 d5 3d 2b 1c c9 3d bf 2a 63 3e 36 19 d8 3d
       0.10438807 0.09819826 0.22184275 0.105516836
000390 40 d6 1e 3d b3 d6 37 be 01 02 c6 3c e7 5a 9f be
       0.038778543 -0.17952995 0.024170877 -0.3112404
0003a0 4d 8c 82 be ef 45 57 be 95 44 2a 3c de 80 ce 3d
       -0.25497666 -0.21022771 0.010392328 0.10083173
0003b0 d8 8c 5c bd 64 98 c2 be f0 63 50 bd 96 15 f1 bd
       -0.053845257 -0.3800689 -0.050876558 -0.11771695
0003c0 5d 09 91 3e 3f 9d ac 3e e9 ba ae bc 5e a9 07 be
       0.28327456 0.3371372 -0.02132936 -0.13248202
0003d0 be b0 51 3d 5e fc 98 bc 35 a8 55 3e b2 98 eb 3e
       0.051193945 -0.018675026 0.20864947 0.46014935
0003e0 52 e8 94 3c d9 d1 c4 3d a6 e7 80 3b 49 4a 79 be
       0.018177185 0.09610338 0.0039338646 -0.24344744
0003f0 32 f1 3b 3e 77 6f 55 3e c3 2d 83 be d7 19 cf bc
       0.18353727 0.20843302 -0.2562085 -0.025280876

decoder_net.4.bias f4 [50]
000000 58 5a 93 be 49 59 a8 3e b4 cc a3 3e 8a fd 4d be
       -0.28779864 0.3288062 0.31992114 -0.20116249
000010 1e a0 2d 3e e1 2c 8a be 08 b2 56 3e 11 ac f4 bd
       0.16955611 -0.26987365 0.20966351 -0.119468816
000020 a4 a3 44 be 65 d6 a3 3e b4 43 55 be ab 22 ee be
       -0.19203049 0.31999508 -0.20826608 -0.46510825
000030 86 28 f3 bd 04 3e c3 bc f9 e1 15 3f f2 40 89 be
       -0.118729636 -0.023833282 0.5854793 -0.26807362
000040 9f be 92 be f0 7f 6c bd 88 8c fb be 69 ec 7f be
       -0.28661057 -0.0577392 -0.49130654 -0.24992527
000050 22 ec 1f bf eb 12 b9 3d 33 4e f0 3d e9 09 7e be
       -0.62469685 0.090368114 0.11733665 -0.24808468
000060 8f ca f6 bb d4 ed 36 3e cb a5 ed ba 02 a8 ab bd
       -0.007531471 0.17864162 -0.0018131075 -0.08381654
000070 71 30 b7 bd 26 82 85 bd a1 ab 66 bd 1e 2d 8e 3d
       -0.08944786 -0.065189645 -0.05631602 0.06942199
000080 f6 26 57 3d 8b 37 4a 3d 10 58 f7 bb 42 14 39 be
       0.05252739 0.049369376 -0.0075483397 -0.18074134
000090 54 a5 fe 3c 4f 65 a1 bd c7 b6 9a 3c 07 54 e8 3c
       0.031084694 -0.07880651 0.018885983 0.02836038
0000a0 a1 b7 5b bc 93 08 8d 3e 7a 13 3d 3d cd ad fb bd
       -0.01341048 0.27545604 0.046161152 -0.12289009
0000b0 77 73 33 bd f8 f6 95 3d c3 c0 a4 3d 1f 70 06 3d
       -0.043811288 0.07322496 0.08044579 0.03282177
0000c0 e2 e9 2d 3e bf 4a 6c bc
       0.1698375 -0.014422118
