experiment/splines_opt_model_seed123/spline_batch_opt_entropy_10.pt (torch, 77436 bytes, 180 tensors)

a f4 [2]
0	0x3f8c9d02	1.0985415
1	0x4013d3ba	2.3097978

b f4 [2]
0	0xbecca0ad	-0.39966336
1	0x3fbfd04f	1.4985446

omega_init f4 [5, 2]
0	0x3fd51b3e	1.6648939
1	0xbf29f6d1	-0.66392237
2	0x3f07d29e	0.5305575
3	0xbf7d9d14	-0.9906781
4	0xbee145d0	-0.43998575
5	0xbfd0d68f	-1.6315478
6	0x3ed4dfb6	0.41576928
7	0x3f5dfedb	0.86717004
8	0x3ebdce25	0.37071338
9	0xbc7e880c	-0.015535366

omega_optimized f4 [5, 2]
0	0x3fd8784e	1.6911714
1	0xbf35c822	-0.71008503
2	0x3f12c101	0.5732575
3	0xbf847623	-1.0348552
4	0xbece673c	-0.40313137
5	0xbfd4637f	-1.6592864
6	0x3ebd5c57	0.36984512
7	0x3f69ce81	0.91330725
8	0x3ed3a767	0.41338655
9	0x3d01affa	0.031661965

a f4 [2]
0	0x3f8c9d02	1.0985415
1	0x4013d3ba	2.3097978

b f4 [2]
0	0xc01b6c44	-2.428483
1	0x4026b507	2.604799

omega_init f4 [5, 2]
0	0x3f0058e8	0.5013566
1	0xc04c4474	-3.191678
2	0xbfb9d182	-1.4517062
3	0xbfbc54f6	-1.4713428
4	0x3fb7f523	1.4371685
5	0xbfbd53db	-1.4791216
6	0xbf85c822	-1.0451701
7	0x3f8c85e1	1.0978357
8	0xbfd61759	-1.6725875
9	0xbef00a47	-0.4688284

omega_optimized f4 [5, 2]
0	0x3f0ce43d	0.55035764
1	0xc04ecf7b	-3.2314136
2	0xbfbe6806	-1.4875495
3	0xbfc1a0c2	-1.5127184
4	0x3fb551aa	1.4165547
5	0xbfb6f6d6	-1.4294078
6	0xbf80b869	-1.0056278
7	0x3f92b5b0	1.1461697
8	0xbfd6108f	-1.6723803
9	0xbed96a7f	-0.42464063

a f4 [2]
0	0x3f8c9d02	1.0985415
1	0x4013d3ba	2.3097978

b f4 [2]
0	0xc00971c8	-2.1475697
1	0x401fa08a	2.4941735

omega_init f4 [5, 2]
0	0x3f221df5	0.6332696
1	0xc04f082d	-3.234874
2	0xbfc281c6	-1.5195854
3	0xbfc617ed	-1.5476052
4	0x3fb0945e	1.3795278
5	0xbf9ed751	-1.2409459
6	0xbf9c6a54	-1.2219949
7	0x3f8ca9e2	1.0989344
8	0xbf73b937	-0.9520449
9	0xbf1f5d73	-0.6225197

omega_optimized f4 [5, 2]
0	0x3f2e3ddf	0.6806316
1	0xc05168cc	-3.2720213
2	0xbfc6d143	-1.5532612
3	0xbfcb59a8	-1.5886736
4	0x3fb1e709	1.3898631
5	0xbf997440	-1.1988602
6	0xbf976620	-1.1828041
7	0x3f92d732	1.1471922
8	0xbf72d9d7	-0.9486365
9	0xbf13f5d0	-0.57796955

a f4 [2]
0	0x3f8c9d02	1.0985415
1	0x4013d3ba	2.3097978

b f4 [2]
0	0x3fac9335	1.3482424
1	0xbe24b294	-0.16083747

omega_init f4 [5, 2]
0	0x3f80294f	1.0012606
1	0xb7999682	-1.8309107e-05
2	0x3e8bd7f8	0.2731321
3	0x37cfab89	2.47562e-05
4	0xbf60e718	-0.8785262
5	0x38116762	3.4666977e-05
6	0x3cc2c3ec	0.023775063
7	0x378a48ab	1.648472e-05
8	0x3fa7aba8	1.309926
9	0x37f95dab	2.972673e-05

omega_optimized f4 [5, 2]
0	0x3f7a0bbe	0.9767417
1	0xbd49bca5	-0.04925217
2	0x3e681cce	0.22667238
3	0xbd4547d6	-0.04816421
4	0xbf54ab27	-0.8307366
5	0xbd45ed03	-0.048321735
6	0x3d93df42	0.072203174
7	0xbd44f15a	-0.048081733
8	0x3fadc276	1.357497
9	0x3d457486	0.04820683

a f4 [2]
0	0x3f8c9d02	1.0985415
1	0x4013d3ba	2.3097978

b f4 [2]
0	0x3ff07e61	1.8788568
1	0x3d777414	0.060413435

omega_init f4 [5, 2]
0	0x3f1e5d70	0.61861324
1	0x36737668	3.6278743e-06
2	0x3db85a20	0.09001565
3	0x368890ec	4.069987e-06
4	0xbfb8512c	-1.4399772
5	0x3517b1c0	5.6510544e-07
6	0x3f472b83	0.7780077
7	0x362bfc78	2.5627942e-06
8	0x3f035a0d	0.5130928
9	0xb60f2610	-2.1330816e-06

omega_optimized f4 [5, 2]
0	0x3f166a91	0.5875636
1	0xbd47aaf0	-0.048747003
2	0x3d408396	0.04700049
3	0xbd42b77e	-0.047538273
4	0xbfba250e	-1.4542558
5	0xbd44fe00	-0.048093796
6	0x3f52dca2	0.8236791
7	0xbd4b1134	-0.049576953
8	0x3f0e1d8f	0.5551385
9	0x3d3d2415	0.04617699

a f4 [2]
0	0x3f8c9d02	1.0985415
1	0x4013d3ba	2.3097978

b f4 [2]
0	0x3fac9335	1.3482424
1	0xbdfddff5	-0.12396232

omega_init f4 [5, 2]
0	0x3f8218c4	1.0163808
1	0xb67346c0	-3.6251004e-06
2	0x3e986913	0.29767665
3	0xb6ac3a13	-5.13276e-06
4	0xbf6b5b98	-0.91936636
5	0xb5883900	-1.0149379e-06
6	0x3d72bd54	0.05926259
7	0x355cb200	8.221541e-07
8	0x3fa685e5	1.3009611
9	0x35fce300	1.8841529e-06

omega_optimized f4 [5, 2]
0	0x3f7d6b56	0.98991907
1	0xbd4a896c	-0.049447462
2	0x3e8053c7	0.25063917
3	0xbd459378	-0.04823634
4	0xbf5f9911	-0.87342936
5	0xbd45ad95	-0.048261244
6	0x3ddb1da2	0.106990114
7	0xbd45f7d6	-0.048332058
8	0x3fac7e14	1.3475976
9	0x3d4866a2	0.048926003

a f4 [2]
0	0x3f8c9d02	1.0985415
1	0x4013d3ba	2.3097978

b f4 [2]
0	0x3fd0882f	1.629156
1	0xbe24b294	-0.16083747

omega_init f4 [5, 2]
0	0x3f33d64a	0.70248854
1	0xb63ad780	-2.7841597e-06
2	0x3e344bc1	0.17607023
3	0x34e14400	4.1958992e-07
4	0xbfa9a49a	-1.3253357
5	0x34a75600	3.1168747e-07
6	0x3f16aace	0.5885438
7	0x352af8e0	6.3692096e-07
8	0x3ec451e3	0.38343725
9	0x340e6800	1.3262616e-07

omega_optimized f4 [5, 2]
0	0x3f2eb728	0.68248224
1	0xbd4a91cb	-0.049455445
2	0x3e62853f	0.22121142
3	0xbd464fb6	-0.048415862
4	0xbfac37e8	-1.3454561
5	0xbd4647ab	-0.04840819
6	0x3f18ae6b	0.5964114
7	0xbd46d1a1	-0.04853976
8	0x3ec0024c	0.37501752
9	0x3d49046d	0.049076486

a f4 [2]
0	0x3f8c9d02	1.0985415
1	0x4013d3ba	2.3097978

b f4 [2]
0	0x3fe08348	1.7540064
1	0xbe4a752e	-0.19771263

omega_init f4 [5, 2]
0	0x3f360f23	0.71116847
1	0x35a0ac80	1.1971133e-06
2	0x3dba29af	0.09089982
3	0x3633a820	2.677094e-06
4	0xbfabbbe2	-1.3416712
5	0x35d8dbe0	1.6157246e-06
6	0x3ef759fa	0.48310834
7	0x35639400	8.477946e-07
8	0x3f234e54	0.63791394
9	0xb6295c40	-2.523666e-06

omega_optimized f4 [5, 2]
0	0x3f311938	0.69179106
1	0xbd4a68be	-0.049416296
2	0x3e0a25b4	0.13490945
3	0xbd450a4f	-0.048105534
4	0xbfae4c81	-1.3617097
5	0xbd464abf	-0.048411127
6	0x3ef923bf	0.48660085
7	0xbd4612e3	-0.048357856
8	0x3f204b10	0.62614536
9	0x3d4afd79	0.049558137

a f4 [2]
0	0x3f8c9d02	1.0985415
1	0x4013d3ba	2.3097978

b f4 [2]
0	0x3fd885bb	1.6915811
1	0xbe24b294	-0.16083747

omega_init f4 [5, 2]
0	0x3f36a458	0.7134452
1	0x353b8b00	6.98652e-07
2	0x3e0791d7	0.13239227
3	0xb7127c90	-8.73128e-06
4	0xbfa9c98e	-1.3264635
5	0xb7941238	-1.7651459e-05
6	0x3f0bcd1f	0.54609865
7	0x36b1f820	5.3038966e-06
8	0x3f0a16f9	0.53941303
9	0xb6750668	-3.6511574e-06

omega_optimized f4 [5, 2]
0	0x3f30b4fd	0.69026166
1	0xbd479c55	-0.048733074
2	0x3e3497b0	0.17635989
3	0xbd418b40	-0.04725194
4	0xbfac75ff	-1.347351
5	0xbd42ad16	-0.04752835
6	0x3f0eb548	0.55745363
7	0xbd47de1a	-0.048795797
8	0x3f09a68b	0.5376975
9	0x3d42987e	0.04750871

a f4 [2]
0	0xbecca0ad	-0.39966336
1	0x3fbfd04f	1.4985446

b f4 [2]
0	0xc01b6c44	-2.428483
1	0x4026b507	2.604799

omega_init f4 [5, 2]
0	0x3c156d0f	0.00912024
1	0xc01d5dd9	-2.458853
2	0xbba6ff9e	-0.00509639
3	0xbef763c2	-0.48318297
4	0xbefc4f8a	-0.49279433
5	0x3dfbc212	0.12292875
6	0x3dd257ac	0.10270628
7	0xbeab704a	-0.33484107
8	0xbd8fdddd	-0.07024739
9	0xbdbba4b4	-0.09162274

omega_optimized f4 [5, 2]
0	0xbcfa0c08	-0.030523315
1	0xc020759d	-2.5071785
2	0xbc8e64ff	-0.017382143
3	0xbf07ae43	-0.5300028
4	0xbf06f9e9	-0.5272508
5	0x3d988846	0.07447867
6	0x3d61f192	0.05516202
7	0xbe91bf26	-0.28466147
8	0xbda92e2c	-0.0826076
9	0xbd3a0849	-0.045418058

a f4 [2]
0	0xbecca0ad	-0.39966336
1	0x3fbfd04f	1.4985446

b f4 [2]
0	0xc00971c8	-2.1475697
1	0x401fa08a	2.4941735

omega_init f4 [5, 2]
0	0xbd7335e5	-0.05937757
1	0xc0170cc8	-2.360155
2	0xbe5a3194	-0.21307975
3	0xbf0c6262	-0.5483762
4	0xbecdce53	-0.40196475
5	0x3dcef0e6	0.101045415
6	0x3df89294	0.121373326
7	0xbee855fc	-0.453781
8	0x3e5e7aa0	0.21726465
9	0xbdb6ce3d	-0.089260556

omega_optimized f4 [5, 2]
0	0xbdc5ae58	-0.09652394
1	0xc01a2259	-2.4083464
2	0xbe6b0cd8	-0.22954118
3	0xbf18890c	-0.59584117
4	0xbedc44d2	-0.43021256
5	0x3d592a51	0.05301887
6	0x3db02a7c	0.08601853
7	0xbece5544	-0.40299428
8	0x3e640a80	0.2226963
9	0xbd2ae658	-0.04172358

a f4 [2]
0	0xbecca0ad	-0.39966336
1	0x3fbfd04f	1.4985446

b f4 [2]
0	0x3fac9335	1.3482424
1	0xbe24b294	-0.16083747

omega_init f4 [5, 2]
0	0xb794c51b	-1.773476e-05
1	0xbeb24ba3	-0.3482333
2	0xb70ee918	-8.518131e-06
3	0xbe2f4075	-0.17114432
4	0x3791d3f8	1.7384053e-05
5	0x3e1e25d8	0.15444124
6	0xb6fe6de4	-7.582583e-06
7	0x3de08e91	0.109646924
8	0xb796d220	-1.797924e-05
9	0xbdb31c48	-0.087456286

omega_optimized f4 [5, 2]
0	0x3d24f00e	0.040267996
1	0xbecb7db0	-0.3974433
2	0x3d38a209	0.045076404
3	0xbdfcdbd0	-0.123466134
4	0x3c8f1d46	0.017470013
5	0x3dd72e22	0.10506846
6	0x3d2dd8ef	0.042443212
7	0x3e239eae	0.159785
8	0x3a3dce5a	0.00072405266
9	0xbd1c47a7	-0.03815427

a f4 [2]
0	0xbecca0ad	-0.39966336
1	0x3fbfd04f	1.4985446

b f4 [2]
0	0x3ff07e61	1.8788568
1	0x3d777414	0.060413435

omega_init f4 [5, 2]
0	0x34040f00	1.2298915e-07
1	0xbe809a44	-0.25117695
2	0x3600e2e0	1.9205545e-06
3	0x3e63979b	0.22225802
4	0x3633a0e0	2.676672e-06
5	0xbf82f65b	-1.0231432
6	0xb5a70670	-1.2444343e-06
7	0xbe5be358	-0.21473444
8	0xb6597d60	-3.2408498e-06
9	0x3e23f5d4	0.16011745

omega_optimized f4 [5, 2]
0	0x3d4a7fc1	0.049438242
1	0xbe999849	-0.29998997
2	0x3d2c449d	0.042057622
3	0x3e8c5ceb	0.2741464
4	0x3d4b31cf	0.049608048
5	0xbf89306c	-1.0717902
6	0x3d4dacd8	0.050213665
7	0xbe2ce5ed	-0.16884585
8	0x3d144343	0.03619696
9	0x3e5550d3	0.20831613

a f4 [2]
0	0xbecca0ad	-0.39966336
1	0x3fbfd04f	1.4985446

b f4 [2]
0	0x3fac9335	1.3482424
1	0xbdfddff5	-0.12396232

omega_init f4 [5, 2]
0	0x3832d36c	4.263541e-05
1	0xbeaedec8	-0.34154344
2	0x377f0b70	1.5201847e-05
3	0xbe49610c	-0.19665927
4	0xb7728870	-1.4456091e-05
5	0x3e1cfa6b	0.15329902
6	0x3777d1c0	1.47711835e-05
7	0x3dae31d9	0.085056014
8	0x37d765b8	2.5677364e-05
9	0x3b9d9303	0.004808785

omega_optimized f4 [5, 2]
0	0x3d25a2fd	0.04043864
1	0xbec824ed	-0.39090672
2	0x3d386103	0.045014393
3	0xbe1b5310	-0.15168405
4	0x3c983587	0.018580211
5	0x3dd4016a	0.10351832
6	0x3d3b14ed	0.045674253
7	0x3e0aee2b	0.13567416
8	0x3bb89dd6	0.00563405
9	0x3d5f0f57	0.05445799

a f4 [2]
0	0xbecca0ad	-0.39966336
1	0x3fbfd04f	1.4985446

b f4 [2]
0	0x3fd0882f	1.629156
1	0xbe24b294	-0.16083747

omega_init f4 [5, 2]
0	0x34f79600	4.6116475e-07
1	0xbddc49c7	-0.107562594
2	0xb605d2b0	-1.994118e-06
3	0x3e6874f0	0.22700858
4	0x36903bd8	4.298501e-06
5	0xbf12400e	-0.5712899
6	0xb4535ac0	-1.9683921e-07
7	0xbe9baa05	-0.30403152
8	0xb616a6e8	-2.2448894e-06
9	0x3e812295	0.25221696

omega_optimized f4 [5, 2]
0	0x3d3de2dd	0.04635893
1	0xbe20b887	-0.15695392
2	0x3d38f62c	0.045156643
3	0x3e8988ec	0.26862276
4	0x3d3a55a8	0.045491844
5	0xbf1ef32d	-0.62089807
6	0x3d40f346	0.047107004
7	0xbe834e6c	-0.2564577
8	0x3c177cfd	0.009246108
9	0x3e9a68fa	0.30158216

a f4 [2]
0	0xbecca0ad	-0.39966336
1	0x3fbfd04f	1.4985446

b f4 [2]
0	0x3fe08348	1.7540064
1	0xbe4a752e	-0.19771263

omega_init f4 [5, 2]
0	0xb629fa00	-2.5328482e-06
1	0xbd02bb01	-0.031916622
2	0x362d70c0	2.5844638e-06
3	0x3ea98fcc	0.3311752
4	0x37939388	1.7592465e-05
5	0xbf32497b	-0.6964337
6	0xb6a2a062	-4.8466472e-06
7	0xbefa472b	-0.48882422
8	0xb76689a4	-1.3741115e-05
9	0x3efb0823	0.49029645

omega_optimized f4 [5, 2]
0	0x3d361c87	0.0444608
1	0xbda6f09d	-0.08151362
2	0x3d423ee0	0.047423244
3	0x3ec47a15	0.3837439
4	0x3d3ce342	0.046115167
5	0xbf3f06ea	-0.74619925
6	0x3d40c3c9	0.047061715
7	0xbee266ed	-0.4421915
8	0xbd1e4e03	-0.038648617
9	0x3f0a27f4	0.53967214

a f4 [2]
0	0xbecca0ad	-0.39966336
1	0x3fbfd04f	1.4985446

b f4 [2]
0	0x3fd885bb	1.6915811
1	0xbe24b294	-0.16083747

omega_init f4 [5, 2]
0	0xb6af3550	-5.221613e-06
1	0xbd930c39	-0.07180066
2	0xb701a968	-7.728442e-06
3	0x3e8cf2bc	0.27528942
4	0xb5dd3620	-1.6481536e-06
5	0xbf2b985d	-0.6702936
6	0x36089b38	2.0355928e-06
7	0xbebffa4a	-0.37495643
8	0x3612f3c0	2.1897577e-06
9	0x3eb48fd4	0.35265982

omega_optimized f4 [5, 2]
0	0x3d30289b	0.043007474
1	0xbdf7fb37	-0.12108462
2	0x3d3bcd04	0.045849815
3	0x3ea6718e	0.3250851
4	0x3d35767c	0.04430245
5	0xbf3843ab	-0.71978253
6	0x3d3af925	0.04564776
7	0xbea85f0b	-0.32885012
8	0xbd13197f	-0.035912987
9	0x3ecdacfa	0.40171033

a f4 [2]
0	0xc01b6c44	-2.428483
1	0x4026b507	2.604799

b f4 [2]
0	0xc00971c8	-2.1475697
1	0x401fa08a	2.4941735

omega_init f4 [5, 2]
0	0x36eab0d8	6.9943308e-06
1	0x3df66913	0.1203176
2	0xb710ae56	-8.62366e-06
3	0x3c606fe5	0.013698553
4	0xb7250a7e	-9.837209e-06
5	0xbe88196e	-0.265819
6	0xb7536bcc	-1.26016785e-05
7	0x3d7ba6af	0.06143826
8	0xb79739ac	-1.8027458e-05
9	0x3e60c7eb	0.21951263

omega_optimized f4 [5, 2]
0	0xbc11f850	-0.0089093
1	0x3dea631a	0.114446834
2	0xbd401b50	-0.046901047
3	0x3cec1627	0.028819157
4	0x3c4267b1	0.011865542
5	0xbe6c0195	-0.23047478
6	0x3d46f679	0.0485749
7	0x3db081a2	0.086184755
8	0x3d3ca28f	0.046053465
9	0x3e789520	0.24275637

a f4 [2]
0	0xc01b6c44	-2.428483
1	0x4026b507	2.604799

b f4 [2]
0	0x3fac9335	1.3482424
1	0xbe24b294	-0.16083747

omega_init f4 [5, 2]
0	0xbf51ff47	-0.8203015
1	0xbf195c33	-0.5990631
2	0xbecb2515	-0.3967673
3	0x3e2bcca9	0.1677729
4	0x3f0b8f8e	0.5451592
5	0xbf43a31f	-0.7642078
6	0xbe988713	-0.29790553
7	0xc007c56e	-2.1214252
8	0xbeeb6d9a	-0.45982057
9	0x3fbbfd7a	1.468673

omega_optimized f4 [5, 2]
0	0xbf5c7362	-0.8611356
1	0xbf254ed3	-0.645734
2	0xbec3f68c	-0.38274038
3	0x3e5c93fb	0.21540825
4	0x3f00c4f6	0.5030054
5	0xbf4c4046	-0.79785573
6	0xbeb030ba	-0.34412175
7	0xc00a4e3a	-2.1610246
8	0xbedac4da	-0.4272831
9	0x3fc1b9d3	1.5134834

a f4 [2]
0	0xc01b6c44	-2.428483
1	0x4026b507	2.604799

b f4 [2]
0	0x3ff07e61	1.8788568
1	0x3d777414	0.060413435

omega_init f4 [5, 2]
0	0xbf406ee4	-0.75169206
1	0xc01d0d33	-2.4539306
2	0xbe85ee9a	-0.261586
3	0xbf1dc935	-0.6163514
4	0x3ec9f771	0.39446595
5	0x3efab760	0.4896803
6	0xbe158429	-0.14601196
7	0xbf5ae342	-0.8550302
8	0xbea7f592	-0.32804543
9	0xbf520640	-0.82040787

omega_optimized f4 [5, 2]
0	0xbf4bb879	-0.7957836
1	0xc0202bcc	-2.5026731
2	0xbe5de6ca	-0.2167007
3	0xbf115a71	-0.5677863
4	0x3ebb50c0	0.36585045
5	0x3f092d6d	0.5358494
6	0xbe46dbfd	-0.19419856
7	0xbf67811d	-0.90431386
8	0xbea63809	-0.32464626
9	0xbf45bc95	-0.7724088

a f4 [2]
0	0xc01b6c44	-2.428483
1	0x4026b507	2.604799

b f4 [2]
0	0x3fac9335	1.3482424
1	0xbdfddff5	-0.12396232

omega_init f4 [5, 2]
0	0xbf5200e2	-0.820326
1	0xbf16bfcb	-0.588864
2	0xbecb27e1	-0.39678863
3	0x3e12cf3e	0.14336869
4	0x3f0b91ac	0.5451915
5	0xbf4411a2	-0.76589406
6	0xbe9888aa	-0.29791766
7	0xc009bb7e	-2.1520686
8	0xbeeb71c4	-0.45985234
9	0x3fc90bc4	1.5706716

omega_optimized f4 [5, 2]
0	0xbf5c131e	-0.8596667
1	0xbf22af5e	-0.6354884
2	0xbebe4797	-0.37163994
3	0x3e41aba2	0.18913129
4	0x3f00f092	0.5036708
5	0xbf4ca69b	-0.7994172
6	0xbeb09e9e	-0.34496015
7	0xc00c00e7	-2.187555
8	0xbedf1c77	-0.43576404
9	0x3fceeec6	1.6166618

a f4 [2]
0	0xc01b6c44	-2.428483
1	0x4026b507	2.604799

b f4 [2]
0	0x3fd0882f	1.629156
1	0xbe24b294	-0.16083747

omega_init f4 [5, 2]
0	0x3f963b21	1.1736795
1	0xbebccef9	-0.36876658
2	0x3bed440c	0.007240778
3	0xbf856254	-1.0420632
4	0xc0012ada	-2.0182405
5	0xc0677282	-3.616364
6	0x3ed9f098	0.4256637
7	0x3f03adc5	0.51437026
8	0x3f57fe22	0.8437215
9	0x3f864c86	1.0492103

omega_optimized f4 [5, 2]
0	0x3f905442	1.1275713
1	0xbed5a2a5	-0.4172565
2	0x3cace21d	0.021103913
3	0xbf8b3997	-1.087695
4	0xc0042139	-2.0645278
5	0xc06a834b	-3.6642635
6	0x3ec42580	0.3830986
7	0x3f0f7444	0.5603678
8	0x3f518421	0.8184224
9	0x3f8c67d0	1.0969181

a f4 [2]
0	0xc01b6c44	-2.428483
1	0x4026b507	2.604799

b f4 [2]
0	0x3fe08348	1.7540064
1	0xbe4a752e	-0.19771263

omega_init f4 [5, 2]
0	0xbf453f59	-0.77049786
1	0xbff445b5	-1.9083773
2	0xbe9641e8	-0.29347157
3	0xbe7d9449	-0.24763598
4	0x3edd2da7	0.43198892
5	0x3e5bb6cb	0.21456449
6	0xbe38e2e6	-0.18055305
7	0xbfa9334b	-1.3218778
8	0xbeb8ab8b	-0.36068377
9	0xbea3dd6e	-0.32004875

omega_optimized f4 [5, 2]
0	0xbf505bbb	-0.8138997
1	0xbffa99e6	-1.9578216
2	0xbe8abd23	-0.27097425
3	0xbe4d2454	-0.2003339
4	0x3ec75ce4	0.38938057
5	0x3e81451a	0.25248033
6	0xbe68ebdb	-0.22746222
7	0xbfaf6cee	-1.3705118
8	0xbea3f189	-0.32020214
9	0xbe8a9b57	-0.2707164

a f4 [2]
0	0xc01b6c44	-2.428483
1	0x4026b507	2.604799

b f4 [2]
0	0x3fd885bb	1.6915811
1	0xbe24b294	-0.16083747

omega_init f4 [5, 2]
0	0xbf47862f	-0.7793912
1	0xbfe2b6eb	-1.7712072
2	0xbe9e7258	-0.30946612
3	0xbe691cac	-0.22764844
4	0x3ee69733	0.4503723
5	0x3d9f67ae	0.07783447
6	0xbe4ae651	-0.19814421
7	0xbfb15ba8	-1.3856096
8	0xbec0e4e4	-0.3767463
9	0xbe1684bd	-0.14699073

omega_optimized f4 [5, 2]
0	0xbf52cb4e	-0.8234147
1	0xbfe909b3	-1.8206085
2	0xbea15a95	-0.3151442
3	0xbe39febc	-0.1816358
4	0x3ed05776	0.40691727
5	0x3deabce6	0.11461811
6	0xbe7ad854	-0.24496585
7	0xbfb782f1	-1.4336835
8	0xbeaaf758	-0.33391833
9	0xbdc9b6e1	-0.098493345

a f4 [2]
0	0xc00971c8	-2.1475697
1	0x401fa08a	2.4941735

b f4 [2]
0	0x3fac9335	1.3482424
1	0xbe24b294	-0.16083747

omega_init f4 [5, 2]
0	0xbefff9dd	-0.49995318
1	0xbf3eecd5	-0.74580127
2	0x3ecf3ab7	0.40474483
3	0x3e19fd88	0.15038121
4	0xbf064a79	-0.52457386
5	0xbeffdb40	-0.49971962
6	0x3f079ea8	0.52976465
7	0xc0075e69	-2.1151373
8	0x3ef3eeaf	0.4764304
9	0x3fae19b9	1.36016

omega_optimized f4 [5, 2]
0	0xbf0a920c	-0.541291
1	0xbf4acb2b	-0.7921626
2	0x3ed2bfb7	0.41161892
3	0x3e4b06e3	0.19826846
4	0xbf11c887	-0.56946605
5	0xbf084c18	-0.5324111
6	0x3ef6949d	0.48160258
7	0xc0094a46	-2.1451583
8	0x3f03cfe3	0.51489085
9	0x3fb3fc55	1.4061381

a f4 [2]
0	0xc00971c8	-2.1475697
1	0x401fa08a	2.4941735

b f4 [2]
0	0x3ff07e61	1.8788568
1	0x3d777414	0.060413435

omega_init f4 [5, 2]
0	0xbeca59ba	-0.3952158
1	0xc02522b6	-2.5802436
2	0x3f0e956b	0.55696744
3	0xbf1b441a	-0.6065079
4	0xbf370dbb	-0.71505326
5	0x3f3247c8	0.6964078
6	0x3f2fc58e	0.6866082
7	0xbf35733f	-0.70878977
8	0x3f2446d0	0.6417055
9	0xbf805d6b	-1.0028509

omega_optimized f4 [5, 2]
0	0xbee00714	-0.437554
1	0xc0284e99	-2.6297972
2	0x3f1a9fe6	0.60400236
3	0xbf0f548d	-0.5598839
4	0xbf3b84e3	-0.73249644
5	0x3f3a2d0f	0.72725004
6	0x3f2391c8	0.6389432
7	0xbf414d85	-0.7550891
8	0x3f1f880a	0.62316954
9	0xbf740859	-0.9532524

a f4 [2]
0	0xc00971c8	-2.1475697
1	0x401fa08a	2.4941735

b f4 [2]
0	0x3fac9335	1.3482424
1	0xbdfddff5	-0.12396232

omega_init f4 [5, 2]
0	0xbeffe00e	-0.49975628
1	0xbf3c4546	-0.735432
2	0x3ecf5b99	0.4049957
3	0x3e00f702	0.12594226
4	0xbf066c74	-0.52509236
5	0xbf0066e2	-0.50156987
6	0x3f07a74f	0.5298967
7	0xc0095659	-2.1458952
8	0x3ef41726	0.4767391
9	0x3fbb30e5	1.4624296

omega_optimized f4 [5, 2]
0	0xbf0a6362	-0.54057896
1	0xbf4833c6	-0.78204
2	0x3ed755f3	0.42057762
3	0x3e31afd5	0.17352231
4	0xbf11a7ff	-0.56896967
5	0xbf08c50d	-0.53425676
6	0x3ef69ff6	0.48168916
7	0xc00b29a2	-2.174416
8	0x3f02eda1	0.5114384
9	0x3fc0ffb6	1.5078037

a f4 [2]
0	0xc00971c8	-2.1475697
1	0x401fa08a	2.4941735

b f4 [2]
0	0x3fd0882f	1.629156
1	0xbe24b294	-0.16083747

omega_init f4 [5, 2]
0	0x3fc6646e	1.5499399
1	0xbe9d670c	-0.3074268
2	0x3f4d7364	0.802542
3	0xbf792f0d	-0.9733742
4	0xc04af503	-3.1712043
5	0xc069287d	-3.6430962
6	0x3f894444	1.0723958
7	0x3eacbfe5	0.33740154
8	0x3ff496f6	1.910857
9	0x3f9ad1b1	1.2095243

omega_optimized f4 [5, 2]
0	0x3fc0d095	1.5063654
1	0xbeb61cfc	-0.35568988
2	0x3f55cdba	0.8351704
3	0xbf826416	-1.0186794
4	0xc04dd55b	-3.2161472
5	0xc06c39cd	-3.6910279
6	0x3f834db7	1.0258092
7	0x3ec421b8	0.38306975
8	0x3feef36a	1.8668034
9	0x3fa0dfa7	1.2568253

a f4 [2]
0	0xc00971c8	-2.1475697
1	0x401fa08a	2.4941735

b f4 [2]
0	0x3fe08348	1.7540064
1	0xbe4a752e	-0.19771263

omega_init f4 [5, 2]
0	0xbed74c5f	-0.42050454
1	0xc002fdd7	-2.0467432
2	0x3f05c497	0.522531
3	0xbe7e772d	-0.2485015
4	0xbf2bbafd	-0.67082196
5	0x3ee528ec	0.44757783
6	0x3f26e979	0.652
7	0xbf9acf88	-1.2094584
8	0x3f1a71f2	0.60330117
9	0xbef9e59c	-0.4880799

omega_optimized f4 [5, 2]
0	0xbeec0812	-0.46099907
1	0xc0061433	-2.0949829
2	0x3f0e1474	0.5549996
3	0xbe4e9d48	-0.20177186
4	0xbf354447	-0.7080731
5	0x3ef71353	0.4825693
6	0x3f1a3e8b	0.60251683
7	0xbfa0b81e	-1.2556188
8	0x3f22e279	0.6362682
9	0xbee12d55	-0.43979898

a f4 [2]
0	0xc00971c8	-2.1475697
1	0x401fa08a	2.4941735

b f4 [2]
0	0x3fd885bb	1.6915811
1	0xbe24b294	-0.16083747

omega_init f4 [5, 2]
0	0xbeddb75e	-0.4330396
1	0xbff55a16	-1.9168117
2	0x3f01475a	0.504995
3	0xbe6efff3	-0.23339824
4	0xbf2607c5	-0.64855605
5	0x3ea40b29	0.32039765
6	0x3f2257aa	0.63415015
7	0xbfa4800e	-1.2851579
8	0x3f157f2d	0.5839718
9	0xbea216dc	-0.31658065

omega_optimized f4 [5, 2]
0	0xbef34aef	-0.47518107
1	0xbffb9816	-1.9655788
2	0x3f07cfad	0.53051263
3	0xbe3f98ce	-0.18710634
4	0xbf30b3c2	-0.6902429
5	0x3eaffead	0.3437399
6	0x3f15af68	0.58470774
7	0xbfaa7dd3	-1.3319649
8	0x3f1f1cee	0.6215352
9	0xbe88ac8e	-0.2669415

a f4 [2]
0	0x3fac9335	1.3482424
1	0xbe24b294	-0.16083747

b f4 [2]
0	0x3ff07e61	1.8788568
1	0x3d777414	0.060413435

omega_init f4 [5, 2]
0	0xb70211dc	-7.752762e-06
1	0xbe5226ca	-0.2052261
2	0x360cad60	2.0962543e-06
3	0xbe899729	-0.2687314
4	0x35681f00	8.6471846e-07
5	0x3e01aa30	0.12662578
6	0xb684ab4a	-3.953847e-06
7	0x3d19ef43	0.037581693
8	0xb69c1538	-4.6516325e-06
9	0xbe866327	-0.26247522

omega_optimized f4 [5, 2]
0	0x3d4b5a6a	0.049646772
1	0xbe59d776	-0.21273598
2	0x3cd5478e	0.026035096
3	0xbe948bf5	-0.2901303
4	0x3d42f713	0.04759891
5	0x3e2679ef	0.16257451
6	0x3d623e5e	0.05523526
7	0x3d89dd35	0.06731645
8	0xbcbeebe1	-0.023305835
9	0xbe640dbe	-0.22270867

a f4 [2]
0	0x3fac9335	1.3482424
1	0xbe24b294	-0.16083747

b f4 [2]
0	0x3fac9335	1.3482424
1	0xbdfddff5	-0.12396232

omega_init f4 [5, 2]
0	0xbbb87f22	-0.00563039
1	0xbced5310	-0.028970271
2	0x3abc58f3	0.0014369771
3	0xbbccb4ae	-0.0062471246
4	0xbc739023	-0.014865908
5	0x3c5d2d7e	0.013499616
6	0x3b8a91c2	0.0042288015
7	0x3c4a0613	0.01233055
8	0x3c6ebc47	0.014571256
9	0x3af9c641	0.0019056277

omega_optimized f4 [5, 2]
0	0x3d20c3f7	0.039249387
1	0x3c6b8bc2	0.014376583
2	0x3cda1efa	0.026626099
3	0x3cc3ef63	0.02391786
4	0x3ccff54b	0.02538552
5	0x3d57e9b4	0.05271311
6	0xbc99c25a	-0.018769432
7	0xbcc36ee4	-0.023856588
8	0xbcb050e9	-0.021522956
9	0xbd1e7b03	-0.038691532

a f4 [2]
0	0x3fac9335	1.3482424
1	0xbe24b294	-0.16083747

b f4 [2]
0	0x3fd0882f	1.629156
1	0xbe24b294	-0.16083747

omega_init f4 [5, 2]
0	0xb6c68348	-5.916143e-06
1	0x3cbf2fbc	0.023338191
2	0xb71aaff0	-9.220079e-06
3	0xbd8ab367	-0.067724995
4	0x3755d990	1.2746445e-05
5	0x3d9fe63a	0.07807584
6	0xb60d7dc2	-2.1083838e-06
7	0xbe36d0a2	-0.17853025
8	0xb712f358	-8.758936e-06
9	0xbde61651	-0.11234725

omega_optimized f4 [5, 2]
0	0xbd2216c4	-0.039572492
1	0x3cdea1ad	0.027176702
2	0x3d4a0040	0.049316645
3	0xbdb04fa0	-0.08608937
4	0xbd344888	-0.044014484
5	0x3d946582	0.072459236
6	0xbd4bae0a	-0.049726523
7	0xbe2e624a	-0.17029682
8	0xbd4af6e1	-0.04955185
9	0xbe08fe43	-0.13378243

a f4 [2]
0	0x3fac9335	1.3482424
1	0xbe24b294	-0.16083747

b f4 [2]
0	0x3fe08348	1.7540064
1	0xbe4a752e	-0.19771263

omega_init f4 [5, 2]
0	0xb6473900	-2.968649e-06
1	0xbdc7e43c	-0.09760329
2	0xb695d798	-4.4656445e-06
3	0xbdccc2d3	-0.09998097
4	0x36b4eed0	5.3922195e-06
5	0x3e84e355	0.2595469
6	0x3489e820	2.5687132e-07
7	0xbe3f8cef	-0.18706106
8	0xb623dec8	-2.4418569e-06
9	0xbe893b8f	-0.26803252

omega_optimized f4 [5, 2]
0	0x3d1fd59d	0.039022077
1	0xbdea65c7	-0.11445194
2	0x3d38c241	0.04510713
3	0xbdd0fa34	-0.102039725
4	0x3d472c90	0.048626482
5	0x3e6f2137	0.23352514
6	0xbce966bd	-0.028491372
7	0xbe45ac2b	-0.19303958
8	0xbce811f3	-0.028328871
9	0xbe9edb98	-0.31026912

a f4 [2]
0	0x3fac9335	1.3482424
1	0xbe24b294	-0.16083747

b f4 [2]
0	0x3fd885bb	1.6915811
1	0xbe24b294	-0.16083747

omega_init f4 [5, 2]
0	0x36e88c40	6.930466e-06
1	0xbdcafa12	-0.099109784
2	0xb70cf4e0	-8.401665e-06
3	0xbe042ac6	-0.12906942
4	0x365a7d80	3.2557582e-06
5	0x3e65ec83	0.22453503
6	0xb53dd900	-7.0723763e-07
7	0xbe2e74d1	-0.1703675
8	0xb6acea68	-5.153288e-06
9	0xbe81ddca	-0.25364524

omega_optimized f4 [5, 2]
0	0x3cc61cc3	0.024183637
1	0xbddb45fe	-0.10706709
2	0x3d4841e8	0.048890978
3	0xbe0b6821	-0.13613941
4	0x3d47ee8d	0.048811484
5	0x3e56320e	0.20917532
6	0xbd39b342	-0.04533697
7	0xbe39923f	-0.18122195
8	0xbd3b8d51	-0.045789067
9	0xbe87d1de	-0.26527303

a f4 [2]
0	0x3ff07e61	1.8788568
1	0x3d777414	0.060413435

b f4 [2]
0	0x3fac9335	1.3482424
1	0xbdfddff5	-0.12396232

omega_init f4 [5, 2]
0	0xb4d783c0	-4.0142731e-07
1	0xbea643ef	-0.32473704
2	0x33cb6600	9.471478e-08
3	0xbda6637c	-0.08124444
4	0xb547d480	-7.4442505e-07
5	0x3d776a1d	0.060403932
6	0x35261e60	6.188402e-07
7	0xb979dfbc	-0.00023829838
8	0xb5202f00	-5.967304e-07
9	0xbd8f5050	-0.0699774

omega_optimized f4 [5, 2]
0	0x3cfad23a	0.030617822
1	0xbeb31e2b	-0.34983954
2	0x3d3f06df	0.046637412
3	0xbd623416	-0.055225454
4	0x3d3adc48	0.045620233
5	0x3d60b1e6	0.054857157
6	0x3c95d8e0	0.01829189
7	0x3d3c715a	0.046006538
8	0xbc975129	-0.018471317
9	0xbd44b128	-0.048020512

a f4 [2]
0	0x3ff07e61	1.8788568
1	0x3d777414	0.060413435

b f4 [2]
0	0x3fd0882f	1.629156
1	0xbe24b294	-0.16083747

omega_init f4 [5, 2]
0	0xb8cdb1e2	-9.808295e-05
1	0xbcccdb44	-0.025006898
2	0xb88c1f7a	-6.681583e-05
3	0xbca07608	-0.019587532
4	0x39175ab0	0.00014434266
5	0xbddc8c67	-0.10768967
6	0xb852046e	-5.0072027e-05
7	0x3d8ca674	0.06867686
8	0xb90fbf80	-0.00013708882
9	0xbd92941b	-0.07157155

omega_optimized f4 [5, 2]
0	0x3c3e6d25	0.011622702
1	0xbd955246	-0.07291083
2	0xbcbad980	-0.02280879
3	0x3c2b8f75	0.010471215
4	0xbd5fe789	-0.05466417
5	0xbe1d76bb	-0.15377323
6	0xbd5811e8	-0.05275145
7	0x3d05ec44	0.032696024
8	0xbd35e076	-0.044403516
9	0xbcb73bf7	-0.02236746

a f4 [2]
0	0x3ff07e61	1.8788568
1	0x3d777414	0.060413435

b f4 [2]
0	0x3fe08348	1.7540064
1	0xbe4a752e	-0.19771263

omega_init f4 [5, 2]
0	0xbd605cc9	-0.054775987
1	0xb7e1b380	-2.6905676e-05
2	0xbda390e3	-0.07986619
3	0xb85bc668	-5.239845e-05
4	0xbc90358a	-0.017603654
5	0x38f8e810	0.000118687865
6	0x3d7beafe	0.061503403
7	0x3748f9b4	1.19790675e-05
8	0xba4a9f65	-0.000772944
9	0xb7e36fe8	-2.711262e-05

omega_optimized f4 [5, 2]
0	0xbca7605b	-0.020431688
1	0xbd461cd5	-0.04836734
2	0xbe00551d	-0.12532468
3	0x3cf1401f	0.02944952
4	0xbb0c5a64	-0.0021416182
5	0xbd4271ab	-0.047471683
6	0x3dbe6874	0.092972666
7	0xbd13433a	-0.035952784
8	0x3d2c2f13	0.04203708
9	0x3c9e025a	0.01928823

a f4 [2]
0	0x3ff07e61	1.8788568
1	0x3d777414	0.060413435

b f4 [2]
0	0x3fd885bb	1.6915811
1	0xbe24b294	-0.16083747

omega_init f4 [5, 2]
0	0x3bcf5859	0.0063276705
1	0xbc085cad	-0.008322877
2	0x3ba698e3	0.0050841435
3	0xbbb864f0	-0.005627267
4	0xbc06f0dc	-0.008236136
5	0x3c10cc1b	0.008837725
6	0x3b2ef92e	0.0026698816
7	0x3a732f42	0.00092767563
8	0x3c06c71f	0.008226185
9	0xbc549712	-0.012975471

omega_optimized f4 [5, 2]
0	0x3d0a41e1	0.033754233
1	0xbd621df8	-0.05520436
2	0xbd41c1a8	-0.047303826
3	0xbcbef2f4	-0.023309208
4	0xbc23b165	-0.009991025
5	0xbd1837fe	-0.037162773
6	0x3d2bee01	0.041975025
7	0xbcd86ab7	-0.026418073
8	0x3d5f4235	0.0545065
9	0x3ccb09e4	0.02478499

a f4 [2]
0	0x3fac9335	1.3482424
1	0xbdfddff5	-0.12396232

b f4 [2]
0	0x3fd0882f	1.629156
1	0xbe24b294	-0.16083747

omega_init f4 [5, 2]
0	0xb8a9c544	-8.0952916e-05
1	0x3d278d18	0.04090604
2	0xb895392e	-7.115524e-05
3	0x3d0398f2	0.032128282
4	0x3914ef84	0.00014203606
5	0xbd6487d9	-0.055793617
6	0xb8265e8d	-3.966554e-05
7	0xbd9437b8	-0.0723719
8	0xb90096b5	-0.00012263174
9	0x3bb5ae43	0.0055444553

omega_optimized f4 [5, 2]
0	0xbd1f93a9	-0.03895918
1	0x3d3aca9f	0.04560339
2	0x3d486c15	0.0489312
3	0x3c903a1d	0.017605836
4	0xbd33156d	-0.043721605
5	0xbd81c6b7	-0.0633673
6	0xbd4ac2ce	-0.049502186
7	0xbd7e0ed2	-0.062025853
8	0xbd4a8de4	-0.049451724
9	0xbc5e590d	-0.013571036

a f4 [2]
0	0x3fac9335	1.3482424
1	0xbdfddff5	-0.12396232

b f4 [2]
0	0x3fe08348	1.7540064
1	0xbe4a752e	-0.19771263

omega_init f4 [5, 2]
0	0xb889b64f	-6.566627e-05
1	0xbd878d12	-0.06618704
2	0x3820f59c	3.8375714e-05
3	0x3c5dcefa	0.013538117
4	0xb7cd7620	-2.449291e-05
5	0x3dd765e9	0.10517485
6	0xb8061725	-3.1969645e-05
7	0xbd8d5b23	-0.069021486
8	0xb7a5fd48	-1.9787476e-05
9	0xbe07ccc6	-0.13261709

omega_optimized f4 [5, 2]
0	0x3d3546f1	0.044257108
1	0xbda89a11	-0.08232511
2	0x3d37a192	0.04483182
3	0x3c4c6f1a	0.012477661
4	0x3d480277	0.048830476
5	0x3d9f95a6	0.07792215
6	0xbcd4f7ba	-0.025997031
7	0xbd92ef12	-0.07174505
8	0xbcf317f0	-0.0296745
9	0xbe3229fe	-0.17398831

a f4 [2]
0	0x3fac9335	1.3482424
1	0xbdfddff5	-0.12396232

b f4 [2]
0	0x3fd885bb	1.6915811
1	0xbe24b294	-0.16083747

omega_init f4 [5, 2]
0	0x3585b040	9.960568e-07
1	0xbd96f402	-0.073707595
2	0x3742b910	1.1606389e-05
3	0xbcaea530	-0.021319002
4	0x37b79160	2.1882995e-05
5	0x3da1b092	0.07895006
6	0xb6791e00	-3.7121354e-06
7	0xbd6a5b31	-0.057215873
8	0xb7473f74	-1.1876098e-05
9	0xbe00bf99	-0.12573089

omega_optimized f4 [5, 2]
0	0x3d02047d	0.03174256
1	0xbda7ec5a	-0.08199377
2	0x3d4927fd	0.0491104
3	0xbccdc457	-0.025118036
4	0x3d49cf60	0.049270034
5	0x3d7920bd	0.060822237
6	0xbd39a563	-0.04532374
7	0xbd7f8ab4	-0.062388137
8	0xbd3c3225	-0.04594626
9	0xbe0b4691	-0.13601138

a f4 [2]
0	0x3fd0882f	1.629156
1	0xbe24b294	-0.16083747

b f4 [2]
0	0x3fe08348	1.7540064
1	0xbe4a752e	-0.19771263

omega_init f4 [5, 2]
0	0x3bc3296d	0.005955866
1	0x3da3c0f9	0.07995791
2	0x3bccef0c	0.0062540825
3	0x3c851607	0.016245855
4	0xbbf97a91	-0.007613488
5	0x3d84be23	0.06481578
6	0x3b8b0e44	0.004243644
7	0x3c1c2917	0.009531281
8	0x3c28ceaf	0.010303183
9	0xbd11f86e	-0.03563731

omega_optimized f4 [5, 2]
0	0x3d5ae243	0.053438436
1	0x3db0dc1e	0.08635734
2	0xbcd939a1	-0.026516737
3	0x3d660667	0.05615845
4	0x3d2005e2	0.03906811
5	0x3caf718b	0.021416446
6	0x3d1abee7	0.037779715
7	0xbd09549d	-0.03352796
8	0x3d21e05c	0.039520606
9	0xbd9e95ff	-0.07743453

a f4 [2]
0	0x3fd0882f	1.629156
1	0xbe24b294	-0.16083747

b f4 [2]
0	0x3fd885bb	1.6915811
1	0xbe24b294	-0.16083747

omega_init f4 [5, 2]
0	0x3a9ba8a8	0.0011875825
1	0x3bf095d8	0.0073420815
2	0x3c1bca62	0.009508701
3	0x3d167f81	0.03674269
4	0xbbd53ed5	-0.0065077343
5	0x3d6da12a	0.058015026
6	0x3ba75df6	0.0051076366
7	0x3c8b5b16	0.017011207
8	0x3c3d26f5	0.011544933
9	0xbc68db81	-0.01421249

omega_optimized f4 [5, 2]
0	0x3d36181a	0.04445658
1	0x3d2f4224	0.042787686
2	0x3d230c66	0.039806746
3	0x3ce169ca	0.027516264
4	0x3d0d905f	0.03456151
5	0x3d2202dc	0.03955351
6	0xbad89c84	-0.0016526137
7	0xbcae2eba	-0.021262515
8	0xbcee8d10	-0.029119998
9	0xbd65695a	-0.056008674

a f4 [2]
0	0x3fe08348	1.7540064
1	0xbe4a752e	-0.19771263

b f4 [2]
0	0x3fd885bb	1.6915811
1	0xbe24b294	-0.16083747

omega_init f4 [5, 2]
0	0x3a9ba8a4	0.001187582
1	0xbc0b3c14	-0.00849821
2	0x3c1bca61	0.0095087
3	0x3c935eba	0.017989505
4	0xbbd53ed7	-0.0065077352
5	0x3d1e173a	0.03859637
6	0x3ba75df6	0.0051076366
7	0x3c75422f	0.014969393
8	0x3c3d26f5	0.011544933
9	0xbbeb51dd	-0.0071813897

omega_optimized f4 [5, 2]
0	0xbd1d4bff	-0.038402554
1	0x3d104326	0.035220288
2	0xbbd2a174	-0.006427938
3	0x3d50ffaa	0.05102507
4	0xbd1ff033	-0.03904743
5	0x3da52202	0.08063127
6	0x3cd8d3d8	0.026468202
7	0xbcc5a298	-0.024125382
8	0x3d3ce90a	0.04612068
9	0xbd48021c	-0.048830137
