src/artifacts/decoder_ld2_ep600_bs64_lr1e-03.pth (torch, 16072 bytes, 4 tensors)

0.weight f4 [64, 2]
000000 7a a8 58 40 3d 39 ee 40 8c 82 b6 c0 14 5c 77 40
       3.385283 7.444487 -5.703436 3.864995
000010 5c 05 28 c0 72 0a 10 c1 0a a5 31 bf 18 9e c3 c0
       -2.625327 -9.00255 -0.69392455 -6.1130486
000020 b1 27 05 41 2f 6b 64 40 f7 a6 d1 bf 87 3a b1 40
       8.32219 3.569042 -1.6379079 5.5383945
000030 91 12 5c 40 0a 9b 0a c1 be 31 50 c1 ee f6 8d be
       3.4386332 -8.662851 -13.012144 -0.27727455
000040 68 32 93 40 df 13 7e 40 7b 92 15 41 7e fe 75 c0
       4.599903 3.9699628 9.348262 -3.843658
000050 33 68 bd 3e 25 f2 e8 c0 db 0b 0e c0 41 25 10 41
       0.3699356 -7.2795587 -2.2194736 9.009095
000060 81 18 50 41 8e 66 e2 bf a2 f6 1b 41 b6 b9 c2 3f
       13.005982 -1.7687547 9.747713 1.5212924
000070 9b 34 63 c0 82 76 c0 40 d7 c5 80 c0 6a 7b ac 40
       -3.5500858 6.0144663 -4.0241504 5.390065
000080 76 f9 b3 bf 7d b1 10 41 4d 83 2b 41 57 aa 44 c0
       -1.4060504 9.043332 10.719556 -3.0728967
000090 03 28 b4 40 b9 76 cc c0 58 30 7f bf e7 97 9c c0
       5.6298842 -6.3894925 -0.9968314 -4.893543
0000a0 2d e9 b6 c0 db 10 a4 40 b5 58 94 40 41 c1 15 41
       -5.715964 5.1270576 4.6358285 9.359681
0000b0 a3 a0 2d 41 5b 4b f3 be ee 06 b5 c0 a3 93 0a 41
       10.851718 -0.4751843 -5.657096 8.661044
0000c0 33 f9 94 c0 35 10 7d 40 68 71 af be 1a d5 fb c0
       -4.65542 3.9541142 -0.3426621 -7.8697634
0000d0 f8 be ae 40 c4 e2 7f 40 1f 6c f5 40 71 3e ce c0
       5.4608116 3.9982157 7.6694484 -6.4451222
0000e0 cc 72 0f 3f 61 5c fc c0 ac 66 0c 41 62 fa 1d c0
       0.5603454 -7.8862767 8.775066 -2.4684072
0000f0 cc f9 19 c0 6c 34 0a 41 52 05 0b c0 07 e9 13 c1
       -2.4058714 8.637798 -2.1721997 -9.244391
000100 7f f0 82 c0 2f e4 a3 40 fa 08 e4 40 5a c6 89 c0
       -4.0918574 5.1216044 7.126096 -4.305463
000110 c2 53 9a bf 1e 71 32 c1 3d 1b c1 c0 1a 51 75 c0
       -1.2056811 -11.1526165 -6.034575 -3.833075
000120 7e ce 1b c1 74 fc 2c 40 e6 47 06 3f e8 6a 0d 41
       -9.737913 2.7029085 0.5245346 8.8386
000130 ad 8f c1 40 84 fd 00 41 93 b5 0a 41 f4 ed 74 be
       6.0487885 8.061893 8.66933 -0.23918897
000140 aa 16 89 c0 52 65 b7 40 75 be 41 40 d6 20 c0 40
       -4.2840166 5.731118 3.0272496 6.0040083
000150 8b fb 61 c0 1d cc e8 c0 c0 8c 13 41 54 54 96 3f
       -3.530978 -7.274916 9.221863 1.1744485
000160 d4 e1 6e c0 3a e3 b3 40 e2 69 62 c0 cd 43 03 41
       -3.7325335 5.6214876 -3.5377126 8.204053
000170 9a 43 87 40 12 b4 23 40 98 84 69 3f b6 dc b6 c0
       4.227002 2.5578656 0.91217947 -5.7144423
000180 8c a4 02 c1 1b 78 ba c0 3b 37 ae 3f bd 62 a4 c0
       -8.165173 -5.8271613 1.3610605 -5.137053
000190 81 96 2f 41 02 18 5c 40 12 d3 07 c1 9e 66 89 40
       10.974244 3.4389653 -8.489031 4.2937765
0001a0 fb c0 16 41 a8 e9 9a 3f b0 28 a9 be 17 83 1b c1
       9.422114 1.2102556 -0.33038855 -9.719504
0001b0 b1 88 b3 c0 4d 97 74 40 ec d9 7a c0 44 de 8f 40
       -5.610436 3.8217347 -3.919551 4.495882
0001c0 54 ba e6 c0 da 90 96 c0 49 4c 15 3f 63 70 e2 c0
       -7.210245 -4.705182 0.58319527 -7.076219
0001d0 5f bc bd c0 df 74 b2 c0 61 2e ab c0 f0 6d b4 40
       -5.9292445 -5.5767665 -5.3494115 5.63842
0001e0 e6 c3 8f c0 a7 ab f3 c0 3b 6b 33 c1 55 d3 e3 3e
       -4.4926634 -7.6147037 -11.213679 0.4449717
0001f0 c8 b2 1d c0 05 4a 07 41 8b 2d fc c0 d4 3e 87 40
       -2.464037 8.455571 -7.8805594 4.2264194

0.bias f4 [64]
000000 85 11 8b 40 fb 9e a7 40 90 91 ba 3d 41 c1 d6 c0
       4.3458886 5.238157 0.09109795 -6.7110906
000010 37 db fe 3f 70 67 07 41 8d c9 d3 40 3e 35 96 40
       1.9910649 8.462753 6.6183534 4.6939993
000020 8c f3 ae c0 c2 5c 60 40 c9 a7 38 3f de 9e d9 bf
       -5.46723 3.5056615 0.7213102 -1.7001607
000030 24 70 1c c0 13 18 04 3f d7 d3 8d 40 29 7f e9 3f
       -2.4443445 0.51599234 4.4321094 1.8241931
000040 95 38 d8 3f 76 12 42 3d b1 c9 3b 40 8b 66 11 c1
       1.6892267 0.047380887 2.9341853 -9.087535
000050 45 97 6e 40 ca 22 cf 3f 8a f9 37 40 b2 07 9c bf
       3.7279828 1.6182492 2.8746057 -1.2189848
000060 75 97 f8 40 8a d8 c1 c0 bb 97 d7 40 cb 21 f1 be
       7.7684884 -6.057683 6.737272 -0.47096094
000070 82 68 01 c0 fc 35 87 3f 03 b0 89 40 d7 15 52 c0
       -2.0220037 1.056335 4.302736 -3.282583
000080 5b 42 08 40 e1 f5 83 40 e3 14 93 40 02 d1 6b c0
       2.12905 4.1237645 4.5962996 -3.6846318
000090 d6 86 c6 40 7a ca 46 40 a1 fd 27 bf e0 0b df 40
       6.2039595 3.1061082 -0.6562138 6.9701996
0000a0 bf bc 0a 40 2d bd e8 40 f1 56 16 41 9d 4d a4 be
       2.1677701 7.2730927 9.396226 -0.32090464
0000b0 2c 0d 98 40 5c 79 24 40 cc ce 11 41 61 84 6f c0
       4.751608 2.5699072 9.1129875 -3.7424548
0000c0 65 4e bd 40 11 17 71 c0 b5 27 3d c0 6e d9 7e 40
       5.9158196 -3.7670329 -2.9555485 3.9820209
0000d0 4b ba 97 be 37 2c 57 bf 7d 42 a6 40 92 66 94 40
       -0.29634318 -0.8405184 5.1956162 4.637521
0000e0 c8 ef 4d 3f 0c c7 6d c0 4d 5f 17 c0 d8 48 4f 40
       0.80444 -3.7152739 -2.3651917 3.238821
0000f0 76 9e 4a 40 67 da 8d bf ac 0d bb 3f f7 6c 9e 3f
       3.1659217 -1.1082276 1.4613547 1.2377003

2.weight f4 [50, 64]
000000 38 1c ba be fa 8e 22 3f 2e 56 34 3e c6 4c 88 c0
       -0.36349654 0.63499415 0.17611 -4.2593718
000010 ee 1d a4 bf a4 91 29 40 1b 92 4b c0 32 c7 92 40
       -1.2821634 2.6495142 -3.1807926 4.586816
000020 d8 84 94 bf 24 ff 51 be 9a e2 9d 3f f2 93 e9 be
       -1.1603041 -0.20507485 1.2334778 -0.45620686
000030 b5 d5 84 40 0e 5d 4d bf ac a5 a6 3f 88 bd 70 bf
       4.1510873 -0.80220115 1.3019309 -0.940392
000040 7b f4 0e 3f cd fe e3 3f 12 d0 6e bd 94 4f a0 3f
       0.558418 1.7812134 -0.0583039 1.2524285
000050 cf ed 24 3e 01 ff 08 40 62 f2 35 c0 a0 22 27 be
       0.16106342 2.1405642 -2.8429189 -0.16321802
000060 2b 34 7a bf 66 18 e1 bf 66 bd b2 3c 69 84 24 40
       -0.9773585 -1.7585571 0.021818828 2.5705817
000070 34 a7 b2 3e 63 00 9c 3f 28 c7 a4 bf e7 02 2e 40
       0.3489319 1.2187618 -1.2873278 2.7189271
000080 01 e4 f9 3a ed d6 c6 be c6 d9 4f bf f4 89 d8 bf
       0.0019065143 -0.3883585 -0.8119167 -1.69171
000090 f5 9e c4 3e 3f aa 0d 3e 2f c6 98 bf ce 86 84 be
       0.38402525 0.13834475 -1.1935481 -0.25884098
0000a0 2a 19 84 be 2e d2 de bf 94 2e 53 3f f1 aa 09 bf
       -0.2580045 -1.7407892 0.8249295 -0.5377646
0000b0 8b 57 63 40 9f 8a f2 bf 37 2f 0b c0 a9 1c 51 c0
       3.5522182 -1.8948554 -2.1747568 -3.2673743
0000c0 3f a4 8b 3d 4f 0b fc bf 88 15 3e 3f d5 bb 03 c0
       0.06818437 -1.9690951 0.74251604 -2.0583394
0000d0 46 d0 d9 be 50 89 7e 3e 72 e7 20 3f 47 a9 3e 40
       -0.42541713 0.24857068 0.6285316 2.9790819
0000e0 0a 04 3e bf e8 a4 c3 bf 36 15 5f 3e 3d 4a 42 3e
       -0.74224913 -1.52847 0.21785435 0.18973632
0000f0 13 7a ad 3d f8 77 c0 c0 b5 98 be be 13 c3 7a bf
       0.084705494 -6.0146446 -0.3722588 -0.9795391
000100 6a 19 04 c0 c9 d6 94 3f ca ec 81 3f 31 6f bd bf
       -2.0640512 1.1628047 1.0150387 -1.4799558
000110 58 d5 d6 3f d0 52 44 3f 57 df 89 be bf 8d a2 bf
       1.6783857 0.7668886 -0.26928207 -1.2699507
000120 95 6a 60 bf 63 6f 06 40 92 67 11 3f 2c d0 20 3f
       -0.8766263 2.1005485 0.5679866 0.62817645
000130 55 d9 2a c0 0d a6 0c 40 19 00 39 3f 90 7b 44 bf
       -2.669515 2.197635 0.72265774 -0.7675104
000140 93 8d f9 be 98 3e 47 c0 ef 40 84 3c 29 54 eb bf
       -0.48740825 -3.1131954 0.016144244 -1.8385059
000150 1e 29 82 3f b4 f0 fa 3e cf eb 58 3e 34 32 1e c0
       1.0168798 0.49011767 0.21183704 -2.4718142
000160 37 aa 9b bf 80 c5 92 be f9 56 1a 3f c1 e9 49 bf
       -1.216132 -0.28666306 0.6028896 -0.78872305
000170 d2 63 32 bf 65 d1 03 c0 69 37 6c bf 0e ea 7c 3f
       -0.69683564 -2.0596554 -0.9227205 0.9879464
000180 c6 7e 76 3b ea 8f 1b 40 80 39 ab 3d 2e 03 9e 3f
       0.0037612184 2.4306588 0.08360577 1.234472
000190 af d3 b7 bf 24 7b cd 3d 5f f4 9e bf 35 43 f3 bc
       -1.4361476 0.10033253 -1.2418326 -0.029695133
0001a0 3e 4d 90 be cb a6 cb bf c7 53 6a bf 90 9e 3a 40
       -0.2818393 -1.5910276 -0.91534084 2.915928
0001b0 89 f1 c1 3f 09 57 64 3e b6 02 f8 bd 69 ad 46 bf
       1.5151836 0.22298826 -0.12109892 -0.7760835
0001c0 fb 2f 42 be 9b 02 00 c0 75 bd 5a bf 48 46 e8 3e
       -0.18963616 -2.000159 -0.8544534 0.4536612
0001d0 39 4f 32 40 81 1d 7f be 8b e3 85 3f a5 59 d4 3f
       2.7860854 -0.24913599 1.0460066 1.6589857
0001e0 68 56 03 c0 67 86 1b 3f 1c c8 60 c0 43 04 55 3f
       -2.0521488 0.60751957 -3.5122137 0.8320963
0001f0 37 ef 97 3f 86 a8 3f 40 d7 93 d3 3e 01 d3 a4 bf
       1.1869878 2.9946609 0.4132373 -1.2876893
000200 45 63 c2 bf b3 f0 0f c0 da 0c e6 3f 13 3b c8 bd
       -1.5186545 -2.249066 1.7972672 -0.097768925
000210 8f b1 0a 40 9f f7 9f be 30 23 18 bf 20 69 8a 3f
       2.1670873 -0.31243607 -0.5942869 1.0813332
000220 e4 be f1 bd 9d cb 66 bf 07 3e ea 3e 00 42 68 3d
       -0.118039876 -0.9015444 0.45750448 0.056703568
000230 0f d5 38 be 92 21 93 3c e4 ae b9 bf 27 f1 27 40
       -0.18050025 0.017960344 -1.4506497 2.6240938
000240 d4 66 58 3f 21 0f dd 3f d2 6c 02 bf 9c fc bd be
       0.84531903 1.7270242 -0.50947297 -0.37106788
000250 ce 1c 0f 40 c1 ac 89 3e ab b4 33 bf 00 77 f9 3e
       2.236133 0.26889613 -0.7019755 0.48723602
000260 0f e1 29 c0 1a da 7c 3f d3 49 5e 3f f2 b5 27 bf
       -2.6543615 0.98770297 0.86831397 -0.65512
000270 f7 01 9b 3e 3f f5 91 3f 88 b7 fa be 56 db e5 bf
       0.30274937 1.1402968 -0.48968148 -1.7957561
000280 55 b3 07 40 06 80 2d be de d8 10 3e d8 2d 11 40
       2.1203206 -0.16943368 0.14145228 2.268423
000290 0f b4 dc 3f ab c5 e3 3d 59 6e e6 bf f1 00 ef bd
       1.724245 0.111216865 -1.8002425 -0.116701014
0002a0 8e 96 14 40 ff 5a 60 3c 36 35 12 3f 87 99 91 3d
       2.3216891 0.01369357 0.57112443 0.07109361
0002b0 90 fb 0a c0 74 d5 a5 be 87 dc d2 3f 91 56 7d bf
       -2.1716042 -0.32389414 1.647355 -0.98960215
0002c0 7b 6f 47 be b1 9a b4 bf 7f 3c cf bf 55 f9 e5 3f
       -0.1947612 -1.4109708 -1.6190337 1.7966715
0002d0 66 26 69 3e be c8 5f 3f 71 77 01 c0 4b 3a 4d c0
       0.22768554 0.87415683 -2.0229151 -3.206683
0002e0 5d 0a d1 bf 30 fc 3d bf 71 58 1b c0 cd 65 09 40
       -1.6331288 -0.7421293 -2.427273 2.1468384
0002f0 f8 78 67 3f 31 1c 00 c0 26 88 49 bf dd 28 19 3e
       0.9041896 -2.0017207 -0.7872337 0.14956994
000300 ba 19 29 3f fd 79 94 bf 57 36 cd bf f1 3d d1 3f
       0.6605488 -1.1599728 -1.6032208 1.6347028
000310 3e 18 b9 3f 2d 57 9e bf a6 0c 19 3d 98 3b 04 3f
       1.4460523 -1.2370354 0.037365578 0.5165343
000320 a2 5c c8 3f 86 3d 52 bf f8 9e f8 bf 9b 74 ca bf
       1.5653269 -0.8212513 -1.9423513 -1.5816835
000330 98 49 8e 3f 01 b0 e1 be f0 a6 88 bd 5f f3 a8 3f
       1.1116209 -0.44079593 -0.06672466 1.3199271
000340 c2 7a 33 3f 57 07 ea 3f 69 79 03 bf 53 8a eb bf
       0.7010919 1.828349 -0.5135713 -1.8401588
000350 9f 0c 0d 3f e6 66 ea bf 6b a3 fe bf 3e ba 08 40
       0.55097383 -1.8312652 -1.9893621 2.1363673
000360 ca 2a 9f bf 58 77 bb 39 e9 6a 2b be 34 02 a4 bf
       -1.2434933 0.00035756337 -0.16740002 -1.2813172
000370 9c d2 75 3f eb a7 90 3f 99 f1 16 b9 5d ff d0 3f
       0.9602449 1.1301244 -0.00014395117 1.6327931
000380 0f a1 56 3e 70 eb 94 3f d8 05 91 3f 7d 5c 67 40
       0.20959876 1.163435 1.1329908 3.61502
000390 01 82 f7 bd 24 44 06 3f 38 2b 94 bc 25 a1 0f 3e
       -0.12085343 0.52447724 -0.018087015 0.14026316
0003a0 b5 b6 38 3f 38 ce 46 3f ff 8a 8a 3c f4 e2 c9 be
       0.7215379 0.77658415 0.016911982 -0.39430964
0003b0 d4 2e bf bf 78 7c 90 3f 67 e4 3f 3f 82 d3 c8 be
       -1.4936166 1.1287985 0.7495789 -0.39223868
0003c0 9d b9 c3 bf 18 72 09 bf c1 84 f3 bf 87 2d 6c 3d
       -1.529102 -0.5368972 -1.9024888 0.057660606
0003d0 01 a6 06 3d b6 6a b5 bf c2 d5 86 bf 28 9b b3 be
       0.032873157 -1.417319 -1.0533984 -0.35079312
0003e0 5a 26 ea bc 8d 1c 99 3f 37 79 bb be 25 88 4a 3f
       -0.02858274 1.1961838 -0.36615917 0.7911399
0003f0 74 ce 26 3f e5 a9 35 bc 09 7b b7 3f e4 07 d1 bd
       0.6515877 -0.011087869 1.4334422 -0.10206583

2.bias f4 [50]
000000 0a 4c a9 3f 77 d9 cb 3f 09 6b 31 40 a5 7f 8e be
       1.322633 1.592574 2.772158 -0.2783176
000010 07 ab 71 3f 4d 2a 6b c0 8b a0 20 40 c8 9a d2 3f
       0.9440159 -3.6744568 2.5097988 1.6453485
000020 70 f7 6d bf bc 6a 79 bf 7a 81 90 3f fd 4b e5 bf
       -0.92955685 -0.9742849 1.1289513 -1.7913815
000030 20 7a 80 40 ea 7c b4 bf c4 5a e6 3f b3 5c 2f bf
       4.014908 -1.4100621 1.799645 -0.6850082
000040 63 31 b5 bf 17 c2 37 3f bf 58 88 3c ba bf 79 bf
       -1.4155697 0.7178053 0.01664388 -0.97558177
000050 2a a9 64 bf aa bb 31 40 2b 5a 5c 3f 8c 98 bb 3e
       -0.89320624 2.777079 0.86075085 0.36639822
000060 3a 50 16 40 79 01 ad bd 59 f9 32 c0 3f c2 44 40
       2.3486466 -0.084475465 -2.796469 3.0743558
000070 0a cb f0 be db d7 b8 bf c5 93 d0 3d 9b ac 1e 3e
       -0.47029907 -1.4440874 0.10184435 0.15495531
000080 d1 57 80 be 34 1e 6d bf 34 f4 71 bf da 94 46 bf
       -0.25067 -0.9262421 -0.9451325 -0.7757088
000090 8c 4a 58 3f 96 8e cb 3e 88 13 dc be 78 0e de bd
       0.8448875 0.39757222 -0.4298365 -0.108426034
0000a0 96 5e b8 3f d3 65 0f 40 32 58 72 bf 65 1e d3 be
       1.4403865 2.2405899 -0.94665825 -0.41234127
0000b0 7c 0a 32 3e 06 27 9e 3f af ea ad be 34 f2 ca bf
       0.17386812 1.2355659 -0.33968112 -1.5855165
0000c0 0c be 92 3f 04 72 5b 3f
       1.1464248 0.8572085
