src/artifacts/decoder_Avae_ld2_ep600_bs64_lr1e-03.pth (torch, 16176 bytes, 4 tensors)

net.0.weight f4 [64, 2]
000000 18 5e a5 3e b5 aa 7b 40 3a 09 c2 bf eb 82 a9 3f
       0.3229835 3.9322941 -1.5159066 1.3243078
000010 2f 3f a7 3c 67 67 bd bf dc a8 c4 be 5b 10 42 bf
       0.02041587 -1.4797181 -0.3841008 -0.75806206
000020 6b 41 8f 3f e7 65 1c bf 11 93 0e bf 75 04 e4 3e
       1.1191839 -0.6109299 -0.55693156 0.4453465
000030 e9 f7 e4 3e 13 99 e5 bf dd 7e 8b c0 56 6a 99 bc
       0.4472039 -1.793734 -4.3592362 -0.018727463
000040 b4 55 6c 3f 95 91 fe 3f f0 ea be 3f 66 bf 4c be
       0.9231827 1.9888178 1.4915447 -0.19994888
000050 f5 3b b2 3e b5 6f 91 bf 7d 69 fc 3e be f8 6b 40
       0.3481137 -1.1362215 0.4929923 3.687057
000060 30 24 65 40 1d 2f 89 bf 30 a2 e4 3f 3f c3 80 3e
       3.5803337 -1.0717503 1.7861996 0.2514896
000070 f0 d7 b4 bf 15 bf 2a 40 86 f2 ad bf 0f f0 fa 3f
       -1.4128399 2.6679127 -1.3589637 1.960451
000080 c5 3d a9 bf 25 dc e4 3f de 77 49 3f 75 ce 30 bf
       -1.3221976 1.7879683 0.7869853 -0.6906503
000090 39 b4 46 3f 30 c8 05 bf 8c 05 1c 3f da e4 ac bf
       0.7761875 -0.52258587 0.60945964 -1.350734
0000a0 79 52 d3 bf a8 a3 ad 3f fd d5 c0 3f 81 3c 3d 40
       -1.6509544 1.3565569 1.5065304 2.9568179
0000b0 66 a9 1a 40 a2 5d f0 be 2e 39 8a bf 85 2c 6b 3f
       2.4165893 -0.46946436 -1.07987 0.91864806
0000c0 eb 6a b1 bf 8c 67 9b bf d5 a4 08 be 07 cb a4 be
       -1.3860754 -1.2140975 -0.13344128 -0.32186148
0000d0 00 0e 8b 3f 3c f5 80 40 b4 48 3c 3e a8 2e 5d be
       1.0863647 4.029936 0.18387109 -0.21599829
0000e0 b0 34 a2 3f d6 02 24 bf ff 50 cc 3f a1 4c 0d be
       1.2672329 -0.6406683 1.5962218 -0.13798763
0000f0 5f 7a 9f bf d3 4d 77 40 d1 72 a0 bf d7 62 0d c0
       -1.245922 3.864125 -1.2535039 -2.2091577
000100 38 b1 c7 bf d9 5c 8e 3f 03 29 57 3f 29 2d 39 bf
       -1.5600958 1.1122085 0.84046954 -0.72334534
000110 96 5e 0e c0 7c 9b c3 bf 89 ea 37 c0 3b 04 98 3f
       -2.224523 -1.5281825 -2.87369 1.1876291
000120 01 eb e0 bf 8c 5d d7 bf 6e 04 c4 bf 7e c8 38 40
       -1.7571718 -1.6825423 -1.5313852 2.887237
000130 c8 ad f1 3f 32 e3 19 40 33 e4 c5 3f 90 bb 9d 3f
       1.8881159 2.404492 1.5460266 1.2322865
000140 79 ae b5 bf 8f 4f 69 3f 79 07 c4 3f d9 71 8b 40
       -1.419387 0.9113702 1.531478 4.3576474
000150 46 d0 bc bf 6c 2d 29 be 26 c1 c7 3f e0 58 1a 3e
       -1.475106 -0.16521233 1.5605819 0.15072966
000160 99 de 6b bf 3a a2 8c 3f 4d 40 9e bf 62 2d fc 3f
       -0.9213653 1.0987008 -1.2363373 1.970135
000170 1f f7 12 40 f0 4d 48 3f 0f dc 02 3e 5b 0d 5a bf
       2.296333 0.78243923 0.12779258 -0.8517663
000180 97 ec cc bf b5 18 f6 bf b6 b8 54 3f e0 e2 46 bf
       -1.6009701 -1.922629 0.83094347 -0.77689934
000190 33 09 04 40 42 eb b3 3f 91 8d fa bf 55 cc a9 3f
       2.0630615 1.405617 -1.9574453 1.3265482
0001a0 e7 35 9c 3f c1 03 46 3e 97 c3 8a bd cc e5 ab bf
       1.220395 0.1933737 -0.06775587 -1.3429503
0001b0 c7 e4 a4 bf ed 31 3e 3f b9 92 43 be 46 b6 61 40
       -1.2882317 0.7429493 -0.19098939 3.52675
0001c0 7a ef e7 bf f6 88 5d bf 1b 66 84 3e 27 07 e8 bf
       -1.8119957 -0.8653711 0.2585915 -1.8127183
0001d0 2a 98 da bf 80 a7 88 be 7b 62 c5 bf ff b0 cc 3f
       -1.7077687 -0.26690292 -1.5420679 1.5991515
0001e0 ac c7 90 bf a2 8a b9 bf 83 50 fc bf 4c 2a a2 be
       -1.1310935 -1.4495432 -1.971207 -0.31672895
0001f0 95 3b 9a bf a0 0b 3c 40 d7 c4 c6 bf 13 1f ca 3f
       -1.2049433 2.9382095 -1.5528821 1.5790733

net.0.bias f4 [64]
000000 20 03 d3 40 bf 64 2d 40 8f 09 11 c1 a7 d8 36 c1
       6.5941315 2.709274 -9.064834 -11.427894
000010 e6 0f b2 c0 1e 38 44 41 0e 78 ef 40 ab b1 1a bf
       -5.5644407 12.2637005 7.483405 -0.6042735
000020 04 82 35 c1 34 8c 30 3f c0 50 37 41 8a a2 3c c0
       -11.344242 0.68963933 11.457214 -2.9474206
000030 70 f0 98 c0 ff ef 33 40 fd 91 b1 c0 7d a8 21 bf
       -4.7793503 2.8115232 -5.549071 -0.6314772
000040 c0 91 72 c0 4e 0d cd 40 20 5e 46 41 30 6f 0d c1
       -3.7901459 6.407874 12.39798 -8.839645
000050 f3 49 1d bf b2 52 d6 c0 60 23 2d c1 94 a5 4b c1
       -0.6144096 -6.6975946 -10.821136 -12.727924
000060 be ea 30 41 f4 9e 0a 3e b6 9e eb 40 cd 5e 91 3e
       11.05731 0.13537198 7.363124 0.2839264
000070 ce 5e 8f c0 96 de e1 40 8b a9 e3 3f 07 3d 76 c0
       -4.480323 7.058421 1.7786115 -3.8474748
000080 78 95 c2 40 0d a2 d7 40 55 fa a0 c0 8d 10 d6 c0
       6.0807457 6.7385316 -5.030558 -6.6895204
000090 a0 d6 02 c1 5d 4f 8c 40 57 b1 0c bf 00 96 34 41
       -8.177399 4.384688 -0.549581 11.286621
0000a0 64 19 18 c1 16 6c be c0 e2 1d e7 40 1a b7 9c c0
       -9.506199 -5.950694 7.222398 -4.8973513
0000b0 d7 49 0a 41 78 d5 4b c1 7d 22 17 c0 21 9f 2c c1
       8.643027 -12.739616 -2.36148 -10.78885
0000c0 88 cd a8 c0 0e 84 d4 c0 5c dd 06 c1 1b 54 a0 40
       -5.2750893 -6.64112 -8.429043 5.010267
0000d0 3d ea 35 c1 97 d9 33 41 48 34 37 41 1b e0 04 3e
       -11.369687 11.2406225 11.450264 0.12976114
0000e0 a3 f0 11 c1 13 7d dc c0 4b be 78 c0 ba a4 ac c0
       -9.121249 -6.890268 -3.8866146 -5.395108
0000f0 e9 43 00 41 b7 3b a9 c0 60 da d0 40 42 34 fb 3f
       8.01658 -5.2885394 6.526657 1.9625323

net.2.weight f4 [50, 64]
000000 32 34 64 bf 0e 2c 8e 3f 82 d6 ad 3e cf 9d 3f 3f
       -0.89142144 1.1107194 0.3395272 0.7485017
000010 af ff 7b 3e 3e 48 4a 40 11 de 37 3e 6e e6 22 be
       0.24609254 3.1606593 0.17955805 -0.15908214
000020 ef 0a 84 3e ba 02 4d be aa 99 d2 bf 4a 5b 46 3f
       0.25789592 -0.20020571 -1.6453145 0.77483046
000030 9a c2 b6 3e 72 67 6c 3f 64 3f f0 3e 65 94 4d bf
       0.35695344 0.92345345 0.46923363 -0.8030456
000040 20 de d4 be 21 fb d8 3e 88 01 7d bf 9e 61 07 3f
       -0.41575718 0.42379096 -0.9883046 0.52883327
000050 87 c4 12 3f 0b c2 47 bd bb 95 09 3f cb 6c 21 3f
       0.57331127 -0.04876904 0.53744096 0.6305663
000060 08 fe 54 3f 78 75 0e 3e df 6b db 3e 49 6b d2 3e
       0.8320012 0.13911998 0.42855737 0.41097477
000070 e7 a7 2e bd 41 25 52 bf 7b 11 13 3e 7f a3 28 bf
       -0.042640593 -0.82088095 0.14362137 -0.65874475
000080 82 6b 88 3f 22 43 14 3f 49 45 51 be f1 1a 18 c0
       1.0657809 0.57914937 -0.20436586 -2.3766444
000090 40 b4 a3 3e 55 fa 4a bf c4 36 83 3d 09 4d 1c bf
       0.31973457 -0.79288226 0.0640693 -0.61055046
0000a0 6f 36 39 3f 96 f6 9d be 14 09 1b 3f 5e b3 ae 3f
       0.72348684 -0.30852193 0.6056073 1.3648489
0000b0 57 af 7d 3f ba eb 56 bf d5 5f 89 be e8 e6 d0 3e
       0.9909567 -0.8395344 -0.26830927 0.40801167
0000c0 da 3c e6 3e d8 17 04 bf 13 17 c3 bf 2b bc 8d 3f
       0.449683 -0.5159888 -1.5241417 1.1073049
0000d0 3b 88 20 3f 5b 40 9e bf 15 37 7a bf 21 b9 29 3f
       0.6270787 -1.236339 -0.977403 0.6629811
0000e0 f0 03 75 be 26 4a 2d be f2 5f 74 bd b5 61 06 3f
       -0.23927283 -0.16922817 -0.059661813 0.5249284
0000f0 b4 70 8c bd 18 cb 1b be 75 ce a5 bf ea 9e 9b 3e
       -0.06857434 -0.15214193 -1.2953631 0.3039468
000100 8d 75 ad bd 6c 85 7b 3f eb f3 93 be 27 1b 0d 3f
       -0.08469687 0.9825046 -0.28897032 0.55119556
000110 2b 4d b5 3e c6 fc 29 40 a8 12 5d bd 69 d2 8c bd
       0.35410437 2.656053 -0.05397287 -0.0687607
000120 ff 5f b0 be 3d fd 85 be ef cb 6b be 1d e0 27 3f
       -0.3444824 -0.26169768 -0.23027013 0.65576345
000130 93 24 05 3f 58 43 c5 3f bb 9e 76 be 74 22 93 bf
       0.5200893 1.5411177 -0.24083988 -1.1494889
000140 f6 f2 99 bf 96 4b 18 be bb 33 0f 3d ec 32 9f 3f
       -1.2027271 -0.14872584 0.034961443 1.2437415
000150 93 ff 6e 3f 5c 1f 10 bf 9f 65 c5 3d 21 cb f4 3f
       0.93358725 -0.5629785 0.09638523 1.912449
000160 c2 e2 f7 3d d7 a4 18 bf 09 5e 5e be 1b 25 8d be
       0.121037975 -0.59626526 -0.21715559 -0.27567372
000170 d6 47 11 be 97 ae 97 be 61 d3 2f bf a9 ef c2 be
       -0.1418756 -0.2962539 -0.68681914 -0.3807347
000180 87 be af 3e a0 a4 3c be 4a 96 02 3f 79 bb ce bf
       0.34325048 -0.18422174 0.5101057 -1.6150962
000190 31 68 b0 be 4f fa 36 bf 10 f0 95 3f c9 77 0a bf
       -0.34454492 -0.7147569 1.1713886 -0.5408903
0001a0 7f f6 2e 3f 45 2a 00 3f 08 1c 17 be b0 1f c4 3f
       0.68344873 0.500645 -0.14756787 1.532217
0001b0 9d 69 27 3f dc 2c 3b 3f 70 af 26 bf cc 92 8a 3f
       0.6539553 0.73115325 -0.65111446 1.0826049
0001c0 76 fe b1 be c5 35 86 3e d9 f1 ba bf 57 1d 9e 3e
       -0.3476445 0.26212898 -1.4605056 0.3088176
0001d0 1c 70 11 c0 6e 08 99 bf fa 42 e1 bf 48 51 88 3e
       -2.2724676 -1.1955698 -1.7598565 0.26624513
0001e0 7e de 4a bf 11 b0 f8 be 6a 89 9b 3f 5b 4e b7 bf
       -0.79245746 -0.48571828 1.215131 -1.4320787
0001f0 b7 46 b5 3e 7f b2 88 3f d2 4d ae 3e 8b 1a 62 3f
       0.35405514 1.0679473 0.34043747 0.8832175
000200 ff 34 2e bd 6b c5 54 3f 02 9e f2 bd c6 b0 e5 bd
       -0.04253101 0.83113736 -0.11846544 -0.112153575
000210 bd cb 42 3f 09 8a f7 bf f5 15 0c 3f 61 06 26 be
       0.7609213 -1.9339 0.54721004 -0.16213371
000220 59 61 06 bf be 7e 00 3e c6 d2 67 bf 90 e2 1a 3f
       -0.5249229 0.12548348 -0.9055599 0.60501957
000230 e8 67 25 be e3 00 24 3f 55 fc 0a 3f 10 b0 09 3f
       -0.16152918 0.64063853 0.5429128 0.53784275
000240 2e 35 80 3f ae 9e 15 be 90 3d a6 bd 62 05 5f 3c
       1.0016229 -0.14611313 -0.08117211 0.013612123
000250 60 01 9b be bf 5e d3 3c b1 23 d2 3d a0 a3 a7 be
       -0.30274487 0.025802014 0.10260714 -0.32742023
000260 a1 23 ff 3e e0 01 2a 3e f0 db 03 bf a0 2a e3 3e
       0.4983187 0.16602278 -0.51507473 0.44368458
000270 18 c6 99 3e 6c e1 0a 3e 7a 2e 10 3f b5 6f dd be
       0.30033946 0.13562554 0.5632092 -0.43249288
000280 aa 64 b3 3c 32 b0 52 bd 86 fc 22 be 29 9a dd be
       0.021898586 -0.051437564 -0.15916643 -0.43281677
000290 f6 0c d3 be 7e 52 52 bf 95 c9 8f 3e 5a 80 b3 3d
       -0.41220826 -0.82157123 0.28083482 0.087647155
0002a0 5d cc 39 bf 3e 2c bb 3e 11 c8 32 3e 51 88 77 3f
       -0.7257746 0.36557192 0.17459132 0.9669238
0002b0 85 ea 73 bf c5 52 95 bf 0b 23 ae bf 64 42 04 bf
       -0.95279723 -1.1665884 -1.3604444 -0.51663804
0002c0 02 4b 60 be ef b4 e6 3e 63 4d 44 be c0 6c c0 be
       -0.21903613 0.45059916 -0.19170146 -0.3758297
0002d0 6b ed a8 bf ff 11 1b 3f 8f 2f a6 3f 23 54 68 be
       -1.3197454 0.60574335 1.2983264 -0.22688346
0002e0 e5 99 1b 3f d2 7c 47 be 12 52 94 3e de e7 a9 3e
       0.607817 -0.19481209 0.28968865 0.33184713
0002f0 ee 6b bb 3d 15 01 0d 3f 18 af 45 bd d8 a2 fe 3d
       0.09151445 0.55079776 -0.048262686 0.12433404
000300 35 bc 98 3f 25 53 3b be e6 6a cb 3f 1d b0 ca 3e
       1.1932436 -0.18293436 1.5891998 0.3958749
000310 4a e5 28 bd aa 41 66 be 05 29 a3 be a1 40 58 3c
       -0.041234292 -0.22485986 -0.31867233 0.0131990025
000320 00 98 c8 3d 04 dc ca 3c 08 7a 3b 3f 0f 33 81 bf
       0.09794617 0.024763115 0.7323308 -1.0093707
000330 f4 14 6f bd dc 82 dc 3e 91 e9 1e bf 71 00 34 be
       -0.05836959 0.43068588 -0.62075144 -0.17578293
000340 7b 29 34 3e 1c 35 3e bd 7b 41 ef bd d0 08 ed be
       0.17593949 -0.046437368 -0.11682411 -0.46295786
000350 4f b5 d7 3b 1f cb 6d 3e 0a f2 96 be 18 65 08 3e
       0.006582893 0.23222016 -0.29481536 0.13319814
000360 1e 91 84 bf dc 4a b6 bb 93 e4 bd bf ea 03 97 3e
       -1.0356786 -0.005563123 -1.483538 0.29495174
000370 f7 bc 7b 3e d6 6b b8 3e 4d 39 ec 3e 74 f8 38 bf
       0.24583803 0.36019772 0.46137467 -0.7225411
000380 58 36 a9 be 90 d7 17 be cd 56 d5 3e b6 7b 21 3f
       -0.33049273 -0.14828324 0.41667786 0.6307939
000390 30 28 97 be 9e 8c 06 3f 07 19 27 3f 11 73 25 bd
       -0.29522848 0.52558315 0.65272564 -0.04039294
0003a0 99 cb 15 be 85 9b 45 3f 13 70 f4 bc 5c ae aa 3e
       -0.14628448 0.7719043 -0.029838597 0.3333615
0003b0 48 0b 3e bc 73 a3 66 3e 34 ab 54 bf 29 17 68 bf
       -0.011599369 0.22523288 -0.83073735 -0.9066034
0003c0 f8 8c c9 3e af 7b d7 be 04 97 bc be 85 2f 91 be
       0.39365363 -0.4208655 -0.36833966 -0.28356567
0003d0 4a 11 1f 3f 03 73 a7 be 6b c8 86 be 9f 6c cc be
       0.62135756 -0.32704934 -0.26324782 -0.3992662
0003e0 79 a5 42 3e 1d 10 da 3e 82 f7 09 be b1 40 58 3e
       0.19008435 0.42590418 -0.13473323 0.21118428
0003f0 80 9f b9 3e 83 01 0e 3d a3 a6 18 3f 87 80 89 be
       0.362545 0.03466941 0.5962927 -0.2685587

net.2.bias f4 [50]
000000 91 b7 0b c0 0d 1f 2f c0 c5 44 10 bf 15 fa 18 bf
       -2.183079 -2.7362702 -0.56354934 -0.59756595
000010 2b 6b 87 bf bb a7 21 bf 39 7b 27 40 b0 f3 03 40
       -1.057958 -0.6314656 2.616896 2.0617485
000020 27 30 09 c0 01 37 37 40 de f7 18 40 0f 2a 4a c0
       -2.143564 2.8627322 2.3901286 -3.158817
000030 dc 74 bb bd 3e a4 ee be 9a 9d da 3e 36 01 0e 3f
       -0.091531485 -0.46609682 0.42698365 0.554706
000040 ab 76 c3 bf ec de 84 bf f0 78 39 c0 01 41 4f 3f
       -1.527059 -1.038053 -2.8980064 0.80958563
000050 c2 16 60 bf 9c a0 1a bf b1 34 39 c0 2a f4 b8 3e
       -0.87534726 -0.6040132 -2.893841 0.36123782
000060 58 b6 3e c0 4f 27 bc bf 65 73 68 c0 20 40 35 3f
       -2.9798794 -1.4699496 -3.6320431 0.7080097
000070 35 51 9a 3e e3 dc 10 c0 98 4a 6b bf 39 0b e7 bf
       0.3014008 -2.2634819 -0.91910696 -1.80503
000080 15 46 96 3f 44 ea 26 bf 56 48 a6 bf 06 82 0b bf
       1.1740137 -0.6520121 -1.2990825 -0.54495275
000090 61 86 c4 3f da a3 c8 bf 5f 48 0a c0 0d cd cf bf
       1.5353509 -1.5675004 -2.1606672 -1.6234452
0000a0 28 2d 67 3d 22 ac a6 3f 55 77 cb 3d 3c 50 12 bf
       0.05643955 1.3021281 0.0993487 -0.5715368
0000b0 de aa 44 3f 64 ca fb bd 19 1a 85 3d 25 ac 76 bf
       0.7682322 -0.12294462 0.06499118 -0.9635642
0000c0 b1 e9 01 40 cc 8d 62 be
       2.0298884 -0.22124404
