src/artifacts/EVAE_ld2_dec1_ep10_bs64_lr0.001_seed123_best.pth (torch, 185606 bytes, 14 tensors)

encoder.encoder_net.0.weight f4 [128, 50]
000000 d4 c6 4c bd 35 ce 89 3c 87 62 9c bd f1 d9 34 3d
       -0.049994305 0.01682196 -0.0763598 0.044153158
000010 31 2e f1 bd 53 70 c3 3d 4f 51 a5 bd aa 76 c8 bd
       -0.117763884 0.095429085 -0.08072149 -0.097882584
000020 3f f1 a9 bd c4 6f 9a 3d 94 86 2c bd d2 74 ef 3c
       -0.08297967 0.07540849 -0.04212053 0.029230509
000030 76 6e 06 be 09 5b db bd 95 f8 28 bd a5 08 e9 bc
       -0.13128075 -0.10710723 -0.04125269 -0.028446505
000040 a5 19 b7 bd 6d 09 b4 3d 53 a3 f0 bc 05 b3 47 3d
       -0.08940438 0.0879086 -0.029374754 0.04875471
000050 ce 7a 9d 3d 5f 7d a6 3c ce df 02 3d 54 24 cf 3d
       0.07689439 0.020323453 0.031951718 0.10114351
000060 f1 c8 51 bd e9 6f b0 3c e5 e5 7a bd ad e6 b7 3d
       -0.051217023 0.021537738 -0.0612544 0.08979545
000070 5c af 07 3e 82 61 00 be ab c9 c3 3d a3 ca 39 3d
       0.13250488 -0.12537196 0.095599495 0.045359265
000080 d4 7d 89 3d 96 a8 9c 3d 76 76 bf 3d 72 db a5 bc
       0.06713453 0.07649343 0.093487665 -0.020246241
000090 f1 a0 c9 bd e0 e7 84 bd 25 44 95 bd d3 6e 33 3d
       -0.0984515 -0.06489539 -0.07288388 0.043806862
0000a0 65 18 f9 bc ce a9 96 bd b1 5a eb 3b 08 ef e5 3d
       -0.03040714 -0.073566064 0.007182442 0.11227232
0000b0 39 af 6f bb 0e 18 da 3c 68 e2 15 bd fa 68 19 3d
       -0.0036572947 0.026622798 -0.03659287 0.03745363
0000c0 a7 d8 04 3e f8 32 a3 3d 51 61 47 3d 75 db d4 3c
       0.12973271 0.07968706 0.048676793 0.025983552
0000d0 c1 ce e7 3c 87 62 c2 3c e7 df de 3c 05 03 06 be
       0.02829683 0.023728622 0.027206374 -0.1308709
0000e0 0a 69 0d bd fb c8 eb 3d a0 48 af 3c ac 8a b8 bd
       -0.034524 0.11512943 0.021396935 -0.090108246
0000f0 dd c4 91 3c a4 e8 eb 3d 91 db e5 bd a4 72 bb bd
       0.017794067 0.11518982 -0.112235196 -0.09152725
000100 15 18 d0 bd 5b 2e 7e 3b 06 70 cc bc d3 bd d2 bc
       -0.10160843 0.0038784954 -0.02495576 -0.02572528
000110 81 37 e4 bd 76 78 99 3d cd 46 7b 3d b7 45 c4 3d
       -0.11143399 0.07493679 0.061346818 0.095836096
000120 66 c3 db bd 41 cf ef bd 07 72 6c 3d e3 a4 0d 3d
       -0.10730629 -0.117094524 0.057725932 0.034581076
000130 15 bc 40 3d 96 ff 0e be 08 18 82 bd 4a c6 d2 3d
       0.04705437 -0.13964686 -0.0635224 0.10291727
000140 8a 18 c2 3c ec 27 ea bc 3e 94 91 3c c0 67 41 3c
       0.023693342 -0.02858349 0.017770883 0.011804521
000150 bc 7b c2 bc ba 74 2b bd 13 2c a8 bd 17 df 8d 3d
       -0.023740642 -0.041859366 -0.082115315 0.06927317
000160 43 b6 07 3e 58 23 30 3c da 7d 24 bd df 24 ad 3d
       0.13253121 0.010750614 -0.040159084 0.08454298
000170 f6 9a 34 3d 29 a8 a3 3d f1 8a b3 bd 82 a0 b4 3d
       0.044093095 0.079910584 -0.08766735 0.08819677
000180 ab a6 14 3e 5d b1 96 3d f6 ee 86 3d 89 0d e1 bd
       0.14516704 0.07358048 0.06588547 -0.1098891
000190 39 1c d4 3d c8 29 c1 bd d7 8b 10 3d 07 1c 2b bd
       0.103569455 -0.09431797 0.03528961 -0.041774776
0001a0 ee f4 04 3b 42 f4 8f bc e9 2f 25 3d fc 1f e1 3d
       0.002028759 -0.017572526 0.040328894 0.10992429
0001b0 e4 e8 92 3d 6c e7 22 bd e5 6b 2f 3d c1 cb 60 bd
       0.071733266 -0.039771482 0.042827506 -0.054881815
0001c0 fc 4f 56 3d 91 b8 93 bc bb e0 54 bd bc 77 ab 3b
       0.052322373 -0.018032344 -0.051972132 0.0052327793
0001d0 7c e6 d8 bd 3d 2b 8f 3b 94 a4 32 3d a2 2c f3 3d
       -0.105908364 0.004369168 0.043613985 0.118737474
0001e0 64 9c c7 bc e1 7f be 3c 0f 3e ad 3d d6 32 64 bd
       -0.024366565 0.023254337 0.08459102 -0.055712543
0001f0 38 a0 19 3e 73 81 6a bd 00 69 aa 3d 67 75 0b 3c
       0.15002525 -0.05725236 0.083208084 0.008511878
000200 e4 5a ee 3c b6 8b 1e 3d 0e b4 98 bd 08 e4 41 3a
       0.029096074 0.038707457 -0.07456218 0.0007396345
000210 1b 51 4a bd 05 68 80 bd 9c 68 19 bc 20 59 62 bd
       -0.049393754 -0.0626984 -0.00936332 -0.055260777
000220 a2 3f 61 3a ef f7 4a bd 89 62 cc bc e2 83 ca bc
       0.0008592551 -0.049552854 -0.024949329 -0.02472109
000230 20 31 35 bd 5d d8 dc bc d0 91 70 3c 03 3b ea 3d
       -0.044236302 -0.026958639 0.014683202 0.11437037
000240 f4 b7 85 3d b6 02 76 bd 64 c3 ba bd 81 05 f6 bc
       0.06529227 -0.06006118 -0.09119299 -0.030031921
000250 b5 1f 61 bd d9 a7 ae bd 35 39 b5 bd f8 28 6e bd
       -0.05496188 -0.08528108 -0.08848802 -0.05814454
000260 60 79 9c 3d 1c 27 ae 3d b4 3e 87 3c 3c f0 e9 3d
       0.07640338 0.08503553 0.016509391 0.11422774
000270 59 c6 9f bd d3 5b af 3c f4 eb d9 bd d0 ac 9e 3d
       -0.07801504 0.02140609 -0.106407076 0.07747805
000280 81 e3 aa 3a a1 d7 15 3e 10 64 af bd 27 ce fc 3d
       0.0013037772 0.14633037 -0.08564007 0.12344008
000290 a8 5b f0 3d 27 51 e8 3d 01 5f b1 b7 c1 25 01 3e
       0.11736232 0.113436036 -2.1144284e-05 0.12612058
0002a0 b8 e7 92 3d 65 63 70 3d ca c8 a6 bc be 64 3a bd
       0.07173103 0.05868854 -0.020359416 -0.04550623
0002b0 b9 a2 56 bc 7e ab 72 3c 75 a6 ad bd ca be 80 bd
       -0.01310032 0.014811395 -0.08479015 -0.0628639
0002c0 ac 35 ed bd 9f e8 a9 bd 63 df 61 3d b6 d9 a4 3c
       -0.11582503 -0.08296322 0.05514468 0.020123344
0002d0 eb d4 a4 3b 8a f6 d4 bc 44 14 8d 3d 67 b6 13 be
       0.0050302646 -0.025996465 0.06888631 -0.1442505
0002e0 f5 59 e1 bd 9d 14 78 bd 8d 63 36 bd 41 2f 3d 3d
       -0.11003486 -0.060566533 -0.044528533 0.046187643
0002f0 ac bd 86 3d 43 ed e0 bd 7e 4d 32 be 7d 76 05 be
       0.06579146 -0.10982754 -0.17412373 -0.13033481
000300 ea 80 d6 bc c0 d9 c0 3d 82 74 b2 bd 84 1f e4 bc
       -0.026184518 0.094165325 -0.08713628 -0.02784706
000310 70 ee 13 3d ac 09 9b bd 4a af de 3d 7d 3c 81 3d
       0.036116064 -0.07570204 0.108732775 0.06310365
000320 7b b5 2b bd f5 b1 e8 3a cf d9 88 3d 17 bc 69 bd
       -0.04192112 0.0017753231 0.06682169 -0.057064142
000330 a5 9f b3 bd 54 d9 78 3c a4 e3 1c 3c 96 5a 08 3d
       -0.08770684 0.015188534 0.009575758 0.033289514
000340 6d 45 cc bb 80 4e 49 3d d0 4b a9 bd 48 11 88 bc
       -0.006233862 0.04914713 -0.08266413 -0.016609803
000350 72 54 44 3d 72 14 7f bd fd e0 f4 3c e1 ea 8d bc
       0.047932096 -0.062275358 0.029892439 -0.017323913
000360 93 90 3f 3d ba 6e 84 bd 42 9a 15 3b 78 fc 5f 3c
       0.046768736 -0.06466432 0.002282754 0.013671033
000370 aa 38 ac bd de 98 6f bd aa 8e 39 3d 39 04 19 bd
       -0.08409245 -0.058495395 0.04530207 -0.037357543
000380 96 b5 ab 3d b1 af dc bd 89 a9 82 bd 4a 43 a3 bd
       0.08384244 -0.10775698 -0.063799925 -0.07971819
000390 31 5a 5d 3d fd 07 04 ba f0 e1 40 3c f5 07 c1 bc
       0.05404109 -0.0005036591 0.011772618 -0.023563365
0003a0 1f bf 00 be df 47 44 bd bd 2b 89 3b 15 47 ca bd
       -0.12572907 -0.047920104 0.004186122 -0.09876839
0003b0 73 b8 32 3c fb 4c f4 3c 14 6a 20 be f4 04 13 3d
       0.010908234 0.029821863 -0.15665466 0.035893396
0003c0 b0 9d 11 3d d3 0f 92 bc 0e 16 03 be 97 af 99 bc
       0.035550773 -0.017829811 -0.12801382 -0.018760486
0003d0 a1 85 9e 3d 19 66 b0 3d 2e 08 85 bd 7e e5 8f bd
       0.077403314 0.086132236 -0.06495701 -0.07026194
0003e0 51 22 59 3d 60 86 f8 3d 43 9c 30 3d 04 34 2c bd
       0.053011242 0.12135005 0.043117773 -0.042041793
0003f0 ab 97 ca 3d 03 e7 f7 bd 2e af 39 3c 0c 6a 8e 3b
       0.098922096 -0.12104609 0.01133327 0.004346138

encoder.encoder_net.0.bias f4 [128]
000000 02 c4 41 3d 96 32 72 3d fc 8e 35 be 18 97 13 be
       0.04730607 0.059130274 -0.17730325 -0.14413106
000010 a8 20 28 bd 27 ea af 3c a1 33 db bd 9c 45 81 bd
       -0.04104677 0.021473957 -0.10703207 -0.06312105
000020 61 15 e5 3d 7c 0a 14 be ea 1f 00 be 1b 4d c0 3d
       0.11185718 -0.14457124 -0.12512174 0.09389707
000030 c1 7b 4d be 57 82 d1 bd 53 68 07 be 4f 81 09 3d
       -0.2006674 -0.102299385 -0.1322339 0.033570584
000040 d9 43 03 3e 15 04 ca 3d da 7f ae bd 62 39 b2 bc
       0.1281885 0.0986406 -0.085204795 -0.021755878
000050 3e 03 ae 3d 40 2d 95 3c 09 01 75 bd 36 6c 26 bd
       0.08496712 0.018210053 -0.05981544 -0.04063054
000060 1f 94 2a bd 3d 6e 16 be 25 bf 36 be 01 ce 61 3b
       -0.041645166 -0.1469049 -0.17846353 0.0034455063
000070 33 b8 0d 3d 30 ca f7 3d d6 8c 7c bd 92 8a 7f bd
       0.034599494 0.12099111 -0.06165775 -0.06238801
000080 45 0b e7 3d d1 a6 a9 bd cf 56 d4 bc 42 39 28 3d
       0.11281446 -0.08283771 -0.0259203 0.04107023
000090 db 4c 6a bd 6b 5b 13 bd 80 af 45 bc f0 5c 56 bd
       -0.0572022 -0.035975855 -0.012065768 -0.052334726
0000a0 bd da 96 3d 2e 90 ef bd 23 5e 04 3d 14 41 04 3e
       0.0736594 -0.11697422 0.03231634 0.1291545
0000b0 07 72 8d bd 82 ed 9e bd ef 1e 00 be 0d b8 5f be
       -0.069065146 -0.07760145 -0.125118 -0.21847554
0000c0 83 82 7d bd d8 d3 28 bd d1 0e 3b bc 03 2f bf 3d
       -0.061892044 -0.041217655 -0.011417107 0.09335139
0000d0 d1 9b 92 bd 1a ad 23 3d 9f c2 00 be 08 c1 6d 3c
       -0.07158626 0.039960004 -0.12574242 0.014511354
0000e0 c3 0c 81 bd a4 6d 60 bd 14 cf bd 3d 64 87 d7 bd
       -0.06301262 -0.05479206 0.09268013 -0.105238706
0000f0 bb d2 a9 3d bb 4c 35 be 15 e1 bc bd 95 eb 84 bd
       0.08292147 -0.17705052 -0.092226185 -0.06490246
000100 c3 76 10 be 2e e9 34 3d 17 8f d9 bb cc 14 63 bd
       -0.14107804 0.04416769 -0.006639372 -0.055439755
000110 3e a9 a2 3d 50 da 21 bd 1b 3d 1c 3d de 98 b7 bd
       0.07942437 -0.03951484 0.038144212 -0.08964704
000120 c6 eb 85 3c 0f 66 db bd 8d 5b 69 bd 07 05 cc 3d
       0.016347777 -0.107128255 -0.056972075 0.099618964
000130 af 1f b7 bd d2 23 aa 3d 82 a9 b7 ba f6 ae 43 3d
       -0.0894159 0.083076134 -0.0014012309 0.047774278
000140 53 b5 e2 bd 49 25 f4 bc cd 68 87 3d 79 a4 75 3d
       -0.11069741 -0.029802935 0.06611786 0.059971306
000150 55 94 92 3d 61 75 1d 3d 99 01 b0 3d f1 94 e2 3d
       0.07157198 0.03844202 0.08594055 0.110635646
000160 c9 a1 c0 3d 12 ff b7 3c 0a 55 9f 3c 66 52 ec bd
       0.09405858 0.022460494 0.01944973 -0.11539154
000170 6b a7 d5 bd 18 c8 22 be 73 9b 3f 3d b7 a8 08 bd
       -0.10432323 -0.15896642 0.046779107 -0.033364024
000180 e2 9d 03 bd 0d 10 dc bd 64 f2 e0 3d b3 32 4f 3d
       -0.03213299 -0.10745249 0.10983732 0.05058546
000190 79 51 97 3b cf db d9 bd 1e ba 0f bd cc 37 26 be
       0.0046178666 -0.10637628 -0.035089605 -0.16232222
0001a0 7e f4 08 bc b1 40 44 3c 32 da c1 bd b6 01 04 be
       -0.008359073 0.011978314 -0.094654456 -0.12891278
0001b0 41 46 69 bd 5f 91 35 be 67 65 d5 bc c5 0e af 3d
       -0.056951765 -0.17731236 -0.026049329 0.08547739
0001c0 b0 8c 1d be a6 d9 cb bd eb c3 e1 3c df 81 9c bd
       -0.153857 -0.099536225 0.027559241 -0.076419584
0001d0 f2 7b f4 bd f5 8b ff bd 59 ab b4 bd 26 da db bd
       -0.11937703 -0.124778666 -0.088217445 -0.10734968
0001e0 1a 8b ab 3d dd d6 75 3c e6 3b 2c 3c 79 18 ef bc
       0.08376141 0.015004841 0.010512328 -0.029186474
0001f0 66 82 57 bd 8e 3b d5 3d 1c 28 fe bd 2a 99 69 3d
       -0.052614592 0.1041175 -0.12409994 0.057030834

encoder.encoder_net.2.weight f4 [64, 128]
000000 20 f2 4f 3d be 21 f9 3c bd 6a 72 bd 8d fe 33 3d
       0.050768018 0.030411597 -0.059183825 0.04394393
000010 86 b8 ab 3d 78 a0 59 3d 2f f3 45 3d 31 bf 68 bc
       0.083848044 0.05313155 0.04832762 -0.01420574
000020 3b b2 c9 bc c6 7c 34 bd d5 98 6c 3d ae cd 96 bd
       -0.02462112 -0.044064306 0.05776294 -0.07363449
000030 88 6c 85 ba c6 9a 30 3c b0 ed 71 3d 8f bc 78 3d
       -0.001017944 0.010779088 0.059064567 0.0607267
000040 98 3a ae 3d 03 70 3e bd a4 47 03 3d 8d 80 c8 bc
       0.085072696 -0.04649354 0.032050744 -0.02447536
000050 bf bb c6 3d 5d 68 56 3c e6 82 ac 3d 5c b0 7d bd
       0.097037785 0.013086406 0.084234044 -0.061935768
000060 53 98 93 bb cd 6d 13 3c 88 e1 1f bb 41 47 5a 3d
       -0.0045042424 0.0089983465 -0.0024395902 0.05329061
000070 f6 32 a4 3d c1 e1 9f bd 08 df fe bb f2 0b 9d bb
       0.080175325 -0.07806731 -0.0077780522 -0.0047926838
000080 be 9b 19 bd 53 3e 41 3d df 28 8c bd 91 e2 f9 bc
       -0.037502043 0.047178578 -0.06843733 -0.030503543
000090 c5 8c 6f 3d 4d 95 b1 3d 94 65 13 3d 2e a9 57 bd
       0.058483858 0.08671055 0.035985544 -0.052651577
0000a0 1e 67 06 bd 63 40 2b 3c 70 39 ae 3c f5 00 83 bb
       -0.032813184 0.010452363 0.021267623 -0.003997917
0000b0 e7 22 31 bd 91 8e 9a 3d d8 c7 de bd 40 40 8f bd
       -0.043246176 0.07546724 -0.10877961 -0.069946766
0000c0 f0 8f 6d bd 28 ae 1d 3d 0c 83 64 3d 05 a7 79 3d
       -0.057998598 0.038496166 0.05578904 0.060950298
0000d0 a0 76 88 bd f6 06 49 3d 3f 05 a6 3d 59 ff 4a bd
       -0.06663251 0.049078904 0.08106469 -0.049559925
0000e0 75 da 92 bd 3f 02 32 bd 20 2e 53 bc 12 38 82 bd
       -0.071705736 -0.043459173 -0.012889415 -0.06358351
0000f0 c0 e7 c8 bd a1 28 97 3d 80 3a 14 bd b1 a8 2a 3d
       -0.09809828 0.07380796 -0.036188602 0.041664783
000100 20 f7 5d bd 02 08 bf bd 36 80 20 bc 9d 3d aa 3d
       -0.054190755 -0.09327699 -0.009796193 0.08312533
000110 1e 7f df bc a7 83 0d bb 33 27 83 bc c9 dc 4f 3d
       -0.027282294 -0.0021593363 -0.016009903 0.050747667
000120 07 d0 d3 3c ad 9d 95 bd f3 a5 32 3d 8e 7b 97 3d
       0.025856031 -0.07305465 0.043615293 0.07396613
000130 6e 89 7d bd 43 62 3e 3d c8 57 7f bd ac 30 cf 3a
       -0.06189864 0.04648043 -0.062339574 0.0015807352
000140 d9 e2 13 3d c8 df 9d 3d db 71 5c bd 23 b2 b8 bd
       0.03610501 0.077086985 -0.05381952 -0.09018352
000150 9d 4e 8c bd d7 87 ad 3d 69 96 18 3d 47 af 0b bd
       -0.06850932 0.08473175 0.037252817 -0.034102704
000160 3c 7f 17 bd dd 3b 4d bd cd 91 93 bd 82 ce fe bc
       -0.036986575 -0.05010592 -0.07205544 -0.03110433
000170 48 6c 26 bd f8 cf 76 3d 24 1f d8 bc fd 80 3d 3c
       -0.04063061 0.06025693 -0.026382037 0.011566398
000180 9a 08 0e 3d 08 1d 74 3c 64 d0 f0 bc fa e0 40 bd
       0.03467617 0.0148995 -0.029396243 -0.047089554
000190 a8 bb 25 bd d9 bd d2 bc 25 20 04 bd 36 e4 68 3d
       -0.040462166 -0.025725292 -0.032257218 0.056858264
0001a0 01 05 21 3d 0f 7e 7b 3d 3f 71 8a bd b3 c9 d6 bd
       0.039311413 0.061399516 -0.06759881 -0.1048769
0001b0 5e 87 9c 3c 24 ae c1 bd 42 70 84 3d f7 cc b9 bd
       0.019107517 -0.09457043 0.06466724 -0.09072297
0001c0 c1 05 c7 3c 66 05 67 3c 1b 86 ed bc f5 99 85 bd
       0.024294736 0.014100408 -0.02899461 -0.065235056
0001d0 63 52 8c 3d 0b f5 50 3d 7a a4 bd bb de 87 94 3d
       0.068516515 0.05101494 -0.0057874294 0.07252477
0001e0 b6 7c 56 3d 38 9e 95 bc df da 47 bd 5b 00 87 bd
       0.052365027 -0.018263921 -0.048792716 -0.06591865
0001f0 fc 9d 42 3c 40 39 7a 3d c4 93 59 3d 12 c9 f6 bb
       0.011878487 0.061089754 0.053119436 -0.0075312937
000200 9b 49 45 3d 46 12 0e 3d 88 c4 03 3d a8 16 ca 3c
       0.0481659 0.034685396 0.03216985 0.024669006
000210 37 f4 06 3d ba 9a cf 3b 01 ea eb 3c 18 06 5d 3d
       0.032947745 0.0063355835 0.028798105 0.05396089
000220 24 e3 36 3d d0 1d 4e 3d 6b 2f 63 bd ac ec 13 bd
       0.044650212 0.0503214 -0.055465143 -0.03611438
000230 b7 a2 91 3d 22 8d f7 3c 76 5d 40 3d bc 4a df 3c
       0.071111135 0.030218665 0.04696413 0.027257316
000240 d9 20 8c bd 92 e3 92 3c 6e c4 90 bd e7 01 bc 3c
       -0.06842203 0.01793078 -0.07068716 0.022950126
000250 dd 85 1c bd b6 cb 63 3d 38 48 89 bd c5 b3 77 bd
       -0.0382136 0.055614196 -0.06703228 -0.060474176
000260 1e f9 a7 3b 35 87 81 3d 73 0c 97 bd b4 d8 d6 38
       0.0051261326 0.06324617 -0.073754214 0.00010244679
000270 78 d7 a6 bc 5f a5 09 3d 8c 45 90 bd 07 5c c3 bd
       -0.020366415 0.033604976 -0.07044515 -0.09539037
000280 e7 13 a1 39 a6 a1 84 bd 0a b7 6f bd a3 4e 00 3d
       0.0003072314 -0.064761445 -0.05852417 0.031324994
000290 3a 16 8d bc 75 b4 13 bd 77 89 35 3d bb 2a b8 bd
       -0.017222513 -0.03606077 0.04432055 -0.08992525
0002a0 db ac a5 bd 15 08 34 3d b4 5d 03 bd 8c fb 81 3d
       -0.0808961 0.04395302 -0.032071784 0.06346807
0002b0 a7 ea df 3c 27 a6 32 bd 2a 2a 92 bd 8d 71 3f 3d
       0.02733357 -0.043615486 -0.071369484 0.04673915
0002c0 6c 23 9d bd 08 6f 48 3d 1d ef 6e 3a 39 67 7d bd
       -0.07672772 0.048934013 0.000911461 -0.06186602
0002d0 0f 02 50 3d 28 20 b1 3c dc 4f 83 bd eb c3 37 3d
       0.050783213 0.021621779 -0.06411716 0.044864576
0002e0 4e e6 b9 bd 7d f2 50 3b 2d bd 28 3d 57 82 37 bc
       -0.0907713 0.0031882816 0.041196037 -0.011200509
0002f0 c4 e4 a8 bd 04 62 aa 3c 02 f2 c0 bd d1 d8 ef 38
       -0.082467586 0.02079869 -0.09421159 0.00011436793
000300 9e 6a 60 3d 82 b3 8d 3d 38 a6 8c bc b3 1e 43 3d
       0.054789178 0.06919004 -0.017169103 0.0476367
000310 a3 1f 92 3d df b5 4e bd f9 88 f8 3a 6c f0 60 bd
       0.071349405 -0.050466415 0.001896172 -0.054916784
000320 7c 6a 92 bd 57 59 73 3d 1f 2a 63 bd c4 c0 45 bc
       -0.071492165 0.059411373 -0.05546009 -0.012069885
000330 70 25 ab 3c ed 19 b3 bd 91 72 a1 bd 62 7b 03 3d
       0.020891875 -0.08745179 -0.0788318 0.03210009
000340 77 ce 35 bc f9 6f 56 bd e2 93 ec bc ca eb 56 bd
       -0.011096588 -0.05235288 -0.02887911 -0.05247096
000350 8b 7b f5 bc 6b 84 8d bd 11 68 e5 bc a1 b1 02 3d
       -0.029966136 -0.06910022 -0.028003724 0.03190768
000360 25 ed c7 bd 80 ec 58 bd 2c 2b c1 bd fd 3d 73 bb
       -0.097620286 -0.05295992 -0.094320625 -0.0037115805
000370 fc 19 38 bd 6a 3e 83 bb 52 28 7f 3c 3e 2e c0 3c
       -0.044946656 -0.004005243 0.015573578 0.02345955
000380 83 b3 68 bd 2f 69 a6 bc 6c b9 d3 bd d5 0d a7 bd
       -0.05681182 -0.020313827 -0.10338101 -0.08156935
000390 d0 26 64 bd 6a f2 64 bd f5 95 90 bd 2f 0e 9b 3c
       -0.055701077 -0.055895247 -0.07059852 0.018927662
0003a0 52 36 0d bc 6b 27 b5 3c 09 a6 07 bd 99 50 26 3d
       -0.008618908 0.022113523 -0.033117328 0.040604208
0003b0 2c 98 82 bd dd 3f 64 3c 27 1e 90 bd 83 40 50 bd
       -0.06376681 0.013931242 -0.07037001 -0.050842773
0003c0 36 57 85 3d 7b 4c fa bc 34 72 07 bc af 64 aa 3c
       0.06510775 -0.030554047 -0.008266974 0.020799963
0003d0 5c 82 49 3d 48 66 87 3c 0a ef a7 bd 4c b0 a5 bd
       0.049196586 0.016528264 -0.0819989 -0.080902666
0003e0 e0 55 98 bc 2f bc 39 bc ab 90 1f 3d e3 52 25 bd
       -0.018595636 -0.01133637 0.038956326 -0.04036225
0003f0 d6 28 87 3d 02 29 68 3d 9d 1f 82 3d dc f0 03 bc
       0.06599586 0.056679733 0.06353686 -0.008053031

encoder.encoder_net.2.bias f4 [64]
000000 97 1a c7 3d 4b e3 12 bd c9 3e dc 3d eb dc dc 3d
       0.097218685 -0.035861295 0.10754163 0.10784324
000010 33 f5 8a 3c 90 30 1a 3d a8 7c 2f 3d f7 52 81 3d
       0.016962623 0.03764397 0.04284349 0.063146524
000020 ae 8e cd 3c 0a ba 97 bd 2f 74 8b bd 52 22 bd 3c
       0.025092449 -0.07408531 -0.0680927 0.023087654
000030 e4 49 a5 bd 9e b1 84 3d be 7e c2 bd 0f bb 94 3d
       -0.08070734 0.0647919 -0.094968304 0.07262241
000040 94 2b 53 bd 76 b9 7f 3d 30 cd 97 3d 62 32 bf 3c
       -0.05155523 0.06243273 0.07412183 0.023339454
000050 15 3d c3 bc 46 db 65 bd 2a 6d 81 3d 4c 5e ee bc
       -0.023832837 -0.05611732 0.063196495 -0.029097699
000060 c6 4c 45 bd 39 72 ae 3d 92 72 38 3d d5 4a be 3c
       -0.04816892 0.0851788 0.045031138 0.023229042
000070 f0 16 b6 3d 17 24 57 bc 79 89 37 bd 01 a3 8d bc
       0.08891094 -0.013131163 -0.04480884 -0.01728964
000080 38 f6 7a bd c8 1c 14 3d 51 85 00 bd 06 cd bf 3d
       -0.06126997 0.03616026 -0.03137714 0.09365277
000090 e3 c5 71 3d 65 96 1a 3d bc 4a 0e 3d 9d 98 10 3d
       0.05902661 0.037741084 0.03473924 0.035301793
0000a0 c2 ab 35 bb 6c 48 e6 3c 4d e7 49 3d 37 bb 46 3d
       -0.0027720784 0.028110705 0.04929285 0.048518386
0000b0 70 6e 17 bd 70 b3 82 bd d9 d9 48 3d ae 5b 60 bd
       -0.036970556 -0.06381881 0.04903588 -0.054774933
0000c0 87 05 9e 3c de a4 bc bd 32 42 9f 3c 9c 10 9d 3b
       0.019289745 -0.092111334 0.019440744 0.0047932398
0000d0 82 ac bf bd a3 95 00 3d 22 b2 22 3c 6b 30 c6 bc
       -0.09359075 0.031392705 0.0099301655 -0.02419301
0000e0 ab 13 ce bc eb e9 05 3d 75 07 67 bc d5 c2 8b bd
       -0.025155863 0.032693785 -0.014100899 -0.06824271
0000f0 c0 ff 82 bd 97 d1 89 3d 8c a1 0c 3d 32 9e 12 3d
       -0.06396437 0.06729429 0.03433375 0.035795398

encoder.encoder_net.4.weight f4 [4, 64]
000000 b4 30 37 bc ea dc 74 3d 33 90 c2 bd 52 94 84 bd
       -0.011181045 0.059780993 -0.0950016 -0.06473602
000010 7b f8 98 bd 2b 07 d4 3d fb 4a 81 bd c6 bb ad bc
       -0.07469269 0.1035293 -0.063131295 -0.021207701
000020 78 47 d7 3c 61 0e 4b 3d 75 0d a9 3d 7e c3 2b bc
       0.026279196 0.04957426 0.0825452 -0.010483621
000030 66 8a 86 3d 65 8d ca bd 8f fe 96 3c c8 1c bd bd
       0.06569366 -0.0989025 0.01843193 -0.09234005
000040 2f ab 33 3d a3 b6 8f bc 71 3a b4 3d 9d b9 9b bd
       0.043864425 -0.017543143 0.08800209 -0.07603762
000050 03 2c 88 bd 5a f1 dd 3d 9e 2f 4a bd 43 5b 0e bd
       -0.066490196 0.1083705 -0.049361818 -0.034755003
000060 cc 0c 04 3e a5 bf a6 3e 0e 69 80 bc 92 eb ec bc
       0.12895507 0.32568088 -0.015675094 -0.028920922
000070 12 7e cb 3c 22 9e 43 bd 40 91 bc bd 24 1c 97 bc
       0.024840388 -0.04775823 -0.09207392 -0.018446036
000080 d6 9d 62 bd c5 1e 5b bd 1f 2b 36 3d af a8 2e bd
       -0.055326305 -0.05349614 0.044474717 -0.042641338
000090 68 fc cb 3d f9 15 56 3b e1 d2 e8 3c 39 08 92 bd
       0.09960252 0.0032666905 0.028420867 -0.071304746
0000a0 84 af 40 bd 0c 1d 86 3d 10 ca 8d 3d cb 97 49 bd
       -0.047042385 0.06548509 0.06923306 -0.049217027
0000b0 29 0b d3 bd 71 ab 45 3d e9 7c 15 3d 72 c6 ad 3d
       -0.10304863 0.048259202 0.036496077 0.08485116
0000c0 32 9c 15 3e 08 04 e1 bb 26 95 11 bb 15 96 0e 3d
       0.14610365 -0.0068669356 -0.0022214144 0.034811098
0000d0 a3 e8 59 3d e3 9c 15 bd 82 de aa 3d 4b f5 db bd
       0.053200375 -0.036526572 0.08343221 -0.10740145
0000e0 0c 84 62 bd ec d4 9f bd d5 02 b7 bd 6b a6 12 3d
       -0.05530171 -0.078042835 -0.08936087 0.03580324
0000f0 ee 7a fb bd 54 eb a4 bd d4 4c ec 3d c2 e8 d3 3d
       -0.12279306 -0.08052698 0.11538091 0.103471294
000100 7e 8d 08 3d 7a fa b8 bd aa e1 31 3d 02 c8 9f 3d
       0.033338062 -0.090321496 0.0434281 0.0780182
000110 97 79 33 3d b2 7e 2c bd de 27 df bc 74 a6 6f 3d
       0.04381713 -0.042113014 -0.02724069 0.05850835
000120 d8 0a 2b bc a9 5d a3 3b d4 68 d2 3d bc 2a 18 bd
       -0.010439597 0.0049855304 0.10273901 -0.03715013
000130 af 41 ab bc f7 1d 6b 3d 79 da 00 bd cb d3 b5 3c
       -0.020905344 0.057401624 -0.03145835 0.022195717
000140 42 f8 99 bc b6 96 0b 3d 09 bc 6b bd 4c 9e 97 bd
       -0.018795136 0.034079276 -0.05755237 -0.074032396
000150 ec f6 cc bd bd 8d 32 3d 85 8f 09 3d 1d 22 17 bd
       -0.10008034 0.043592203 0.033584137 -0.036897767
000160 c5 27 82 bd bb 7c 6e 3a f7 ab 98 bd b1 1e 60 3d
       -0.06355242 0.0009097566 -0.07454675 0.05471677
000170 ad 75 90 bd 1c 77 ab 3c 77 7c 56 3a 9a 02 3e 3d
       -0.07053695 0.02093082 0.0008181999 0.0463892
000180 a5 60 66 3d fb 76 73 3c 60 76 89 3d 2e 85 1f bd
       0.05624451 0.01485991 0.06712031 -0.03894537
000190 68 46 dc 3d f1 1b de 3c d9 21 31 3d 5e 6c 26 bc
       0.107556164 0.027112933 0.04324517 -0.010157673
0001a0 2e 59 00 3d 74 ed f5 3d aa 52 3d 3d 6c 30 9e bd
       0.03133505 0.12008181 0.046221413 -0.077240795
0001b0 b7 9c 47 bd a5 57 93 bd 61 32 56 bd 6a 10 c5 3c
       -0.04873344 -0.07194451 -0.05229414 0.024055678
0001c0 cc 7f 9c bd 2e ff 3a 3d 27 52 60 3d 94 8a 49 bd
       -0.07641563 0.045653515 0.054765847 -0.049204424
0001d0 0a 26 4f bc 01 8b 62 3d 49 ce e1 3d f2 0f dc bc
       -0.012643347 0.055308346 0.11025674 -0.026863072
0001e0 b7 ea c4 bd 14 60 5a bc ac cf 3e bc 7d 98 6b bd
       -0.09615081 -0.013328571 -0.0116461925 -0.05751847
0001f0 aa a9 12 3c 1d 98 d5 3d 5b d0 13 3d 84 0e 81 bd
       0.008951584 0.10429404 0.036087375 -0.06301597
000200 01 5a d2 3c 5a ae 1e bd 91 87 3c bb cd 5c ec bd
       0.025677683 -0.038740493 -0.0028767327 -0.11541138
000210 a9 a0 c7 bc ba 4d 26 3c e8 be 16 bd 28 a9 de bd
       -0.0243686 0.010150367 -0.036803156 -0.10872108
000220 c1 54 97 bd 8f a2 9c 3d 05 1f e0 bd 06 3a 79 bd
       -0.073892124 0.07648193 -0.109434165 -0.06084635
000230 bb da c8 ba 83 08 4c bd 93 43 57 bd f8 a8 26 3d
       -0.0015323976 -0.049812805 -0.05255468 0.040688485
000240 77 16 f2 3d 28 ad f3 3c a3 b9 8b 3d 41 12 bb 3c
       0.11820691 0.029745653 0.06822517 0.022835853
000250 c9 c3 89 3b 89 76 e4 bd 96 3c cc 3c aa 79 af 3d
       0.0042042476 -0.11155421 0.024931233 0.085681275
000260 2d 41 96 bc 58 62 7d bd 5d b6 36 3d 45 37 c9 bc
       -0.018341625 -0.061861366 0.04460751 -0.024562487
000270 d1 0c 74 bd 90 d9 d1 bc 03 fb 27 3d 7c 0a 5e bd
       -0.059582535 -0.025616437 0.041010868 -0.054209217
000280 58 69 84 3d de 12 a4 bd 37 e1 38 3d 5c f3 04 bd
       0.06465405 -0.08011411 0.045136657 -0.032458648
000290 19 dc 1a bd b0 44 4b bc bf 47 e7 3c 33 d1 af bc
       -0.037807558 -0.012406513 0.028232453 -0.021462059
0002a0 73 44 02 3c ea a9 a1 3d b2 da 4e 3c 21 79 47 bc
       0.00795089 0.07893737 0.012625383 -0.0121748755
0002b0 62 c4 32 3b 8d fb 82 3d a6 43 4a 3c 83 2b df bc
       0.0027277698 0.06395636 0.01234523 -0.027242428
0002c0 08 b5 31 3d f8 40 48 3b 67 42 b6 bd 90 a8 c8 bd
       0.043385535 0.0030556303 -0.08899384 -0.09797776
0002d0 70 1d 56 bc 0d 37 89 bd 80 12 4d 3d 66 cd 1e 3d
       -0.013068542 -0.06699953 0.05006647 0.038770102
0002e0 b0 e2 60 bc ee 7c 47 bd 70 79 ca bd aa 47 04 3d
       -0.0137259215 -0.048703127 -0.098864436 0.032294907
0002f0 a7 db 90 bd 52 37 14 3d cb df 44 bd 64 b7 a7 3d
       -0.07073145 0.03618557 -0.048064988 0.08189276
000300 da cf e6 bd a4 14 bf 3c c3 7f 96 bd 80 5b 92 bd
       -0.11270113 0.023325272 -0.07348587 -0.071463585
000310 cb bf ce 3d fd 10 a1 bd 57 57 17 bd 99 fc 48 3d
       0.10095175 -0.078645684 -0.03694853 0.04906902
000320 b8 44 d0 3c b7 47 09 3d a9 b1 47 bb ad ed ad bd
       0.025423393 0.03351566 -0.0030470884 -0.08492599
000330 df 11 7a 3d 8c c7 63 3d 71 39 dc 3d 2e f7 37 3d
       0.0610522 0.055610225 0.107531436 0.044913463
000340 7f 84 f0 bd 98 85 f8 3a ab ab 90 3d 91 7c bf 3d
       -0.117440216 0.0018960712 0.07063993 0.09349931
000350 5a 43 47 bd 00 ba 8e 3c bf 96 93 bd a7 01 db bd
       -0.048648216 0.017422676 -0.07206487 -0.106936745
000360 b7 f7 ca bc dd c6 9f bd 29 53 3c 3d 6b 42 b8 bc
       -0.024776323 -0.07801602 0.045977745 -0.022492608
000370 ed 82 8e 3d b6 4e bf bd c3 ae 43 bd 2c 0d 90 3d
       0.06958566 -0.09341185 -0.047774088 0.07033762
000380 4c ca 34 3d 0b 0d 8e bb 74 f5 c3 bc 08 51 bd bd
       0.044138238 -0.004335051 -0.023920752 -0.09243971
000390 53 f9 dc 3c 4e c6 88 bd 7a 47 2c bc 1e 4b d1 bd
       0.026974356 -0.066784486 -0.010515088 -0.102194056
0003a0 8f 52 c1 3d 2e 96 cb bd e3 ae bf 3d 1e 7f c1 bb
       0.09439575 -0.09940754 0.09359529 -0.005905046
0003b0 9b 8d d7 3b 87 35 93 bd 1b 73 9e bd 2c 10 9a 3d
       0.00657816 -0.07187944 -0.077367984 0.07522616
0003c0 b1 53 e4 bc 40 08 75 bd ce 08 25 3d 8e 14 e4 3d
       -0.027871938 -0.05982232 0.0402916 0.11136733
0003d0 a8 45 b3 bc ec 35 a9 bd 0e 11 99 3c 33 5a f5 3c
       -0.0218838 -0.08262238 0.01868489 0.029950237
0003e0 8f 44 4c bd 34 8f 76 bd 04 82 be 3d 74 4c 38 bd
       -0.04987007 -0.060195163 0.09302142 -0.044994786
0003f0 2c 1c 79 bd f1 15 2f 3d 64 7a e9 3d 98 7b c2 bd
       -0.060817882 0.042745534 0.11400297 -0.0949623

encoder.encoder_net.4.bias f4 [4]
000000 d7 9f 78 bd f6 37 9a bd 53 37 d1 bd 10 59 97 3c
       -0.06069931 -0.07530205 -0.102156304 0.018475085

decoders.0.decoder_net.0.weight f4 [128, 2]
000000 ec f4 32 3f b2 3a 2a 3f 98 67 23 bf 9f a6 1e 3f
       0.6990497 0.6649581 -0.63829947 0.61972994
000010 94 0f e5 be 2d 71 c2 3e 6b ed d2 3e 95 f7 2e 3f
       -0.44738448 0.3797697 0.4119676 0.6834653
000020 89 5c fa 3b ec f3 f3 3e 72 3f 24 3f 49 0a c2 3e
       0.0076404256 0.47647035 0.6415931 0.37898472
000030 ce 87 8d be 22 be 26 bf 4b 22 92 be cc a1 e7 3e
       -0.27642673 -0.6513387 -0.28541788 0.4524063
000040 d0 8e 38 bf b5 26 1c 3f 2c b6 be be ce 99 d8 3d
       -0.72092915 0.6099656 -0.3724836 0.10576211
000050 8e e2 20 bf 25 8c 0d 3f 53 b7 32 3f b3 a8 08 3f
       -0.62845695 0.5529197 0.6981098 0.53382415
000060 df 63 30 bf 89 81 9a be 1e 79 09 3f 10 96 71 3f
       -0.6890239 -0.30176952 0.53700435 0.943696
000070 e6 98 fe be 1a 67 1d bf c0 79 00 be 5a 80 47 3f
       -0.49726027 -0.61485445 -0.12546444 0.77930224
000080 6e ba 10 bf 3d 4c 5a bf 74 47 0d 3f 8f 5b eb 3e
       -0.5653447 -0.8527258 0.55187154 0.4596829
000090 64 db a4 bd f5 0c 08 bd 4a 5a 81 3e 10 7d d5 3e
       -0.08049658 -0.03321548 0.25264198 0.41696978
0000a0 c4 d3 00 be df b9 01 3f ef 03 83 3e 1b 18 d2 3e
       -0.12580782 0.5067424 0.2558894 0.41034016
0000b0 43 d6 08 bf 81 40 31 3f 86 ae dc 3d c2 86 09 3f
       -0.5345194 0.6923905 0.10775475 0.5372125
0000c0 98 16 75 bf 8d a4 d6 3e 68 c4 2f 3f 4e a0 56 3e
       -0.957376 0.41922417 0.6865907 0.20959589
0000d0 94 f8 f9 3e 3e e8 55 3f 27 88 30 be 9d f4 14 3e
       0.48822463 0.835575 -0.17239438 0.14546438
0000e0 23 50 31 bf c5 4e fe 3d e2 f6 28 3f bd 46 3c 3f
       -0.69262904 0.12417368 0.66001713 0.7354544
0000f0 78 1b 21 be 71 69 35 bf 56 8b 20 3e e4 e5 fa 3e
       -0.15733135 -0.70864016 0.15678152 0.49003518
000100 74 b3 cd be e7 fc f7 be 13 79 2d bf 44 cb a5 3e
       -0.40175974 -0.48435137 -0.6776287 0.32381642
000110 d2 c3 db bd 8e ce 13 3f d0 6a 38 bf aa 17 a6 3e
       -0.10730709 0.5773705 -0.7203798 0.3243993
000120 cc 50 29 bf 94 dc 85 3e b0 b2 52 be 07 7f 33 3f
       -0.6613891 0.2614485 -0.20575976 0.70115703
000130 a6 13 85 3e a6 61 22 3e 50 b0 51 3e bc 2e c4 3e
       0.25991553 0.15857562 0.20477414 0.38316905
000140 55 09 15 bf ee b6 60 3f 20 c7 96 be 35 56 c6 bf
       -0.58217365 0.8777913 -0.29448795 -1.5495058
000150 59 62 ee be b7 ed 4a 3e f3 55 19 3f 46 b7 f5 3e
       -0.46559408 0.19817244 0.59896773 0.4799139
000160 62 b0 c0 3e 42 9c 88 3e 9d 48 1a 3f c0 09 e6 be
       0.3763457 0.26681715 0.6026705 -0.44929314
000170 19 54 81 be 9c 65 13 3e 5c 92 39 be 75 8d 96 bf
       -0.25259474 0.1439423 -0.18122238 -1.1761919
000180 f3 c6 c5 3e 3b eb b7 3e ff 08 38 bf 59 d4 3a 3f
       0.3862835 0.35921654 -0.71888727 0.72980267
000190 f3 67 8a bb eb ae 2a bf 09 d3 db be db 09 0c 3e
       -0.0042238175 -0.66673154 -0.42934445 0.13675635
0001a0 8b cf 09 bf 8c c9 04 3f d6 ee 2b 3f 0c 55 80 bf
       -0.5383231 0.51870036 0.6716131 -1.0025954
0001b0 0e de 90 3e ed e4 2b bf 51 a4 c1 3e 7d b3 22 3f
       0.28294414 -0.6714619 0.37820676 0.6355513
0001c0 bf ac 78 be 00 2a 4b 3f 7b ec f7 be a2 60 c7 3c
       -0.24284647 0.7936096 -0.48422608 0.02433807
0001d0 10 ba 1c bf 95 c6 37 bf bb 28 26 be f2 0e 3b 3f
       -0.6122141 -0.7178739 -0.16226475 0.7306968
0001e0 5a f3 31 3f bf b7 a4 3e cb 2a 2d be 3d c0 4c 3f
       0.6951195 0.32171437 -0.16910855 0.7998083
0001f0 5b e3 18 be b9 45 4b 3e d5 88 17 bf d7 7c 43 3f
       -0.14930479 0.19850816 -0.59193164 0.76362365
000200 af 95 90 be af 9a 82 3c 71 49 47 bf db 96 8a be
       -0.282392 0.0159429 -0.7784644 -0.2706822
000210 2a 6d ee 3d 39 21 b0 be b9 2c 21 bf 5d e0 f1 3e
       0.11641915 -0.34400347 -0.62958866 0.47241488
000220 32 78 02 3f 68 15 a3 be 8a 09 48 bf 1b d8 70 bd
       0.50964653 -0.3185227 -0.78139555 -0.058799844
000230 b6 f6 6a 3f 57 f2 9a bf 87 29 8c be 3d e8 11 3e
       0.917827 -1.2105206 -0.27375433 0.14248748
000240 bb 2b 86 bd a0 8e 3a bf ca 6e db bd db 87 27 bf
       -0.0655131 -0.7287388 -0.10714491 -0.65441674
000250 12 b9 32 bf 5d 23 4d bf 2e fe 1c bf 02 37 20 3f
       -0.69813645 -0.80132085 -0.6132535 0.62583935
000260 ca 9c 2f bf d8 eb 38 bf 74 4a 1c 3e cc f0 2e 3e
       -0.68598616 -0.7223487 0.15262777 0.17084044
000270 2b 5e 0d bf 3e 95 0b bf 51 37 2a 3e 70 f3 37 3f
       -0.55221814 -0.545246 0.16622664 0.7185583
000280 43 45 11 3e d7 98 24 3e af 0b 35 bd 61 ce d7 be
       0.14186577 0.16073929 -0.044200595 -0.42149642
000290 85 3b 3b 3f 54 3e 19 3e 8b 9f 36 3f a4 04 a3 bd
       0.73137695 0.14965183 0.71337193 -0.079598695
0002a0 34 5f c5 be 92 52 38 3f 37 6a 84 bf 3e 38 b3 be
       -0.38549197 0.7200099 -1.0344914 -0.35003847
0002b0 59 90 72 3e 28 79 00 bf 2d 95 f8 3e 10 9b ab 3e
       0.23687877 -0.5018487 0.48551312 0.3351674
0002c0 c4 ff 0f 3f a6 81 3f bf 55 93 98 bd e5 b6 2d bf
       0.5624964 -0.748072 -0.07449976 -0.678572
0002d0 91 25 2c 3f 03 f1 79 be 38 9d c0 be 73 ae a5 be
       0.6724482 -0.24408345 -0.37619948 -0.32359657
0002e0 99 28 09 bf b8 09 37 3e 02 86 41 3f 23 6f d3 be
       -0.5357757 0.17874801 0.75595105 -0.41295728
0002f0 f0 ed 45 3f 7f ec 60 bd eb cd f7 be 3e 7f 3f 3f
       0.7731619 -0.05491304 -0.4839929 0.7480353
000300 2b 93 23 bf 99 1e 30 3f 6e 8a f7 3e f2 b7 5e bf
       -0.63896435 0.6879669 0.483478 -0.8699943
000310 0c 3e 50 bf 93 36 94 be dc de 27 3f 30 2a d0 3d
       -0.81344676 -0.28947887 0.6557443 0.101642966
000320 3e 81 19 bf ea b7 1b bf 97 e3 25 3f 90 c2 11 3e
       -0.5996283 -0.60827506 0.648004 0.14234376
000330 62 de 95 be 43 ef 4a bf 55 6b 2a be 41 44 82 bf
       -0.29271227 -0.79271334 -0.16642506 -1.017708
000340 d6 b4 37 3f 7e 83 e1 be 6f 01 20 3e ab 6d d4 be
       0.7176031 -0.44045633 0.15625547 -0.4148992
000350 36 23 7a bf 57 59 aa be 22 01 34 3f bd bb f0 be
       -0.9770998 -0.33271286 0.7031423 -0.47018233
000360 a2 0a 91 3e c0 de d3 3e 88 a7 83 3e 3d b1 12 3f
       0.28328425 0.41380882 0.25713754 0.57301694
000370 8d db d6 bc eb 5f 0e 3d 05 0b e8 3e f5 36 3c bf
       -0.026227737 0.034759443 0.45320907 -0.7352136
000380 21 38 11 bf 5c 89 3b bd 7b da e3 bc 77 56 09 3f
       -0.5672627 -0.045785293 -0.02781414 0.5364756
000390 41 bb 07 3e c1 54 cf 3e 37 9d 3b bf 71 a1 1e be
       0.13255025 0.4049435 -0.73286766 -0.15491273
0003a0 8b 49 9b 3d 6e 68 62 3e c2 d2 5d 3f a7 8b 5f bf
       0.075823866 0.2211015 0.86649716 -0.8732247
0003b0 ff 27 77 3f 5c fd 1c bf 5f 35 29 3f 9c bd 5c 3f
       0.96545404 -0.61324096 0.6609706 0.8622682
0003c0 b9 3c 8b 3e 73 32 2a 3f 05 0d 27 3e f1 9e 3c bf
       0.27194765 0.6648323 0.1631356 -0.73680025
0003d0 5b 26 02 3f 0e 91 04 bd 63 47 83 bf b2 57 b2 be
       0.50839776 -0.032364897 -1.025616 -0.3483253
0003e0 fc 18 0d bf b1 16 2e 3f bf a1 25 3f 7d a5 12 3f
       -0.5511625 0.68003374 0.6469993 0.57283765
0003f0 8d 65 04 bf fd 60 19 3f 49 a4 19 bf cd 06 0e 3e
       -0.51717454 0.5991362 -0.60016304 0.13869782

decoders.0.decoder_net.0.bias f4 [128]
000000 8a 06 d4 3e 76 35 07 3f 08 f2 cc 3e 64 c8 ac be
       0.4141124 0.5281595 0.40028405 -0.33746636
000010 d0 66 29 3f b7 4c 9a 3e d9 1f 8c 3e ac 46 fe bd
       0.66172504 0.30136654 0.27368048 -0.12415823
000020 15 e3 0f 3f 63 09 30 3f 96 68 8e be 8d 7d c5 bd
       0.56205875 0.68764323 -0.27814168 -0.096430875
000030 0f 02 46 3e 76 c8 0f bf f3 c1 0b 3f 17 ee 0d 3f
       0.19336723 -0.56165254 0.5459282 0.5544142
000040 a1 7b d9 3e 19 74 b5 3e f8 29 d4 3e c3 98 49 be
       0.42477134 0.35440138 0.4143827 -0.1968718
000050 04 1a 94 3e 31 20 7f be ce ae 95 3e 24 4a 61 be
       0.28926098 -0.24914624 0.29234928 -0.22000939
000060 58 a0 06 3f b4 44 12 3e 63 d2 04 bf 1d 04 7c 3c
       0.52588415 0.1428402 -0.51883525 0.01538184
000070 77 c7 42 3f 5f c9 ac be 22 ce d9 bd 65 5d 52 3d
       0.7608561 -0.33747384 -0.1063502 0.0513586
000080 92 a7 3d bc 98 7b 86 be 3d 9e d6 3e 6d 4c 5c bf
       -0.011575596 -0.2626617 0.419176 -0.86054116
000090 77 57 0a 3f 7e 72 01 bf db 52 26 3f 60 95 2c 3f
       0.5403971 -0.50565326 0.6497018 0.6741543
0000a0 59 3d 04 3f a5 06 8c 3e f0 77 d2 be 1d a7 ca 3e
       0.5165611 0.2734882 -0.4110713 0.39580622
0000b0 5c 52 fc 3e 91 09 98 be 36 c7 48 3e 82 26 bc 3e
       0.49281585 -0.296948 0.19607243 0.3674813
0000c0 15 0c 11 bc 17 c3 cf be 60 20 1c 3f f2 9a d8 3e
       -0.008852978 -0.4057853 0.609869 0.42305714
0000d0 af 48 89 3e 6c 82 60 be 4c 1b 86 bd b1 7f b8 be
       0.26813266 -0.21924752 -0.06548175 -0.3603492
0000e0 ad ea cb 3e 03 42 24 3f 56 c1 54 be fb 31 09 3f
       0.3982748 0.64163226 -0.20776877 0.5359189
0000f0 c6 fb ee 3e 25 f7 b5 3d 60 42 b8 3e 5e e2 26 bf
       0.46676463 0.0888503 0.3598814 -0.6518916
000100 b1 b7 6f be b5 45 fa be 48 92 86 3e ef bb 06 3f
       -0.23409916 -0.48881307 0.2628348 0.52630514
000110 dd ed 03 3e 43 bf 5b 3d 84 fb b8 bd 08 23 a9 be
       0.12883706 0.0536492 -0.09032348 -0.3303454
000120 c5 e7 00 3f dd 74 3c 3e a4 54 4f 3e c2 ae 65 bd
       0.5035365 0.18403955 0.20247132 -0.056074865
000130 1d 61 86 3e 0a 6c 8a bd 94 c0 03 3f 46 48 ef 3e
       0.26245967 -0.06758888 0.51465726 0.46734828
000140 9c 9d 1b 3f d4 96 b2 3e c2 05 53 be 29 05 34 3f
       0.6078737 0.34880698 -0.20607665 0.70320374
000150 6c 3e ad be 47 c0 06 bf fc 7a 8c bc eb 39 cd 3e
       -0.33836687 -0.5263714 -0.017148487 0.4008325
000160 c6 7e cb bd f6 11 9b 3e 09 6f df 3e 71 0e f6 3e
       -0.099362895 0.3028714 0.436394 0.48057893
000170 88 85 2f bf 1d 09 87 3d 0e 0b 1e bf a0 09 30 bf
       -0.6856313 0.06593535 -0.6173562 -0.68764687
000180 c5 14 22 bf b6 9f 8c bc 4d e5 df be 89 72 2a bd
       -0.6331294 -0.017166 -0.4372963 -0.041613135
000190 8c fe 00 bd 28 f2 95 be 9c cd 0b bf 75 59 a2 3e
       -0.031492755 -0.29286313 -0.5461061 0.31708875
0001a0 1b 62 7e be c0 fd 06 3f 81 4e e9 be 66 25 8d 3e
       -0.24842112 0.5273094 -0.45567706 0.27567595
0001b0 50 c0 f9 3e 47 95 8f 3e f8 2b c9 3e 59 fe 12 3f
       0.48779535 0.28043577 0.39291358 0.57419354
0001c0 e5 de 5e bd 6e 52 65 bd 73 39 16 be 19 3c 03 bf
       -0.054411788 -0.055986814 -0.14670353 -0.51263577
0001d0 6e 5e 05 3f 43 b8 fe be f3 52 b0 be e4 c9 9a 3e
       0.52097213 -0.49749956 -0.34438285 0.30232155
0001e0 fd 11 aa be dc bc 0d 3f 05 f9 aa be 51 14 f4 be
       -0.3321685 0.553663 -0.33393112 -0.4767175
0001f0 0d 61 ef be 93 42 c4 be 83 84 bf be ce 0b bb 3e
       -0.4675373 -0.38332042 -0.37405786 0.36532444

decoders.0.decoder_net.2.weight f4 [128, 128]
000000 0d 2e 83 bd 76 25 6b bd a8 55 91 3d a7 42 38 bd
       -0.06405268 -0.057408772 0.07096416 -0.04498544
000010 14 3e 47 bb 55 68 c9 3c 95 8f 9e 3c 23 45 f5 bc
       -0.0030401992 0.024585882 0.019355575 -0.029940194
000020 df ad aa 3c 31 b0 95 bc 2a e8 3b 3d e7 97 80 bd
       0.020834861 -0.018272491 0.045875706 -0.06278973
000030 20 7f 88 3c 8d b8 10 3c da 1d 98 bd 3e a6 d0 bc
       0.01666218 0.008833063 -0.07427569 -0.025469895
000040 3c c6 ea 3c bf 84 74 bd 98 90 c0 bd 0d 4f 1e 3d
       0.028658979 -0.05969691 -0.09402579 0.038649607
000050 c0 61 dc bc fe 6b 17 3d 0c 6b be bd 9c ea b4 bd
       -0.02690208 0.036968224 -0.09297761 -0.08833811
000060 68 3b b6 bd 61 6c 95 bc 91 1a a4 3d 9f 00 92 3d
       -0.088980496 -0.018240156 0.0801288 0.07129025
000070 d7 08 18 bd 4c 77 25 bd f9 96 13 3b cf 1c 69 3d
       -0.037117805 -0.040396973 0.0022520407 0.05691224
000080 c4 3c 97 3d 2f c6 96 bd ba df 66 3d 82 1d 82 bd
       0.07384637 -0.07362019 0.056365706 -0.063532844
000090 4f ce 42 bd 29 b7 a8 bd cc a9 30 bd ff 58 d8 bc
       -0.047560032 -0.0823806 -0.04313068 -0.026409624
0000a0 57 5b a4 bd 6a 6e 3a 3d 3a 44 83 3d 78 d2 8c bd
       -0.08025234 0.045515455 0.064094976 -0.06876081
0000b0 84 f5 9a bc c5 ad 82 bd 8d 04 9f bc 0b 93 2b bd
       -0.0189159 -0.063808 -0.01941135 -0.041888278
0000c0 56 e3 49 3d d4 1f a6 3d 87 bb 38 3d 38 98 6e 3d
       0.04928907 0.081115395 0.045100715 0.058250636
0000d0 26 96 88 bd da 66 48 3d 49 36 ce bc c1 47 73 3c
       -0.066692635 0.048926212 -0.02517237 0.01484865
0000e0 ff c8 05 3d 08 3b a3 bd f7 13 b1 bd 3e 36 2f 3d
       0.032662388 -0.07970244 -0.08646386 0.04277634
0000f0 33 34 fa 3c 51 f5 a0 bd 75 01 ba bc 21 d8 8a 3d
       0.030542469 -0.078592904 -0.022705773 0.067795046
000100 62 74 46 bc d7 ec ad 3d 77 83 01 bc 10 11 5d bd
       -0.012112709 0.08492439 -0.007904879 -0.05397135
000110 42 2c 2c bd 72 56 a7 3d 99 60 c6 bc d5 8b 86 3c
       -0.042034395 0.08170785 -0.024215983 0.016424099
000120 ba 16 ff 39 61 e1 32 bd 76 da e3 bc 80 82 60 3d
       0.00048654323 -0.04367197 -0.027814131 0.054811954
000130 75 64 a3 bd 5b 4f c1 bd 2c b2 29 3d 88 71 70 bd
       -0.07978145 -0.09438964 0.041429684 -0.05870202
000140 d3 5d 9e bd e4 01 66 3d a7 78 da 3c 3b 85 9f 3d
       -0.07732739 0.056154147 0.02666886 0.077890836
000150 22 6b b8 3c 30 79 68 bd 9f 96 96 bd 5b 10 07 3d
       0.022512022 -0.0567562 -0.073529474 0.032974582
000160 b1 ee 2e 3d 9b 0a a1 bc ee fd bd bb dd 49 a3 39
       0.042708103 -0.019658377 -0.005798093 0.00031144815
000170 ef dc 3a 3d 1d aa 2b 3d c4 a4 53 bd 06 ea c3 bb
       0.045620855 0.04191028 -0.051670805 -0.0059788255
000180 f2 a4 e5 bb 94 b0 3c bd 19 b1 50 bd 6c eb 26 bc
       -0.0070081884 -0.046066836 -0.050950143 -0.010187965
000190 4b c7 26 3d a6 d2 b3 bc ed 21 95 bc 37 65 43 bd
       0.040717404 -0.021951031 -0.018204654 -0.047703948
0001a0 79 dd b7 bd 07 43 50 bb 97 a9 7b 3d 9f 2e b9 3c
       -0.089777894 -0.0031778233 0.06144103 0.022605238
0001b0 56 1b 21 3c 84 13 68 3d a5 7d 1b bc 7c b3 0b bd
       0.009833178 0.056659237 -0.009490405 -0.034106717
0001c0 fb 56 55 bc f7 c0 a6 3d 0e 82 80 3c fc 03 ff 3a
       -0.013021226 0.08142274 0.015687015 0.0019456143
0001d0 8d e5 1f bd da 25 a6 bd d1 65 39 3c f2 52 4e bd
       -0.039037276 -0.08112688 0.011315779 -0.05037207
0001e0 80 f9 bd bc 4a 94 aa bb 9b 34 9b bd 9e ff df 3b
       -0.02319026 -0.0052056657 -0.07578393 0.006835892
0001f0 b3 e4 5c bd 22 5c 88 3d 38 92 89 bd 87 d7 81 bd
       -0.053929042 0.06658198 -0.06717342 -0.06339937
000200 af 80 d8 3c 18 d5 57 3d 69 d2 c4 bc 63 c0 ad 3d
       0.026428549 0.052693456 -0.024026113 0.084839605
000210 18 90 48 3d 09 de 30 bc ae 36 28 bd 86 c3 67 bd
       0.048965544 -0.010795125 -0.04106777 -0.05658295
000220 1c 5f 9a 3d 60 b2 87 3d 8a 07 be bb bf e2 20 bb
       0.07537672 0.06625819 -0.0057992386 -0.0024549214
000230 dc 93 65 bd db 45 06 bd 71 fb ad bc b2 e4 57 38
       -0.056049213 -0.032781463 -0.02123806 5.1472984e-05
000240 af eb e6 3a d0 b2 08 3d 5c f7 4d bd 59 40 a2 3c
       0.0017617847 0.033373654 -0.05028473 0.019806074
000250 1d 5b 4f bc 3d 1b 9f bd 6f 83 93 bd a9 79 96 bd
       -0.012656 -0.07768867 -0.07202803 -0.073474236
000260 a0 bb 66 3d 21 2d 27 bd 68 cb cf 3b 38 85 c2 3d
       0.056331277 -0.040814523 0.0063413866 0.09498066
000270 af 92 7b 3d 75 cc 8e 3d 6b f4 cf 3c c5 0d 1e bd
       0.061419185 0.06972591 0.025385102 -0.03858735
000280 2b 24 b8 3d 94 21 79 3d 0f cf 0d 3c b2 8e c5 bd
       0.089912735 0.06082304 0.008655324 -0.096463576
000290 53 5f 9b 3d 8e b9 1f bc 81 95 0b 3d f4 da ad 3d
       0.07586541 -0.0097488295 0.034078125 0.084890276
0002a0 59 aa f1 bd 98 e6 95 bd 56 9a 60 3d 11 f4 31 bd
       -0.11800069 -0.07319373 0.054834686 -0.04344565
0002b0 37 94 0a bd 48 5b fe bd d1 6b 84 bd de a9 84 bd
       -0.033832755 -0.12419754 -0.06465877 -0.06477712
0002c0 a7 d3 e5 3d 88 3c 80 3d 9f 75 81 bc 1b f5 47 bc
       0.1122201 0.062615454 -0.015803156 -0.012204434
0002d0 71 b1 b4 bc 46 35 63 be f9 37 9e bd 29 b9 86 3d
       -0.022057267 -0.22188291 -0.0772552 0.06578285
0002e0 4e d6 39 3d 87 58 5f 3b f4 65 14 bc b7 3f ba 3d
       0.045370393 0.0034079866 -0.009057511 0.09094184
0002f0 e3 75 6a 3c 8b e9 46 bd 46 c3 1c bd fa 3e 3c bd
       0.014310333 -0.048562568 -0.038272165 -0.045958497
000300 98 b9 8e 3d ee 3d cf 3d ae ef 8c 3d f2 77 c5 3d
       0.06968993 0.10119234 0.06881653 0.096420184
000310 fc 31 2f 3d cb 75 08 bd 62 3b 95 be 7a 79 bf 3d
       0.04277228 -0.03331546 -0.29146868 0.09349342
000320 56 3a 4d bd bf 80 96 3d c8 ca bf 3d b9 db 1c 3d
       -0.05010446 0.07348775 0.09364849 0.03829548
000330 46 b4 65 3c 9d ae 24 3d 30 d8 be 3d 0e d2 dc bb
       0.014020031 0.040205587 0.09318578 -0.0067389077
000340 6b df 4f 3d a8 98 8f 3b 5a a5 5e be ab 3c 31 3d
       0.050750177 0.0043822117 -0.21742764 0.043270748
000350 8d 67 cc bc b4 a5 47 3e 28 4f 12 be 3d ec e3 3d
       -0.02495172 0.19496804 -0.14288008 0.11129043
000360 d1 be 0f be c1 6d a2 3d 14 ff c4 bb cf 1b 02 3d
       -0.14037634 0.0793109 -0.006011853 0.0317648
000370 0c a7 15 3d 42 96 27 3e b1 42 9f bd 1c ad ad bc
       0.03653626 0.16365913 -0.07776392 -0.021200709
000380 d0 17 45 bd 85 d6 43 be 41 ee 03 3e 64 22 d8 3d
       -0.048118412 -0.19124801 0.12883855 0.105534345
000390 ea 89 2f bc 67 ae 35 3d c0 a2 73 3c fb b6 5c 3d
       -0.010714034 0.044355776 0.014870346 0.05388544
0003a0 55 6d 99 3d 05 88 80 bd 08 99 52 3e b4 73 21 bc
       0.074915566 -0.06275944 0.2056619 -0.009854246
0003b0 29 77 18 3d 78 35 46 bd d3 fe 43 bd ee 73 9d bd
       0.037223015 -0.048390836 -0.04785044 -0.076881275
0003c0 ed 29 2f 3d 74 61 fd 3c 37 6d 76 3d f4 66 d8 3d
       0.042764593 0.030930258 0.06016275 0.10566512
0003d0 f6 c0 f3 3c 42 ad 17 be ee 76 c7 3c b3 ca 7c bd
       0.029755097 -0.14812186 0.024348702 -0.061716747
0003e0 bd be c2 3d b1 0c 68 bd ae 23 90 3d fb 13 55 3e
       0.09509037 -0.05665273 0.07038055 0.20808403
0003f0 4e 53 d7 bc db 19 9c bd bb 3b 24 bc 71 76 56 bd
       -0.02628484 -0.07622119 -0.0100240065 -0.05235905

decoders.0.decoder_net.2.bias f4 [128]
000000 ec a1 8a 3d 36 01 45 3d 52 04 05 3d 9f fc e5 bc
       0.067691654 0.048096858 0.032474823 -0.02807456
000010 f3 c7 6e 3d 54 7d 8e 3d 35 8a 87 bd 3f b1 5c bd
       0.058296155 0.06957498 -0.06618158 -0.053879973
000020 14 3d 44 3d 7d 56 40 3d f9 6c 50 bc de f5 c8 bd
       0.04790981 0.04695748 -0.012721294 -0.098125204
000030 f0 5b 6f 3d 04 92 ac bc e6 c3 d1 3b b2 2b 01 3e
       0.058437288 -0.02106572 0.0064015267 0.12614325
000040 10 35 74 bd 56 9d de bc b5 e6 11 3c 66 b2 34 bd
       -0.059620917 -0.027174633 0.0089051025 -0.044115447
000050 1b db b9 bc 3d 37 99 bc 91 f8 32 3c 24 1e 14 3c
       -0.022687485 -0.018703097 0.010923521 0.009040389
000060 d8 fd d6 3c 88 0b 04 3d b8 50 9a bc 50 03 b2 3c
       0.026244089 0.03223756 -0.018837318 0.021730095
000070 ad 5a 45 bd a6 80 83 bd cd e7 c1 3d 5d 95 62 3d
       -0.04818218 -0.06421022 0.094680406 0.055318225
000080 9d e4 8b 3d 65 ac bf 3c 03 bc b4 3d c9 fa 31 bd
       0.06830714 0.023397634 0.08824923 -0.043452058
000090 7c 4d 99 bd cb 4c ad ba 16 fc 96 bc 95 88 76 3d
       -0.07485482 -0.0013221739 -0.01843075 0.06018885
0000a0 32 2b a4 3c df fc 2f 3d 68 d4 07 bd 70 e0 b3 3d
       0.020040128 0.042965766 -0.03316155 0.087830424
0000b0 2b 19 d5 bd 0f a1 69 bd 82 7d b3 3c a8 8c 16 bd
       -0.10405191 -0.057038363 0.021910433 -0.036755234
0000c0 42 21 af 3d 74 31 bd 3b f1 2c 58 3d 03 15 ab bb
       0.08551265 0.0057737175 0.052777234 -0.0052210107
0000d0 d9 67 2f 3d 6d 20 91 3d 19 4a 8c bd f8 52 c3 bc
       0.042823646 0.07086263 -0.068500705 -0.023843274
0000e0 2b 7d cb bd ab 29 ec bc d9 ce c7 bd 59 fa d1 bd
       -0.09935983 -0.028828463 -0.0975625 -0.10252828
0000f0 4a 17 d9 3c 1d 21 88 3d ef 5d 10 bd d0 ad 4e bd
       0.026500363 0.06646941 -0.035245832 -0.05045873
000100 00 d1 c6 3d 2a 5b 0e 3e e1 b3 b3 3d 37 d1 42 bd
       0.09707832 0.13901964 0.087745436 -0.047562804
000110 13 5e 1b bd 83 dc fa 3c 8b d6 cf bb 8e 0d 14 bd
       -0.037931513 0.030622726 -0.006342714 -0.03614574
000120 d3 eb 3b bd a7 27 87 bd 1c 78 9f bd 66 36 ae bd
       -0.045879196 -0.0659936 -0.07786581 -0.085064694
000130 16 3d 85 3c 99 31 4d 3d e8 d8 21 bc f1 65 3d be
       0.01626448 0.050096128 -0.009878375 -0.18495919
000140 03 f0 a8 bd 13 e9 bc bd 31 c4 8a 3d de 2a 0f 3d
       -0.082489036 -0.09224143 0.06775702 0.03495299
000150 b7 10 7a bd 4b d4 91 3d ff 5b 48 bd 7f 87 b0 3d
       -0.061051097 0.0712057 -0.04891586 0.08619594
000160 89 55 ce bc 75 30 5a bd ba dc 9b bc 8f 55 42 bc
       -0.02518727 -0.05326887 -0.019026149 -0.011861219
000170 7d 1b 9a bd e6 6a 28 3c 31 4a 54 3d 93 e6 8b 3b
       -0.07524774 0.010279393 0.051828567 0.00426943
000180 e5 0f 1b bd bd 98 4e bd 32 7a 02 be 29 53 8e bd
       -0.037856955 -0.05043863 -0.12741926 -0.06949455
000190 08 ec 69 3b 2f 9d 9e bb 75 37 2a 3d 7d 2e 9c 3c
       0.0035693664 -0.004840515 0.041556794 0.019065136
0001a0 a2 00 b9 bd f2 54 62 3d 71 cf 88 bd cb aa 91 bd
       -0.09033324 0.05525679 -0.06680191 -0.07112654
0001b0 86 8b a3 3a 57 4a 88 3d 7a d9 2e 3d 07 14 d1 bb
       0.0012477494 0.06654804 0.04268787 -0.0063805613
0001c0 08 04 d5 3d 78 e6 7e bd d1 42 88 3d 34 66 b3 3d
       0.104011595 -0.06223151 0.06653369 0.08759728
0001d0 97 e7 16 bd 61 fa c8 3c df 91 49 3d ac 87 45 3d
       -0.036841955 0.024533452 0.04921138 0.04822509
0001e0 3a 2e 5b 3c ab ca 8f bc e1 3e 0d bd ed 15 52 3d
       0.0133777205 -0.017552694 -0.034483794 0.05129044
0001f0 40 0a d6 3d 09 db 11 3d 7d 62 df 3b e6 68 be bb
       0.10451174 0.03560928 0.0068171606 -0.0058108447
