src/artifacts/EVAE_ld2_d2_ep200_bs64_lr1e-03_seed123_best.pth (torch, 306938 bytes, 20 tensors)

encoder.encoder_net.0.weight f4 [128, 50]
00000000: 9bbe 8c3c 456e 013d ddc4 14bd f2a8 863d
00000010: daab 6cbc 9e2c c6bc ebca f13c 4a64 b13c
00000020: abff 24be c75b 8c3d 38e5 08bd a7f2 1a3e
00000030: a529 bbbc 184f 263b 3032 62bd 0b2b c43d
00000040: 9553 25bd 4745 b63c 913d 8c3d 4805 543b
00000050: 9e38 7e3c 61e3 ee3d 1a2a 553d bb53 f1bd
00000060: 3c19 dcbd 665a d5bd 00f6 8a3e cf5c 30bd
00000070: cca6 12bc 387c 43be 1ada 913d 88d3 f23c
00000080: 1d13 073e 0be1 9c3d 5a64 573e 1b1d 243e
00000090: d551 32be 4b4b 5fbc e824 75bd d732 ff3d
000000a0: f0c6 75be b402 14be 6fd6 a8bd 9edc 7d3d
000000b0: 2b86 c93d 0250 143d e9bb fc3c 61ea 343e
000000c0: 2700 953d e740 1abe de90 543b e5ce ad3c
000000d0: 2d94 d63d e53e c13d af08 fc3a 1866 a53d
000000e0: e87a 08be d105 f73d f485 87bd bdb3 bcbd
000000f0: 973e 3e3e ef98 bcbd fe19 fa3b 30c0 c2bd
00000100: 60b3 46be b2e9 a8bc e281 8a3e 6f82 913d
00000110: f17a 2cbe 00ea 19be c054 883e 8e59 313e
00000120: fe5e 07be f4a6 f8bd 9f78 ccbd 485b 343e
00000130: 1139 bbbc f438 27be 2057 1a3e d750 f43c
00000140: 6c00 15bd aaff 103d f2e0 a0bd f758 45bc
00000150: 371f f43d 81c9 48bb 4478 70bd df51 143e
00000160: eb54 e73d 9a81 4a3d 3c0a 6cbe f17a cabd
00000170: 25ec b5bd 3d4a e63d 83cb e9bd ac80 693e
00000180: 2418 cd3c 8942 a73e 2053 82bd 025d 393e
00000190: 4ff3 773d 3323 06bd 786a 7d3c bc1a 8b3b
000001a0: f417 1e3d c538 d13c cf44 6bbd 5fb6 f53d
000001b0: a2f2 203e a2bf 573b 950d 093d f80e 47be
000001c0: 12ea 51bc 0812 e4bd c31f 30be 7ffc 773d
000001d0: de34 573d 50ac afbc 8160 54bd 73b2 ad3d
000001e0: 9c31 143e cede fdbd 935c 37be fd3b 593e
000001f0: c82d b83d b567 b2bd 5400 c23d 5e57 2abe
00000200: b842 ba3d bad8 c13d d29b 793d a267 b23d
00000210: ba95 4fbc c1aa 7fbd b401 a5bc 5ad0 0e3e
00000220: 62b6 813d 4bcb 34bd c3c1 82be 0d9e c9bb
00000230: 3fcd e83d 9ef3 903d 6c7d 833d 2d84 343e
00000240: bb71 103e bfe8 35bd 0b77 a6bd 6305 3fbd
00000250: 4240 cb3c dd89 ad3d 341d a0bd a140 92bc
00000260: 0b89 e53c 51f9 10be 30f0 c5bd 2b4f 2f3e
00000270: aa63 7fbd fb07 97bd 909f ed3d 85f3 2c3e
00000280: 8861 653e 08a0 453d 54d3 33be cae2 5b3e
00000290: 53ca 7b3d 3cf3 ac3d 4c52 d33d c173 553e
000002a0: 7e39 5f3d b14b 983d 304d 1dbd 24e6 293d
000002b0: 408a d1bc 2198 ddbd 4d89 283e a615 27be
000002c0: d584 3b3d 0fb9 8cbd ca42 b539 968f dc3b
000002d0: bd30 9c3d 7f43 1e3d cde5 fa3d aaa2 09be
000002e0: d104 24bd 39b6 893d 46ca 3c3c c887 febd
000002f0: b9fe 883d b06d 51bd c985 42ba 5c93 babd
00000300: 4483 0d3d 4c59 6fbc d636 99bc c252 b5bd
00000310: 070d 4d3d f904 88bc 04a9 393e bda8 cebd
00000320: 58ae 62bc f81c bb3d af78 b33e 434e 423d
00000330: 65e0 4ebe ec05 0e3e f3af 8fbe bb92 5f3d
00000340: 15e5 9e3b af11 71bc 2348 fcbd da07 c23d
00000350: a72a 453e efda a2bc 79ba 68be b473 44be
00000360: 7b1d e03d e38c 5fbe 630a a13b 4975 213d
00000370: 8ff3 ee3b eab0 033d dce7 623b 6e8d 81bc
00000380: 3471 4ebc 97a5 dabd e74c b2bd 2856 a83d
00000390: 1080 803d dbfc e43d 500a f73d 4a9b a33c
000003a0: b071 4bbd 848e 0a3e 65cc 1d3d f7cd 1fbe
000003b0: caa9 0cbe 898f 613d c12f 3f3e b0f8 2d3e
000003c0: fb0a 88bd 2733 cd3d 527a 893c 4c6c 953d
000003d0: dcd9 e4bd d303 e93a 3516 66bd 8c9e e1bd
000003e0: ecbd b83c 7211 95bd 8a7c a83d 0d2e 073d
000003f0: b90f 173e e807 803a fc76 6abd 3cf0 713d
0.017180732 0.0315993 -0.036320556 0.065751925 -0.0144452695 -0.024191197 0.029515704 0.021654267
-0.16113155 0.06853443 -0.033421725 0.15131627 -0.022847006 0.0025376733 -0.055223644 0.09578522
-0.040362913 0.02224983 0.0684768 0.003235178 0.015516428 0.11664463 0.052042104 -0.117835484
-0.107470006 -0.10417633 0.27140808 -0.04305726 -0.0089509 -0.19090354 0.07121678 0.029641882
0.13190885 0.07660111 0.21034375 0.16026728 -0.17414029 -0.013628791 -0.05984965 0.12460869
-0.2400167 -0.14454156 -0.08244025 0.061977975 0.09840044 0.036209114 0.030851321 0.17667533
0.0727542 -0.15063821 0.003243498 0.021216819 0.10477481 0.09435824 0.0019228662 0.080761135
-0.13328135 0.12061656 -0.066173464 -0.0921397 0.18578564 -0.09208857 0.007632493 -0.09509313
-0.19404364 -0.020619247 0.27052218 0.07104956 -0.16843773 -0.1503067 0.2662716 0.17319319
-0.1321983 -0.12141219 -0.09983944 0.17612946 -0.02285436 -0.1633032 0.15072298 0.029823704
-0.036377355 0.03540007 -0.07855405 -0.012045137 0.11920016 -0.0030637684 -0.058708444 0.14484356
0.11295494 0.049440004 -0.23050779 -0.098867305 -0.088829316 0.112446286 -0.1141577 0.2280299
0.025035925 0.3266795 -0.06363511 0.18101886 0.06053477 -0.032748412 0.015467279 0.0042451303
0.038597062 0.025539765 -0.057438668 0.11997675 0.15717557 0.0032920619 0.03346022 -0.19439304
-0.012812154 -0.11136252 -0.17199616 0.060543533 0.052540652 -0.02144447 -0.051849846 0.08481302
0.1447205 -0.12396012 -0.17906408 0.2121429 0.08993107 -0.08711187 0.09472719 -0.1663489
0.09094757 0.094651654 0.060939617 0.08711173 -0.012669975 -0.062418703 -0.020142414 0.13946667
0.06333615 -0.044139188 -0.25538453 -0.0061528743 0.113672726 0.07077716 0.06420407 0.17628546
0.14105885 -0.044411417 -0.081281744 -0.046635997 0.024810914 0.08473561 -0.0781807 -0.017853083
0.028019449 -0.14157607 -0.09664953 0.17120044 -0.062350906 -0.07374569 0.116027 0.1688977
0.22400486 0.04824832 -0.17561084 0.21473232 0.06147225 0.08444831 0.10318431 0.20844938
0.05449819 0.07436312 -0.03840369 0.041479245 -0.025578618 -0.10820032 0.16458626 -0.16316852
0.045780975 -0.068712346 0.00034572772 0.006730984 0.076264836 0.038638588 0.12250862 -0.13440958
-0.040043656 0.06724209 0.011522835 -0.12428242 0.066892095 -0.051129997 -0.0007420448 -0.09110138
0.034549013 -0.014608692 -0.018702906 -0.088536754 0.050061252 -0.016603934 0.1813088 -0.10090778
-0.013835512 0.09136385 0.35053012 0.047437917 -0.20202787 0.13869447 -0.28063926 0.054583292
0.004849086 -0.014713689 -0.123184465 0.09474154 0.19254552 -0.019879786 -0.22727384 -0.19184762
0.10943123 -0.21831088 0.0049145683 0.039418492 0.007292218 0.03215114 0.0034623062 -0.01581451
-0.012600232 -0.10676115 -0.08706074 0.08219558 0.06274426 0.11181041 0.12062514 0.019971509
-0.049668968 0.13530928 0.038525004 -0.15605913 -0.13736644 0.055068526 0.1867056 0.16989398
-0.06642719 0.10019522 0.01678196 0.072960466 -0.11174366 0.0017777629 -0.056173522 -0.110165685
0.0225515 -0.07278718 0.08226879 0.0330029 0.14752091 0.0009767981 -0.05724238 0.059066996

encoder.encoder_net.0.bias f4 [128]
00000000: 339a cebf 864d ebbe 54cd 94bf 92df 81be
00000010: 6488 843e bdee b9bf 3229 a6bf 3955 3fbd
00000020: bea0 3d3f 7a37 7bbd c665 34bf 241a 42bf
00000030: be58 013e c5d8 e2bf f086 77be 76ba 203e
00000040: c230 00c0 6b7a 373f e857 18bf 008a 93bf
00000050: ef89 93bf 376d b9bd c5ee 49bf c37c 7fbf
00000060: 9ff1 d9bf 9af2 e73e 78f9 88bf 9fd5 a7be
00000070: 2c51 4c3f 22c7 77bf 062c 00c0 8f3a 0ec0
00000080: e566 8e3e d04f dcbe eee8 8dbf b626 0dbf
00000090: c5a4 98bf 4945 46be 7d2f 773c ac8d bcbf
000000a0: 082a 4abe 423a 613e 41b0 ffbe 21fa 05bd
000000b0: a999 00c0 2c0e 00bf 0c30 3cbf de97 233f
000000c0: db3c 8dbf 581e ecbe 2361 b5bf e5bb b4bf
000000d0: 093d 9a3f 3126 473f ecb1 cebf 6df6 a6be
000000e0: d6d7 78bf d51f d4bf e26b e53d 032b 98bf
000000f0: 73a3 b83e d274 18c0 b546 80be 74e3 5cbe
00000100: cbf8 a6bf 8a22 00c0 be7d f0bf 892f 393d
00000110: 2c02 453f f282 a2bd ee29 123f e2a7 0ec0
00000120: 9d8e 02bf 6b40 9fbf f3ed bbbd 505d a03f
00000130: d1c6 c3be 9ea5 0cc0 6db7 90bf e106 4cbf
00000140: 4a61 83bf 3c6e acbe f5b7 1ec0 3759 7bbe
00000150: 0f89 b0bf bbfd 80be 9987 bbbf a9fd ad3f
00000160: 2a68 9a3f 265c 323e 9e68 b03e 04e1 d2bd
00000170: 3fb4 07c0 99b7 d6be 5179 f9bf 2a01 f9be
00000180: dd2a 00c0 f420 04c0 cfe1 d5bf acdc 1f3f
00000190: e188 be3e 8e26 633c 4381 3ebe 3204 46bf
000001a0: affd 8fbf 235c 0fbf 8a09 8fbf 8f55 0abf
000001b0: e846 fdbf b983 eabf 3150 b9bf 8c60 c6bf
000001c0: 9b78 a2bf 1884 8fbe 0d54 efbf 7d8d 9ebf
000001d0: 2ff1 40bf e847 94bf 00a6 12c0 307c c9bf
000001e0: 3fb2 f73e 29de 9dbf b36b 03c0 cf7c dfbf
000001f0: bba8 f6bf dee0 64bf 38c0 27c0 644d 0ac0
-1.6140808 -0.45957583 -1.1625161 -0.25365883 0.25885308 -1.4525982 -1.2981322 -0.046712134
0.740734 -0.061332203 -0.70467794 -0.7582114 0.12631509 -1.7722403 -0.24172568 0.15696129
-2.002976 0.7167117 -0.59509134 -1.1526489 -1.1526469 -0.09054034 -0.7887996 -0.99799746
-1.7026862 0.45302278 -1.0701132 -0.32780167 0.7981136 -0.9678823 -2.002687 -2.2223241
0.27812877 -0.43029642 -1.108671 -0.55137193 -1.1925284 -0.19362368 0.015087006 -1.4730735
-0.19742596 0.2199488 -0.4993916 -0.032709245 -2.0093787 -0.50021625 -0.73510814 0.63903606
-1.1034197 -0.461169 -1.4170269 -1.4119841 1.2049876 0.7779265 -1.6148047 -0.32609883
-0.9720434 -1.6572214 0.11202218 -1.1888126 0.36062202 -2.3821301 -0.25053945 -0.21571141
-1.3044676 -2.002108 -1.8788373 0.04521135 0.7695644 -0.07935132 0.5709523 -2.2289968
-0.5099886 -1.2441534 -0.091762446 1.2528477 -0.38237622 -2.1976085 -1.1305977 -0.79697996
-1.0264065 -0.33677852 -2.4799778 -0.24545752 -1.3791827 -0.2519358 -1.4650756 1.3593036
1.2063038 0.17417964 0.34454817 -0.102968246 -2.1203763 -0.4193695 -1.9490148 -0.486337
-2.0026162 -2.0645113 -1.6709536 0.62446094 0.37213805 0.013864173 -0.18603997 -0.7735015
-1.1249293 -0.55999964 -1.1174786 -0.540368 -1.9787264 -1.8321449 -1.4477597 -1.5498214
-1.2693056 -0.28030467 -1.8697525 -1.2386929 -0.75368017 -1.1584444 -2.2913818 -1.5741024
0.48378178 -1.2333423 -2.0534484 -1.7459964 -1.9270242 -0.8940562 -2.621107 -2.1609735

encoder.encoder_net.2.weight f4 [64, 128]
00000000: 72d0 0d3d 21c8 c43c 33b5 60bd d680 48bd
00000010: 6a97 e03c edf0 323d fb90 a33c 996d cfbc
00000020: bfb0 e3bc 9cc4 03be bc77 5f3c 3376 04be
00000030: eb5c 5bbd 3dba 66bd 2ed8 bc3c d406 313d
00000040: c504 223c 65ee f1bc 56e1 1d3a 48d4 7cbd
00000050: 4785 0a3d 2853 abbc 89e7 703c 8aa1 f0bd
00000060: 368a 82bd 1c35 91bd c727 16bd 629c 363c
00000070: 58ed a83d 0423 1ebe 2667 38bc 69e9 0bbd
00000080: d193 a8bd b814 403d 1e74 70bd 31f4 e2bc
00000090: 9dcb 31bc 0924 793d 2510 31bd 0a8f d7bd
000000a0: ebed c5bd 6509 033c 251e a73c 6c1b 81bd
000000b0: 657d 92bd ec5b 8b3d fcbb b9bd 254f bdbd
000000c0: d74e d3bd 0929 a2bc a5e9 963a 735a 0c3c
000000d0: 175e f2bd e142 5ebc d78c 063d ece4 a0bd
000000e0: 4df8 a0bd 4746 8bbd d4fc 63bd 2999 6cbd
000000f0: a772 b2bd 3ae8 bd3c 27a9 b2bd 91fb 953c
00000100: 8706 e7bd 7f48 e4bd 2b01 37bd 14e0 ca3c
00000110: be15 c4bd db4b 73bd 4787 8dbd 22e4 003c
00000120: 7f80 9abc f283 0cbe 9ace ddbc 0e17 d63c
00000130: bcb1 abbd 2fd9 b23c f4b7 a4bd fca0 55bd
00000140: 3d94 99bc 7572 c73b 9528 babd 3951 ffbd
00000150: 3282 83bd ced1 373c 3adc 2c3c 90dc 75bd
00000160: 7370 84bd 2468 afbd 03fe eabd a6c8 c9bd
00000170: 6dae f1bd 0519 223d cc39 81bd f98a 65bc
00000180: e94c 8b3c 7728 77bd 8d1b aebd 005c e6bd
00000190: df45 84bd 1173 67bd ca8c c7bc f6dc 5d3c
000001a0: 20c4 dabc e8b8 f9bc 82cd 9cbd 44b2 09be
000001b0: dc91 b33a 38f0 08be 61e6 ac3a ce68 b7bd
000001c0: 52e4 91bc d53d 04bd 93f2 d5bd 095c adbd
000001d0: b8ad f93c a6a1 473c 0626 51bc 306c 193d
000001e0: 875f 21bd 0974 24bd 6046 97bd 6e0a debd
000001f0: 9240 78bc 7eff a5bb 048f 3e3d ba2c 12bd
00000200: d435 363e 6af7 183b 0c79 80bc c14d 5bbb
00000210: eefd 983d 6b23 b73c 26a5 1c3e 0c11 853d
00000220: b777 da3d 5d95 813c 0d2f 3fbc a9a0 10bb
00000230: d703 5dbb 79b3 7a3d ef84 093e 49a3 23bd
00000240: b065 bfbd 0bcc 99bc 47ff a9bd b369 2cbc
00000250: 7de0 b1bd 9a70 ef3d 8b59 d0bc d1ea 8dbd
00000260: 244a 3a3d cdac abbd 1c20 803d dd89 203d
00000270: ea61 953d 3175 1d3d f54d 963c 0034 03be
00000280: 47af aebc b1b9 16bc 182a a43d b764 733d
00000290: c5d0 5ebd 502a 063d 0313 093d 85e7 17bf
000002a0: cbe5 113d e86d aabd adf7 f1bd 68e9 273c
000002b0: 1498 313d 3d9f 0ebe f849 aabc 0267 373d
000002c0: b7d4 363d 9113 ed3d cbaa 82bb fee5 5ebd
000002d0: 62ab 053e 1776 fc3d 3af6 b7bd f636 a63d
000002e0: 416c 04bd 12b0 093d b538 9e3d 13c2 823c
000002f0: 188a 08bc d680 0b3e 066d 90bc 526c 4f3d
00000300: b01c 0cbe c6a3 5cbd bcc2 60bd bede be3d
00000310: 881f 04be a233 3fbd 7b15 eabc acf7 84bd
00000320: d3ef 07bc 1db3 ee3d c4d9 2c3d 5656 03be
00000330: 7f7a c23d 8db6 3bbd 3c11 18bb d59a da3c
00000340: 306a 0ebd 4153 cf3d e61f 603d 5693 7abc
00000350: b5f0 8e3d 5794 813b a58d 0abd 4c71 7d3d
00000360: 3442 ad3d 450b c53c 2dac 79bd 8a17 e23d
00000370: 9b91 2cbd d3ca 8d3c 9be7 e6bc a024 893b
00000380: 9c8f 23be 8a49 fabc a8e5 b1bd b6c5 c3bd
00000390: 8164 d0bb a565 adbc d5b0 e73c f4fc b63d
000003a0: 055f 603d 029c a7ba 2e85 a4bd 0e0f 093d
000003b0: 0ce7 193e 1635 06be c01a 883d 80da a3bd
000003c0: a337 8e3c daa4 3d3c 9512 05be a4af b83c
000003d0: e53a 453d 6336 053e 2d26 85bd f036 1a3d
000003e0: cd53 8dbc bb8a 95bd e6a7 1abd 4ae8 193d
000003f0: a0db 5e3d bd9d 76bd 1968 06bd 2b5e fbbc
0.034622617 0.02402121 -0.054860305 -0.048950993 0.02741595 0.043686796 0.019966593 -0.025320815
-0.02779424 -0.1286797 0.013639387 -0.12935714 -0.05355541 -0.056329954 0.023052301 0.043219402
0.009888832 -0.02953262 0.00060226524 -0.061725885 0.03381851 -0.020913675 0.01470364 -0.11749561
-0.06374018 -0.07090208 -0.03665903 0.011145683 0.08248395 -0.15443045 -0.011255061 -0.034158144
-0.08231319 0.04689476 -0.058704488 -0.02770433 -0.010851768 0.06082538 -0.043228287 -0.105253294
-0.0966452 0.007997845 0.020400116 -0.063040584 -0.07152823 0.06804642 -0.09069058 -0.09243611
-0.10317772 -0.019794958 0.0011513723 0.008566487 -0.118343525 -0.01356575 0.03284916 -0.078561634
-0.078598596 -0.06800514 -0.055661038 -0.057763252 -0.087132744 0.023182023 -0.087236695 0.018308433
-0.11280542 -0.1114664 -0.04467885 0.024765052 -0.095744595 -0.059398513 -0.06910568 0.007866891
-0.0188601 -0.13722208 -0.027076054 0.02613404 -0.083835095 0.021832077 -0.08042899 -0.05215548
-0.018747443 0.0060866424 -0.09089772 -0.12466664 -0.06421317 0.011219455 0.010550553 -0.060024798
-0.064667605 -0.08564785 -0.1147423 -0.09852724 -0.11800847 0.03957464 -0.06309852 -0.014010184
0.017004447 -0.060341325 -0.08501349 -0.11248016 -0.06458639 -0.05650622 -0.024359126 0.013541451
-0.026704848 -0.030483678 -0.07656385 -0.13446909 0.0013700086 -0.13372886 0.0013191217 -0.08955537
-0.017809067 -0.03228553 -0.10446658 -0.0846482 0.030478343 0.012184536 -0.012765413 0.03745669
-0.039397743 -0.040149722 -0.0738647 -0.10841833 -0.0151521135 -0.0050658574 0.04652311 -0.035687186
0.17793971 0.002334083 -0.01568272 -0.0033463093 0.07470308 0.022355756 0.15297374 0.06497392
0.10667365 0.015818292 -0.011668933 -0.0022068417 -0.0033724213 0.061206315 0.13429616 -0.039950643
-0.09345567 -0.018774053 -0.083006434 -0.0105232475 -0.08685396 0.11691399 -0.025433322 -0.06929553
0.045480862 -0.083825685 0.062561244 0.039193977 0.07294066 0.03844184 0.01834772 -0.12812805
-0.021323813 -0.009199546 0.08015841 0.05942222 -0.054398317 0.032755196 0.033465397 -0.59337646
0.03561954 -0.08321744 -0.118148185 0.0102485195 0.043357924 -0.13927932 -0.020787224 0.04477597
0.044636454 0.115759976 -0.0039876453 -0.054418556 0.13053659 0.12327211 -0.08982511 0.08115952
-0.0323298 0.03361518 0.0772566 0.015961682 -0.008333705 0.13623366 -0.017630111 0.05064041
-0.13682818 -0.053867124 -0.054873213 0.093198285 -0.12902653 -0.0466801 -0.028574696 -0.06492552
-0.008296925 0.11655257 0.042199865 -0.12825903 0.094960205 -0.04582839 -0.0023203632 0.026685158
-0.034769237 0.10123301 0.05471792 -0.015293917 0.06979505 0.003954451 -0.03382649 0.061875626
0.08459893 0.024053225 -0.060955215 0.11039646 -0.042131048 0.017308628 -0.02818661 0.0041852742
-0.15972751 -0.030552644 -0.086863816 -0.09559195 -0.0063596372 -0.021166632 0.028282562 0.08934966
0.054778118 -0.0012787583 -0.080332145 0.033461623 0.15029544 -0.13106188 0.06645727 -0.0800066
0.017360514 0.011574948 -0.1299537 0.02254469 0.04815187 0.13009028 -0.06501422 0.03765005
-0.017251873 -0.07301851 -0.037757777 0.037575044 0.05440867 -0.060209025 -0.03281412 -0.030684551

encoder.encoder_net.2.bias f4 [64]
00000000: 99d5 2a3c 629f 3f3f e08b fb3c 4d62 c13c
00000010: cd87 1dbd 309a 8f3f edd2 b83f 9734 01bd
00000020: 263c 193e 7f1f c4bd 9206 933f 68c6 8b3f
00000030: 2cf8 3dbd a5ae 2e3d 5e32 21be 19df 2bbc
00000040: c4bc bc3e ff95 d0bc a92d 3d3d 2a4a 133e
00000050: 83a9 f8bd 5b0b da3e eb7b 6fbc 641c 9a3c
00000060: b6d1 adbd ebc6 253d 24e2 8bbd 1bbe 9fbd
00000070: dece 883f 6ba4 bbbd 0915 ddbd 412d 98bd
00000080: cdce 31be cb12 1ebd 49ee 8e3f a2c1 693e
00000090: 3422 9f3f 3868 fe3c cc31 923b 7663 9fbb
000000a0: 058d b6bd 0a34 74bc 27f5 313f 16fc 9c3f
000000b0: ad9d 193e 78ba 30bd 83cb 673f 1d0d 82bb
000000c0: 4f00 f13d 5d1d 09be cdfe cfbd 76b3 033d
000000d0: 1a96 05be 8b64 4ebd 6882 903f 1177 4f3f
000000e0: ab42 cb3f a3ee 7f3e b3cb d6bd 95c2 2bbe
000000f0: f02b bcbd 746a 95bc 3e1d a43c 7dbc b73b
0.010426902 0.74852574 0.030706346 0.023606444 -0.038459588 1.1218929 1.443937 -0.031544294
0.14964351 -0.0957632 1.148638 1.0919924 -0.046379253 0.042647023 -0.1574187 -0.010490202
0.36862767 -0.025462149 0.046186123 0.1438376 -0.12141707 0.4258679 -0.014616947 0.018812366
-0.08487265 0.040472906 -0.06830242 -0.077999316 1.0688131 -0.091622196 -0.10795028 -0.074305065
-0.17364044 -0.03859214 1.1166469 0.22827771 1.2432313 0.031055555 0.0044615027 -0.0048641516
-0.08913616 -0.014904985 0.695147 1.226443 0.15001555 -0.04314658 0.9054491 -0.0039688484
0.11767637 -0.13390107 -0.10156021 0.03215357 -0.1304554 -0.050388854 1.1289797 0.81041056
1.587972 0.24993376 -0.10488071 -0.16773446 -0.09188068 -0.018239237 0.020033475 0.0056071864

encoder.encoder_net.4.weight f4 [4, 64]
00000000: 4f3f 8abc 60e6 003c 61fd 09be ed88 09bd
00000010: 2561 4bbb a656 c63c 87a7 a0bc a39f 473d
00000020: ec7a 8f3c eba1 c73b c933 4fbb bcfe 813a
00000030: 9307 95bb 7c23 c3bb 0eac 40bd 294f 84bd
00000040: c745 933c 7f1f d5bb 40f3 53ba 95f9 02bb
00000050: c8b1 22bc ef9d 7d3c c7ce 35bc 8ca3 5a3b
00000060: ca5a 8a3c a27e a13c d4cb 5abc b583 1c3d
00000070: e41d d63a 37f9 8bbc d3ce bd3c 9d0a 413c
00000080: 4fc4 423c 0e67 ebbd 5c48 463d 39ca 8dbb
00000090: ca5d 6d3d d39a ba3b 01c2 323c f40c 9c3c
000000a0: 0ffb f0bb e29e 463d 0adf 993d 6920 f7bc
000000b0: 85c3 2fbd 0760 d0bc b3c1 cdb9 94e6 473b
000000c0: 6e72 7cbb b049 b5bb 9607 01bd 3bae 6e3a
000000d0: 4b0c 733c 48c9 cebb 5b8b 14bc c370 00bd
000000e0: badd 5cbd 2d00 763c cabc e3bc eb01 9dbd
000000f0: 5275 15bc 6148 fcbc 5c17 813c 99a2 8c3d
00000100: b7f5 2ebd c8fe e6bc a070 183d c1bd 993d
00000110: 297b cb3c 39f0 7dbd 2c6f 96bb 79be 1f3d
00000120: e7b7 e43c cb5c 343c 3f39 d73d e181 dc39
00000130: 694d 93bc 7164 753b dd77 d73c 8087 b0bc
00000140: 06de 263c 2fb5 8c3c 15dc b9bb e0c1 a6bd
00000150: 22d8 983b e76d 30bd 6a48 3b3c 8807 733b
00000160: ca31 5a3c 6717 9b3c 3bca df3b 1636 893c
00000170: ded9 5cbd 0824 683d 300f 9f3b 8b60 8e3c
00000180: dc03 9c3c 7076 733c 84fd 393d fd9a c339
00000190: 890e 5ebb 2790 2e3a 6dcc 583c dba6 8d3c
000001a0: d180 0a3c 7468 be3d ca55 dbbb f111 23bd
000001b0: 543d b9bc db5b 733b 46ef a13a 66b2 de3b
000001c0: 23bb 6abd 6d3d 9e3d 9950 20bd bed8 aebc
000001d0: f6f5 893b a795 2dbb e030 3f3d 9c24 eabc
000001e0: 218a af3c 78cd ccbc 63d6 30bd d612 aebb
000001f0: 4854 1abd d420 843d 7e34 0dbc dd71 a7bd
00000200: bcaa 25bc d873 83bd 15ea 7b3d f897 cebd
00000210: 4973 ad3d 33f5 92bc 3b42 e4bd e4e5 5ebd
00000220: 0b93 0bbd 48c7 a13c 8cfa debc cb7d a1be
00000230: 109a e1bc 0d45 f63b 5d6c 90bd 2d96 bf3d
00000240: aa0f d7bd 670e 503d f61f ccbb fefa 5d3d
00000250: fda7 143c 1970 7ebe d4cd 6d3d c994 953d
00000260: 6a4e 123c 3678 d23d 5d97 6e3d 57d7 133d
00000270: f4c9 7a3c 7dec cfba 9e9c 543c 32d9 93bd
00000280: 16fa ae3d b2c0 6cbd aa02 f23c 94ed 44bd
00000290: a214 913c e599 55bd de71 07be 7b8f 153d
000002a0: 750b c53a a1ce 573d 99e0 ed3c 7ff8 4f3c
000002b0: 90d8 373e 38c1 543d 0973 f2bd 82bb 9b3c
000002c0: e2f3 3e3d d5b5 0f3d 2f4c ca3a 8c46 52bd
000002d0: fbe7 313c ab28 27be 0e90 1abd f679 c33c
000002e0: 17b6 d03c 0ea1 7c3d 327e acbd c8c8 eb3d
000002f0: 8150 eebc 9b62 e33c 120f 26bc d391 873d
00000300: dcad 82bd bee2 6bbc e353 eebb 6343 abbd
00000310: c19a 4f3e e927 b33a e36e 9abd 3ff2 033d
00000320: a640 b43c b77f 873c aded 023d 9371 3abe
00000330: 665e d43a 5d7a ca3d 7d51 b43d b479 673d
00000340: e9db fbbc 52b8 1a3d b98b 483d ac58 d9bc
00000350: 5042 60bd 1bc7 f33c b619 41bd 92f8 38bd
00000360: addc aabc a01d b9ba 77c6 183e e522 333d
00000370: d65f bf3c d737 f639 2187 e33c 92d6 7c3d
00000380: 6e2a c83d 3128 bc3d 2dda 3c3c 8fd2 03be
00000390: 0726 0cbc 654b d5bd 4f4c e7bd 1e94 c73c
000003a0: 5e2b f23d 4f01 d5bd 3407 74bc 59fe 963c
000003b0: b0a1 3b3d 88fb c83c 97ba 1bbe 4971 acbd
000003c0: c079 debb 1fb6 3abd ae45 283c 9d23 8c3c
000003d0: 1536 92bd 3023 8fbc b8dd bfbc acb6 443c
000003e0: 6e71 133b 90b3 06be 0981 df3d 4415 8a3d
000003f0: 6d4a bebc 8066 8f3d 2ded 863c ed62 90bd
-0.016875891 0.007867426 -0.13475563 -0.03357785 -0.0031033244 0.02421124 -0.019611133 0.048736226
0.017514668 0.0060923 -0.003161656 0.0009917836 -0.004548022 -0.005955158 -0.047039084 -0.06460411
0.017977608 -0.006503999 -0.00080852583 -0.0019985188 -0.009930082 0.015479549 -0.011096663 0.0033361642
0.016888995 0.019713704 -0.0133542605 0.038211543 0.0016335812 -0.017086608 0.02316991 0.011782316
0.011887624 -0.114942655 0.04840885 -0.0043270853 0.057950772 0.005694726 0.010910512 0.019049145
-0.0073541473 0.048491366 0.075132445 -0.030166822 -0.04291107 -0.025436414 -0.00039244964 0.0030502426
-0.0038520354 -0.005532466 -0.031501375 0.0009104942 0.014834474 -0.0063106157 -0.009066428 -0.031357538
-0.053922392 0.01501469 -0.027799983 -0.076663814 -0.00912221 -0.030796232 0.015758209 0.068669505
-0.0427148 -0.028197661 0.037216783 0.07506896 0.024839 -0.061996672 -0.0045908894 0.03900001
0.027919723 0.011008452 0.10508966 0.00042058437 -0.017981248 0.00374439 0.026302272 -0.021548986
0.01018477 0.017176239 -0.005671988 -0.081424475 0.004664437 -0.04307356 0.011430839 0.0037083346
0.013317535 0.018932058 0.0068295277 0.016749423 -0.05391871 0.056674987 0.0048541054 0.01738002
0.019044809 0.014859781 0.045407787 0.00037308774 -0.0033883175 0.00066590536 0.013232333 0.017291477
0.008453564 0.092972666 -0.0066935765 -0.039812032 -0.022612251 0.0037133608 0.0012354634 0.006796169
-0.057307374 0.0772656 -0.039139364 -0.021343585 0.004210229 -0.0026486905 0.04667747 -0.02858191
0.02142817 -0.025000319 -0.043173205 -0.005312304 -0.037678033 0.06451574 -0.008618472 -0.081760146
-0.010111507 -0.0641858 0.061502535 -0.100875795 0.084692545 -0.017939186 -0.11145445 -0.05441846
-0.034075778 0.019748345 -0.02721908 -0.31541285 -0.027539283 0.0075155557 -0.07051919 0.09354816
-0.105010346 0.050794985 -0.006229396 0.054194443 0.009073255 -0.2484745 0.05805762 0.07303769
0.008929828 0.10276835 0.05824982 0.036094036 0.015306938 -0.0015863326 0.012976794 -0.07219161
0.08543794 -0.057800956 0.029542286 -0.048078135 0.017710034 -0.05214872 -0.1322703 0.036513787
0.0015033322 0.05268729 0.02903776 0.012693523 0.17953706 0.05194208 -0.118383475 0.01901031
0.046619304 0.035085518 0.0015434081 -0.05133681 0.010858531 -0.16324107 -0.037735038 0.023861866
0.025477452 0.06167703 -0.08422507 0.11512905 -0.029091122 0.02775698 -0.010135429 0.06619611
-0.06380817 -0.014397321 -0.0072731837 -0.08362462 0.20273878 0.001366851 -0.07540681 0.032213446
0.022003483 0.016540391 0.031964947 -0.18207388 0.0016202449 0.0988662 0.08804605 0.05651255
-0.03074451 0.037773438 0.048961375 -0.02653154 -0.05475074 0.029758027 -0.04714366 -0.04515893
-0.02085718 -0.0014123209 0.14919458 0.04373445 0.023361128 0.0004696238 0.027774395 0.061728068
0.09773718 0.091873534 0.011526627 -0.1287329 -0.008553988 -0.10414771 -0.112938516 0.02436262
0.11824678 -0.1040064 -0.0148942955 0.01843183 0.045808494 0.024534002 -0.15207897 -0.08420045
-0.006789416 -0.04558384 0.010270519 0.017106825 -0.071392216 -0.017472833 -0.023421153 0.012006443
0.002249803 -0.13154435 0.109132834 0.06742337 -0.023228848 0.07001972 0.016470516 -0.070501186

encoder.encoder_net.4.bias f4 [4]
00000000: 6f3f 18be 5a59 253e 7400 3ac0 98c5 36c0
-0.14867948 0.16147366 -2.9062777 -2.8558102

decoders.0.decoder_net.0.weight f4 [128, 2]
00000000: ba0d d03f 0dc4 483f be37 25bf a02a b53f
00000010: 3f6e 8abf 227f 773f ed87 853f 498d 5f3f
00000020: b59a 28bd 6fd7 653f 1370 5c3f f0e0 1a3f
00000030: ea0e a6be 5686 05bf 0dec 91be ed94 993f
00000040: 3c11 d0bf aa51 6a3f 186c 69bf 953e 243c
00000050: d9b0 11bf cbee 8c3f 077e a03f 4304 663f
00000060: 7ebe fdbf 8b00 06bf 9114 0d3f 7a25 e23f
00000070: a5b0 04bf 592e 2bbf c151 c43e 71ee ea3f
00000080: 1d47 82bf 232a 10bf 1059 903f 8855 383f
00000090: 59c8 dcbd 26ad c1ba 1b3f 2e3f c16c 883f
000000a0: 31f7 2ebd 0d0c 813f b8ee a33f 08c2 e8be
000000b0: 35c8 5ebf 0599 923f ef57 b0be 6bc2 9b3f
000000c0: b33a ccbf e2ec 533f 1813 713f a1ee 6e3e
000000d0: 8ecd 923e 0968 c03f ac7c f8be c743 423f
000000e0: 6c71 10c0 7a44 97be deef ad3f f16d 803f
000000f0: 056a fb3d 748f 99bf 1c12 903e 63c3 b03f
00000100: 5291 58bf 6656 a2be 1fd7 19bf b2cf 673f
00000110: 226f 43be 0551 9b3f 1f55 1ac0 b3b6 473e
00000120: 7402 84bf b743 073f 7ecb 4fbe 9118 a33f
00000130: 8d37 d23e 106c fbbd b7dd e33e 6928 373f
00000140: aa05 91bf fbc1 203f 1408 e6bd f670 a7bf
00000150: c49b 11bf f3ac 3d3f a11f 7a3f ab5e 103f
00000160: d95c f73e c1c4 393e 52e3 833f 23d2 3ebf
00000170: d26d 07bf 7a68 023d 22d5 f5be acff 1bbf
00000180: d16a 663f ecd3 2c3f 138c 3fbf d869 913f
00000190: bae6 b4be 8df6 73bf c226 78bf 68e7 9b3e
000001a0: 7556 72bf d9ba 593f 0b12 203f daa9 1bbf
000001b0: be44 593e 08e1 a9bf 597b 723f fc12 9e3f
000001c0: f7d1 25bf a3aa d63f 3abd c5bf 70f6 743e
000001d0: 77b0 babf 7fd7 9abf a559 a4bd fc74 9a3f
000001e0: 61ca 743f 50cc 443f e2a1 a7be b362 b13f
000001f0: 58ff 2ebe 2016 3a3f 58df 72bf fb5a 4e3f
00000200: d3ff 8ebf 911f de3e 644f e1bf a12a 91be
00000210: 0b10 4eba 4f1f 01bf 4b5d 56bf fa44 9e3f
00000220: 9818 e53e 7888 a0be 6d11 efbf 9162 35bf
00000230: 5597 833f 94c7 9fbf 0b08 1dbf b91d 763f
00000240: c352 b5be 4159 7bbf 70be 4fbe c413 64bf
00000250: 5fc7 4abf b209 10bf 4f17 73bf e76e 653f
00000260: ac3e 6abf 33d7 04bf d331 b53f 562c 9c3e
00000270: 0ad6 8bbf 623f 7bbe ff03 153f 1c62 9c3f
00000280: 3e36 513f 17cf 043d a799 8ebc ab71 ddbe
00000290: e466 493f 0b9f 89bf 42fb 293f 2403 8dbe
000002a0: 2c7a e7be efcf aa3f 5d3f 95bf 2b75 1dbf
000002b0: bc0b a03e 73ac 58bf bbc8 4d3f be98 183f
000002c0: b74c 113f 9e6a 4bbf 423f 62be 38e1 6bbf
000002d0: 9e12 e73e db6f 94be a83f 69bf 6259 0cbe
000002e0: f5b4 83bf accc 5c3f 460f 393f 43a9 01bf
000002f0: 274c e63f 893a cebe 3936 9f3e d11b dc3f
00000300: a66f 65bf 07db 523f 1fb7 223f 6234 68bf
00000310: aa89 90bf 5106 fbbe 2b41 ae3f 1f71 0d3d
00000320: b9c1 9abf 889b eabe f1bf da3f ada9 b23e
00000330: ade3 adbf 2511 a5bf b4ac e9be f49c 4cbf
00000340: 8568 4f3f 0211 10bf 2469 c7bb 0574 02bf
00000350: ea52 d2bf c12e 38bf feb4 143f f03f f7be
00000360: 3a47 433f d579 a23d 49e3 503f 7789 a23f
00000370: fe39 f5bd 14aa d23d 7634 413e 5cf4 f5be
00000380: c1ba 19c0 a97f 0d3f 0fd9 8d3e c992 cb3f
00000390: 6038 c93e 8575 a23f 4126 ffbf 6165 e23d
000003a0: a4b9 613c 6c66 523e c9d0 933f 416f 88bf
000003b0: 0115 cf3e 772a a2bf d0b5 b63f c551 5f3f
000003c0: 7ad5 d03e 83d8 b93f fad3 e2bd 92f7 6fbf
000003d0: 1565 9d3f 0a04 b73b fa27 d6bf d492 5cbf
000003e0: bac4 28bf c7de 733f 1336 c13f dcba 713f
000003f0: ac24 1cbf 5326 823f 6263 c9bf d59d 143f
1.6254189 0.7842415 -0.6453818 1.4153633 -1.0814894 0.96678364 1.0432106 0.8732496
-0.041163165 0.8978185 0.8610851 0.6049948 -0.32433254 -0.52158105 -0.28500405 1.1998574
-1.625526 0.9153086 -0.9118056 0.010024686 -0.56910473 1.1010374 1.253846 0.8985025
-1.9823759 -0.5234458 0.55109507 1.7667687 -0.5183204 -0.66867596 0.38343623 1.8354017
-1.0177952 -0.56314296 1.127718 0.7200551 -0.10780401 -0.0014776334 0.6806504 1.0658189
-0.04271621 1.0081803 1.2807226 -0.45460534 -0.8702424 1.1452948 -0.34442088 1.2168707
-1.5955414 0.8278333 0.9416976 0.23333217 0.2867245 1.5031749 -0.48532617 0.7588467
-2.2569227 -0.2954443 1.3588827 1.0033551 0.12276081 -1.1996903 0.28138816 1.3809627
-0.8459674 -0.31706542 -0.60093874 0.9055129 -0.19085363 1.21341 -2.4114454 0.19503288
-1.0313249 0.528377 -0.2029247 1.2741872 0.41058007 -0.12276471 0.44505093 0.71546036
-1.1329854 0.6279599 -0.112320095 -1.3081348 -0.56878304 0.74092025 0.9770451 0.5639445
0.48313025 0.18141462 1.0303748 -0.74539393 -0.5290195 0.031837918 -0.4801417 -0.60937
0.9000674 0.6751087 -0.7482311 1.1360426 -0.3533228 -0.9529808 -0.9693414 0.30449986
-0.9466317 0.8505073 0.6252753 -0.6080605 0.2121763 -1.3271799 0.94719464 1.2349544
-0.64773506 1.6770824 -1.5448372 0.23922133 -1.4585103 -1.2097014 -0.08024911 1.2066951
0.95621306 0.76874256 -0.32740694 1.3858246 -0.17089593 0.7269001 -0.94872046 0.80607575
-1.1171821 0.43383458 -1.7602353 -0.28352836 -0.0007860667 -0.504384 -0.83736104 1.23648
0.44745326 -0.31354117 -1.8677193 -0.70853525 1.0280558 -1.2482781 -0.613404 0.96139103
-0.35414705 -0.98183066 -0.2028749 -0.8909266 -0.79210466 -0.56264794 -0.9495744 0.8962235
-0.9150188 -0.5189087 1.415583 0.30502576 -1.0924695 -0.24535897 0.5820922 1.2217441
0.8172339 0.03242406 -0.017407252 -0.43250784 0.78672624 -1.0751661 0.66399014 -0.2754146
-0.45210397 1.3344706 -1.1659962 -0.6150691 0.31258953 -0.84638137 0.80384415 0.59608066
0.5675768 -0.7945956 -0.22094443 -0.9214053 0.4513139 -0.2899159 -0.91112757 -0.13705972
-1.0289599 0.86249804 0.7228893 -0.506489 1.799199 -0.40279034 0.31096056 1.7195989
-0.89623487 0.8236546 0.6356067 -0.9070493 -1.1292012 -0.49028257 1.3613638 0.03453171
-1.209037 -0.45821786 1.7089826 0.34895077 -1.3585106 -1.2895857 -0.45639575 -0.7992699
0.8101886 -0.5627595 -0.006085532 -0.5095828 -1.6431553 -0.7194634 0.5808867 -0.48290968
0.7628056 0.07933394 0.8159681 1.2698201 -0.11973952 0.10286346 0.18867669 -0.48037994
-2.4020236 0.5527292 0.27704665 1.590417 0.39300823 1.2692114 -1.9933549 0.11054493
0.01377717 0.20546883 1.1548091 -1.0658952 0.40445712 -1.2669209 1.4274235 0.87234145
0.4078787 1.4519199 -0.110755876 -0.9373714 1.2296473 0.0055851983 -1.673095 -0.8616154
-0.6592518 0.95261806 1.5094627 0.9442575 -0.60993457 1.0167946 -1.5733454 0.5805333

decoders.0.decoder_net.0.bias f4 [128]
00000000: 29de cf3d 0919 fa3e acd7 e4be 6865 01bf
00000010: 3d42 5c3f 7333 8ebd f54f 6b3e 7f02 b3be
00000020: 6440 93be 0cdd 423f d0f8 77bf c20e dcbd
00000030: ba16 d53e 6aa1 5bbf b369 cc3e 539e 21bd
00000040: 4ab2 483f 6a78 04bd 8549 e23e 1ceb 76be
00000050: 8031 5d3e 25c6 ddbe 2c1b e3bd d451 2cbf
00000060: 4e08 98be 8a1e 893e db00 6bbf e365 07bf
00000070: 9797 6c3f c275 cebe 0d81 ccbe 6d0f 353d
00000080: 087d d73d 9b1d 59bf c1ff 2b3f c946 1abf
00000090: 4e38 2d3f ea7e 86bf 86e5 663f 2d51 653f
000000a0: 0220 aabf cd0f 83be 85fc 6bbf a22d 623c
000000b0: 6b48 123f 42f9 a6be c589 d63e c439 083f
000000c0: 7d46 bdbd 873c 8bbf fab4 973f c527 103f
000000d0: ac07 d0be e4f5 043f a659 ce3c ac7c c9be
000000e0: bce0 1dbe 6f33 393f 096d 4ebf 5486 113f
000000f0: 3210 ea3e f750 20bf 2cd0 363f fabd d0bf
00000100: cd72 05bf cb07 a1bf 5c18 383f fa75 3cbd
00000110: 19bb 633e d8c9 703e 4726 54bf 7c52 5ebf
00000120: 1331 533f 5dee 883e e938 a43e 2f42 e6be
00000130: 3e14 c63e a4fa e8bd aeff 873e fc51 423f
00000140: eaf3 673f b380 163f 725a d6bd 8fbe a33f
00000150: 1b5b 30bf 295d 9ebf d7b8 d4be fbac d23e
00000160: de4f 8e3b aca3 973e ee45 1f3f d2b9 903e
00000170: 6129 d9bf 49e6 b93e 2adc fbbe 94cc 89bf
00000180: 582a c4bf 82d2 babb 0395 42bf e37d 933e
00000190: 6397 1a3e 10bd 2abe 16af 8cbf 624e ac3e
000001a0: 23d7 d83e 6d73 373f dfab 2ebf 74b9 d43e
000001b0: cdaf 433f 861c c03d 1e14 4c3f aa5a d63e
000001c0: 95e4 1cbf 56b1 87be d70e 08bf 02cb 3fbf
000001d0: a937 4d3f c84e abbf a37b 20bf 1281 21bc
000001e0: a472 43bf 285c 263f 6fc5 8f3e 2d52 9abd
000001f0: ff04 91bf d602 26bf 160e 5cbf f5d0 6e3e
0.101497956 0.48847225 -0.44695795 -0.5054536 0.8603857 -0.06943407 0.2297972 -0.34962842
-0.28760064 0.7611854 -0.9686403 -0.10745002 0.41618901 -0.85793173 0.39924392 -0.03945763
0.7839705 -0.0323414 0.44196716 -0.24113125 0.21600914 -0.43315235 -0.11089167 -0.6731236
-0.29693836 0.26781112 -0.9179818 -0.5288984 0.9241881 -0.40324217 -0.39942208 0.044204164
0.10521895 -0.848108 0.67187124 -0.6026426 0.6766404 -1.0507481 0.90193975 0.8957699
-1.3291018 -0.25597993 -0.9218219 0.013804825 0.5714175 -0.32612044 0.41901985 0.53213143
-0.0924196 -1.0877846 1.1852105 0.56310683 -0.40630853 0.519377 0.025189232 -0.3935293
-0.1541776 0.72344106 -0.80635124 0.56845593 0.4571548 -0.6262354 0.71411395 -1.6307976
-0.521283 -1.2580503 0.7191217 -0.04601095 0.22239341 0.23514497 -0.82870907 -0.8684461
0.82496756 0.26744357 0.3207467 -0.4497237 0.3868732 -0.11375931 0.26562256 0.7590635
0.9060656 0.5879013 -0.1046647 1.2792529 -0.68889016 -1.237218 -0.41547272 0.411476
0.004343017 0.2961706 0.6221608 0.2826677 -1.6965753 0.36308506 -0.4919141 -1.0765557
-1.5325422 -0.005701364 -0.76008624 0.2880698 0.15096812 -0.16673684 -1.0990932 0.3365355
0.42351636 0.716605 -0.68231004 0.4154774 0.76440126 0.093804404 0.79718196 0.41866046
-0.6128629 -0.26502484 -0.53147644 -0.7491914 0.80163056 -1.3383417 -0.62688655 -0.009857433
-0.763468 0.6498437 0.28080317 -0.07535205 -1.132965 -0.6484808 -0.85958993 0.23321898

decoders.0.decoder_net.2.weight f4 [128, 128]
00000000: 01a8 83bd c6ed 64bd f7d9 933d a742 38bd
00000010: bf79 33bb fa69 c63c 1fe9 a93c 2345 f5bc
00000020: 3820 ba3c f638 8abc 2ae8 3b3d b46a 80bd
00000030: 1ba1 993c 8db8 103c 8f36 95bd 6e5d cabc
00000040: 3f24 f63c 40ad 75bd ba7b bebd 0d4f 1e3d
00000050: 2422 d6bc fe6b 173d 0c6b bebd 9cea b4bd
00000060: cb6d b2bd 4643 9dbc 911a a43d 9f00 923d
00000070: e415 11bd 4c77 25bd 4427 523b fd75 6b3d
00000080: 6349 9a3d 2fc6 96bd 2804 6a3d 821d 82bd
00000090: 440f 3cbd 29b7 a8bd 69ad 30bd 3447 d9bc
000000a0: 575b a4bd bbb0 153d 3a44 833d 03b9 8dbd
000000b0: 7187 9ebc ed9d 85bd 4abf 91bc c103 26bd
000000c0: 8474 4a3d d41f a63d 1076 3d3d 8804 763d
000000d0: 1793 78bd a699 4b3d b423 c4bc c147 733c
000000e0: c739 093d c0e6 9fbd 7494 b5bd a25b 323d
000000f0: 9c2f f53c 51f5 a0bd 646b b0bc 21d8 8a3d
00000100: 6274 46bc 5a38 a13d ac8e e3bb a52c 55bd
00000110: e1f1 2abd 1fc4 a63d efab d3bc d58b 863c
00000120: 3940 d93a 697e 2dbd b689 d8bc 8082 603d
00000130: 248b a0bd 737f c1bd 1d86 2f3d 38c3 6dbd
00000140: 3177 9ebd 6cde 6a3d a778 da3c c4b5 9f3d
00000150: 226b b83c 3079 68bd ca26 94bd 9ddb 043d
00000160: fb8a 313d 459b 96bc f9fe bbbb 3202 e93a
00000170: efdc 3a3d b6a5 2c3d 1a97 5bbd 06ea c3bb
00000180: f2a4 e5bb efce 39bd 4b4a 69bd e832 3abc
00000190: 1aec 2c3d 55ab c2bc 96e2 a8bc b3b1 3dbd
000001a0: 6cec b8bd 2525 1abb 97a9 7b3d fed2 bb3c
000001b0: 1050 1e3c 7c9b 6a3d 266f 0ebc af7a 08bd
000001c0: 5d62 a2bc f7c0 a63d 0e82 803c eae7 88bb
000001d0: 2147 20bd ca30 adbd 0517 273c f03f 4dbd
000001e0: 80f9 bdbc 90d0 87bb 0835 a0bd 9eff df3b
000001f0: b3e4 5cbd 225c 883d 3892 89bd 6cf4 7bbd
00000200: a82c 9d3d e12c 803d 7c07 eebd e9c3 bbbe
00000210: 6821 86bd bf70 ceba c4e0 86be 6abb 85be
00000220: 63d0 273d 8f92 d5bd 7272 a4be f68f 4bbd
00000230: 126f 2fbe 4beb ac3c 28ff 79be cee8 933e
00000240: 835c 45be e6ab 623d 06bd 723d b0bf 58be
00000250: 5452 393e ff27 e8bd f978 1a3e 4d7c 1fbf
00000260: 4c76 bdbc b220 cc3c 500a 5bbf f452 d6bd
00000270: 840e e93d 493b 1fbe 89d4 9b3e 8627 623e
00000280: f152 babd db8c 8fbc 1ace e33d 95db c13e
00000290: b45d 463d 2b08 1fbf 06d7 fa3d 8b22 8c3e
000002a0: 8499 96bd 4bb6 4f3e 916a 5dba d45f 5c3c
000002b0: 5866 393d d846 a6bd af6b 61be 8a42 98be
000002c0: 3509 b53d 8bb9 1bbd eea6 09be 2fa6 4fbd
000002d0: ca62 eebd c7a7 0cbd 208f 53be e9e4 5cbe
000002e0: f7c7 623e d5b3 37be b4a6 d4bc 0301 453e
000002f0: 366b e63d 0237 cabe c81c 5abe 47d7 a0be
00000300: 05a1 da3e 3e3a 7b3e d87a ac3d 0206 a03e
00000310: 0a95 e83d d4f4 40be 7c5a 66be 7c32 3dbc
00000320: 55d4 e0be bac0 af3e 093d 62be 4c51 cdbd
00000330: 0dfe 91be ec02 04bd be8d 4b3d 21a1 0ebd
00000340: 65d8 193e b7e0 8abd eeb0 713e 9fc7 ca3d
00000350: 9d52 11bf d198 a2be 7c67 c6bd aa8a 4b3e
00000360: 4b55 9e3d c1cd 783e 2b77 243d 8ebc f83b
00000370: d087 ecbe 0698 583e ebb0 10bd 059d 7abf
00000380: 1740 a2be abad 1eba d41b 5f3e b079 283e
00000390: 960b 3ebe de62 63bc d45f b2bd 6092 e4bb
000003a0: 9b84 7e3e 92a2 08bd 4987 023f dfe6 b73d
000003b0: 6251 e53d 06f6 d3bd 5332 d33d 20f9 12be
000003c0: 1327 c93d 566c e73e 45b0 903e 0407 673e
000003d0: 6b4c 343e de49 b5be 0aec f13c 5d5c f6bc
000003e0: dcaa 583e 036a afbe 69c6 a83d 1166 173f
000003f0: 1efd d2bd 5bf0 ecbe efb5 57be fe62 b43d
-0.064285286 -0.05589082 0.07219308 -0.04498544 -0.0027385799 0.024220455 0.020741044 -0.029940194
0.022720441 -0.016872864 0.045875706 -0.06270352 0.018753579 0.008833063 -0.07285797 -0.024702754
0.03004658 -0.059979677 -0.09300943 0.038649607 -0.026139326 0.036968224 -0.09297761 -0.08833811
-0.087123476 -0.019197118 0.0801288 0.07129025 -0.035421267 -0.040396973 0.0032066861 0.05748557
0.07533529 -0.07362019 0.05713287 -0.063532844 -0.045912996 -0.0823806 -0.043134127 -0.02652321
-0.08025234 0.036545496 0.064094976 -0.06920054 -0.019351693 -0.065242626 -0.017791409 -0.040530924
0.049427524 0.081115395 0.04625517 0.060062915 -0.06068715 0.049707077 -0.023942806 0.01484865
0.033502366 -0.07807684 -0.08866206 0.04354442 0.029929928 -0.078592904 -0.021535583 0.067795046
-0.012112709 0.07872076 -0.006944498 -0.05204453 -0.04173458 0.08142876 -0.02583882 0.016424099
0.0016574926 -0.042356882 -0.026432853 0.054811954 -0.07839039 -0.09448137 0.04285251 -0.058047503
-0.07737578 0.057341024 0.02666886 0.07798341 0.022512022 -0.0567562 -0.07233961 0.032436002
0.043345433 -0.018384585 -0.005737182 0.0017777144 0.045620855 0.04215022 -0.0536109 -0.0059788255
-0.0070081884 -0.045363363 -0.056955617 -0.011364676 0.04221735 -0.023763338 -0.020615857 -0.046312045
-0.09029469 -0.0023520675 0.06144103 0.022927757 0.009662643 0.057277188 -0.008693492 -0.033320125
-0.019822294 0.08142274 0.015687015 -0.004178037 -0.039130334 -0.084565714 0.010198359 -0.050109804
-0.02319026 -0.0041447356 -0.07822615 0.006835892 -0.053929042 0.06658198 -0.06717342 -0.061512396
0.07674533 0.0625856 -0.11622521 -0.36672905 -0.065493405 -0.0015750154 -0.26343358 -0.26119548
0.040970217 -0.104283445 -0.32118565 -0.04969784 -0.17132214 0.02110829 -0.2441374 0.28888553
-0.19273572 0.055339716 0.059262298 -0.21166873 0.18097812 -0.11335754 0.1508521 -0.6229904
-0.023127697 0.024917934 -0.8556261 -0.10465041 0.11379722 -0.15549959 0.3043559 0.2208539
-0.09097851 -0.01752322 0.11123295 0.3786284 0.048429206 -0.6212184 0.12248044 0.27370104
-0.073534995 0.20284383 -0.00084463606 0.013450582 0.04526362 -0.08118981 -0.22013734 -0.29738265
0.08839647 -0.038018744 -0.13442585 -0.050695594 -0.11639936 -0.034339692 -0.20660067 -0.21571697
0.22146593 -0.17939694 -0.025958396 0.19238667 0.112509176 -0.39495093 -0.21300042 -0.31414244
0.42700973 0.24533936 0.08421868 0.31254584 0.11356552 -0.18843395 -0.22495455 -0.011547681
-0.43911996 0.34326726 -0.22093596 -0.10025272 -0.28514138 -0.03222935 0.049695723 -0.034821633
0.15023954 -0.06781142 0.2360265 0.09901356 -0.5676668 -0.31757215 -0.09687707 0.19877115
0.07731112 0.24297239 0.04015271 0.007590837 -0.46197367 0.21151742 -0.035324972 -0.9789584
-0.31689522 -0.00060531 0.2178796 0.1645267 -0.18559107 -0.013878552 -0.08709684 -0.006975457
0.24855272 -0.033358164 0.5098768 0.08979582 0.11197163 -0.103496596 0.10312333 -0.14352846
0.09821906 0.4519984 0.28259483 0.2256127 0.17607276 -0.3540792 0.029531498 -0.03007334
0.21158928 -0.34260568 0.08240969 0.59140116 -0.103021845 -0.46277127 -0.21065496 0.08807944

decoders.0.decoder_net.2.bias f4 [128]
00000000: 3453 8c3d d044 273e 0f52 b63d f208 e4bc
00000010: 873b c7bd 93b6 843e 4c79 d3bd 4782 63bd
00000020: 7dda a63d 3bdd 603d 5b36 183b e75a 8f3b
00000030: 3772 4d3e 343d 4fbd fcaa 88bc a226 b73d
00000040: 0966 24be 7e82 0a3e 8cd9 643d eada f9bd
00000050: fa0e d73d 4a2a a1bc cf37 4b3e 84a9 163e
00000060: dceb 1b3d e763 003d 193e 3ebd 1f83 8b3e
00000070: 9556 33bd 2d76 963d f0a7 cc3e 59c0 683e
00000080: 184f 603d 3159 08bc 95e4 2b3e 9608 4b3e
00000090: 3166 9ebd 5c9b c7bd 07f7 ba3d 1f73 23bd
000000a0: ab5c 873d 5595 2a3d 3c5b e9bd b98b fa3d
000000b0: 7723 b6bd 645b 5abd 59dd 263e 8e83 88bd
000000c0: 92f1 863e 21a3 353d b0d1 4a3e 370a fbbb
000000d0: 7a7d 95be 72d1 803e 30a2 cc3d 89d6 8a3e
000000e0: cdad c4be 98c9 82bc 6536 fdbd 2839 863e
000000f0: 1d75 bd3c e17d 473e 9002 12b4 58bc d9bd
00000100: 3d17 a43e a6a2 053e 6453 c13d 8d89 143e
00000110: feae eabc b43b 823e a983 efbc 002a fa3d
00000120: 3c80 343e 4678 ddbc 22a7 193d 8bb9 00bf
00000130: 4d23 8dbc cd8c 123e 1836 28bc f471 f73d
00000140: 19c7 c7bd f086 bbbd 13c0 b03d 7ac9 1a3d
00000150: dfdc 9f3e ae97 493d 455e b3bb 5cf7 0f3e
00000160: e7cb 43bc 4f96 ec3c 689f d63c 0188 2b3e
00000170: ceaf efbe 6b2d 84bc c245 273e d2de 253e
00000180: 79c8 543c ced6 7a3d c2c8 913e c20a 97bd
00000190: 04db b33b 1d45 7b3e e3b0 883e 3a8e c43d
000001a0: edb0 77bd c5ec 053e 722b 95bd f3b1 aebd
000001b0: a008 cc3a 15dd 6e3d 8157 9c3d 21eb b3bc
000001c0: 26ea 6c3e 937c a13d d89c ac3d a7a4 0b3e
000001d0: 212b 33bd 6ee6 6a3c 30c2 a13e 1fbe 4d3e
000001e0: 49ce 8e3e c0a9 c43d 4bf8 663d 1a54 fa3d
000001f0: 648e 523e 1973 6b3e 28db 193d 875f 20bd
0.06851807 0.16334844 0.0890237 -0.027836297 -0.09728151 0.25920543 -0.1032587 -0.055544164
0.08147142 0.05489848 0.0023225758 0.00437485 0.20063101 -0.050595477 -0.016683094 0.089429155
-0.16054548 0.13526341 0.05587153 -0.12199958 0.105009034 -0.019673485 0.19845508 0.14713103
0.03806673 0.031345274 -0.04644594 0.27248475 -0.043783743 0.07346759 0.39971876 0.22729625
0.05476293 -0.008322046 0.16786416 0.19827494 -0.07734335 -0.09746429 0.09129148 -0.03990471
0.06609472 0.04164632 -0.11394355 0.12233681 -0.08893483 -0.053309813 0.16295375 -0.06665717
0.2635618 0.044345025 0.19806552 -0.00766113 -0.29197294 0.25159794 0.09991872 0.27116802
-0.3841385 -0.015965268 -0.123638906 0.26215482 0.023127133 0.19481613 -1.3598242e-07 -0.10631627
0.3204898 0.13050327 0.094397336 0.14505596 -0.028647896 0.25436175 -0.029237585 0.12215042
0.17627043 -0.02703489 0.037512906 -0.50283116 -0.017228747 0.14311524 -0.010266803 0.12082282
-0.09754772 -0.09156597 0.08630385 0.0377898 0.312232 0.04921692 -0.0054738843 0.14059204
-0.01195047 0.028880266 0.026199058 0.167511 -0.46813816 -0.016134938 0.16335204 0.1619828
0.0129872495 0.06124001 0.2847348 -0.07375099 0.005488755 0.24538083 0.26697454 0.0959744
-0.060471464 0.13078602 -0.07283677 -0.08530035 0.0015566535 0.05831631 0.076338775 -0.021962704
0.23136196 0.07885089 0.08428353 0.13637029 -0.043742303 0.014337165 0.31593466 0.20092057
0.27891758 0.0960269 0.056389134 0.12223072 0.2056213 0.22993125 0.03756252 -0.039153602

decoders.0.decoder_net.4.weight f4 [100, 128]
00000000: 04d3 e73c 5c37 a83f c16f 553f 412a 60bd
00000010: 75a4 c73c 2378 783f 3b48 68bf 4359 5abe
00000020: db4e e63d be00 153f b9a6 2d3d 8e3e d1be
00000030: 61ac b2be e251 b5bd aad4 b0bd 2e88 c7bf
00000040: 896b afbd 0624 1940 d4ee c7be 89a1 29bf
00000050: d113 e63f 66a2 92bd 257b 583f bd35 85bf
00000060: 1b73 23bf 5050 5c3d 3c63 1abd 7881 6cbe
00000070: 1279 c13d 5afa 7bbf 1872 0140 71a1 22be
00000080: eaae 10bf f830 333c 5a42 89bf 8cb3 babe
00000090: dc8a bcbf 796a 823f bed8 b1bf 6edd de3e
000000a0: c715 07bd 4c9b 23bd ba29 1ebe 5073 8e3f
000000b0: 3a71 c0bd 3650 8bba c393 163f 49db c2bc
000000c0: 0099 63bf 503b cfbe eefe 7b3f 7244 95bc
000000d0: 9cbe 89be f366 863f 0acf 70c0 ab22 4640
000000e0: 00bb 683f 8ea8 3abe fd86 993b 8ca7 af3f
000000f0: 943c bfbd ce78 20bd fb8e e5be c57e 04bf
00000100: d568 13bf fba7 82bf a17f d1be 2902 293e
00000110: 8e6b 59bf 51ea c4be 58c1 9a3d 4e20 733e
00000120: fa3c 173f 91ea 88be 5026 0a3f ca57 4a3f
00000130: 9cee 03bd bde3 21bf 4ef8 82bd db47 a0bd
00000140: bd74 c8bc 9b73 4dbd 65b8 97be e569 79bd
00000150: 1ec9 dfbe 5056 2fbd 7c01 debd 6a4a 16bf
00000160: 1555 6fbf ce57 0cbe fc56 41bf ba11 78bf
00000170: b59e 0bbf 48bd 1abf f0c7 46bf f2f4 9fbe
00000180: 0954 2c3f 69fe f2be 0b59 0bc0 a698 533d
00000190: 2b19 9b3d 7d75 1f40 1919 063e 596b 093f
000001a0: 3277 4b3d 5d58 b13e 7a47 dfbc 9b8f 8fbd
000001b0: a35c 3ebd 41e7 453f f15a 7bbf 9ef8 1ebd
000001c0: 611b 113f 5c11 35be a423 163f 89b0 c1bf
000001d0: e157 573c 163a 57bd 3a18 5f3e f41c e93e
000001e0: 1a3f 22bf 015a 5e3f 9c7b cebf 5365 58c0
000001f0: 967b 36bd 000d c93f 762d 213f bf4c 873d
00000200: a5e6 b8bc 3973 40bf 0ea5 373f 2a0e d1bc
00000210: 9d04 4fbd 561f 9dbf 2f22 28bf af66 b13f
00000220: 4f23 fbbc 1284 5040 8220 9ebd 6b97 93be
00000230: 915a 33bf 330d f9bd bce2 cd3c ae60 f1be
00000240: 2289 a83d 3f9b fcbe 3740 28be e3e0 6cbf
00000250: d739 06bd 910a 83bd c01d 87be cef4 9fbf
00000260: 24d2 a93f ebe6 363d 90b5 b2bd 801b b6be
00000270: ebf9 cd3c a503 f8bb a873 063e 2883 eabc
00000280: aa82 48bf ef38 fbbc f448 19bf 1720 cb3e
00000290: d3ab 5abe 991c d73d 5b4a 423f 6dc0 61be
000002a0: 5304 28bf ac1f 3d3d 9052 34bf 6811 9abe
000002b0: a4b7 71bd b818 d53c f3ef 563f 7d2d 893d
000002c0: 384c c2be 8255 d1be bf76 b83f 1cba 983d
000002d0: 8b1f 97bc 812b 913f 7701 5ec0 ccf6 5ebf
000002e0: b1a4 d63e fbbb ecbd 9913 10be 7f93 b8bc
000002f0: 01f3 89bd 085e 473f ca37 b7bf d854 25bf
00000300: 214d ed3d cc81 fabe 466a 56bd 6f4e a7bf
00000310: 5d77 ccba 6812 993d 8a1a 193d 4c32 b1bc
00000320: c150 d23c 0604 163e 95f9 1c3f 8fcc 6cbf
00000330: 0fd9 edbc 1256 cf3e 1df9 41bd 9425 843f
00000340: fcff d3ba 6226 e2bc 306e dbbe 5abc 9a3d
00000350: 7368 2f40 3fbb 743d 9cf9 3cbf b588 4abf
00000360: db65 dcbf 9d72 a83d 3ed7 dd3c 4a83 14be
00000370: 6dd3 9fbf ddb9 cbbe c43a f73c de5e 933f
00000380: 555f 3cbd eb3d 01bf c892 283d 41d6 b9bd
00000390: f3fe 65bd 1c2c e3bf 5d08 983f 4acd bcbc
000003a0: fc5d b3bd ff36 58bf 63bc af3d ee3d 133d
000003b0: f4e8 1dbd 4df5 883f a8db 06bf 1df9 213d
000003c0: 005c 7abf 9751 0f3f 8c2a 5440 bfc2 113f
000003d0: 8aa8 a33d df07 a2bd d193 31bf 4cdb e33e
000003e0: 2a86 26bf e543 13be a9ec febe ee51 3ac0
000003f0: 94b7 10be 9205 5cbf 12a5 c03e cf7c 8b3a
0.028298862 1.3141894 0.8337365 -0.054727796 0.024370411 0.97058314 -0.90735215 -0.21323113
0.11245509 0.5820426 0.042395327 -0.40868038 -0.3489714 -0.088535085 -0.086343125 -1.5588434
-0.085654326 2.3928237 -0.390494 -0.6626211 1.7974797 -0.07159881 0.84562904 -1.0407025
-0.6384751 0.05378753 -0.037692294 -0.23096263 0.094469205 -0.9842888 2.0225887 -0.15881898
-0.565169 0.010936968 -1.0723374 -0.36465108 -1.4729877 1.0188743 -1.389427 0.43528312
-0.032979753 -0.039943025 -0.15445605 1.112894 -0.09396596 -0.0010628763 0.58819216 -0.023786204
-0.88905334 -0.4047494 0.98435867 -0.018221114 -0.26903236 1.0500168 -3.7626367 3.095866
0.9091034 -0.18228361 0.0046852813 1.3723006 -0.09337726 -0.03917771 -0.44835648 -0.51755935
-0.57581836 -1.0207514 -0.40917686 0.1650473 -0.8492974 -0.3846002 0.07556409 0.23742792
0.5907742 -0.2674146 0.5396471 0.79040205 -0.032209978 -0.63238126 -0.063950166 -0.07826205
-0.024469728 -0.050159078 -0.2963287 -0.060892005 -0.43708128 -0.042806923 -0.10840127 -0.58707297
-0.934892 -0.1370537 -0.7552335 -0.9690205 -0.5453904 -0.6044507 -0.7764883 -0.31241566
0.6731573 -0.47459725 -2.1773098 0.05165925 0.0757316 2.491546 0.13095511 0.53679425
0.04967422 0.34637728 -0.027255762 -0.070098124 -0.046475064 0.7730599 -0.9818564 -0.03881132
0.566824 -0.17682403 0.58648133 -1.5131999 0.013143511 -0.05254563 0.21786585 0.45529902
-0.63377535 0.86856085 -1.6131473 -3.3811843 -0.044551454 1.5707092 0.6295999 0.06606435
-0.022570917 -0.75175816 0.7173623 -0.02551945 -0.05054151 -1.2275188 -0.6567716 1.3859462
-0.030656485 3.258061 -0.07721044 -0.2882646 -0.7006007 -0.12160721 0.02513253 -0.47144073
0.08229281 -0.49337193 -0.16430746 -0.9253065 -0.032770004 -0.063985 -0.26389885 -1.2496583
1.3267255 0.044653814 -0.087260365 -0.35567856 0.025143584 -0.007568794 0.13130057 -0.028626993
-0.7832438 -0.030666796 -0.5987694 0.3967292 -0.21354608 0.105035014 0.7589471 -0.22046061
-0.656316 0.046172783 -0.7043848 -0.30091405 -0.059013024 0.026012763 0.83959883 0.06698129
-0.37948775 -0.4088555 1.4411238 0.074573725 -0.018447658 1.1341401 -3.4688394 -0.8709533
0.41922525 -0.11559292 -0.14069976 -0.02253127 -0.067358024 0.77877855 -1.43139 -0.64582586
0.11586977 -0.48927152 -0.052347444 -1.3070811 -0.0015599538 0.07474214 0.037378825 -0.021630429
0.025673272 0.14649972 0.6131833 -0.9249963 -0.029034166 0.40495354 -0.047356714 1.0323968
-0.0016174312 -0.027606193 -0.42857504 0.075554565 2.74075 0.059748884 -0.73818374 -0.7911485
-1.7218584 0.08224986 0.027080175 -0.14503208 -1.2486397 -0.3979024 0.030179389 1.1513326
-0.045989353 -0.50485104 0.041155607 -0.09074069 -0.05615134 -1.7747836 1.1877552 -0.023047108
-0.087581605 -0.8445892 0.08580854 0.035947733 -0.03855224 1.069986 -0.5267892 0.039544214
-0.9779663 0.5598387 3.3150969 0.56937784 0.07991131 -0.079116575 -0.69366175 0.44503248
-0.6504847 -0.14381368 -0.49789932 -2.9112506 -0.1413253 -0.85946 0.3762594 0.0010642054
