src/artifacts/EVAE_ld2_dec1_ep10_bs64_lr0.001_seed12_best.pth (torch, 185588 bytes, 14 tensors)

encoder.encoder_net.0.weight f4 [128, 50]
0	0xbca4eb3d	-0.020131702
1	0xbda057de	-0.07829259
2	0x3d48862e	0.04895609
3	0xbc2cb161	-0.010540337
4	0xbb6f5e79	-0.0036524816
5	0xbdff856f	-0.12476622
6	0xbd48a628	-0.048986584
7	0xbdaa323a	-0.08310361
8	0x3d8e27de	0.06941198
9	0x3d460ef4	0.048354104
10	0xbdc41564	-0.095743924
11	0x3d522d75	0.051312882
12	0x3cafe5cc	0.02147188
13	0x3d369336	0.044573985
14	0x3c5c4567	0.013444281
15	0xbddbbe01	-0.107296
16	0x3e0d2a3d	0.13785644
17	0x3dd1c5f4	0.10242835
18	0xbdb41bf2	-0.08794393
19	0x3b8a7d9f	0.004226401
20	0x3d102b14	0.035197333
21	0xbe0209a3	-0.12698989
22	0xbded974a	-0.11601122
23	0x3daa95b1	0.083293326
24	0x3d22a299	0.039705846
25	0xbdbf6fde	-0.09347509
26	0xbd885116	-0.06656091
27	0x3d017cdb	0.031613212
28	0x3c81789f	0.015804587
29	0xbc7158b9	-0.014730626
30	0xbd51c62d	-0.051214386
31	0x3d7f0fa4	0.062270775
32	0xbd1450fe	-0.036210053
33	0xbd51db6e	-0.051234655
34	0x3c9b0930	0.01892528
35	0xbdd274e3	-0.102762006
36	0x3c55c87e	0.013048289
37	0xbd2166ed	-0.0394048
38	0xbd9c565f	-0.076336615
39	0x3cb0be37	0.021575077
40	0x3d013998	0.031549066
41	0xbde36cfc	-0.111047715
42	0xbd55362b	-0.05205361
43	0xbdb15a9b	-0.0865986
44	0x3cc6d082	0.024269346
45	0x3d3b4db4	0.0457284
46	0x3d1a791f	0.037713166
47	0xbd960526	-0.07325201
48	0xbd1dac82	-0.038494594
49	0x3d8ba0f5	0.068178095
50	0x3da758f8	0.08171266
51	0x3e1003fb	0.14064018
52	0x3d0125ff	0.031530377
53	0x3cb69fc7	0.022292985
54	0x3dc0e5d4	0.09418836
55	0xbdcb0c9c	-0.099145144
56	0xbe0aa184	-0.13538176
57	0x3d58041a	0.052738287
58	0xbb1bbe04	-0.0023764381
59	0xbc790c80	-0.015200734
60	0x3daae461	0.08344341
61	0xbd8e54b6	-0.06949751
62	0x3db835cd	0.08994637
63	0x3dafef3e	0.08590554
64	0x3d818b14	0.06325355
65	0x3cb34dea	0.021887738
66	0xbd3caa8e	-0.04606109
67	0x3d7f034f	0.062259015
68	0x3db90c2c	0.09035525
69	0x3dce9048	0.10086113
70	0xbd55fd56	-0.052243553
71	0xbd52bcdb	-0.051449638
72	0x3d392403	0.04520036
73	0xbdc88092	-0.09790148
74	0xbddc815b	-0.1076686
75	0x3d4b61b5	0.049653728
76	0xbe2cf23d	-0.16889282
77	0x3dea942c	0.11454043
78	0x3c6f9395	0.014622589
79	0x3d11246d	0.03543513
80	0xbc3972f9	-0.0113189155
81	0xbd76ce7a	-0.060255505
82	0x3d09197e	0.033471577
83	0xbd98761b	-0.07444402
84	0xbd747bf4	-0.059688523
85	0x3d86f720	0.06590104
86	0x3baab1ae	0.0052091694
87	0x3d7f41a4	0.06231846
88	0xbd8c8246	-0.06860785
89	0x3e1fbb3a	0.15598765
90	0x3cbb39fd	0.0228548
91	0x3dc1542f	0.09439885
92	0x3cd6af6e	0.026206698
93	0xbd52a6dd	-0.051428664
94	0x3d39df11	0.04537875
95	0x3d2b2d0c	0.041791007
96	0xbda10c84	-0.07863715
97	0xbe2aeff0	-0.16693091
98	0xbe1d01bc	-0.15332693
99	0x3de4e694	0.11176792
100	0x3c6f0a8e	0.014589919
101	0x3c88ea45	0.01671327
102	0x3cafd54d	0.021464014
103	0xbc3318a9	-0.010931172
104	0x3dd78b21	0.105245836
105	0x3dae969b	0.085248195
106	0xbd7a27a5	-0.061072964
107	0x3d1ef5be	0.038808577
108	0x3d23358e	0.039845996
109	0xbbe6ac84	-0.0070396084
110	0xbd09223d	-0.033479918
111	0x3c644fbf	0.013935029
112	0xbe00a8cc	-0.12564391
113	0xbddf45e1	-0.10902
114	0x3e27f625	0.1640249
115	0xbe3f97c3	-0.18710236
116	0x3d513264	0.051073447
117	0xbe4ba910	-0.19888711
118	0xbd5ae482	-0.05344058
119	0xbc25c4cb	-0.01011772
120	0xbdc4f6e5	-0.09617404
121	0xbc2a0a05	-0.010378365
122	0xbd5618a5	-0.052269597
123	0xbad41013	-0.0016179107
124	0xbd08fd09	-0.033444438
125	0x3d0f3392	0.03496129
126	0x3e5a8529	0.21339859
127	0x3cdf0021	0.027221741
128	0x3b8b63bd	0.004253833
129	0x3d519ad4	0.051173046
130	0xbdfd9d8e	-0.12383567
131	0x3da2faac	0.07957968
132	0x3d8e1fb9	0.06939644
133	0x3d1a868c	0.03772597
134	0xbdfc59d0	-0.12321818
135	0xbb82405c	-0.0039749574
136	0xbd678a2e	-0.056528263
137	0xbb2adece	-0.0026072743
138	0xbdcf6975	-0.10127536
139	0xbd69a709	-0.057044063
140	0x3befe4f5	0.007320995
141	0xbc552270	-0.013008699
142	0x3da4110d	0.08011065
143	0x3de7c9c9	0.11317784
144	0x3dad9df4	0.08477393
145	0xbd281aa9	-0.04104105
146	0xbdbdab7d	-0.092612244
147	0xbd1fae75	-0.038984735
148	0xbcc0e4c1	-0.023546578
149	0xbe27ee45	-0.16399486
150	0x3c5789bd	0.013155398
151	0x3dde142f	0.108436935
152	0x3d92ef7c	0.07174584
153	0x3c87c262	0.016572181
154	0xbd942d2f	-0.072351806
155	0xbdf8ad4a	-0.12142427
156	0x3d573135	0.05253716
157	0xbbc9259c	-0.0061385166
158	0xbd76fb5a	-0.0602983
159	0xbda1137d	-0.07865045
160	0xbcb2ad8d	-0.021811271
161	0x3d10ed34	0.035382465
162	0x3d57de2e	0.05270212
163	0xbda2e605	-0.07954029
164	0xbd8ce04c	-0.06878719
165	0xbd113ae2	-0.035456546
166	0xbe0bd7fe	-0.13656613
167	0x3df116c8	0.11771923
168	0xbd94caa7	-0.07265215
169	0x3c9d1d37	0.01917897
170	0x3d633b7a	0.055476643
171	0x3d98a4a5	0.074532785
172	0x3d0fa503	0.035069477
173	0xbe3cf191	-0.18451525
174	0xbaeaaaf5	-0.0017903732
175	0xbda3aa83	-0.07991507
176	0x3e0809f1	0.13285042
177	0xbd905995	-0.070483364
178	0x3cab28d2	0.020893488
179	0xbdee5890	-0.11637986
180	0xbe227678	-0.15865505
181	0x3cd243fa	0.02566718
182	0x3dcc0c6d	0.099633075
183	0xbd1c4f58	-0.038161606
184	0xbd1f3e73	-0.038877916
185	0xbcbefcba	-0.023313869
186	0x3df17efe	0.117918
187	0xbc801827	-0.015636517
188	0x3c4611a4	0.012089167
189	0xbe184f53	-0.1487401
190	0x3daa6bba	0.083213285
191	0xbe389231	-0.18024518
192	0x3dcd82a9	0.10034687
193	0xbd1a0dbd	-0.037610758
194	0xbd1c6225	-0.038179535
195	0xbdd459d9	-0.103686996
196	0x3cc4b825	0.024013588
197	0xbde17683	-0.110089324
198	0x3e17be54	0.14818698
199	0x3d18567b	0.03719185
200	0x3cf2a089	0.029617565
201	0xbdf68511	-0.12037099
202	0x39e66cad	0.00043949988
203	0x3b098e7e	0.0020989473
204	0xbd0cf117	-0.03440961
205	0x3a63fd20	0.00086970814
206	0x3cdced1d	0.026968533
207	0x3d5b7a72	0.05358357
208	0x3e072d58	0.13200891
209	0xbdc961fa	-0.09833141
210	0x3de142d8	0.109990776
211	0x3d5df89d	0.054192174
212	0x3e06ce9c	0.13164753
213	0x3df73953	0.120714806
214	0xbd652f9c	-0.055953607
215	0xbd969a9b	-0.073537074
216	0x3dbbc607	0.0916863
217	0x3d979316	0.07401101
218	0x3de0ef40	0.10983133
219	0xbd912aca	-0.070882395
220	0x3d0482d0	0.032351315
221	0xbd43ea14	-0.047830656
222	0xbdc17dea	-0.09447844
223	0x3db107a9	0.08644039
224	0x3d40d32d	0.047076393
225	0x3de6b9eb	0.1126593
226	0x3d3fe8b8	0.046852797
227	0xbdd10184	-0.10205367
228	0xbccdd734	-0.02512703
229	0x3c7fa17f	0.0156024685
230	0x3dc98cf3	0.09841337
231	0xbdcb2f32	-0.09921111
232	0x3dd2a792	0.10285868
233	0x3d93aeb1	0.07211054
234	0xbd31d5e9	-0.04341689
235	0xbdcb1cf6	-0.09917633
236	0xbcc822fe	-0.024430748
237	0x3db31593	0.08744349
238	0xbc91e951	-0.01781145
239	0x3ccffe15	0.02538971
240	0xbe065b8c	-0.1312086
241	0xbe07b045	-0.13250835
242	0xbde6f1a2	-0.112765566
243	0x3bc75463	0.0060830577
244	0xbcc0ea00	-0.02354908
245	0xbd92d171	-0.07168854
246	0x3ddcbed9	0.10778589
247	0xbe0f7960	-0.14011145
248	0xbe01804e	-0.126466
249	0xbdf85ae7	-0.12126713
250	0xbd99cc5a	-0.0750968
251	0x3bd33fef	0.0064468305
252	0xbd4a3879	-0.049370263
253	0x3dad8db3	0.084742926
254	0x3dd5a30b	0.104314886
255	0xbdd08bbc	-0.10182902

encoder.encoder_net.0.bias f4 [128]
0	0xbc603a80	-0.0136858225
1	0xbdcf7715	-0.10130135
2	0x3c15e175	0.009147991
3	0xbdb7bf94	-0.089720875
4	0xbc5443a7	-0.012955583
5	0xbdfcc8d2	-0.12342991
6	0x3dc90b53	0.09816613
7	0xbda7d46b	-0.081948124
8	0x3d45218b	0.048127692
9	0x3df9a29f	0.12189221
10	0x3d9f66d9	0.077832885
11	0x3dc107b8	0.094253
12	0x3c250f01	0.010074378
13	0x3dcb12a0	0.09915662
14	0xbd66a55f	-0.056310054
15	0xbe04250c	-0.12904757
16	0x3d67fb44	0.05663611
17	0xbdd35d61	-0.10320545
18	0xbca4d902	-0.020123009
19	0xbdd245b4	-0.10267201
20	0x3d298e5a	0.041395523
21	0xbdec5690	-0.11539948
22	0xbda26512	-0.07929434
23	0xbd3d1568	-0.046162993
24	0x3d922ce3	0.07137468
25	0x3d98d64f	0.07462751
26	0x3d9d3ede	0.076780066
27	0xbb3114b2	-0.0027020392
28	0xbdd91ec0	-0.10601568
29	0x3dd89e24	0.10577038
30	0x3ab2ef82	0.0013651701
31	0xbcf5814e	-0.029968884
32	0x3e18d621	0.14925434
33	0xbd8fdd1b	-0.070245944
34	0xbe1724b0	-0.14760089
35	0x3d0c3773	0.034232568
36	0xbd72c3c7	-0.05926874
37	0xbdd59948	-0.10429627
38	0xbc978e74	-0.018500544
39	0xbc8dc23c	-0.017304532
40	0xbd393ce7	-0.045224097
41	0xbd904ba2	-0.07045676
42	0xbca2219b	-0.019791415
43	0x3c44aa0e	0.012003435
44	0xbdd8c145	-0.10583738
45	0x3cc7bc24	0.024381705
46	0xbe107a18	-0.14109075
47	0x3dac3517	0.084085636
48	0x3d3059b6	0.043054305
49	0x3cb3b9a3	0.021939104
50	0x3ceeac86	0.029135
51	0x3d0d2f3c	0.034468874
52	0x3cb8669e	0.02250987
53	0x3dc293ce	0.09500848
54	0x3dbcaa78	0.09212202
55	0xbcd1f9a2	-0.02563173
56	0xbdab87dc	-0.083755225
57	0xbdbe91c0	-0.09305143
58	0x3ca37f80	0.019958258
59	0x3d8a777c	0.06761071
60	0x3d934160	0.07190204
61	0xbcdcea92	-0.02696732
62	0xbcdc8e94	-0.026923455
63	0x3dda63b3	0.10663547
64	0x3dda1656	0.106487915
65	0x3c070410	0.008240715
66	0x3d2fe143	0.042939436
67	0xbe008e6e	-0.12554333
68	0xbdcc4109	-0.09973342
69	0x3de40a0a	0.11134727
70	0x3d062599	0.0327507
71	0x3d51ba95	0.05120333
72	0xbe0173d0	-0.12641835
73	0x3cc3ccbd	0.023901338
74	0x3dc86966	0.09785728
75	0xbdc1275d	-0.09431336
76	0x3d8e90a3	0.06961181
77	0x3e100b1a	0.14066735
78	0x3d725aeb	0.059168737
79	0x3d8e763d	0.06956146
80	0xbd370ede	-0.044691913
81	0xbd58381e	-0.052787893
82	0xbdd2568b	-0.10270413
83	0x3d484be0	0.048900485
84	0xbdc516ee	-0.09623514
85	0xbdca5fc2	-0.098815456
86	0xbe0de68b	-0.13857476
87	0xbd9a8eb3	-0.07546749
88	0x3dd0db94	0.10198131
89	0x3c154567	0.009110785
90	0xbd2cc37a	-0.04217861
91	0xbd9fa92b	-0.07795938
92	0x3de2908f	0.110627286
93	0xbcb38203	-0.02191258
94	0xbcb31968	-0.0218627
95	0xbc83a493	-0.016069686
96	0x3d8372ee	0.064184055
97	0xbdf28da7	-0.11843424
98	0xbdca03e0	-0.0986402
99	0xbd3712b1	-0.04469556
100	0x3d950c5c	0.07277748
101	0xbdcd4c6b	-0.10024341
102	0xbd19dbce	-0.037563138
103	0xbcf1689d	-0.029468829
104	0x3d60d5ae	0.05489128
105	0xbb8ec8d6	-0.0043574376
106	0xbcf6f90d	-0.030148054
107	0xbd1e42d3	-0.038637947
108	0x3d86267f	0.06550311
109	0x3d7f342b	0.06230561
110	0x3dcf6f8d	0.101286985
111	0xbcbd3df0	-0.023100823
112	0x3c92e685	0.017932186
113	0x3df7974f	0.12089407
114	0x3d52c3f9	0.051456425
115	0xbcff6c28	-0.031179503
116	0xbdedf83d	-0.11619613
117	0x3c056f8d	0.008144272
118	0x3df62883	0.12019446
119	0x3d04f403	0.03245927
120	0xb9c10346	-0.00036814268
121	0x3d81915a	0.06326552
122	0xbd14c740	-0.036322832
123	0xbe064227	-0.13111173
124	0xbd85ccf5	-0.06533233
125	0x3d75e504	0.06003286
126	0x3ba93f1b	0.0051649935
127	0x3d4a3f1a	0.049376585

encoder.encoder_net.2.weight f4 [64, 128]
0	0x3d11e2d6	0.03561672
1	0xbcc5c3f8	-0.024141297
2	0x3c98853d	0.01861822
3	0x3d96fed9	0.07372827
4	0x39b152a5	0.00033821646
5	0x3d94380a	0.07237251
6	0xbd02ba17	-0.03191575
7	0x3d57013a	0.052491404
8	0x3d889862	0.0666969
9	0xbdb630ee	-0.08896051
10	0x3c6ff144	0.014644925
11	0xbd7da808	-0.061927825
12	0x3d74e13a	0.059785105
13	0x3cd337de	0.025783475
14	0x3d85ccfd	0.06533239
15	0xbde01ae5	-0.1094263
16	0x3c749800	0.014928818
17	0x3dc5f7bb	0.096663915
18	0x3c6b3083	0.014354828
19	0xbca50927	-0.020145966
20	0x3d3ea6f1	0.046545926
21	0x3d85c7c8	0.06532246
22	0xbb38537d	-0.0028125935
23	0xbdf8e7e2	-0.12153603
24	0x3d611465	0.05495109
25	0x3d159b7d	0.03652524
26	0xbc4ddab9	-0.012564355
27	0xba9bb68b	-0.0011879964
28	0xbd85ccaf	-0.06533181
29	0xbd1a955d	-0.0377401
30	0x3d943751	0.07237113
31	0x3cdad626	0.026713442
32	0x3c292397	0.010323427
33	0xbd3276e1	-0.043570403
34	0x3d03ea93	0.03220613
35	0xbca071a5	-0.01958544
36	0xbcb5ba92	-0.02218369
37	0xbbcf7c2e	-0.006331942
38	0x3d20e585	0.039281387
39	0xbce53464	-0.027979083
40	0x3d978014	0.07397476
41	0x3c0909bf	0.00836414
42	0x3d41b615	0.047292788
43	0x3ce6634d	0.028123522
44	0x3d71cf4e	0.05903559
45	0x3caa1ed5	0.020766655
46	0xbd1fe5ae	-0.0390374
47	0xbdaeb32c	-0.08530268
48	0x3caffb7e	0.021482226
49	0x3d73fdfb	0.059568387
50	0xbb838e2d	-0.0040147514
51	0x3c623c93	0.013808387
52	0xbcd0f555	-0.025507608
53	0x3cf431a2	0.029808823
54	0xbd3cab86	-0.046062015
55	0xbd97a098	-0.07403678
56	0xbd8719b9	-0.06596703
57	0xbd73c8ba	-0.0595176
58	0x3db550db	0.088533126
59	0x3d97895e	0.073992476
60	0xbd98a923	-0.07454135
61	0x3d8ee956	0.06978099
62	0x3b44f2bf	0.0030051915
63	0xbc9633e4	-0.01833529
64	0x3c888611	0.01666549
65	0x3bbbb5ce	0.00572846
66	0xbd9c7ddd	-0.07641194
67	0x3d9a8fd5	0.07546965
68	0xbb010e0a	-0.0019692206
69	0x3d9fb919	0.077989765
70	0xbb2f6768	-0.0026764516
71	0xbc014787	-0.007890589
72	0xbd177147	-0.036973264
73	0x3d5abcfc	0.053402886
74	0x3c839bfd	0.016065592
75	0x3d297561	0.041371707
76	0x3c829f80	0.015945196
77	0x3d9e6429	0.07733948
78	0x3d1e0696	0.0385805
79	0x3d8483bc	0.06470439
80	0xbc2dfb3b	-0.01061898
81	0x3d0c9056	0.034317337
82	0xbd7f0488	-0.06226018
83	0xbd2a9823	-0.041648995
84	0x3cb0e83e	0.021595117
85	0x3ca77531	0.020441623
86	0x3caa2143	0.020767814
87	0xbd4c7967	-0.049920466
88	0x3d8d0437	0.068855695
89	0x3d8ddb9c	0.06926653
90	0xbcb1c5ac	-0.021700703
91	0xbd8f5851	-0.06999267
92	0xbab1e74d	-0.0013572961
93	0xbdac462e	-0.08411823
94	0xbcd69b89	-0.026197212
95	0xbd957f6c	-0.072996944
96	0xbd32efc2	-0.043685682
97	0xbcbf3391	-0.023340018
98	0xbab03e09	-0.0013446222
99	0x3d67960d	0.056539584
100	0x3cd607e9	0.026126819
101	0xbd3968ec	-0.045266077
102	0xbb4f2156	-0.0031605563
103	0x3cc26b81	0.023732902
104	0x3c8cddae	0.017195549
105	0xbbab85db	-0.0052344627
106	0xbc68cfae	-0.014209671
107	0x3bf67d18	0.0075222366
108	0x3c74bc9a	0.014937544
109	0xbd1af8bc	-0.037834868
110	0xbd96a013	-0.073547505
111	0x3cdaf5f2	0.026728604
112	0x3b921288	0.0044577755
113	0x3d10151a	0.035176374
114	0xbd577797	-0.052604284
115	0x3ca874c4	0.02056349
116	0xbc99470b	-0.018710634
117	0xbc9368f6	-0.017994385
118	0xbdb98083	-0.09057715
119	0x3d6236af	0.05522793
120	0x3daec660	0.08533931
121	0x3d88014b	0.066408716
122	0xbd129fa0	-0.03579676
123	0xbc9c45c8	-0.019076243
124	0x3da506e3	0.08057954
125	0x3d816318	0.06317729
126	0xbd055ddd	-0.032560218
127	0xbd7fbffe	-0.062438957
128	0xbdd812a5	-0.10550431
129	0x3d6dc0cc	0.058045194
130	0x3d216580	0.03940344
131	0x3d885f7c	0.06658837
132	0x3d46f226	0.048570774
133	0x3d986bc6	0.07442431
134	0xbc860a70	-0.016362399
135	0xb9c088c7	-0.00036723
136	0xbda1f68b	-0.079083525
137	0xbc240454	-0.0100107975
138	0xbcd803e7	-0.026369048
139	0x3d618689	0.055059943
140	0x3d101905	0.03518011
141	0xbd943d60	-0.07238269
142	0x3d0b5fca	0.0340269
143	0xbd8f1ac8	-0.0698753
144	0x3c9f6e1e	0.019461688
145	0x3d48ce44	0.049024835
146	0xbd3febcb	-0.04685573
147	0xbda58cc6	-0.08083491
148	0x3a5a63e3	0.00083309243
149	0x3d73741b	0.0594369
150	0xbdb08665	-0.08619384
151	0x3d15931c	0.036517248
152	0xbd95ad2c	-0.073084205
153	0xbc9b8fb0	-0.018989414
154	0xbd8e3a76	-0.06944744
155	0xbd8abc6e	-0.06774221
156	0xbdc3ece4	-0.09566668
157	0x3d11f444	0.03563334
158	0xbda8ff52	-0.082518235
159	0xbda9fe3a	-0.08300443
160	0xbb9c43b5	-0.0047688135
161	0xbcee4bd5	-0.029088894
162	0xbc58a9fb	-0.01322412
163	0xbc7be14f	-0.015373542
164	0xbce34142	-0.027741078
165	0x3d0a5b2d	0.03377836
166	0x3d65be56	0.05608972
167	0xbd457fa6	-0.04821744
168	0xbd963e7f	-0.07336139
169	0xbd89ffa4	-0.06738213
170	0xbd1969e5	-0.037454505
171	0xbd7a4b57	-0.061107006
172	0x3ae988e8	0.001781729
173	0x3d6627b4	0.056190208
174	0x3d86cfe3	0.0658262
175	0x3d7fc585	0.06244423
176	0xbd83c582	-0.06434156
177	0xbdc580d0	-0.0964371
178	0xbd9f4cdc	-0.07778332
179	0xbd466f23	-0.048445832
180	0xbcc154af	-0.02359995
181	0xbd75af5f	-0.0599817
182	0xbdbab24e	-0.0911604
183	0xbdb3969f	-0.08768963
184	0xbc81efd1	-0.015861424
185	0x3d642764	0.05570163
186	0xbc6e47e3	-0.014543506
187	0xbdd724fe	-0.105051026
188	0xbd822d67	-0.06356316
189	0xbc9541e6	-0.0182199
190	0x3d0fe704	0.035132423
191	0xbda3db96	-0.08000867
192	0xbdc2bdc2	-0.0950885
193	0xbd469d8f	-0.048490103
194	0xbd985969	-0.07438929
195	0x3d27224a	0.040804185
196	0xbc969d9a	-0.018385697
197	0x3cbeed0e	0.023306396
198	0xbd5b4f77	-0.05354258
199	0x3be42709	0.006962661
200	0xbc02f542	-0.007993044
201	0x3cc0b8d4	0.023525633
202	0x3d58c13f	0.05291867
203	0xbcebabc5	-0.02876843
204	0x3d651f72	0.05593819
205	0x3d60d196	0.054887377
206	0xbce68c3c	-0.02814304
207	0xbd791abe	-0.06081652
208	0xbcf90da5	-0.030402014
209	0x3d8ab1f3	0.06772222
210	0xbdb8f160	-0.09030414
211	0xbda23073	-0.07919397
212	0x3d15d7be	0.0365827
213	0xbdb35d14	-0.087579876
214	0xbda9790c	-0.08275041
215	0x3cca8be6	0.024724912
216	0x3d78549f	0.060627576
217	0xbd21281d	-0.039344896
218	0xbd7bff62	-0.06152285
219	0xbd2c46cc	-0.042059705
220	0x3ca4e3bf	0.020128129
221	0x3d2de74a	0.042456903
222	0x3d527c9b	0.051388364
223	0xbcb9a08d	-0.022659564
224	0xbd50fade	-0.051020496
225	0x3d8952a3	0.06705215
226	0x3cd57c77	0.026060326
227	0xbcfe868a	-0.031070013
228	0xbc2c4bdd	-0.010516134
229	0xbda7c5a6	-0.08191995
230	0x3c750fd0	0.014957383
231	0xbdb5092d	-0.08839641
232	0x3cbaa3d5	0.0227832
233	0xbcf10590	-0.029421598
234	0xbd64865d	-0.0557922
235	0xbc1aecc8	-0.009455867
236	0xbd4eb7fb	-0.050468426
237	0xbd9911e3	-0.07474115
238	0x3d8d462b	0.06898149
239	0xbdbf8139	-0.09350819
240	0xbd9a29bd	-0.07527492
241	0xbc9c1b21	-0.019055905
242	0xbca7cf9e	-0.020484742
243	0xbc015aad	-0.007895154
244	0xbbd738bb	-0.006568042
245	0xbcfabca0	-0.030607522
246	0x3c21e428	0.009881057
247	0x38a2ffe0	7.7724224e-05
248	0x3caf6ce0	0.02141422
249	0x3d14ca98	0.03632602
250	0xbbb01b87	-0.0053743753
251	0xbd9f09b4	-0.077655226
252	0x3d2ae56d	0.041722704
253	0x3d6f350a	0.05840019
254	0xbc92eedf	-0.017936168
255	0xbdd0c0d9	-0.10193033

encoder.encoder_net.2.bias f4 [64]
0	0x3d4548d6	0.048165165
1	0xbbd6b549	-0.0065523726
2	0xb926b675	-0.00015898964
3	0x3cff1e4d	0.031142378
4	0xbcd968d1	-0.026539238
5	0xbd97c777	-0.07411092
6	0xbbbbcae6	-0.0057309745
7	0x3d8415bd	0.06449459
8	0x3da69b48	0.08135086
9	0x3d80a2d9	0.06281061
10	0x3c9eecda	0.019400049
11	0x3d8c4218	0.06848544
12	0xbd5f3293	-0.05449159
13	0xbd8f3158	-0.069918334
14	0x3ca26a9f	0.019826232
15	0x3cdc37c0	0.026882052
16	0x3c423e80	0.0118557215
17	0xbd92e047	-0.07171684
18	0xbbd2fa46	-0.0064385263
19	0xbd3263c1	-0.043552164
20	0xbd1f94fc	-0.038960442
21	0xbd45dc17	-0.048305597
22	0x3ca39088	0.019966379
23	0xbd823f2c	-0.06359705
24	0xbd46e2d5	-0.048556168
25	0xbc31b01f	-0.010845213
26	0x3d93e334	0.0722107
27	0x3cf354bd	0.029703492
28	0xbcaa10d7	-0.020759983
29	0x3db4266f	0.08796393
30	0xbdae97ba	-0.08525033
31	0xbd9f4d8e	-0.07778464
32	0x3dad40b5	0.084596075
33	0xbc075be0	-0.008261651
34	0xbabeb37e	-0.0014549342
35	0x3d66a9de	0.05631434
36	0x3d83b33d	0.06430671
37	0xbd4db70e	-0.050223403
38	0xbc014f9f	-0.007892518
39	0x3d95a5c9	0.07307012
40	0x3d59f4d3	0.053212
41	0x3bd3e116	0.0064660413
42	0x3d3f96df	0.04677474
43	0x3dace9f2	0.08443059
44	0x3ce3c30f	0.027802972
45	0x3d2feb13	0.042948794
46	0xbd1605d4	-0.036626652
47	0x3d01611a	0.031586744
48	0x3db1d4b8	0.08683151
49	0x3d7d0e4f	0.061781224
50	0x3d90b539	0.070658155
51	0xbda6fd91	-0.08153833
52	0x3db0fb1c	0.08641645
53	0x3d50debd	0.05099367
54	0x3c7fda2d	0.015615982
55	0xbcff8946	-0.031193387
56	0xbbab79e4	-0.0052330364
57	0x3d3a9ea2	0.04556144
58	0x3c7d0729	0.015443602
59	0xbb8a6efd	-0.0042246566
60	0x3d2a6a3f	0.04160523
61	0x3d485461	0.048908595
62	0x3d6ea2b2	0.058260627
63	0xbd05dccd	-0.032681275

encoder.encoder_net.4.weight f4 [4, 64]
0	0x3dd5bb8e	0.10436164
1	0xbd9a64d6	-0.07538764
2	0x3ccb1fc3	0.024795419
3	0xbdb05f83	-0.086119674
4	0x3da67294	0.08127323
5	0x3d4277f0	0.047477663
6	0x3dbba062	0.0916145
7	0x3d59f73a	0.05321429
8	0x3da48503	0.080331825
9	0xbd4b286e	-0.049599104
10	0xbd9aea5d	-0.075642325
11	0x3c8bf355	0.017083803
12	0xbceacd68	-0.028662398
13	0xbd66f63c	-0.05638717
14	0x3d8d007f	0.0688486
15	0xbc9aeba4	-0.01891119
16	0xbbb39dfb	-0.005481479
17	0xbc1025fc	-0.008798119
18	0x3c8e45f2	0.017367337
19	0xbd844856	-0.064591095
20	0x3cf4fac7	0.029904736
21	0xbde7894b	-0.113054834
22	0x3d7ce07d	0.061737526
23	0x3d97f222	0.0741923
24	0xbae82e16	-0.001771393
25	0xbd203419	-0.039112184
26	0xbdb7f81e	-0.089828715
27	0x3c357952	0.011076288
28	0xbd0a50ad	-0.033768345
29	0xbd5d65c3	-0.054052126
30	0x3d811273	0.06302347
31	0xbd8f10e1	-0.06985641
32	0xbc80bd41	-0.015715243
33	0x3da2305b	0.07919379
34	0xbcfa1210	-0.030526191
35	0x3da5326e	0.08066259
36	0x3d1dbfa2	0.038512833
37	0x3d73b640	0.05949998
38	0xbdab55b3	-0.08365955
39	0xbda2adc5	-0.079433
40	0xbd833b81	-0.06407834
41	0x3d16bbd9	0.03680024
42	0x3c1a9f9d	0.009437469
43	0xbdada459	-0.084786125
44	0xbdf54016	-0.11975114
45	0xbd99493d	-0.07484672
46	0x3cf1ed38	0.02953206
47	0xbd887972	-0.06663789
48	0xbdb4f6bc	-0.08836123
49	0xbda8bd8c	-0.08239278
50	0x3c38f7e2	0.011289569
51	0xbd95190a	-0.072801664
52	0xbd1f0a78	-0.038828343
53	0x3d782f70	0.060592115
54	0x3d64e562	0.05588282
55	0x3de5709f	0.112031214
56	0xbd20874d	-0.039191533
57	0x3d3b0282	0.04565669
58	0x3d90fe87	0.07079797
59	0x3d45007e	0.048096173
60	0xbdb1c662	-0.08680417
61	0xbde668d7	-0.11250465
62	0x3d622892	0.055214472
63	0x3c0365a7	0.008019841
64	0xbdafca2f	-0.08583485
65	0x3d8be8dc	0.06831524
66	0xbc6bfe93	-0.014403957
67	0xbce5a367	-0.028032018
68	0xbd46cc37	-0.0485346
69	0xbd91296e	-0.0708798
70	0xbdf82134	-0.12115708
71	0x3d8ceac7	0.06880718
72	0xbd764e3a	-0.060133196
73	0xbdb455f1	-0.088054545
74	0x3db35d78	0.08758062
75	0xbdb2ba6f	-0.08726966
76	0xbdbc3721	-0.091902025
77	0x3cf040f9	0.029327856
78	0xbd815214	-0.06314483
79	0x3baa25f3	0.005192512
80	0x3cf55de7	0.029952003
81	0xbd310fac	-0.043227836
82	0x3d05b9d1	0.03264791
83	0xbc8cfc03	-0.017210012
84	0x3d59e477	0.053196397
85	0x3d948037	0.072510175
86	0x3b1b915f	0.002373777
87	0xbd7b6c74	-0.061382726
88	0x3d439adc	0.047755107
89	0x3ca29042	0.019844178
90	0xbca75061	-0.02042407
91	0xbba07755	-0.004897038
92	0x3d33970b	0.043845218
93	0xbdcd9a7e	-0.10039233
94	0xbd631f68	-0.055449873
95	0x3c9f98a4	0.019481964
96	0xbddfaf57	-0.10922115
97	0x3d01b2a0	0.03166449
98	0x3d32ff23	0.04370035
99	0xbc4740ce	-0.012161447
100	0x3d52a361	0.05142534
101	0xbaa6a3d8	-0.0012713624
102	0x3dff7b80	0.12474728
103	0xbd168ff4	-0.03675838
104	0x3cfc4de3	0.030798858
105	0x3d13e9d1	0.036111657
106	0xbd60774c	-0.05480127
107	0x3d58a1b1	0.052888576
108	0x3d9aa512	0.07551016
109	0x3d19af8a	0.037520923
110	0xbd81afcb	-0.06332358
111	0x3d9b4078	0.07580656
112	0xbdbd35ae	-0.09238754
113	0xbcc4e1a8	-0.024033383
114	0x3d9219ed	0.07133851
115	0xbd933baf	-0.07189118
116	0xbcaea95f	-0.021320997
117	0xbd948940	-0.07252741
118	0x3cab2f8c	0.020896696
119	0x3e17bc60	0.14817953
120	0x3dcc0c69	0.099633045
121	0xbd8152a1	-0.06314588
122	0x3d6ba741	0.057532553
123	0xbdc94bee	-0.098289356
124	0xbc7b8b07	-0.015352971
125	0xbdd0cf35	-0.101957716
126	0xbccbd90a	-0.024883766
127	0x3dd1ef65	0.10250739
128	0x3dcafc84	0.09911445
129	0x3b9da96c	0.0048114564
130	0x3c6000c7	0.01367206
131	0x3d5ad3e6	0.05342474
132	0x3da9dfaa	0.08294614
133	0xbd96efe5	-0.07369975
134	0xbbf2efbe	-0.0074138334
135	0x3d9a181c	0.0752413
136	0xbda6eb13	-0.081503056
137	0xbdc4548f	-0.09586441
138	0x3d0f06b7	0.034918513
139	0xbda5dc99	-0.08098716
140	0x3d76f191	0.06028897
141	0xbc99ddbf	-0.018782495
142	0x3ae93402	0.0017791989
143	0x3de6e531	0.112741835
144	0xbd6903c7	-0.056888368
145	0xbc5a4d68	-0.013324119
146	0xbd06f40d	-0.03294759
147	0xbdb44028	-0.08801299
148	0xbd92b7ed	-0.07163987
149	0xbba9b8e8	-0.0051795132
150	0xbddb667d	-0.107129075
151	0xbde3b18f	-0.11117851
152	0xbbc0296c	-0.005864313
153	0x3c3ba49d	0.011452821
154	0xbda99f82	-0.08282377
155	0xbdc63af6	-0.09679215
156	0xbc57aa1c	-0.013163116
157	0xbcef341a	-0.029199649
158	0x3d8597ff	0.065231316
159	0x3da17be7	0.078849606
160	0xbb6944b9	-0.003559394
161	0xbcf076a0	-0.02935344
162	0xbdbc6fde	-0.092010245
163	0x3d5add4b	0.053433698
164	0xbcf2f6f5	-0.029658774
165	0x3d5dc30f	0.0541411
166	0x3dccfecb	0.100095354
167	0xbdfac2b2	-0.122441664
168	0xbd40c063	-0.047058474
169	0x3d9fccbb	0.07802721
170	0xbdb9c5e6	-0.09070949
171	0xbd9dbb81	-0.07701779
172	0x3d1f58cb	0.03890304
173	0x3d036067	0.03207436
174	0x3d6d377c	0.057914242
175	0xbce94cf6	-0.02847908
176	0xbd99bbde	-0.07506536
177	0xbd707f20	-0.058714986
178	0xbd29dd49	-0.0414708
179	0x3ad3815b	0.0016136573
180	0xbc66aec5	-0.014079754
181	0x3d9bb1e4	0.07602289
182	0x3dc0a5b6	0.09406607
183	0x3cd5992c	0.026074015
184	0xbde580b6	-0.1120619
185	0xbccb3d72	-0.024809573
186	0xbdca894a	-0.09889467
187	0x3de116a3	0.10990646
188	0xbdbfce57	-0.09365528
189	0xbd48b8b6	-0.04900428
190	0xbdb61a4c	-0.088917345
191	0x3db22b1e	0.0869963
192	0x3dd8774d	0.1056963
193	0xbdfb010b	-0.12256058
194	0xbda1c0ca	-0.078981
195	0x3d9f51ec	0.07779297
196	0xbd981a09	-0.07426841
197	0xbd0632b6	-0.032763205
198	0xbddb204d	-0.1069952
199	0xbd1195c0	-0.035543203
200	0x3d8626ad	0.065503456
201	0xbd5407ca	-0.05176524
202	0x3cadae2e	0.02120122
203	0xbd8dfc82	-0.06932928
204	0xbdab689f	-0.08369564
205	0xbdc6137e	-0.096716866
206	0xbcb13368	-0.021630958
207	0x3c91bb88	0.017789617
208	0xbc09f8c0	-0.008421123
209	0x3ce41c85	0.02784563
210	0x3dd1397c	0.102160424
211	0x3d4693b8	0.04848072
212	0xbde79f58	-0.11309689
213	0x3c29c1bd	0.010361132
214	0xbdeadd5a	-0.11468001
215	0x3c1c066f	0.009523018
216	0xbd36a83b	-0.04459403
217	0x3d10888b	0.035286468
218	0x3c35bbe7	0.011092163
219	0xbdb05018	-0.08609027
220	0x3d0340ab	0.032044094
221	0x3cdc777e	0.026912447
222	0xbb12724c	-0.0022345958
223	0xbdccf216	-0.10007112
224	0x3bfa0c3e	0.007630854
225	0x3dd20e97	0.10256689
226	0xbdab3bca	-0.08361013
227	0x3d983895	0.07432667
228	0x3e0c8ddd	0.13725992
229	0x3dc8ce47	0.09804969
230	0x3be21f3d	0.0069006965
231	0xbba0f6a1	-0.004912213
232	0xbdcb8ab4	-0.09938565
233	0x3d82d1c2	0.063876644
234	0x3d2adde7	0.04171553
235	0xbce1a962	-0.027546588
236	0x3d37ae68	0.04484406
237	0xbd3a94f7	-0.04555222
238	0x3d86f139	0.06588978
239	0x3d8fea9b	0.07027169
240	0xbd85ab59	-0.065268226
241	0xbdc18aaf	-0.0945028
242	0x3c8c0f1d	0.01709705
243	0x3d652984	0.055947796
244	0x3cf04568	0.02932997
245	0xbdc9eafe	-0.09859274
246	0x3cfd90f2	0.030952904
247	0x3b91bea6	0.004447776
248	0xbd25cb23	-0.04047693
249	0x3ccf66fa	0.025317658
250	0x3c2dd567	0.010609961
251	0xbb5fc777	-0.003414599
252	0xbd87d137	-0.066317014
253	0x3dc00d16	0.09377496
254	0xbdf856c7	-0.121259265
255	0x3e05fd1a	0.13084832

encoder.encoder_net.4.bias f4 [4]
0	0xbbbb95b6	-0.005724634
1	0xbd688ad8	-0.056773037
2	0xba8eb85d	-0.0010888685
3	0xbdfa9471	-0.12235344

decoders.0.decoder_net.0.weight f4 [128, 2]
0	0x3f658430	0.8965483
1	0x3f8690a8	1.0512896
2	0xbe0c07dd	-0.13674875
3	0x3d04d5c5	0.03243043
4	0xbbe1d939	-0.00689235
5	0xbf3458e9	-0.70448166
6	0xbe3171c2	-0.17328551
7	0xbe9518ec	-0.29120576
8	0x3f0328bd	0.51234037
9	0xbe5bdeaa	-0.21471658
10	0xbdfdbdd7	-0.12389725
11	0x3f003743	0.5008432
12	0x3e01390c	0.12619418
13	0xbe0edb17	-0.13950764
14	0xbf2e799a	-0.681543
15	0x3dc79df2	0.097469226
16	0x3f20295c	0.6256311
17	0x3ee238b7	0.44183895
18	0x3f727e9c	0.9472444
19	0x3da3adf6	0.07992165
20	0x3eadf3b3	0.3397499
21	0xbf154e23	-0.5832235
22	0xbe96afbb	-0.29430947
23	0x3f21035a	0.6289574
24	0x3f23a050	0.6391649
25	0xbe15629a	-0.14588395
26	0x3f6b882b	0.9200465
27	0x3ec03d52	0.37546784
28	0xbe9f7b9f	-0.31149003
29	0x3f12121c	0.5705888
30	0xbf3abdb6	-0.72945726
31	0x3f10f848	0.5662885
32	0xbea709be	-0.3262462
33	0x3f3cc1bc	0.73733115
34	0x3ef0f12d	0.47059003
35	0xbd9deacd	-0.077108
36	0x3ece158c	0.40250814
37	0xbe8ee00c	-0.2790531
38	0x3d02b52e	0.031911068
39	0xbe8849b4	-0.2661873
40	0xbf23e501	-0.6402131
41	0x3e153d75	0.14574225
42	0x3f4cf226	0.8005699
43	0x3f773299	0.9656158
44	0x3f6d08bb	0.92591447
45	0x3e3cbb08	0.18430722
46	0xbf320998	-0.6954589
47	0x3edbd514	0.42936003
48	0xbe278d6b	-0.1636254
49	0xbdc45b48	-0.09587723
50	0xbea110b5	-0.3145806
51	0xbee818c6	-0.453314
52	0x3ee1a933	0.440744
53	0x3f59adf9	0.85031086
54	0x3ef198cd	0.4718689
55	0xbf1eedfc	-0.62081885
56	0x3e821e99	0.2541397
57	0xbe25f73e	-0.16207597
58	0x3f82de75	1.0224138
59	0xbe14d16f	-0.14533018
60	0xbe6f0ea8	-0.23345435
61	0x3f2beca2	0.6715795
62	0xbf2a1356	-0.66435754
63	0xbf38e18d	-0.72219163
64	0xbf0dc12c	-0.5537288
65	0x3e50bea4	0.20385224
66	0x3f702100	0.93800354
67	0xbea6e648	-0.32597566
68	0xbef1e0f0	-0.47241926
69	0xbee7250b	-0.4514545
70	0xbf32d611	-0.6985789
71	0x3dcc3b62	0.09972264
72	0xbe96c672	-0.29448277
73	0xbe557062	-0.20843652
74	0x3e939d73	0.28831062
75	0x3ef63c30	0.48092794
76	0x3f5517a1	0.8323918
77	0x3f7ff7a5	0.9998725
78	0x3f17091f	0.5899829
79	0x3f339164	0.70143723
80	0xbf053dd2	-0.52047455
81	0x3e94386a	0.2894929
82	0x3f91aee6	1.13815
83	0x3ef0e1a9	0.47047165
84	0xbeb3ca14	-0.3511511
85	0xbc73a1f4	-0.014870156
86	0x3f7867b5	0.97033244
87	0x3f035ccf	0.5131349
88	0xbe3bf1f0	-0.1835401
89	0x3eaa7f56	0.33300275
90	0xbe3bb9bc	-0.18332571
91	0x3f10fcc8	0.56635714
92	0x3f48f4cc	0.7849853
93	0x3f5ce7f1	0.86291414
94	0x3d24e5f2	0.040258355
95	0xbf20cad4	-0.6280949
96	0xbedfb0fe	-0.43689722
97	0xbe9eb69f	-0.30998704
98	0x3f915e67	1.1356934
99	0xbf067490	-0.5252161
100	0x3fafe96a	1.3743107
101	0x3ece6b64	0.40316308
102	0xbee5f368	-0.44912267
103	0x3eaf087a	0.34186155
104	0x3f8c897c	1.0979457
105	0x3e0fdc8a	0.14048973
106	0xbec1a2b6	-0.3781945
107	0xbf33885c	-0.7012994
108	0xbeae7b65	-0.34078518
109	0x3e6827f1	0.22671486
110	0x3d0d94f0	0.034565866
111	0x3eafa63c	0.34306514
112	0xbf0f057e	-0.55867755
113	0xbed79b7a	-0.42110807
114	0x3cab215d	0.020889932
115	0xbefa82bd	-0.4892787
116	0xbf0771bb	-0.52907914
117	0xbe2e50ae	-0.17022964
118	0xbf0321fa	-0.5122372
119	0x3e60f713	0.21969251
120	0xbeb3a9ee	-0.35090584
121	0xbf007306	-0.5017551
122	0xbf3d4acc	-0.73942256
123	0xbe6fe587	-0.23427401
124	0x3e75d6f4	0.2400778
125	0x3fadbd38	1.357337
126	0xbf26464d	-0.6495102
127	0x3eee5878	0.4655187
128	0xbe5926f0	-0.2120626
129	0x3f911307	1.1333932
130	0x3ee20472	0.44144017
131	0xbe957210	-0.29188585
132	0xbeb412b0	-0.35170507
133	0x3f44ffd6	0.76952875
134	0x3ef22ffb	0.4730223
135	0x3f0c8f47	0.54906124
136	0xbf263b1b	-0.6493394
137	0x3f49df93	0.7885677
138	0x3d77227d	0.060335625
139	0xbef12479	-0.4709814
140	0xbf29b186	-0.66286504
141	0xbdc1900e	-0.094513044
142	0x3ead747e	0.3387794
143	0xbcfa446c	-0.030550204
144	0xbe8f357e	-0.279705
145	0xbf08baac	-0.5340984
146	0x3f24a572	0.6431495
147	0xbec258a9	-0.37958267
148	0x3eeb337b	0.45937714
149	0xbec03ff4	-0.37548792
150	0x3e9635e8	0.29338002
151	0xbf08458b	-0.53231114
152	0x3f2a7a09	0.6659246
153	0xbf0ab111	-0.5417643
154	0x3f316585	0.6929553
155	0xbf30731b	-0.68925637
156	0xbf30d132	-0.69069207
157	0xbdcf3b4e	-0.10118733
158	0x3da6f3ad	0.08151946
159	0xbe73b23f	-0.23798464
160	0x3ef75e25	0.48314014
161	0x3daae594	0.0834457
162	0x3f2acf87	0.6672291
163	0xbf158f19	-0.58421475
164	0x3e8d8ffe	0.2764892
165	0xbecd55ef	-0.40104625
166	0xbed39d62	-0.4133101
167	0x3e8ede19	0.27903822
168	0xbe5196d5	-0.20467694
169	0x3fb05c98	1.3778257
170	0x3f5b05ed	0.8555592
171	0x3d1974c1	0.03746486
172	0x3f37a89c	0.7174165
173	0xbed8c4a4	-0.42337525
174	0x3e95926c	0.29213274
175	0xbf19fe3b	-0.6015355
176	0x3efd65be	0.49491686
177	0xbf2562c7	-0.6460385
178	0xbf1645fc	-0.5870054
179	0x3edfb818	0.4369514
180	0xbe68b6f1	-0.22726037
181	0x3d9106fc	0.0708141
182	0x3f6400bc	0.8906362
183	0x3e5f1131	0.21783902
184	0x3edef234	0.4354416
185	0xbe9fe3ca	-0.31228477
186	0xbf24ad9f	-0.64327425
187	0x3dc354f2	0.095376864
188	0x3e0582e3	0.1303821
189	0xbf3639d2	-0.71181977
190	0x3ce7872a	0.028262693
191	0x3e4775eb	0.19478576
192	0xbf263a07	-0.6493229
193	0x3e0a924e	0.13532373
194	0xbe39ed75	-0.18156989
195	0x3f1805fa	0.5938412
196	0x3f478ea5	0.77952033
197	0xbe56c477	-0.20973383
198	0x3f6c0718	0.92198324
199	0xbf928c6f	-1.1449107
200	0x3f27ef8b	0.6559989
201	0xbea209f8	-0.3164823
202	0xbeed0a4a	-0.46296912
203	0xbebcbdc0	-0.36863518
204	0xbe2c2931	-0.16812588
205	0xbdc1f4ff	-0.094705574
206	0xbe96ebaa	-0.29476672
207	0xbef23963	-0.47309408
208	0x3e1b6959	0.15176906
209	0xbf37ee1f	-0.7184772
210	0xbe68fef9	-0.22753514
211	0x3f7eba26	0.9950279
212	0x3ecb3338	0.39687514
213	0xbe9ec208	-0.3100741
214	0xbe7caabe	-0.24674508
215	0xbf0c992b	-0.54921216
216	0x3ed157c8	0.40887284
217	0x3f1e6286	0.61869085
218	0xbe8af92e	-0.27143234
219	0xbee86e52	-0.45396668
220	0xbf087919	-0.5330978
221	0xbf232050	-0.6372118
222	0x3d95874b	0.07301196
223	0xbf228b2b	-0.63493603
224	0x3f076d05	0.52900726
225	0xbdf59b79	-0.11992545
226	0xbddb290d	-0.10701189
227	0xbea1d0b4	-0.3160454
228	0x3f4c2735	0.79747325
229	0x3f8daf8a	1.1069195
230	0xbdba1109	-0.090852804
231	0xbe7dcb2b	-0.24784534
232	0xbf29ab41	-0.6627694
233	0x3ed4ab96	0.4153716
234	0xbf1ed6c5	-0.6204646
235	0xbde53969	-0.11192591
236	0x3f286cc1	0.65790945
237	0x3f4338a4	0.762583
238	0x3edbbb47	0.4291632
239	0xbefd5ad6	-0.49483365
240	0x3d8d9206	0.069126174
241	0x3f7c3954	0.98524976
242	0x3f3d7a40	0.74014664
243	0x3f7ed17b	0.9953839
244	0xbe52a74d	-0.20571633
245	0xbf17d110	-0.5930338
246	0x3f3193a5	0.6936591
247	0x3f164124	0.58693147
248	0x3e81dd27	0.25364038
249	0x3ad7ef12	0.0016474447
250	0xbe6b8271	-0.22998978
251	0x3f09d64f	0.53842634
252	0x3fd2072d	1.640844
253	0x3f05cdf3	0.5226738
254	0x3f10cb46	0.5656017
255	0x3f8565e3	1.0421718

decoders.0.decoder_net.0.bias f4 [128]
0	0xbe658233	-0.22412948
1	0x3e169388	0.14704716
2	0xbe67a900	-0.22623062
3	0x3dff32fe	0.12460898
4	0x3d62a18d	0.055329848
5	0xbf12fd1a	-0.5741745
6	0xbe1bf5d4	-0.15230495
7	0xbedd1e4f	-0.43187186
8	0xbf03073e	-0.51182926
9	0xbeebd31c	-0.460595
10	0xbe62f43d	-0.22163482
11	0x3f161a73	0.5863411
12	0x3ee957fb	0.45574936
13	0x3ee2158f	0.44157073
14	0x3ed24f34	0.41076052
15	0xbe676fdd	-0.22601266
16	0xbf0504fb	-0.51960725
17	0x3dd33a36	0.10313837
18	0xbdbf5609	-0.09342582
19	0xbe859bbf	-0.26095387
20	0x3e6ed21e	0.23322341
21	0xbe7c4a9e	-0.24637839
22	0x3f1396f5	0.5765222
23	0xbefbf988	-0.49213815
24	0x3f2aea4a	0.66763747
25	0xbeb260c0	-0.3483944
26	0x3e7a85d7	0.24465118
27	0x3ec7d39b	0.3902863
28	0x3f01f529	0.5076471
29	0x3dc9537f	0.09830379
30	0xbe873e62	-0.26414782
31	0x3f098550	0.53719044
32	0x3df8392f	0.12120282
33	0x3e38d868	0.18051302
34	0xbf2d8d89	-0.6779409
35	0xbeee7f4e	-0.465815
36	0xbedd9a25	-0.43281665
37	0x3d6cf5cd	0.0578516
38	0xbe1e5505	-0.1546212
39	0xbe386e58	-0.18010843
40	0xbd0b49f2	-0.034006067
41	0x3efc7c65	0.49313655
42	0xbe1d199e	-0.15341803
43	0x3f004a7e	0.50113666
44	0xbe151f4f	-0.14562725
45	0x3ea60e16	0.32432622
46	0xbe8c26f3	-0.27373466
47	0x3e3fa8a6	0.18716678
48	0x3e6cd506	0.23128137
49	0xbc742aa0	-0.014902741
50	0x3ceb9a12	0.02875999
51	0x3e28b5ad	0.16475554
52	0xbefa9446	-0.4894125
53	0xbf05624d	-0.5210312
54	0xbee7e4e4	-0.45291817
55	0x3e919758	0.2843578
56	0xbf25a910	-0.64711094
57	0x3f26e6a2	0.6519567
58	0x3f359bf6	0.709411
59	0xbd89d120	-0.067293406
60	0xbd77b28e	-0.060473017
61	0x3e9b807c	0.30371463
62	0xbf0467b3	-0.5172073
63	0x3e7975e4	0.24361378
64	0xbf7e204d	-0.9926804
65	0x3d80dc1e	0.06291984
66	0xbe559b66	-0.20860061
67	0x3f0c265a	0.5474602
68	0x3e55208b	0.20813195
69	0x3f268a90	0.6505518
70	0x3dc6b07e	0.09701632
71	0x3f30aa2e	0.69009674
72	0xbf02e6a8	-0.51133204
73	0x3dfb015e	0.1225612
74	0xbd9c3b29	-0.076284714
75	0x3edda946	0.43293208
76	0xbe82083a	-0.253969
77	0xbf20b944	-0.6278269
78	0x3cfcffe2	0.030883733
79	0xbd94d1af	-0.072665565
80	0xbdcf9915	-0.1013662
81	0xbd4d56fb	-0.05013178
82	0x3e44ba72	0.19211748
83	0xbf245d90	-0.64205265
84	0xbf2d6154	-0.67726636
85	0xbf076ec4	-0.5290339
86	0xbeb5899a	-0.35456544
87	0xbdacb954	-0.08433786
88	0xbeb77264	-0.3582946
89	0x3efc41b7	0.49268886
90	0x3e6b426f	0.22974561
91	0x3f1ecb9e	0.62029445
92	0xbe315afb	-0.17319863
93	0x3f29cc21	0.663271
94	0x3f39b912	0.7254802
95	0x3dd14967	0.102190785
96	0x3e5713e4	0.21003681
97	0x3e3eadfb	0.18621056
98	0x3eb5bc7e	0.3549537
99	0x3f5fc101	0.87403876
100	0xbce41497	-0.02784185
101	0x3f00130b	0.5002906
102	0xbf221617	-0.63314956
103	0xbc2686b9	-0.010163956
104	0x3eed84a7	0.46390268
105	0xbf5cae32	-0.862033
106	0x3edc46ac	0.43022668
107	0x3ded022a	0.115726784
108	0x3f232ec8	0.6374326
109	0x3f11245f	0.5669612
110	0x3f2548f9	0.6456447
111	0x3d5f690e	0.054543547
112	0x3ef868cc	0.48517454
113	0x3ea749a4	0.3267337
114	0xbf119dbf	-0.56881326
115	0x3efb0a32	0.49031216
116	0xbe471de8	-0.19445002
117	0x3e9002ec	0.2812723
118	0xbe2b2deb	-0.16716735
119	0xbd837a80	-0.064198494
120	0x3dd873cd	0.10568962
121	0xbb58f70a	-0.003310623
122	0xbf067a5d	-0.5253046
123	0xbeec9ad9	-0.4621189
124	0x3f2e344d	0.68048555
125	0x3c06a596	0.00821819
126	0x3e47d742	0.19515708
127	0x3e82fb05	0.25582138

decoders.0.decoder_net.2.weight f4 [128, 128]
0	0xbea64849	-0.32477024
1	0x3e557857	0.20846687
2	0xbdf98a90	-0.12184632
3	0xbe52bb2c	-0.20579213
4	0xbd8ce7b4	-0.06880131
5	0xbe6c029e	-0.23047873
6	0xbcba1f0a	-0.022719879
7	0x3ddae7e4	0.10688761
8	0xbe5c8883	-0.2153645
9	0xbdb7a4f9	-0.08967013
10	0xbdb0f7f8	-0.08641046
11	0x3ec40cc5	0.38290992
12	0x3d1c0e58	0.038099617
13	0x3b3c99a2	0.0028778096
14	0x3eac2d57	0.33628342
15	0x3ec7aa80	0.3899727
16	0x3ebdd2d6	0.37074918
17	0x3b831a22	0.004000918
18	0x3cdaab5b	0.026693037
19	0xbac3ac86	-0.0014928735
20	0x3e2b573e	0.16732499
21	0xbe9babb0	-0.30404425
22	0xbdcd4718	-0.10023326
23	0x3ebcada1	0.36851218
24	0x3d3cb85f	0.046074267
25	0xbed25348	-0.41079164
26	0xbeb9b7a2	-0.36272913
27	0xbd79d459	-0.060993526
28	0xbcd01056	-0.025398415
29	0x3d2234bb	0.03960107
30	0x3ee6f43b	0.45108208
31	0xbe3a6ca1	-0.18205501
32	0x3e328efe	0.1743736
33	0xbd6dff7d	-0.05810498
34	0xbedd6e1a	-0.43248063
35	0x3e57ae2a	0.21062532
36	0xbeaa5042	-0.33264357
37	0xbe233a8b	-0.15940301
38	0xbe5d8d3d	-0.2163591
39	0xbe90c2eb	-0.2827371
40	0x3e8486b8	0.25884032
41	0xbdd19103	-0.10232737
42	0x3d9b3ec6	0.075803325
43	0xbd275a2b	-0.040857475
44	0x3f10660c	0.5640571
45	0x3ef4d7fb	0.4782103
46	0xbe465916	-0.19369921
47	0xbdf1b556	-0.11802165
48	0xbdfde21a	-0.12396641
49	0x3d94ce54	0.072659165
50	0xbe2c537b	-0.1682872
51	0x3e259cf8	0.1617316
52	0xbdfcdc19	-0.12346668
53	0xbef1b0ac	-0.47205102
54	0x3ecd7d0c	0.40134466
55	0x3e9251cd	0.28578034
56	0xbea1f282	-0.3163033
57	0xbd990487	-0.07471567
58	0xb9f30ad5	-0.00046356642
59	0x3e80b304	0.25136578
60	0xbe83744d	-0.25674668
61	0x3dce3591	0.10068811
62	0xbe914841	-0.28375438
63	0x3e90cbe2	0.2828055
64	0xbdce4b40	-0.100729465
65	0x3d117bc3	0.03551842
66	0x3ed5c498	0.41751552
67	0xbdded966	-0.10881309
68	0x3eb6b7a9	0.35686997
69	0xbe065e6c	-0.13121957
70	0x3d52926e	0.051409177
71	0x3d7c3d90	0.061582148
72	0xbef9d2c4	-0.48793614
73	0x3ce2ca4c	0.027684353
74	0xbdb7d73b	-0.08976599
75	0xbd7cbae4	-0.06170167
76	0x3d12fc1a	0.035884954
77	0x3d4c60bd	0.049896944
78	0xbc5b4d8c	-0.013385188
79	0xbd89008d	-0.06689558
80	0xbe0ffb82	-0.14060786
81	0x3d2e3012	0.042526312
82	0xbda36386	-0.07977967
83	0x3f0cf753	0.55064887
84	0x3e6aa320	0.2291379
85	0xbdadf9f8	-0.084949434
86	0x3d1a9a64	0.037744895
87	0x3ce83ed9	0.02835028
88	0xbd73c560	-0.059514403
89	0x3e548c74	0.20756704
90	0x3df6bd0e	0.12047778
91	0xbd8b487e	-0.06800936
92	0xbd404b4b	-0.046946805
93	0x3dd290cf	0.10281526
94	0xbe27effc	-0.1640014
95	0x3ddc813b	0.10766836
96	0x3e1ad7a9	0.1512133
97	0x3ec81f06	0.3908617
98	0x3d907a67	0.070545964
99	0xbdaf7281	-0.08566762
100	0x3b603e29	0.0034216738
101	0xbe106123	-0.14099555
102	0xbdbc2f44	-0.09188703
103	0xbe9cf289	-0.3065379
104	0xbd8f2943	-0.06990292
105	0xbe0bee41	-0.13665105
106	0xbd5ebdab	-0.0543801
107	0xbe849b0a	-0.25899535
108	0x3d2fe0a8	0.04293886
109	0xbe470659	-0.19436015
110	0xbde66b28	-0.11250907
111	0xbe23266b	-0.15932624
112	0x3d707791	0.058707777
113	0xbd5f89d3	-0.0545748
114	0xbe9caa63	-0.30598745
115	0xbc0d1753	-0.008611518
116	0x3ebb678d	0.3660244
117	0x3b14bc2e	0.0022695172
118	0xbe9feb92	-0.31234413
119	0xbd0c4485	-0.034245033
120	0x3dd66e22	0.10470225
121	0xbe5d6cd5	-0.21623547
122	0xbeded139	-0.43519
123	0xbead6e73	-0.3387333
124	0xbd50e422	-0.050998814
125	0x3ee4d155	0.44690958
126	0xbe2cc838	-0.16873252
127	0xbe5e2bca	-0.21696392
128	0xbd772a3c	-0.060343012
129	0x3de2c508	0.11072737
130	0x3c2803ec	0.010254841
131	0x3db01531	0.08597792
132	0xbc5fecca	-0.013667295
133	0x3d73dc72	0.059536405
134	0x3d932eea	0.071866825
135	0x3b87ab23	0.004140274
136	0x3be57ba9	0.007003267
137	0xbd2fce9f	-0.04292166
138	0xbc72a1d6	-0.0148090925
139	0x3c86f681	0.016474964
140	0xbc5eb47e	-0.013592837
141	0x3c9a5821	0.018840851
142	0x3d9cd5dd	0.07657979
143	0xbc425ca8	-0.011862911
144	0xbcd8950f	-0.026438264
145	0xbd5f6f75	-0.054549653
146	0xbda5f8d5	-0.081041016
147	0xbd263ef0	-0.040587366
148	0x3cc55cef	0.024092166
149	0xbda606d5	-0.08106772
150	0xbc72398c	-0.014784228
151	0xbc2131e1	-0.009838552
152	0xbcf3c531	-0.029757114
153	0x3bf689d3	0.007523754
154	0x3dcb33e7	0.09922009
155	0xbd0c84ac	-0.034306213
156	0xbbc9d3bf	-0.0061592753
157	0x3ba37d49	0.0049893004
158	0xbd6ce229	-0.05783287
159	0x3d3c29b0	0.045938194
160	0x3d55e19f	0.052217122
161	0xbddb6f69	-0.10714609
162	0x3d54cf01	0.051955227
163	0x3d108ec5	0.035292406
164	0x3dda3b67	0.10655861
165	0x3cccd6f1	0.025004836
166	0xbd9cffbf	-0.07665967
167	0x3c2b174c	0.010442566
168	0x3db0d810	0.08634961
169	0x3c8f7dc6	0.017516028
170	0xbb847310	-0.004042037
171	0xbd1af094	-0.03782709
172	0xbcd36994	-0.02580718
173	0xbcb50f06	-0.02210189
174	0xbd94c2fa	-0.07263751
175	0xbd241d62	-0.040067084
176	0x3dc89d1d	0.09795592
177	0xbd717520	-0.05894959
178	0xbe0419a5	-0.12900408
179	0x3d6b2b29	0.057414208
180	0xbe5a13ab	-0.21296565
181	0x3dcb8b84	0.0993872
182	0x3b822bfa	0.0039725276
183	0x3dc0b7b0	0.094100356
184	0xbd77417f	-0.060365196
185	0x3d8db044	0.069183856
186	0x3dc8c3af	0.09802949
187	0x3d954414	0.072883755
188	0x3dbea04a	0.093079165
189	0x3d314fb7	0.043288913
190	0x3e3873e8	0.18012965
191	0xbd31a698	-0.043371767
192	0xbc8e2fe7	-0.017356826
193	0x3cbea429	0.023271637
194	0x3d9ac2b1	0.07556666
195	0x3dd9b8e7	0.106309704
196	0x3da1f6de	0.07908414
197	0xbcf2da46	-0.029645097
198	0x3cf75107	0.030190004
199	0xbcf1aeab	-0.029502233
200	0xbcbd69d8	-0.02312176
201	0x3cc6bb38	0.024259195
202	0x3d10a2fc	0.035311684
203	0xbd5c9eee	-0.053862505
204	0xbd9a9f57	-0.07549923
205	0x3c4c2d9c	0.012462046
206	0x3dd74683	0.10511496
207	0x3c1547ea	0.009111384
208	0xbcca26b2	-0.024676654
209	0x3d922b9d	0.07137225
210	0xbd2d4c9d	-0.042309392
211	0x3da0bede	0.07848905
212	0xbe3cd5fa	-0.18441
213	0xbcda9d0a	-0.02668621
214	0xbdcaaa26	-0.098957345
215	0x3c361229	0.011112728
216	0x3d98b8a1	0.0745709
217	0xbd7efa36	-0.06225034
218	0x374d8ec8	1.2252196e-05
219	0xbcf0747b	-0.029352417
220	0x3b7caba6	0.003855446
221	0x3d1af8ea	0.03783504
222	0xbd81c71c	-0.06336805
223	0xbc1c7725	-0.009549891
224	0x3db89882	0.090134636
225	0xbd39be39	-0.045347426
226	0x3d96d0cf	0.07364046
227	0xbf11646b	-0.5679385
228	0xbe077bd6	-0.13230833
229	0x3ca9cd41	0.020727756
230	0xbac187c1	-0.0014765189
231	0x3da82142	0.082094684
232	0x3d248713	0.04016788
233	0xbe1cc92d	-0.15311117
234	0xbc53518b	-0.012897859
235	0x3cf99264	0.030465312
236	0x3dad5adf	0.08464598
237	0xbc949bad	-0.018140638
238	0x3d6e6b2b	0.058207672
239	0x3c5c2442	0.013436379
240	0x3d27138f	0.040790137
241	0x3cc8b995	0.024502555
242	0xbe2f45f7	-0.17116533
243	0x3d1acbc4	0.037791982
244	0x3cac89c0	0.021061778
245	0x3d806516	0.062692806
246	0xbe052f48	-0.13006318
247	0xbd37a569	-0.04483548
248	0x3d5bdfd5	0.05368026
249	0xbd03711c	-0.03209029
250	0xbd729768	-0.059226424
251	0x3bb98360	0.005661413
252	0xbd907455	-0.070534386
253	0x3c63dc18	0.013907455
254	0xbcccb4c3	-0.024988538
255	0x3e542f1e	0.20721099

decoders.0.decoder_net.2.bias f4 [128]
0	0xbceff7a1	-0.029292883
1	0xbba1ba14	-0.0049355123
2	0x3d523b8e	0.051326327
3	0x3c8d81e0	0.017273843
4	0xba88a9fc	-0.0010426636
5	0xbce520c4	-0.027969725
6	0x3d6aac63	0.057293307
7	0x3d9e2672	0.077221766
8	0x3da089f3	0.07838812
9	0xbdb44b99	-0.088034816
10	0x3d80786a	0.06272967
11	0x3cb853dc	0.022500925
12	0xbc052579	-0.00812661
13	0x3d8cfcf1	0.06884182
14	0xbf34861b	-0.7051713
15	0x3dd30887	0.10304361
16	0x3d92462c	0.071422905
17	0xbd49f60e	-0.04930692
18	0xbd874b85	-0.06606201
19	0xbc737f65	-0.014861916
20	0x3d48d36a	0.049029745
21	0x3c8a8eba	0.01691376
22	0x3de69eca	0.11260755
23	0x3bd88fb1	0.006608926
24	0x3d2f7088	0.042831928
25	0xbd7cbf52	-0.061705895
26	0x3b95b70e	0.004568941
27	0x3d0fbafe	0.03509044
28	0xbd7b9b91	-0.061427657
29	0x3d44d667	0.048056033
30	0xbd549a37	-0.051904883
31	0x3d3cd685	0.04610302
32	0xbdb166d0	-0.08662188
33	0x3d9c9816	0.076461956
34	0x3d99039a	0.0747139
35	0xbdaf72f7	-0.0856685
36	0x3cee181d	0.029064232
37	0xbc00873b	-0.007844741
38	0x3d039cb6	0.032131873
39	0xbd4827f6	-0.048866235
40	0x3bd67bd6	0.006545524
41	0xbc1ebc25	-0.009688412
42	0x3ce2996b	0.027661046
43	0x3dd90e3f	0.1059842
44	0xbc996ae1	-0.018727722
45	0x3debe38d	0.11518011
46	0x3de2eea0	0.1108067
47	0x3d76f505	0.060292263
48	0x3d3ad770	0.045615613
49	0xbd69b929	-0.057061348
50	0x3de31519	0.110880084
51	0x3ca8f35f	0.02062386
52	0x3d0b8161	0.034058932
53	0xbce804a0	-0.028322518
54	0x3d2b22b1	0.04178113
55	0xbca401e1	-0.020020427
56	0xbd80f38d	-0.062964536
57	0x3d2abcba	0.04168389
58	0xbd875646	-0.06608252
59	0xbd73b36c	-0.059497282
60	0xbd544c5b	-0.05183063
61	0xbe565955	-0.20932515
62	0x3d4a87f6	0.04944607
63	0x3b580fea	0.003296847
64	0x3d48cda7	0.04902425
65	0xbd91afbf	-0.07113599
66	0xbd16dfd0	-0.036834538
67	0x3db5d1f6	0.088779375
68	0x3c8a77fd	0.016902918
69	0x3c21765e	0.009854881
70	0xbd3a7b4f	-0.045527752
71	0xbf229495	-0.6350797
72	0xbd6d68ec	-0.05796139
73	0xbbd45ea7	-0.00648101
74	0x3dba6af3	0.0910243
75	0x3db62229	0.08893234
76	0xbd461163	-0.048356425
77	0xbdace05d	-0.084412314
78	0x3cc552c6	0.024087321
79	0xbd4ad2b5	-0.049517352
80	0x3da830d8	0.08212441
81	0x3e53a123	0.20666938
82	0x3c5f9976	0.013647428
83	0x3e96c033	0.2944351
84	0x3d765574	0.06014009
85	0xbbabadaa	-0.005239208
86	0x3d55858b	0.05212931
87	0xbd991c5d	-0.07476113
88	0xbd276f98	-0.04087791
89	0xbcf21aed	-0.029553855
90	0x3d1be3df	0.03805911
91	0xbcdfd857	-0.027324839
92	0x3b257158	0.002524456
93	0xbd0ae10d	-0.03390603
94	0xb9bcdf6f	-0.00036024625
95	0x3caadd3d	0.020857448
96	0x3d860cd8	0.065454185
97	0x3d6463da	0.05575929
98	0xbc988c63	-0.01862163
99	0x3d02498e	0.03180843
100	0x3cd89657	0.026438875
101	0xbb96306b	-0.0045834086
102	0xbd264cc7	-0.040600564
103	0x3d2e3514	0.042531088
104	0xbd9d18a9	-0.07670719
105	0x3b500c26	0.0031745522
106	0xbde7096b	-0.11281093
107	0x3d683e2f	0.056699928
108	0xba927621	-0.0011174121
109	0x3ddb50c7	0.107087664
110	0xbd3ed2f9	-0.046587918
111	0xbcbc7d3f	-0.02300894
112	0x3da72b4a	0.081625536
113	0x3d62834c	0.055300996
114	0xbd6d83b0	-0.057986915
115	0xbd5cde7d	-0.05392312
116	0x3d99d008	0.07510382
117	0x3d520765	0.051276583
118	0xbd239cd7	-0.039944496
119	0xbb0c67cb	-0.002142417
120	0x3d9b6253	0.07587113
121	0x3a216ce4	0.00061578886
122	0x3d5ad922	0.05342973
123	0xbcae444b	-0.021272799
124	0x3daa656c	0.08320126
125	0xbd3537a3	-0.044242512
126	0xbd348b5b	-0.044078212
127	0xbd91ca4f	-0.071186654
