src/artifacts/spline_ensemble_optimized_seed12_p10_rerun2_dec0.pt (torch, 92253 bytes, 180 tensors)

a f4 [2]
0	0x3fb9e959	1.4524337
1	0x3fc33d28	1.5253038

b f4 [2]
0	0x3fb7a7c9	1.4348079
1	0x3f122f41	0.57103354

omega_init f4 [5, 2]
0	0xbe2b5171	-0.16730286
1	0xbe98cef5	-0.29845396
2	0xbe5a5781	-0.21322443
3	0x3d98fef6	0.07470505
4	0xbcf065c5	-0.029345402
5	0xbded9cb7	-0.116021566
6	0x3d7edca0	0.062222123
7	0x3cd8f196	0.026482385
8	0x3ea4de41	0.32200816
9	0x3d1f8e0a	0.03895382

omega_optimized f4 [5, 2]
0	0xbe2b5171	-0.16730286
1	0xbe98cef5	-0.29845396
2	0xbe5a5781	-0.21322443
3	0x3d98fef6	0.07470505
4	0xbcf065c5	-0.029345402
5	0xbded9cb7	-0.116021566
6	0x3d7edca0	0.062222123
7	0x3cd8f196	0.026482385
8	0x3ea4de41	0.32200816
9	0x3d1f8e0a	0.03895382

a f4 [2]
0	0x3fb9e959	1.4524337
1	0x3fc33d28	1.5253038

b f4 [2]
0	0x40122b88	2.283907
1	0x3f9d0bbb	1.2269205

omega_init f4 [5, 2]
0	0xbe748b92	-0.23881367
1	0xbebdb6c2	-0.37053496
2	0xbe70bc09	-0.2350923
3	0x3e1561e8	0.1458813
4	0xbd953642	-0.072857395
5	0xbea8c006	-0.32959002
6	0x3bbecd68	0.005822826
7	0x3e90062f	0.28129718
8	0x3e8b052b	0.2715238
9	0x3e640373	0.22266941

omega_optimized f4 [5, 2]
0	0xbe748b92	-0.23881367
1	0xbebdb6c2	-0.37053496
2	0xbe70bc09	-0.2350923
3	0x3e1561e8	0.1458813
4	0xbd953642	-0.072857395
5	0xbea8c006	-0.32959002
6	0x3bbecd68	0.005822826
7	0x3e90062f	0.28129718
8	0x3e8b052b	0.2715238
9	0x3e640373	0.22266941

a f4 [2]
0	0x3fb9e959	1.4524337
1	0x3fc33d28	1.5253038

b f4 [2]
0	0x400e9816	2.2280326
1	0x3f8ef3ec	1.1168189

omega_init f4 [5, 2]
0	0xbe8af7ad	-0.27142087
1	0xbec07d2b	-0.37595496
2	0xbe8fcdaa	-0.28086597
3	0x3e24081e	0.16018721
4	0xbdcdd51a	-0.100504115
5	0xbeaf0148	-0.34180665
6	0x3d832177	0.06402867
7	0x3e8f7787	0.2802088
8	0x3eb2dc1f	0.34933564
9	0x3e636e49	0.22210039

omega_optimized f4 [5, 2]
0	0xbe8af7ad	-0.27142087
1	0xbec07d2b	-0.37595496
2	0xbe8fcdaa	-0.28086597
3	0x3e24081e	0.16018721
4	0xbdcdd51a	-0.100504115
5	0xbeaf0148	-0.34180665
6	0x3d832177	0.06402867
7	0x3e8f7787	0.2802088
8	0x3eb2dc1f	0.34933564
9	0x3e636e49	0.22210039

a f4 [2]
0	0x3fb9e959	1.4524337
1	0x3fc33d28	1.5253038

b f4 [2]
0	0xbf2d7afe	-0.67765796
1	0x3fb80440	1.4376297

omega_init f4 [5, 2]
0	0x3dc472eb	0.09592231
1	0xbea12b66	-0.31478423
2	0x3eefd613	0.46843013
3	0xbe627446	-0.22114667
4	0x3ec82f6a	0.39098674
5	0xbea0b17d	-0.31385413
6	0x3e2a8d20	0.16655397
7	0x3d3e015a	0.046388008
8	0x3e5a3835	0.21310504
9	0x3e55ac95	0.20866616

omega_optimized f4 [5, 2]
0	0x3dc472eb	0.09592231
1	0xbea12b66	-0.31478423
2	0x3eefd613	0.46843013
3	0xbe627446	-0.22114667
4	0x3ec82f6a	0.39098674
5	0xbea0b17d	-0.31385413
6	0x3e2a8d20	0.16655397
7	0x3d3e015a	0.046388008
8	0x3e5a3835	0.21310504
9	0x3e55ac95	0.20866616

a f4 [2]
0	0x3fb9e959	1.4524337
1	0x3fc33d28	1.5253038

b f4 [2]
0	0xbfac55f7	-1.3463734
1	0x40063d7f	2.0975034

omega_init f4 [5, 2]
0	0x3e65fec3	0.22460465
1	0xbeea49d3	-0.45759448
2	0x3f1d341a	0.61407626
3	0x3e46232e	0.19349357
4	0x3f169377	0.58818763
5	0xbf283340	-0.657032
6	0x3f1aba9b	0.6044099
7	0xbf1e974c	-0.6194961
8	0xbe957e7b	-0.2919806
9	0x3ea1b9bd	0.3158702

omega_optimized f4 [5, 2]
0	0x3e65fec3	0.22460465
1	0xbeea49d3	-0.45759448
2	0x3f1d341a	0.61407626
3	0x3e46232e	0.19349357
4	0x3f169377	0.58818763
5	0xbf283340	-0.657032
6	0x3f1aba9b	0.6044099
7	0xbf1e974c	-0.6194961
8	0xbe957e7b	-0.2919806
9	0x3ea1b9bd	0.3158702

a f4 [2]
0	0x3fb9e959	1.4524337
1	0x3fc33d28	1.5253038

b f4 [2]
0	0xbf379db7	-0.7172503
1	0x3fa8536b	1.3150457

omega_init f4 [5, 2]
0	0x3daab036	0.08334391
1	0xbe8ea469	-0.2785981
2	0x3edf1b23	0.4357539
3	0xbe1775f0	-0.14791083
4	0x3ec5da89	0.38643292
5	0xbe985d8f	-0.2975888
6	0x3e8a3f91	0.27001622
7	0xbce60fe0	-0.028083742
8	0x3e19efe9	0.15032925
9	0x3dd90337	0.10596316

omega_optimized f4 [5, 2]
0	0x3daab036	0.08334391
1	0xbe8ea469	-0.2785981
2	0x3edf1b23	0.4357539
3	0xbe1775f0	-0.14791083
4	0x3ec5da89	0.38643292
5	0xbe985d8f	-0.2975888
6	0x3e8a3f91	0.27001622
7	0xbce60fe0	-0.028083742
8	0x3e19efe9	0.15032925
9	0x3dd90337	0.10596316

a f4 [2]
0	0x3fb9e959	1.4524337
1	0x3fc33d28	1.5253038

b f4 [2]
0	0xbf923a7f	-1.1424102
1	0x3fb31534	1.3990846

omega_init f4 [5, 2]
0	0x3e09ebf1	0.13468911
1	0xbec2cf44	-0.38048756
2	0x3f019c5a	0.506292
3	0xbe26c1bc	-0.16284841
4	0x3efd6b34	0.49495852
5	0xbee93f08	-0.45555902
6	0x3f104c28	0.56366205
7	0x3c5f03f3	0.013611781
8	0xbe9580c7	-0.29199812
9	0xbe564c88	-0.20927632

omega_optimized f4 [5, 2]
0	0x3e09ebf1	0.13468911
1	0xbec2cf44	-0.38048756
2	0x3f019c5a	0.506292
3	0xbe26c1bc	-0.16284841
4	0x3efd6b34	0.49495852
5	0xbee93f08	-0.45555902
6	0x3f104c28	0.56366205
7	0x3c5f03f3	0.013611781
8	0xbe9580c7	-0.29199812
9	0xbe564c88	-0.20927632

a f4 [2]
0	0x3fb9e959	1.4524337
1	0x3fc33d28	1.5253038

b f4 [2]
0	0xbf9d3aa9	-1.2283527
1	0x3fcc3e72	1.5956557

omega_init f4 [5, 2]
0	0x3e3f1529	0.18660416
1	0xbeccf4f8	-0.40030646
2	0x3f0b8797	0.5450377
3	0x3ed283bf	0.4111614
4	0x3f15ebe9	0.58563095
5	0xbf07a71d	-0.5298937
6	0x3f14e6cc	0.5816467
7	0xbefa0d00	-0.48838043
8	0xbe57f271	-0.21088578
9	0xbeaf481d	-0.34234706

omega_optimized f4 [5, 2]
0	0x3e3f1529	0.18660416
1	0xbeccf4f8	-0.40030646
2	0x3f0b8797	0.5450377
3	0x3ed283bf	0.4111614
4	0x3f15ebe9	0.58563095
5	0xbf07a71d	-0.5298937
6	0x3f14e6cc	0.5816467
7	0xbefa0d00	-0.48838043
8	0xbe57f271	-0.21088578
9	0xbeaf481d	-0.34234706

a f4 [2]
0	0x3fb9e959	1.4524337
1	0x3fc33d28	1.5253038

b f4 [2]
0	0xbfbeada0	-1.4896736
1	0x3fc1e3f3	1.514769

omega_init f4 [5, 2]
0	0x3e8661c9	0.2624648
1	0xbebbb719	-0.3666313
2	0x3f296677	0.66171974
3	0x3f11fc80	0.5702591
4	0x3f251ee5	0.64500266
5	0xbf0035b6	-0.50081956
6	0x3f2600e7	0.64845127
7	0xbf24d3ac	-0.64385486
8	0xbec4840f	-0.38382003
9	0xbe9ed227	-0.3101971

omega_optimized f4 [5, 2]
0	0x3e8661c9	0.2624648
1	0xbebbb719	-0.3666313
2	0x3f296677	0.66171974
3	0x3f11fc80	0.5702591
4	0x3f251ee5	0.64500266
5	0xbf0035b6	-0.50081956
6	0x3f2600e7	0.64845127
7	0xbf24d3ac	-0.64385486
8	0xbec4840f	-0.38382003
9	0xbe9ed227	-0.3101971

a f4 [2]
0	0x3fb7a7c9	1.4348079
1	0x3f122f41	0.57103354

b f4 [2]
0	0x40122b88	2.283907
1	0x3f9d0bbb	1.2269205

omega_init f4 [5, 2]
0	0xbdd057dd	-0.101730086
1	0xbce00661	-0.027346792
2	0xbcd656fa	-0.02616452
3	0xbd4cdefd	-0.050017346
4	0xbe098ba2	-0.13432172
5	0x3cdab7aa	0.026698906
6	0x3d27c65f	0.040960666
7	0xbcf0715f	-0.029350935
8	0x3d7378a0	0.05944121
9	0xbd25c074	-0.04046674

omega_optimized f4 [5, 2]
0	0xbdd057dd	-0.101730086
1	0xbce00661	-0.027346792
2	0xbcd656fa	-0.02616452
3	0xbd4cdefd	-0.050017346
4	0xbe098ba2	-0.13432172
5	0x3cdab7aa	0.026698906
6	0x3d27c65f	0.040960666
7	0xbcf0715f	-0.029350935
8	0x3d7378a0	0.05944121
9	0xbd25c074	-0.04046674

a f4 [2]
0	0x3fb7a7c9	1.4348079
1	0x3f122f41	0.57103354

b f4 [2]
0	0x400e9816	2.2280326
1	0x3f8ef3ec	1.1168189

omega_init f4 [5, 2]
0	0xbd5a68fc	-0.053322777
1	0xbc34fdf7	-0.011046878
2	0xbc8d44f0	-0.017244786
3	0xbd3cf2cf	-0.046129998
4	0xbdadecf5	-0.084924616
5	0x3c324507	0.010880715
6	0x3d64b395	0.055835325
7	0xbcfb58d6	-0.030682009
8	0x3d185734	0.03719254
9	0xbcdbec37	-0.026846034

omega_optimized f4 [5, 2]
0	0xbd5a68fc	-0.053322777
1	0xbc34fdf7	-0.011046878
2	0xbc8d44f0	-0.017244786
3	0xbd3cf2cf	-0.046129998
4	0xbdadecf5	-0.084924616
5	0x3c324507	0.010880715
6	0x3d64b395	0.055835325
7	0xbcfb58d6	-0.030682009
8	0x3d185734	0.03719254
9	0xbcdbec37	-0.026846034

a f4 [2]
0	0x3fb7a7c9	1.4348079
1	0x3f122f41	0.57103354

b f4 [2]
0	0xbf2d7afe	-0.67765796
1	0x3fb80440	1.4376297

omega_init f4 [5, 2]
0	0xbe0af160	-0.1356864
1	0xbe777a8d	-0.24167843
2	0x3f01d80d	0.5072029
3	0x3ce670f6	0.028130036
4	0x3ebfa8f2	0.37433583
5	0xbe9f8a9f	-0.31160447
6	0x3e96b47d	0.29434577
7	0xbf0a27a1	-0.5396672
8	0x3e8ecd3f	0.27890965
9	0x3eaa0b81	0.33211902

omega_optimized f4 [5, 2]
0	0xbe0af160	-0.1356864
1	0xbe777a8d	-0.24167843
2	0x3f01d80d	0.5072029
3	0x3ce670f6	0.028130036
4	0x3ebfa8f2	0.37433583
5	0xbe9f8a9f	-0.31160447
6	0x3e96b47d	0.29434577
7	0xbf0a27a1	-0.5396672
8	0x3e8ecd3f	0.27890965
9	0x3eaa0b81	0.33211902

a f4 [2]
0	0x3fb7a7c9	1.4348079
1	0x3f122f41	0.57103354

b f4 [2]
0	0xbfac55f7	-1.3463734
1	0x40063d7f	2.0975034

omega_init f4 [5, 2]
0	0x3b5b07a8	0.0033421312
1	0xbf063e35	-0.5243867
2	0x3f2e046b	0.6797549
3	0xbc2562bd	-0.010094342
4	0x3f0c9e29	0.54928833
5	0xbf221d1a	-0.63325655
6	0x3f2e8abb	0.68180436
7	0xbf0efe7d	-0.5585707
8	0xbe931dca	-0.28733665
9	0x3e97df8c	0.2966274

omega_optimized f4 [5, 2]
0	0x3b5b07a8	0.0033421312
1	0xbf063e35	-0.5243867
2	0x3f2e046b	0.6797549
3	0xbc2562bd	-0.010094342
4	0x3f0c9e29	0.54928833
5	0xbf221d1a	-0.63325655
6	0x3f2e8abb	0.68180436
7	0xbf0efe7d	-0.5585707
8	0xbe931dca	-0.28733665
9	0x3e97df8c	0.2966274

a f4 [2]
0	0x3fb7a7c9	1.4348079
1	0x3f122f41	0.57103354

b f4 [2]
0	0xbf379db7	-0.7172503
1	0x3fa8536b	1.3150457

omega_init f4 [5, 2]
0	0xbe04e8d0	-0.12979436
1	0xbe42dc5f	-0.19029377
2	0x3efb33dc	0.49063003
3	0x3dcc71bd	0.09982631
4	0x3ec119cb	0.3771499
5	0xbe7d7bb1	-0.24754216
6	0x3eaf33c0	0.3421917
7	0xbf0a66cf	-0.54063123
8	0x3e6104fb	0.21974556
9	0x3ea47d52	0.32126862

omega_optimized f4 [5, 2]
0	0xbe04e8d0	-0.12979436
1	0xbe42dc5f	-0.19029377
2	0x3efb33dc	0.49063003
3	0x3dcc71bd	0.09982631
4	0x3ec119cb	0.3771499
5	0xbe7d7bb1	-0.24754216
6	0x3eaf33c0	0.3421917
7	0xbf0a66cf	-0.54063123
8	0x3e6104fb	0.21974556
9	0x3ea47d52	0.32126862

a f4 [2]
0	0x3fb7a7c9	1.4348079
1	0x3f122f41	0.57103354

b f4 [2]
0	0xbf923a7f	-1.1424102
1	0x3fb31534	1.3990846

omega_init f4 [5, 2]
0	0xbdc5988d	-0.096482374
1	0xbe9c8e70	-0.3057742
2	0x3f0adf71	0.54247195
3	0x3ea8fb1a	0.33004075
4	0x3f095121	0.5363942
5	0xbe8672de	-0.26259512
6	0x3f36d2a9	0.7141519
7	0xbf26130e	-0.64872825
8	0xbe50e5cf	-0.20400165
9	0x3cf7a955	0.030232111

omega_optimized f4 [5, 2]
0	0xbdc5988d	-0.096482374
1	0xbe9c8e70	-0.3057742
2	0x3f0adf71	0.54247195
3	0x3ea8fb1a	0.33004075
4	0x3f095121	0.5363942
5	0xbe8672de	-0.26259512
6	0x3f36d2a9	0.7141519
7	0xbf26130e	-0.64872825
8	0xbe50e5cf	-0.20400165
9	0x3cf7a955	0.030232111

a f4 [2]
0	0x3fb7a7c9	1.4348079
1	0x3f122f41	0.57103354

b f4 [2]
0	0xbf9d3aa9	-1.2283527
1	0x3fcc3e72	1.5956557

omega_init f4 [5, 2]
0	0xbd9a1b86	-0.07524781
1	0xbeb8dcc3	-0.36105928
2	0x3f15563c	0.5833471
3	0x3e858354	0.26076758
4	0x3f129099	0.5725189
5	0xbefd076b	-0.49419722
6	0x3f384ec1	0.7199517
7	0xbf1f12ba	-0.6213795
8	0xbe83a6d1	-0.25713208
9	0xbcacb10a	-0.021080513

omega_optimized f4 [5, 2]
0	0xbd9a1b86	-0.07524781
1	0xbeb8dcc3	-0.36105928
2	0x3f15563c	0.5833471
3	0x3e858354	0.26076758
4	0x3f129099	0.5725189
5	0xbefd076b	-0.49419722
6	0x3f384ec1	0.7199517
7	0xbf1f12ba	-0.6213795
8	0xbe83a6d1	-0.25713208
9	0xbcacb10a	-0.021080513

a f4 [2]
0	0x3fb7a7c9	1.4348079
1	0x3f122f41	0.57103354

b f4 [2]
0	0xbfbeada0	-1.4896736
1	0x3fc1e3f3	1.514769

omega_init f4 [5, 2]
0	0x3cecad0d	0.02889111
1	0xbebb00e0	-0.36524105
2	0x3f344823	0.7042257
3	0x3eba8f7d	0.36437598
4	0x3f10282a	0.56311285
5	0xbeba66c7	-0.36406538
6	0x3f416171	0.7553931
7	0xbf295a9c	-0.66153884
8	0xbee150cd	-0.4400696
9	0xbdac8169	-0.084231205

omega_optimized f4 [5, 2]
0	0x3cecad0d	0.02889111
1	0xbebb00e0	-0.36524105
2	0x3f344823	0.7042257
3	0x3eba8f7d	0.36437598
4	0x3f10282a	0.56311285
5	0xbeba66c7	-0.36406538
6	0x3f416171	0.7553931
7	0xbf295a9c	-0.66153884
8	0xbee150cd	-0.4400696
9	0xbdac8169	-0.084231205

a f4 [2]
0	0x40122b88	2.283907
1	0x3f9d0bbb	1.2269205

b f4 [2]
0	0x400e9816	2.2280326
1	0x3f8ef3ec	1.1168189

omega_init f4 [5, 2]
0	0x38e6a5d2	0.00010998141
1	0xb8ffa615	-0.00012190283
2	0xb9d89f3b	-0.00041317366
3	0x38d018a9	9.922806e-05
4	0x3a07259f	0.0005155447
5	0xb8fd3277	-0.0001207338
6	0xb9fa25b9	-0.0004771182
7	0x3904c584	0.00012662081
8	0xb9f56e3c	-0.00046812173
9	0x38f3a26e	0.00011617398

omega_optimized f4 [5, 2]
0	0x38e6a5d2	0.00010998141
1	0xb8ffa615	-0.00012190283
2	0xb9d89f3b	-0.00041317366
3	0x38d018a9	9.922806e-05
4	0x3a07259f	0.0005155447
5	0xb8fd3277	-0.0001207338
6	0xb9fa25b9	-0.0004771182
7	0x3904c584	0.00012662081
8	0xb9f56e3c	-0.00046812173
9	0x38f3a26e	0.00011617398

a f4 [2]
0	0x40122b88	2.283907
1	0x3f9d0bbb	1.2269205

b f4 [2]
0	0xbf2d7afe	-0.67765796
1	0x3fb80440	1.4376297

omega_init f4 [5, 2]
0	0xbe1758ad	-0.14779921
1	0xbf21ee2a	-0.63254035
2	0x3ed8162a	0.4220441
3	0xbf0253d6	-0.50909173
4	0x3d62d794	0.055381373
5	0xbf31f9e0	-0.69521904
6	0xbf55f8de	-0.83582866
7	0xbf12f583	-0.5740587
8	0x3ee84e29	0.4537213
9	0x3f0280fa	0.5097805

omega_optimized f4 [5, 2]
0	0xbe1758ad	-0.14779921
1	0xbf21ee2a	-0.63254035
2	0x3ed8162a	0.4220441
3	0xbf0253d6	-0.50909173
4	0x3d62d794	0.055381373
5	0xbf31f9e0	-0.69521904
6	0xbf55f8de	-0.83582866
7	0xbf12f583	-0.5740587
8	0x3ee84e29	0.4537213
9	0x3f0280fa	0.5097805

a f4 [2]
0	0x40122b88	2.283907
1	0x3f9d0bbb	1.2269205

b f4 [2]
0	0xbfac55f7	-1.3463734
1	0x40063d7f	2.0975034

omega_init f4 [5, 2]
0	0xbe58b913	-0.2116435
1	0xbf613931	-0.8797789
2	0x3f206ab1	0.626628
3	0xbf18e3a0	-0.5972233
4	0x3ec5579c	0.38543403
5	0xbf684287	-0.9072651
6	0xbe6c911c	-0.2310223
7	0xbf427097	-0.7595305
8	0xbe38fd61	-0.18065406
9	0x3f47a4b0	0.7798567

omega_optimized f4 [5, 2]
0	0xbe58b913	-0.2116435
1	0xbf613931	-0.8797789
2	0x3f206ab1	0.626628
3	0xbf18e3a0	-0.5972233
4	0x3ec5579c	0.38543403
5	0xbf684287	-0.9072651
6	0xbe6c911c	-0.2310223
7	0xbf427097	-0.7595305
8	0xbe38fd61	-0.18065406
9	0x3f47a4b0	0.7798567

a f4 [2]
0	0x40122b88	2.283907
1	0x3f9d0bbb	1.2269205

b f4 [2]
0	0xbf379db7	-0.7172503
1	0x3fa8536b	1.3150457

omega_init f4 [5, 2]
0	0xbe4bdc9e	-0.19908378
1	0xbf1bdb6e	-0.608817
2	0x3ecf797f	0.40522382
3	0xbed2ab29	-0.4114621
4	0x3de9c8cf	0.11415254
5	0xbf313a41	-0.69229513
6	0xbf4ebe95	-0.80759555
7	0xbf126f3b	-0.57200974
8	0x3eccdbad	0.4001135
9	0x3ecaa72c	0.39580667

omega_optimized f4 [5, 2]
0	0xbe4bdc9e	-0.19908378
1	0xbf1bdb6e	-0.608817
2	0x3ecf797f	0.40522382
3	0xbed2ab29	-0.4114621
4	0x3de9c8cf	0.11415254
5	0xbf313a41	-0.69229513
6	0xbf4ebe95	-0.80759555
7	0xbf126f3b	-0.57200974
8	0x3eccdbad	0.4001135
9	0x3ecaa72c	0.39580667

a f4 [2]
0	0x40122b88	2.283907
1	0x3f9d0bbb	1.2269205

b f4 [2]
0	0xbf923a7f	-1.1424102
1	0x3fb31534	1.3990846

omega_init f4 [5, 2]
0	0xbe749874	-0.23886281
1	0xbf23d691	-0.6399928
2	0x3f06c0d2	0.5263797
3	0xbecd15c3	-0.40055665
4	0x3ea7cad8	0.32771945
5	0xbf324ee1	-0.6965161
6	0xbf18c66a	-0.59677756
7	0xbf32f00f	-0.6989755
8	0xbdad055f	-0.0844829
9	0x3f14b89f	0.5809421

omega_optimized f4 [5, 2]
0	0xbe749874	-0.23886281
1	0xbf23d691	-0.6399928
2	0x3f06c0d2	0.5263797
3	0xbecd15c3	-0.40055665
4	0x3ea7cad8	0.32771945
5	0xbf324ee1	-0.6965161
6	0xbf18c66a	-0.59677756
7	0xbf32f00f	-0.6989755
8	0xbdad055f	-0.0844829
9	0x3f14b89f	0.5809421

a f4 [2]
0	0x40122b88	2.283907
1	0x3f9d0bbb	1.2269205

b f4 [2]
0	0xbf9d3aa9	-1.2283527
1	0x3fcc3e72	1.5956557

omega_init f4 [5, 2]
0	0xbe3d4002	-0.18481448
1	0xbf3436f7	-0.7039637
2	0x3f11076c	0.5665195
3	0xbf0f4ad9	-0.55973583
4	0x3ea99a73	0.33125648
5	0xbf3d7119	-0.740007
6	0xbf0f8982	-0.56069195
7	0xbf3299dc	-0.6976602
8	0xbe2fbc92	-0.17161778
9	0x3f27e175	0.65578395

omega_optimized f4 [5, 2]
0	0xbe3d4002	-0.18481448
1	0xbf3436f7	-0.7039637
2	0x3f11076c	0.5665195
3	0xbf0f4ad9	-0.55973583
4	0x3ea99a73	0.33125648
5	0xbf3d7119	-0.740007
6	0xbf0f8982	-0.56069195
7	0xbf3299dc	-0.6976602
8	0xbe2fbc92	-0.17161778
9	0x3f27e175	0.65578395

a f4 [2]
0	0x40122b88	2.283907
1	0x3f9d0bbb	1.2269205

b f4 [2]
0	0xbfbeada0	-1.4896736
1	0x3fc1e3f3	1.514769

omega_init f4 [5, 2]
0	0xbe76ca3e	-0.24100587
1	0xbf3834dc	-0.71955657
2	0x3f2234dd	0.6336191
3	0xbeb681cc	-0.35645902
4	0x3edc3854	0.43011725
5	0xbf3e0aa1	-0.7423497
6	0xbe955593	-0.2916685
7	0xbf45d174	-0.77272725
8	0xbeada376	-0.33913773
9	0x3f2e6828	0.6812768

omega_optimized f4 [5, 2]
0	0xbe76ca3e	-0.24100587
1	0xbf3834dc	-0.71955657
2	0x3f2234dd	0.6336191
3	0xbeb681cc	-0.35645902
4	0x3edc3854	0.43011725
5	0xbf3e0aa1	-0.7423497
6	0xbe955593	-0.2916685
7	0xbf45d174	-0.77272725
8	0xbeada376	-0.33913773
9	0x3f2e6828	0.6812768

a f4 [2]
0	0x400e9816	2.2280326
1	0x3f8ef3ec	1.1168189

b f4 [2]
0	0xbf2d7afe	-0.67765796
1	0x3fb80440	1.4376297

omega_init f4 [5, 2]
0	0xbe951c73	-0.29123268
1	0xbf17830b	-0.5918433
2	0x3ed2f7ae	0.4120459
3	0xbeea245e	-0.4573087
4	0x3e304180	0.17212486
5	0xbf2537ce	-0.64538276
6	0xbf4457d3	-0.7669651
7	0xbef82a1e	-0.48469633
8	0x3ee61964	0.44941247
9	0x3ef93e6b	0.48680434

omega_optimized f4 [5, 2]
0	0xbe951c73	-0.29123268
1	0xbf17830b	-0.5918433
2	0x3ed2f7ae	0.4120459
3	0xbeea245e	-0.4573087
4	0x3e304180	0.17212486
5	0xbf2537ce	-0.64538276
6	0xbf4457d3	-0.7669651
7	0xbef82a1e	-0.48469633
8	0x3ee61964	0.44941247
9	0x3ef93e6b	0.48680434

a f4 [2]
0	0x400e9816	2.2280326
1	0x3f8ef3ec	1.1168189

b f4 [2]
0	0xbfac55f7	-1.3463734
1	0x40063d7f	2.0975034

omega_init f4 [5, 2]
0	0xbed2b526	-0.4115383
1	0xbf5e6a21	-0.8688069
2	0x3f1f297c	0.62172675
3	0xbed2cb30	-0.41170645
4	0x3ebfa2e1	0.37428954
5	0xbf612f0c	-0.8796241
6	0x3e09c90c	0.134556
7	0xbf39ad38	-0.72529936
8	0xbe3a9ce0	-0.18223906
9	0x3f46cf8e	0.77660453

omega_optimized f4 [5, 2]
0	0xbed2b526	-0.4115383
1	0xbf5e6a21	-0.8688069
2	0x3f1f297c	0.62172675
3	0xbed2cb30	-0.41170645
4	0x3ebfa2e1	0.37428954
5	0xbf612f0c	-0.8796241
6	0x3e09c90c	0.134556
7	0xbf39ad38	-0.72529936
8	0xbe3a9ce0	-0.18223906
9	0x3f46cf8e	0.77660453

a f4 [2]
0	0x400e9816	2.2280326
1	0x3f8ef3ec	1.1168189

b f4 [2]
0	0xbf379db7	-0.7172503
1	0x3fa8536b	1.3150457

omega_init f4 [5, 2]
0	0xbeae8f61	-0.34093764
1	0xbf111e70	-0.5668707
2	0x3ed09b83	0.40743646
3	0xbea56e7f	-0.32310864
4	0x3e61e03c	0.22058195
5	0xbf2085da	-0.6270424
6	0xbf3a3c83	-0.72748584
7	0xbf08fdaf	-0.5351209
8	0x3ec75902	0.38935095
9	0x3eceba0b	0.40376315

omega_optimized f4 [5, 2]
0	0xbeae8f61	-0.34093764
1	0xbf111e70	-0.5668707
2	0x3ed09b83	0.40743646
3	0xbea56e7f	-0.32310864
4	0x3e61e03c	0.22058195
5	0xbf2085da	-0.6270424
6	0xbf3a3c83	-0.72748584
7	0xbf08fdaf	-0.5351209
8	0x3ec75902	0.38935095
9	0x3eceba0b	0.40376315

a f4 [2]
0	0x400e9816	2.2280326
1	0x3f8ef3ec	1.1168189

b f4 [2]
0	0xbf923a7f	-1.1424102
1	0x3fb31534	1.3990846

omega_init f4 [5, 2]
0	0xbee29666	-0.4425537
1	0xbf1f1217	-0.6213698
2	0x3f09fe58	0.5390372
3	0xbe8347f5	-0.25640836
4	0x3ec06da6	0.37583655
5	0xbf2589dd	-0.6466349
6	0xbebfb5a9	-0.37443283
7	0xbf262e4d	-0.649144
8	0xbd8c7dda	-0.06859942
9	0x3f1aa1eb	0.6040332

omega_optimized f4 [5, 2]
0	0xbee29666	-0.4425537
1	0xbf1f1217	-0.6213698
2	0x3f09fe58	0.5390372
3	0xbe8347f5	-0.25640836
4	0x3ec06da6	0.37583655
5	0xbf2589dd	-0.6466349
6	0xbebfb5a9	-0.37443283
7	0xbf262e4d	-0.649144
8	0xbd8c7dda	-0.06859942
9	0x3f1aa1eb	0.6040332

a f4 [2]
0	0x400e9816	2.2280326
1	0x3f8ef3ec	1.1168189

b f4 [2]
0	0xbf9d3aa9	-1.2283527
1	0x3fcc3e72	1.5956557

omega_init f4 [5, 2]
0	0xbec4b39a	-0.38418275
1	0xbf2edf83	-0.683098
2	0x3f14d29a	0.5813385
3	0xbed0f277	-0.40809986
4	0x3ebf57d0	0.37371683
5	0xbf32207f	-0.69580835
6	0xbea57f93	-0.32323894
7	0xbf26c353	-0.6514179
8	0xbe34ba45	-0.17649181
9	0x3f284043	0.65723056

omega_optimized f4 [5, 2]
0	0xbec4b39a	-0.38418275
1	0xbf2edf83	-0.683098
2	0x3f14d29a	0.5813385
3	0xbed0f277	-0.40809986
4	0x3ebf57d0	0.37371683
5	0xbf32207f	-0.69580835
6	0xbea57f93	-0.32323894
7	0xbf26c353	-0.6514179
8	0xbe34ba45	-0.17649181
9	0x3f284043	0.65723056

a f4 [2]
0	0x400e9816	2.2280326
1	0x3f8ef3ec	1.1168189

b f4 [2]
0	0xbfbeada0	-1.4896736
1	0x3fc1e3f3	1.514769

omega_init f4 [5, 2]
0	0xbedd3178	-0.43201804
1	0xbf3098ab	-0.6898295
2	0x3f2613d8	0.6487403
3	0xbe3cd02c	-0.18438786
4	0x3eeeca70	0.46638823
5	0xbf369ab3	-0.713298
6	0xbd9034d3	-0.070413254
7	0xbf381370	-0.7190466
8	0xbebe24b7	-0.37137386
9	0x3f242039	0.6411167

omega_optimized f4 [5, 2]
0	0xbedd3178	-0.43201804
1	0xbf3098ab	-0.6898295
2	0x3f2613d8	0.6487403
3	0xbe3cd02c	-0.18438786
4	0x3eeeca70	0.46638823
5	0xbf369ab3	-0.713298
6	0xbd9034d3	-0.070413254
7	0xbf381370	-0.7190466
8	0xbebe24b7	-0.37137386
9	0x3f242039	0.6411167

a f4 [2]
0	0xbf2d7afe	-0.67765796
1	0x3fb80440	1.4376297

b f4 [2]
0	0xbfac55f7	-1.3463734
1	0x40063d7f	2.0975034

omega_init f4 [5, 2]
0	0x3db8e79c	0.09028551
1	0xbc98a58a	-0.018633623
2	0x3dbda51a	0.09260006
3	0xbc6d80e2	-0.01449606
4	0x3dfac377	0.12244313
5	0x3cbbcd6e	0.022925105
6	0xbd635600	-0.055501938
7	0xbd9e422e	-0.077274665
8	0x3bcd3b59	0.0062631783
9	0x3b5f0154	0.0034027891

omega_optimized f4 [5, 2]
0	0x3db8e79c	0.09028551
1	0xbc98a58a	-0.018633623
2	0x3dbda51a	0.09260006
3	0xbc6d80e2	-0.01449606
4	0x3dfac377	0.12244313
5	0x3cbbcd6e	0.022925105
6	0xbd635600	-0.055501938
7	0xbd9e422e	-0.077274665
8	0x3bcd3b59	0.0062631783
9	0x3b5f0154	0.0034027891

a f4 [2]
0	0xbf2d7afe	-0.67765796
1	0x3fb80440	1.4376297

b f4 [2]
0	0xbf379db7	-0.7172503
1	0x3fa8536b	1.3150457

omega_init f4 [5, 2]
0	0x3a867adf	0.0010260007
1	0xbaded428	-0.0017000483
2	0x3b086bb4	0.002081615
3	0xbb836aad	-0.0040105195
4	0x3a395c2d	0.0007070925
5	0x3b236cd1	0.0024936686
6	0xba4d681d	-0.00078356435
7	0x3b2ff398	0.0026848074
8	0xbab96255	-0.0014143685
9	0x3b2511fa	0.0025187717

omega_optimized f4 [5, 2]
0	0x3a867adf	0.0010260007
1	0xbaded428	-0.0017000483
2	0x3b086bb4	0.002081615
3	0xbb836aad	-0.0040105195
4	0x3a395c2d	0.0007070925
5	0x3b236cd1	0.0024936686
6	0xba4d681d	-0.00078356435
7	0x3b2ff398	0.0026848074
8	0xbab96255	-0.0014143685
9	0x3b2511fa	0.0025187717

a f4 [2]
0	0xbf2d7afe	-0.67765796
1	0x3fb80440	1.4376297

b f4 [2]
0	0xbf923a7f	-1.1424102
1	0x3fb31534	1.3990846

omega_init f4 [5, 2]
0	0x3d89125b	0.06692954
1	0x3d081662	0.03322447
2	0x3d5a5754	0.05330594
3	0x3ce161eb	0.027512511
4	0x3d215d80	0.03939581
5	0x3d26c847	0.040718343
6	0xbd9ce509	-0.076608725
7	0xbd81b431	-0.06333197
8	0x3cd8f8d1	0.026485832
9	0xbc81a932	-0.015827749

omega_optimized f4 [5, 2]
0	0x3d89125b	0.06692954
1	0x3d081662	0.03322447
2	0x3d5a5754	0.05330594
3	0x3ce161eb	0.027512511
4	0x3d215d80	0.03939581
5	0x3d26c847	0.040718343
6	0xbd9ce509	-0.076608725
7	0xbd81b431	-0.06333197
8	0x3cd8f8d1	0.026485832
9	0xbc81a932	-0.015827749

a f4 [2]
0	0xbf2d7afe	-0.67765796
1	0x3fb80440	1.4376297

b f4 [2]
0	0xbf9d3aa9	-1.2283527
1	0x3fcc3e72	1.5956557

omega_init f4 [5, 2]
0	0x3d9826e8	0.07429296
1	0x3c165c74	0.009177316
2	0x3d86b0cd	0.06576691
3	0x3c2d58b0	0.010580227
4	0x3d8d6772	0.06904496
5	0x3d7300d9	0.05932698
6	0xbd991daf	-0.07476365
7	0xbca49978	-0.02009271
8	0x3c52661f	0.01284173
9	0xbd81102c	-0.06301913

omega_optimized f4 [5, 2]
0	0x3d9826e8	0.07429296
1	0x3c165c74	0.009177316
2	0x3d86b0cd	0.06576691
3	0x3c2d58b0	0.010580227
4	0x3d8d6772	0.06904496
5	0x3d7300d9	0.05932698
6	0xbd991daf	-0.07476365
7	0xbca49978	-0.02009271
8	0x3c52661f	0.01284173
9	0xbd81102c	-0.06301913

a f4 [2]
0	0xbf2d7afe	-0.67765796
1	0x3fb80440	1.4376297

b f4 [2]
0	0xbfbeada0	-1.4896736
1	0x3fc1e3f3	1.514769

omega_init f4 [5, 2]
0	0x3da126d6	0.078687355
1	0x3d0b5b6c	0.034022734
2	0x3cbd8c52	0.023138199
3	0x3bf01b9d	0.0073275105
4	0x3e146c83	0.14494519
5	0x3e29c5e0	0.1657939
6	0x3d624bc7	0.05524805
7	0xbce6baaa	-0.02816518
8	0xbd995517	-0.07486933
9	0xbd7ce6b6	-0.06174346

omega_optimized f4 [5, 2]
0	0x3da126d6	0.078687355
1	0x3d0b5b6c	0.034022734
2	0x3cbd8c52	0.023138199
3	0x3bf01b9d	0.0073275105
4	0x3e146c83	0.14494519
5	0x3e29c5e0	0.1657939
6	0x3d624bc7	0.05524805
7	0xbce6baaa	-0.02816518
8	0xbd995517	-0.07486933
9	0xbd7ce6b6	-0.06174346

a f4 [2]
0	0xbfac55f7	-1.3463734
1	0x40063d7f	2.0975034

b f4 [2]
0	0xbf379db7	-0.7172503
1	0x3fa8536b	1.3150457

omega_init f4 [5, 2]
0	0x3ded2e3d	0.11581085
1	0x3c46372f	0.012098118
2	0x3d6f123f	0.05836701
3	0xbc5fb10c	-0.013653051
4	0x3d8e628d	0.06952391
5	0xbcf8a5aa	-0.030352432
6	0x3d09d8f6	0.033654176
7	0x3ca5f6cc	0.020259283
8	0xbd2239fb	-0.039606076
9	0x3c0184d8	0.007905208

omega_optimized f4 [5, 2]
0	0x3ded2e3d	0.11581085
1	0x3c46372f	0.012098118
2	0x3d6f123f	0.05836701
3	0xbc5fb10c	-0.013653051
4	0x3d8e628d	0.06952391
5	0xbcf8a5aa	-0.030352432
6	0x3d09d8f6	0.033654176
7	0x3ca5f6cc	0.020259283
8	0xbd2239fb	-0.039606076
9	0x3c0184d8	0.007905208

a f4 [2]
0	0xbfac55f7	-1.3463734
1	0x40063d7f	2.0975034

b f4 [2]
0	0xbf923a7f	-1.1424102
1	0x3fb31534	1.3990846

omega_init f4 [5, 2]
0	0x3c5015a7	0.012700475
1	0xbd0a23d7	-0.033725586
2	0x3c4a0516	0.012330314
3	0xbbe5fcdf	-0.00701867
4	0x3c0f11eb	0.008732299
5	0xbcbdb3b0	-0.02315697
6	0x38a4e44a	7.8626515e-05
7	0xbcd16292	-0.025559697
8	0x3c0f8c5c	0.008761492
9	0x3d002a08	0.031290084

omega_optimized f4 [5, 2]
0	0x3c5015a7	0.012700475
1	0xbd0a23d7	-0.033725586
2	0x3c4a0516	0.012330314
3	0xbbe5fcdf	-0.00701867
4	0x3c0f11eb	0.008732299
5	0xbcbdb3b0	-0.02315697
6	0x38a4e44a	7.8626515e-05
7	0xbcd16292	-0.025559697
8	0x3c0f8c5c	0.008761492
9	0x3d002a08	0.031290084

a f4 [2]
0	0xbfac55f7	-1.3463734
1	0x40063d7f	2.0975034

b f4 [2]
0	0xbf9d3aa9	-1.2283527
1	0x3fcc3e72	1.5956557

omega_init f4 [5, 2]
0	0x3b4c1fde	0.0031146924
1	0xbcc955a4	-0.02457697
2	0x3c268602	0.010163786
3	0xbc1009bf	-0.008791386
4	0x3ae3c519	0.0017377465
5	0xbc78ee6f	-0.015193566
6	0xbb85a263	-0.004078196
7	0x3c0a189b	0.008428718
8	0x3ab9fe3d	0.0014190149
9	0xbc85914b	-0.016304633

omega_optimized f4 [5, 2]
0	0x3b4c1fde	0.0031146924
1	0xbcc955a4	-0.02457697
2	0x3c268602	0.010163786
3	0xbc1009bf	-0.008791386
4	0x3ae3c519	0.0017377465
5	0xbc78ee6f	-0.015193566
6	0xbb85a263	-0.004078196
7	0x3c0a189b	0.008428718
8	0x3ab9fe3d	0.0014190149
9	0xbc85914b	-0.016304633

a f4 [2]
0	0xbfac55f7	-1.3463734
1	0x40063d7f	2.0975034

b f4 [2]
0	0xbfbeada0	-1.4896736
1	0x3fc1e3f3	1.514769

omega_init f4 [5, 2]
0	0xbcd805d9	-0.026369976
1	0x3cab2919	0.02089362
2	0xbb50faf6	-0.0031887866
3	0xbbf5d159	-0.007501763
4	0xbb0ff5bb	-0.0021966535
5	0xbd9d7b5b	-0.07689544
6	0x3c46d530	0.012135789
7	0x3ca259af	0.019818155
8	0x3b3187df	0.0027089042
9	0x3cf5ba01	0.02999592

omega_optimized f4 [5, 2]
0	0xbcd805d9	-0.026369976
1	0x3cab2919	0.02089362
2	0xbb50faf6	-0.0031887866
3	0xbbf5d159	-0.007501763
4	0xbb0ff5bb	-0.0021966535
5	0xbd9d7b5b	-0.07689544
6	0x3c46d530	0.012135789
7	0x3ca259af	0.019818155
8	0x3b3187df	0.0027089042
9	0x3cf5ba01	0.02999592

a f4 [2]
0	0xbf379db7	-0.7172503
1	0x3fa8536b	1.3150457

b f4 [2]
0	0xbf923a7f	-1.1424102
1	0x3fb31534	1.3990846

omega_init f4 [5, 2]
0	0x3d6761e4	0.05648984
1	0x3c9d2062	0.01918048
2	0x3d343b50	0.044001877
3	0x3d138cf9	0.036023114
4	0x3d80e84a	0.062943056
5	0x3d01b70a	0.0316687
6	0xbdc06e2e	-0.09396015
7	0xbd36c679	-0.044622872
8	0x3c84f6da	0.01623099
9	0x3c043a72	0.008070575

omega_optimized f4 [5, 2]
0	0x3d6761e4	0.05648984
1	0x3c9d2062	0.01918048
2	0x3d343b50	0.044001877
3	0x3d138cf9	0.036023114
4	0x3d80e84a	0.062943056
5	0x3d01b70a	0.0316687
6	0xbdc06e2e	-0.09396015
7	0xbd36c679	-0.044622872
8	0x3c84f6da	0.01623099
9	0x3c043a72	0.008070575

a f4 [2]
0	0xbf379db7	-0.7172503
1	0x3fa8536b	1.3150457

b f4 [2]
0	0xbf9d3aa9	-1.2283527
1	0x3fcc3e72	1.5956557

omega_init f4 [5, 2]
0	0x3d355e6a	0.044279493
1	0x3c16a4a7	0.00919453
2	0x3d1d1e99	0.03835926
3	0x3d0d18d6	0.034447514
4	0x3dcf65e6	0.101268575
5	0x3d129120	0.035782933
6	0xbd9e8670	-0.07740486
7	0x3c9b70c0	0.018974662
8	0xbc4b8219	-0.012421154
9	0xbd1619cd	-0.0366457

omega_optimized f4 [5, 2]
0	0x3d355e6a	0.044279493
1	0x3c16a4a7	0.00919453
2	0x3d1d1e99	0.03835926
3	0x3d0d18d6	0.034447514
4	0x3dcf65e6	0.101268575
5	0x3d129120	0.035782933
6	0xbd9e8670	-0.07740486
7	0x3c9b70c0	0.018974662
8	0xbc4b8219	-0.012421154
9	0xbd1619cd	-0.0366457

a f4 [2]
0	0xbf379db7	-0.7172503
1	0x3fa8536b	1.3150457

b f4 [2]
0	0xbfbeada0	-1.4896736
1	0x3fc1e3f3	1.514769

omega_init f4 [5, 2]
0	0x3d86107b	0.06546112
1	0x3cd76572	0.02629349
2	0x3c3e0414	0.011597652
3	0xbb6a95e2	-0.0035794904
4	0x3e159d1f	0.14610718
5	0x3d8eb96c	0.0696896
6	0x3d152a8c	0.03641753
7	0x3d9b542a	0.075844124
8	0xbdb3640c	-0.08759317
9	0xbd4ba17f	-0.04971456

omega_optimized f4 [5, 2]
0	0x3d86107b	0.06546112
1	0x3cd76572	0.02629349
2	0x3c3e0414	0.011597652
3	0xbb6a95e2	-0.0035794904
4	0x3e159d1f	0.14610718
5	0x3d8eb96c	0.0696896
6	0x3d152a8c	0.03641753
7	0x3d9b542a	0.075844124
8	0xbdb3640c	-0.08759317
9	0xbd4ba17f	-0.04971456

a f4 [2]
0	0xbf923a7f	-1.1424102
1	0x3fb31534	1.3990846

b f4 [2]
0	0xbf9d3aa9	-1.2283527
1	0x3fcc3e72	1.5956557

omega_init f4 [5, 2]
0	0xbb8339a4	-0.004004674
1	0xbb88631b	-0.004162205
2	0x3b2093ec	0.002450223
3	0xbb4b61a3	-0.0031033538
4	0xbbc7a3d7	-0.0060925293
5	0xbba8becb	-0.0051496974
6	0x3bc2873b	0.005936531
7	0x3b90ef4c	0.0044230577
8	0x3b8ef644	0.0043628532
9	0x3a899ba2	0.0010498653

omega_optimized f4 [5, 2]
0	0xbb8339a4	-0.004004674
1	0xbb88631b	-0.004162205
2	0x3b2093ec	0.002450223
3	0xbb4b61a3	-0.0031033538
4	0xbbc7a3d7	-0.0060925293
5	0xbba8becb	-0.0051496974
6	0x3bc2873b	0.005936531
7	0x3b90ef4c	0.0044230577
8	0x3b8ef644	0.0043628532
9	0x3a899ba2	0.0010498653

a f4 [2]
0	0xbf923a7f	-1.1424102
1	0x3fb31534	1.3990846

b f4 [2]
0	0xbfbeada0	-1.4896736
1	0x3fc1e3f3	1.514769

omega_init f4 [5, 2]
0	0xbb99b80a	-0.0046911286
1	0xbc8d3d5c	-0.017241172
2	0x3b0da4a5	0.0021613028
3	0xbb8c93d0	-0.0042900816
4	0x38e849f8	0.000110764
5	0xbc14fa83	-0.00909293
6	0x3b5d2ea6	0.0033749728
7	0x3a67cfbb	0.0008842905
8	0x3a004909	0.00048936956
9	0x3b7381bf	0.0037156192

omega_optimized f4 [5, 2]
0	0xbb99b80a	-0.0046911286
1	0xbc8d3d5c	-0.017241172
2	0x3b0da4a5	0.0021613028
3	0xbb8c93d0	-0.0042900816
4	0x38e849f8	0.000110764
5	0xbc14fa83	-0.00909293
6	0x3b5d2ea6	0.0033749728
7	0x3a67cfbb	0.0008842905
8	0x3a004909	0.00048936956
9	0x3b7381bf	0.0037156192

a f4 [2]
0	0xbf9d3aa9	-1.2283527
1	0x3fcc3e72	1.5956557

b f4 [2]
0	0xbfbeada0	-1.4896736
1	0x3fc1e3f3	1.514769

omega_init f4 [5, 2]
0	0xbb00bc82	-0.001964361
1	0xbbdffed1	-0.0068357964
2	0x3a969666	0.0011488914
3	0x3bc0f7ea	0.0058889287
4	0xbc3aff26	-0.011413371
5	0xbcb96f0d	-0.022635961
6	0x3a7d3d99	0.0009660363
7	0x3bc2f490	0.0059495643
8	0x3c2faf41	0.010722936
9	0x3c83f524	0.016108103

omega_optimized f4 [5, 2]
0	0xbb00bc82	-0.001964361
1	0xbbdffed1	-0.0068357964
2	0x3a969666	0.0011488914
3	0x3bc0f7ea	0.0058889287
4	0xbc3aff26	-0.011413371
5	0xbcb96f0d	-0.022635961
6	0x3a7d3d99	0.0009660363
7	0x3bc2f490	0.0059495643
8	0x3c2faf41	0.010722936
9	0x3c83f524	0.016108103
