src/artifacts/spline_ensemble_optimized_seed12_p10_rerun2_dec2.pt (torch, 92253 bytes, 180 tensors)

a f4 [2]
0	0x3fb9e959	1.4524337
1	0x3fc33d28	1.5253038

b f4 [2]
0	0x3fb7a7c9	1.4348079
1	0x3f122f41	0.57103354

omega_init f4 [5, 2]
0	0xbe37178b	-0.17880075
1	0xbe8bd677	-0.2731206
2	0xbe3e325d	-0.185739
3	0x3dfa5092	0.12222399
4	0xbe06d2ba	-0.13166323
5	0xbd9e155a	-0.07718916
6	0x3e05bdfe	0.13060758
7	0xbccb499a	-0.02481537
8	0x3e9e4bd2	0.3091722
9	0x3c19f42c	0.009396594

omega_optimized f4 [5, 2]
0	0xbe37178b	-0.17880075
1	0xbe8bd677	-0.2731206
2	0xbe3e325d	-0.185739
3	0x3dfa5092	0.12222399
4	0xbe06d2ba	-0.13166323
5	0xbd9e155a	-0.07718916
6	0x3e05bdfe	0.13060758
7	0xbccb499a	-0.02481537
8	0x3e9e4bd2	0.3091722
9	0x3c19f42c	0.009396594

a f4 [2]
0	0x3fb9e959	1.4524337
1	0x3fc33d28	1.5253038

b f4 [2]
0	0x40122b88	2.283907
1	0x3f9d0bbb	1.2269205

omega_init f4 [5, 2]
0	0xbe96a431	-0.29422143
1	0xbeaec363	-0.34133443
2	0xbe776afd	-0.24161907
3	0x3e3de8d8	0.18545854
4	0xbdc8fdd3	-0.09814038
5	0xbea24e5b	-0.31700405
6	0xbba4de8a	-0.0050314115
7	0x3e8aaf56	0.27086896
8	0x3ea1d437	0.3160722
9	0x3e2b32ea	0.16718641

omega_optimized f4 [5, 2]
0	0xbe96a431	-0.29422143
1	0xbeaec363	-0.34133443
2	0xbe776afd	-0.24161907
3	0x3e3de8d8	0.18545854
4	0xbdc8fdd3	-0.09814038
5	0xbea24e5b	-0.31700405
6	0xbba4de8a	-0.0050314115
7	0x3e8aaf56	0.27086896
8	0x3ea1d437	0.3160722
9	0x3e2b32ea	0.16718641

a f4 [2]
0	0x3fb9e959	1.4524337
1	0x3fc33d28	1.5253038

b f4 [2]
0	0x400e9816	2.2280326
1	0x3f8ef3ec	1.1168189

omega_init f4 [5, 2]
0	0xbea21b61	-0.31661513
1	0xbeb3b4b8	-0.35098815
2	0xbe92ed35	-0.286966
3	0x3e2bf234	0.16791612
4	0xbde3b5a0	-0.111186266
5	0xbe86c937	-0.2632539
6	0x3d2a24e0	0.041539073
7	0x3e5c26ce	0.21499178
8	0x3ece222c	0.40260446
9	0x3e0a12b7	0.13483702

omega_optimized f4 [5, 2]
0	0xbea21b61	-0.31661513
1	0xbeb3b4b8	-0.35098815
2	0xbe92ed35	-0.286966
3	0x3e2bf234	0.16791612
4	0xbde3b5a0	-0.111186266
5	0xbe86c937	-0.2632539
6	0x3d2a24e0	0.041539073
7	0x3e5c26ce	0.21499178
8	0x3ece222c	0.40260446
9	0x3e0a12b7	0.13483702

a f4 [2]
0	0x3fb9e959	1.4524337
1	0x3fc33d28	1.5253038

b f4 [2]
0	0xbf2d7afe	-0.67765796
1	0x3fb80440	1.4376297

omega_init f4 [5, 2]
0	0x3e026010	0.12731957
1	0xbe9f64de	-0.31131643
2	0x3ef20862	0.4727202
3	0x3dcf5915	0.10124413
4	0x3ebf410e	0.3735432
5	0xbeefb3fe	-0.4681701
6	0x3e8031e3	0.2503806
7	0x3e16b245	0.14716442
8	0x3e74e8be	0.23916909
9	0x3d096b83	0.033549797

omega_optimized f4 [5, 2]
0	0x3e026010	0.12731957
1	0xbe9f64de	-0.31131643
2	0x3ef20862	0.4727202
3	0x3dcf5915	0.10124413
4	0x3ebf410e	0.3735432
5	0xbeefb3fe	-0.4681701
6	0x3e8031e3	0.2503806
7	0x3e16b245	0.14716442
8	0x3e74e8be	0.23916909
9	0x3d096b83	0.033549797

a f4 [2]
0	0x3fb9e959	1.4524337
1	0x3fc33d28	1.5253038

b f4 [2]
0	0xbfac55f7	-1.3463734
1	0x40063d7f	2.0975034

omega_init f4 [5, 2]
0	0x3e8ee8df	0.27912042
1	0xbec4b0e8	-0.3841622
2	0x3f29fd0f	0.6640176
3	0x3ebb624b	0.3659843
4	0x3f1bd824	0.6087668
5	0xbef974bf	-0.48721883
6	0x3f2dce95	0.67893344
7	0xbe35c8b2	-0.1775234
8	0xbe88c03f	-0.26709172
9	0x3e27f443	0.16401772

omega_optimized f4 [5, 2]
0	0x3e8ee8df	0.27912042
1	0xbec4b0e8	-0.3841622
2	0x3f29fd0f	0.6640176
3	0x3ebb624b	0.3659843
4	0x3f1bd824	0.6087668
5	0xbef974bf	-0.48721883
6	0x3f2dce95	0.67893344
7	0xbe35c8b2	-0.1775234
8	0xbe88c03f	-0.26709172
9	0x3e27f443	0.16401772

a f4 [2]
0	0x3fb9e959	1.4524337
1	0x3fc33d28	1.5253038

b f4 [2]
0	0xbf379db7	-0.7172503
1	0x3fa8536b	1.3150457

omega_init f4 [5, 2]
0	0x3de9ddb2	0.11419238
1	0xbe87412a	-0.26416904
2	0x3ee454be	0.44595903
3	0x3e13a5f3	0.14418773
4	0x3ebccc78	0.36874747
5	0xbedecd57	-0.43516037
6	0x3ea40e61	0.3204222
7	0xbc28df18	-0.010307096
8	0x3e174390	0.14771867
9	0x3e02c347	0.12769805

omega_optimized f4 [5, 2]
0	0x3de9ddb2	0.11419238
1	0xbe87412a	-0.26416904
2	0x3ee454be	0.44595903
3	0x3e13a5f3	0.14418773
4	0x3ebccc78	0.36874747
5	0xbedecd57	-0.43516037
6	0x3ea40e61	0.3204222
7	0xbc28df18	-0.010307096
8	0x3e174390	0.14771867
9	0x3e02c347	0.12769805

a f4 [2]
0	0x3fb9e959	1.4524337
1	0x3fc33d28	1.5253038

b f4 [2]
0	0xbf923a7f	-1.1424102
1	0x3fb31534	1.3990846

omega_init f4 [5, 2]
0	0x3e458ec3	0.1929274
1	0xbeaed325	-0.34145465
2	0x3f0aeef1	0.54270846
3	0x3e978c19	0.29599074
4	0x3eff76f0	0.4989543
5	0xbf0bcc43	-0.54608554
6	0x3f0e6c3e	0.55633914
7	0xbe20ad5d	-0.15691133
8	0xbe4b9818	-0.19882238
9	0xbe3d0f03	-0.18462758

omega_optimized f4 [5, 2]
0	0x3e458ec3	0.1929274
1	0xbeaed325	-0.34145465
2	0x3f0aeef1	0.54270846
3	0x3e978c19	0.29599074
4	0x3eff76f0	0.4989543
5	0xbf0bcc43	-0.54608554
6	0x3f0e6c3e	0.55633914
7	0xbe20ad5d	-0.15691133
8	0xbe4b9818	-0.19882238
9	0xbe3d0f03	-0.18462758

a f4 [2]
0	0x3fb9e959	1.4524337
1	0x3fc33d28	1.5253038

b f4 [2]
0	0xbf9d3aa9	-1.2283527
1	0x3fcc3e72	1.5956557

omega_init f4 [5, 2]
0	0x3e784cc4	0.24248034
1	0xbeaed871	-0.34149507
2	0x3f16b734	0.58873296
3	0x3f1569d1	0.5836459
4	0x3f197321	0.599413
5	0xbe9b875c	-0.30376709
6	0x3f26f379	0.6521526
7	0xbea1deaa	-0.31615192
8	0xbe207c4f	-0.1567242
9	0xbe9cb3cc	-0.30605924

omega_optimized f4 [5, 2]
0	0x3e784cc4	0.24248034
1	0xbeaed871	-0.34149507
2	0x3f16b734	0.58873296
3	0x3f1569d1	0.5836459
4	0x3f197321	0.599413
5	0xbe9b875c	-0.30376709
6	0x3f26f379	0.6521526
7	0xbea1deaa	-0.31615192
8	0xbe207c4f	-0.1567242
9	0xbe9cb3cc	-0.30605924

a f4 [2]
0	0x3fb9e959	1.4524337
1	0x3fc33d28	1.5253038

b f4 [2]
0	0xbfbeada0	-1.4896736
1	0x3fc1e3f3	1.514769

omega_init f4 [5, 2]
0	0x3e9d1a7f	0.30684277
1	0xbea6dd86	-0.32590884
2	0x3f345491	0.7044154
3	0x3f1d981d	0.6156023
4	0x3f1f2768	0.62169504
5	0xbeab753b	-0.33487877
6	0x3f327296	0.69706094
7	0xbf039b18	-0.5140853
8	0xbed4c4c7	-0.4155638
9	0xbe63112b	-0.22174518

omega_optimized f4 [5, 2]
0	0x3e9d1a7f	0.30684277
1	0xbea6dd86	-0.32590884
2	0x3f345491	0.7044154
3	0x3f1d981d	0.6156023
4	0x3f1f2768	0.62169504
5	0xbeab753b	-0.33487877
6	0x3f327296	0.69706094
7	0xbf039b18	-0.5140853
8	0xbed4c4c7	-0.4155638
9	0xbe63112b	-0.22174518

a f4 [2]
0	0x3fb7a7c9	1.4348079
1	0x3f122f41	0.57103354

b f4 [2]
0	0x40122b88	2.283907
1	0x3f9d0bbb	1.2269205

omega_init f4 [5, 2]
0	0xbdb8f3f2	-0.09030904
1	0xbcd33395	-0.025781432
2	0x3c021c81	0.007941366
3	0xbc415958	-0.011801086
4	0xbd0f2c78	-0.034954518
5	0xbd0fb5eb	-0.0350856
6	0x3a15c3ef	0.00057130953
7	0x3b2bb9d9	0.0026203303
8	0x3d0bf03e	0.03416466
9	0x3cbc4d17	0.022985978

omega_optimized f4 [5, 2]
0	0xbdb8f3f2	-0.09030904
1	0xbcd33395	-0.025781432
2	0x3c021c81	0.007941366
3	0xbc415958	-0.011801086
4	0xbd0f2c78	-0.034954518
5	0xbd0fb5eb	-0.0350856
6	0x3a15c3ef	0.00057130953
7	0x3b2bb9d9	0.0026203303
8	0x3d0bf03e	0.03416466
9	0x3cbc4d17	0.022985978

a f4 [2]
0	0x3fb7a7c9	1.4348079
1	0x3f122f41	0.57103354

b f4 [2]
0	0x400e9816	2.2280326
1	0x3f8ef3ec	1.1168189

omega_init f4 [5, 2]
0	0xbd9ccabe	-0.076558575
1	0xbc9aee7e	-0.01891255
2	0xbba3d505	-0.004999759
3	0xbbcce041	-0.006252319
4	0xbd6887f4	-0.05677028
5	0xbcf3dba8	-0.029767826
6	0xbb987b9c	-0.0046534073
7	0x3b362658	0.002779385
8	0x3d1633d7	0.036670532
9	0x3c697b07	0.014250523

omega_optimized f4 [5, 2]
0	0xbd9ccabe	-0.076558575
1	0xbc9aee7e	-0.01891255
2	0xbba3d505	-0.004999759
3	0xbbcce041	-0.006252319
4	0xbd6887f4	-0.05677028
5	0xbcf3dba8	-0.029767826
6	0xbb987b9c	-0.0046534073
7	0x3b362658	0.002779385
8	0x3d1633d7	0.036670532
9	0x3c697b07	0.014250523

a f4 [2]
0	0x3fb7a7c9	1.4348079
1	0x3f122f41	0.57103354

b f4 [2]
0	0xbf2d7afe	-0.67765796
1	0x3fb80440	1.4376297

omega_init f4 [5, 2]
0	0xbe43fc9e	-0.19139335
1	0xbe81762f	-0.2528548
2	0x3ef4c82f	0.47808978
3	0xbe6981bf	-0.228034
4	0x3eb18be9	0.34677055
5	0xbede4c58	-0.4341762
6	0x3e89d05c	0.26916778
7	0xbf0b6ddd	-0.54464513
8	0x3e3b6071	0.18298508
9	0x3e8fa890	0.2805829

omega_optimized f4 [5, 2]
0	0xbe43fc9e	-0.19139335
1	0xbe81762f	-0.2528548
2	0x3ef4c82f	0.47808978
3	0xbe6981bf	-0.228034
4	0x3eb18be9	0.34677055
5	0xbede4c58	-0.4341762
6	0x3e89d05c	0.26916778
7	0xbf0b6ddd	-0.54464513
8	0x3e3b6071	0.18298508
9	0x3e8fa890	0.2805829

a f4 [2]
0	0x3fb7a7c9	1.4348079
1	0x3f122f41	0.57103354

b f4 [2]
0	0xbfac55f7	-1.3463734
1	0x40063d7f	2.0975034

omega_init f4 [5, 2]
0	0x3c3dff55	0.01159652
1	0xbf0d4832	-0.55188286
2	0x3f35caed	0.71012765
3	0xbe2f2c17	-0.17106663
4	0x3f00c8cb	0.50306386
5	0xbf32e72a	-0.6988398
6	0x3f12a79b	0.57286996
7	0xbf2070a6	-0.6267189
8	0xbe4376c8	-0.1908828
9	0x3eb7e279	0.35914972

omega_optimized f4 [5, 2]
0	0x3c3dff55	0.01159652
1	0xbf0d4832	-0.55188286
2	0x3f35caed	0.71012765
3	0xbe2f2c17	-0.17106663
4	0x3f00c8cb	0.50306386
5	0xbf32e72a	-0.6988398
6	0x3f12a79b	0.57286996
7	0xbf2070a6	-0.6267189
8	0xbe4376c8	-0.1908828
9	0x3eb7e279	0.35914972

a f4 [2]
0	0x3fb7a7c9	1.4348079
1	0x3f122f41	0.57103354

b f4 [2]
0	0xbf379db7	-0.7172503
1	0x3fa8536b	1.3150457

omega_init f4 [5, 2]
0	0xbe4471e0	-0.19184065
1	0xbe59dfc6	-0.21276769
2	0x3ef622e6	0.480735
3	0xbdd6a778	-0.10481161
4	0x3eb6400f	0.35595748
5	0xbed001cc	-0.4062637
6	0x3e9f63e6	0.31130904
7	0xbf198e02	-0.5998231
8	0x3e1125c1	0.14174558
9	0x3e636674	0.22207052

omega_optimized f4 [5, 2]
0	0xbe4471e0	-0.19184065
1	0xbe59dfc6	-0.21276769
2	0x3ef622e6	0.480735
3	0xbdd6a778	-0.10481161
4	0x3eb6400f	0.35595748
5	0xbed001cc	-0.4062637
6	0x3e9f63e6	0.31130904
7	0xbf198e02	-0.5998231
8	0x3e1125c1	0.14174558
9	0x3e636674	0.22207052

a f4 [2]
0	0x3fb7a7c9	1.4348079
1	0x3f122f41	0.57103354

b f4 [2]
0	0xbf923a7f	-1.1424102
1	0x3fb31534	1.3990846

omega_init f4 [5, 2]
0	0xbdf3bc9b	-0.11901208
1	0xbe8fb9e6	-0.28071517
2	0x3f15d29b	0.58524483
3	0xbbac9cb8	-0.005267706
4	0x3ef7e192	0.48414284
5	0xbee29460	-0.44253826
6	0x3f0fd186	0.5617908
7	0xbf2ac0e4	-0.6670058
8	0xbe7ab0c7	-0.24481498
9	0x3e2b1739	0.16708077

omega_optimized f4 [5, 2]
0	0xbdf3bc9b	-0.11901208
1	0xbe8fb9e6	-0.28071517
2	0x3f15d29b	0.58524483
3	0xbbac9cb8	-0.005267706
4	0x3ef7e192	0.48414284
5	0xbee29460	-0.44253826
6	0x3f0fd186	0.5617908
7	0xbf2ac0e4	-0.6670058
8	0xbe7ab0c7	-0.24481498
9	0x3e2b1739	0.16708077

a f4 [2]
0	0x3fb7a7c9	1.4348079
1	0x3f122f41	0.57103354

b f4 [2]
0	0xbf9d3aa9	-1.2283527
1	0x3fcc3e72	1.5956557

omega_init f4 [5, 2]
0	0xbdae7242	-0.08517887
1	0xbeb6696e	-0.3562731
2	0x3f23137d	0.6370161
3	0xbd996aac	-0.07491049
4	0x3f02b59e	0.51058376
5	0xbf0716ae	-0.5276898
6	0x3f0bb9e2	0.5458051
7	0xbf28171f	-0.6566028
8	0xbe8f39de	-0.27973837
9	0x3e4a0b2e	0.19730827

omega_optimized f4 [5, 2]
0	0xbdae7242	-0.08517887
1	0xbeb6696e	-0.3562731
2	0x3f23137d	0.6370161
3	0xbd996aac	-0.07491049
4	0x3f02b59e	0.51058376
5	0xbf0716ae	-0.5276898
6	0x3f0bb9e2	0.5458051
7	0xbf28171f	-0.6566028
8	0xbe8f39de	-0.27973837
9	0x3e4a0b2e	0.19730827

a f4 [2]
0	0x3fb7a7c9	1.4348079
1	0x3f122f41	0.57103354

b f4 [2]
0	0xbfbeada0	-1.4896736
1	0x3fc1e3f3	1.514769

omega_init f4 [5, 2]
0	0x3ca6e772	0.020374034
1	0xbeae7e85	-0.34080902
2	0x3f3df822	0.74206746
3	0x3d9dc0e1	0.07702804
4	0x3f123d7d	0.57125074
5	0xbefc0898	-0.49225307
6	0x3f0fea45	0.5621684
7	0xbf3d8f03	-0.74046344
8	0xbec702de	-0.38869375
9	0x3e1dd7ce	0.15414354

omega_optimized f4 [5, 2]
0	0x3ca6e772	0.020374034
1	0xbeae7e85	-0.34080902
2	0x3f3df822	0.74206746
3	0x3d9dc0e1	0.07702804
4	0x3f123d7d	0.57125074
5	0xbefc0898	-0.49225307
6	0x3f0fea45	0.5621684
7	0xbf3d8f03	-0.74046344
8	0xbec702de	-0.38869375
9	0x3e1dd7ce	0.15414354

a f4 [2]
0	0x40122b88	2.283907
1	0x3f9d0bbb	1.2269205

b f4 [2]
0	0x400e9816	2.2280326
1	0x3f8ef3ec	1.1168189

omega_init f4 [5, 2]
0	0xbaffa675	-0.0019504564
1	0xbb8e999f	-0.004351809
2	0x39efc55e	0.00045732682
3	0xba4825c2	-0.0007635021
4	0x3a0486fc	0.00050555146
5	0xba42ad3a	-0.00074263255
6	0x3a9fb7b6	0.0012185487
7	0xb8d46cd5	-0.00010129219
8	0xb9a192fb	-0.00030817822
9	0x3942047f	0.00018502957

omega_optimized f4 [5, 2]
0	0xbaffa675	-0.0019504564
1	0xbb8e999f	-0.004351809
2	0x39efc55e	0.00045732682
3	0xba4825c2	-0.0007635021
4	0x3a0486fc	0.00050555146
5	0xba42ad3a	-0.00074263255
6	0x3a9fb7b6	0.0012185487
7	0xb8d46cd5	-0.00010129219
8	0xb9a192fb	-0.00030817822
9	0x3942047f	0.00018502957

a f4 [2]
0	0x40122b88	2.283907
1	0x3f9d0bbb	1.2269205

b f4 [2]
0	0xbf2d7afe	-0.67765796
1	0x3fb80440	1.4376297

omega_init f4 [5, 2]
0	0xbebef0c6	-0.3729307
1	0xbf0fb445	-0.56134444
2	0x3ed0925a	0.40736657
3	0xbf1aa6a3	-0.6041052
4	0x3df55d7a	0.1198072
5	0xbf25eb5d	-0.6481226
6	0xbf324939	-0.6964298
7	0xbece6fee	-0.4031977
8	0x3ea87ec7	0.32909223
9	0x3ee4bfe7	0.4467766

omega_optimized f4 [5, 2]
0	0xbebef0c6	-0.3729307
1	0xbf0fb445	-0.56134444
2	0x3ed0925a	0.40736657
3	0xbf1aa6a3	-0.6041052
4	0x3df55d7a	0.1198072
5	0xbf25eb5d	-0.6481226
6	0xbf324939	-0.6964298
7	0xbece6fee	-0.4031977
8	0x3ea87ec7	0.32909223
9	0x3ee4bfe7	0.4467766

a f4 [2]
0	0x40122b88	2.283907
1	0x3f9d0bbb	1.2269205

b f4 [2]
0	0xbfac55f7	-1.3463734
1	0x40063d7f	2.0975034

omega_init f4 [5, 2]
0	0xbeaa4f0e	-0.3326344
1	0xbf4b0878	-0.793098
2	0x3f269f49	0.650868
3	0xbf32a120	-0.6977711
4	0x3eb10ba1	0.34579185
5	0xbf617d46	-0.8808178
6	0xbe1d0673	-0.15334491
7	0xbf40e933	-0.75355834
8	0xbe5aa6f8	-0.21352756
9	0x3f36c89e	0.7139987

omega_optimized f4 [5, 2]
0	0xbeaa4f0e	-0.3326344
1	0xbf4b0878	-0.793098
2	0x3f269f49	0.650868
3	0xbf32a120	-0.6977711
4	0x3eb10ba1	0.34579185
5	0xbf617d46	-0.8808178
6	0xbe1d0673	-0.15334491
7	0xbf40e933	-0.75355834
8	0xbe5aa6f8	-0.21352756
9	0x3f36c89e	0.7139987

a f4 [2]
0	0x40122b88	2.283907
1	0x3f9d0bbb	1.2269205

b f4 [2]
0	0xbf379db7	-0.7172503
1	0x3fa8536b	1.3150457

omega_init f4 [5, 2]
0	0xbecc83c1	-0.3994427
1	0xbf07c9e4	-0.53042436
2	0x3ecfdccb	0.4059814
3	0xbf0d9998	-0.5531249
4	0x3e125ae7	0.14292489
5	0xbf1d87c1	-0.6153527
6	0xbf2f6776	-0.68517244
7	0xbebaf4e5	-0.36514965
8	0x3e7ef740	0.24899006
9	0x3ebbced5	0.36681238

omega_optimized f4 [5, 2]
0	0xbecc83c1	-0.3994427
1	0xbf07c9e4	-0.53042436
2	0x3ecfdccb	0.4059814
3	0xbf0d9998	-0.5531249
4	0x3e125ae7	0.14292489
5	0xbf1d87c1	-0.6153527
6	0xbf2f6776	-0.68517244
7	0xbebaf4e5	-0.36514965
8	0x3e7ef740	0.24899006
9	0x3ebbced5	0.36681238

a f4 [2]
0	0x40122b88	2.283907
1	0x3f9d0bbb	1.2269205

b f4 [2]
0	0xbf923a7f	-1.1424102
1	0x3fb31534	1.3990846

omega_init f4 [5, 2]
0	0xbecefbca	-0.40426475
1	0xbf1419c6	-0.5785183
2	0x3f03cc64	0.5148375
3	0xbf0b0cd5	-0.54316455
4	0x3ea00f85	0.3126184
5	0xbf2ae298	-0.66752005
6	0xbee7508c	-0.4517864
7	0xbf0ee286	-0.558144
8	0xbddeb670	-0.10874641
9	0x3ef89f4e	0.4855904

omega_optimized f4 [5, 2]
0	0xbecefbca	-0.40426475
1	0xbf1419c6	-0.5785183
2	0x3f03cc64	0.5148375
3	0xbf0b0cd5	-0.54316455
4	0x3ea00f85	0.3126184
5	0xbf2ae298	-0.66752005
6	0xbee7508c	-0.4517864
7	0xbf0ee286	-0.558144
8	0xbddeb670	-0.10874641
9	0x3ef89f4e	0.4855904

a f4 [2]
0	0x40122b88	2.283907
1	0x3f9d0bbb	1.2269205

b f4 [2]
0	0xbf9d3aa9	-1.2283527
1	0x3fcc3e72	1.5956557

omega_init f4 [5, 2]
0	0xbeb9ac63	-0.36264333
1	0xbf227204	-0.63455224
2	0x3f10b05f	0.5651912
3	0xbf24df66	-0.6440338
4	0x3eac29b6	0.33625573
5	0xbf3843f7	-0.71978706
6	0xbed58557	-0.41703293
7	0xbf167164	-0.5876677
8	0xbe3a931a	-0.18220177
9	0x3f1199b8	0.5687518

omega_optimized f4 [5, 2]
0	0xbeb9ac63	-0.36264333
1	0xbf227204	-0.63455224
2	0x3f10b05f	0.5651912
3	0xbf24df66	-0.6440338
4	0x3eac29b6	0.33625573
5	0xbf3843f7	-0.71978706
6	0xbed58557	-0.41703293
7	0xbf167164	-0.5876677
8	0xbe3a931a	-0.18220177
9	0x3f1199b8	0.5687518

a f4 [2]
0	0x40122b88	2.283907
1	0x3f9d0bbb	1.2269205

b f4 [2]
0	0xbfbeada0	-1.4896736
1	0x3fc1e3f3	1.514769

omega_init f4 [5, 2]
0	0xbeb29968	-0.34882665
1	0xbf20ea8d	-0.62857896
2	0x3f23f851	0.64050776
3	0xbf02f7b0	-0.5115919
4	0x3ec41921	0.38300422
5	0xbf38f9b7	-0.72256035
6	0xbe857d22	-0.2607203
7	0xbf31f04a	-0.69507277
8	0xbed502ed	-0.41603795
9	0x3f0d4f38	0.55199003

omega_optimized f4 [5, 2]
0	0xbeb29968	-0.34882665
1	0xbf20ea8d	-0.62857896
2	0x3f23f851	0.64050776
3	0xbf02f7b0	-0.5115919
4	0x3ec41921	0.38300422
5	0xbf38f9b7	-0.72256035
6	0xbe857d22	-0.2607203
7	0xbf31f04a	-0.69507277
8	0xbed502ed	-0.41603795
9	0x3f0d4f38	0.55199003

a f4 [2]
0	0x400e9816	2.2280326
1	0x3f8ef3ec	1.1168189

b f4 [2]
0	0xbf2d7afe	-0.67765796
1	0x3fb80440	1.4376297

omega_init f4 [5, 2]
0	0xbeee26cb	-0.46513972
1	0xbf018952	-0.5060016
2	0x3edda46c	0.43289506
3	0xbf12a8dd	-0.57288915
4	0x3e2d560a	0.16927353
5	0xbf1e353c	-0.6179998
6	0xbf1eed37	-0.6208071
7	0xbebd96ef	-0.37029216
8	0x3eac5176	0.336559
9	0x3ecc5b55	0.3991343

omega_optimized f4 [5, 2]
0	0xbeee26cb	-0.46513972
1	0xbf018952	-0.5060016
2	0x3edda46c	0.43289506
3	0xbf12a8dd	-0.57288915
4	0x3e2d560a	0.16927353
5	0xbf1e353c	-0.6179998
6	0xbf1eed37	-0.6208071
7	0xbebd96ef	-0.37029216
8	0x3eac5176	0.336559
9	0x3ecc5b55	0.3991343

a f4 [2]
0	0x400e9816	2.2280326
1	0x3f8ef3ec	1.1168189

b f4 [2]
0	0xbfac55f7	-1.3463734
1	0x40063d7f	2.0975034

omega_init f4 [5, 2]
0	0xbed55d5a	-0.41672784
1	0xbf43a910	-0.76429844
2	0x3f2472f3	0.642379
3	0xbf376e00	-0.7165222
4	0x3eb5226b	0.3537782
5	0xbf5d6bdb	-0.864927
6	0x3d41cebc	0.047316298
7	0xbf37f858	-0.7186332
8	0xbe2f68c3	-0.17129807
9	0x3f325ae8	0.6966996

omega_optimized f4 [5, 2]
0	0xbed55d5a	-0.41672784
1	0xbf43a910	-0.76429844
2	0x3f2472f3	0.642379
3	0xbf376e00	-0.7165222
4	0x3eb5226b	0.3537782
5	0xbf5d6bdb	-0.864927
6	0x3d41cebc	0.047316298
7	0xbf37f858	-0.7186332
8	0xbe2f68c3	-0.17129807
9	0x3f325ae8	0.6966996

a f4 [2]
0	0x400e9816	2.2280326
1	0x3f8ef3ec	1.1168189

b f4 [2]
0	0xbf379db7	-0.7172503
1	0x3fa8536b	1.3150457

omega_init f4 [5, 2]
0	0xbf026498	-0.50934744
1	0xbef63a68	-0.48091435
2	0x3ed91ead	0.42406216
3	0xbf01bc69	-0.50678116
4	0x3e609c9a	0.21934739
5	0xbf16bb16	-0.5887922
6	0xbf182c9b	-0.5944306
7	0xbeb79d94	-0.3586241
8	0x3e9878c4	0.29779637
9	0x3ea687fe	0.3252563

omega_optimized f4 [5, 2]
0	0xbf026498	-0.50934744
1	0xbef63a68	-0.48091435
2	0x3ed91ead	0.42406216
3	0xbf01bc69	-0.50678116
4	0x3e609c9a	0.21934739
5	0xbf16bb16	-0.5887922
6	0xbf182c9b	-0.5944306
7	0xbeb79d94	-0.3586241
8	0x3e9878c4	0.29779637
9	0x3ea687fe	0.3252563

a f4 [2]
0	0x400e9816	2.2280326
1	0x3f8ef3ec	1.1168189

b f4 [2]
0	0xbf923a7f	-1.1424102
1	0x3fb31534	1.3990846

omega_init f4 [5, 2]
0	0xbf0b79da	-0.54482806
1	0xbf084530	-0.5323057
2	0x3f08564c	0.5325668
3	0xbee770da	-0.45203286
4	0x3eb97cc0	0.3622799
5	0xbf21cf6f	-0.63207144
6	0xbe6fc9bb	-0.23416798
7	0xbf0e4693	-0.5557644
8	0xbe054e13	-0.13018064
9	0x3ee95202	0.4557038

omega_optimized f4 [5, 2]
0	0xbf0b79da	-0.54482806
1	0xbf084530	-0.5323057
2	0x3f08564c	0.5325668
3	0xbee770da	-0.45203286
4	0x3eb97cc0	0.3622799
5	0xbf21cf6f	-0.63207144
6	0xbe6fc9bb	-0.23416798
7	0xbf0e4693	-0.5557644
8	0xbe054e13	-0.13018064
9	0x3ee95202	0.4557038

a f4 [2]
0	0x400e9816	2.2280326
1	0x3f8ef3ec	1.1168189

b f4 [2]
0	0xbf9d3aa9	-1.2283527
1	0x3fcc3e72	1.5956557

omega_init f4 [5, 2]
0	0xbef3fe8e	-0.47655147
1	0xbf17c32a	-0.5928217
2	0x3f116b66	0.568045
3	0xbf0e4a2a	-0.55581915
4	0x3ebaefbb	0.36511025
5	0xbf2fe1d0	-0.6870394
6	0xbe3e0b25	-0.18558939
7	0xbf1c07b2	-0.6094924
8	0xbe22cfe5	-0.15899618
9	0x3f0734f3	0.5281517

omega_optimized f4 [5, 2]
0	0xbef3fe8e	-0.47655147
1	0xbf17c32a	-0.5928217
2	0x3f116b66	0.568045
3	0xbf0e4a2a	-0.55581915
4	0x3ebaefbb	0.36511025
5	0xbf2fe1d0	-0.6870394
6	0xbe3e0b25	-0.18558939
7	0xbf1c07b2	-0.6094924
8	0xbe22cfe5	-0.15899618
9	0x3f0734f3	0.5281517

a f4 [2]
0	0x400e9816	2.2280326
1	0x3f8ef3ec	1.1168189

b f4 [2]
0	0xbfbeada0	-1.4896736
1	0x3fc1e3f3	1.514769

omega_init f4 [5, 2]
0	0xbeea59bf	-0.45771596
1	0xbf14a9c6	-0.58071554
2	0x3f28685b	0.65784234
3	0xbed86dda	-0.4227131
4	0x3edbae90	0.42906618
5	0xbf3120b2	-0.69190514
6	0xbda0c467	-0.07849961
7	0xbf34c795	-0.7061704
8	0xbed09d4e	-0.40745014
9	0x3efeceeb	0.4976724

omega_optimized f4 [5, 2]
0	0xbeea59bf	-0.45771596
1	0xbf14a9c6	-0.58071554
2	0x3f28685b	0.65784234
3	0xbed86dda	-0.4227131
4	0x3edbae90	0.42906618
5	0xbf3120b2	-0.69190514
6	0xbda0c467	-0.07849961
7	0xbf34c795	-0.7061704
8	0xbed09d4e	-0.40745014
9	0x3efeceeb	0.4976724

a f4 [2]
0	0xbf2d7afe	-0.67765796
1	0x3fb80440	1.4376297

b f4 [2]
0	0xbfac55f7	-1.3463734
1	0x40063d7f	2.0975034

omega_init f4 [5, 2]
0	0x3d946d96	0.07247464
1	0x3c14f654	0.009091932
2	0x3d51f55e	0.05125939
3	0x3cec99f3	0.028882002
4	0x3d79a84f	0.060951527
5	0x3d1049b9	0.035226557
6	0xbc2444bc	-0.010026153
7	0xbc414d2f	-0.011798187
8	0xbd2932e6	-0.041308306
9	0xbc6efd9c	-0.014586832

omega_optimized f4 [5, 2]
0	0x3d946d96	0.07247464
1	0x3c14f654	0.009091932
2	0x3d51f55e	0.05125939
3	0x3cec99f3	0.028882002
4	0x3d79a84f	0.060951527
5	0x3d1049b9	0.035226557
6	0xbc2444bc	-0.010026153
7	0xbc414d2f	-0.011798187
8	0xbd2932e6	-0.041308306
9	0xbc6efd9c	-0.014586832

a f4 [2]
0	0xbf2d7afe	-0.67765796
1	0x3fb80440	1.4376297

b f4 [2]
0	0xbf379db7	-0.7172503
1	0x3fa8536b	1.3150457

omega_init f4 [5, 2]
0	0x3a55531e	0.00081376906
1	0xbb68a853	-0.003550072
2	0xbab7de6c	-0.0014028079
3	0xbb18ec38	-0.0023334157
4	0xbadaf87a	-0.0016706132
5	0xbb033425	-0.0020020094
6	0x3a872b5a	0.0010312602
7	0x3b0c2a9c	0.0021387702
8	0xb769809f	-1.3917829e-05
9	0x39902fba	0.0002750138

omega_optimized f4 [5, 2]
0	0x3a55531e	0.00081376906
1	0xbb68a853	-0.003550072
2	0xbab7de6c	-0.0014028079
3	0xbb18ec38	-0.0023334157
4	0xbadaf87a	-0.0016706132
5	0xbb033425	-0.0020020094
6	0x3a872b5a	0.0010312602
7	0x3b0c2a9c	0.0021387702
8	0xb769809f	-1.3917829e-05
9	0x39902fba	0.0002750138

a f4 [2]
0	0xbf2d7afe	-0.67765796
1	0x3fb80440	1.4376297

b f4 [2]
0	0xbf923a7f	-1.1424102
1	0x3fb31534	1.3990846

omega_init f4 [5, 2]
0	0x3d019dbc	0.031644568
1	0x3d047447	0.032337453
2	0x3ca93a22	0.020657603
3	0x3cb010fc	0.021492474
4	0x3d7552c3	0.05989338
5	0x3c987adf	0.018613277
6	0x3b2a8a4f	0.002602238
7	0xbbdc4ef5	-0.0067232796
8	0xbc7a4418	-0.015275024
9	0xbad5411a	-0.0016270012

omega_optimized f4 [5, 2]
0	0x3d019dbc	0.031644568
1	0x3d047447	0.032337453
2	0x3ca93a22	0.020657603
3	0x3cb010fc	0.021492474
4	0x3d7552c3	0.05989338
5	0x3c987adf	0.018613277
6	0x3b2a8a4f	0.002602238
7	0xbbdc4ef5	-0.0067232796
8	0xbc7a4418	-0.015275024
9	0xbad5411a	-0.0016270012

a f4 [2]
0	0xbf2d7afe	-0.67765796
1	0x3fb80440	1.4376297

b f4 [2]
0	0xbf9d3aa9	-1.2283527
1	0x3fcc3e72	1.5956557

omega_init f4 [5, 2]
0	0x3d28499d	0.041085828
1	0x3d20d31a	0.039263822
2	0x3ccd7396	0.02507953
3	0x3cd14939	0.02554761
4	0x3d84dc3c	0.06487319
5	0x3d8e798a	0.069567755
6	0x3c6d9b67	0.014502383
7	0x3c11a3df	0.008889168
8	0xbccd4d46	-0.02506126
9	0xbc70db22	-0.014700683

omega_optimized f4 [5, 2]
0	0x3d28499d	0.041085828
1	0x3d20d31a	0.039263822
2	0x3ccd7396	0.02507953
3	0x3cd14939	0.02554761
4	0x3d84dc3c	0.06487319
5	0x3d8e798a	0.069567755
6	0x3c6d9b67	0.014502383
7	0x3c11a3df	0.008889168
8	0xbccd4d46	-0.02506126
9	0xbc70db22	-0.014700683

a f4 [2]
0	0xbf2d7afe	-0.67765796
1	0x3fb80440	1.4376297

b f4 [2]
0	0xbfbeada0	-1.4896736
1	0x3fc1e3f3	1.514769

omega_init f4 [5, 2]
0	0x3dd0d135	0.10196153
1	0x3d997cee	0.074945316
2	0x3ca2b929	0.019863682
3	0x3c7039a7	0.014662183
4	0x3d7112cb	0.058855813
5	0x3d197e54	0.03747399
6	0x3c922fd9	0.017845081
7	0xbc52c7d7	-0.012865028
8	0xbbfc11f3	-0.0076925694
9	0x3bc69942	0.00606075

omega_optimized f4 [5, 2]
0	0x3dd0d135	0.10196153
1	0x3d997cee	0.074945316
2	0x3ca2b929	0.019863682
3	0x3c7039a7	0.014662183
4	0x3d7112cb	0.058855813
5	0x3d197e54	0.03747399
6	0x3c922fd9	0.017845081
7	0xbc52c7d7	-0.012865028
8	0xbbfc11f3	-0.0076925694
9	0x3bc69942	0.00606075

a f4 [2]
0	0xbfac55f7	-1.3463734
1	0x40063d7f	2.0975034

b f4 [2]
0	0xbf379db7	-0.7172503
1	0x3fa8536b	1.3150457

omega_init f4 [5, 2]
0	0x3d8725a2	0.06598975
1	0xbca04970	-0.019566268
2	0x3bcefccb	0.0063167564
3	0xbc5b3ba7	-0.013380921
4	0x3dc97dfc	0.09838483
5	0x3d4f3800	0.050590515
6	0xbd761fdd	-0.06008898
7	0xbcdfd89d	-0.027324969
8	0xbd214a46	-0.039377473
9	0xbccbd48d	-0.024881626

omega_optimized f4 [5, 2]
0	0x3d8725a2	0.06598975
1	0xbca04970	-0.019566268
2	0x3bcefccb	0.0063167564
3	0xbc5b3ba7	-0.013380921
4	0x3dc97dfc	0.09838483
5	0x3d4f3800	0.050590515
6	0xbd761fdd	-0.06008898
7	0xbcdfd89d	-0.027324969
8	0xbd214a46	-0.039377473
9	0xbccbd48d	-0.024881626

a f4 [2]
0	0xbfac55f7	-1.3463734
1	0x40063d7f	2.0975034

b f4 [2]
0	0xbf923a7f	-1.1424102
1	0x3fb31534	1.3990846

omega_init f4 [5, 2]
0	0x3c21c65c	0.009873953
1	0xbd5ad5ce	-0.053426556
2	0xba0d8ae9	-0.00053994224
3	0xbc8dae5e	-0.017295059
4	0x3bbc9abc	0.0057557505
5	0xbcca390f	-0.02468541
6	0x3c36c9ba	0.011156494
7	0x3cc56e8e	0.024100568
8	0x3bb18675	0.00541764
9	0x3aecbc69	0.0018061522

omega_optimized f4 [5, 2]
0	0x3c21c65c	0.009873953
1	0xbd5ad5ce	-0.053426556
2	0xba0d8ae9	-0.00053994224
3	0xbc8dae5e	-0.017295059
4	0x3bbc9abc	0.0057557505
5	0xbcca390f	-0.02468541
6	0x3c36c9ba	0.011156494
7	0x3cc56e8e	0.024100568
8	0x3bb18675	0.00541764
9	0x3aecbc69	0.0018061522

a f4 [2]
0	0xbfac55f7	-1.3463734
1	0x40063d7f	2.0975034

b f4 [2]
0	0xbf9d3aa9	-1.2283527
1	0x3fcc3e72	1.5956557

omega_init f4 [5, 2]
0	0xbb8317dd	-0.0040006475
1	0xbd144e42	-0.036207445
2	0x3b691d44	0.0035570422
3	0xbc603b9a	-0.013686085
4	0x3c1759ce	0.00923772
5	0xbb80c8ef	-0.003930203
6	0xbba1bcca	-0.0049358355
7	0x3ae047f7	0.0017111291
8	0xb9918cee	-0.00027761556
9	0xbb041714	-0.0020155357

omega_optimized f4 [5, 2]
0	0xbb8317dd	-0.0040006475
1	0xbd144e42	-0.036207445
2	0x3b691d44	0.0035570422
3	0xbc603b9a	-0.013686085
4	0x3c1759ce	0.00923772
5	0xbb80c8ef	-0.003930203
6	0xbba1bcca	-0.0049358355
7	0x3ae047f7	0.0017111291
8	0xb9918cee	-0.00027761556
9	0xbb041714	-0.0020155357

a f4 [2]
0	0xbfac55f7	-1.3463734
1	0x40063d7f	2.0975034

b f4 [2]
0	0xbfbeada0	-1.4896736
1	0x3fc1e3f3	1.514769

omega_init f4 [5, 2]
0	0xbd020190	-0.03173977
1	0xbd63b705	-0.055594463
2	0xbc704c1c	-0.014666583
3	0xbd295d38	-0.041348666
4	0x3cf60b38	0.030034646
5	0xbc82e8df	-0.015980182
6	0x3d584a46	0.052805208
7	0x3d026bfa	0.031841256
8	0xbc61a13a	-0.01377135
9	0x3c05b283	0.008160236

omega_optimized f4 [5, 2]
0	0xbd020190	-0.03173977
1	0xbd63b705	-0.055594463
2	0xbc704c1c	-0.014666583
3	0xbd295d38	-0.041348666
4	0x3cf60b38	0.030034646
5	0xbc82e8df	-0.015980182
6	0x3d584a46	0.052805208
7	0x3d026bfa	0.031841256
8	0xbc61a13a	-0.01377135
9	0x3c05b283	0.008160236

a f4 [2]
0	0xbf379db7	-0.7172503
1	0x3fa8536b	1.3150457

b f4 [2]
0	0xbf923a7f	-1.1424102
1	0x3fb31534	1.3990846

omega_init f4 [5, 2]
0	0x3cd2ab63	0.02571649
1	0x3cd4fcd7	0.02599947
2	0x3c05b001	0.008159638
3	0x3bf715cd	0.0075404407
4	0x3d18c21d	0.037294496
5	0x3d01ded7	0.031706657
6	0x3baa8809	0.005204205
7	0xbc122259	-0.008919322
8	0xbc925ca5	-0.017866442
9	0xbc6b1931	-0.014349268

omega_optimized f4 [5, 2]
0	0x3cd2ab63	0.02571649
1	0x3cd4fcd7	0.02599947
2	0x3c05b001	0.008159638
3	0x3bf715cd	0.0075404407
4	0x3d18c21d	0.037294496
5	0x3d01ded7	0.031706657
6	0x3baa8809	0.005204205
7	0xbc122259	-0.008919322
8	0xbc925ca5	-0.017866442
9	0xbc6b1931	-0.014349268

a f4 [2]
0	0xbf379db7	-0.7172503
1	0x3fa8536b	1.3150457

b f4 [2]
0	0xbf9d3aa9	-1.2283527
1	0x3fcc3e72	1.5956557

omega_init f4 [5, 2]
0	0x3d3a836e	0.045535497
1	0x3ccf579b	0.025310328
2	0x3ca6ca17	0.020360036
3	0x3b5d7a97	0.0033794993
4	0x3d43ac11	0.047771517
5	0x3d4a2553	0.049352
6	0x3c7745f7	0.0150923645
7	0xbc01b307	-0.007916219
8	0xbca753d5	-0.020425716
9	0xbc89aac4	-0.01680506

omega_optimized f4 [5, 2]
0	0x3d3a836e	0.045535497
1	0x3ccf579b	0.025310328
2	0x3ca6ca17	0.020360036
3	0x3b5d7a97	0.0033794993
4	0x3d43ac11	0.047771517
5	0x3d4a2553	0.049352
6	0x3c7745f7	0.0150923645
7	0xbc01b307	-0.007916219
8	0xbca753d5	-0.020425716
9	0xbc89aac4	-0.01680506

a f4 [2]
0	0xbf379db7	-0.7172503
1	0x3fa8536b	1.3150457

b f4 [2]
0	0xbfbeada0	-1.4896736
1	0x3fc1e3f3	1.514769

omega_init f4 [5, 2]
0	0x3da4d00e	0.08047496
1	0x3d843986	0.06456284
2	0xb8db5273	-0.00010458091
3	0x39e9a81e	0.0004456648
4	0x3d1e8c70	0.03870815
5	0x3d693400	0.056934357
6	0xbbb73323	-0.005590813
7	0xbc892d34	-0.016745187
8	0xbcaa958d	-0.020823264
9	0xbc1cb260	-0.009564012

omega_optimized f4 [5, 2]
0	0x3da4d00e	0.08047496
1	0x3d843986	0.06456284
2	0xb8db5273	-0.00010458091
3	0x39e9a81e	0.0004456648
4	0x3d1e8c70	0.03870815
5	0x3d693400	0.056934357
6	0xbbb73323	-0.005590813
7	0xbc892d34	-0.016745187
8	0xbcaa958d	-0.020823264
9	0xbc1cb260	-0.009564012

a f4 [2]
0	0xbf923a7f	-1.1424102
1	0x3fb31534	1.3990846

b f4 [2]
0	0xbf9d3aa9	-1.2283527
1	0x3fcc3e72	1.5956557

omega_init f4 [5, 2]
0	0xbb38c6cb	-0.0028194662
1	0x3a5bde29	0.00083872915
2	0xbacceb05	-0.0015634006
3	0xbb8dc21b	-0.0043261177
4	0xbb94667c	-0.0045288187
5	0xbae91420	-0.0017782487
6	0xba1437c0	-0.00056540594
7	0xbb104cef	-0.0022018512
8	0x3b165e95	0.002294456
9	0x3b842f66	0.0040339706

omega_optimized f4 [5, 2]
0	0xbb38c6cb	-0.0028194662
1	0x3a5bde29	0.00083872915
2	0xbacceb05	-0.0015634006
3	0xbb8dc21b	-0.0043261177
4	0xbb94667c	-0.0045288187
5	0xbae91420	-0.0017782487
6	0xba1437c0	-0.00056540594
7	0xbb104cef	-0.0022018512
8	0x3b165e95	0.002294456
9	0x3b842f66	0.0040339706

a f4 [2]
0	0xbf923a7f	-1.1424102
1	0x3fb31534	1.3990846

b f4 [2]
0	0xbfbeada0	-1.4896736
1	0x3fc1e3f3	1.514769

omega_init f4 [5, 2]
0	0x3c15a9a1	0.009134681
1	0x3a98456d	0.001161737
2	0xbbf68144	-0.007522734
3	0xbc50d0cb	-0.012745093
4	0x3b515980	0.0031944215
5	0x3b49ec48	0.0030811
6	0xbc671694	-0.014104504
7	0xbb45f7e1	-0.0030207562
8	0xbc2d4ba4	-0.010577116
9	0xbba7b16c	-0.005117586

omega_optimized f4 [5, 2]
0	0x3c15a9a1	0.009134681
1	0x3a98456d	0.001161737
2	0xbbf68144	-0.007522734
3	0xbc50d0cb	-0.012745093
4	0x3b515980	0.0031944215
5	0x3b49ec48	0.0030811
6	0xbc671694	-0.014104504
7	0xbb45f7e1	-0.0030207562
8	0xbc2d4ba4	-0.010577116
9	0xbba7b16c	-0.005117586

a f4 [2]
0	0xbf9d3aa9	-1.2283527
1	0x3fcc3e72	1.5956557

b f4 [2]
0	0xbfbeada0	-1.4896736
1	0x3fc1e3f3	1.514769

omega_init f4 [5, 2]
0	0xbc3be5b3	-0.011468339
1	0xbc2b8e44	-0.0104709305
2	0xbceb2a64	-0.028706737
3	0xbc8c0c69	-0.017095761
4	0xbc743f20	-0.014907628
5	0xbb93f2c1	-0.0045150225
6	0xbcbd6e8f	-0.023124008
7	0xbb8a6a6f	-0.0042241137
8	0xbbb4926e	-0.00551062
9	0xbb37d62e	-0.0028051245

omega_optimized f4 [5, 2]
0	0xbc3be5b3	-0.011468339
1	0xbc2b8e44	-0.0104709305
2	0xbceb2a64	-0.028706737
3	0xbc8c0c69	-0.017095761
4	0xbc743f20	-0.014907628
5	0xbb93f2c1	-0.0045150225
6	0xbcbd6e8f	-0.023124008
7	0xbb8a6a6f	-0.0042241137
8	0xbbb4926e	-0.00551062
9	0xbb37d62e	-0.0028051245
