src/artifacts/spline_ensemble_optimized_seed12_p10_rerun2_dec1.pt (torch, 92253 bytes, 180 tensors)

a f4 [2]
00000000: 59e9 b93f 283d c33f
1.4524337 1.5253038

b f4 [2]
00000000: c9a7 b73f 412f 123f
1.4348079 0.57103354

omega_init f4 [5, 2]
00000000: c5c2 49be 6d92 7fbe d77c 76be cc4d cb3d
00000010: fa3d 38be 08a3 53be acc6 403e fac9 073e
00000020: b599 743e 1b22 d03d
-0.19703205 -0.24958201 -0.2407106 0.09926948 -0.17992392 -0.2066766 0.18825787 0.13260642
0.2388676 0.10162755

omega_optimized f4 [5, 2]
00000000: c5c2 49be 6d92 7fbe d77c 76be cc4d cb3d
00000010: fa3d 38be 08a3 53be acc6 403e fac9 073e
00000020: b599 743e 1b22 d03d
-0.19703205 -0.24958201 -0.2407106 0.09926948 -0.17992392 -0.2066766 0.18825787 0.13260642
0.2388676 0.10162755

a f4 [2]
00000000: 59e9 b93f 283d c33f
1.4524337 1.5253038

b f4 [2]
00000000: 882b 1240 bb0b 9d3f
2.283907 1.2269205

omega_init f4 [5, 2]
00000000: a0fd 50be 116b 5ebe a7e9 02be 176e 9d3e
00000010: 0b8a 0b3c 2d92 bdbe ebee 5bbc 5c24 aa3e
00000020: 013d 643e 2ab0 8f3e
-0.2040925 -0.2172053 -0.12784444 0.30748054 0.008516799 -0.37025586 -0.013423662 0.33230865
0.22288896 0.2806409

omega_optimized f4 [5, 2]
00000000: a0fd 50be 116b 5ebe a7e9 02be 176e 9d3e
00000010: 0b8a 0b3c 2d92 bdbe ebee 5bbc 5c24 aa3e
00000020: 013d 643e 2ab0 8f3e
-0.2040925 -0.2172053 -0.12784444 0.30748054 0.008516799 -0.37025586 -0.013423662 0.33230865
0.22288896 0.2806409

a f4 [2]
00000000: 59e9 b93f 283d c33f
1.4524337 1.5253038

b f4 [2]
00000000: 1698 0e40 ecf3 8e3f
2.2280326 1.1168189

omega_init f4 [5, 2]
00000000: 1e72 58be f73f 55be 7e2e 55be 179d 9b3e
00000010: f873 663c d4a3 b5be efcb da3b 7fe5 a33e
00000020: 5928 aa3e 8178 983e
-0.21137282 -0.20825182 -0.20818517 0.30393288 0.014065735 -0.35476553 0.006677143 0.3201103
0.33233908 0.29779437

omega_optimized f4 [5, 2]
00000000: 1e72 58be f73f 55be 7e2e 55be 179d 9b3e
00000010: f873 663c d4a3 b5be efcb da3b 7fe5 a33e
00000020: 5928 aa3e 8178 983e
-0.21137282 -0.20825182 -0.20818517 0.30393288 0.014065735 -0.35476553 0.006677143 0.3201103
0.33233908 0.29779437

a f4 [2]
00000000: 59e9 b93f 283d c33f
1.4524337 1.5253038

b f4 [2]
00000000: fe7a 2dbf 4004 b83f
-0.67765796 1.4376297

omega_init f4 [5, 2]
00000000: 5c5f 513d 9899 dfbe 254d f53e 6897 55bd
00000010: 40a7 b83e 7571 ccbe a17a 693e 214a 5dbd
00000020: 87e9 9f3e 8ab6 d5bd
0.051116332 -0.4367187 0.4791042 -0.052146345 0.36065102 -0.3993031 0.22800685 -0.054025773
0.31232855 -0.10435207

omega_optimized f4 [5, 2]
00000000: 5c5f 513d 9899 dfbe 254d f53e 6897 55bd
00000010: 40a7 b83e 7571 ccbe a17a 693e 214a 5dbd
00000020: 87e9 9f3e 8ab6 d5bd
0.051116332 -0.4367187 0.4791042 -0.052146345 0.36065102 -0.3993031 0.22800685 -0.054025773
0.31232855 -0.10435207

a f4 [2]
00000000: 59e9 b93f 283d c33f
1.4524337 1.5253038

b f4 [2]
00000000: f755 acbf 7f3d 0640
-1.3463734 2.0975034

omega_init f4 [5, 2]
00000000: 8573 633e a883 04bf d162 2e3f 6fbf 083c
00000010: 40c5 123f 0f62 1bbf d701 173f 6eee 55be
00000020: 0805 41be 22f7 93bd
0.22212036 -0.5176339 0.6811953 0.008346423 0.5733223 -0.606965 0.5898718 -0.20891735
-0.18849576 -0.07224871

omega_optimized f4 [5, 2]
00000000: 8573 633e a883 04bf d162 2e3f 6fbf 083c
00000010: 40c5 123f 0f62 1bbf d701 173f 6eee 55be
00000020: 0805 41be 22f7 93bd
0.22212036 -0.5176339 0.6811953 0.008346423 0.5733223 -0.606965 0.5898718 -0.20891735
-0.18849576 -0.07224871

a f4 [2]
00000000: 59e9 b93f 283d c33f
1.4524337 1.5253038

b f4 [2]
00000000: b79d 37bf 6b53 a83f
-0.7172503 1.3150457

omega_init f4 [5, 2]
00000000: 584b 053d 3ddd edbe 45fd e63e b26a 473d
00000010: 4806 c43e 9583 e8be 3c4b a33e fa98 2bbe
00000020: c843 9b3e 3b95 5ebe
0.032542557 -0.46457854 0.45115104 0.048685737 0.38286042 -0.4541289 0.31893337 -0.16757575
0.3032515 -0.21736614

omega_optimized f4 [5, 2]
00000000: 584b 053d 3ddd edbe 45fd e63e b26a 473d
00000010: 4806 c43e 9583 e8be 3c4b a33e fa98 2bbe
00000020: c843 9b3e 3b95 5ebe
0.032542557 -0.46457854 0.45115104 0.048685737 0.38286042 -0.4541289 0.31893337 -0.16757575
0.3032515 -0.21736614

a f4 [2]
00000000: 59e9 b93f 283d c33f
1.4524337 1.5253038

b f4 [2]
00000000: 7f3a 92bf 3415 b33f
-1.1424102 1.3990846

omega_init f4 [5, 2]
00000000: d51b ef3d 8406 cfbe 2ffa 123f b7ef 293e
00000010: 4604 003f 0a20 02bf ce05 053f 832d 87be
00000020: 7d2f f9bd 15f9 93be
0.116752304 -0.4043466 0.57413 0.1659535 0.5000652 -0.5083014 0.5196198 -0.2640191
-0.12167261 -0.28900972

omega_optimized f4 [5, 2]
00000000: d51b ef3d 8406 cfbe 2ffa 123f b7ef 293e
00000010: 4604 003f 0a20 02bf ce05 053f 832d 87be
00000020: 7d2f f9bd 15f9 93be
0.116752304 -0.4043466 0.57413 0.1659535 0.5000652 -0.5083014 0.5196198 -0.2640191
-0.12167261 -0.28900972

a f4 [2]
00000000: 59e9 b93f 283d c33f
1.4524337 1.5253038

b f4 [2]
00000000: a93a 9dbf 723e cc3f
-1.2283527 1.5956557

omega_init f4 [5, 2]
00000000: 942e 193e dfaa efbe c9b3 173f 998b 493d
00000010: e272 023f 38dd 11bf f79f 083f b9d3 85be
00000020: 0c85 24be 950d 2bbe
0.14959174 -0.46810052 0.59258705 0.049205396 0.5095655 -0.5697818 0.53369087 -0.26138094
-0.16066378 -0.167044

omega_optimized f4 [5, 2]
00000000: 942e 193e dfaa efbe c9b3 173f 998b 493d
00000010: e272 023f 38dd 11bf f79f 083f b9d3 85be
00000020: 0c85 24be 950d 2bbe
0.14959174 -0.46810052 0.59258705 0.049205396 0.5095655 -0.5697818 0.53369087 -0.26138094
-0.16066378 -0.167044

a f4 [2]
00000000: 59e9 b93f 283d c33f
1.4524337 1.5253038

b f4 [2]
00000000: a0ad bebf f3e3 c13f
-1.4896736 1.514769

omega_init f4 [5, 2]
00000000: d19b 673e 3af7 d3be 5e3c 303f ab7d 633e
00000010: abb6 133f 0110 20bf 81ae 213f 5aa1 d1be
00000020: b2a6 a3be eaad 60be
0.22618033 -0.41399556 0.68842113 0.22215907 0.57700604 -0.6252442 0.63156897 -0.40943414
-0.31963116 -0.21941343

omega_optimized f4 [5, 2]
00000000: d19b 673e 3af7 d3be 5e3c 303f ab7d 633e
00000010: abb6 133f 0110 20bf 81ae 213f 5aa1 d1be
00000020: b2a6 a3be eaad 60be
0.22618033 -0.41399556 0.68842113 0.22215907 0.57700604 -0.6252442 0.63156897 -0.40943414
-0.31963116 -0.21941343

a f4 [2]
00000000: c9a7 b73f 412f 123f
1.4348079 0.57103354

b f4 [2]
00000000: 882b 1240 bb0b 9d3f
2.283907 1.2269205

omega_init f4 [5, 2]
00000000: 7e29 16be 13b2 2fbd 29cf c53d 3306 49bd
00000010: 04c6 1cbe eceb 95bd a556 0d3e f73c 6c3b
00000020: 5be6 0c3e f6c4 8c3c
-0.14664266 -0.042894434 0.09658653 -0.049078178 -0.15309912 -0.07320389 0.13802584 0.003604708
0.13759749 0.017183762

omega_optimized f4 [5, 2]
00000000: 7e29 16be 13b2 2fbd 29cf c53d 3306 49bd
00000010: 04c6 1cbe eceb 95bd a556 0d3e f73c 6c3b
00000020: 5be6 0c3e f6c4 8c3c
-0.14664266 -0.042894434 0.09658653 -0.049078178 -0.15309912 -0.07320389 0.13802584 0.003604708
0.13759749 0.017183762

a f4 [2]
00000000: c9a7 b73f 412f 123f
1.4348079 0.57103354

b f4 [2]
00000000: 1698 0e40 ecf3 8e3f
2.2280326 1.1168189

omega_init f4 [5, 2]
00000000: 6ed9 29be f0ef 05bd 3fae 803d 7e99 1abd
00000010: 73fc 1dbe c023 18bd 8bb4 fb3d 22b4 a13c
00000020: d44d e43d 53a8 b9bb
-0.16586849 -0.032699525 0.06283235 -0.037744038 -0.15428333 -0.03714347 0.12290295 0.019739214
0.11147657 -0.0056658178

omega_optimized f4 [5, 2]
00000000: 6ed9 29be f0ef 05bd 3fae 803d 7e99 1abd
00000010: 73fc 1dbe c023 18bd 8bb4 fb3d 22b4 a13c
00000020: d44d e43d 53a8 b9bb
-0.16586849 -0.032699525 0.06283235 -0.037744038 -0.15428333 -0.03714347 0.12290295 0.019739214
0.11147657 -0.0056658178

a f4 [2]
00000000: c9a7 b73f 412f 123f
1.4348079 0.57103354

b f4 [2]
00000000: fe7a 2dbf 4004 b83f
-0.67765796 1.4376297

omega_init f4 [5, 2]
00000000: 9bfe 6cbe 06a9 8abe c1c8 e53e 1f41 ecbd
00000010: ab61 cd3e 47ff 97be 5a8c a93e 2253 c7be
00000020: 55b2 e93d b4e4 853e
-0.23144 -0.2708208 0.44879726 -0.11535858 0.40113577 -0.2968695 0.33114892 -0.38930613
0.11410967 0.2615105

omega_optimized f4 [5, 2]
00000000: 9bfe 6cbe 06a9 8abe c1c8 e53e 1f41 ecbd
00000010: ab61 cd3e 47ff 97be 5a8c a93e 2253 c7be
00000020: 55b2 e93d b4e4 853e
-0.23144 -0.2708208 0.44879726 -0.11535858 0.40113577 -0.2968695 0.33114892 -0.38930613
0.11410967 0.2615105

a f4 [2]
00000000: c9a7 b73f 412f 123f
1.4348079 0.57103354

b f4 [2]
00000000: f755 acbf 7f3d 0640
-1.3463734 2.0975034

omega_init f4 [5, 2]
00000000: 831d 60bd 1b26 04bf 81b2 333f 39ca 04be
00000010: 407b 223f f3e3 1dbf e265 173f 8bd0 13bf
00000020: cdab 38be f546 a73e
-0.054715645 -0.51620644 0.7019425 -0.12967767 0.63469315 -0.6167595 0.59139836 -0.57740086
-0.18034287 0.32671323

omega_optimized f4 [5, 2]
00000000: 831d 60bd 1b26 04bf 81b2 333f 39ca 04be
00000010: 407b 223f f3e3 1dbf e265 173f 8bd0 13bf
00000020: cdab 38be f546 a73e
-0.054715645 -0.51620644 0.7019425 -0.12967767 0.63469315 -0.6167595 0.59139836 -0.57740086
-0.18034287 0.32671323

a f4 [2]
00000000: c9a7 b73f 412f 123f
1.4348079 0.57103354

b f4 [2]
00000000: b79d 37bf 6b53 a83f
-0.7172503 1.3150457

omega_init f4 [5, 2]
00000000: 6306 6fbe 4ae4 5ebe 8314 eb3e a745 d6bc
00000010: 0f04 d63e 99f0 89be 056f b33e 2dd2 d7be
00000020: a605 653d 6acd 5b3e
-0.2334228 -0.21766773 0.45914087 -0.02615626 0.4179997 -0.26941374 0.3504564 -0.4215254
0.05591359 0.21465078

omega_optimized f4 [5, 2]
00000000: 6306 6fbe 4ae4 5ebe 8314 eb3e a745 d6bc
00000010: 0f04 d63e 99f0 89be 056f b33e 2dd2 d7be
00000020: a605 653d 6acd 5b3e
-0.2334228 -0.21766773 0.45914087 -0.02615626 0.4179997 -0.26941374 0.3504564 -0.4215254
0.05591359 0.21465078

a f4 [2]
00000000: c9a7 b73f 412f 123f
1.4348079 0.57103354

b f4 [2]
00000000: 7f3a 92bf 3415 b33f
-1.1424102 1.3990846

omega_init f4 [5, 2]
00000000: afc7 1ebe 8fd6 8abe ebb0 183f d312 5b3e
00000010: 663f 0f3f 90d0 c6be 5a28 193f 36d6 2bbf
00000020: 2b68 5dbe 5389 983c
-0.15505861 -0.2711682 0.59644955 0.213939 0.55956113 -0.38830996 0.59827197 -0.67123735
-0.21621768 0.018620169

omega_optimized f4 [5, 2]
00000000: afc7 1ebe 8fd6 8abe ebb0 183f d312 5b3e
00000010: 663f 0f3f 90d0 c6be 5a28 193f 36d6 2bbf
00000020: 2b68 5dbe 5389 983c
-0.15505861 -0.2711682 0.59644955 0.213939 0.55956113 -0.38830996 0.59827197 -0.67123735
-0.21621768 0.018620169

a f4 [2]
00000000: c9a7 b73f 412f 123f
1.4348079 0.57103354

b f4 [2]
00000000: a93a 9dbf 723e cc3f
-1.2283527 1.5956557

omega_init f4 [5, 2]
00000000: 9f13 ebbd 75c6 afbe c43f 1f3f 66e8 f33d
00000010: 5ab0 193f 15ac e8be c3f2 1a3f fee1 27bf
00000020: a743 51be 9500 df3d
-0.11478352 -0.34331098 0.62206674 0.11909561 0.60034716 -0.45443788 0.60526675 -0.6557921
-0.20435964 0.10888783

omega_optimized f4 [5, 2]
00000000: 9f13 ebbd 75c6 afbe c43f 1f3f 66e8 f33d
00000010: 5ab0 193f 15ac e8be c3f2 1a3f fee1 27bf
00000020: a743 51be 9500 df3d
-0.11478352 -0.34331098 0.62206674 0.11909561 0.60034716 -0.45443788 0.60526675 -0.6557921
-0.20435964 0.10888783

a f4 [2]
00000000: c9a7 b73f 412f 123f
1.4348079 0.57103354

b f4 [2]
00000000: a0ad bebf f3e3 c13f
-1.4896736 1.514769

omega_init f4 [5, 2]
00000000: 4535 e9bb 00ac a5be 75f6 383f 5a0e 883e
00000010: 62e6 263f e8aa dabe 048b 233f 20d7 3cbf
00000020: 712e 9abe fb06 833c
-0.007116946 -0.32357788 0.72251064 0.2657345 0.65195286 -0.42708516 0.63883996 -0.73765755
-0.30113557 0.01599454

omega_optimized f4 [5, 2]
00000000: 4535 e9bb 00ac a5be 75f6 383f 5a0e 883e
00000010: 62e6 263f e8aa dabe 048b 233f 20d7 3cbf
00000020: 712e 9abe fb06 833c
-0.007116946 -0.32357788 0.72251064 0.2657345 0.65195286 -0.42708516 0.63883996 -0.73765755
-0.30113557 0.01599454

a f4 [2]
00000000: 882b 1240 bb0b 9d3f
2.283907 1.2269205

b f4 [2]
00000000: 1698 0e40 ecf3 8e3f
2.2280326 1.1168189

omega_init f4 [5, 2]
00000000: 5d84 5139 fa2b f3b9 94ab 5a3a 20a7 eeb8
00000010: cd7d 59bb 0b96 cbbb da0c 9f3a 78c6 e93a
00000020: f8b6 f53a 0b47 563b
0.00019981102 -0.00046381337 0.0008341607 -0.00011379854 -0.0033186555 -0.006212955 0.0012134567 0.0017835638
0.0018746546 0.0032696154

omega_optimized f4 [5, 2]
00000000: 5d84 5139 fa2b f3b9 94ab 5a3a 20a7 eeb8
00000010: cd7d 59bb 0b96 cbbb da0c 9f3a 78c6 e93a
00000020: f8b6 f53a 0b47 563b
0.00019981102 -0.00046381337 0.0008341607 -0.00011379854 -0.0033186555 -0.006212955 0.0012134567 0.0017835638
0.0018746546 0.0032696154

a f4 [2]
00000000: 882b 1240 bb0b 9d3f
2.283907 1.2269205

b f4 [2]
00000000: fe7a 2dbf 4004 b83f
-0.67765796 1.4376297

omega_init f4 [5, 2]
00000000: 4f6f a5be 5cce 2fbf c159 f33e b417 08bf
00000010: e7f1 ab3c 6b9c 24bf 4684 3ebf 5768 4fbe
00000020: 1004 823e 0229 0c3f
-0.32311484 -0.68674254 0.47529414 -0.5316117 0.020989371 -0.64301175 -0.74420583 -0.20254646
0.25393724 0.5475007

omega_optimized f4 [5, 2]
00000000: 4f6f a5be 5cce 2fbf c159 f33e b417 08bf
00000010: e7f1 ab3c 6b9c 24bf 4684 3ebf 5768 4fbe
00000020: 1004 823e 0229 0c3f
-0.32311484 -0.68674254 0.47529414 -0.5316117 0.020989371 -0.64301175 -0.74420583 -0.20254646
0.25393724 0.5475007

a f4 [2]
00000000: 882b 1240 bb0b 9d3f
2.283907 1.2269205

b f4 [2]
00000000: f755 acbf 7f3d 0640
-1.3463734 2.0975034

omega_init f4 [5, 2]
00000000: 3551 c8be b268 6bbf 302e 2b3f a541 50bf
00000010: 83c6 d13e b47a 65bf 2395 0dbf 1e09 f0be
00000020: 970c abbe b32b 5c3f
-0.39124456 -0.9195663 0.6686735 -0.81350166 0.40971765 -0.89640355 -0.5530569 -0.46881956
-0.33408043 0.8600418

omega_optimized f4 [5, 2]
00000000: 3551 c8be b268 6bbf 302e 2b3f a541 50bf
00000010: 83c6 d13e b47a 65bf 2395 0dbf 1e09 f0be
00000020: 970c abbe b32b 5c3f
-0.39124456 -0.9195663 0.6686735 -0.81350166 0.40971765 -0.89640355 -0.5530569 -0.46881956
-0.33408043 0.8600418

a f4 [2]
00000000: 882b 1240 bb0b 9d3f
2.283907 1.2269205

b f4 [2]
00000000: b79d 37bf 6b53 a83f
-0.7172503 1.3150457

omega_init f4 [5, 2]
00000000: dd25 aebe 0ce0 2abf e7ff e33e 022e eebe
00000010: 3fda a43d 1d88 1bbf a257 34bf c947 66be
00000020: 301e 463e 725f 033f
-0.34013262 -0.6674812 0.44531175 -0.46519476 0.0804944 -0.6075457 -0.7044622 -0.22488321
0.19347453 0.51317513

omega_optimized f4 [5, 2]
00000000: dd25 aebe 0ce0 2abf e7ff e33e 022e eebe
00000010: 3fda a43d 1d88 1bbf a257 34bf c947 66be
00000020: 301e 463e 725f 033f
-0.34013262 -0.6674812 0.44531175 -0.46519476 0.0804944 -0.6075457 -0.7044622 -0.22488321
0.19347453 0.51317513

a f4 [2]
00000000: 882b 1240 bb0b 9d3f
2.283907 1.2269205

b f4 [2]
00000000: 7f3a 92bf 3415 b33f
-1.1424102 1.3990846

omega_init f4 [5, 2]
00000000: 7088 cebe 8553 35bf 81a4 0c3f aa21 d8be
00000010: e7b9 b73e 8885 2ebf df36 32bf 4409 c4be
00000020: dc3e 65be 9182 143f
-0.4033847 -0.70830566 0.54938513 -0.42213184 0.3588402 -0.681725 -0.69614977 -0.3828832
-0.2238726 0.5801173

omega_optimized f4 [5, 2]
00000000: 7088 cebe 8553 35bf 81a4 0c3f aa21 d8be
00000010: e7b9 b73e 8885 2ebf df36 32bf 4409 c4be
00000020: dc3e 65be 9182 143f
-0.4033847 -0.70830566 0.54938513 -0.42213184 0.3588402 -0.681725 -0.69614977 -0.3828832
-0.2238726 0.5801173

a f4 [2]
00000000: 882b 1240 bb0b 9d3f
2.283907 1.2269205

b f4 [2]
00000000: a93a 9dbf 723e cc3f
-1.2283527 1.5956557

omega_init f4 [5, 2]
00000000: 36c1 ccbe 5d46 44bf 26ef 173f 9eef 0bbf
00000010: 1270 c13e 77b1 3cbf 6151 28bf 1c13 dcbe
00000020: 500a 88be 0d7f 2b3f
-0.39991158 -0.76669866 0.59349287 -0.546625 0.37780815 -0.7370829 -0.65749174 -0.4298333
-0.26570368 0.6699074

omega_optimized f4 [5, 2]
00000000: 36c1 ccbe 5d46 44bf 26ef 173f 9eef 0bbf
00000010: 1270 c13e 77b1 3cbf 6151 28bf 1c13 dcbe
00000020: 500a 88be 0d7f 2b3f
-0.39991158 -0.76669866 0.59349287 -0.546625 0.37780815 -0.7370829 -0.65749174 -0.4298333
-0.26570368 0.6699074

a f4 [2]
00000000: 882b 1240 bb0b 9d3f
2.283907 1.2269205

b f4 [2]
00000000: a0ad bebf f3e3 c13f
-1.4896736 1.514769

omega_init f4 [5, 2]
00000000: d9ec 0bbf 2885 4cbf 9e7f 2b3f 6ecd 2ebe
00000010: 1001 f23e 077f 4abf 9ca9 71be f626 20bf
00000020: 3fed bebe 8d47 383f
-0.54658276 -0.7989068 0.66991603 -0.17070553 0.47266436 -0.7910008 -0.23599857 -0.6255945
-0.3729038 0.7198418

omega_optimized f4 [5, 2]
00000000: d9ec 0bbf 2885 4cbf 9e7f 2b3f 6ecd 2ebe
00000010: 1001 f23e 077f 4abf 9ca9 71be f626 20bf
00000020: 3fed bebe 8d47 383f
-0.54658276 -0.7989068 0.66991603 -0.17070553 0.47266436 -0.7910008 -0.23599857 -0.6255945
-0.3729038 0.7198418

a f4 [2]
00000000: 1698 0e40 ecf3 8e3f
2.2280326 1.1168189

b f4 [2]
00000000: fe7a 2dbf 4004 b83f
-0.67765796 1.4376297

omega_init f4 [5, 2]
00000000: a1fa cbbe b74e 27bf 2217 f43e b89f f1be
00000010: 05f1 dd3d a959 1bbf 0f89 3bbf 7082 0ebe
00000020: 1b91 8f3e f866 043f
-0.39839652 -0.65354484 0.476739 -0.47192168 0.108369865 -0.60683686 -0.7325601 -0.13916945
0.28040394 0.5171962

omega_optimized f4 [5, 2]
00000000: a1fa cbbe b74e 27bf 2217 f43e b89f f1be
00000010: 05f1 dd3d a959 1bbf 0f89 3bbf 7082 0ebe
00000020: 1b91 8f3e f866 043f
-0.39839652 -0.65354484 0.476739 -0.47192168 0.108369865 -0.60683686 -0.7325601 -0.13916945
0.28040394 0.5171962

a f4 [2]
00000000: 1698 0e40 ecf3 8e3f
2.2280326 1.1168189

b f4 [2]
00000000: f755 acbf 7f3d 0640
-1.3463734 2.0975034

omega_init f4 [5, 2]
00000000: 0c0a 0abf c025 64bf 2ef4 2d3f f169 20bf
00000010: a797 df3e 8751 5ebf 3ac7 90be 8926 04bf
00000020: c749 9bbe e920 583f
-0.5392158 -0.891201 0.67950714 -0.62661654 0.4367039 -0.8684315 -0.28276998 -0.516213
-0.30329725 0.84425217

omega_optimized f4 [5, 2]
00000000: 0c0a 0abf c025 64bf 2ef4 2d3f f169 20bf
00000010: a797 df3e 8751 5ebf 3ac7 90be 8926 04bf
00000020: c749 9bbe e920 583f
-0.5392158 -0.891201 0.67950714 -0.62661654 0.4367039 -0.8684315 -0.28276998 -0.516213
-0.30329725 0.84425217

a f4 [2]
00000000: 1698 0e40 ecf3 8e3f
2.2280326 1.1168189

b f4 [2]
00000000: b79d 37bf 6b53 a83f
-0.7172503 1.3150457

omega_init f4 [5, 2]
00000000: f954 e4be da85 1fbf 176f e83e 62f3 c5be
00000010: f14a 1f3e de07 10bf 6cce 30bf 5cc7 3bbe
00000020: 2db0 7d3e eb0b ef3e
-0.4459608 -0.62313616 0.45397255 -0.3866225 0.15555932 -0.56262004 -0.69064975 -0.18337768
0.24774237 0.4668878

omega_optimized f4 [5, 2]
00000000: f954 e4be da85 1fbf 176f e83e 62f3 c5be
00000010: f14a 1f3e de07 10bf 6cce 30bf 5cc7 3bbe
00000020: 2db0 7d3e eb0b ef3e
-0.4459608 -0.62313616 0.45397255 -0.3866225 0.15555932 -0.56262004 -0.69064975 -0.18337768
0.24774237 0.4668878

a f4 [2]
00000000: 1698 0e40 ecf3 8e3f
2.2280326 1.1168189

b f4 [2]
00000000: 7f3a 92bf 3415 b33f
-1.1424102 1.3990846

omega_init f4 [5, 2]
00000000: 0e33 0cbf c6db 2abf f487 0d3f badd 98be
00000010: 779f c83e 1b2f 24bf 7f09 00bf 723e b4be
00000020: 4273 2ebe b6b3 163f
-0.54765403 -0.667416 0.55285573 -0.29856664 0.39184162 -0.6413438 -0.5001449 -0.35203892
-0.17036155 0.5886797

omega_optimized f4 [5, 2]
00000000: 0e33 0cbf c6db 2abf f487 0d3f badd 98be
00000010: 779f c83e 1b2f 24bf 7f09 00bf 723e b4be
00000020: 4273 2ebe b6b3 163f
-0.54765403 -0.667416 0.55285573 -0.29856664 0.39184162 -0.6413438 -0.5001449 -0.35203892
-0.17036155 0.5886797

a f4 [2]
00000000: 1698 0e40 ecf3 8e3f
2.2280326 1.1168189

b f4 [2]
00000000: a93a 9dbf 723e cc3f
-1.2283527 1.5956557

omega_init f4 [5, 2]
00000000: 9da7 16bf 710a 3fbf 2310 183f 24da b4be
00000010: 8068 d43e 3af5 34bf b6af b7be 3fcb ccbe
00000020: 55f9 68be 8cbe 363f
-0.5884951 -0.7462531 0.5939962 -0.35322678 0.41485977 -0.70686686 -0.35876244 -0.39998814
-0.22751363 0.713845

omega_optimized f4 [5, 2]
00000000: 9da7 16bf 710a 3fbf 2310 183f 24da b4be
00000010: 8068 d43e 3af5 34bf b6af b7be 3fcb ccbe
00000020: 55f9 68be 8cbe 363f
-0.5884951 -0.7462531 0.5939962 -0.35322678 0.41485977 -0.70686686 -0.35876244 -0.39998814
-0.22751363 0.713845

a f4 [2]
00000000: 1698 0e40 ecf3 8e3f
2.2280326 1.1168189

b f4 [2]
00000000: a0ad bebf f3e3 c13f
-1.4896736 1.514769

omega_init f4 [5, 2]
00000000: 1751 24bf 04fc 3ebf 633c 293f 0cca 99bc
00000010: 10a6 f93e 1208 43bf 379c 0f3d 4dbe 12bf
00000020: a222 a4be 505e 313f
-0.64186233 -0.74603295 0.6610777 -0.018773101 0.48759508 -0.7618419 0.035061087 -0.57321626
-0.32057673 0.69284534

omega_optimized f4 [5, 2]
00000000: 1751 24bf 04fc 3ebf 633c 293f 0cca 99bc
00000010: 10a6 f93e 1208 43bf 379c 0f3d 4dbe 12bf
00000020: a222 a4be 505e 313f
-0.64186233 -0.74603295 0.6610777 -0.018773101 0.48759508 -0.7618419 0.035061087 -0.57321626
-0.32057673 0.69284534

a f4 [2]
00000000: fe7a 2dbf 4004 b83f
-0.67765796 1.4376297

b f4 [2]
00000000: f755 acbf 7f3d 0640
-1.3463734 2.0975034

omega_init f4 [5, 2]
00000000: d75c 5a3d ba81 d23c 10b4 1b3d 03b6 093d
00000010: 7bdc c03d 6cff 413d cc83 a0bc 817f 42bd
00000020: 26f9 a8bc f078 a0bb
0.053311195 0.025696624 0.038013518 0.033620846 0.09417053 0.04736273 -0.019594096 -0.04748488
-0.020626616 -0.0048972294

omega_optimized f4 [5, 2]
00000000: d75c 5a3d ba81 d23c 10b4 1b3d 03b6 093d
00000010: 7bdc c03d 6cff 413d cc83 a0bc 817f 42bd
00000020: 26f9 a8bc f078 a0bb
0.053311195 0.025696624 0.038013518 0.033620846 0.09417053 0.04736273 -0.019594096 -0.04748488
-0.020626616 -0.0048972294

a f4 [2]
00000000: fe7a 2dbf 4004 b83f
-0.67765796 1.4376297

b f4 [2]
00000000: b79d 37bf 6b53 a83f
-0.7172503 1.3150457

omega_init f4 [5, 2]
00000000: a434 923a 70f1 13bb 35df d23a 7865 5bbb
00000010: 4f0f f83a a8d2 52bb 7ed9 a7ba 4632 363b
00000020: 3f40 8f39 928d dab8
0.0011154604 -0.0022574328 0.0016088249 -0.0033477228 0.0018925461 -0.0032169018 -0.0012805907 0.0027800961
0.00027322953 -0.000104214196

omega_optimized f4 [5, 2]
00000000: a434 923a 70f1 13bb 35df d23a 7865 5bbb
00000010: 4f0f f83a a8d2 52bb 7ed9 a7ba 4632 363b
00000020: 3f40 8f39 928d dab8
0.0011154604 -0.0022574328 0.0016088249 -0.0033477228 0.0018925461 -0.0032169018 -0.0012805907 0.0027800961
0.00027322953 -0.000104214196

a f4 [2]
00000000: fe7a 2dbf 4004 b83f
-0.67765796 1.4376297

b f4 [2]
00000000: 7f3a 92bf 3415 b33f
-1.1424102 1.3990846

omega_init f4 [5, 2]
00000000: d3f2 313d 0776 7f3d 7a1b 263d d5d7 393d
00000010: c2f8 183d cfa9 4e3d 8e82 42bd 68ba 49bd
00000020: 8ad5 41bb a9b3 b03c
0.043444466 0.06236842 0.040553547 0.04537185 0.03734661 0.05045491 -0.047487788 -0.049250036
-0.0029576742 0.021570044

omega_optimized f4 [5, 2]
00000000: d3f2 313d 0776 7f3d 7a1b 263d d5d7 393d
00000010: c2f8 183d cfa9 4e3d 8e82 42bd 68ba 49bd
00000020: 8ad5 41bb a9b3 b03c
0.043444466 0.06236842 0.040553547 0.04537185 0.03734661 0.05045491 -0.047487788 -0.049250036
-0.0029576742 0.021570044

a f4 [2]
00000000: fe7a 2dbf 4004 b83f
-0.67765796 1.4376297

b f4 [2]
00000000: a93a 9dbf 723e cc3f
-1.2283527 1.5956557

omega_init f4 [5, 2]
00000000: 946f 513d 5c0a 663d dcbd 1f3d a89f 593d
00000010: 202a 703d a761 8b3d 8f68 28bd 13f2 6bbd
00000020: 8013 58b9 f0a5 48ba
0.0511318 0.056162223 0.038999423 0.053130776 0.058633924 0.06805735 -0.04111534 -0.057603907
-0.0002060663 -0.0007654121

omega_optimized f4 [5, 2]
00000000: 946f 513d 5c0a 663d dcbd 1f3d a89f 593d
00000010: 202a 703d a761 8b3d 8f68 28bd 13f2 6bbd
00000020: 8013 58b9 f0a5 48ba
0.0511318 0.056162223 0.038999423 0.053130776 0.058633924 0.06805735 -0.04111534 -0.057603907
-0.0002060663 -0.0007654121

a f4 [2]
00000000: fe7a 2dbf 4004 b83f
-0.67765796 1.4376297

b f4 [2]
00000000: a0ad bebf f3e3 c13f
-1.4896736 1.514769

omega_init f4 [5, 2]
00000000: 49ac 653d d97b b43d 6dc3 ddbc 2f73 183d
00000010: c695 d43d 27a5 143e 11a1 873d 3737 343d
00000020: 08d0 32bd 0c9b bfbd
0.056072507 0.088126846 -0.027070725 0.037219223 0.103801295 0.14516126 0.06622518 0.04399797
-0.043655425 -0.09355745

omega_optimized f4 [5, 2]
00000000: 49ac 653d d97b b43d 6dc3 ddbc 2f73 183d
00000010: c695 d43d 27a5 143e 11a1 873d 3737 343d
00000020: 08d0 32bd 0c9b bfbd
0.056072507 0.088126846 -0.027070725 0.037219223 0.103801295 0.14516126 0.06622518 0.04399797
-0.043655425 -0.09355745

a f4 [2]
00000000: f755 acbf 7f3d 0640
-1.3463734 2.0975034

b f4 [2]
00000000: b79d 37bf 6b53 a83f
-0.7172503 1.3150457

omega_init f4 [5, 2]
00000000: ccb5 6c3d 99c6 2e3d 8fdc 343d 5389 e53b
00000010: 5820 6d3d e71e a73c 305d 0a3c 30e1 943c
00000020: 49a4 85bc 161d b0bc
0.057790563 0.042669866 0.044155654 0.0070048957 0.057892174 0.020400478 0.008445069 0.018173784
-0.016313689 -0.021498244

omega_optimized f4 [5, 2]
00000000: ccb5 6c3d 99c6 2e3d 8fdc 343d 5389 e53b
00000010: 5820 6d3d e71e a73c 305d 0a3c 30e1 943c
00000020: 49a4 85bc 161d b0bc
0.057790563 0.042669866 0.044155654 0.0070048957 0.057892174 0.020400478 0.008445069 0.018173784
-0.016313689 -0.021498244

a f4 [2]
00000000: f755 acbf 7f3d 0640
-1.3463734 2.0975034

b f4 [2]
00000000: 7f3a 92bf 3415 b33f
-1.1424102 1.3990846

omega_init f4 [5, 2]
00000000: bbe4 be3c 82a9 c3bc bd56 793b 22a8 f8bb
00000010: 8688 b33b 84a9 4e3b 9770 9739 a921 463c
00000020: 9280 8bbb 8008 003c
0.023302427 -0.023884539 0.0038046085 -0.0075884024 0.0054789213 0.0031534145 0.0002888485 0.012092986
-0.00425727 0.007814527

omega_optimized f4 [5, 2]
00000000: bbe4 be3c 82a9 c3bc bd56 793b 22a8 f8bb
00000010: 8688 b33b 84a9 4e3b 9770 9739 a921 463c
00000020: 9280 8bbb 8008 003c
0.023302427 -0.023884539 0.0038046085 -0.0075884024 0.0054789213 0.0031534145 0.0002888485 0.012092986
-0.00425727 0.007814527

a f4 [2]
00000000: f755 acbf 7f3d 0640
-1.3463734 2.0975034

b f4 [2]
00000000: a93a 9dbf 723e cc3f
-1.2283527 1.5956557

omega_init f4 [5, 2]
00000000: b2d5 6d3c 7620 b2bc b71d ba3b c90f 48bb
00000010: b765 143c 01a3 1b3c 7d74 353b 583a 39bb
00000020: aa5d 83bb 963f b5bb
0.014516281 -0.021743994 0.005679812 -0.0030526987 0.009057454 0.009499312 0.002768784 -0.0028263535
-0.0040089684 -0.0055312617

omega_optimized f4 [5, 2]
00000000: b2d5 6d3c 7620 b2bc b71d ba3b c90f 48bb
00000010: b765 143c 01a3 1b3c 7d74 353b 583a 39bb
00000020: aa5d 83bb 963f b5bb
0.014516281 -0.021743994 0.005679812 -0.0030526987 0.009057454 0.009499312 0.002768784 -0.0028263535
-0.0040089684 -0.0055312617

a f4 [2]
00000000: f755 acbf 7f3d 0640
-1.3463734 2.0975034

b f4 [2]
00000000: a0ad bebf f3e3 c13f
-1.4896736 1.514769

omega_init f4 [5, 2]
00000000: e94a 12bc 6c11 45bc 038f 56bd 635f 07ba
00000010: ad7a b8bc 48d1 0fbd c6aa 7e3d 607b dfbb
00000020: 073d e8bc 235b a23c
-0.008928993 -0.0120280795 -0.05238248 -0.0005164055 -0.022519434 -0.035111696 0.06217458 -0.0068201274
-0.028349413 0.019818848

omega_optimized f4 [5, 2]
00000000: e94a 12bc 6c11 45bc 038f 56bd 635f 07ba
00000010: ad7a b8bc 48d1 0fbd c6aa 7e3d 607b dfbb
00000020: 073d e8bc 235b a23c
-0.008928993 -0.0120280795 -0.05238248 -0.0005164055 -0.022519434 -0.035111696 0.06217458 -0.0068201274
-0.028349413 0.019818848

a f4 [2]
00000000: b79d 37bf 6b53 a83f
-0.7172503 1.3150457

b f4 [2]
00000000: 7f3a 92bf 3415 b33f
-1.1424102 1.3990846

omega_init f4 [5, 2]
00000000: a17e 263d fbd5 5a3d 8173 183d 7901 8c3c
00000010: a686 213d e01f 2b3d f05f 2abd 2e8b 49bd
00000020: 4221 113c 3003 e23b
0.040648106 0.053426724 0.037219528 0.017090546 0.03943505 0.041778445 -0.0415954 -0.049204998
0.008858027 0.0068973526

omega_optimized f4 [5, 2]
00000000: a17e 263d fbd5 5a3d 8173 183d 7901 8c3c
00000010: a686 213d e01f 2b3d f05f 2abd 2e8b 49bd
00000020: 4221 113c 3003 e23b
0.040648106 0.053426724 0.037219528 0.017090546 0.03943505 0.041778445 -0.0415954 -0.049204998
0.008858027 0.0068973526

a f4 [2]
00000000: b79d 37bf 6b53 a83f
-0.7172503 1.3150457

b f4 [2]
00000000: a93a 9dbf 723e cc3f
-1.2283527 1.5956557

omega_init f4 [5, 2]
00000000: 86f1 323d 5d49 fa3c 805c f93c 8771 d63c
00000010: 581a 543d 966e a03d fb4a c8bc 88fb 14bd
00000020: 7331 7abb 0f4c b5bc
0.043687366 0.03055256 0.030439615 0.02617718 0.051782936 0.078335926 -0.024449816 -0.03637269
-0.0038176447 -0.022130994

omega_optimized f4 [5, 2]
00000000: 86f1 323d 5d49 fa3c 805c f93c 8771 d63c
00000010: 581a 543d 966e a03d fb4a c8bc 88fb 14bd
00000020: 7331 7abb 0f4c b5bc
0.043687366 0.03055256 0.030439615 0.02617718 0.051782936 0.078335926 -0.024449816 -0.03637269
-0.0038176447 -0.022130994

a f4 [2]
00000000: b79d 37bf 6b53 a83f
-0.7172503 1.3150457

b f4 [2]
00000000: a0ad bebf f3e3 c13f
-1.4896736 1.514769

omega_init f4 [5, 2]
00000000: 45b6 513d eabc b83d eb14 e9bc b11e 983b
00000010: 3691 913d 2259 9f3d 0ca5 a53d ecd0 31bc
00000020: 95da 81bd 9c5e 5fbd
0.051199216 0.090204075 -0.028452357 0.0046423306 0.07107775 0.077806726 0.08088121 -0.0108530335
-0.06340519 -0.054533586

omega_optimized f4 [5, 2]
00000000: 45b6 513d eabc b83d eb14 e9bc b11e 983b
00000010: 3691 913d 2259 9f3d 0ca5 a53d ecd0 31bc
00000020: 95da 81bd 9c5e 5fbd
0.051199216 0.090204075 -0.028452357 0.0046423306 0.07107775 0.077806726 0.08088121 -0.0108530335
-0.06340519 -0.054533586

a f4 [2]
00000000: 7f3a 92bf 3415 b33f
-1.1424102 1.3990846

b f4 [2]
00000000: a93a 9dbf 723e cc3f
-1.2283527 1.5956557

omega_init f4 [5, 2]
00000000: abe3 68ba 4cac 08bc 09cd 9f38 cfda 5bbb
00000010: 22d1 eeba dcd6 82bb f173 903a 540a 393b
00000020: 87b9 403a 53f8 82ba
-0.0008884023 -0.00834186 7.6199016e-05 -0.0033547168 -0.0018220285 -0.0039928984 0.0011020881 0.0028234916
0.00073518645 -0.0009992219

omega_optimized f4 [5, 2]
00000000: abe3 68ba 4cac 08bc 09cd 9f38 cfda 5bbb
00000010: 22d1 eeba dcd6 82bb f173 903a 540a 393b
00000020: 87b9 403a 53f8 82ba
-0.0008884023 -0.00834186 7.6199016e-05 -0.0033547168 -0.0018220285 -0.0039928984 0.0011020881 0.0028234916
0.00073518645 -0.0009992219

a f4 [2]
00000000: 7f3a 92bf 3415 b33f
-1.1424102 1.3990846

b f4 [2]
00000000: a0ad bebf f3e3 c13f
-1.4896736 1.514769

omega_init f4 [5, 2]
00000000: b691 32b9 c26f 443a 97e4 113c f121 d7bb
00000010: fb93 01bd 7ab9 4a3c 2d85 433c f68b 07bc
00000020: 9425 af3c 6e3b 16bc
-0.00017029684 0.000749346 0.008904598 -0.0065653254 -0.031635266 0.012373323 0.011933607 -0.008273115
0.021380223 -0.009169443

omega_optimized f4 [5, 2]
00000000: b691 32b9 c26f 443a 97e4 113c f121 d7bb
00000010: fb93 01bd 7ab9 4a3c 2d85 433c f68b 07bc
00000020: 9425 af3c 6e3b 16bc
-0.00017029684 0.000749346 0.008904598 -0.0065653254 -0.031635266 0.012373323 0.011933607 -0.008273115
0.021380223 -0.009169443

a f4 [2]
00000000: a93a 9dbf 723e cc3f
-1.2283527 1.5956557

b f4 [2]
00000000: a0ad bebf f3e3 c13f
-1.4896736 1.514769

omega_init f4 [5, 2]
00000000: b03a fabc 1bec 4dbc 4ab7 9ebc 6899 1a3c
00000010: e9b1 32bd 5acf 1a3c 8b85 37bc af78 423c
00000020: 3d1b 803c d222 b839
-0.030545563 -0.012568499 -0.019374508 0.009435989 -0.0436267 0.0094488505 -0.011201273 0.0118695935
0.015637988 0.00035121158

omega_optimized f4 [5, 2]
00000000: b03a fabc 1bec 4dbc 4ab7 9ebc 6899 1a3c
00000010: e9b1 32bd 5acf 1a3c 8b85 37bc af78 423c
00000020: 3d1b 803c d222 b839
-0.030545563 -0.012568499 -0.019374508 0.009435989 -0.0436267 0.0094488505 -0.011201273 0.0118695935
0.015637988 0.00035121158
