src/artifacts/spline_batch_optimized_seed12.pt (torch, 81950 bytes, 180 tensors)

a f4 [2]
-0.29191762 2.5450215
00000000: 3a76 95be a2e1 2240

b f4 [2]
0.574004 1.2018197
00000000: edf1 123f 3ad5 993f

omega_init f4 [5, 2]
0.1245383 6.5926215e-06 -0.020288952 9.897121e-07 -0.5212597 -4.3995096e-06 0.16177237 7.728064e-06
0.19549532 3.2162643e-06
00000000: f00d ff3d 3036 dd36 0435 a6bc 40d6 8435
00000010: 4771 05bf 809f 93b6 a8a7 253e c8a7 0137
00000020: ed2f 483e 00d7 5736

omega_optimized f4 [5, 2]
0.30217934 -0.3402835 0.018073216 -0.18495382 -0.28171065 -0.16692148 0.30459136 0.192739
0.17619155 0.14321806
00000000: 40b7 9a3e a439 aebe 480e 943c 8964 3dbe
00000010: 613c 90be 77ed 2abe 66f3 9b3e 5f5d 453e
00000020: 8f6b 343e c1a7 123e

a f4 [2]
-0.29191762 2.5450215
00000000: 3a76 95be a2e1 2240

b f4 [2]
2.8152125 1.5634509
00000000: 712c 3440 291f c83f

omega_init f4 [5, 2]
1.6028025e-06 -0.0416343 -4.2748834e-06 0.16220622 4.8887905e-06 0.69303584 4.520225e-07 0.63025063
-1.398208e-06 -0.42332277
00000000: e01f d735 ba88 2abd f870 8fb6 6319 263e
00000010: 640a a436 cc6a 313f 80ad f234 1b58 213f
00000020: 10aa bbb5 c3bd d8be

omega_optimized f4 [5, 2]
-0.18554828 -0.91391236 -0.652204 -0.34218678 -0.525963 -0.25882226 -0.35949555 0.3176608
0.20284212 0.08621614
00000000: 5e00 3ebe 29f6 69bf d7f6 26bf 1b33 afbe
00000010: 83a5 06bf 5a84 84be cd0f b8be 70a4 a23e
00000020: d8b5 4f3e 1692 b03d

a f4 [2]
-0.29191762 2.5450215
00000000: 3a76 95be a2e1 2240

b f4 [2]
2.3567834 1.6151125
00000000: 8ad5 1640 02bc ce3f

omega_init f4 [5, 2]
1.3839726e-06 0.0051150764 -4.370038e-06 0.18873504 9.260005e-06 0.7904305 -1.0106655e-06 0.22044381
-6.8082063e-06 -0.054752722
00000000: f0c0 b935 5f9c a73b 57a2 92b6 c243 413e
00000010: 6b5b 1b37 a759 4a3f 34a6 87b5 06bc 613e
00000020: 0c72 e4b6 6444 60bd

omega_optimized f4 [5, 2]
-0.12764466 -0.8171941 -0.62097406 -0.34767777 -0.47485027 -0.13780676 0.111477904 -0.04237537
-0.0129919555 0.35735518
00000000: 48b5 02be a233 51bf 28f8 1ebf d202 b2be
00000010: 931f f3be 371d 0dbe 874e e43d cc91 2dbd
00000020: 36dc 54bc 42f7 b63e

a f4 [2]
-0.29191762 2.5450215
00000000: 3a76 95be a2e1 2240

b f4 [2]
-0.8012832 0.22024894
00000000: e520 4dbf f088 613e

omega_init f4 [5, 2]
-0.33987853 -5.5642886e-07 0.05758671 -5.362963e-07 0.0037985316 -1.0567892e-06 0.1499286 2.7491478e-07
-0.1968027 -5.326292e-07
00000000: 8f04 aebe 805d 15b5 0be0 6b3d 00f6 0fb5
00000010: c9f0 783b 00d7 8db5 e286 193e 0098 9334
00000020: a686 49be 00fa 0eb5

omega_optimized f4 [5, 2]
0.05707977 -0.22195494 0.570953 -0.11103538 0.4766993 -0.017825402 -0.08247354 0.23547506
-0.4103461 0.15477814
00000000: 7acc 693d 2848 63be fa29 123f 8466 e3bd
00000010: ee11 f43e 9406 92bc e3e7 a8bd 6020 713e
00000020: e218 d2be 297e 1e3e

a f4 [2]
-0.29191762 2.5450215
00000000: 3a76 95be a2e1 2240

b f4 [2]
-0.7503466 0.06526409
00000000: b716 40bf 2ea9 853d

omega_init f4 [5, 2]
-0.31981835 4.0821236e-05 0.041989606 0.00010304233 -0.043386187 -0.00014441976 0.1689347 1.717449e-05
-0.03506337 9.825044e-05
00000000: 3bbf a3be 7837 2b38 4bfd 2b3d 6e18 d838
00000010: b7b5 31bd 626f 17b9 38fd 2c3e f011 9037
00000020: 9c9e 0fbd ce0b ce38

omega_optimized f4 [5, 2]
0.0461234 -0.19278279 0.5120754 -0.022180945 0.49914435 0.00676921 -0.09420048 0.2480657
-0.3337418 0.045386598
00000000: e4eb 3c3d da68 45be 6017 033f d0b4 b5bc
00000010: d98f ff3e 40d0 dd3b 2eec c0bd ef04 7e3e
00000020: 35e0 aabe 4ce7 393d

a f4 [2]
-0.29191762 2.5450215
00000000: 3a76 95be a2e1 2240

b f4 [2]
-0.9031563 0.16858731
00000000: 4035 67bf 27a2 2c3e

omega_init f4 [5, 2]
-0.30828622 -5.7502766e-06 0.15144539 3.929965e-05 -0.019252483 -2.575025e-05 0.1681643 1.4206416e-06
-0.3157241 1.5725542e-05
00000000: b1d7 9dbe 80f2 c0b6 8014 1b3e aed5 2438
00000010: 62b7 9dbc 3e02 d8b7 4333 2c3e e0ac be35
00000020: 97a6 a1be 58ea 8337

omega_optimized f4 [5, 2]
0.11261233 -0.23685221 0.65804446 -0.13424131 0.506672 -0.05787497 0.0041225087 0.24218298
-0.42870682 0.1435833
00000000: 4ba1 e63d 6389 72be 9a75 283f 8e76 09be
00000010: 42b5 013f 4e0e 6dbd 1c16 873b d1fe 773e
00000020: 767f dbbe 8007 133e

a f4 [2]
-0.29191762 2.5450215
00000000: 3a76 95be a2e1 2240

b f4 [2]
-1.4125218 0.16858731
00000000: 84cd b4bf 27a2 2c3e

omega_init f4 [5, 2]
0.001532681 2.586226e-05 0.44445306 1.2866833e-05 0.4348628 -2.4759822e-05 -0.3767871 1.1549091e-05
0.20383346 2.6364243e-05
00000000: 3ee4 c83a c8f2 d837 5a8f e33e a0de 5737
00000010: 56a6 de3e 50b3 cfb7 3dea c0be f8c2 4137
00000020: b8b9 503e c828 dd37

omega_optimized f4 [5, 2]
0.42433342 -0.30086002 0.9059193 -0.18931717 0.9143458 -0.34564626 -0.12154612 0.38837925
-0.017623687 -0.015690897
00000000: 3b42 d93e 530a 9abe 54ea 673f 5cdc 41be
00000010: 9112 6a3f 8cf8 b0be 2ced f8bd a5d9 c63e
00000020: 8d5f 90bc 328a 80bc

a f4 [2]
-0.29191762 2.5450215
00000000: 3a76 95be a2e1 2240

b f4 [2]
-1.1578391 0.06526409
00000000: 1234 94bf 2ea9 853d

omega_init f4 [5, 2]
-0.042293504 -1.2278731e-05 0.42230746 -4.4387052e-05 -0.032348726 -7.798316e-05 -0.13002264 6.856034e-05
-0.0052646133 -7.4521435e-05
00000000: f43b 2dbd c000 4eb7 af38 d83e 3c2c 3ab8
00000010: 1980 04bd e48a a3b8 a824 05be 0dc8 8f38
00000020: c782 acbb 6448 9cb8

omega_optimized f4 [5, 2]
0.30121353 -0.24890837 0.92348486 -0.11179188 0.44637722 0.058896698 -0.02479692 0.23745602
-0.44084704 0.12341072
00000000: a938 9a3e d6e1 7ebe 8169 6c3f 24f3 e4bd
00000010: 8e8b e43e aa3d 713d e922 cbbc ac27 733e
00000020: b4b6 e1be c2be fc3d

a f4 [2]
-0.29191762 2.5450215
00000000: 3a76 95be a2e1 2240

b f4 [2]
-1.8200144 0.06526409
00000000: 3bf6 e8bf 2ea9 853d

omega_init f4 [5, 2]
0.074594975 8.740593e-06 0.36309627 6.411472e-06 0.611542 -1.1457836e-05 0.27270335 4.0412597e-06
-0.19329627 9.211508e-06
00000000: 40c5 983d 90a4 1237 c1e7 b93e 2022 d736
00000010: 048e 1c3f 083b 40b7 c69f 8b3e 289a 8736
00000020: 75ef 45be 208b 1a37

omega_optimized f4 [5, 2]
0.5225319 -0.33060104 0.9029732 -0.11193012 1.1884096 -0.5016084 0.2535534 0.3270177
-0.38786963 -0.06194883
00000000: a7c4 053f 8a44 a9be 4029 673f 9e3b e5bd
00000010: ce1d 983f 6869 00bf c0d1 813e dd6e a73e
00000020: d996 c6be 0ebe 7dbd

a f4 [2]
0.574004 1.2018197
00000000: edf1 123f 3ad5 993f

b f4 [2]
2.8152125 1.5634509
00000000: 712c 3440 291f c83f

omega_init f4 [5, 2]
-8.050349e-06 -0.083122164 -4.4561857e-06 -0.14250648 7.3289266e-06 -0.33527192 -1.8895744e-06 0.11589188
-6.2579966e-06 0.031132158
00000000: fc0f 07b7 f43b aabd 5886 95b6 38ed 11be
00000010: 00eb f536 c3a8 abbe 489d fdb5 b958 ed3d
00000020: c8fb d1b6 de08 ff3c

omega_optimized f4 [5, 2]
-0.19701758 -0.09716513 0.13649862 -0.029406313 0.18611641 -0.09297571 0.32250196 -0.038237777
0.008920122 0.044281043
00000000: fabe 49be 83fe c6bd 4bc6 0b3e 82e5 f0bc
00000010: 4d95 3e3e 0d6a bebd fa1e a53e 379f 1cbd
00000020: b425 123c 0a60 353d

a f4 [2]
0.574004 1.2018197
00000000: edf1 123f 3ad5 993f

b f4 [2]
2.3567834 1.6151125
00000000: 8ad5 1640 02bc ce3f

omega_init f4 [5, 2]
-8.889263e-06 0.11492962 -5.693757e-06 -0.06410875 9.626696e-06 -0.16834593 -4.3960426e-06 0.13191469
-9.639029e-06 -0.054485
00000000: 1823 15b7 3860 eb3d 000d bfb6 734b 83bd
00000010: 5882 2137 e062 2cbe b881 93b6 a514 073e
00000020: 50b7 21b7 aa2b 5fbd

omega_optimized f4 [5, 2]
-0.1120041 -0.07240896 0.12877825 -0.06288987 0.010629549 -0.09658852 -0.07408956 0.022251042
0.1322388 0.019000364
00000000: 6862 e5bd 264b 94bd 72de 033e 67cc 80bd
00000010: 8f27 2e3c 34d0 c5bd 44bc 97bd d147 b63c
00000020: 9c69 073e a7a6 9b3c

a f4 [2]
0.574004 1.2018197
00000000: edf1 123f 3ad5 993f

b f4 [2]
-0.8012832 0.22024894
00000000: e520 4dbf f088 613e

omega_init f4 [5, 2]
-6.6432804e-06 -0.03111634 -3.5205267e-06 -0.021947738 8.119714e-06 -0.44862098 -3.4326513e-06 -0.13867936
-8.455489e-06 0.16454479
00000000: 58e9 deb6 b2e7 febc 3042 6cb6 becb b3bc
00000010: e839 0837 a6b1 e5be 805c 66b6 f601 0ebe
00000020: 0cdc 0db7 6e7e 283e

omega_optimized f4 [5, 2]
0.0037557904 -0.0740288 0.32676682 -0.03075095 0.10063328 -0.33059317 0.043878134 0.09812508
0.08227436 0.17131074
00000000: b523 763b 699c 97bd fb4d a73e 6be9 fbbc
00000010: d218 ce3d 8243 a9be 8fb9 333d cdf5 c83d
00000020: 767f a83d 156c 2f3e

a f4 [2]
0.574004 1.2018197
00000000: edf1 123f 3ad5 993f

b f4 [2]
-0.7503466 0.06526409
00000000: b716 40bf 2ea9 853d

omega_init f4 [5, 2]
-0.0001065604 -0.023128454 8.7831584e-05 -0.03921694 0.00013225876 -0.09411643 6.181488e-05 -0.18096003
0.000112585854 0.24341956
00000000: 2e79 dfb8 e277 bdbc 3932 b838 f1a1 20bd
00000010: f1ae 0a39 1dc0 c0bd 9ca2 8138 964d 39be
00000020: 121c ec38 fa42 793e

omega_optimized f4 [5, 2]
-0.018394252 -0.044879135 0.33991042 -0.016576102 0.04270482 -0.11758619 -0.0023743866 0.06260572
-0.123067245 0.1886728
00000000: 8baf 96bc 2fd3 37bd bd08 ae3e 9bca 87bc
00000010: 40eb 2e3d 07d1 f0bd 999b 1bbb 6d37 803d
00000020: ae0a fcbd 7133 413e

a f4 [2]
0.574004 1.2018197
00000000: edf1 123f 3ad5 993f

b f4 [2]
-0.9031563 0.16858731
00000000: 4035 67bf 27a2 2c3e

omega_init f4 [5, 2]
1.7169965e-05 -0.046168745 -1.8581202e-05 -0.0104000885 1.4692967e-05 -0.38507015 9.929447e-06 -0.3134407
3.371446e-06 0.32344365
00000000: 3808 9037 701b 3dbd d4de 9bb7 2265 2abc
00000010: d081 7637 ea27 c5be a696 2637 4d7b a0be
00000020: 0041 6236 689a a53e

omega_optimized f4 [5, 2]
0.020047648 -0.09794275 0.32356873 -0.03688449 0.10167912 -0.40745723 0.11943057 -0.046360955
0.07372011 0.25498366
00000000: f73a a43c 3596 c8bd cdaa a53e 3114 17bd
00000010: 243d d03d 3c9e d0be 0498 f43d fce4 3dbd
00000020: 92fa 963d 388d 823e

a f4 [2]
0.574004 1.2018197
00000000: edf1 123f 3ad5 993f

b f4 [2]
-1.4125218 0.16858731
00000000: 84cd b4bf 27a2 2c3e

omega_init f4 [5, 2]
-1.5669095e-05 0.064659886 -1.3514946e-05 0.14184885 2.9776638e-05 0.26480937 -7.4545533e-06 -0.16394556
-2.3261848e-05 0.036253177
00000000: 2071 83b7 676c 843d 40be 62b7 d340 113e
00000010: d8c8 f937 1895 873e 2022 fab6 58e1 27be
00000020: 7022 c3b7 367e 143d

omega_optimized f4 [5, 2]
0.18082877 -0.24573176 0.5176138 -0.03817984 0.2599152 -0.15551364 0.23975602 0.18613984
-0.06229785 -0.07823236
00000000: 2d2b 393e 1ba1 7bbe 5782 043f 7762 1cbd
00000010: 9b13 853e f83e 1fbe 9a82 753e 719b 3e3e
00000020: 082c 7fbd 4a38 a0bd

a f4 [2]
0.574004 1.2018197
00000000: edf1 123f 3ad5 993f

b f4 [2]
-1.1578391 0.06526409
00000000: 1234 94bf 2ea9 853d

omega_init f4 [5, 2]
-1.5993544e-05 -0.18663037 -1.606681e-05 -0.2438471 1.2960372e-05 0.29311606 -4.067653e-06 -0.5649483
-1.1576951e-05 -0.12076295
00000000: e029 86b7 081c 3fbe 36c7 86b7 0eb3 79be
00000010: 6070 5937 4f13 963e e07c 88b6 74a0 10bf
00000020: a03a 42b7 9152 f7bd

omega_optimized f4 [5, 2]
0.0689594 -0.2834858 0.47307825 -0.36117128 0.20565009 0.06945617 -0.17720684 -0.19246565
-0.21923548 0.058147375
00000000: 963a 8d3d 0d25 91be 5037 f23e 71eb b8be
00000010: f095 523e 093f 8e3d b675 35be b715 45be
00000020: 447f 60be f12b 6e3d

a f4 [2]
0.574004 1.2018197
00000000: edf1 123f 3ad5 993f

b f4 [2]
-1.8200144 0.06526409
00000000: 3bf6 e8bf 2ea9 853d

omega_init f4 [5, 2]
2.082099e-06 0.30167887 6.433038e-07 0.16232455 -1.4267539e-06 0.58239317 5.230263e-07 0.043734867
1.4863163e-06 -0.29465565
00000000: 30ba 0b36 a775 9a3e 80af 2c35 6838 263e
00000010: e47e bfb5 b817 153f 1866 0c35 5523 333d
00000020: 707d c735 1bdd 96be

omega_optimized f4 [5, 2]
0.3016102 -0.20274498 0.52586746 0.08374298 0.4911025 0.015781365 0.48979223 0.16479139
-0.14220947 -0.21924074
00000000: a76c 9a3e 619c 4fbe 409f 063f 7181 ab3d
00000010: c971 fb3e ec47 813c 0cc6 fa3e 13bf 283e
00000020: 5c9f 11be a580 60be

a f4 [2]
2.8152125 1.5634509
00000000: 712c 3440 291f c83f

b f4 [2]
2.3567834 1.6151125
00000000: 8ad5 1640 02bc ce3f

omega_init f4 [5, 2]
-3.081144e-05 -0.0021942765 -7.661914e-06 -0.04016159 3.587354e-05 0.002142202 -4.365422e-06 -0.018263714
-1.7068945e-05 0.099815935
00000000: 883b 01b8 dacd 0fbb ac8b 00b7 7b80 24bd
00000010: ec76 1638 3064 0c3b b07a 92b6 c99d 95bc
00000020: 482f 8fb7 4c6c cc3d

omega_optimized f4 [5, 2]
-0.0233553 0.005372918 -0.025583062 0.009498337 -0.06624869 0.024169758 -0.009165952 0.0016534531
0.02285234 -0.0071678464
00000000: 9d53 bfbc 4e0f b03b 9293 d1bc ea9e 1b3c
00000010: 65ad 87bd a8ff c53c ca2c 16bc aeb8 d83a
00000020: d534 bb3c 41e0 eabb

a f4 [2]
2.8152125 1.5634509
00000000: 712c 3440 291f c83f

b f4 [2]
-0.8012832 0.22024894
00000000: e520 4dbf f088 613e

omega_init f4 [5, 2]
-1.06472e-06 0.24915746 -6.3241714e-08 0.021865308 1.5173111e-06 -0.71220034 -3.79138e-07 0.028766986
-1.3283999e-06 0.067138076
00000000: 80e7 8eb5 2223 7f3e 80cf 87b3 e01e b33c
00000010: 6aa6 cb35 c352 36bf 548c cbb4 bea8 eb3c
00000020: 794b b2b5 b07f 893d

omega_optimized f4 [5, 2]
-0.40465686 0.25127366 -0.14318258 0.23490837 -0.67229193 -0.13972221 -0.19537023 0.263775
-0.307419 0.34696925
00000000: 2f2f cfbe f1a6 803e 749e 12be d28b 703e
00000010: 531b 2cbf 5713 0fbe 220f 48be 840d 873e
00000020: 0666 9dbe f4a5 b13e

a f4 [2]
2.8152125 1.5634509
00000000: 712c 3440 291f c83f

b f4 [2]
-0.7503466 0.06526409
00000000: b716 40bf 2ea9 853d

omega_init f4 [5, 2]
-4.89378e-06 0.38591054 -3.0456358e-06 -0.16054969 8.7752005e-06 -0.83732957 -3.8406506e-06 0.73719686
-7.683863e-06 -0.14130086
00000000: 4035 a4b6 1196 c53e a063 4cb6 2367 24be
00000010: 3339 1337 3b5b 56bf f0de 80b6 efb8 3c3f
00000020: f1e9 00b7 2cb1 10be

omega_optimized f4 [5, 2]
-0.47759217 0.29771414 -0.18687159 0.18573712 -0.6981941 -0.16957921 -0.13232397 0.48661584
-0.3226393 -0.0017120049
00000000: f686 f4be fd6d 983e 445b 3fbe df31 3e3e
00000010: d9bc 32bf 2ca6 2dbe ef7f 07be b625 f93e
00000020: fa30 a5be 5a65 e0ba

a f4 [2]
2.8152125 1.5634509
00000000: 712c 3440 291f c83f

b f4 [2]
-0.9031563 0.16858731
00000000: 4035 67bf 27a2 2c3e

omega_init f4 [5, 2]
-1.3413464e-06 0.43779358 -1.0896665e-06 -0.2508991 8.279876e-07 -0.9989169 -3.1128047e-07 0.5977577
-3.4404275e-07 0.17110805
00000000: 5008 b4b5 7b26 e03e a840 92b5 d975 80be
00000010: e042 5e35 05b9 7fbf 101e a7b4 a606 193f
00000020: e0b4 b8b4 f336 2f3e

omega_optimized f4 [5, 2]
-0.4229788 0.36725554 -0.14910524 0.10832633 -0.6324551 -0.3888176 -0.34313068 0.4292145
-0.23366413 0.16821277
00000000: ad90 d8be eb08 bc3e 0baf 18be 32da dd3d
00000010: 94e8 21bf 1a13 c7be d3ae afbe 01c2 db3e
00000020: a645 6fbe f83f 2c3e

a f4 [2]
2.8152125 1.5634509
00000000: 712c 3440 291f c83f

b f4 [2]
-1.4125218 0.16858731
00000000: 84cd b4bf 27a2 2c3e

omega_init f4 [5, 2]
1.7817456e-06 0.3540822 6.267892e-07 0.65421903 -6.3566404e-08 -0.7005837 -9.9410045e-09 0.63928884
-1.4221285e-06 -0.053517412
00000000: 5024 ef35 434a b53e a040 2835 e67a 273f
00000010: 0082 88b3 7459 33bf 00c9 2ab2 6fa8 233f
00000020: f7df beb5 1335 5bbd

omega_optimized f4 [5, 2]
-0.2991907 0.20094165 0.14963014 0.3462852 -0.55332524 -0.31511253 -0.66026235 0.95576304
-0.32297668 0.1743511
00000000: 862f 99be a6c3 4d3e a538 193e 4b4c b13e
00000010: b9a6 0dbf 6e56 a1be f406 29bf e3ac 743f
00000020: 335d a5be 1889 323e

a f4 [2]
2.8152125 1.5634509
00000000: 712c 3440 291f c83f

b f4 [2]
-1.1578391 0.06526409
00000000: 1234 94bf 2ea9 853d

omega_init f4 [5, 2]
-9.832154e-06 0.51649207 8.8379675e-06 -0.19138753 -1.1762826e-05 -1.2051157 -9.193665e-06 0.37527072
-7.043343e-06 0.22228666
00000000: c8f4 24b7 d338 043f c846 1437 18fb 43be
00000010: f458 45b7 3b41 9abf 7e3e 1ab7 7c23 c03e
00000020: db55 ecb6 1d9f 633e

omega_optimized f4 [5, 2]
-0.4668883 0.569977 -0.032540616 0.18316774 -0.6416931 -0.5796473 -0.52747685 0.3669484
-0.37046856 0.5106177
00000000: fc0b efbe 03ea 113f 4f49 05bd 5390 3b3e
00000010: 0046 24bf c463 14bf b908 07bf a9e0 bb3e
00000020: 0eae bdbe d7b7 023f

a f4 [2]
2.8152125 1.5634509
00000000: 712c 3440 291f c83f

b f4 [2]
-1.8200144 0.06526409
00000000: 3bf6 e8bf 2ea9 853d

omega_init f4 [5, 2]
-6.708453e-06 0.079270855 -2.2860677e-06 0.9740555 8.2219085e-06 0.29404926 -2.6876023e-07 -0.30133936
-1.6304257e-06 0.3969786
00000000: 2c19 e1b6 c258 a23d 586a 19b6 b45b 793f
00000010: d4f0 0937 a08d 963e 204a 90b4 2749 9abe
00000020: 00d5 dab5 c740 cb3e

omega_optimized f4 [5, 2]
-0.2802082 0.1728556 0.3845539 0.542525 -0.37445843 -0.34581184 -0.7613986 0.19614717
-0.07566964 0.26291794
00000000: 7377 8fbe 0f01 313e 40e4 c43e ebe2 0a3f
00000010: 04b9 bfbe 400e b1be 05eb 42bf ceda 483e
00000020: aff8 9abd 2e9d 863e

a f4 [2]
2.3567834 1.6151125
00000000: 8ad5 1640 02bc ce3f

b f4 [2]
-0.8012832 0.22024894
00000000: e520 4dbf f088 613e

omega_init f4 [5, 2]
-1.1712915e-06 0.4406064 -2.4747728e-06 -0.18881683 1.3238152e-06 -0.75628245 -3.2393996e-07 0.0106224865
-3.3413198e-07 -0.1173659
00000000: 4535 9db5 2997 e13e 4614 26b6 3359 41be
00000010: f2ad b135 ba9b 41bf f8e9 adb4 f009 2e3c
00000020: c062 b3b4 885d f0bd

omega_optimized f4 [5, 2]
-0.39389104 0.19459446 -0.11108143 0.10059736 -0.4865827 -0.28182805 -0.38784215 0.380961
-0.16220234 0.17865339
00000000: 16ac c9be c543 473e a97e e3bd fd05 ce3d
00000010: 5e21 f9be c44b 90be 3f93 c6be 520d c33e
00000020: 5f18 26be eaf0 363e

a f4 [2]
2.3567834 1.6151125
00000000: 8ad5 1640 02bc ce3f

b f4 [2]
-0.7503466 0.06526409
00000000: b716 40bf 2ea9 853d

omega_init f4 [5, 2]
-1.2036253e-05 -0.2120452 -5.2065975e-06 -0.62214106 5.574482e-06 -0.22126976 -4.9244954e-06 -0.29921275
-7.106082e-06 -0.5137555
00000000: 50ef 49b7 6022 59be 55b4 aeb6 a344 1fbf
00000010: 700c bb36 8a94 62be 183d a5b6 6a32 99be
00000020: c870 eeb6 7b85 03bf

omega_optimized f4 [5, 2]
-0.45611066 -0.04846926 -0.17866287 -0.23279369 -0.55261457 0.26650265 -0.3636567 -0.09741428
-0.28359953 -0.21706285
00000000: 5687 e9be b487 46bd 66f3 36be 7861 6ebe
00000010: 2678 0dbf 0973 883e 3631 babe 2381 c7bd
00000020: f533 91be b945 5ebe

a f4 [2]
2.3567834 1.6151125
00000000: 8ad5 1640 02bc ce3f

b f4 [2]
-0.9031563 0.16858731
00000000: 4035 67bf 27a2 2c3e

omega_init f4 [5, 2]
-6.441213e-05 0.45777288 4.2402055e-05 -0.17623508 -3.6117955e-05 -0.76071316 -3.2406795e-05 -0.15680085
-1.6660968e-05 -0.03591019
00000000: 0015 87b8 3561 ea3e dcd8 3138 f876 34be
00000010: 5c7d 17b8 19be 42bf 88ec 07b8 6790 20be
00000020: 28c3 8bb7 9016 13bd

omega_optimized f4 [5, 2]
-0.38736448 0.22320381 -0.05413779 0.09975767 -0.50611615 -0.22583356 -0.49215427 0.30033758
-0.15854956 0.2523255
00000000: a354 c6be 8a8f 643e 96bf 5dbd c04d cc3d
00000010: d490 01bf ea40 67be a5fb fbbe d9c5 993e
00000020: d15a 22be cf30 813e

a f4 [2]
2.3567834 1.6151125
00000000: 8ad5 1640 02bc ce3f

b f4 [2]
-1.4125218 0.16858731
00000000: 84cd b4bf 27a2 2c3e

omega_init f4 [5, 2]
-6.0804014e-06 1.0565923 -1.2170509e-05 0.45962182 2.3255343e-06 -1.2568452 -3.9519637e-07 -0.28694573
-3.3533252e-06 0.5915084
00000000: 4006 ccb6 6b3e 873f f02f 4cb7 8d53 eb3e
00000010: 6010 1c36 4ee0 a0bf 602b d4b4 8dea 92be
00000020: b009 61b6 186d 173f

omega_optimized f4 [5, 2]
-0.2938924 0.5749319 0.2809198 0.37090907 -0.29251075 -0.87236947 -0.7021259 0.26281962
-0.044796538 0.5412356
00000000: 1179 96be bd2e 133f b8d4 8f3e cbe7 bd3e
00000010: f8c3 95be 9b53 5fbf 86be 33bf 4b90 863e
00000020: 937c 37bd 6b8e 0a3f

a f4 [2]
2.3567834 1.6151125
00000000: 8ad5 1640 02bc ce3f

b f4 [2]
-1.1578391 0.06526409
00000000: 1234 94bf 2ea9 853d

omega_init f4 [5, 2]
-1.1679163e-05 0.3334813 -1.6871112e-05 -0.11071829 1.2207856e-05 -0.52457935 -6.615028e-07 -0.77668744
-8.109706e-06 0.091417156
00000000: a0f1 43b7 10be aa3e 7086 8db7 45c0 e2bd
00000010: 58d0 4c37 d54a 06bf 2092 31b5 fdd4 46bf
00000020: ec0e 08b7 eb38 bb3d

omega_optimized f4 [5, 2]
-0.40671724 0.20844962 0.12388526 -0.09680353 -0.49884397 0.03668782 -0.5409756 -0.23833974
-0.42227867 0.3910002
00000000: 3e3d d0be d173 553e 8eb7 fd3d ee40 c6bd
00000010: 7a68 ffbe f845 163d 607d 0abf 550f 74be
00000020: e934 d8be 2e31 c83e

a f4 [2]
2.3567834 1.6151125
00000000: 8ad5 1640 02bc ce3f

b f4 [2]
-1.8200144 0.06526409
00000000: 3bf6 e8bf 2ea9 853d

omega_init f4 [5, 2]
-7.191435e-05 1.0064787 3.602481e-05 0.9710016 -4.2323998e-05 -0.40030292 -2.8890317e-05 -0.2538768
-7.063223e-06 0.81825656
00000000: b9d0 96b8 4bd4 803f 5819 1738 9093 783f
00000010: 0c85 31b8 81f4 ccbe 7c59 f2b7 24fc 81be
00000020: a000 edb6 4379 513f

omega_optimized f4 [5, 2]
-0.3689585 0.58227646 0.47131807 0.6481521 -0.080885775 -0.9268374 -0.76207274 0.20678668
0.05258809 0.6037802
00000000: 21e8 bcbe 1210 153f 9a50 f13e 4ced 253f
00000010: 71a7 a5bd 3745 6dbf 3317 43bf e3bf 533e
00000020: 9c66 573d 5791 1a3f

a f4 [2]
-0.8012832 0.22024894
00000000: e520 4dbf f088 613e

b f4 [2]
-0.7503466 0.06526409
00000000: b716 40bf 2ea9 853d

omega_init f4 [5, 2]
0.065200545 -0.013824406 0.008608946 -0.0007046943 0.020708647 0.02210428 0.014960467 0.012906052
-0.0044726306 -0.0031149518
00000000: dd87 853d c37f 62bc 890c 0d3c 3cbb 38ba
00000010: 2ea5 a93c 0914 b53c bf1c 753c e873 533c
00000020: 258f 92bb 3824 4cbb

omega_optimized f4 [5, 2]
0.038544875 0.0060195434 0.044626147 0.011131618 0.047445357 -0.000850553 -0.05620152 -0.015578959
0.014737461 0.0044552763
00000000: 3be1 1d3d 973f c53b e8c9 363d 6461 363c
00000010: 1056 423d a5f7 5eba 9133 66bd e43e 7fbc
00000020: 6475 713c 91fd 913b

a f4 [2]
-0.8012832 0.22024894
00000000: e520 4dbf f088 613e

b f4 [2]
-0.9031563 0.16858731
00000000: 4035 67bf 27a2 2c3e

omega_init f4 [5, 2]
0.0011870135 -0.04653074 0.009508027 -0.027036764 -0.0065084333 -0.008027822 0.0051075635 0.010067008
0.011545187 0.009700266
00000000: 9095 9b3a 0497 3ebd 8ec7 1b3c 347c ddbc
00000010: b244 d5bb 2087 03bc 595d a73b 18f0 243c
00000020: 0628 3d3c dded 1e3c

omega_optimized f4 [5, 2]
0.00013118274 -0.000113034046 0.00011267016 -9.641264e-05 -0.00016704756 0.0001430954 6.731085e-05 -5.706711e-05
0.0001600127 -0.00013752966
00000000: 198e 0939 b10c edb8 5549 ec38 2431 cab8
00000010: 7d29 2fb9 e10b 1639 3d29 8d38 585b 6fb8
00000020: 15c9 2739 d635 10b9

a f4 [2]
-0.8012832 0.22024894
00000000: e520 4dbf f088 613e

b f4 [2]
-1.4125218 0.16858731
00000000: 84cd b4bf 27a2 2c3e

omega_init f4 [5, 2]
-0.000102424965 -0.004029489 -9.3870214e-05 0.03802348 0.00013357506 -0.0007904592 -3.804928e-05 0.02781541
-0.00011863035 -0.1165408
00000000: fccc d6b8 ce09 84bb 30dc c4b8 82be 1b3d
00000010: 4810 0c39 d236 4fba 1a97 1fb8 25dd e33c
00000020: 2fc9 f8b8 f1ac eebd

omega_optimized f4 [5, 2]
0.0716811 0.044159908 0.05865275 0.031041367 0.09693415 0.030912973 -0.034361 -0.0003210543
0.034806527 -0.03310985
00000000: 8acd 923d 05e1 343d de3d 703d 774a fe3c
00000010: 6985 c63d 343d fd3c 1fbe 0cbd 2e53 a8b9
00000020: 4a91 0e3d 329e 07bd

a f4 [2]
-0.8012832 0.22024894
00000000: e520 4dbf f088 613e

b f4 [2]
-1.1578391 0.06526409
00000000: 1234 94bf 2ea9 853d

omega_init f4 [5, 2]
-1.9675463e-05 0.12261705 6.868475e-06 -0.037749216 -1.3624223e-05 -0.08950399 -1.1131873e-05 0.13614333
-8.971065e-06 -0.032117892
00000000: bc0c a5b7 a61e fb3d c077 e636 ec9e 1abd
00000010: 9893 64b7 de4d b7bd 08c3 3ab7 2869 0b3e
00000020: 6e82 16b7 0d8e 03bd

omega_optimized f4 [5, 2]
0.09091931 -0.023417681 0.083866425 -0.024045998 0.13511218 -0.00051741896 0.006932815 0.033962462
-0.06877716 -0.0090925805
00000000: e733 ba3d 70d6 bfbc 29c2 ab3d 1dfc c4bc
00000010: d95a 0a3e 66a3 07ba ab2c e33b 391c 0b3d
00000020: 0adb 8cbd 0cf9 14bc

a f4 [2]
-0.8012832 0.22024894
00000000: e520 4dbf f088 613e

b f4 [2]
-1.8200144 0.06526409
00000000: 3bf6 e8bf 2ea9 853d

omega_init f4 [5, 2]
-6.24253e-05 0.072907075 -8.217945e-05 0.1404643 4.8215734e-05 -0.010625959 -5.353977e-06 -0.0499954
-3.4071505e-05 -0.10681898
00000000: 54ea 82b8 4e50 953d c257 acb8 e0d5 0f3e
00000010: 403b 4a38 8118 2ebc 50a6 b3b6 fac7 4cbd
00000020: 00e8 0eb8 e9c3 dabd

omega_optimized f4 [5, 2]
0.17517826 0.10537201 -0.030626921 0.048522986 0.1177731 0.09896351 0.04313391 -0.04511301
0.05159821 -0.025940195
00000000: ee61 333e 48cd d73d 4fe5 fabc 0ac0 463d
00000010: 0633 f13d 61ad ca3d 2fad 303d 6bc8 38bd
00000020: a558 533d 8880 d4bc

a f4 [2]
-0.7503466 0.06526409
00000000: b716 40bf 2ea9 853d

b f4 [2]
-0.9031563 0.16858731
00000000: 4035 67bf 27a2 2c3e

omega_init f4 [5, 2]
0.0056887395 0.00469127 0.006407192 0.04295678 -0.008229178 0.04180347 0.004303742 -0.0022095651
0.010623252 -0.01797896
00000000: 9b68 ba3b 3ab9 993b 6cf3 d13b 73f3 2f3d
00000010: add3 06bc 1e3a 2b3d 6806 8d3b 5ace 10bb
00000020: 260d 2e3c 9d48 93bc

omega_optimized f4 [5, 2]
0.016344268 -0.0003528553 0.026693152 -0.0039585247 0.03321609 0.018149948 -0.008856917 1.5975029e-05
-0.0014086352 -0.01347102
00000000: 6ae4 853c 70ff b8b9 99ab da3c 83b6 81bb
00000010: 980d 083d 33af 943c 9a1c 11bc 1d02 8637
00000020: f4a1 b8ba 8eb5 5cbc

a f4 [2]
-0.7503466 0.06526409
00000000: b716 40bf 2ea9 853d

b f4 [2]
-1.4125218 0.16858731
00000000: 84cd b4bf 27a2 2c3e

omega_init f4 [5, 2]
-7.389161e-05 -0.055278033 -8.854049e-05 -0.0830765 0.0001264078 -0.029888473 -2.9180468e-05 0.06869717
-0.00010625343 0.0005503968
00000000: 42f6 9ab8 386b 62bd d0ae b9b8 0324 aabd
00000010: 568c 0439 acd8 f4bc 94c8 f4b7 1ab1 8c3d
00000020: 60d4 deb8 8148 103a

omega_optimized f4 [5, 2]
0.040394314 -0.04210867 0.060804095 -0.025091846 0.1105035 -0.031984776 0.016126854 -0.005142493
-0.020111019 0.009250962
00000000: 8274 253d 247a 2cbd b70d 793d 6a8d cdbc
00000010: a94f e23d 7802 03bd 771c 843c 5c82 a8bb
00000020: ddbf a4bc 5991 173c

a f4 [2]
-0.7503466 0.06526409
00000000: b716 40bf 2ea9 853d

b f4 [2]
-1.1578391 0.06526409
00000000: 1234 94bf 2ea9 853d

omega_init f4 [5, 2]
-8.164084e-05 0.00012334145 -8.342296e-05 9.559229e-05 0.00013009872 -5.5223645e-05 -2.4185414e-05 -7.819774e-05
-0.00010121096 0.00026358667
00000000: 9836 abb8 3855 0139 5cf3 aeb8 b878 c838
00000010: 1c6b 0839 f09f 67b8 c8e1 cab7 18fe a3b8
00000020: 3841 d4b8 0132 8a39

omega_optimized f4 [5, 2]
-0.0024699203 -0.019380348 0.027252823 -0.014967344 0.026578754 -0.025243988 0.0019238942 -0.0002630615
-0.033019114 0.012525277
00000000: 63de 21bb 89c3 9ebc 5041 df3c 9739 75bc
00000010: b0bb d93c 7bcc cebc 2d2b fc3a 84eb 89b9
00000020: 0d3f 07bd d236 4d3c

a f4 [2]
-0.7503466 0.06526409
00000000: b716 40bf 2ea9 853d

b f4 [2]
-1.8200144 0.06526409
00000000: 3bf6 e8bf 2ea9 853d

omega_init f4 [5, 2]
-7.733423e-05 0.00013444884 -0.00010798732 0.00014868184 0.00019946639 -0.00012494734 -2.7511967e-05 0.00016768186
-0.00013186608 0.00021209632
00000000: 802e a2b8 d6fa 0c39 4077 e2b8 7ae7 1b39
00000010: da27 5139 4c04 03b9 80c9 e6b7 c2d3 2f39
00000020: 8845 0ab9 2c66 5e39

omega_optimized f4 [5, 2]
0.13640931 -0.06912793 0.14749943 2.1414939e-05 0.13504736 -0.0304576 0.022333147 0.02044447
-0.103859305 0.0480704
00000000: e2ae 0b3e f292 8dbd 170a 173e 3ba4 b337
00000010: db49 0a3e 3782 f9bc 01f4 b63c 297b a73c
00000020: 30b4 d4bd 78e5 443d

a f4 [2]
-0.9031563 0.16858731
00000000: 4035 67bf 27a2 2c3e

b f4 [2]
-1.4125218 0.16858731
00000000: 84cd b4bf 27a2 2c3e

omega_init f4 [5, 2]
-6.822608e-05 9.39692e-05 -7.033961e-05 8.889059e-05 0.00011388831 -0.00010582182 -2.7034439e-05 4.9164373e-05
-9.0087975e-05 0.00013834838
00000000: 9914 8fb8 5511 c538 4a83 93b8 c66a ba38
00000010: 52d7 ee38 a8ec ddb8 04c8 e2b7 d835 4e38
00000020: 9ded bcb8 9c11 1139

omega_optimized f4 [5, 2]
0.07799783 -0.00015627606 0.044680193 -0.0134496875 0.14402536 -0.021794539 0.06970706 0.009010767
-0.06981902 0.0034396572
00000000: 54bd 9f3d 09de 23b9 9402 373d 145c 5cbc
00000010: 627b 133e 768a b2bc 93c2 8e3d e5a1 133c
00000020: 46fd 8ebd df6b 613b

a f4 [2]
-0.9031563 0.16858731
00000000: 4035 67bf 27a2 2c3e

b f4 [2]
-1.1578391 0.06526409
00000000: 1234 94bf 2ea9 853d

omega_init f4 [5, 2]
0.00669869 0.06259768 0.0049610483 0.06542319 -0.007490589 -0.12552439 0.0005037019 0.2575121
0.010463537 -0.20199688
00000000: af80 db3b 3633 803d 4a90 a23b 98fc 853d
00000010: 9d73 f5bb 7789 00be dd0a 043a a0d8 833e
00000020: 416f 2b3c 45d8 4ebe

omega_optimized f4 [5, 2]
0.06540585 -0.0053590396 -0.007083266 -0.01024419 0.08035582 -0.030972937 -0.046156857 0.0064224885
-0.054669872 0.012056482
00000000: 81f3 853d e29a afbb be1a e8bb 3fd7 27bc
00000010: 9891 a43d f5ba fdbc f90e 3dbd bd73 d23b
00000020: 84ed 5fbd 8d88 453c

a f4 [2]
-0.9031563 0.16858731
00000000: 4035 67bf 27a2 2c3e

b f4 [2]
-1.8200144 0.06526409
00000000: 3bf6 e8bf 2ea9 853d

omega_init f4 [5, 2]
-7.727497e-05 0.022145983 -0.0001268079 0.08635048 0.00017844228 -0.007239318 -2.7698152e-05 0.010325664
-0.00013020774 -0.15041113
00000000: af0e a2b8 7e6b b53c bdf7 04b9 85d8 b03d
00000010: 3c1c 3b39 cd37 edbb 5459 e8b7 f92c 293c
00000020: 6088 08b9 6005 1abe

omega_optimized f4 [5, 2]
0.15600099 -0.0925224 -0.050243013 -0.010375733 0.1680437 -0.0011664861 -0.15210725 0.026650539
-0.13568638 0.0071469317
00000000: b9be 1f3e 627c bdbd 9ecb 4dbd fafe 29bc
00000010: a613 2c3e c7e4 98ba 01c2 1bbe 3b52 da3c
00000020: 5ff1 0abe cf30 ea3b

a f4 [2]
-1.4125218 0.16858731
00000000: 84cd b4bf 27a2 2c3e

b f4 [2]
-1.1578391 0.06526409
00000000: 1234 94bf 2ea9 853d

omega_init f4 [5, 2]
0.0067131673 0.02344838 0.0049950564 0.028320728 -0.0074752816 0.13993059 0.00048962806 -0.11471765
0.010449768 0.048542522
00000000: 21fa db3b d116 c03c 92ad a33b df00 e83c
00000010: 35f3 f4bb f749 0f3e 625a 003a 16f1 eabd
00000020: 8135 2b3c 86d4 463d

omega_optimized f4 [5, 2]
0.0052650217 -0.0034807448 0.0005226769 -0.0020969927 -0.010667573 0.00023360453 0.002831151 -0.0021545298
0.005289856 -0.00069757545
00000000: 3486 ac3b 351d 64bb 4104 093a b36d 09bb
00000010: 0bc7 2ebc bdf3 7439 d58a 393b 0333 0dbb
00000020: 8756 ad3b 7fdd 36ba

a f4 [2]
-1.4125218 0.16858731
00000000: 84cd b4bf 27a2 2c3e

b f4 [2]
-1.8200144 0.06526409
00000000: 3bf6 e8bf 2ea9 853d

omega_init f4 [5, 2]
-3.8238184e-05 0.15626824 -2.5793997e-05 -0.031411383 -9.124604e-06 -0.19677095 8.585714e-06 -0.05947881
2.114191e-05 0.10210729
00000000: f061 20b8 c804 203e 3060 d8b7 39a9 00bd
00000010: e015 19b7 537e 49be 5c0b 1037 0da0 73bd
00000020: e859 b137 a01d d13d

omega_optimized f4 [5, 2]
0.011290524 -0.008228482 -0.0070057316 0.0009752481 0.0020571474 -7.676038e-05 -0.008368679 0.0012994583
-0.010926968 0.0011999966
00000000: e4fb 383c c1d0 06bc 5690 e5bb cba7 7f3a
00000010: 35d1 063b 6afa a0b8 c91c 09bc 9652 aa3a
00000020: 0707 33bc 3449 9d3a

a f4 [2]
-1.1578391 0.06526409
00000000: 1234 94bf 2ea9 853d

b f4 [2]
-1.8200144 0.06526409
00000000: 3bf6 e8bf 2ea9 853d

omega_init f4 [5, 2]
0.0058174427 -0.007956573 0.0045818943 -0.0053099864 -0.008270304 0.008671226 0.0026228128 0.0007207593
0.0075401836 -0.012462869
00000000: 3fa0 be3b 495c 02bc b723 963b 65ff adbb
00000010: 2b80 07bc c211 0e3c 7fe3 2b3b 56f1 3c3a
00000020: a513 f73b 1031 4cbc

omega_optimized f4 [5, 2]
0.056279745 0.0022112438 0.051960777 -0.012531817 0.0244512 -0.011822105 -0.037724063 0.007997081
0.015246552 -0.00074261584
00000000: 9785 663d 84ea 103b d3d4 543d 4052 4dbc
00000010: e24d c83c 81b1 41bc 8c84 1abd 3006 033c
00000020: adcc 793c 1bac 42ba
