src/artifacts/spline_ensemble_seed12_p10_rerun1_dec0.pt (torch, 73618 bytes, 135 tensors)

a f4 [2]
000000 2a 85 43 3f 7f d3 36 40
       0.7637507 2.8566587

b f4 [2]
000000 db 81 81 bf 31 98 d9 3f
       -1.0117754 1.699957

omega_init f4 [5, 2]
000000 22 7f b8 bb 10 53 ed bc f3 58 bc 3a ae b4 cc bb
       -0.00563039 -0.028970271 0.0014369771 -0.0062471246
000010 23 90 73 bc 7e 2d 5d 3c c2 91 8a 3b 13 06 4a 3c
       -0.014865908 0.013499616 0.0042288015 0.01233055
000020 47 bc 6e 3c 41 c6 f9 3a
       0.014571256 0.0019056277

a f4 [2]
000000 2a 85 43 3f 7f d3 36 40
       0.7637507 2.8566587

b f4 [2]
000000 37 77 28 c0 28 c2 17 40
       -2.6322763 2.3712254

omega_init f4 [5, 2]
000000 22 7f b8 bb 10 53 ed bc f3 58 bc 3a ae b4 cc bb
       -0.00563039 -0.028970271 0.0014369771 -0.0062471246
000010 23 90 73 bc 7e 2d 5d 3c c2 91 8a 3b 13 06 4a 3c
       -0.014865908 0.013499616 0.0042288015 0.01233055
000020 47 bc 6e 3c 41 c6 f9 3a
       0.014571256 0.0019056277

a f4 [2]
000000 2a 85 43 3f 7f d3 36 40
       0.7637507 2.8566587

b f4 [2]
000000 42 81 15 c0 d9 94 16 40
       -2.3360143 2.352835

omega_init f4 [5, 2]
000000 22 7f b8 bb 10 53 ed bc f3 58 bc 3a ae b4 cc bb
       -0.00563039 -0.028970271 0.0014369771 -0.0062471246
000010 23 90 73 bc 7e 2d 5d 3c c2 91 8a 3b 13 06 4a 3c
       -0.014865908 0.013499616 0.0042288015 0.01233055
000020 47 bc 6e 3c 41 c6 f9 3a
       0.014571256 0.0019056277

a f4 [2]
000000 2a 85 43 3f 7f d3 36 40
       0.7637507 2.8566587

b f4 [2]
000000 e2 88 70 bf 6f 90 55 bf
       -0.93958867 -0.83423513

omega_init f4 [5, 2]
000000 22 7f b8 bb 10 53 ed bc f3 58 bc 3a ae b4 cc bb
       -0.00563039 -0.028970271 0.0014369771 -0.0062471246
000010 23 90 73 bc 7e 2d 5d 3c c2 91 8a 3b 13 06 4a 3c
       -0.014865908 0.013499616 0.0042288015 0.01233055
000020 47 bc 6e 3c 41 c6 f9 3a
       0.014571256 0.0019056277

a f4 [2]
000000 2a 85 43 3f 7f d3 36 40
       0.7637507 2.8566587

b f4 [2]
000000 45 da b0 bf 14 82 ce bf
       -1.381661 -1.6133447

omega_init f4 [5, 2]
000000 22 7f b8 bb 10 53 ed bc f3 58 bc 3a ae b4 cc bb
       -0.00563039 -0.028970271 0.0014369771 -0.0062471246
000010 23 90 73 bc 7e 2d 5d 3c c2 91 8a 3b 13 06 4a 3c
       -0.014865908 0.013499616 0.0042288015 0.01233055
000020 47 bc 6e 3c 41 c6 f9 3a
       0.014571256 0.0019056277

a f4 [2]
000000 2a 85 43 3f 7f d3 36 40
       0.7637507 2.8566587

b f4 [2]
000000 e6 76 5a bf 0f a0 67 bf
       -0.85337675 -0.90478605

omega_init f4 [5, 2]
000000 22 7f b8 bb 10 53 ed bc f3 58 bc 3a ae b4 cc bb
       -0.00563039 -0.028970271 0.0014369771 -0.0062471246
000010 23 90 73 bc 7e 2d 5d 3c c2 91 8a 3b 13 06 4a 3c
       -0.014865908 0.013499616 0.0042288015 0.01233055
000020 47 bc 6e 3c 41 c6 f9 3a
       0.014571256 0.0019056277

a f4 [2]
000000 2a 85 43 3f 7f d3 36 40
       0.7637507 2.8566587

b f4 [2]
000000 ea b6 78 bf d8 a4 9b bf
       -0.97154105 -1.2159681

omega_init f4 [5, 2]
000000 22 7f b8 bb 10 53 ed bc f3 58 bc 3a ae b4 cc bb
       -0.00563039 -0.028970271 0.0014369771 -0.0062471246
000010 23 90 73 bc 7e 2d 5d 3c c2 91 8a 3b 13 06 4a 3c
       -0.014865908 0.013499616 0.0042288015 0.01233055
000020 47 bc 6e 3c 41 c6 f9 3a
       0.014571256 0.0019056277

a f4 [2]
000000 2a 85 43 3f 7f d3 36 40
       0.7637507 2.8566587

b f4 [2]
000000 21 71 89 bf 35 42 a5 bf
       -1.0737649 -1.291083

omega_init f4 [5, 2]
000000 22 7f b8 bb 10 53 ed bc f3 58 bc 3a ae b4 cc bb
       -0.00563039 -0.028970271 0.0014369771 -0.0062471246
000010 23 90 73 bc 7e 2d 5d 3c c2 91 8a 3b 13 06 4a 3c
       -0.014865908 0.013499616 0.0042288015 0.01233055
000020 47 bc 6e 3c 41 c6 f9 3a
       0.014571256 0.0019056277

a f4 [2]
000000 2a 85 43 3f 7f d3 36 40
       0.7637507 2.8566587

b f4 [2]
000000 ea 87 91 bf 56 43 de bf
       -1.1369603 -1.7364299

omega_init f4 [5, 2]
000000 22 7f b8 bb 10 53 ed bc f3 58 bc 3a ae b4 cc bb
       -0.00563039 -0.028970271 0.0014369771 -0.0062471246
000010 23 90 73 bc 7e 2d 5d 3c c2 91 8a 3b 13 06 4a 3c
       -0.014865908 0.013499616 0.0042288015 0.01233055
000020 47 bc 6e 3c 41 c6 f9 3a
       0.014571256 0.0019056277

a f4 [2]
000000 db 81 81 bf 31 98 d9 3f
       -1.0117754 1.699957

b f4 [2]
000000 37 77 28 c0 28 c2 17 40
       -2.6322763 2.3712254

omega_init f4 [5, 2]
000000 22 7f b8 bb 10 53 ed bc f3 58 bc 3a ae b4 cc bb
       -0.00563039 -0.028970271 0.0014369771 -0.0062471246
000010 23 90 73 bc 7e 2d 5d 3c c2 91 8a 3b 13 06 4a 3c
       -0.014865908 0.013499616 0.0042288015 0.01233055
000020 47 bc 6e 3c 41 c6 f9 3a
       0.014571256 0.0019056277

a f4 [2]
000000 db 81 81 bf 31 98 d9 3f
       -1.0117754 1.699957

b f4 [2]
000000 42 81 15 c0 d9 94 16 40
       -2.3360143 2.352835

omega_init f4 [5, 2]
000000 22 7f b8 bb 10 53 ed bc f3 58 bc 3a ae b4 cc bb
       -0.00563039 -0.028970271 0.0014369771 -0.0062471246
000010 23 90 73 bc 7e 2d 5d 3c c2 91 8a 3b 13 06 4a 3c
       -0.014865908 0.013499616 0.0042288015 0.01233055
000020 47 bc 6e 3c 41 c6 f9 3a
       0.014571256 0.0019056277

a f4 [2]
000000 db 81 81 bf 31 98 d9 3f
       -1.0117754 1.699957

b f4 [2]
000000 e2 88 70 bf 6f 90 55 bf
       -0.93958867 -0.83423513

omega_init f4 [5, 2]
000000 22 7f b8 bb 10 53 ed bc f3 58 bc 3a ae b4 cc bb
       -0.00563039 -0.028970271 0.0014369771 -0.0062471246
000010 23 90 73 bc 7e 2d 5d 3c c2 91 8a 3b 13 06 4a 3c
       -0.014865908 0.013499616 0.0042288015 0.01233055
000020 47 bc 6e 3c 41 c6 f9 3a
       0.014571256 0.0019056277

a f4 [2]
000000 db 81 81 bf 31 98 d9 3f
       -1.0117754 1.699957

b f4 [2]
000000 45 da b0 bf 14 82 ce bf
       -1.381661 -1.6133447

omega_init f4 [5, 2]
000000 22 7f b8 bb 10 53 ed bc f3 58 bc 3a ae b4 cc bb
       -0.00563039 -0.028970271 0.0014369771 -0.0062471246
000010 23 90 73 bc 7e 2d 5d 3c c2 91 8a 3b 13 06 4a 3c
       -0.014865908 0.013499616 0.0042288015 0.01233055
000020 47 bc 6e 3c 41 c6 f9 3a
       0.014571256 0.0019056277

a f4 [2]
000000 db 81 81 bf 31 98 d9 3f
       -1.0117754 1.699957

b f4 [2]
000000 e6 76 5a bf 0f a0 67 bf
       -0.85337675 -0.90478605

omega_init f4 [5, 2]
000000 22 7f b8 bb 10 53 ed bc f3 58 bc 3a ae b4 cc bb
       -0.00563039 -0.028970271 0.0014369771 -0.0062471246
000010 23 90 73 bc 7e 2d 5d 3c c2 91 8a 3b 13 06 4a 3c
       -0.014865908 0.013499616 0.0042288015 0.01233055
000020 47 bc 6e 3c 41 c6 f9 3a
       0.014571256 0.0019056277

a f4 [2]
000000 db 81 81 bf 31 98 d9 3f
       -1.0117754 1.699957

b f4 [2]
000000 ea b6 78 bf d8 a4 9b bf
       -0.97154105 -1.2159681

omega_init f4 [5, 2]
000000 22 7f b8 bb 10 53 ed bc f3 58 bc 3a ae b4 cc bb
       -0.00563039 -0.028970271 0.0014369771 -0.0062471246
000010 23 90 73 bc 7e 2d 5d 3c c2 91 8a 3b 13 06 4a 3c
       -0.014865908 0.013499616 0.0042288015 0.01233055
000020 47 bc 6e 3c 41 c6 f9 3a
       0.014571256 0.0019056277

a f4 [2]
000000 db 81 81 bf 31 98 d9 3f
       -1.0117754 1.699957

b f4 [2]
000000 21 71 89 bf 35 42 a5 bf
       -1.0737649 -1.291083

omega_init f4 [5, 2]
000000 22 7f b8 bb 10 53 ed bc f3 58 bc 3a ae b4 cc bb
       -0.00563039 -0.028970271 0.0014369771 -0.0062471246
000010 23 90 73 bc 7e 2d 5d 3c c2 91 8a 3b 13 06 4a 3c
       -0.014865908 0.013499616 0.0042288015 0.01233055
000020 47 bc 6e 3c 41 c6 f9 3a
       0.014571256 0.0019056277

a f4 [2]
000000 db 81 81 bf 31 98 d9 3f
       -1.0117754 1.699957

b f4 [2]
000000 ea 87 91 bf 56 43 de bf
       -1.1369603 -1.7364299

omega_init f4 [5, 2]
000000 22 7f b8 bb 10 53 ed bc f3 58 bc 3a ae b4 cc bb
       -0.00563039 -0.028970271 0.0014369771 -0.0062471246
000010 23 90 73 bc 7e 2d 5d 3c c2 91 8a 3b 13 06 4a 3c
       -0.014865908 0.013499616 0.0042288015 0.01233055
000020 47 bc 6e 3c 41 c6 f9 3a
       0.014571256 0.0019056277

a f4 [2]
000000 37 77 28 c0 28 c2 17 40
       -2.6322763 2.3712254

b f4 [2]
000000 42 81 15 c0 d9 94 16 40
       -2.3360143 2.352835

omega_init f4 [5, 2]
000000 22 7f b8 bb 10 53 ed bc f3 58 bc 3a ae b4 cc bb
       -0.00563039 -0.028970271 0.0014369771 -0.0062471246
000010 23 90 73 bc 7e 2d 5d 3c c2 91 8a 3b 13 06 4a 3c
       -0.014865908 0.013499616 0.0042288015 0.01233055
000020 47 bc 6e 3c 41 c6 f9 3a
       0.014571256 0.0019056277

a f4 [2]
000000 37 77 28 c0 28 c2 17 40
       -2.6322763 2.3712254

b f4 [2]
000000 e2 88 70 bf 6f 90 55 bf
       -0.93958867 -0.83423513

omega_init f4 [5, 2]
000000 22 7f b8 bb 10 53 ed bc f3 58 bc 3a ae b4 cc bb
       -0.00563039 -0.028970271 0.0014369771 -0.0062471246
000010 23 90 73 bc 7e 2d 5d 3c c2 91 8a 3b 13 06 4a 3c
       -0.014865908 0.013499616 0.0042288015 0.01233055
000020 47 bc 6e 3c 41 c6 f9 3a
       0.014571256 0.0019056277

a f4 [2]
000000 37 77 28 c0 28 c2 17 40
       -2.6322763 2.3712254

b f4 [2]
000000 45 da b0 bf 14 82 ce bf
       -1.381661 -1.6133447

omega_init f4 [5, 2]
000000 22 7f b8 bb 10 53 ed bc f3 58 bc 3a ae b4 cc bb
       -0.00563039 -0.028970271 0.0014369771 -0.0062471246
000010 23 90 73 bc 7e 2d 5d 3c c2 91 8a 3b 13 06 4a 3c
       -0.014865908 0.013499616 0.0042288015 0.01233055
000020 47 bc 6e 3c 41 c6 f9 3a
       0.014571256 0.0019056277

a f4 [2]
000000 37 77 28 c0 28 c2 17 40
       -2.6322763 2.3712254

b f4 [2]
000000 e6 76 5a bf 0f a0 67 bf
       -0.85337675 -0.90478605

omega_init f4 [5, 2]
000000 22 7f b8 bb 10 53 ed bc f3 58 bc 3a ae b4 cc bb
       -0.00563039 -0.028970271 0.0014369771 -0.0062471246
000010 23 90 73 bc 7e 2d 5d 3c c2 91 8a 3b 13 06 4a 3c
       -0.014865908 0.013499616 0.0042288015 0.01233055
000020 47 bc 6e 3c 41 c6 f9 3a
       0.014571256 0.0019056277

a f4 [2]
000000 37 77 28 c0 28 c2 17 40
       -2.6322763 2.3712254

b f4 [2]
000000 ea b6 78 bf d8 a4 9b bf
       -0.97154105 -1.2159681

omega_init f4 [5, 2]
000000 22 7f b8 bb 10 53 ed bc f3 58 bc 3a ae b4 cc bb
       -0.00563039 -0.028970271 0.0014369771 -0.0062471246
000010 23 90 73 bc 7e 2d 5d 3c c2 91 8a 3b 13 06 4a 3c
       -0.014865908 0.013499616 0.0042288015 0.01233055
000020 47 bc 6e 3c 41 c6 f9 3a
       0.014571256 0.0019056277

a f4 [2]
000000 37 77 28 c0 28 c2 17 40
       -2.6322763 2.3712254

b f4 [2]
000000 21 71 89 bf 35 42 a5 bf
       -1.0737649 -1.291083

omega_init f4 [5, 2]
000000 22 7f b8 bb 10 53 ed bc f3 58 bc 3a ae b4 cc bb
       -0.00563039 -0.028970271 0.0014369771 -0.0062471246
000010 23 90 73 bc 7e 2d 5d 3c c2 91 8a 3b 13 06 4a 3c
       -0.014865908 0.013499616 0.0042288015 0.01233055
000020 47 bc 6e 3c 41 c6 f9 3a
       0.014571256 0.0019056277

a f4 [2]
000000 37 77 28 c0 28 c2 17 40
       -2.6322763 2.3712254

b f4 [2]
000000 ea 87 91 bf 56 43 de bf
       -1.1369603 -1.7364299

omega_init f4 [5, 2]
000000 22 7f b8 bb 10 53 ed bc f3 58 bc 3a ae b4 cc bb
       -0.00563039 -0.028970271 0.0014369771 -0.0062471246
000010 23 90 73 bc 7e 2d 5d 3c c2 91 8a 3b 13 06 4a 3c
       -0.014865908 0.013499616 0.0042288015 0.01233055
000020 47 bc 6e 3c 41 c6 f9 3a
       0.014571256 0.0019056277

a f4 [2]
000000 42 81 15 c0 d9 94 16 40
       -2.3360143 2.352835

b f4 [2]
000000 e2 88 70 bf 6f 90 55 bf
       -0.93958867 -0.83423513

omega_init f4 [5, 2]
000000 22 7f b8 bb 10 53 ed bc f3 58 bc 3a ae b4 cc bb
       -0.00563039 -0.028970271 0.0014369771 -0.0062471246
000010 23 90 73 bc 7e 2d 5d 3c c2 91 8a 3b 13 06 4a 3c
       -0.014865908 0.013499616 0.0042288015 0.01233055
000020 47 bc 6e 3c 41 c6 f9 3a
       0.014571256 0.0019056277

a f4 [2]
000000 42 81 15 c0 d9 94 16 40
       -2.3360143 2.352835

b f4 [2]
000000 45 da b0 bf 14 82 ce bf
       -1.381661 -1.6133447

omega_init f4 [5, 2]
000000 22 7f b8 bb 10 53 ed bc f3 58 bc 3a ae b4 cc bb
       -0.00563039 -0.028970271 0.0014369771 -0.0062471246
000010 23 90 73 bc 7e 2d 5d 3c c2 91 8a 3b 13 06 4a 3c
       -0.014865908 0.013499616 0.0042288015 0.01233055
000020 47 bc 6e 3c 41 c6 f9 3a
       0.014571256 0.0019056277

a f4 [2]
000000 42 81 15 c0 d9 94 16 40
       -2.3360143 2.352835

b f4 [2]
000000 e6 76 5a bf 0f a0 67 bf
       -0.85337675 -0.90478605

omega_init f4 [5, 2]
000000 22 7f b8 bb 10 53 ed bc f3 58 bc 3a ae b4 cc bb
       -0.00563039 -0.028970271 0.0014369771 -0.0062471246
000010 23 90 73 bc 7e 2d 5d 3c c2 91 8a 3b 13 06 4a 3c
       -0.014865908 0.013499616 0.0042288015 0.01233055
000020 47 bc 6e 3c 41 c6 f9 3a
       0.014571256 0.0019056277

a f4 [2]
000000 42 81 15 c0 d9 94 16 40
       -2.3360143 2.352835

b f4 [2]
000000 ea b6 78 bf d8 a4 9b bf
       -0.97154105 -1.2159681

omega_init f4 [5, 2]
000000 22 7f b8 bb 10 53 ed bc f3 58 bc 3a ae b4 cc bb
       -0.00563039 -0.028970271 0.0014369771 -0.0062471246
000010 23 90 73 bc 7e 2d 5d 3c c2 91 8a 3b 13 06 4a 3c
       -0.014865908 0.013499616 0.0042288015 0.01233055
000020 47 bc 6e 3c 41 c6 f9 3a
       0.014571256 0.0019056277

a f4 [2]
000000 42 81 15 c0 d9 94 16 40
       -2.3360143 2.352835

b f4 [2]
000000 21 71 89 bf 35 42 a5 bf
       -1.0737649 -1.291083

omega_init f4 [5, 2]
000000 22 7f b8 bb 10 53 ed bc f3 58 bc 3a ae b4 cc bb
       -0.00563039 -0.028970271 0.0014369771 -0.0062471246
000010 23 90 73 bc 7e 2d 5d 3c c2 91 8a 3b 13 06 4a 3c
       -0.014865908 0.013499616 0.0042288015 0.01233055
000020 47 bc 6e 3c 41 c6 f9 3a
       0.014571256 0.0019056277

a f4 [2]
000000 42 81 15 c0 d9 94 16 40
       -2.3360143 2.352835

b f4 [2]
000000 ea 87 91 bf 56 43 de bf
       -1.1369603 -1.7364299

omega_init f4 [5, 2]
000000 22 7f b8 bb 10 53 ed bc f3 58 bc 3a ae b4 cc bb
       -0.00563039 -0.028970271 0.0014369771 -0.0062471246
000010 23 90 73 bc 7e 2d 5d 3c c2 91 8a 3b 13 06 4a 3c
       -0.014865908 0.013499616 0.0042288015 0.01233055
000020 47 bc 6e 3c 41 c6 f9 3a
       0.014571256 0.0019056277

a f4 [2]
000000 e2 88 70 bf 6f 90 55 bf
       -0.93958867 -0.83423513

b f4 [2]
000000 45 da b0 bf 14 82 ce bf
       -1.381661 -1.6133447

omega_init f4 [5, 2]
000000 22 7f b8 bb 10 53 ed bc f3 58 bc 3a ae b4 cc bb
       -0.00563039 -0.028970271 0.0014369771 -0.0062471246
000010 23 90 73 bc 7e 2d 5d 3c c2 91 8a 3b 13 06 4a 3c
       -0.014865908 0.013499616 0.0042288015 0.01233055
000020 47 bc 6e 3c 41 c6 f9 3a
       0.014571256 0.0019056277

a f4 [2]
000000 e2 88 70 bf 6f 90 55 bf
       -0.93958867 -0.83423513

b f4 [2]
000000 e6 76 5a bf 0f a0 67 bf
       -0.85337675 -0.90478605

omega_init f4 [5, 2]
000000 22 7f b8 bb 10 53 ed bc f3 58 bc 3a ae b4 cc bb
       -0.00563039 -0.028970271 0.0014369771 -0.0062471246
000010 23 90 73 bc 7e 2d 5d 3c c2 91 8a 3b 13 06 4a 3c
       -0.014865908 0.013499616 0.0042288015 0.01233055
000020 47 bc 6e 3c 41 c6 f9 3a
       0.014571256 0.0019056277

a f4 [2]
000000 e2 88 70 bf 6f 90 55 bf
       -0.93958867 -0.83423513

b f4 [2]
000000 ea b6 78 bf d8 a4 9b bf
       -0.97154105 -1.2159681

omega_init f4 [5, 2]
000000 22 7f b8 bb 10 53 ed bc f3 58 bc 3a ae b4 cc bb
       -0.00563039 -0.028970271 0.0014369771 -0.0062471246
000010 23 90 73 bc 7e 2d 5d 3c c2 91 8a 3b 13 06 4a 3c
       -0.014865908 0.013499616 0.0042288015 0.01233055
000020 47 bc 6e 3c 41 c6 f9 3a
       0.014571256 0.0019056277

a f4 [2]
000000 e2 88 70 bf 6f 90 55 bf
       -0.93958867 -0.83423513

b f4 [2]
000000 21 71 89 bf 35 42 a5 bf
       -1.0737649 -1.291083

omega_init f4 [5, 2]
000000 22 7f b8 bb 10 53 ed bc f3 58 bc 3a ae b4 cc bb
       -0.00563039 -0.028970271 0.0014369771 -0.0062471246
000010 23 90 73 bc 7e 2d 5d 3c c2 91 8a 3b 13 06 4a 3c
       -0.014865908 0.013499616 0.0042288015 0.01233055
000020 47 bc 6e 3c 41 c6 f9 3a
       0.014571256 0.0019056277

a f4 [2]
000000 e2 88 70 bf 6f 90 55 bf
       -0.93958867 -0.83423513

b f4 [2]
000000 ea 87 91 bf 56 43 de bf
       -1.1369603 -1.7364299

omega_init f4 [5, 2]
000000 22 7f b8 bb 10 53 ed bc f3 58 bc 3a ae b4 cc bb
       -0.00563039 -0.028970271 0.0014369771 -0.0062471246
000010 23 90 73 bc 7e 2d 5d 3c c2 91 8a 3b 13 06 4a 3c
       -0.014865908 0.013499616 0.0042288015 0.01233055
000020 47 bc 6e 3c 41 c6 f9 3a
       0.014571256 0.0019056277

a f4 [2]
000000 45 da b0 bf 14 82 ce bf
       -1.381661 -1.6133447

b f4 [2]
000000 e6 76 5a bf 0f a0 67 bf
       -0.85337675 -0.90478605

omega_init f4 [5, 2]
000000 22 7f b8 bb 10 53 ed bc f3 58 bc 3a ae b4 cc bb
       -0.00563039 -0.028970271 0.0014369771 -0.0062471246
000010 23 90 73 bc 7e 2d 5d 3c c2 91 8a 3b 13 06 4a 3c
       -0.014865908 0.013499616 0.0042288015 0.01233055
000020 47 bc 6e 3c 41 c6 f9 3a
       0.014571256 0.0019056277

a f4 [2]
000000 45 da b0 bf 14 82 ce bf
       -1.381661 -1.6133447

b f4 [2]
000000 ea b6 78 bf d8 a4 9b bf
       -0.97154105 -1.2159681

omega_init f4 [5, 2]
000000 22 7f b8 bb 10 53 ed bc f3 58 bc 3a ae b4 cc bb
       -0.00563039 -0.028970271 0.0014369771 -0.0062471246
000010 23 90 73 bc 7e 2d 5d 3c c2 91 8a 3b 13 06 4a 3c
       -0.014865908 0.013499616 0.0042288015 0.01233055
000020 47 bc 6e 3c 41 c6 f9 3a
       0.014571256 0.0019056277

a f4 [2]
000000 45 da b0 bf 14 82 ce bf
       -1.381661 -1.6133447

b f4 [2]
000000 21 71 89 bf 35 42 a5 bf
       -1.0737649 -1.291083

omega_init f4 [5, 2]
000000 22 7f b8 bb 10 53 ed bc f3 58 bc 3a ae b4 cc bb
       -0.00563039 -0.028970271 0.0014369771 -0.0062471246
000010 23 90 73 bc 7e 2d 5d 3c c2 91 8a 3b 13 06 4a 3c
       -0.014865908 0.013499616 0.0042288015 0.01233055
000020 47 bc 6e 3c 41 c6 f9 3a
       0.014571256 0.0019056277

a f4 [2]
000000 45 da b0 bf 14 82 ce bf
       -1.381661 -1.6133447

b f4 [2]
000000 ea 87 91 bf 56 43 de bf
       -1.1369603 -1.7364299

omega_init f4 [5, 2]
000000 22 7f b8 bb 10 53 ed bc f3 58 bc 3a ae b4 cc bb
       -0.00563039 -0.028970271 0.0014369771 -0.0062471246
000010 23 90 73 bc 7e 2d 5d 3c c2 91 8a 3b 13 06 4a 3c
       -0.014865908 0.013499616 0.0042288015 0.01233055
000020 47 bc 6e 3c 41 c6 f9 3a
       0.014571256 0.0019056277

a f4 [2]
000000 e6 76 5a bf 0f a0 67 bf
       -0.85337675 -0.90478605

b f4 [2]
000000 ea b6 78 bf d8 a4 9b bf
       -0.97154105 -1.2159681

omega_init f4 [5, 2]
000000 22 7f b8 bb 10 53 ed bc f3 58 bc 3a ae b4 cc bb
       -0.00563039 -0.028970271 0.0014369771 -0.0062471246
000010 23 90 73 bc 7e 2d 5d 3c c2 91 8a 3b 13 06 4a 3c
       -0.014865908 0.013499616 0.0042288015 0.01233055
000020 47 bc 6e 3c 41 c6 f9 3a
       0.014571256 0.0019056277

a f4 [2]
000000 e6 76 5a bf 0f a0 67 bf
       -0.85337675 -0.90478605

b f4 [2]
000000 21 71 89 bf 35 42 a5 bf
       -1.0737649 -1.291083

omega_init f4 [5, 2]
000000 22 7f b8 bb 10 53 ed bc f3 58 bc 3a ae b4 cc bb
       -0.00563039 -0.028970271 0.0014369771 -0.0062471246
000010 23 90 73 bc 7e 2d 5d 3c c2 91 8a 3b 13 06 4a 3c
       -0.014865908 0.013499616 0.0042288015 0.01233055
000020 47 bc 6e 3c 41 c6 f9 3a
       0.014571256 0.0019056277

a f4 [2]
000000 e6 76 5a bf 0f a0 67 bf
       -0.85337675 -0.90478605

b f4 [2]
000000 ea 87 91 bf 56 43 de bf
       -1.1369603 -1.7364299

omega_init f4 [5, 2]
000000 22 7f b8 bb 10 53 ed bc f3 58 bc 3a ae b4 cc bb
       -0.00563039 -0.028970271 0.0014369771 -0.0062471246
000010 23 90 73 bc 7e 2d 5d 3c c2 91 8a 3b 13 06 4a 3c
       -0.014865908 0.013499616 0.0042288015 0.01233055
000020 47 bc 6e 3c 41 c6 f9 3a
       0.014571256 0.0019056277

a f4 [2]
000000 ea b6 78 bf d8 a4 9b bf
       -0.97154105 -1.2159681

b f4 [2]
000000 21 71 89 bf 35 42 a5 bf
       -1.0737649 -1.291083

omega_init f4 [5, 2]
000000 22 7f b8 bb 10 53 ed bc f3 58 bc 3a ae b4 cc bb
       -0.00563039 -0.028970271 0.0014369771 -0.0062471246
000010 23 90 73 bc 7e 2d 5d 3c c2 91 8a 3b 13 06 4a 3c
       -0.014865908 0.013499616 0.0042288015 0.01233055
000020 47 bc 6e 3c 41 c6 f9 3a
       0.014571256 0.0019056277

a f4 [2]
000000 ea b6 78 bf d8 a4 9b bf
       -0.97154105 -1.2159681

b f4 [2]
000000 ea 87 91 bf 56 43 de bf
       -1.1369603 -1.7364299

omega_init f4 [5, 2]
000000 22 7f b8 bb 10 53 ed bc f3 58 bc 3a ae b4 cc bb
       -0.00563039 -0.028970271 0.0014369771 -0.0062471246
000010 23 90 73 bc 7e 2d 5d 3c c2 91 8a 3b 13 06 4a 3c
       -0.014865908 0.013499616 0.0042288015 0.01233055
000020 47 bc 6e 3c 41 c6 f9 3a
       0.014571256 0.0019056277

a f4 [2]
000000 21 71 89 bf 35 42 a5 bf
       -1.0737649 -1.291083

b f4 [2]
000000 ea 87 91 bf 56 43 de bf
       -1.1369603 -1.7364299

omega_init f4 [5, 2]
000000 22 7f b8 bb 10 53 ed bc f3 58 bc 3a ae b4 cc bb
       -0.00563039 -0.028970271 0.0014369771 -0.0062471246
000010 23 90 73 bc 7e 2d 5d 3c c2 91 8a 3b 13 06 4a 3c
       -0.014865908 0.013499616 0.0042288015 0.01233055
000020 47 bc 6e 3c 41 c6 f9 3a
       0.014571256 0.0019056277
