src/artifacts/vae_best.pth (torch, 125438 bytes, 14 tensors)

encoder.encoder_net.0.weight f4 [128, 50]
000000 fe 28 0d 3d c9 3d 79 3d 3b f3 82 3d cf 1e 42 3c
       0.03446292 0.06084994 0.06394049 0.011848166
000010 ac e5 17 3e a8 60 d6 3d 9a ec c8 bd c5 f8 e0 bc
       0.14833707 0.104676545 -0.09810753 -0.027462373
000020 30 6f d3 3d c5 cc ab bc 0e d9 dd 3d 24 00 3b 3e
       0.10323942 -0.020971665 0.108324155 0.18261772
000030 15 de dc 3b 81 a9 e1 bc 51 dc dc 3d cd 5c ce bd
       0.0067403414 -0.027546646 0.107842095 -0.10076294
000040 e5 41 ee bb 62 96 e8 bd 3d a3 e3 3d 15 33 12 3d
       -0.007271039 -0.11356808 0.111151196 0.035693247
000050 6d 0f 5a 3e c4 9d 7d 3d f1 d4 c3 bd 77 52 5a 3d
       0.21294947 0.061918035 -0.095621 0.0533013
000060 d9 de 52 3c fd c5 4f bd 35 c8 05 be 44 61 86 bd
       0.012870514 -0.050725926 -0.13064654 -0.06561521
000070 cb 07 fe 3d b8 4f 3e 3e 6b 56 0f be 29 9a d9 bd
       0.1240383 0.18585098 -0.1399781 -0.10625107
000080 d8 95 09 be 9d a3 9f bd 88 8c 8b bc e2 46 77 3c
       -0.13436067 -0.07794879 -0.017034784 0.015092583
000090 45 71 38 3d 54 3e 91 bd 5b c3 83 3d f5 68 c3 bc
       0.045029897 -0.07091966 0.064337455 -0.023853758
0000a0 31 ba 1d 3e cd 6c 0b 3d d1 07 e4 bd 8b 4c d5 bd
       0.15403058 0.034039307 -0.11134303 -0.1041499
0000b0 0b 13 5c 3d 7e 30 df 3c e6 cf 7e 3d bf 06 3e be
       0.0537291 0.027244803 0.062209986 -0.18557261
0000c0 4d 98 11 be 55 4d 85 bd 05 f2 00 bd 21 d8 09 be
       -0.14218254 -0.065088905 -0.031480808 -0.13461353
0000d0 40 30 c6 bd 9a d2 5a 3e b8 f7 1a 3d 23 04 98 3c
       -0.09677172 0.213694 0.0378339 0.01855666
0000e0 94 b0 ec bd 81 e9 97 bd a2 6a 7c 3e 25 c2 36 be
       -0.11557117 -0.07417584 0.24650052 -0.17847498
0000f0 1a 65 88 3e 5a c9 2a be 27 b6 5e 3e ae 30 13 be
       0.26639634 -0.16678372 0.21749173 -0.14374039
000100 b8 51 40 3c 9f 5a 80 bb 2b bd a6 3d 5b df a8 bd
       0.011738233 -0.003917053 0.0814155 -0.08245727
000110 92 7c 19 be 88 57 69 be 66 00 c4 3c f7 fd 15 3e
       -0.14988926 -0.22787297 0.023925971 0.14647661
000120 00 fe 0f bd be 2d 61 3e 6f f3 f4 bd 58 25 3b 3d
       -0.035154343 0.21990106 -0.11960494 0.04568991
000130 12 a3 2e 3e f2 9f 5f 3d 56 ec 59 3c b4 1b d3 bd
       0.17054394 0.054595895 0.013300976 -0.10308018
000140 6b ab 4c 3e 13 03 12 3e 4e a5 9a bc 45 d5 db bd
       0.19987266 0.14258985 -0.018877652 -0.10734037
000150 7f 41 88 3b 9f 08 40 3e 76 c9 51 be c8 ae 37 bd
       0.0041581984 0.18753289 -0.20487007 -0.04484442
000160 df 1e c4 ba 5f f8 f1 3d 4d 2b 83 bd da fa dc bd
       -0.0014962814 0.11814951 -0.06404743 -0.10790034
000170 3b 66 0e be 6e dd e4 bd 92 f8 13 be ca 09 97 3d
       -0.13906185 -0.11175047 -0.14450291 0.07374914
000180 ec ea 89 bd 37 86 9f ba a5 6a db 3d 90 b4 9b 3d
       -0.06734261 -0.0012170736 0.107137 0.07602799
000190 de a0 4d 3d 1f 3c 73 3a 03 3d 50 3d 75 f4 0b be
       0.050202243 0.0009278673 0.050839435 -0.13667472
0001a0 8e 99 74 bd e8 b2 54 3d 42 2c 89 3d 40 17 20 be
       -0.059716754 0.05192843 0.06697895 -0.15633869
0001b0 2d 0e c6 3d 63 c5 f8 bc 3f 51 8b 3e 90 fb f8 3d
       0.096706726 -0.030367559 0.27210423 0.12157357
0001c0 fc d1 d2 bd 39 f2 07 3d 8c 03 3c be 44 06 23 bd
       -0.102939576 0.033189986 -0.18360728 -0.039800897
0001d0 b8 77 5d bc 44 04 4e 3d 62 04 ba 3d b7 c7 d0 bd
       -0.013517313 0.050297037 0.09082867 -0.101943426
0001e0 ab ec d9 be 44 9f bf bc d8 52 0b be ae 1a a2 bd
       -0.42563376 -0.023391373 -0.13605821 -0.07915245
0001f0 06 95 c6 3d 96 3d a9 3d 6c b5 49 3e 91 08 80 be
       0.09696393 0.082637 0.19698113 -0.25006536
000200 6f 2d 82 3e 64 12 2b 3e d9 d2 5a 3e 11 79 fe 3d
       0.25425288 0.16706234 0.21369494 0.12425435
000210 db fd 31 be b1 88 05 3e 55 40 95 be 01 ed 9c 3e
       -0.17381994 0.13040425 -0.29150644 0.3064957
000220 a6 50 08 be 9c 5f e8 bd 82 6b f9 bd c5 d2 23 bd
       -0.13312015 -0.11346361 -0.121787086 -0.039995927
000230 dc ae 42 3e 9d 1f 9a 3d 7a d6 b8 3e 95 2e 35 3e
       0.19012016 0.07525561 0.36101133 0.17693551
000240 38 1b a5 be 79 89 84 bd d2 c9 97 be f4 cd 8f 3d
       -0.3224733 -0.06471533 -0.29646164 0.07021704
000250 7f 65 9c bd 90 49 06 be ed fd 46 3e 1f 6d aa bd
       -0.07636546 -0.13114 0.19432802 -0.083215944
000260 bc 79 12 bd a2 0f 8e be 76 15 5c 3e 4c 82 2e be
       -0.035760626 -0.27746302 0.21492562 -0.17041892
000270 f8 d3 de 3d c2 23 7d 3e 52 ab 29 be 89 78 15 bf
       0.108802736 0.24720672 -0.1656926 -0.5838705
000280 d8 8c ee 3e 81 a4 10 be ec 02 54 bd f6 36 ae bd
       0.4659183 -0.14125253 -0.0517606 -0.08506577
000290 d8 7c 13 3e e2 0f ff bd 0d 75 90 3d 66 a6 3f 3d
       0.14403093 -0.12454201 0.07053576 0.04678955
0002a0 95 da b8 bd 1f 5f 79 be 41 86 46 3d f5 0e 68 be
       -0.09026066 -0.24352692 0.04846788 -0.22661956
0002b0 25 e2 bf be 7c 01 ec 3d 8e 42 06 bc 0a 41 ec 3d
       -0.37477222 0.115237206 -0.008194579 0.11535843
0002c0 45 34 b5 3d 2a cd 83 3e 95 7c aa 3e 27 50 48 be
       0.0884786 0.25742465 0.33298174 -0.19561826
0002d0 85 8d c1 3e 6e 52 ef 3d 77 bb 2a be e0 06 bc 3e
       0.37803283 0.11685644 -0.16673075 0.36723995
0002e0 8c 94 01 be 1e f4 7f bd 51 a1 a7 3e fe 42 26 bd
       -0.12654322 -0.062488668 0.32740262 -0.040591232
0002f0 a6 20 85 bd 4f 82 1c 3e ed 36 25 be 3c c3 82 be
       -0.06500368 0.15284084 -0.16134234 -0.25539577
000300 b4 9f 14 be 3a 19 f9 bd 73 18 84 3e 52 54 e8 3d
       -0.14514047 -0.12163015 0.25799903 0.11344208
000310 c5 48 a6 3d 9c db 29 be 6e 2a a5 bd 59 2a af bc
       0.081193484 -0.1658768 -0.080647334 -0.021382498
000320 1d bd e0 3d 3f 46 81 3d 76 8a 09 3d 4d e9 d3 bd
       0.109735705 0.063122265 0.033579312 -0.10347233
000330 ef 16 27 bd f5 65 41 39 4a d5 4c bd dd 06 91 3d
       -0.040793356 0.00018443896 -0.050008096 0.07081387
000340 88 c8 ba bc 95 10 83 ba 27 cc 59 3e dc 71 55 3e
       -0.022800699 -0.0009999449 0.21269284 0.20844215
000350 53 ed ad bd c7 6e a8 bd 68 84 25 be 3b da 0c 3e
       -0.084925316 -0.08224254 -0.1616379 0.13755123
000360 ee 71 39 3e 5f 84 a7 3d 05 25 32 3e 57 cc a4 3d
       0.18109867 0.08179545 0.17396934 0.08046787
000370 a3 ff 42 3d 03 34 10 3e 0f 2f 54 be da 0b 0a 3e
       0.047607075 0.14082341 -0.20721076 0.13481084
000380 1c 13 16 bc da 4b 35 be f4 a9 00 3e 5d ff f1 bd
       -0.0091598295 -0.17704716 0.12564832 -0.11816285
000390 b1 2b 84 bd 87 63 77 be 6c aa 41 3e 3a 7c 5a bd
       -0.06453646 -0.2415906 0.18912667 -0.053341128
0003a0 99 68 ed 3d 1c a0 d5 bd ff a9 e7 3d 47 21 51 3e
       0.11592216 -0.10430929 0.11311721 0.2042285
0003b0 78 80 20 be 34 d1 e4 bd 6c e2 32 bc 82 32 7b bb
       -0.15674007 -0.11172715 -0.010918241 -0.0038329666
0003c0 05 6a 40 be 27 69 2d 3e 43 7d 70 3c c5 6a 61 bd
       -0.18790443 0.16934644 0.014678302 -0.055033464
0003d0 66 08 8c bc ad 6d 2d 3e 04 b4 6d 3d 99 31 d0 bd
       -0.017093848 0.16936369 0.058033004 -0.1016571
0003e0 ef b9 22 be b3 e8 85 bd 74 66 20 bd 83 2b b0 3c
       -0.1589124 -0.065385245 -0.039160207 0.021505123
0003f0 38 db f0 3d d5 d6 7a 3d 5e 4e be 3d 3b a5 8a 3d
       0.11760563 0.061240036 0.09292291 0.067697965

encoder.encoder_net.0.bias f4 [128]
000000 43 13 cb bf 91 e0 f6 bf 6b 2b 88 c0 4c f2 22 c0
       -1.5865253 -1.9287282 -4.2553 -2.5460386
000010 2e cb 66 c0 de 7a 2e c0 ef c1 f2 bf f8 d7 1f 40
       -3.606151 -2.7262492 -1.8965434 2.4975567
000020 1a 3f 2c c0 8f dd 74 c0 a4 98 9e bf 41 e1 98 3e
       -2.6913514 -3.8260229 -1.2390332 0.29859355
000030 9c d1 b4 3f 07 97 e3 bf ac 86 b5 bf f5 77 45 c0
       1.4126468 -1.7780465 -1.4181724 -3.0854466
000040 aa df e9 be b5 70 c6 3e 02 32 ef be 7a 2f 9a bf
       -0.45678455 0.38757864 -0.4671784 -1.2045739
000050 27 ed 1d bf b1 8c 46 c0 18 30 6f bf 09 2a ce bf
       -0.6168999 -3.1023371 -0.9343276 -1.6106578
000060 af b4 04 c0 aa f0 c8 bd 6b f2 00 c0 32 d3 69 c0
       -2.073528 -0.09811528 -2.014796 -3.6535153
000070 3f a6 3e 3f 2a 33 f7 bf d8 25 63 c0 23 e0 74 c0
       0.7447242 -1.9312489 -3.5491848 -3.8261802
000080 5f 21 89 c0 5e b6 81 bf fc 50 c6 bf 29 eb b0 3e
       -4.2853236 -1.0133779 -1.5493464 0.34554413
000090 8b 4a 05 c0 60 37 53 c0 bc cf b6 be 74 1f 14 c0
       -2.0826747 -3.3002548 -0.35705364 -2.3144197
0000a0 5d bc 6d c0 6a 2c 6d bf 02 00 d0 bf 60 6b d2 be
       -3.7146218 -0.92645895 -1.6250002 -0.41097546
0000b0 8e 43 4c bf 86 c6 2b c0 73 1b 1a c0 31 15 27 bf
       -0.7979058 -2.683992 -2.4079254 -0.6526671
0000c0 f1 7e 8e bf d6 59 c1 bf 8e 1b 28 c0 aa 7e f7 3d
       -1.113249 -1.5105541 -2.6266818 0.12084706
0000d0 c8 dd 65 c0 0d 0b 4e c0 af fa 0e c0 38 3c bd bf
       -3.5916615 -3.2194245 -2.2340505 -1.4784002
0000e0 1b d3 6b c0 70 e8 81 3f 5a f9 59 c0 36 08 e4 bf
       -3.6847599 1.0149059 -3.4058442 -1.7815006
0000f0 3d aa 35 bf c0 99 0a c0 cd b5 7e c0 e9 29 1c c0
       -0.7096289 -2.1656342 -3.9798462 -2.440058
000100 87 d4 cf 3e 32 1d 77 c0 5e e5 61 c0 70 89 aa 3f
       0.40591833 -3.861157 -3.5296245 1.3323193
000110 86 41 0e c0 c9 21 bd bf 30 0f 02 bf fe fd 26 c0
       -2.2227492 -1.4775935 -0.50804424 -2.6092525
000120 31 59 a3 bf 08 c1 d8 bc 56 ef 80 bf a8 db 7a 3f
       -1.2761594 -0.026459232 -1.007304 0.9799142
000130 14 31 88 be 33 2a 7b c0 02 8e dc 3f d7 21 dd bf
       -0.26599944 -3.9244506 1.7230837 -1.7275952
000140 6d 4f 8c bf b7 cf 4c 3f fe 5f 6f c0 c4 0a af 3f
       -1.0961739 0.8000445 -3.740234 1.367516
000150 94 93 63 bf 19 1d 1f c0 19 6b a7 bf 54 04 0e bf
       -0.8889706 -2.486151 -1.3079559 -0.55475354
000160 ca cf ae bf ce d0 c3 be f2 88 06 c0 cd e0 2f c0
       -1.3657162 -0.38245243 -2.1021085 -2.7480958
000170 e8 bf 4e c0 36 e2 cf bf 81 60 f0 bf db 43 06 40
       -3.230463 -1.6240909 -1.8779451 2.0978916
000180 fa 84 06 3f e0 1f 17 c0 f9 f8 63 c0 a3 c1 56 bf
       0.52546656 -2.3613205 -3.562071 -0.83889216
000190 a8 12 81 c0 0f 32 73 c0 65 be a5 bf 0a 19 2d 3f
       -4.0335274 -3.7999303 -1.2948729 0.6761633
0001a0 70 54 06 c0 e9 ec f7 bf b3 2a 65 c0 b1 5c bc bf
       -2.0989037 -1.9369174 -3.5807312 -1.4715787
0001b0 64 da 8e c0 2e aa 7e c0 8a b7 29 c0 36 11 50 be
       -4.464159 -3.979137 -2.6518273 -0.20319065
0001c0 7f 7f f3 bf 54 2b 1f 40 37 3e 1c 40 99 e6 3f c0
       -1.9023284 2.4870195 2.4412973 -2.9984496
0001d0 cb e3 68 40 c3 04 87 c0 df 92 82 bf 38 7f b6 bf
       3.6389034 -4.2193313 -1.0201072 -1.4257574
0001e0 b4 11 35 bf 5b 52 4a bf f3 71 33 bf f9 b7 b2 bf
       -0.7073014 -0.79031914 -0.7009575 -1.3962394
0001f0 0f ac 5c c0 a8 17 82 40 2b 8a 88 bf f0 b3 a3 bf
       -3.4480016 4.0653877 -1.0667166 -1.2789288

encoder.encoder_net.2.weight f4 [64, 128]
000000 7d 39 59 bd d3 0e c6 bd 18 e8 02 3d b2 b0 14 bd
       -0.05303334 -0.09670796 0.031959623 -0.036301322
000010 6c 12 07 be 6d fc 8b bd 1f a9 3f bc 71 ad d4 3d
       -0.13190621 -0.06835256 -0.011698036 0.10384644
000020 ba b2 98 3d 25 56 3e bd f0 e8 51 bf f6 01 f7 bd
       0.074559644 -0.046468873 -0.8199606 -0.12060921
000030 18 d6 a9 bd f0 c7 bb 3c be 30 77 bd d5 7d 81 bd
       -0.08292788 0.022922486 -0.06034922 -0.06322829
000040 01 72 54 bd ef 61 6a 3d fc 5a 5d bd ad c4 8c bc
       -0.051866535 0.057222303 -0.054041848 -0.017183626
000050 4d da e3 bd 8d cc 0e bd 59 84 80 3b c0 6e 91 3c
       -0.11125622 -0.034863044 0.003922027 0.017753005
000060 a0 eb e7 3d 43 b8 c1 bd 54 50 f6 bd 46 d4 3c 3c
       0.11324239 -0.09458973 -0.1202704 0.011525219
000070 3c cb 9e bc 9b 3a 85 be 69 8c 38 3d 4c 2a 23 bf
       -0.01938402 -0.26021275 0.04505578 -0.63736415
000080 35 87 78 bd be 52 37 be 4f 01 1f 3d b0 0c 00 bd
       -0.06067582 -0.17902657 0.038819607 -0.0312621
000090 13 ed 20 3d bd ab 52 be a2 e8 af 3d da 5e 00 be
       0.03928859 -0.20573325 0.08589293 -0.12536183
0000a0 25 d1 96 bd cb dc 8b bd eb 6b cd 3d 30 02 54 3d
       -0.0736411 -0.06829222 0.10030349 0.0517599
0000b0 52 28 aa bd 4a f6 b5 bd a2 46 82 bd 9d 81 08 be
       -0.08308472 -0.088848665 -0.063611284 -0.13330694
0000c0 c9 97 d4 bd 8c 9f 47 3c fc 6d 58 3d 14 9d 9f bd
       -0.10380513 0.012184035 0.052839264 -0.07793632
0000d0 70 f5 2f be db a3 e0 bd c0 a3 6c bb 3a d4 d3 3b
       -0.1718347 -0.10968753 -0.0036108345 0.0064645084
0000e0 28 f5 57 bd 27 5a 8a bd 28 aa 13 bd ed dd f1 bd
       -0.052724034 -0.067554764 -0.036050946 -0.11809907
0000f0 68 ca b1 bc 74 28 a3 3c e7 0e 0c be ec 1d 6c bd
       -0.02170296 0.01991675 -0.1367756 -0.057645723
000100 a0 db 84 3d f3 26 e8 bd fd 3a c0 bd 9c 76 60 bd
       0.06487203 -0.11335554 -0.09386251 -0.054800615
000110 1b 0b c3 be 1e f1 5b bb fd 0c ee bc 39 d5 4d be
       -0.3809441 -0.0033560465 -0.029058928 -0.20100869
000120 8b 54 2d bd 1a 6c 1c be 41 1f a2 be 18 5f 77 bd
       -0.042316955 -0.15275612 -0.3166447 -0.060393423
000130 d4 2d 26 be 71 a1 b7 bd 09 f6 00 be 4b 83 df bb
       -0.1622842 -0.089663394 -0.12593855 -0.0068210713
000140 76 e0 6c 3c b6 83 2e 3d 4f ae 27 bc 92 68 84 3d
       0.0144578125 0.042606078 -0.0102344295 0.06465258
000150 2f c2 ab bd 8d 07 aa 3d d4 6e 8a bc 63 ea 76 bb
       -0.08386647 0.083022214 -0.01689855 -0.0037676326
000160 51 c7 49 bd aa db dc bd 62 df 93 bd 23 aa b6 bd
       -0.04926235 -0.10784085 -0.07220341 -0.0891917
000170 46 ad b2 be 46 ff 42 bd 27 d8 da bd 11 b3 dc 3d
       -0.34897822 -0.04760673 -0.10685759 0.10776342
000180 23 82 c0 3d 25 e1 a9 bc 07 f8 05 bd aa 7a 19 be
       0.093998216 -0.02073724 -0.03270724 -0.14988199
000190 c4 54 87 3d 24 88 96 bd 41 aa 95 bd 65 e5 21 3d
       0.06607965 -0.073501855 -0.07307864 0.03952541
0001a0 30 52 85 3e 03 36 0f be c6 b8 71 be aa 6c 7d bd
       0.26039267 -0.13985448 -0.23605642 -0.06187121
0001b0 60 13 c0 3d 63 77 87 be c8 d7 3d bc b1 30 bd 3d
       0.093786955 -0.26458272 -0.011587091 0.09237803
0001c0 99 ba df 3c f2 c5 e0 bb ee a2 e1 bd 8b 31 a4 bd
       0.027310656 -0.0068595344 -0.110174045 -0.08017262
0001d0 cf 06 00 be 08 b9 4c be ec 32 ed 3a f8 36 4b bd
       -0.12502597 -0.19992459 0.0018096841 -0.04961297
0001e0 ea 8f b0 bd b9 b4 3b bd 18 9b 66 be 87 3b c1 3c
       -0.086211994 -0.045826647 -0.22520101 0.023587955
0001f0 bb 15 83 3d 0c 05 08 3d a4 5e 9d bc 6e fb 1e be
       0.06400629 0.033207938 -0.019210167 -0.155256
000200 f5 51 b7 3d 68 4a a7 3c d5 f9 a7 be 11 8a 3b be
       0.08951179 0.020421222 -0.32807794 -0.18314387
000210 11 3b 83 bb 89 2b 9b bd 8e a0 9e be 40 ac cf 39
       -0.004004844 -0.07576663 -0.30981869 0.00039610453
000220 87 d1 c6 ba 2d cd 3a 3d c0 37 13 be 0b b6 89 bc
       -0.0015168645 0.045605827 -0.14376736 -0.016810438
000230 d5 be 98 3d 2e 69 db bd 38 87 5a 3d 69 4c fd bc
       0.07458273 -0.10713421 0.05335161 -0.030920224
000240 71 6a 82 bc 73 b0 54 3c a6 fd 15 be b6 40 e9 3c
       -0.015919896 0.012981522 -0.1464754 0.02847324
000250 5f 74 8f bc 51 03 ca bd 5a a6 0a be 56 de b2 bd
       -0.017511545 -0.09863914 -0.1354002 -0.087338135
000260 3e db 8b ba 04 8f bc bd 84 b5 e3 bd 81 9a 83 bd
       -0.0010670198 -0.092069656 -0.11118606 -0.06425954
000270 4f 3f 10 bd fb b5 7a bd fd 32 6e bc 27 2c 4a bd
       -0.035216626 -0.061208706 -0.014538524 -0.049358513
000280 3b ce 31 bd 8a d7 20 be ab e8 a9 bd 24 b3 1f 3d
       -0.043409567 -0.15707222 -0.08296331 0.0389892
000290 0f bb f4 bd f2 ed 29 bc 9f 6f 27 3d 28 cf 51 3c
       -0.11949741 -0.010371672 0.040877935 0.012805738
0002a0 dd 57 8b bd a0 cc f2 bd 51 90 ae 3d 68 d2 2a be
       -0.06803868 -0.11855435 0.0852362 -0.16681826
0002b0 2d 7a 9f 3c 67 76 8f bd a0 53 b5 bd 4d e7 ea bd
       0.019467438 -0.07005005 -0.08853841 -0.114698984
0002c0 01 7f 30 3d 6e d8 9e bd 31 52 3d bd d4 a2 f0 3d
       0.04308987 -0.077561244 -0.046220962 0.11749807
0002d0 49 1e 2f be e7 24 00 3e c3 3f 5c bd 44 b1 ec bd
       -0.17101397 0.12514077 -0.053771745 -0.11557248
0002e0 04 b9 01 be 24 39 a7 3d 98 cc c5 be 8b 4c 5d bc
       -0.12668234 0.081651956 -0.38632655 -0.013507019
0002f0 93 77 9f bd 2b 79 24 be f2 54 21 bf fb c8 50 bd
       -0.07786479 -0.16061847 -0.6302024 -0.05097292
000300 9b 60 82 3c c6 ca cd bd 8c 13 d6 bd 86 f5 e0 bb
       0.015915206 -0.100484416 -0.10452947 -0.006865206
000310 e3 ef 01 be f7 45 3d 3d 5d 1d 2b bc b3 bb 4f be
       -0.12689166 0.0462093 -0.0104440125 -0.20286445
000320 74 ca d7 bc 38 b1 7f bc 75 5c af 3c bd e7 a6 3d
       -0.026341654 -0.015606217 0.021406392 0.08149669
000330 67 e7 c2 bd a3 0a d1 bc 4c ec 1b 3d 92 f0 5f bd
       -0.09516793 -0.025517767 0.038067147 -0.054672785
000340 53 4a c8 3d b1 7b 56 3d bc 96 23 bd a1 12 fe bd
       0.09779801 0.052364055 -0.039938673 -0.12405897
000350 9f 59 60 3d 2f 81 58 bd 24 64 c2 bd 02 c7 02 bd
       0.05477297 -0.052857574 -0.094917566 -0.03192807
000360 30 9b c5 3c 91 3c e8 bd 37 45 dc bd 83 1c c3 3c
       0.02412185 -0.11339677 -0.10755389 0.023817306
000370 cd b4 c9 bc 4c 46 fd bc 06 31 b7 bd 54 0e 26 be
       -0.024622345 -0.03091731 -0.08944897 -0.16216403
000380 d7 80 c6 bd 3f 10 82 bc 63 0d e1 bd 52 59 44 bd
       -0.09692543 -0.015876887 -0.109888814 -0.047936745
000390 8d 80 07 3c a9 ff c1 bd f9 d1 bd bd ec 50 91 bd
       0.008270395 -0.094725914 -0.09268565 -0.07095513
0003a0 09 4b ac bc e4 1b 47 be 54 e0 8e 3d 68 82 16 be
       -0.021031873 -0.19444233 0.06976381 -0.14698184
0003b0 16 a4 14 3c f6 bb 52 bd 6b 3e 97 bd 2d c7 42 3d
       0.009072324 -0.051448785 -0.07384952 0.04755323
0003c0 62 44 fc bb 7b 4c 36 bd db c7 c0 bd 10 00 08 be
       -0.0076985816 -0.04450653 -0.094131194 -0.13281274
0003d0 aa 06 78 bd 32 ff 27 be a9 fb a0 3c d8 63 8a bd
       -0.06055323 -0.16405943 0.01965125 -0.06757325
0003e0 4c 69 62 3e fd 82 79 3d a0 67 0e 3e 65 36 cd 3b
       0.2211048 0.060915936 0.13906717 0.006262588
0003f0 d8 4e 14 be 5f 29 79 3c e0 42 1e 3c 30 08 9b 3c
       -0.14483202 0.015207618 0.009659499 0.018924803

encoder.encoder_net.2.bias f4 [64]
000000 51 81 ec 3d 20 8b 95 3b a1 d5 d1 3f 7a 2f 66 3f
       0.11548103 0.004563704 1.6393319 0.89916193
000010 f4 41 b2 3e bb e5 c1 3f ac 37 ff bd ab 4d 5c 3d
       0.34815943 1.5148233 -0.124617904 0.053785007
000020 8d 98 9f 3f 13 a7 df bd d9 89 75 be 53 28 92 3f
       1.246843 -0.10920539 -0.23978366 1.1418556
000030 38 0f c6 bd 39 47 f1 bd ed f4 9d 3f 75 33 4c bf
       -0.096708715 -0.11781163 1.234037 -0.7976602
000040 3b 5b 4c 3f bd ec a2 3e fc a6 51 3e 8b 8c f2 bd
       0.79826707 0.31821242 0.20473856 -0.11843213
000050 5a e1 03 3f 6a ee 39 3f af ee e4 bd af 8c 3d 3f
       0.51515734 0.72629416 -0.11178338 0.7404279
000060 c6 6a 7d 3d df 59 d5 bd f8 4c 47 bd c3 f1 61 be
       0.061869405 -0.10417532 -0.048657387 -0.22064881
000070 03 d8 9a 3f f5 70 99 3f eb e0 cd 3f fd d1 94 3f
       1.2097172 1.1987597 1.6084265 1.1626583
000080 78 7e 87 3f f8 1f b1 3f 25 92 86 3e 00 aa 31 3f
       1.058547 1.3837881 0.26283374 0.69400024
000090 a6 42 ee be c7 80 5a 3f df 35 6c 3f a1 f5 03 3f
       -0.46535224 0.8535275 0.922697 0.51546675
0000a0 fd 24 12 3f 96 21 30 3f aa a9 a2 3f 4c d1 b8 bd
       0.5708769 0.6880125 1.2708027 -0.09024295
0000b0 b5 da d1 be e3 97 e1 3e 55 68 49 3f dd f3 4a 3e
       -0.40987173 0.44061193 0.78674823 0.19819589
0000c0 57 7f ba 3d 19 bb 8b 3f 81 5d d6 be 42 a0 83 3f
       0.091063194 1.0916473 -0.41868213 1.0283282
0000d0 66 ec 7d 3f f1 63 b1 3f e7 ce 31 3e ef 79 96 bd
       0.9918884 1.3858625 0.17364083 -0.07347476
0000e0 9d 11 1f be 51 5b 53 bd 8b c5 2a bd 6d 1c 9f 3e
       -0.15534063 -0.051600758 -0.041692298 0.31076375
0000f0 fd 5c db 3e b7 d8 a6 3e 2b 2e 69 bd 37 27 cd 3e
       0.42844382 0.32587215 -0.056928795 0.4006898

encoder.encoder_net.4.weight f4 [4, 64]
000000 18 5b 2c bd 17 52 1d 3c b6 6f ab bd 3d 3f b9 bc
       -0.04207906 0.009602091 -0.083709165 -0.022613162
000010 ad c2 ae bc f9 42 00 bd 53 07 e4 3c 23 0d 0e 3e
       -0.021333063 -0.03131387 0.027835524 0.13872199
000020 ac f3 8e 3d de 00 84 bd 1a 98 09 3d 8b 5b c8 3d
       0.069800705 -0.06445478 0.03359232 0.097830854
000030 7c 24 4e 3c 7c e5 b0 3c 89 bd a1 3e 03 2b 4e 3c
       0.012581941 0.021593802 0.31589916 0.012583497
000040 07 f3 44 3d 80 97 c0 be 5e c7 af 3e c6 0f ef bc
       0.04808333 -0.37615585 0.34331793 -0.029182326
000050 0e 18 43 3d e4 04 9c bd d4 98 3d 3c 31 7a 8e bd
       0.047630362 -0.0761812 0.011572082 -0.069569
000060 bb cf 52 bc 74 50 b6 3d 30 3e 10 bd 1b 42 06 3c
       -0.01286691 0.08902064 -0.035215557 0.008194472
000070 cd bd 1c bc 1d 50 d4 3d 50 95 d7 bd b6 4b c1 bd
       -0.009566736 0.10366843 -0.10526526 -0.09438269
000080 2d 11 75 3c 9f a9 39 bd af 32 c2 3d 9f 15 4a 3d
       0.014957708 -0.04532778 0.094823234 0.049337026
000090 cf c7 4f 3d c3 ab c6 bd 39 32 33 bc fb 88 d3 bc
       0.05072766 -0.0970073 -0.010937267 -0.025822153
0000a0 9c cf 23 bc cb 13 50 bc 44 db 44 3d ea 63 be bc
       -0.009998228 -0.0127000315 0.04806067 -0.023241002
0000b0 d6 89 04 bc 15 7b 59 bc b3 4b a8 bd 44 0e 86 3c
       -0.008089503 -0.013273974 -0.082175635 0.016364224
0000c0 e9 e1 cc bd 17 06 29 bd 59 c7 05 3d 6a 8a a3 3e
       -0.100040264 -0.041265573 0.032660816 0.3194154
0000d0 e9 a5 31 3d ea 70 0b 3d 6f eb 24 3b 38 f5 1f 3e
       0.043371115 0.03404323 0.0025164743 0.15620887
0000e0 05 f3 94 bd ca 81 8b 3d 51 f3 3d bc 16 f5 56 be
       -0.07272915 0.06811865 -0.011593656 -0.2099193
0000f0 30 8d 71 3c f3 c9 b6 3c fa aa cf b7 43 74 05 bd
       0.014743134 0.022313094 -2.475594e-05 -0.03258158
000100 bc 0d e1 3c 1d 1e 5c bd ae 96 8a bd 99 8d ef 3c
       0.02747237 -0.053739656 -0.06767021 0.029242324
000110 2c 6a a1 bb bc 11 25 3e 2f 06 a5 3c bb aa 0a be
       -0.0049259868 0.16120046 0.02014455 -0.13541691
000120 15 66 67 3c 86 64 06 ba f7 46 97 bc 2b 2b 1f 3e
       0.014123459 -0.00051266735 -0.018466456 0.15543811
000130 16 f3 fa 3c 22 4a 44 3c ff 1c b0 bd ce 16 d7 3d
       0.03063349 0.011980565 -0.085992806 0.105023965
000140 42 d5 15 bd bf a2 d5 3d e9 b9 b9 bd 0b b8 07 3c
       -0.03658033 0.10431432 -0.09068663 0.008283625
000150 8f 77 9b bc 43 d4 d0 3d 57 b7 d5 b9 e7 3f ed bc
       -0.018977908 0.10196736 -0.00040763125 -0.028961135
000160 3f f5 f6 3c a9 f3 be bc 46 b1 26 bc ae 63 b1 bd
       0.03014624 -0.023309546 -0.010174101 -0.086615905
000170 b3 80 a2 3d 1f 17 8d bd 63 c5 2a be 7a 2d 47 bd
       0.07934704 -0.068891756 -0.1667686 -0.048627354
000180 ee d8 f0 3c 35 d5 0a be 45 f2 d2 bd a1 ae 96 bb
       0.029400315 -0.13557895 -0.103001155 -0.004598454
000190 d0 1f f7 be 05 6a dd 3d d0 c3 e6 bc c0 06 1c 3d
       -0.4826646 0.10811237 -0.028169543 0.038092375
0001a0 e1 37 13 3d b4 20 4a 3c 02 b2 3c be 99 44 9a 3d
       0.035941962 0.012336899 -0.1842728 0.07532615
0001b0 74 74 f0 bd ea 6e 34 3e f8 c8 f5 3c b9 a4 ec ba
       -0.11740962 0.17620435 0.030003056 -0.0018054462
0001c0 74 43 03 3e a1 4d 74 bd a5 fa 45 3d 0e db 30 3e
       0.128187 -0.059644345 0.048334736 0.17271063
0001d0 3b 81 16 bf 9a 23 ec bb 98 db 54 3d 43 dd 0d bd
       -0.5879094 -0.0072063925 0.051967233 -0.03463484
0001e0 51 c4 f4 bd 17 4b f7 bc da f1 03 3d aa ca 00 3e
       -0.11951507 -0.030187173 0.03221307 0.1257731
0001f0 40 25 a9 bc 82 fd 69 bc ed 2e 47 3d cf a3 22 3d
       -0.020647645 -0.014281632 0.048628736 0.039707
000200 81 5f d1 3d 72 24 4c bd e4 95 a6 3a d3 c9 a0 bc
       0.10223294 -0.049839444 0.0012709466 -0.019627487
000210 36 d2 d2 3d 88 b7 b5 bc bf de a2 3d 91 0b 52 be
       0.10294001 -0.022182241 0.07952642 -0.20512225
000220 97 27 34 bc b2 10 03 3d d2 b3 dd bd a0 9b 0a bd
       -0.010995767 0.031998344 -0.10825314 -0.03383982
000230 aa d0 83 3c 03 1a 61 be d9 73 58 3c d0 1f a4 bb
       0.01609071 -0.21982579 0.013211214 -0.005008675
000240 64 a6 d2 3c 1b 97 a6 3c bb d0 cb 3b e5 0f ea 3b
       0.025714107 0.020335725 0.006219951 0.007143008
000250 74 fc 5a 3d e9 63 54 bd 02 e8 bd bc b0 86 0a 3e
       0.053463414 -0.051853094 -0.023181919 0.13527942
000260 fb cb b0 bb b0 9c 04 be 34 86 76 be ff 8a 08 be
       -0.00539541 -0.12950397 -0.24074632 -0.13334273
000270 25 33 86 bb 3d af e9 bc 5f 17 12 bd 3e 4a 94 bd
       -0.0040954524 -0.028525943 -0.03566682 -0.07240723
000280 80 75 11 3d fe 1c cf bd 65 2c fa bc 07 bc da 3d
       0.035512447 -0.10112952 -0.030538747 0.106803946
000290 2d 9e e4 3c 78 43 06 bc 44 ef 47 3a 88 5c 4f 3d
       0.027907455 -0.008194797 0.0007626901 0.050625354
0002a0 a9 7a 07 3d 9d 4a 06 3d fc a1 a8 ba f1 c9 04 be
       0.033075962 0.032786 -0.0012865658 -0.1296766
0002b0 90 ac 82 bc d4 9c c0 3b 1f e3 71 ba f3 89 2b 3d
       -0.015951425 0.0058780704 -0.0009227264 0.041879606
0002c0 af 33 b4 3c 89 71 e5 bc 86 eb 21 bc d5 cc 61 3d
       0.0219973 -0.02800824 -0.009882813 0.055126984
0002d0 bf 40 7a 3c 6a 06 98 bd 05 77 63 bc d8 e2 e4 bb
       0.015274226 -0.074230984 -0.013883357 -0.0069850497
0002e0 63 7b ef 3d 84 9c 82 3d 13 0c 0c 3d 6d 6a 08 3e
       0.11693456 0.06377509 0.034191202 0.13321848
0002f0 b3 3e bc bc 97 41 16 bd 8e 64 db 3d 6d 49 2f 3c
       -0.022979116 -0.036683645 0.10712539 0.010698658
000300 e3 46 20 3c f4 1e fd 3c 84 07 63 bd e9 6f 4f bd
       0.009782526 0.030898549 -0.05542709 -0.050643835
000310 35 3e c0 3c f3 51 bc bc 63 fa 63 3e 52 d3 23 be
       0.023467163 -0.022988295 0.22263484 -0.15998581
000320 ae 09 0c bd 49 5c 93 bc 49 16 80 be 1c c8 0e bd
       -0.03418892 -0.01798834 -0.25017002 -0.034858808
000330 c3 81 17 be aa dd d7 bd 16 3e 35 bc 5d 46 a0 bc
       -0.14795594 -0.10540326 -0.011062166 -0.019564802
000340 ac 99 15 3d 92 36 33 bc be b2 cd bd ce 33 84 3d
       0.036523506 -0.010938304 -0.10043858 0.064551935
000350 a4 69 b3 bd fd 39 26 bd 28 ea 28 3c be da fb 3d
       -0.08760384 -0.040582646 0.010309733 0.12297581
000360 95 36 ae bc 5c c0 60 3d e1 1f bc bd 01 1f ef bd
       -0.021266261 0.05487095 -0.09185768 -0.116758354
000370 85 24 38 bd 0e 2e 20 bd b8 dd 74 bc da 14 84 bd
       -0.044956703 -0.03910642 -0.01494544 -0.064492896
000380 56 1b 7f 3c e3 97 66 3d 15 69 8c 3d 8b 70 a5 3d
       0.015570482 0.056297194 0.0685598 0.080781065
000390 fc b5 fb bc 0e 2b 77 bb fc e6 df 3c 90 e8 b8 3d
       -0.030726425 -0.0037714872 0.027331822 0.09028733
0003a0 a5 0a d3 bc b0 46 19 3d dc 63 b9 bb 08 78 44 3c
       -0.025761912 0.03742093 -0.005657656 0.011991508
0003b0 b1 78 17 be 42 44 86 3d 9f 13 82 bd 22 a6 b7 bd
       -0.14792134 0.06555988 -0.06351399 -0.08967234
0003c0 bf a1 89 be c1 e7 d0 bc 47 6a 3d be fb 9b 24 3c
       -0.26881215 -0.025501134 -0.18497573 0.010046954
0003d0 d1 f1 ce 3d 68 e4 87 bd fe 38 45 bd 4a 5c c8 bb
       0.101047166 -0.06635362 -0.048150055 -0.0061145173
0003e0 60 00 3d 3e d2 0c 81 3e fb d0 e2 bc e1 c9 c6 3d
       0.18457174 0.25205094 -0.02768754 0.09706474
0003f0 c4 4b e9 3a 26 95 08 be 11 0c 91 3d 69 c0 64 3d
       0.0017799069 -0.13338146 0.070823796 0.05584756

encoder.encoder_net.4.bias f4 [4]
000000 01 60 17 3e f4 8f 4e bd fe aa 50 c0 ee 34 45 c0
       0.14782716 -0.050430253 -3.2604365 -3.0813556

decoder.decoder_net.0.weight f4 [64, 2]
000000 54 c1 c4 be a1 22 94 3e 97 e2 44 3e 56 f2 7f bf
       -0.38428748 0.2893267 0.19227062 -0.9997915
000010 e4 eb 44 3f bb de 53 bf 1f 20 9e 3f 5a 39 94 bf
       0.7692244 -0.82761735 1.2353553 -1.1580002
000020 21 ea 05 3f f3 3e 4f bf b5 75 95 be 76 13 3a bc
       0.5231038 -0.8095543 -0.29191366 -0.011357179
000030 9f a5 d3 3f f4 ff b3 3d 95 6d 88 be ab 05 02 3f
       1.6534919 0.087890536 -0.26646104 0.507899
000040 5b 13 ce 3e 42 87 f6 be 1c 18 2d 3e d2 87 60 3f
       0.40249142 -0.4815007 0.16903728 0.87707245
000050 19 0b 5a 3c 20 1e 6c bf a7 5e 99 bf 76 25 0d 3f
       0.01330831 -0.9223347 -1.1982011 0.55135286
000060 9a 4c 55 bf 17 a9 99 bf 3d 5b f7 3c da f4 b3 be
       -0.8332001 -1.2004727 0.030194873 -0.35147744
000070 53 9c 96 3f 73 46 55 bf f8 38 fd 3f 3b ee 1a 3f
       1.1766456 -0.8331062 1.978301 0.6051976
000080 5e f9 33 3e 6b 30 94 3f d6 04 60 3f 1b 8d 85 3f
       0.17575595 1.1577276 0.8750738 1.0433687
000090 05 7a e9 be 77 cb 5c 3f b4 89 3b 3f 77 8c 52 3f
       -0.45600906 0.8624796 0.73256993 0.8224558
0000a0 db c2 75 be ea 7a 50 3f 60 c8 56 b8 be b8 48 3b
       -0.24000113 0.8143755 -5.120819e-05 0.0030627693
0000b0 b6 bb 9f 3e 42 6d 59 bf 4b b1 a4 3f 71 6b 03 bd
       0.311979 -0.8493234 1.2866606 -0.032084886
0000c0 2d a5 b5 3d 19 64 8b bf b6 e3 5c 3d 20 e5 56 bf
       0.088693954 -1.0889922 0.0539281 -0.83943367
0000d0 ab ca fa be b6 cf a8 3e 19 d3 95 be 6f a0 25 3f
       -0.48982748 0.3297097 -0.29262617 0.6469793
0000e0 08 c7 22 bf 92 ed 74 3d 33 48 b9 3e 27 f9 4e bf
       -0.6358495 0.059796877 0.36187896 -0.80848926
0000f0 fd f2 39 be 18 97 80 bf b4 55 60 bf 5c f4 3c 3f
       -0.18159099 -1.004611 -0.8763077 0.7381036
000100 ce 2d 1e bc 48 11 ba bd 1e 7f 5b bf 51 88 3d 3f
       -0.009654475 -0.090853274 -0.8574084 0.7403613
000110 44 c8 ae be f4 5e 27 3f 5c 45 b3 bf 45 22 65 3e
       -0.34137166 0.6537926 -1.4005542 0.22376354
000120 af 5c 93 be f8 35 57 3f 28 99 72 3b 5e 69 6a bf
       -0.2878165 0.84066725 0.0037017558 -0.9156703
000130 a2 75 16 bf a6 99 5f bf b0 a9 99 3f 15 10 aa 3d
       -0.58773243 -0.87343824 1.200491 0.08303849
000140 93 6c 66 bf e1 24 a9 3d b9 86 03 3e 12 1a 2a 3f
       -0.9000942 0.08258987 0.12844361 0.6644603
000150 c7 97 63 bf b0 ee 20 3d 3c e4 ae 3f c1 62 f3 3e
       -0.8890347 0.03929013 1.3663402 0.4753628
000160 33 6b 08 bd 5a 52 06 bf 18 81 dd be 6b 3d 7b bc
       -0.03330536 -0.5246941 -0.43262553 -0.015334467
000170 21 9f 83 bf dc d5 c4 3e 24 e1 9f 3e bf 10 6e bf
       -1.0282937 0.38444412 0.31226456 -0.929943
000180 43 70 97 3f d2 d0 ea bc 15 f9 47 3f 7a 4c 81 be
       1.1831135 -0.028664026 0.78114444 -0.2525366
000190 d0 fd 23 3f 6c 5c 67 3f 58 78 92 bf 0b 69 d2 be
       0.6405916 0.903754 -1.1442976 -0.41095766
0001a0 0c 51 63 bf c0 f2 4e be 08 48 8e bf 4c 6c 12 bf
       -0.8879554 -0.2020979 -1.1115732 -0.571965
0001b0 3e d7 de 3e b0 54 c5 3f 9a a4 81 3f 74 dd a2 3f
       0.43523592 1.541647 1.0128357 1.2723832
0001c0 25 8d 71 3f 83 b2 62 be c7 2b 31 3e 4e 16 63 3f
       0.94355994 -0.2213841 0.17301856 0.8870591
0001d0 a1 43 8b 3f af 3f 3c bf 95 23 5b 3f 21 52 83 be
       1.0880014 -0.73534673 0.8560117 -0.25648597
0001e0 49 63 0e bf b0 d6 da bf a1 76 63 3f c0 21 82 3f
       -0.5562025 -1.7096767 0.8885289 1.016655
0001f0 ff da 6d 3f 08 47 1f bf e0 37 7c 3e 30 2f 12 bf
       0.92912287 -0.6221776 0.2463069 -0.5710325

decoder.decoder_net.0.bias f4 [64]
000000 fc b8 87 40 9e 5f 5e 40 3e 70 13 3f e3 44 4f be
       4.241331 3.474586 0.57593143 -0.20241122
000010 6e 67 ea be 76 20 78 bd 17 9b 5f 3f e2 98 98 bf
       -0.45782036 -0.060577832 0.87346023 -1.1921656
000020 84 a4 48 3f e1 cb 82 3e b1 8e fc bf ec 87 f0 be
       0.7837603 0.25546172 -1.9731046 -0.469787
000030 2a 70 9c 3f e4 85 53 3f 77 af a1 bd a9 39 2c 3f
       1.222173 0.82626176 -0.078947954 0.6727548
000040 1d 2c 03 bf 0d a4 5c c0 12 e6 03 c0 48 03 cb 3e
       -0.51239187 -3.4475129 -2.0609174 0.3965094
000050 90 e8 e9 bf d3 f5 d0 bd dd 6c 92 be d5 ed a8 bf
       -1.8274097 -0.10203137 -0.2859868 -1.319758
000060 6b fc 7c be 13 ae fc be 59 c1 6a 40 dc 3d f9 be
       -0.24705665 -0.49351558 3.668051 -0.48680007
000070 bf bc 97 bd 43 37 06 bf c5 3a ae be 46 3d 07 bf
       -0.07409047 -0.5242807 -0.34029213 -0.5282787
000080 01 d5 ef 3d 23 79 a1 be 9f ef d1 bf 68 3b d5 bf
       0.11710549 -0.31537732 -1.6401252 -1.6658754
000090 49 2d 81 bf 5b 8a 43 c0 9b da 2a 3f 09 6a 07 40
       -1.0091945 -3.0553195 0.66739815 2.1158469
0000a0 1d eb fb bd 4e a8 44 3e cf ad 93 3f 8f 47 23 40
       -0.12300704 0.19204828 1.1537417 2.5512426
0000b0 58 a7 3c bf b6 de 3b bd b0 c7 8f be ab ac 9c 3f
       -0.73692846 -0.04586669 -0.28082037 1.2240194
0000c0 99 61 8d bf 3a 98 6e be 89 b9 d0 be c5 31 a5 bf
       -1.104541 -0.23300257 -0.40766552 -1.2905813
0000d0 50 e2 7f 3f 5a f4 c3 bf f7 48 44 40 fe a8 c5 bf
       0.999547 -1.5308945 3.0669534 -1.5442197
0000e0 a4 46 53 3f 51 1d 7b 3e dd 1e 91 3e 66 6b a2 be
       0.82529664 0.24522902 0.2834386 -0.31722564
0000f0 7e 2e 97 bf e9 7b 10 3f a9 52 a4 3e 79 3d 13 3f
       -1.1811063 0.5643907 0.32094315 0.57515675

decoder.decoder_net.2.weight f4 [128, 64]
000000 e6 dd 67 3f 87 d1 f7 3d 40 8d 08 3e 53 2a ca 3d
       0.90572965 0.12100511 0.13335133 0.09871354
000010 21 ac 35 3e 56 ae 53 be 24 3b 80 be c3 f1 95 bd
       0.17741443 -0.20671973 -0.2504512 -0.07321503
000020 bb b6 1f 3e 3b 6b f0 bc 25 93 85 bd 09 0e bb bb
       0.1559705 -0.029348006 -0.06522206 -0.00570846
000030 7e 82 de 3d 22 a1 cd 3d 11 1d 85 3d ea c6 d8 bd
       0.10864733 0.10040499 0.064996846 -0.10584815
000040 3f 6c 45 3d aa 06 8f bf da 44 2b bd b9 44 93 3e
       0.048198935 -1.1173909 -0.04181371 0.2876337
000050 f7 d2 11 bc 0b 74 2e 3d 60 20 99 3d 87 73 97 be
       -0.008900396 0.042591136 0.07476878 -0.29580328
000060 f5 06 7b 3c 7c 62 dd 3d ec 32 64 3f 94 d6 81 3e
       0.015321483 0.108098 0.891402 0.25359023
000070 52 43 c3 bd 74 42 86 3e 77 ce a1 be 66 fd 3d 3d
       -0.09534325 0.26222575 -0.31602833 0.046384238
000080 72 99 05 bc 7d 8a 71 3e 3d c6 30 be 6d 6e b4 be
       -0.00815426 0.23587985 -0.17263122 -0.35240498
000090 bb e0 f7 3d 76 16 af be 6a 15 22 3e a1 9a c1 3e
       0.12103411 -0.34196824 0.15828481 0.37813285
0000a0 e3 a2 1f be 54 93 7a bd 0c 75 03 3e 83 a0 9c 3e
       -0.1558948 -0.06117566 0.12837619 0.3059121
0000b0 e7 0c 8b be 14 69 2a be eb 0b 55 be 11 bc 42 3e
       -0.2715828 -0.16641647 -0.20805328 0.19017054
0000c0 7e 01 04 bf d9 7f ce be b8 8f 12 be 46 f2 1e be
       -0.51564777 -0.40331915 -0.14312637 -0.15522107
0000d0 e1 fd 40 3d de b7 ed bd 17 fa ea bc 6a 27 16 bf
       0.047117118 -0.116073355 -0.028683705 -0.5865389
0000e0 bd a5 8e bd 7c 49 6e bd 14 91 07 3d 70 59 76 be
       -0.06965206 -0.05817555 0.03309734 -0.24057555
0000f0 41 1b 0b bf 04 a5 0e 3e f1 9c 07 3e 51 1b 00 3e
       -0.5433846 0.13930136 0.13243462 0.1251042
000100 ed 30 41 3c 4e 0d 32 bf 40 42 02 3d 34 4a b5 3d
       0.01179145 -0.6955155 0.031801462 0.08852044
000110 cf da e9 3c b8 d0 10 3d fc a8 91 3d 22 9b 22 3e
       0.028546719 0.0353553 0.07112309 0.15879491
000120 68 a6 c8 3c 8b fc 53 3e fb 4f 3f 3e a8 89 78 3d
       0.024493411 0.20701806 0.18682854 0.060678154
000130 49 2a a6 3d b1 9f bf bf 2a 5d 78 bd b4 02 f3 c0
       0.08113534 -1.4970609 -0.060635723 -7.59408
000140 3d 1b 7b bc 63 99 26 3e bc f3 aa 3d ce 06 17 bc
       -0.015326318 0.1626945 0.0834727 -0.009217931
000150 c0 af 3c 3e 3e 6c c5 3d f6 d2 8d be 85 86 e4 bc
       0.18426418 0.09639786 -0.27700013 -0.027896175
000160 6d 90 de be e4 7e f5 be 98 55 af bd 6e 7a f0 bb
       -0.43469563 -0.47948372 -0.085612476 -0.0073388135
000170 3d 54 2a 3c 09 ad ae bd 8e 69 17 c0 c1 eb 56 bd
       0.0103960605 -0.085290976 -2.3658175 -0.052470926
000180 f7 60 16 c0 4c cf 36 3e 20 56 6f 3d 0c ae 04 3e
       -2.3496683 0.17852515 0.058431745 0.12957019
000190 ee be 53 3e fa a9 6e be dd 48 30 3e 18 51 5a 3f
       0.20678303 -0.23307028 0.17215295 0.8527999
0001a0 86 ef d5 bd 4c 12 3e 3e 3c 9f 39 3d 04 18 83 c0
       -0.10446076 0.18561667 0.045317873 -4.0966816
0001b0 46 67 8e bb 29 00 0c bd 3c 3c 82 bd 95 6b 50 bf
       -0.0043458072 -0.03417984 -0.06359145 -0.8141416
0001c0 c5 ee 09 bd b0 7f d4 bd bb 41 21 3f bb 7c c4 3d
       -0.033674974 -0.10375917 0.6299092 0.09594103
0001d0 b7 ff 3c 3c 52 b5 16 bf b2 30 5f 3e ca 52 a6 3e
       0.011535577 -0.5887042 0.2179592 0.32485038
0001e0 4b f5 2b 3d 5a e3 4f 3d dc 2a 0f 3c 1d fa af 3d
       0.041981976 0.05075393 0.008738246 0.08592627
0001f0 65 92 c5 bd d6 70 ff bc 32 a1 3a 3c 48 3a 11 be
       -0.09647063 -0.031181734 0.011390971 -0.14182389
000200 45 b6 2f bf 24 1c cb bd 43 c8 17 bd 69 1c 95 bd
       -0.68637496 -0.09917477 -0.03705622 -0.072808094
000210 8f 91 a7 3d 46 5a 19 3e be 07 a7 bb 96 ea 95 3c
       0.0818206 0.14975843 -0.0050973585 0.018300336
000220 ac 77 b2 bd 04 f3 55 bf 09 a6 20 3e ed be 61 3d
       -0.08714232 -0.8357394 0.15688337 0.05511372
000230 b8 99 ae 3e 10 aa 31 c0 a4 84 15 bd ab fe 21 3d
       0.34101653 -2.7760048 -0.03650345 0.03954951
000240 eb ed b6 bf 0a be 2c be bd bf 40 3d 03 ff d2 bd
       -1.4291357 -0.16869369 0.047057856 -0.10302546
000250 b3 f3 df be 92 45 e3 3d 56 66 50 c0 5a 2b 0b be
       -0.43740615 0.11097254 -3.256246 -0.13590756
000260 5a 71 05 bf eb 47 31 bf 8f 6f d5 be 8b 9d 2c bf
       -0.52126086 -0.69250363 -0.41686675 -0.6742789
000270 cb 8e 6b bd 86 26 83 bf 3d 40 3d 3f 0a fe 14 bd
       -0.057509225 -1.0246131 0.73926145 -0.036375083
000280 f5 c6 89 3e d6 38 d8 bd 96 03 f2 3d 2c 37 e2 ba
       0.26909605 -0.105577156 0.1181709 -0.0017258874
000290 40 bb 5d bf 26 72 04 c0 a5 65 86 3e f9 e6 7f bc
       -0.86613846 -2.069467 0.26249424 -0.015619033
0002a0 a3 26 43 bd 20 90 dc be 4b b8 e7 3d ba ec 67 3d
       -0.04764427 -0.4307871 0.11314448 0.056622244
0002b0 70 6e 50 bd 89 8a 13 3e 82 a0 9d 3d db 6a 94 c0
       -0.05088657 0.14408316 0.0769663 -4.638044
0002c0 eb 92 72 3d ef f5 d7 3b 89 e2 0c be 4c 0f 99 3e
       0.059222143 0.006590597 -0.13758291 0.29894483
0002d0 51 5a 99 3d 5d 7d 31 3e d7 65 36 3f 94 74 57 bc
       0.074879296 0.17332979 0.71249145 -0.013150353
0002e0 fa 0f a7 bc 20 6a c1 be d5 7e 72 3d 69 1b 8b 3d
       -0.02039336 -0.3777628 0.059202988 0.067923374
0002f0 56 6c 39 3f a1 6f ca bc c0 2d 11 bd 72 3d 8a 3f
       0.7243093 -0.024711432 -0.03544402 1.0800002
000300 94 6e 46 3e c1 aa 74 bd 62 13 d4 3c c7 59 a5 3d
       0.1937812 -0.059733156 0.025888149 0.08073764
000310 f3 71 29 bd d6 1e a0 be 80 58 71 c0 cb 88 27 be
       -0.041368436 -0.31273526 -3.7710266 -0.16360776
000320 fd a7 49 bc 81 3e f2 bd de db e5 bc 62 e4 8d 3e
       -0.012308118 -0.11828328 -0.028058942 0.27713305
000330 4e 5f fd 3d 4d cc c0 bd e5 31 b6 3e 71 12 af 3f
       0.123716936 -0.09413967 0.35584942 1.3677503
000340 f5 63 66 be 00 64 02 3e 98 b2 ec bd 0a 14 70 3e
       -0.22499068 0.1273346 -0.115575016 0.23445144
000350 56 57 70 be 48 10 5c bc f8 96 d7 3d 1e 28 85 c0
       -0.23470816 -0.013431616 0.10526842 -4.161147
000360 b7 0c 95 3c cf 9d 7d 3d 6a 81 cd 3d 76 ac 6c be
       0.01819454 0.061918076 0.100344494 -0.23112664
000370 48 6b 35 be be 2c 79 3b 08 76 f3 3d 0f 69 36 bc
       -0.17716706 0.0038021053 0.11887747 -0.011133446
000380 24 f7 dc bd 8e 96 e6 3d 08 5e 5c be 92 e3 98 3d
       -0.10789326 0.11259185 -0.21520245 0.074652806
000390 28 9c 6a be 5e 05 32 be da 1b 0a 3b 8e 4e db bf
       -0.22911131 -0.1738486 0.002107373 -1.7133348
0003a0 ae de f6 bd b5 54 d4 bd 2a ce df be 8e 64 53 3f
       -0.120541915 -0.10367719 -0.43711978 0.8257531
0003b0 f7 eb 77 bd 55 a9 01 bf e3 20 2f bd 00 64 a6 bd
       -0.060527768 -0.50649005 -0.042755973 -0.08124542
0003c0 52 22 c4 c0 be 6f 99 3e 7d 22 a6 3d 3d a1 db 3d
       -6.1291895 0.29968065 0.08112047 0.10724113
0003d0 b5 4b cb bd b1 d7 b3 3d 90 37 3f 3d ab de d4 3d
       -0.09926549 0.08781374 0.046683848 0.10394033
0003e0 a4 c3 1e 3f f2 8a 7a be 09 94 7a 3e 5c fb a1 3e
       0.62017274 -0.24467066 0.24470533 0.31637084
0003f0 50 d8 79 3d 7d d0 a5 3e 5f bb b9 3e aa 0e db 3d
       0.060997307 0.32385626 0.36275765 0.10696156

decoder.decoder_net.2.bias f4 [128]
000000 e3 5c 5f 40 ef 1c a4 3e 34 87 fe bf 94 63 0a 3f
       3.4900444 0.32053325 -1.9885011 0.54058194
000010 f7 61 ec 3e d3 b0 40 40 4e 1d 2c 40 a8 89 16 3f
       0.4616849 3.0107925 2.6892886 0.58803797
000020 f6 56 23 40 f4 c3 d5 bf c3 c1 26 3e 0b 00 1a 3f
       2.5521827 -1.6700425 0.16284852 0.60156316
000030 e6 69 b9 bf 9b 67 5c 40 40 8c 42 bf 67 c6 c4 bf
       -1.4485443 3.4438236 -0.75995255 -1.5373048
000040 60 3a 91 3d 51 c9 8a 3f 7d ed e3 3e 6c 07 8b 3d
       0.07091212 1.0842687 0.44517127 0.06788525
000050 65 88 9e 3e f7 a2 57 3f cb 13 ff 3e e3 31 93 bc
       0.30963436 0.8423304 0.49819788 -0.017968124
000060 b8 8b 9f bf 3e 15 d0 be 58 f1 41 be 93 3f d0 3f
       -1.2464514 -0.40641207 -0.18939722 1.6269401
000070 c9 39 4d 3f 3f 56 0d bf 1e d2 ba 3f cf 0a 42 40
       0.801663 -0.55209726 1.4595373 3.0319097
000080 c9 f7 25 3f af 48 f9 bd 08 df 85 3f cd 85 df 3d
       0.64831215 -0.121720664 1.0458689 0.10914192
000090 21 bf 3f 3f 6f dd b7 bf fb 5e 52 3c b9 58 11 3f
       0.74901015 -1.4364451 0.012840028 0.56776005
0000a0 6b 7e 06 bf e4 db 84 be 75 94 0f bd d0 2e c7 bf
       -0.5253665 -0.25949013 -0.03505369 -1.5561161
0000b0 2b 11 6d 3f bd cd 27 3e 02 af fb 3f 73 25 c3 bd
       0.9260432 0.16387077 1.9662783 -0.09528627
0000c0 bb ff fb 3f ed 20 8f 3d 48 d0 be 3f 85 d4 da bc
       1.9687418 0.06988702 1.4907312 -0.026712665
0000d0 a8 44 49 c0 50 53 b9 be 96 5c 96 3f 4c e2 1a 3f
       -3.1448154 -0.36196375 1.1747005 0.6050155
0000e0 53 13 34 40 22 0a cd bc 74 1d 59 40 15 4f 36 3a
       2.8136795 -0.025029246 3.3924227 0.0006954533
0000f0 fa d1 6e bf 36 ae 5e 3f 34 3c 12 bf b2 76 81 3f
       -0.9328915 0.86984575 -0.5712311 1.0114348
000100 3d c3 83 bf 62 4e 43 bd fd be 39 3f 22 b7 86 bf
       -1.0293957 -0.047682174 0.7255705 -1.0524638
000110 13 7c ea 3f a2 70 09 3e 32 6b 68 3f 08 c6 07 be
       1.8319114 0.13421872 0.9078857 -0.13259137
000120 fc 13 f2 be f4 40 23 40 58 af d6 3f f0 3b ea 3e
       -0.47280872 2.5508394 1.6772261 0.45748854
000130 96 e3 2d bc f0 0f d3 bd 7f 8c ab 3f fa d0 c9 3e
       -0.010613343 -0.10305774 1.3402251 0.3941725
000140 a7 d0 2f bf 25 a7 ea 3f 75 06 f5 bf d0 d5 c1 3f
       -0.68677753 1.8332258 -1.9142596 1.5143375
000150 42 94 04 40 56 88 e4 bd 33 83 e2 3f da a5 9b 3c
       2.071549 -0.111588165 1.7696289 0.018999983
000160 2f 1e 77 3d e2 c9 c1 3f 14 e8 d8 3f 93 3d d2 3f
       0.06033152 1.5139735 1.6945825 1.6425041
000170 58 d1 9a bf d4 8d e8 bd 32 f9 5b 40 42 f4 53 c0
       -1.2095137 -0.113551766 3.4370847 -3.3117833
000180 04 59 b3 3f 72 42 78 c0 15 4c 45 40 b9 2a 06 3e
       1.401154 -3.8790555 3.0827687 0.13102235
000190 7e e3 e4 3f 7b ed d0 3f 37 5c 9a bf 37 65 55 3f
       1.7881925 1.6322473 -1.2059392 0.83357567
0001a0 1c 44 0a 3d 8f 79 e5 3f fb 76 cc bf 27 1d 43 3c
       0.03375636 1.7927722 -1.597381 0.011908806
0001b0 8e 32 74 bd 3b c9 d2 3f 70 4d 16 3d 14 92 90 3e
       -0.059618525 1.6467661 0.036694944 0.2823645
0001c0 83 d4 ee 3f 78 37 e8 3f 47 8f ca 3e 0a bb c4 3e
       1.8658603 1.8141928 0.39562437 0.3842395
0001d0 2b b7 10 40 f2 d2 af 3f db 87 dc 3f 2e 53 f7 bf
       2.2611797 1.373625 1.722896 -1.932226
0001e0 54 6c 74 be 76 0c 0d be 44 8d 52 bd be 25 29 40
       -0.23869449 -0.13774285 -0.051404253 2.6429286
0001f0 03 31 c0 bc 05 02 cf 3d 74 3e 2c 3f 1e d0 bf 3d
       -0.02346087 0.10107807 0.67282796 0.09365867

decoder.decoder_net.4.weight f4 [50, 128]
000000 60 55 aa bf 9d d4 0e 3f 25 6a b7 3d 5a be 9d 3d
       -1.3307304 0.5579317 0.08955792 0.07702322
000010 45 28 25 3f b9 21 f1 be 4e c0 98 3f 60 e8 0c 3f
       0.6451457 -0.4709604 1.1933687 0.55042076
000020 fd c4 4d bf 75 50 85 bf 9f 7a 99 bc cd ac e6 be
       -0.80378705 -1.0415179 -0.018735228 -0.45053712
000030 64 66 70 bf b5 6a 32 bf d9 2e 48 be a0 d6 f8 3e
       -0.93906236 -0.6969407 -0.19549121 0.48601246
000040 c9 ce f6 3e b8 c3 d7 3e fe 47 bc 3e bc ab 77 3d
       0.4820464 0.4214151 0.36773676 0.060466513
000050 31 b0 cf be 9f d8 5c 3f 88 3f 37 bf 0c 50 7a 3c
       -0.4056411 0.8626804 -0.71581316 0.015277874
000060 ea fa 57 3e 7c 49 07 3e a7 02 18 bf 27 e3 30 bf
       0.2109181 0.13211626 -0.5937905 -0.69096607
000070 07 b0 bd 3e 37 0a 1b 3f bb ee 5e 3e 3a 71 7b be
       0.3704836 0.6056246 0.21770756 -0.24554911
000080 aa 05 94 bf 38 71 1a bd 12 29 b2 3e 7c 08 02 bf
       -1.1564229 -0.03770563 0.3479696 -0.50794196
000090 ce bd 4c 3e 1d 8c f9 be df 11 60 bd c2 ae 6a bf
       0.1999428 -0.4873971 -0.054704543 -0.9167291
0000a0 fe e9 66 3e 2c ff c8 3e 62 34 6a bd 89 42 83 3d
       0.22550198 0.3925718 -0.057178862 0.06409175
0000b0 64 49 c0 be 93 74 f5 bb 10 14 41 bf 79 57 b5 bd
       -0.37555993 -0.0074907034 -0.7542124 -0.08854575
0000c0 ad e8 93 3f fa d9 17 3d 0f c8 ac be 51 66 0d bd
       1.1555382 0.037073113 -0.33746383 -0.034521405
0000d0 68 c9 8f bd 6a 02 18 3f b4 29 d8 be c4 49 38 bf
       -0.07020837 0.59378684 -0.42219317 -0.7198756
0000e0 f5 61 e2 3e 8d 5d 68 bd 1b 28 77 bf ef 4c 36 bd
       0.4421536 -0.056729842 -0.9654557 -0.044506963
0000f0 fc be be bd ff d5 09 3e 66 8e 47 3e 33 4f fc be
       -0.09313771 0.1346054 0.19487914 -0.49279174
000100 ed f2 35 3e 7b 45 a4 3d 8a 33 c1 be ef 19 6e 3e
       0.1776845 0.08021065 -0.37734634 0.2325208
000110 0f 84 00 3f fb a0 3d 3f bf b9 b8 3e 12 82 51 3d
       0.50201505 0.7407376 0.36079213 0.051149435
000120 4d f8 80 3e 01 95 de be 34 c6 78 bd 0f 17 d6 be
       0.25189438 -0.43473056 -0.060735896 -0.41814467
000130 2c 5b a8 3c db 08 fe 3c 75 33 12 3f 0d 9f 6e 3e
       0.020551287 0.031010082 0.5710977 0.2330286
000140 f4 ac a2 bc 95 ea 42 40 a3 b8 5f 3e 8d 23 9f be
       -0.019857861 3.0455678 0.21847777 -0.3108181
000150 69 6d 7a 40 d5 21 e6 bd 84 4e 48 be d8 d5 d8 3e
       3.9129279 -0.11236922 -0.19561201 0.4235065
000160 10 ce 2b 3c c5 d6 17 3f fe 3b 3a bf e1 a2 3f bf
       0.010486141 0.5931209 -0.7274779 -0.7485791
000170 b1 ac 19 3e dc ee fe bc ee eb 79 bf 93 24 1c 3c
       0.15007283 -0.031119756 -0.97625625 0.009530204
000180 13 de 83 3d 9b 6b 81 3f 0e 8c 72 3f 59 59 8f 3f
       0.06438842 1.0110964 0.94744956 1.1199142
000190 0e 0d 7c be 8f 5e 9b 3e 0a b0 49 bf 01 64 18 be
       -0.24614355 0.3034558 -0.7878424 -0.14881898
0001a0 52 eb e6 bb 9e 63 a3 be 48 ab ef 3d 3e 69 0d bd
       -0.0070470953 -0.3191194 0.11702591 -0.034524195
0001b0 45 0b d3 3d 0f 7c ef 3e 34 f8 a0 bb 04 2e f2 3d
       0.10304884 0.46774337 -0.0049124006 0.11825183
0001c0 c0 a0 db 3b 39 55 ef be 61 ea b1 3e 44 ee 0d bf
       0.0067025125 -0.46744707 0.3474913 -0.5544169
0001d0 6e 12 ea 3e ef 75 66 be 01 bc 1c bf f7 7a 12 3f
       0.45717186 -0.22505926 -0.6122437 0.5721888
0001e0 f1 13 77 3e 7c 69 9c be 8b 47 46 bd f2 86 95 3e
       0.24128701 -0.30549228 -0.048408072 0.29204518
0001f0 c6 2d 59 bc 9d a4 87 3c 37 75 f6 3d c3 e7 9c bc
       -0.013255542 0.016557986 0.12034076 -0.019153481
000200 9e b6 85 bf 44 4f dc 3e 7c 7b a5 3c 1f 2e ec 3e
       -1.0446355 0.43029225 0.020200484 0.46128938
000210 11 91 2c 3f 31 d5 69 bf 83 20 23 bf 97 21 f5 bd
       0.67408854 -0.9134093 -0.63721484 -0.119692974
000220 41 2b 7b 3f ce 0b 3f bf 32 cc f3 bc ef c8 66 bf
       0.98112875 -0.7462739 -0.029760454 -0.9015035
000230 a8 1b 0c bf 9e 78 87 be 0b d3 72 3d 69 32 e3 3e
       -0.547297 -0.2645921 0.059283298 0.44374397
000240 d4 4c 53 bd e8 c1 a2 be b0 9c 8f be a7 16 4d bd
       -0.05158694 -0.31788564 -0.2804923 -0.05007043
000250 fa 3e 88 3e 64 a4 da be 7c 7d f8 bd 5d 62 e4 bd
       0.26610547 -0.42703545 -0.12133309 -0.11151574
000260 97 2f ac 3e 6a 8d d2 3e a0 49 2b bf 35 a0 29 bf
       0.33630058 0.41123515 -0.6690922 -0.6626008
000270 b0 e6 4f be 1e b0 d0 bd 20 5d 08 3e 7c 38 78 3e
       -0.20302844 -0.10189842 0.13316774 0.24240297
000280 65 a3 bb be 6e 83 13 3d 64 38 a2 3e 98 ae 5e 3f
       -0.36648098 0.036014013 0.31683648 0.8698516
000290 a1 a3 4c 3e 76 a7 5c 3e 84 d8 ef 3c 49 78 f3 be
       0.19984294 0.21548256 0.029278047 -0.47552708
0002a0 fe 6e 40 be 1a 43 44 3e 6d ea 1d bd 92 a4 d5 bd
       -0.1879234 0.19166222 -0.038553644 -0.1043178
0002b0 32 13 1d bf a2 8c 8a bc 75 5e 82 3e 0c 55 1a bd
       -0.61357415 -0.016912762 0.2546269 -0.037678763
0002c0 bd af 35 3f 76 33 43 bd 71 52 cc 3d 83 cd a4 bd
       0.7097128 -0.0476565 0.09976662 -0.08047011
0002d0 fb 4c 43 bf 74 94 47 3f 85 d8 0a bf 78 ee 84 3e
       -0.7628934 0.77960896 -0.5423663 0.25963187
0002e0 51 fb ea be 03 3a 52 bd 7b 97 99 bd d5 b7 12 bd
       -0.45894864 -0.051324856 -0.07499596 -0.035819847
0002f0 8b 8b 27 3f 51 90 ce 3e f2 f1 08 bf 26 0e 76 be
       0.654473 0.4034448 -0.5349418 -0.24028835
000300 36 ed a8 3d cd b0 87 bc 3b 41 4d be ca bb d1 3e
       0.082483694 -0.016563797 -0.20044415 0.40963584
000310 de 26 95 be 78 58 f2 3d 82 0f 02 3f 14 2b 50 bd
       -0.29131216 0.1183328 0.50804913 -0.050822333
000320 c0 49 fb 3e 3a 34 3a bf c7 ba 19 bf 9e 49 90 3e
       0.49079704 -0.7273594 -0.60050625 0.28181165
000330 22 19 74 3d 7b bd 8f bd bd cf 18 3f ba ae c5 3e
       0.05959428 -0.070185624 0.59691983 0.38609868
000340 b2 a0 ee be ee 2f 6f 40 bd 21 a5 3e 9d 55 38 3f
       -0.46606976 3.7373004 0.32252303 0.72005635
000350 ec cc 7b 40 a9 92 29 bd a4 2b ca be 58 59 5d 3e
       3.9343824 -0.04139963 -0.3948642 0.21616113
000360 08 4a cc 3c cc f4 a8 3d 5d 89 b6 be 84 29 e3 be
       0.024937645 0.08249816 -0.35651675 -0.4436761
000370 6a 8d 11 3e 35 7f b3 3d 92 56 2a bf 98 19 8a be
       0.14214101 0.08764497 -0.66538346 -0.2697265
000380 7f b6 fd 3f 11 df 87 3f c6 c2 46 bf 8d bb e6 3d
       1.9821318 1.061495 -0.7764095 0.11266241
000390 8f 4d 45 3e 06 10 14 be 9a e6 4e bf e8 a4 c1 3e
       0.19267868 -0.14459237 -0.8082062 0.37821126
0003a0 30 5f a3 bd 25 10 8f be 1a 93 ee 3e 10 64 63 3d
       -0.0797714 -0.27942005 0.46596605 0.05551535
0003b0 60 9b 26 3e 8e c1 a1 3e f2 88 3f bd 1b c3 27 3e
       0.16270208 0.31592983 -0.04676146 0.1638302
0003c0 39 be 8c bf 6a b2 e3 bc b3 89 9e be d9 37 a6 be
       -1.0995551 -0.027795035 -0.3096443 -0.32464483
0003d0 87 85 d8 3d 86 c6 0f be 77 5f 80 bf ec e8 48 3f
       0.10572343 -0.14040574 -1.0029134 0.7848041
0003e0 b8 34 5e bd 5a 1a 52 be 9b 41 63 3d 9e 1d e8 3e
       -0.054249495 -0.20517865 0.055482488 0.45335096
0003f0 97 1b 86 3b 24 a4 33 bd d8 e9 7d bd 18 a4 a9 3c
       0.0040926444 -0.04385771 -0.06199059 0.020708129

decoder.decoder_net.4.bias f4 [50]
000000 ab 5d 37 c0 05 39 c6 bf 00 9d 81 3f b2 0c d2 bf
       -2.865092 -1.5486151 1.0126038 -1.6410124
000010 f4 a3 0b bf 53 81 ab be 90 1f 00 bf df a2 ad bf
       -0.5454705 -0.33497104 -0.5004816 -1.3565329
000020 2e c6 30 c0 e8 9d 9f 3e de 02 b3 3d b3 de 25 c0
       -2.762096 0.3117516 0.08740781 -2.5917175
000030 63 09 90 bf e7 0e 04 bf ef cd 49 bf a8 af 57 bf
       -1.1252865 -0.5158524 -0.78829855 -0.84252405
000040 fc b3 a1 3e f2 de b0 bf df e8 10 c0 62 a6 f3 3d
       0.3158263 -1.3818038 -2.2642133 0.118969694
000050 4a e7 05 c0 0c 2d a1 3e 50 40 7c 3f 5c dd 56 be
       -2.0922418 0.3147968 0.98535633 -0.2098288
000060 7c 69 8d be f7 d2 21 3e ee 81 94 be 18 2b 36 3f
       -0.2761954 0.15803133 -0.29005378 0.71159506
000070 49 3d 3b bf 84 eb 17 3e 60 e7 8a 3f 07 3b 90 bd
       -0.7314039 0.14835936 1.085186 -0.070425086
000080 5e 9f 43 3e 24 57 a4 3e 39 c9 5b bf 5b b4 49 bf
       0.19103763 0.32097733 -0.85853916 -0.78790826
000090 70 34 2b bf 32 8a f3 be 38 e4 bb bd 76 35 4d 3f
       -0.6687689 -0.47566372 -0.09174389 0.801597
0000a0 e1 54 76 3d f1 66 70 3f 69 de 99 bd 7e 36 af be
       0.06013954 0.93907076 -0.075131245 -0.34221262
0000b0 c8 42 d4 3d 5a a9 15 3f 22 32 7d 3f 0b 1f e6 be
       0.103643 0.58461535 0.9890462 -0.4494556
0000c0 ca bd e5 3e ef b0 22 be
       0.4487136 -0.15887807

prior.mean f4 [2]
000000 00 00 00 00 00 00 00 00
       0.0 0.0

prior.std f4 [2]
000000 00 00 80 3f 00 00 80 3f
       1.0 1.0
