src/artifacts/vae_best_avae.pth (torch, 126040 bytes, 14 tensors)

prior.mean f4 [2]
000000 00 00 00 00 00 00 00 00
       0.0 0.0

prior.std f4 [2]
000000 00 00 80 3f 00 00 80 3f
       1.0 1.0

encoder.encoder_net.0.weight f4 [128, 50]
000000 28 8a a6 3c 67 f6 6e bd a3 d9 13 3c ee 64 f5 bc
       0.02032955 -0.058340456 0.009024057 -0.029955354
000010 8a f3 1c bd 38 7b 06 be f0 34 77 3d d1 16 c1 bd
       -0.038318194 -0.13132942 0.06035322 -0.0942818
000020 30 3e 96 3d 57 c5 00 3d f0 e9 f4 bc 43 76 2d 3d
       0.0733608 0.031438198 -0.029896706 0.04234911
000030 c6 78 4c 3d 08 43 9c 3d 88 4c c5 3c bc 5b 88 bd
       0.049919866 0.07629973 0.024084345 -0.06658122
000040 57 b6 25 3e 2c 72 c2 3d 94 27 5b bd 15 33 5e 3c
       0.16182838 0.09494433 -0.05350454 0.013561984
000050 ab 12 9b bc b3 78 0f be 6c e7 6b bd 60 01 2c 3d
       -0.0189298 -0.14010887 -0.057593748 0.0419935
000060 5b 4b de 3c 3f c3 1e bd b4 b4 b0 bc 86 21 2e 3d
       0.027135542 -0.03876042 -0.021570541 0.04251244
000070 1f e2 79 bc 0b 81 6f 3d b7 b5 0d 3d bc 0a 2f 3d
       -0.015251665 0.058472674 0.034597125 0.042734846
000080 5b e2 1a bd cf 7f 3d bd b1 6a d7 bc 99 fc 8a bd
       -0.037813526 -0.046264466 -0.026295992 -0.067864604
000090 1d 50 35 3d 2c 34 c4 bc 2b de dc bd 3e cd 84 ba
       0.044265855 -0.023950659 -0.10784563 -0.0010131968
0000a0 e9 31 97 3c 45 39 71 bd 75 fb 64 bd 9d 7d 99 bd
       0.018456416 -0.058892507 -0.05590387 -0.07494662
0000b0 89 ad 11 bc ed 92 79 bc 5b 3a ba 39 2d 4b 97 bd
       -0.008891472 -0.015232784 0.00035520163 -0.073873855
0000c0 8e e1 a1 bd 40 1a 84 3d cd 06 39 3c 31 1c 3d 3e
       -0.07904349 0.06450319 0.011293125 0.18467785
0000d0 e2 2d bf 3c 20 18 e8 3d 4b 52 2f 3e ff a7 76 bc
       0.023337308 0.113327265 0.17121236 -0.015054702
0000e0 b8 70 f0 bd ce 24 74 3d 50 d8 2e 3d b0 02 f4 b7
       -0.117402494 0.059605412 0.04268676 -2.9088318e-05
0000f0 ff 88 0d 3d 3d f3 18 be 31 9e 84 3d 2d 3f 21 3d
       0.034554478 -0.14936538 0.06475485 0.03936689
000100 8c bd cb 3c 32 4b 67 bd 7e a2 6d bd 27 60 1b 3d
       0.024870656 -0.056468196 -0.058016293 0.037933495
000110 82 42 ff bb 38 d0 b3 bd 86 9d 46 bd 1d ef 87 bd
       -0.007789911 -0.08779949 -0.04849007 -0.06637404
000120 2d d3 12 3d 45 88 ca bd d5 c6 61 bc e0 ee b4 3d
       0.035845924 -0.098892726 -0.013780315 0.08834624
000130 bc b5 d0 bc 93 65 3f 3d 10 65 15 bc 26 4f 5d bd
       -0.025477283 0.046727728 -0.009118333 -0.05403056
000140 69 36 02 be a8 7d 24 bd e4 fc b0 3d 19 15 df bc
       -0.12716068 -0.040158898 0.08641985 -0.02723174
000150 a1 86 fa ba 35 07 80 3c b9 8d bc bc da c2 20 bd
       -0.0019113609 0.015628437 -0.023016797 -0.039248325
000160 4c ca 51 bd ac a7 93 3d 8a 50 bd 3c 39 cb e4 3d
       -0.051218316 0.07209715 0.023109693 0.11171574
000170 e9 12 f8 bc 44 81 39 bd e0 75 a8 3d 81 d8 65 3c
       -0.030282455 -0.045289293 0.08225608 0.014028669
000180 9d 2a b3 bc ce 2e d5 bb 94 e3 86 bc f7 ba 05 3d
       -0.021870906 -0.0065058237 -0.01646594 0.032649007
000190 b5 1c 1d 3c 1a 13 ef 3c 24 5d 71 3d 4c 3a b9 bd
       0.009589364 0.029183913 0.058926716 -0.09044322
0001a0 3e fd 0b 3e 09 0c 8e 3d cd 23 f3 bd f6 be 88 3d
       0.13670823 0.06935889 -0.11872063 0.06677048
0001b0 3c af c4 3d fa 60 bc 3d 7c 80 13 3d 19 0b 4f bc
       0.09603736 0.09198184 0.036011204 -0.012636923
0001c0 18 b5 f4 bd bc 45 00 be 5c 1a c8 3d a7 1a 07 be
       -0.119486034 -0.12526602 0.09770653 -0.13193761
0001d0 02 90 7d bd 43 49 ad bd 44 0d 82 bd dd 8d 8a bd
       -0.061904915 -0.08461239 -0.063501865 -0.067653395
0001e0 11 67 1a bd c2 5a ab bb e6 f9 91 3d 24 b9 5c 3d
       -0.037695948 -0.005229325 0.071277425 0.0538875
0001f0 77 9f 5e bd d6 e6 91 3d 82 22 d3 3d 1d 7f f3 bc
       -0.054351296 0.071241066 0.10309316 -0.029723698
000200 61 ab 8c 3d 95 55 50 3d 7d 3a 0a be 77 44 98 3d
       0.068686254 0.050862867 -0.13498874 0.07434934
000210 d1 a1 6c 3c fd 2b 26 bd bb be 45 3b 65 5d c4 bd
       0.014442877 -0.040569294 0.0030173499 -0.09588126
000220 f7 4f 1d be e9 01 6d bb 0c 3c 98 bd 06 3c 0b 3d
       -0.15362535 -0.0036164469 -0.07433328 0.03399279
000230 04 d3 9e bd 3a 13 dd 3b 2d a0 26 3d 31 34 2c 3d
       -0.07755092 0.0067466768 0.0406801 0.04204196
000240 e0 b0 5c 3d 70 af c1 3c da 1a 6c bd 26 59 04 3d
       0.05387962 0.023643225 -0.057642795 0.03231158
000250 b4 17 9a bc db 4b 1c bd a3 40 24 3c 00 35 f0 3d
       -0.01881013 -0.03815828 0.010025176 0.11728859
000260 66 78 f3 3d 85 dc b6 3d 6e 5b 93 bd 4c a1 7d bb
       0.118881986 0.089287795 -0.07195173 -0.0038700877
000270 ef f6 02 3e b0 46 85 be ab 72 2e be 77 55 5b be
       0.1278951 -0.26030493 -0.1703593 -0.21419321
000280 82 78 71 3d 86 9f fe b9 80 bb 3b 3d 5e bb cb bd
       0.058952816 -0.0004856551 0.04583311 -0.09947847
000290 cb 79 bb bb e0 63 24 bb 17 32 32 bd ca ad 40 bd
       -0.005721306 -0.0025083944 -0.0435048 -0.04704074
0002a0 3d 19 e2 3c 85 9e be 3d 85 7e f5 3c 21 99 85 bd
       0.027599925 0.09307579 0.029967556 -0.06523348
0002b0 78 f2 7a bd 72 ca 46 bd dd 4a 71 3c 97 35 01 be
       -0.061266392 -0.04853291 0.014727321 -0.12618099
0002c0 1f 4e bc 3d 7e 37 3a bd 4d f6 9e bd d1 75 80 3d
       0.09194588 -0.045463078 -0.07761822 0.06272472
0002d0 36 da 28 bd 05 47 ed bc 2a 0f 8c 3c e7 25 f4 3b
       -0.041223727 -0.028964529 0.017097075 0.0074508074
0002e0 81 bb 5d bd dc ca 7d bd 06 9e 35 3c 86 de 09 3e
       -0.054133896 -0.06196104 0.011085039 0.13463792
0002f0 67 9b a2 3d f4 1a e1 ba b5 f6 04 3e df 2a ba bd
       0.07939797 -0.001717417 0.12984736 -0.09090208
000300 65 b8 c5 3b 96 d2 25 3d c0 2f dc bb e6 e5 b5 3b
       0.0060339444 0.040484034 -0.0067195594 0.0055510877
000310 2b 57 c3 3d 7d fc 38 bb 59 9a 91 bd 59 ba f3 3c
       0.0953811 -0.0028226667 -0.071095176 0.029751943
000320 50 6e 89 3d 83 a7 86 bd 63 2b 8b 3d e1 0f 13 bd
       0.067104936 -0.06574919 0.06795385 -0.035903815
000330 b4 e5 0e 3d e0 ba 70 3d 51 04 d8 ba 10 6a bf 3d
       0.03488703 0.058771968 -0.0016480779 0.09346402
000340 e3 52 10 3e a9 ca 60 be 04 55 08 3e 41 70 99 3d
       0.14094119 -0.21952309 0.13313681 0.07492114
000350 7d 49 c8 3d 5c 66 bd 3d fd d8 d8 bd d2 2c 88 bd
       0.09779642 0.09248039 -0.10588262 -0.06649174
000360 f4 7a a9 3d 18 a9 8c 3d b1 c5 00 3d 01 ad 92 3b
       0.082754046 0.068681896 0.031438533 0.00447619
000370 27 c7 a1 bc 3c 70 77 bd ec f3 e4 bd 68 cc 9f 3d
       -0.019748284 -0.06040977 -0.11179337 0.07802659
000380 f7 eb fa bb a5 d2 a7 3d 89 c1 18 3c 01 9b 93 bc
       -0.0076575237 0.08194474 0.009323486 -0.018018248
000390 f9 9f 51 bd 6c 7b 1a 3c dc da bf 3d 81 cf c4 bc
       -0.051177952 0.00942884 0.09367916 -0.024024727
0003a0 05 92 e3 3d f9 41 2c bc ca f6 62 bd 3b c0 6a bc
       0.111118354 -0.010513776 -0.055411138 -0.014328058
0003b0 d7 4b 85 bc 07 b2 c8 3d 04 51 0c 3d e8 69 c4 3c
       -0.016271515 0.09799581 0.03425695 0.023976281
0003c0 22 b3 8d bd fd 68 bb bd ef 49 a8 bd ca 12 3d 3b
       -0.069189325 -0.09150884 -0.08217227 0.002885031
0003d0 10 db f6 3c 39 c1 86 bd b2 59 78 3d d8 e4 01 be
       0.030133754 -0.06579823 0.060632415 -0.12684953
0003e0 9e f4 f0 bd 49 eb 42 3c 66 55 5e bd 0f db d0 3c
       -0.11765407 0.011896917 -0.05428066 0.02549508
0003f0 d8 34 88 bc d0 66 ae bc f1 1f ee 3d e5 be ff bd
       -0.01662676 -0.02128926 0.11627186 -0.12487582

encoder.encoder_net.0.bias f4 [128]
000000 9f 7b 02 be 39 fa a3 bd 19 90 ff bc c1 7f ff bd
       -0.1274247 -0.080067106 -0.03119664 -0.12475539
000010 65 d3 94 bd 91 e9 52 be 5f 30 14 3d 77 11 18 be
       -0.07266883 -0.20596911 0.036178943 -0.14850412
000020 42 dc 2a 3c 66 d0 b4 3d 55 65 ae 3c b9 8d ad 3d
       0.01042849 0.08828811 0.021288553 0.08474297
000030 e0 b7 df 3d 9c 72 92 3d 57 f8 2f be b7 ce f7 bd
       0.10923743 0.07150766 -0.17184578 -0.120999746
000040 f2 fb 17 bd 51 7c be bd 5e c2 1c be 45 86 ef bd
       -0.03710551 -0.09301055 -0.1530852 -0.11695532
000050 b1 73 d1 3c 49 17 30 be 69 02 21 be 6b 53 a8 bd
       0.025567861 -0.17196383 -0.15723576 -0.08219036
000060 96 53 c1 bb 2d 96 22 3e 55 82 10 3d ed d2 83 bd
       -0.005899857 0.158776 0.035280544 -0.06436715
000070 35 19 64 be e7 2b 58 3d b7 14 1a bd 08 7e 36 3c
       -0.2227524 0.052776244 -0.03761741 0.011138447
000080 86 ac f4 3d 90 b8 cd bc 85 94 32 be 59 7a 08 3d
       0.11946969 -0.02511242 -0.17439468 0.033319805
000090 51 80 f0 bd 4c 38 12 be 19 6c fe bd 98 1a 3e bd
       -0.117432244 -0.14279288 -0.12422962 -0.04641208
0000a0 c6 25 5e 3c c8 d0 87 bd 2d 0d 9f bd b1 f5 80 3c
       0.013558811 -0.06631619 -0.07766185 0.015742155
0000b0 d1 b9 2d be 03 59 0e bd ef 52 3b be 60 d6 84 bc
       -0.16965415 -0.034752857 -0.18293355 -0.016215503
0000c0 fe f2 2c 3c fa ca 7f bd a6 a4 49 bd fc 48 e3 3c
       0.010555981 -0.062449433 -0.049229287 0.027744763
0000d0 ad b4 c4 bc b6 b7 8e 3c f2 b2 78 3d 01 25 14 be
       -0.024011934 0.017421585 0.06071753 -0.14467241
0000e0 d6 bb 30 be c8 a0 d4 bd b2 32 bc 3b cf 10 9e bc
       -0.17259154 -0.10382229 0.005743348 -0.019295124
0000f0 69 38 9d bb 81 f5 53 3c 67 35 d9 3c f6 de 9b 3b
       -0.0047979844 0.012936951 0.026514722 0.0047568036
000100 30 a7 dc 3c 7a a1 73 bd b6 27 d3 bd 5c f4 09 be
       0.02693519 -0.059480168 -0.10310309 -0.13472122
000110 60 d4 57 be 08 00 04 3d 4f 73 65 bd 21 8c 02 bd
       -0.21077108 0.032226592 -0.05601817 -0.03187192
000120 77 ba 52 be 25 5d 3a 3d 1b 45 b5 bc 15 75 eb bd
       -0.20578943 0.045498986 -0.022127679 -0.11496941
000130 07 db 2a 3c ce e0 b1 3d 3c 25 af bc 9d 2f a8 bc
       0.010428197 0.08685456 -0.02138006 -0.020530516
000140 e7 a4 59 bd aa 4e 16 bd a1 6b 29 be 80 c6 2d 3d
       -0.05313578 -0.036696114 -0.16544963 0.042425632
000150 38 fe 82 be db 5c 29 be 28 28 3f be a5 ed 11 be
       -0.2558458 -0.16539328 -0.18667662 -0.1425081
000160 08 15 ea 3d e0 ca 81 bd eb ca 2b be 4f cd f5 bc
       0.11429793 -0.063375235 -0.16776626 -0.030005125
000170 0d 8f 14 3d 20 43 22 bd 60 2a 0c be ef 73 b3 bd
       0.036269236 -0.039614797 -0.1368804 -0.08762347
000180 4d 84 6b 3d ff da 2f be 8e d7 a0 be 6a a9 1d be
       0.05749922 -0.17173384 -0.31414455 -0.15396658
000190 66 30 2e 3d 22 12 56 be e1 3d b3 bd 4a a6 0a be
       0.042526625 -0.20905355 -0.08752037 -0.13539997
0001a0 e8 a5 00 3d ef 28 cc bd 88 6c d5 bd be 0f 83 bd
       0.03140822 -0.09968745 -0.10421091 -0.06399487
0001b0 90 e4 b0 bc b0 09 d6 3d 2c 77 59 3d 9b 4e 0f be
       -0.021593362 0.104510665 0.053092167 -0.1399483
0001c0 07 5a fa bd 3c 08 f7 3d dc 5f 95 3d 71 a8 e3 bd
       -0.122242026 0.120621175 0.07293674 -0.11116112
0001d0 f8 67 45 be 97 da be bd 91 b0 4f 3d d4 17 a7 3b
       -0.19277942 -0.093190365 0.050705496 0.005099276
0001e0 a8 b5 99 bd e0 47 92 bd eb e1 8b bd 51 cf ed bd
       -0.07505351 -0.07142615 -0.068302 -0.11611808
0001f0 7b 89 55 bd 88 e7 11 3e 9d ca 8b bd b4 26 ed bc
       -0.052133065 0.14248478 -0.06825755 -0.02894912

encoder.encoder_net.2.weight f4 [64, 128]
000000 cb 8c 1a 3c 52 91 61 bd fd e4 3a bc ec 0d 8e 3d
       0.009432982 -0.05507023 -0.011407134 0.06936249
000010 19 09 50 3c 09 6d 84 3d fb f7 ce 3a 64 c6 79 3d
       0.012697482 0.06466109 0.0015790457 0.060980216
000020 43 48 7c 3d a5 70 a9 bd 30 a0 84 3c 4a 1e dd bd
       0.06159235 -0.08273438 0.016189665 -0.10796793
000030 db 82 bc 3d b9 d6 83 bc 38 5c 55 3d 22 1c 53 bd
       0.09204646 -0.016093599 0.0520899 -0.0515405
000040 f4 62 78 3b 93 f7 bd 3d fe c1 53 3d df e5 78 bd
       0.0037900778 0.09275737 0.051698677 -0.060766097
000050 55 26 ed 3c 21 bb 39 3d 5d 63 52 bc 92 95 77 bd
       0.028948942 0.045344476 -0.012841073 -0.060445376
000060 7a bc 6b 3d 80 08 06 3d ca 66 44 3d 48 66 5b 3b
       0.057552792 0.03272295 0.04794959 0.0033477712
000070 7b 22 a0 bd 02 9a 66 bc 2f 63 98 3d 1e 75 66 bd
       -0.07819077 -0.014074804 0.07440793 -0.056264035
000080 f8 ef 41 bc c4 bb 9c bd f0 25 81 3d 1a f5 50 bd
       -0.011836998 -0.07653001 0.06306064 -0.051014997
000090 49 aa df 3b 77 bb a0 3b af aa 30 3d 4a 2b 29 bb
       0.0068257195 0.00490516 0.043131527 -0.0025813156
0000a0 8e 17 7d 3d fb 98 15 3c 91 da 9a 3c 0a ff 20 3d
       0.06179004 0.009130712 0.018903049 0.039305724
0000b0 1f f8 3d 3d 56 5d eb 3c 65 22 5f bc cb 86 68 bd
       0.046379205 0.02873103 -0.01361904 -0.056769174
0000c0 6c e0 73 3c a5 79 45 3d 89 79 ce bb ca d4 04 bd
       0.014885049 0.048211712 -0.006301109 -0.032429494
0000d0 76 bc df bc b1 a7 65 3c 5d 49 c6 bd cb 40 9e bd
       -0.027311545 0.0140170315 -0.09681962 -0.07727202
0000e0 f7 84 f3 bc 74 ab ad bd b7 c4 a2 3d 55 37 8a 3d
       -0.029726489 -0.08479968 0.07947677 0.06748835
0000f0 be 0f a6 bd 89 9d 0a 3d f0 08 5b bc 44 cc 8f bc
       -0.08108471 0.033841643 -0.01336883 -0.017553456
000100 b1 6c 27 3d 77 9b 4e bc 96 7f 93 bd d4 cc 9e 3d
       0.04087514 -0.012610308 -0.072020695 0.077539116
000110 dd 72 34 bc 45 4d 85 3d bf e1 a7 3a 3c 17 0e bc
       -0.011013714 0.065088786 0.0012808366 -0.008672532
000120 a7 cb 61 bd 04 b6 22 3d e8 ae 24 3d 1a 9d f5 3c
       -0.05512586 0.039724365 0.040205866 0.029982138
000130 1f bb de 3d 31 96 b2 3d dc e2 30 3d 44 83 75 3d
       0.10875534 0.08720053 0.0431851 0.059939638
000140 e2 b1 d9 3c 79 b5 e4 3c 54 a9 d6 bd 3b cf 68 bd
       0.026574079 0.027918564 -0.104815155 -0.056838255
000150 d9 71 65 3c 8a 93 cc 3a db 95 3e 3c 32 c5 95 bd
       0.014004194 0.0015607935 0.011632408 -0.07313003
000160 8c 03 4e 3d c5 db 79 3d ff 7f ac bc b1 8b 6e bd
       0.05029635 0.061000604 -0.021057127 -0.05823869
000170 5b 24 c7 bb 28 dc 8d bd d2 15 16 bd 6d a2 76 bd
       -0.006077332 -0.06926757 -0.036641903 -0.060213495
000180 b3 fd 00 bd 2d f0 2b bd eb 45 2e bc 07 c0 3d 3d
       -0.031491946 -0.041977096 -0.010636787 0.04632571
000190 08 b8 08 3d 99 0c 4c bd b1 05 23 bd b7 d4 16 3c
       0.03337863 -0.0498167 -0.03980035 0.009205989
0001a0 a8 75 bd 3d 61 8d 38 3c 85 b5 ee bc e8 6f d2 3d
       0.09250957 0.011264176 -0.02913929 0.10275251
0001b0 81 a6 b1 3c bd f6 66 bd d8 93 db bd 90 cd 96 3d
       0.02168584 -0.05638765 -0.10721558 0.07363427
0001c0 7b 59 0d 3d c4 f5 7a 3d b3 07 28 bd 85 ed 25 3c
       0.034509163 0.061269537 -0.041022968 0.01012743
0001d0 30 96 d0 bc 26 df 01 bd 90 b5 c0 bd 99 08 a5 3d
       -0.02546224 -0.03170695 -0.0940963 0.080582805
0001e0 ca d8 b0 3d 86 c6 44 3d 07 f3 ad bc 78 85 0d bd
       0.08635099 0.04804089 -0.021234049 -0.034551114
0001f0 24 90 b9 3d 06 d6 17 3d dc 9e 24 bc 45 7c 78 bd
       0.09060696 0.037069343 -0.010047641 -0.060665388
000200 6d 8f cf bc 0d 4c a6 3d 87 03 c1 3c 29 52 c4 3d
       -0.025336945 0.08119974 0.023561252 0.09585983
000210 ab 27 aa 3d 1b 92 ff 3d 15 f0 47 be 8b 67 0d 3d
       0.08308347 0.12479039 -0.19525178 0.034522574
000220 c8 eb 96 bc ff cc e3 3c 0c a8 c2 3b 19 7d ad 3d
       -0.018422976 0.02780771 0.005940443 0.08471126
000230 99 53 07 be a1 5a bc bd a3 3e b3 3d cb ea 5b be
       -0.13215484 -0.091969736 0.087521814 -0.21476285
000240 ca d1 ac 3d 6f f9 e2 3d 5a 3d 00 bd 14 61 c7 be
       0.084384516 0.11082732 -0.03130851 -0.38941252
000250 89 06 54 3c 1c 78 b5 3d ea 37 54 bd 4a de ee bd
       0.012941011 0.088608 -0.051811136 -0.11663492
000260 ef b1 64 bd 3a ad 9a ba ad 5c 52 be 07 17 e1 3b
       -0.055833753 -0.0011800893 -0.20543166 0.0068692
000270 be 86 cf bd 16 8d fc 3d 28 c1 82 bd 34 12 5b bd
       -0.10133122 0.123315975 -0.06384498 -0.053484157
000280 b5 3e 5c bd df c0 5e bc 15 55 c2 bd 93 8f 35 be
       -0.05377074 -0.013595789 -0.09488884 -0.1773055
000290 97 02 ce 3b 9a 98 d3 bb 43 d2 a9 3d d5 c5 9d bc
       0.00628693 -0.0064574005 0.08292057 -0.019259373
0002a0 c5 54 d5 bc 91 46 0e bd 5f 4d 30 3b ac f4 ea 3a
       -0.026041398 -0.034735266 0.0026901586 0.0017925701
0002b0 a4 7e fa 3c bb 46 a8 3d 03 bf 09 3e a8 70 c3 3d
       0.030577965 0.08216616 0.13451771 0.09542972
0002c0 5f 42 11 3c 93 a4 0c bd 2a 1b bc bd ea 85 9b bb
       0.008865922 -0.034336638 -0.09184869 -0.0047461884
0002d0 fe bc e0 3c 80 c2 52 bc 54 49 c7 bd c6 29 3a bd
       0.027433868 -0.012863755 -0.09730783 -0.045449995
0002e0 0c 7b 14 3b a8 4f 2d 3d 1d 41 41 3d ee b2 3e bd
       0.002265635 0.042312294 0.047181237 -0.04655736
0002f0 6d e3 4a bd 83 a2 9d bb 06 b5 8f 3d ee ad 95 bc
       -0.049533296 -0.0048106327 0.07016949 -0.018271413
000300 89 d1 4c bd 7e f0 ba 3c 69 d3 e8 bc 32 9a 8d 3d
       -0.050004516 0.022819754 -0.02842112 0.06914176
000310 ed e7 6e 3b 9d 53 e6 3b 57 1d ae bc e8 e3 3d 3d
       0.0036454157 0.0070290104 -0.021254225 0.046359926
000320 9e a8 23 3d 65 03 ba 3c 5e 25 2a 3d b6 ad 86 ba
       0.039955728 0.022706697 0.041539542 -0.0010275159
000330 19 aa be 3d 8e e2 f0 3d 37 40 83 3c e1 9a 05 bd
       0.09309787 0.11761962 0.016021831 -0.032618407
000340 28 68 cd bc 87 d7 d2 3d f6 7f 98 bd 60 83 ab be
       -0.02507408 0.10295015 -0.074462816 -0.3349867
000350 39 36 92 3d 36 f4 6c bd d7 7d 5c bd 37 1b 94 3d
       0.071392484 -0.057850085 -0.053830948 0.07231753
000360 17 82 d9 3d 93 69 a4 bc aa 6b 1d bc 50 14 8b b9
       0.10620516 -0.020069873 -0.009608189 -0.0002652728
000370 42 f4 7c 3d ae c1 65 3d c7 5c e2 3d 21 6f c1 3c
       0.06175638 0.05609291 0.11052852 0.02361256
000380 ee 79 80 bd f7 17 c1 3d e2 18 b4 3d bd 84 ba 39
       -0.06273256 0.09428399 0.087938085 0.00035575582
000390 39 e4 46 3d 8d 15 95 bc 80 29 bd 3c 71 c6 77 bd
       0.048557494 -0.018198753 0.023091078 -0.060491983
0003a0 d6 31 07 bb 6a 09 62 bc aa 49 58 bc 00 c7 08 be
       -0.002062907 -0.01379619 -0.013201157 -0.13357162
0003b0 0f 89 89 bc cb e8 29 bd ad ca 06 3e 29 89 fe 3b
       -0.016788987 -0.041481774 0.13163252 0.0077678156
0003c0 54 90 f1 bc 0f 6d 8f bd dd fc e0 bc cd 0a ff 3b
       -0.029487766 -0.07003223 -0.027464325 0.00778327
0003d0 00 47 f8 3c 06 9e 2e 3d e9 e1 36 3d 2e 55 ed 3c
       0.030307293 0.04263117 0.04464904 0.02897128
0003e0 0d 3f c7 3d 6e c3 fb 3d 9f 73 48 3d b6 5e e3 bc
       0.09728823 0.12293135 0.04893839 -0.027755123
0003f0 38 32 8d 3d 7e e3 d7 3d 12 df 6e bb 9f f6 63 bd
       0.06894344 0.105414376 -0.0036448878 -0.055655118

encoder.encoder_net.2.bias f4 [64]
000000 8e b0 f9 3c 64 dc ce 3c f4 a6 25 bc 76 70 e9 3c
       0.030479696 0.025251575 -0.0101106055 0.028496008
000010 29 ac e2 3c 9b f4 b2 bd 64 b7 98 bb 62 ba a7 3d
       0.027669983 -0.08738061 -0.0046605337 0.081898466
000020 de 98 b0 3d eb 4a d0 3d 65 a6 f5 3c 6f 23 0b 3d
       0.08622907 0.101705395 0.02998657 0.03396934
000030 62 9d 6c bd 85 61 8c bd f3 34 3e 3d 09 e1 ac 3c
       -0.05776728 -0.06854538 0.046437215 0.021103399
000040 88 b6 2d 3c da 7f 89 bd 9b 5b 4f 3c af ae eb bc
       0.010602601 -0.06713839 0.012656118 -0.028769819
000050 25 05 c1 bc 28 ba a1 bd b0 8a 0c 3d 6b b7 90 bd
       -0.023562023 -0.078968346 0.03431195 -0.07066234
000060 1c dd be bb c7 d9 b5 39 17 cb cc 3d 46 96 1f 3d
       -0.005824698 0.00034685267 0.09999674 0.03896167
000070 c1 12 aa 3c 8f 46 91 3d d2 88 ca bd 6b a7 a0 bd
       0.020760896 0.07093536 -0.09889378 -0.078444324
000080 01 85 79 3d de 42 1b 3d af fc 72 3c c3 17 c8 3d
       0.060917858 0.037905566 0.014830752 0.09770157
000090 15 6a ae 3d ae fe 0c bd a4 22 af bc 53 b9 6f 3d
       0.08516327 -0.03442257 -0.021378823 0.05852635
0000a0 4c 60 93 3d c8 be a4 3c 30 7e af 3d 5d 88 ab 3d
       0.071961015 0.020110503 0.0856899 0.083756186
0000b0 3d ac 4d 3d ac fc 84 3d e6 f5 3f bd b4 f0 96 3d
       0.050213087 0.06493506 -0.046865366 0.07370129
0000c0 ec 2c 9a 3d b1 2e 52 3d 75 fa c9 3d 5c 9e d2 bd
       0.075280994 0.05131406 0.09862224 -0.10284111
0000d0 8e a9 8f 3d f1 17 95 3c 0b 24 10 3d 3d 6f 85 bd
       0.07014762 0.018199893 0.035190623 -0.06515358
0000e0 37 d1 31 3d cd 0c 1c 3d 4e 3d cd 3c 52 a0 5f bc
       0.043412413 0.038098145 0.025053646 -0.013649063
0000f0 55 0d 1e 3d 70 85 30 3d f1 b9 a4 3d 5f 0f 02 bd
       0.038586933 0.043096006 0.08043278 -0.03175294

encoder.encoder_net.4.weight f4 [4, 64]
000000 c9 e6 82 3d 14 c5 9e bb 02 6e ee 3b 2b 39 35 bd
       0.06391675 -0.004845271 0.0072762975 -0.044243973
000010 b6 c3 27 3e db be 42 3d 43 36 dc 3d a4 d4 89 3c
       0.16383252 0.047545295 0.10752537 0.016825028
000020 77 45 bd 3d 53 78 c6 bd 9c 44 b9 bd 26 d2 35 3c
       0.09241765 -0.09690919 -0.09046289 0.011097467
000030 3c 80 30 bd eb 5f 47 bd ba c6 aa 3d 74 d9 17 bc
       -0.043091044 -0.04867546 0.08338685 -0.009268153
000040 62 a4 36 3c 8c 84 4e be 57 61 01 3d 14 7b a4 bd
       0.01114759 -0.2016775 0.03158697 -0.08031288
000050 8d 3d 27 3d b4 b1 99 bc 97 93 9f 3d ab 93 93 3d
       0.040830184 -0.018761493 0.077918224 0.072059
000060 b8 29 13 bb 2c 9f cb bc f6 a0 f9 bd 64 c0 1e 3c
       -0.0022455286 -0.024856173 -0.12188904 0.009689424
000070 99 63 c8 bc 99 c7 59 bd 50 2e 3a 3d 7c 8a 14 bd
       -0.024461554 -0.053168867 0.045454323 -0.03626488
000080 f8 4c 83 bb 3a 94 03 3e 26 69 15 ba 1a 91 d2 3d
       -0.004006978 0.12849513 -0.0005699567 0.10281582
000090 f1 1f 7b 3d df 32 3b 3d 20 0a ae bd 2f a6 a0 bd
       0.06130976 0.04570281 -0.08498025 -0.07844197
0000a0 51 5f 7c bd 8c 90 05 3d e6 f4 98 3c f8 ae a4 bd
       -0.06161434 0.032608554 0.018671464 -0.08041185
0000b0 5c 7c f8 bd 46 9c a8 bd 52 63 b4 bd f2 d6 a0 bd
       -0.12133095 -0.08232932 -0.08808006 -0.078534976
0000c0 05 ab 8a bd b2 ce 34 bd 41 bc 03 3d a2 15 36 bd
       -0.06770901 -0.044142433 0.032161955 -0.044454224
0000d0 2f 0b 21 bd be bd 86 3d 67 21 87 3d be 37 00 3c
       -0.039317306 0.06579159 0.06598168 0.00782579
0000e0 99 39 a3 bd 80 ce 1e 3e 22 5a 88 3d 24 e7 3a 3d
       -0.0796997 0.15508461 0.066578165 0.04563059
0000f0 9e 9b 9d bd c8 77 17 be 1b 1a 10 3e 24 21 12 3d
       -0.07695697 -0.14791787 0.14072458 0.035676137
000100 33 32 46 bd 3e 1a 0a 3e f7 4a 53 ba 63 2c a1 bc
       -0.048387717 0.13486573 -0.0008060182 -0.019674486
000110 6f 92 7c bd 0b 97 36 bd fc 7b c9 bd 35 a1 be 3c
       -0.061663087 -0.04457764 -0.09838101 0.023270229
000120 1a fd 25 bd 85 5f 2c be a8 de e0 3d 4e d1 a0 bd
       -0.04052458 -0.16833313 0.10979968 -0.07852422
000130 78 03 d2 bd 70 ef 1f 3d 38 68 dd bc c4 cb f3 3c
       -0.10254568 0.039046705 -0.027027234 0.029760249
000140 27 93 f8 3c 69 66 96 bd 67 ef 55 3d 61 54 94 bb
       0.030343605 -0.07343752 0.052230265 -0.0045266603
000150 31 b5 88 3d e6 7b 11 39 2d 0e f9 3c 16 2b b8 bc
       0.066751845 0.00013874433 0.030402267 -0.022481482
000160 c5 fc be 3d 98 08 1f 3d 43 93 32 bb 82 3b 15 be
       0.09325556 0.038826555 -0.002724842 -0.14573482
000170 f4 f4 8e 3d 7b 1d a1 bd 37 ee 02 bd 88 7f 16 3d
       0.06980315 -0.07866951 -0.03196546 0.036742717
000180 8f e2 ba bd 40 ef 95 3d 5c a2 77 3d 50 06 49 3c
       -0.09125244 0.07321024 0.060457572 0.012269571
000190 31 3d d9 3d 3b 45 40 3d 21 57 93 3d 71 1a 22 bd
       0.106073745 0.046941023 0.07194353 -0.039575998
0001a0 84 15 4d 3d 8b 66 53 3d b3 e6 14 be 11 f8 4c 3d
       0.050069347 0.051611464 -0.1454113 0.050041262
0001b0 08 49 d5 3d d9 20 3b 3d 24 17 63 bd a6 d4 22 3e
       0.1041432 0.045685623 -0.05544199 0.15901431
0001c0 66 76 02 be 39 d5 9e bb 76 11 c7 3d b5 e5 28 bd
       -0.12740478 -0.0048471955 0.09720127 -0.04123469
0001d0 74 6e 26 bd 5b e7 9b bd a1 f7 e5 3c ea cf ac bb
       -0.04063268 -0.07612487 0.02807218 -0.0052738087
0001e0 c7 f1 46 3e 21 1e 09 be 58 a3 6f 3d e1 07 a6 bd
       0.19428168 -0.133904 0.058505386 -0.081069715
0001f0 cd 73 2d bc e2 67 f3 bd f2 81 5a 3d be 00 e4 3d
       -0.010586691 -0.118850484 0.05334658 0.11132954
000200 3a a2 c2 3d 53 96 53 bd 26 df 46 3c 62 1c 60 3d
       0.095035985 -0.051657032 0.012138164 0.054714568
000210 35 55 26 3d 80 fa 8d bd ba bc a9 bc c5 aa 8d 3d
       0.040608604 -0.06932545 -0.020719875 0.06917337
000220 82 e3 a1 bd 7c f7 96 bd a7 ff 8e 3d 99 c8 d0 bd
       -0.07904722 -0.07371423 0.069823556 -0.10194511
000230 d8 08 80 3d ae db 8f bc 80 73 9a ba f8 8d e0 3d
       0.06251687 -0.017560806 -0.0011783689 0.109645784
000240 16 35 82 bd 11 64 fb 3d d0 77 24 bd 0e dd a9 bd
       -0.063577816 0.122749455 -0.040153325 -0.08294116
000250 ce 6e 9a bd 36 64 69 3d 00 c2 f9 bd 8b a9 f9 bd
       -0.075406656 0.056980334 -0.12195206 -0.12190541
000260 ad dd d8 bc 51 4e 04 3d 9d cb 7a bd f8 84 ab 3d
       -0.02647289 0.03230125 -0.061229337 0.08374971
000270 78 47 dc bc b0 04 cb bc 2a 9b 83 3d bf af 9f 3d
       -0.026889548 -0.024782509 0.064260796 0.07797193
000280 4a 67 b7 ba b1 c9 6d bd 43 22 b4 bd 6c 61 65 3d
       -0.0013992575 -0.058053676 -0.087955974 0.056001112
000290 eb a1 47 bd 28 5c 5c 3d fa 08 eb 3d 6f 52 f2 bd
       -0.0487384 0.053798825 0.114763215 -0.11832129
0002a0 66 d1 33 bd e4 06 af 3d bf 9c c7 bd 1e 98 83 bd
       -0.04390087 0.08546236 -0.09746694 -0.064254984
0002b0 a5 ff 98 3d 08 1a 09 3d e8 39 f9 3d 72 67 12 bc
       0.07470635 0.03347209 0.12169248 -0.008935796
0002c0 4f f8 3d bd 03 f4 57 bd aa 35 62 bd dd 5c a8 3a
       -0.046379384 -0.052722942 -0.05522696 0.0012845058
0002d0 d6 56 41 3c a0 0e b7 3d 0f 9e b0 3d fb 36 0d 3d
       0.011800488 0.08938336 0.08623897 0.03447626
0002e0 b0 e0 68 3d 5d bf 23 3c 90 cf cf bd 3c d0 e2 3d
       0.056854904 0.009994355 -0.10147011 0.11074874
0002f0 64 f3 b0 bd 54 22 34 bd 63 45 ac bd ce 02 ab 3d
       -0.08640173 -0.04397805 -0.08411672 0.08350144
000300 1c 60 ce 3d 98 d9 9b bd bb 9f a7 bd 01 cc b1 3d
       0.10076925 -0.07609862 -0.08184763 0.08681489
000310 64 ff 08 bd 7d 18 df bc a9 ce 01 be 81 b9 43 bd
       -0.033446684 -0.027233357 -0.12676491 -0.047784332
000320 aa 70 39 3d b7 9b df bc 90 1c e9 3c d8 9d 24 b9
       0.04527346 -0.02729593 0.028456002 -0.0001569906
000330 cd 87 b0 bd 4f 22 bb bd 61 25 39 bd d5 dd d1 3c
       -0.08619652 -0.09137403 -0.045201663 0.025618473
000340 3f 5a ab bc 8a 37 31 3d e5 37 db 3d 65 6b 81 3d
       -0.020917056 0.043265857 0.107040204 0.06319312
000350 1e 55 c4 bd 4a ef bf bd 51 fe eb bd bb 00 54 bc
       -0.09586547 -0.09371813 -0.115231164 -0.012939627
000360 b6 1b 2a bd 3d c8 ee 3b cc b6 70 bc 35 83 6d bc
       -0.041530333 0.007287054 -0.01469202 -0.014496614
000370 ed b6 13 3d 17 bf a6 3c 60 bd fc 39 67 f2 db bd
       0.036063123 0.02035479 0.0004820628 -0.10739594
000380 15 d4 43 3c 37 e1 95 3d 88 a2 45 bd 7c f9 d7 3c
       0.01195242 0.07318347 -0.048250705 0.02636408
000390 30 6a d9 3d 9d af dc 3d 11 db 5e 3d 9a e8 62 3b
       0.10615957 0.10775683 0.054408137 0.0034623505
0003a0 b1 ed ac bd 4d bc 89 3d 3b 7d 5d 3d c6 ff 03 bd
       -0.084437735 0.06725369 0.054074507 -0.032226346
0003b0 f1 34 66 3d 3a 9e 7e bd f7 63 c7 3d 44 44 2d b9
       0.056202833 -0.062162615 0.09735864 -0.00016523997
0003c0 f4 a8 73 bd 2b 58 bd bd ac 93 21 bc 32 7b 89 3d
       -0.059487298 -0.09245332 -0.009861868 0.06712951
0003d0 bf 5b 54 3d 37 c8 0e be 60 b6 d4 3c 6c 1a 4d 3d
       0.05184531 -0.13943563 0.02596587 0.050074026
0003e0 5c 45 63 3d bd 5d 4d 3d 1c 83 3e bb 2a cc 0e 3c
       0.055486068 0.050138224 -0.0029069846 0.008715669
0003f0 b2 17 37 bd 7e 02 96 3d 31 41 07 be 8f c0 e6 3d
       -0.044700332 0.07324694 -0.13208462 0.112671964

encoder.encoder_net.4.bias f4 [4]
000000 58 f8 5e 3b a1 9d 0c bd 5b 6f 9b bb fa f5 0d be
       0.0034022536 -0.034330014 -0.004743499 -0.13863364

decoder.net.0.weight f4 [128, 2]
000000 ca 35 6e 3e a4 85 61 3f 69 e2 3d bf 2b d8 6d 3d
       0.23262706 0.88094544 -0.741736 0.058067482
000010 92 f1 49 be d1 c5 87 bf 16 76 a5 be 6b b0 cb be
       -0.19721058 -1.0607244 -0.32316655 -0.39783034
000020 95 b5 3e 3f 39 8b 78 be ff d6 f1 bd cb 6e 07 3f
       0.7449582 -0.24271859 -0.118085854 0.5290343
000030 96 93 dc 3e 37 9a e2 be 83 88 a1 bf d1 0c 0f 3e
       0.4308135 -0.44258282 -1.2619785 0.13969733
000040 43 e2 18 3f 10 6d 47 3f 1b ca 95 3f 1f f4 94 bd
       0.5972025 0.7790079 1.1702303 -0.07273125
000050 e9 8f 08 3f 4a 35 5e bf 33 3e f1 be 27 4b 4c 3f
       0.5334459 -0.8680006 -0.47117767 0.79802173
000060 e6 c0 82 3f e3 62 41 be 7c 01 9a 3f 83 f3 81 3e
       1.0215118 -0.18885379 1.2031703 0.25381097
000070 e2 23 bf be 2b cf 52 3f 15 75 49 bf c4 85 51 3f
       -0.37332064 0.82347363 -0.7869428 0.81844735
000080 3f b8 8a be 3c 11 62 3f 51 fc 3e 3f 40 92 0b be
       -0.27093694 0.8830755 0.74603754 -0.13630009
000090 2f 20 0c 3f 54 50 1b bf c9 3d 5d 3d 05 9e 53 bf
       0.5473661 -0.60669446 0.054014 -0.82662994
0000a0 8a 88 ac bf 21 1f d6 3d 70 37 3f 3e a4 18 85 3f
       -1.3479168 0.10455156 0.18673491 1.0398145
0000b0 38 cd 94 3f 2a 54 72 3e bf 14 8d bf 1f a6 4f 3f
       1.1625128 0.23664919 -1.1021956 0.81112856
0000c0 fb 09 10 bf f8 ae 04 be 57 97 1e bf 28 a5 5b bf
       -0.5626523 -0.1295737 -0.61949676 -0.85798883
0000d0 40 59 16 3f 19 6d 51 3f c7 bc d7 3e 7b b8 a2 bf
       0.58729935 0.81807095 0.42136213 -1.2712549
0000e0 54 fd ab 3e 34 c6 a6 be 79 ec 83 3f 00 64 8b bd
       0.33591712 -0.32573092 1.0306541 -0.06806183
0000f0 d2 b5 4f be 8c 26 36 3f bc 65 59 bf 8c 55 80 bf
       -0.20284203 0.7115257 -0.8492086 -1.0026107
000100 0a 1a 8d bf 36 36 6b 3e 83 21 9f 3f a7 a4 65 bd
       -1.1023571 0.22969899 1.2432102 -0.056065228
000110 34 d0 07 bf 1c 41 43 bf 8c a2 8a bf 27 b3 0a 3e
       -0.5305207 -0.76271224 -1.0830855 0.13544904
000120 ac 02 ff be 60 eb 31 bf 13 a1 dc 3e 97 68 22 3f
       -0.49806726 -0.6949978 0.4309164 0.6344084
000130 85 07 3c 3f 3b e9 7e 3f 68 3e f0 3e 74 64 0d 3f
       0.73448974 0.9957463 0.46922612 0.55231404
000140 e9 43 53 bf 71 1b 1e 3f 12 e2 3a 3f bb 2d 7a 3f
       -0.825255 0.6176062 0.73001206 0.9772603
000150 e6 41 3d bf 68 5b 65 3d 5c 35 18 3f 8d f0 1a 3f
       -0.7392868 0.055995375 0.5945642 0.605233
000160 3c bc 31 be 39 08 0d 3f 87 68 9c be e4 54 45 3f
       -0.17356962 0.5509067 -0.30548498 0.7708266
000170 c7 96 26 3f 57 61 59 3f 6b 9f 9b 3c a2 43 86 bf
       0.6507382 0.84914154 0.018996915 -1.048939
000180 cd 87 14 bf d3 d6 cd be fb e8 92 3f 71 7f c7 bd
       -0.58019716 -0.4020296 1.147735 -0.097411044
000190 73 e2 3c 3f 11 65 7b 3f c3 14 2d bf 7d f6 09 3f
       0.73783034 0.9820109 -0.67609805 0.53891736
0001a0 bf 39 2d 3f f2 54 1a 3f ec 30 16 bf a7 d2 56 bf
       0.6766624 0.60285866 -0.586684 -0.8391518
0001b0 89 c3 40 bf c5 29 0a 3f 45 2a a1 bd ed ed 8a 3f
       -0.7529836 0.53969985 -0.078693904 1.0853859
0001c0 4c d3 40 bf 72 fa 2d bf 55 42 0d bd d8 4b 62 bf
       -0.75322413 -0.67960274 -0.034487087 -0.8839698
0001d0 fa 2c 60 bf e7 dd 40 be 61 27 36 bf 43 59 07 3f
       -0.8756863 -0.18834649 -0.7115384 0.5287058
0001e0 c4 06 23 bf b0 58 5f bf 8e 6f 96 bf 18 78 6b be
       -0.636822 -0.872447 -1.1752794 -0.22995031
0001f0 01 fa ad bc 0f 87 80 3f 4a 4e 76 bf f8 79 3a 3f
       -0.021237375 1.0041217 -0.9621321 0.7284236
000200 ad 2a 35 bc ef 80 9e 3f f2 75 67 3f 32 f6 88 be
       -0.011057538 1.2383097 0.90414345 -0.26750332
000210 42 e1 a1 be bc 0d 82 3f fc 5c 07 3f 8f f0 42 3f
       -0.3161717 1.0160441 0.5287626 0.76148313
000220 9b 7e 3f bf 9d dc 80 3f ec b4 cf 3d 44 b3 2a bf
       -0.7480256 1.0067326 0.1014193 -0.6667979
000230 80 a2 8c bf 36 d1 57 be ab a3 17 3f d1 0c e8 bd
       -1.0987091 -0.21075901 0.5923411 -0.113305695
000240 81 3a 13 bf 0f 21 49 bf b2 e5 83 3f 06 fc a9 be
       -0.57511145 -0.7856607 1.0304472 -0.3320009
000250 42 e6 3a 3f 09 9c 0c bf 04 86 7b 3e c6 5a 78 bf
       0.73007596 -0.5492559 0.24562842 -0.9701351
000260 dc c9 51 3f 74 06 6c bf 20 df 52 3f 74 44 85 bf
       0.8194864 -0.92197347 0.8237171 -1.0411515
000270 94 a6 b6 bf a2 6d 8a be 6c ce 55 3e a8 76 24 bf
       -1.4269586 -0.27036768 0.20879525 -0.64243555
000280 c1 c6 63 3f 0f 85 64 bd a5 e9 62 3f b8 3b 7a bf
       0.8897515 -0.055790957 0.88637763 -0.97747374
000290 fc f3 1d 3f 7a af 14 bf fb f7 58 bf 94 bf 19 3f
       0.61700416 -0.58080256 -0.8475339 0.6005795
0002a0 4b 84 59 bd ba ff 9b 3f 96 d6 88 3f 0a 01 b5 bd
       -0.05310468 1.2187417 1.0690486 -0.08838089
0002b0 2d 8e 80 3f cd 6e d7 be d8 9f bc 3e ef 68 8c bf
       1.0043389 -0.42076722 0.368407 -1.0969523
0002c0 cd 35 28 3f 51 5e 8d bf 9f 91 46 bf 43 0a 25 3f
       0.65707093 -1.1044408 -0.7756595 0.64468783
0002d0 f2 a5 2e bf 6e 7a 71 3d 46 90 b6 3f 88 01 23 3d
       -0.6822196 0.05895465 1.4262779 0.039796382
0002e0 4c d6 19 3f ea cc 2c bf d9 85 7f bf 4b cc b4 3d
       0.60092616 -0.67500174 -0.9981361 0.08828028
0002f0 99 05 48 bc 7c d2 8e bf de e4 67 bd 1d 01 56 3f
       -0.012208366 -1.1157985 -0.05661475 0.8359545
000300 6e 96 5d bf a2 50 8a 3d f6 42 98 be 6a 42 43 3f
       -0.8655766 0.06753661 -0.29738587 0.76273215
000310 cb e2 80 3f 4e b7 a4 be 7f 74 b8 3e c8 7f 13 bf
       1.0069212 -0.321711 0.3602638 -0.57616854
000320 24 87 2c 3f 04 c8 62 be cd c5 09 bf 32 6a 23 bf
       0.6739371 -0.22146612 -0.53817445 -0.63833916
000330 50 54 41 bf d8 94 03 bf 99 87 08 bf e6 f5 33 bf
       -0.75519276 -0.5139899 -0.53331906 -0.70297086
000340 ea 1d a1 3e 12 95 89 bf 98 b9 86 bd c3 6a 89 3f
       0.31468135 -1.0748618 -0.06578368 1.0735706
000350 df 2e 29 3f ce ed 26 bf 93 f2 14 bf 48 f0 33 bf
       0.66087145 -0.6520661 -0.5818264 -0.70288515
000360 cd 1b ed 3e 0c 0d 4c 3f e7 26 f7 be 14 29 09 bf
       0.46310273 0.7970741 -0.48271868 -0.53578305
000370 6c a3 4a bf ad e3 65 bf 86 85 1b 3d df 9c 9d bf
       -0.7915561 -0.8980053 0.037969135 -1.2313498
000380 e2 44 5a 3f d9 c7 34 be 9b c5 1d be 36 d6 05 bf
       0.85261357 -0.17654361 -0.15407412 -0.52279985
000390 85 dc 00 bc c7 4b b2 3f 01 14 ec bd 12 07 c2 be
       -0.007865076 1.3929375 -0.11527253 -0.3789602
0003a0 a0 d9 74 bf 14 91 33 3f a3 9a 73 bf 73 13 4a be
       -0.9564457 0.70143247 -0.9515783 -0.19733982
0003b0 c2 c8 0a 3f ae 3b 2d 3f b9 00 38 3f f6 21 20 bf
       0.5421258 0.6766919 0.718761 -0.6255182
0003c0 8b 10 aa bd 39 4c a2 3f 24 d8 32 3f f4 a3 74 3f
       -0.083039366 1.2679511 0.69861054 0.9556267
0003d0 b1 46 28 bf da ef 62 bf ad e8 f4 3e 2f e1 0f 3f
       -0.65732867 -0.88647234 0.47833768 0.5620298
0003e0 34 65 13 3f 2a 46 d8 bd 42 80 73 be 39 2b 42 3f
       0.575763 -0.10560258 -0.23779395 0.758472
0003f0 bc 30 50 3f af 55 35 3f ea aa 36 3f 98 6f 78 3f
       0.8132436 0.7083387 0.71354544 0.9704528

decoder.net.0.bias f4 [128]
000000 b2 17 06 bf 83 69 8d 3e b3 5d df bd 50 21 b3 3d
       -0.52379906 0.27619562 -0.109065436 0.08746588
000010 b6 05 0e be ff af 28 bf 20 01 1a 3f 81 3c be be
       -0.13869366 -0.6589355 0.60157967 -0.37155536
000020 8a 78 00 bd 70 5b 94 be 0f b0 77 be 9e 9d 0a 3f
       -0.031364955 -0.2897601 -0.24188255 0.54146755
000030 0a d7 33 3f ad ff 20 3e a2 f5 ee 3e 1e f4 f2 be
       0.7025 0.15722533 0.46671778 -0.47451872
000040 4d 1f 25 bf cf 17 bf 3e b1 02 b5 3e 94 7e a9 be
       -0.64500886 0.37322852 0.35353616 -0.33104384
000050 ca 41 df 3e 19 68 da 3d 89 66 ca 3e 81 f2 19 bf
       0.4360488 0.10664386 0.39531353 -0.60135657
000060 61 70 17 3f 86 12 bc be e6 27 d1 3e 5a 93 5e 3d
       0.5915585 -0.36732882 0.40850753 0.054339744
000070 a0 20 36 3f 08 65 8f be 69 76 e0 be 4f 42 0b 3f
       0.7114353 -0.28006768 -0.4384034 0.54398054
000080 a2 74 3c 3e 23 8d 88 bd 6d d1 32 bf 8e 92 ff be
       0.18403867 -0.06667545 -0.6985081 -0.499165
000090 8d 7a dc be a2 f1 9f 3e ae e1 b1 3e 23 a2 eb 3d
       -0.4306225 0.3123904 0.34742492 0.115055345
0000a0 63 eb 30 be 68 6e 9f 3e a2 a6 3b bd 97 15 d2 3e
       -0.17277293 0.3113892 -0.04581321 0.41032097
0000b0 81 0f 1c be 63 a1 be 3e b2 5a 08 bd c7 70 3e 3e
       -0.1524029 0.37232503 -0.03328962 0.18597709
0000c0 f4 06 81 3e 75 54 23 bf 20 8a 91 bd 8a c1 d0 3d
       0.25200617 -0.63800746 -0.071064234 0.10193165
0000d0 77 db 1d bf 96 31 0f bf ab 96 e8 be e6 ce d1 3e
       -0.61663 -0.5593504 -0.4542745 0.40978163
0000e0 de b8 1b bf 0d b8 4e 3f 75 43 2c 3f 9d f4 13 be
       -0.6082896 0.8074959 0.6729043 -0.14448781
0000f0 e3 88 09 be 86 ab 6d 3e 34 09 8d be d1 f5 91 bd
       -0.13431124 0.23209962 -0.27546084 -0.07126964
000100 84 37 08 bf 4c 68 57 3e e5 84 c5 be 50 45 4d 3f
       -0.5320971 0.2103588 -0.38577953 0.8018389
000110 00 e9 c0 3e 0f ba 27 3f e8 c0 bf 3d 92 7c 35 3f
       0.37677765 0.6551828 0.09362966 0.70893204
000120 68 fd 03 bf c2 70 b0 3d 83 95 85 bc eb 56 02 3f
       -0.5155854 0.08615257 -0.016306644 0.50913876
000130 f0 a6 b9 3e 17 7b 06 be 12 8f e4 3c 59 d2 ac bd
       0.36260176 -0.13132893 0.027900252 -0.08438558
000140 05 39 53 be 56 2e c0 3e f2 18 17 3f 42 6d 1d bf
       -0.2062722 0.37535352 0.5902244 -0.6149484
000150 f0 63 ce bc 9c a7 0d bf 2a ac 06 bf 06 22 d3 bd
       -0.025194138 -0.55333877 -0.5260645 -0.10309224
000160 c9 da 4d be ed e7 df 3e 92 d0 a4 3e 68 5d 89 3f
       -0.20102991 0.43731633 0.32190377 1.073163
000170 68 b4 a0 3e 07 d7 29 3f 67 7c 46 3f bf 0c 8b 3e
       0.3138764 0.6634373 0.7753357 0.27158162
000180 69 02 28 3e e7 be a0 3e 83 7b 11 3e ed 32 b8 be
       0.1640717 0.31395647 0.14207272 -0.35976353
000190 a2 4e 27 be c7 95 07 3f 25 f5 80 3d fc e5 83 bd
       -0.1633859 0.5296292 0.062967576 -0.064403504
0001a0 77 f9 c4 3e 14 2e f3 be 3f 99 9c 3f 40 10 66 3e
       0.38471577 -0.47496092 1.2234267 0.22467136
0001b0 24 70 21 3f 09 5c 11 3f c2 59 39 3f e2 8b 13 3e
       0.6306174 0.5678106 0.72402585 0.1440883
0001c0 96 4a 39 3f eb 29 ed 3e d8 75 13 bf 9c 90 f5 3e
       0.72379434 0.46321043 -0.5760169 0.4796189
0001d0 7b df c0 be 7e 0d 74 3e 83 0a 1e be 20 36 c4 3e
       -0.37670502 0.23833272 -0.15433697 0.38322544
0001e0 8f 6d c1 3e e2 1e c9 3e ec f1 c5 be a7 04 f8 be
       0.377789 0.39281374 -0.38661134 -0.4844105
0001f0 3e b4 3f 3f 29 84 42 be 81 e8 3f bc 9c c5 09 3f
       0.748844 -0.18995728 -0.011713148 0.5381715

decoder.net.2.weight f4 [64, 128]
000000 76 c6 62 bd a5 7d 21 3d b1 f2 89 3d 8e fc 3a ba
       -0.05536505 0.039426465 0.06735743 -0.00071329705
000010 4e db 86 bd 92 53 a6 bd c8 af 9e bc 8c 6d 69 bd
       -0.06584798 -0.081214085 -0.019370928 -0.056989238
000020 02 ec c7 3c 93 b0 47 bd 53 05 a9 bd 47 e1 39 3d
       0.02440453 -0.04875238 -0.08252969 0.045380857
000030 66 d3 29 3d 7b 29 03 3d 88 42 55 3c 82 61 5b 3d
       0.04146137 0.03202198 0.013016351 0.053559788
000040 8d 04 ba bd 06 db 1f 3c 9f 6b f7 3c bb cf ab 3c
       -0.09082899 0.009756809 0.030202685 0.020973077
000050 4d 7f 98 3c c0 b0 11 bd a2 20 ab bd a2 0a 83 3d
       0.01861539 -0.035568953 -0.083558336 0.063985124
000060 e3 7f 1c 3d 19 83 c0 3b 20 9f ae bd 2c b3 62 bd
       0.0382079 0.005875003 -0.085264444 -0.055346653
000070 0b 25 a1 3a 00 9d 51 3d 31 f0 27 bb 8f e4 0f bd
       0.0012294365 0.051175117 -0.0025625343 -0.03513008
000080 36 a2 90 bc 5d b7 5d bd 65 f4 84 bd c2 01 11 3d
       -0.017655473 -0.054129947 -0.06491927 0.035402067
000090 3d 75 59 bd 3b fd 03 3d 21 44 16 bd 0f b1 99 bc
       -0.053090323 0.03222392 -0.036686067 -0.018761186
0000a0 24 2a 8d 3b f4 fb 4c 3d e1 27 86 bc ce e8 31 3c
       0.004308002 0.05004497 -0.016376438 0.010858728
0000b0 b7 33 56 bd fc cc e4 3c 0f a4 22 3d 50 6c 34 3d
       -0.052295413 0.027929775 0.03970724 0.044048607
0000c0 df 4f d1 bc d4 05 99 3d 52 07 de bc 32 ff c0 bd
       -0.02555078 0.07471815 -0.0271031 -0.09423675
0000d0 06 79 d2 3c a0 af f5 bc 3d 8d 44 bd ff cd 21 3d
       0.025692474 -0.029990971 -0.047986258 0.039503094
0000e0 f5 8c 87 bd b0 f0 2b 3d 5e 3c 05 bd 07 46 7c 3c
       -0.06618682 0.041977584 -0.032528274 0.015397555
0000f0 ff 9f 84 3c 05 ff a1 3d 55 56 31 3d 87 96 1a 3d
       0.016189573 0.07909969 0.043295223 0.03774121
000100 54 05 f0 bc 63 ad 1e 3d 30 62 65 bd 5d b7 88 bd
       -0.029299416 0.038739573 -0.056001842 -0.06675599
000110 54 54 15 3d 78 d0 ae bc a0 e1 55 bc aa c8 89 3d
       0.036457375 -0.02133964 -0.0130542815 0.06727727
000120 8c 45 b5 bb 7a a2 fc 3c c7 c5 b0 bd 69 48 99 bb
       -0.0055319723 0.030839194 -0.08631473 -0.0046778214
000130 45 6c 21 3d 3d 3b 5c 3d ae dd b9 bd 2b 3e 42 bd
       0.039409894 0.05376743 -0.09075485 -0.04742257
000140 21 9c c1 bd ee 59 3c 3d 4c 25 99 bd 90 07 94 3d
       -0.09453607 0.0459842 -0.07477817 0.07228005
000150 e7 59 dd bc 07 89 53 bd 1d 03 28 3d b5 a3 10 3d
       -0.027020408 -0.05164435 0.041018594 0.035312373
000160 37 0d 64 bd 88 3f 92 bc a6 eb 6b bd 28 2b 4b bd
       -0.055676665 -0.01785256 -0.05759778 -0.049601704
000170 25 d6 31 bd e6 f3 35 bd 6c 0a 16 bd bf 91 a0 bd
       -0.043417115 -0.044422053 -0.036631033 -0.07840299
000180 48 a8 04 bc ba 78 79 bd 5c c5 96 3d 28 38 40 bd
       -0.008096762 -0.06090615 0.07361862 -0.046928555
000190 0a 5e be 3b 5b 97 60 bd 71 b2 fb bc 7d f3 64 bd
       0.00580955 -0.054831844 -0.030724736 -0.05589627
0001a0 e8 05 83 3d d6 e0 6b bd 43 4c 52 bd b2 69 04 bd
       0.06397611 -0.057587467 -0.05134226 -0.03232736
0001b0 11 06 98 3d 21 8e a7 bd e2 bc 53 3c 67 fc 7a bc
       0.07423032 -0.08181406 0.012923451 -0.0153189665
0001c0 96 00 7f 3d e5 7e 8d 3d fd c7 07 bd c7 40 96 3d
       0.06225642 0.06908969 -0.033149708 0.07336574
0001d0 d7 01 82 3d 25 37 79 bd 0d fa d2 bc f9 e7 fa bc
       0.06348007 -0.060843606 -0.025754 -0.030628191
0001e0 9d c1 af bd 9b 38 73 bd c6 94 37 bd 68 bc a1 bd
       -0.08581851 -0.059380155 -0.044819616 -0.07897264
0001f0 6d 56 79 bd 1f 4b 8c bc b4 36 55 bd 8e 58 4c bd
       -0.060873438 -0.017125664 -0.052054122 -0.04988914
000200 06 0f b3 be 7c cd f5 3d a9 95 2c be f4 ea 10 3d
       -0.349724 0.12002084 -0.16853966 0.03538032
000210 d3 f9 1a bc 5c 3d bc bd 18 ec 85 3d 5f 7a 27 3c
       -0.009458977 -0.09191391 0.06539172 0.010222047
000220 83 6b 83 3d ea 5b f6 3a b0 67 d8 bc b5 1e 66 3d
       0.064169906 0.0018795703 -0.02641663 0.05618163
000230 ad 2f 4e bc e9 dc 15 3d fc 79 f5 3d 05 7a 01 3d
       -0.012584609 0.03658763 0.11986157 0.031610508
000240 29 1f 1f 3d eb e9 be bc 10 99 ad bd 96 f0 08 bf
       0.038848076 -0.0233049 -0.0847646 -0.53492105
000250 38 b7 a4 3c 73 d7 e8 be 31 7e 3f 3c 1f 52 08 3d
       0.020106897 -0.45476875 0.011687801 0.03328144
000260 1b f7 60 bd 06 b3 3e bd 11 17 ea bd 12 ec 5a be
       -0.05492316 -0.04655745 -0.11430181 -0.21379116
000270 45 97 85 bc ef 88 80 3d fc 3b 04 3c 18 9a 10 ba
       -0.016307482 0.06276118 0.008070942 -0.0005516126
000280 28 2d 66 3d 4b 4f 68 bd e7 84 4f bb 50 b0 25 3d
       0.056195408 -0.056716245 -0.003166491 0.040451348
000290 16 9d 4f 3d f4 18 28 be f4 06 d3 bd b2 3f 89 3c
       0.05068692 -0.16415769 -0.103040606 0.016754005
0002a0 6c fe ea 3d 71 ba 59 3d 0e 83 96 ba ee 12 a2 bc
       0.11474308 0.05315632 -0.0011483149 -0.019784417
0002b0 99 55 05 3d 4b 03 75 3d fa b4 8b bc bf bd 90 be
       0.032552335 0.059817594 -0.01705407 -0.28269765
0002c0 85 e0 81 3d d9 36 7c 3c 48 3b 97 bd 26 b5 a1 3d
       0.06341652 0.015393936 -0.07384354 0.078958794
0002d0 56 4d cf 3c 44 df 2a 3d 98 59 9f 3d d2 bb 06 be
       0.025305431 0.04171683 0.077807605 -0.13157585
0002e0 3a 02 c9 bd 2a f0 d2 bd 0c 53 95 3d ea d3 c5 3d
       -0.09814878 -0.10299714 0.072912306 0.0965956
0002f0 f9 3b 27 3d 56 8e b3 3c 74 39 95 be 84 07 c6 bc
       0.04082868 0.021918457 -0.29145396 -0.024173506
000300 87 c3 93 be 04 9a de 3c e1 93 fc 3d 1a 7a ee bd
       -0.28860113 0.02717305 0.12332893 -0.11644383
000310 80 8b ef 3d e5 5e 34 be 65 a0 39 3c 3c 5b 0b bd
       0.116965294 -0.17614324 0.011329745 -0.034022555
000320 42 36 a1 bd c4 2e dd 3c 1a 8f 10 3d 6b 89 88 be
       -0.07871677 0.026999839 0.035292722 -0.26667342
000330 8d 75 9e bd 94 36 85 3b e7 4a b9 3d db 8f 64 be
       -0.07737265 0.004065344 0.090474896 -0.22320502
000340 8d d5 1b 3a 8f d6 8f 3d 9d b5 58 bd b9 a1 1c 3e
       0.00059446023 0.07023346 -0.052907575 0.15296067
000350 ed c4 7a be d7 79 25 3c 72 72 98 bd f7 64 30 be
       -0.24489184 0.01009985 -0.07443704 -0.17226015
000360 e2 60 87 3d 38 10 51 bd a2 2d fd ba e6 03 78 3b
       0.06610276 -0.051040858 -0.0019315968 0.003784412
000370 20 1e 1f 3b 4f 77 bc 3c a2 42 83 be f8 76 63 be
       0.002427943 0.02300611 -0.25636774 -0.22213352
000380 27 14 a6 3d 8a 9a 1d 3d a8 61 93 3d 64 89 fe 3b
       0.081093125 0.038477458 0.07196361 0.007767843
000390 d5 df 72 bd 2b 43 d5 bc 44 4a ee bb 57 39 07 3d
       -0.059295494 -0.026033005 -0.0072720367 0.033013668
0003a0 e9 9b f8 bd 92 d6 97 be c1 6d 60 bc 55 2e 94 bc
       -0.121391125 -0.29655892 -0.013698042 -0.0180885
0003b0 7f 80 6a be c5 61 82 bd fc d0 58 3c 17 01 8d be
       -0.2290058 -0.06366304 0.0132334195 -0.27539894
0003c0 80 0a 46 3d 17 6b 86 bd 29 96 d8 be 17 c2 43 bd
       0.048349857 -0.065633945 -0.42302063 -0.04779252
0003d0 de a6 66 3d 53 c6 28 3d f3 d8 27 bb eb 1a 4d bd
       0.05631148 0.04120476 -0.002561149 -0.0500745
0003e0 00 c8 c7 bd 12 34 b9 bd f1 97 e5 bd 57 73 80 3d
       -0.09754944 -0.09043135 -0.11210621 0.06271999
0003f0 12 0e b8 bd c2 30 30 3d 29 aa e5 3c 48 34 68 3d
       -0.08987059 0.04301525 0.02803524 0.056690484

decoder.net.2.bias f4 [64]
000000 ad 82 73 bd c1 f7 72 bb a0 73 7d bd 5f bf e3 bb
       -0.059450794 -0.0037073942 -0.061877847 -0.0069503034
000010 67 fe 1b bd 54 6b 42 bb bd a7 10 3f 55 70 7a bd
       -0.038084414 -0.0029666023 0.5650595 -0.061142284
000020 05 2a 3c 3d 8c bd 1e 3d aa 76 6d 3c b0 64 09 be
       0.04593851 0.038754985 0.014493624 -0.13417315
000030 e4 15 54 3d e2 59 44 3d 89 26 b1 be 70 64 e6 3d
       0.05177869 0.04793728 -0.34599712 0.11249626
000040 d0 33 33 3c d0 8a 5f 3c 28 51 3b 3d 34 38 44 3c
       0.010937646 0.013643935 0.045731694 0.0119762905
000050 7f c7 2e 3e 88 b7 54 3d 44 73 c2 bc 83 ef b1 bc
       0.17068289 0.05193284 -0.023736604 -0.021720653
000060 d6 86 c4 3d 5d 7e 89 3b a3 bf 83 3d 9f 48 fa 3d
       0.095960304 0.004195972 0.06433036 0.122208826
000070 49 4d e7 bc 0a 73 92 3d 9b 2b ad bd ef fb 49 bd
       -0.028235095 0.07150848 -0.08455583 -0.04931253
000080 f7 de da 3b 72 e2 88 3a 7f af 01 3e 0c 02 8a bd
       0.0066794115 0.0010443463 0.12664603 -0.06738672
000090 54 75 9b bd 2a ef 49 3c ed 01 46 bd 22 dd 08 bd
       -0.07590738 0.012325088 -0.04834168 -0.033414014
0000a0 9e 9c 90 3d 70 6d 2d 3b 33 df 99 3c bf e7 b0 3d
       0.07061122 0.0026462935 0.018783187 0.08637952
0000b0 da 86 48 bd 20 32 3e bc 32 69 75 bd db 9b f7 bc
       -0.04895673 -0.01160863 -0.059914775 -0.030225685
0000c0 0b 2c 03 3e 4f c1 02 bd d3 ac b5 3d 94 d3 27 3c
       0.1280977 -0.031922635 0.08870854 0.010243315
0000d0 b3 02 5d 3c 91 c8 b1 3d 08 9c 1a 3d 90 35 eb bc
       0.013489413 0.08680833 0.03774646 -0.028712064
0000e0 eb a1 86 3d a5 1c bd bd 11 62 62 be 53 2f 4c bd
       0.06573852 -0.09233979 -0.22107722 -0.04984982
0000f0 19 d3 2c bb ed a0 6a be f3 6c 47 be 0c 4c 82 3d
       -0.0026370941 -0.22912951 -0.19475155 0.06362161
