models_v104/encoders/encoder_rerun2.pt (torch, 62862 bytes, 6 tensors)

encoder.encoder_net.0.weight f4 [128, 50]
000000 4f e6 d2 3d f6 2a e9 bc 4b 56 87 bd 56 2d 2a 3e
       0.10297834 -0.028462868 -0.06608256 0.16618857
000010 8f 0a 0b be af 80 06 be 28 f6 ed 3a ce bd ab 3d
       -0.13578247 -0.13135026 0.0018155025 0.08385812
000020 e7 56 55 bc d0 82 7a 3d fc 32 b4 3d 7b 71 75 bd
       -0.013021207 0.06115991 0.08798787 -0.059922677
000030 38 83 84 bd bc eb 13 3d 22 18 e2 bd 39 fb ea bd
       -0.064703405 0.036113486 -0.11039759 -0.11473698
000040 ca 20 77 3d 6e ed 8c bc af f0 4a 3d 8e fc 3c 3d
       0.060334004 -0.017203059 0.04954594 0.046139292
000050 9e 71 2c 3d 74 6a 0e 3e 2f 0a f9 bd fb d9 a6 3d
       0.04210054 0.13907796 -0.121601455 0.08147045
000060 45 8a 27 3d 0e c5 18 3e 9e 72 1c be 70 09 f5 bd
       0.04090335 0.1491892 -0.15278098 -0.11964691
000070 e8 d8 92 bd 18 ed d8 bd 5a 88 92 3c 6e fc 61 bd
       -0.07170278 -0.10592097 0.017887283 -0.055172376
000080 a2 73 8d bd 67 fa 23 bd 54 4f 07 3d 59 c2 83 bd
       -0.06906821 -0.040033724 0.033034638 -0.06433553
000090 39 0f 13 3a 1a 21 9c bd 79 dc bf bc 4f 58 d6 3d
       0.00056098733 -0.07623501 -0.02342056 0.10466062
0000a0 e0 45 a3 bd b8 3f b1 bd cb 34 71 bd db 04 ea bd
       -0.07972312 -0.086547315 -0.058888238 -0.11426707
0000b0 43 7b a6 3c d9 94 04 3e 13 20 69 3d b9 fa dd bd
       0.020322448 0.12947406 0.056915354 -0.10838837
0000c0 c3 16 03 be 7f 44 ae 3d aa 30 50 3d b8 be ca 3d
       -0.12801652 0.08509158 0.05082766 0.09899658
0000d0 19 f4 1c bc 4f 6d 97 bd aa d3 ba 3d 4f 94 09 3d
       -0.009579682 -0.07393896 0.09122403 0.033588704
0000e0 77 b7 f1 3d de 39 f3 bd bd 8a 96 3d 75 47 ba 3d
       0.11802571 -0.11876272 0.07350681 0.090956606
0000f0 29 58 b0 3d c4 b5 92 bd 08 05 bc 3d 09 e0 0b 3d
       0.08610565 -0.07163575 0.09180647 0.034149203
000100 63 f4 a4 bc c1 cb 04 3e cb 7d 61 3d 99 47 12 bd
       -0.020136064 0.12968351 0.055051606 -0.035712812
000110 54 af b3 bd 50 d4 38 bd 25 39 e0 bd fe 14 81 3c
       -0.087736756 -0.045124352 -0.109483995 0.01575708
000120 87 b4 c8 bd 57 72 08 3d ce 6b 0e 3d 93 36 bd bd
       -0.09800058 0.033312168 0.03477078 -0.09238925
000130 18 61 4d 3d 28 9b da bb b8 5e c9 bd 61 c9 13 bd
       0.050141424 -0.006671328 -0.09832519 -0.03608072
000140 2d f3 4a bd b0 92 39 3d fa d5 73 3d a0 6e c9 ba
       -0.049548317 0.045305908 0.059530236 -0.0015368052
000150 65 95 08 be af a3 12 3e 3b af 82 bd 1a 88 5d bd
       -0.1333824 0.14320253 -0.06381079 -0.054084875
000160 ce 86 4d 3d 65 e0 c5 bd 8d 6f 6a 3d b6 4f 8a bd
       0.050177388 -0.096619405 0.05723529 -0.06753485
000170 4c 9e f3 3d 06 b4 08 bc b1 73 00 be 11 60 24 bd
       0.11895427 -0.008343702 -0.12544133 -0.04013068
000180 03 3a 5a bd fb cc 66 3c 25 4f c8 3d 53 f6 86 bd
       -0.05327798 0.014086957 0.097807206 -0.06589951
000190 52 0d e1 3c cd b6 6d bd 23 84 8b 3d e3 7f 0b 3e
       0.027472172 -0.05803566 0.068123125 0.13623004
0001a0 3b bd 95 3c 87 3c f0 3c ea 8a 0d 3e 62 ae 51 3c
       0.018278709 0.029325737 0.13822523 0.012797924
0001b0 2c 91 42 3c 2b 58 b4 3d dd ca 29 3d f1 94 b0 3d
       0.011875432 0.08805879 0.04145323 0.08622158
0001c0 60 6f c7 3d 8c fa 46 bd ee cf 5e 3d 3b 8c 47 3c
       0.0973804 -0.048578784 0.054397516 0.01217943
0001d0 c6 be e5 bd 6c 9f f2 3c eb 78 9f 3c 35 b6 a5 bd
       -0.11218028 0.029617034 0.019466838 -0.08091394
0001e0 2e 27 a3 3d c5 0c a7 bd 4f c0 60 bd b9 9d ed bb
       0.07966457 -0.081567325 -0.0548709 -0.007251468
0001f0 97 5c c6 bd 47 04 56 bd 77 e2 8e 3d c4 75 69 bd
       -0.09685629 -0.052250173 0.069767885 -0.056997076
000200 94 ac 3f 3b 9e 3d 1d 3d 41 74 32 3d 15 ef 67 bd
       0.0029247152 0.03838884 0.0435679 -0.05662449
000210 8a 16 91 bc 8f bc 4c 3d 42 79 fb 3d 0b 0b 53 bd
       -0.017710943 0.04998451 0.122789875 -0.051524203
000220 57 8e 84 3d 40 c4 90 3d eb 11 2e 3d 9c 01 ee bd
       0.06472462 0.07068682 0.042497557 -0.11621401
000230 e0 53 75 bd 8b 51 15 bc 52 f0 14 bd 38 7f a6 bd
       -0.059894443 -0.00911368 -0.036362 -0.08129734
000240 e7 4e 6d bd f5 13 e1 bd ab 92 25 bd b4 27 1a 3d
       -0.057936575 -0.109901346 -0.040423077 0.03763552
000250 4c 38 55 bd e1 ce 89 bd 49 18 c6 3a d7 2f d0 bd
       -0.052055642 -0.06728912 0.0015113439 -0.10165375
000260 f6 dc 60 3d 2e 7e ca bd c6 12 9b 3d f5 28 bc bd
       0.054898225 -0.09887348 0.0757194 -0.091874994
000270 20 37 87 3c 8a 04 58 bd 7f 31 90 bd a7 6f 91 3d
       0.016505778 -0.052738704 -0.07040691 0.07101374
000280 2e 62 00 be d5 cd db 3d 6e 23 51 3d 2a 1a 41 3d
       -0.12537453 0.10732619 0.05105918 0.047144093
000290 21 f0 ae 3c 21 7a d1 bc d1 e6 aa 3c de 9e 00 3e
       0.021354737 -0.02557093 0.020862015 0.12560603
0002a0 86 95 86 3d ed a4 b4 3c a5 34 19 bd cb 27 00 be
       0.06571488 0.022051299 -0.03740372 -0.1251518
0002b0 6b d4 30 bd 9d 71 b4 3d 5d 72 01 3e 33 75 ea 3d
       -0.043171328 0.088107325 0.12641282 0.11448135
0002c0 ea 08 ec 3c 45 2a 09 be dd 94 82 bd ec 61 05 3e
       0.028812844 -0.13395031 -0.0637605 0.13025635
0002d0 63 9d d1 3d b4 be 5c 3d b3 a4 09 3e b0 83 bd bd
       0.10235097 0.053892806 0.13441734 -0.09253633
0002e0 97 56 8f 3d ee 4b 06 be b2 98 a5 bc c5 e9 91 3b
       0.069989376 -0.13114902 -0.020214412 0.0044529163
0002f0 73 ab 16 be f5 05 84 3d 30 6e 57 bd 89 35 b5 3b
       -0.1471384 0.06446449 -0.052595317 0.0055300635
000300 6d 90 37 37 f3 19 8c 3d 33 60 1b 3d c6 95 44 bd
       1.0941277e-05 0.06840887 0.03793354 -0.047994398
000310 1e 08 b7 bc fa 21 2b bd 77 01 37 bd cb f4 4c 3d
       -0.022342738 -0.04178045 -0.04467913 0.05003814
000320 45 59 12 be 06 10 6f 3d 06 e3 de 3d fa 5f 4b 3d
       -0.14291866 0.05836489 0.10883145 0.049652077
000330 17 ad 9e 3a 91 b1 9e 3c 43 a5 09 3e ec fd 76 bd
       0.0012106028 0.01937178 0.13441949 -0.060300753
000340 a4 e0 80 bc 22 22 41 3d c5 87 00 bd 39 6c 6e 3d
       -0.015732117 0.047151692 -0.03137948 0.058208678
000350 22 e9 0b 3d e3 f6 bc 3d da 5b 59 bd d1 00 e8 3b
       0.03415788 0.092267774 -0.053066112 0.0070801754
000360 4c 90 d0 3d 54 7e 21 3d d0 d4 32 be f8 e3 22 3d
       0.101837724 0.039427117 -0.17463994 0.03976819
000370 3c 67 30 3d 5b 9c 4b bd 02 e5 90 bd 63 42 84 bd
       0.043067202 -0.04970966 -0.0707493 -0.06457975
000380 5c 8f 38 3d 33 d9 25 bd de 0f 22 bd 10 97 00 bd
       0.045058593 -0.04049034 -0.039565913 -0.031394064
000390 30 f1 4b 3d a8 b7 2d 3d 64 44 01 bd 2f 17 dd bd
       0.04979056 0.042411476 -0.031559363 -0.107954375
0003a0 b4 cf 81 bd 73 e5 c2 bd 81 d0 d2 3d 30 71 92 3d
       -0.06338444 -0.0951642 0.10293675 0.07150495
0003b0 85 ad 2f bc 1a ca cd 3d 02 ee 3d be e1 ee e7 bd
       -0.010722523 0.100483134 -0.18547824 -0.113248594
0003c0 bf bb b3 bd c6 8c ff 3d dd ff 7d 3d 29 2e 77 3d
       -0.08776044 0.12478022 0.06201159 0.060346756
0003d0 8b 41 8e bd 68 67 20 3d f0 9f ca 3d 65 2b e4 bc
       -0.06946095 0.039161116 0.09893787 -0.027852723
0003e0 42 46 97 bd 08 29 38 bc 35 af a5 3c ba f3 07 3d
       -0.073864475 -0.011240251 0.020225147 0.03319142
0003f0 e2 8c 7c 3c 3a 6c 9f bc 02 e1 7a bd bd e8 93 bd
       0.015414448 -0.019460786 -0.06124974 -0.07222126

encoder.encoder_net.0.bias f4 [128]
000000 57 c5 83 bd 07 78 d6 3c f8 9a 2e be f9 6e a4 3d
       -0.06434124 0.02618028 -0.17051303 0.08028979
000010 c3 c8 96 bd 2d 94 4c bd 41 61 77 3c 3a 5d 6e bd
       -0.07362511 -0.049946 0.015098871 -0.058194377
000020 cc 34 e1 3d 7f 39 f3 bd 10 10 1d 3d 2d 82 97 bd
       0.10996398 -0.11876201 0.038345397 -0.07397876
000030 a2 f3 e1 3d 4e b6 f7 bd a0 27 5b 3a a5 b0 33 bd
       0.110327974 -0.12095319 0.00083600916 -0.043869633
000040 e4 44 bb 3d 61 c0 4c bd 83 ad 2c be d0 42 df bc
       0.09143999 -0.049988154 -0.16863064 -0.027253538
000050 81 62 c5 bc 87 46 d4 3d 4b 27 06 be 67 5b f2 ba
       -0.024094822 0.103650145 -0.13100927 -0.0018490375
000060 a4 d7 e2 3c 72 b9 14 3d 35 cc e1 bc 2f 7a 67 3d
       0.027690716 0.036309667 -0.027563194 0.056513008
000070 3e 5c b3 3d 27 a7 e3 bd b4 e8 e6 3d de 00 a0 bd
       0.08757828 -0.11115866 0.11274853 -0.078126654
000080 11 5e d9 bd 17 22 e2 bd b7 c1 dc bd ef 76 b5 3c
       -0.10613645 -0.11041658 -0.10779136 0.022151439
000090 7e ab e4 bd 3f c0 ea bb 53 19 85 bd 89 ea 06 3e
       -0.11165522 -0.007164031 -0.06498971 0.13175406
0000a0 7f 96 ad 3d a3 7d be 3b 14 50 86 3d 08 d7 cf 3c
       0.084759705 0.005813317 0.065582424 0.02537109
0000b0 f7 47 b8 3d 51 f3 91 3d aa 73 0c be 53 a6 0a 3e
       0.08998101 0.07126487 -0.13715997 0.1354001
0000c0 5f c9 e3 3d 56 9e 9b 3d ff be 02 be 25 50 d2 bd
       0.11122393 0.075985596 -0.12768172 -0.102691926
0000d0 2a c2 6e bd 9f d9 28 bd 13 6d bf 3d cb 7a c4 bd
       -0.058290638 -0.041223165 0.09346976 -0.095937334
0000e0 d7 19 d8 bd 61 71 bd bd fc 59 25 be ba 34 e0 3c
       -0.105518036 -0.09250141 -0.16147608 0.027368892
0000f0 30 9e f2 3b f6 06 c6 bd ae a9 b9 bb 57 04 6f bd
       0.0074041113 -0.096692964 -0.0056659793 -0.05835375
000100 8f e1 02 be 41 73 ce 3d 1b a1 b1 bd 01 02 97 bc
       -0.12781356 0.10080577 -0.086733066 -0.018433573
000110 a8 d9 3b 3d 10 81 d8 bd 78 26 d1 bd 59 03 99 3d
       0.04586187 -0.10571492 -0.102124155 0.07471342
000120 bd b5 b4 bc b3 fd 48 3d d2 2e e6 bd aa cd 20 3d
       -0.022059316 0.04907007 -0.11239399 0.039258637
000130 f4 7f ef bd 98 0a 38 3d 9d 38 12 be 45 dc 0b be
       -0.11694327 0.044931978 -0.14279409 -0.13658245
000140 eb 2a ab 3d 58 2a 96 bd b5 ca ec bd b4 40 8a bd
       0.08357795 -0.07332295 -0.11562101 -0.067506224
000150 9c e6 05 3d cc f1 0a bc a5 4f 89 3d ff f4 5f 3c
       0.03269063 -0.0084805 0.06704644 0.013669251
000160 15 a8 14 be 6e 1e 14 be 12 79 e8 bb 37 06 82 3c
       -0.14517243 -0.14464733 -0.007094511 0.015872104
000170 c5 0e 05 3e c6 c9 b9 3c eb 39 ae 3d 6a ee 4c 3b
       0.12993915 0.02267922 0.08507141 0.0031270036
000180 24 37 af 3b 01 77 ee bd 5c f3 9d bd ca cb f1 ba
       0.0053471494 -0.11643792 -0.07712433 -0.0018447575
000190 e5 54 93 bd e7 c5 bd bc 63 29 79 bd b8 77 d8 bc
       -0.07193927 -0.023165656 -0.060830485 -0.026424274
0001a0 ac 40 da 3c bc ed 0c 3d 7c b6 31 be 0e e4 d9 3d
       0.026642166 0.03440641 -0.17354769 0.10639201
0001b0 2a d8 d9 ba ed 73 bd 3d 82 63 0d be f2 1c f6 3d
       -0.0016620208 0.09250627 -0.1380749 0.1201724
0001c0 14 cd e2 3d 38 67 69 bd 81 f3 88 3d 09 1b b8 3d
       0.11074272 -0.056983203 0.0668707 0.089895315
0001d0 0f ab b0 3d 11 ee a6 3c dc f9 57 bd 4b 8d 1d bd
       0.08626377 0.02037719 -0.05272852 -0.038464826
0001e0 86 7d 09 be 3c 56 1b bd 27 e2 57 bd 8d 7f f5 bc
       -0.1342679 -0.037924036 -0.05270591 -0.029968048
0001f0 c2 a2 8f 3d 5e 04 13 be fb f6 b2 3d fa 34 6c bd
       0.070134655 -0.14357135 0.08738514 -0.05766771

encoder.encoder_net.2.weight f4 [64, 128]
000000 ee 1e c4 3c 99 b4 80 bd ca 11 cc bd ab 34 90 bc
       0.02394053 -0.06284446 -0.099643305 -0.017603239
000010 e5 6c 7c 3d 6c a8 27 bd 21 b7 e8 37 c6 c5 01 bd
       0.061627287 -0.040932104 2.7741831e-05 -0.031682752
000020 d6 13 9a ba 13 88 61 3d bb b0 76 bc 26 da 02 bd
       -0.0011755179 0.05506141 -0.015056784 -0.031946324
000030 78 03 ad bd 92 6e 05 bd a6 ef 8f 3d e9 9d b4 bd
       -0.08447927 -0.03257615 0.07028131 -0.088191815
000040 28 ee 5c 3c 03 d5 fc 3c 0b 7b d6 3b 39 21 29 3c
       0.013484515 0.03086329 0.0065454296 0.010322862
000050 ad 16 ab 3d d4 23 ae 3d 24 9d 47 bd 24 8c ea bc
       0.083539344 0.085029274 -0.048733845 -0.028631277
000060 2d 58 bb 3c 53 e1 39 3d 4d 9b 48 bd 68 21 db bc
       0.022869194 0.0453809 -0.04897623 -0.026749328
000070 cb c4 77 3d 1b 31 88 bd 3d fe 90 3d f0 1c 92 bb
       0.06049041 -0.06649991 0.07079742 -0.004459016
000080 4a 2a 8f bd 77 aa 5b bd c6 01 a2 bb e0 3f 0f bd
       -0.06990488 -0.053629365 -0.004944059 -0.034973025
000090 54 d4 83 bd f0 ca f8 bc e2 f0 a8 bd de 30 94 bd
       -0.06436983 -0.030370206 -0.0824907 -0.07235883
0000a0 64 d9 a2 3d c0 fd a4 bd 9c e3 76 3d 4e 2d 25 3d
       0.0795162 -0.080562115 0.06027566 0.04032641
0000b0 ed eb a8 3c 89 8c ee 3c ef 4e 98 bc 15 8c 06 bd
       0.02062031 0.029119747 -0.018592326 -0.032848436
0000c0 6f 0a 2e bd a8 b9 aa bc 47 9e 99 bc d2 40 ad bd
       -0.04249042 -0.02084048 -0.01875223 -0.08459629
0000d0 3f 0e 87 bd b2 2e 62 bc 93 1e eb bc 78 98 9e 39
       -0.06594514 -0.013805078 -0.028701102 0.00030249706
0000e0 11 37 d5 bc 9b 27 03 3b 4a 36 47 bd fd db a3 3c
       -0.026027234 0.002001262 -0.04863576 0.02000236
0000f0 9e 44 08 bd 1a d2 c7 bb 24 75 8e 3d 60 f8 82 bd
       -0.033268563 -0.006098044 0.069559366 -0.0639503
000100 c3 1b 92 3d ab fb 20 3d 44 fb 47 bd 1e 8d f1 3a
       0.071342014 0.03930251 -0.04882361 0.0018428897
000110 cf a4 da 3b f9 5e 0b bd 4e 0e 6f bd e9 ef 0e 3c
       0.0066724787 -0.03402612 -0.05836325 0.008724191
000120 b4 9d 4b bd 2d d6 84 3d ff 3a cb bc d5 e0 55 bd
       -0.049710944 0.06486163 -0.024808405 -0.05221637
000130 e6 89 0b bd fa a1 15 bd c6 7e df bc 94 45 3a 3d
       -0.034067057 -0.036531426 -0.02728213 0.04547651
000140 01 71 48 3d 9c fa b8 3d f9 3a 88 3d b7 7f 77 bd
       0.048935894 0.09032175 0.06651873 -0.060424533
000150 1f 57 15 3d bf bc e0 3b ac 9b dc 3c c1 26 6a 3d
       0.03646004 0.006858438 0.026929699 0.057165865
000160 9f 9b 38 bd 44 7c 29 3c ad 8b c8 3d ce bf d9 bc
       -0.045070287 0.010344569 0.09792266 -0.026580717
000170 ed 42 96 3d d2 77 36 bd cc 97 82 bc 71 f1 8c bd
       0.07336984 -0.044547863 -0.015941523 -0.06881989
000180 d2 5a b1 bd 1d 37 4f 3d 76 86 8e 3c ba ef 25 bd
       -0.08659901 0.05058967 0.0173981 -0.040511824
000190 0d 68 cf 3c 58 00 3e 3c a3 8e 34 3d 4b 08 11 3c
       0.02531817 0.011596762 0.04408134 0.008852075
0001a0 73 93 61 3d d2 b7 e7 3c 16 70 1e 3d d7 3c 8f 3d
       0.05507226 0.028285895 0.038681112 0.06994026
0001b0 1f a4 94 bc f7 40 1e bd 58 38 89 bc aa 17 a2 bd
       -0.018144665 -0.038636174 -0.0167505 -0.0791467
0001c0 e5 91 93 3d 95 c2 3b 3d cd 01 a8 3d 14 e6 80 bd
       0.072055615 0.045839865 0.082034685 -0.06293884
0001d0 be 41 9a 3d b4 33 6f 3d bf 3b 97 bd 1d d6 51 bd
       0.075320706 0.058398917 -0.073844425 -0.051229585
0001e0 1b a3 d4 bc 47 8f 8b 3d 7e ae 83 bc b3 ee 58 3c
       -0.025956681 0.06814437 -0.016074415 0.013240504
0001f0 c5 c5 b9 3d 71 72 71 3c 79 a0 00 be a9 cb b0 bd
       0.09070925 0.014736758 -0.12561215 -0.08632595
000200 cc 83 3b bc 59 cc 1b 3b 2a 1e 72 bd 4b 6d 93 bd
       -0.011444997 0.0023772924 -0.059110798 -0.0719858
000210 a6 77 00 bd 9e f9 9c 3d 41 f7 22 3d 39 75 37 bd
       -0.031364106 0.07664798 0.03978658 -0.044789527
000220 80 77 24 3c bd c4 05 3c f3 a5 46 3d 5a f8 09 bb
       0.010038257 0.008164582 0.048498105 -0.002105257
000230 d1 cd b2 bd ab 35 b0 bc bb 54 38 bd ab 50 1c 3d
       -0.087306626 -0.021509966 -0.04500268 0.03816287
000240 ad 46 70 bb 72 c2 f6 3c 51 8d b1 bd 47 f2 86 3d
       -0.003666322 0.030122016 -0.08669532 0.065891795
000250 cc 37 30 3d e4 bf a9 bd cc e4 4f 3d 15 d4 58 bd
       0.043021962 -0.08288553 0.050755307 -0.052936632
000260 2f 09 97 3c 2d 84 3c bd a4 d3 92 bd 57 d6 33 bd
       0.018436996 -0.04602449 -0.071692735 -0.043905582
000270 a1 9c 9a 3d 75 7a d2 3b 0d 09 be bd 2a e6 34 bd
       0.07549406 0.0064232894 -0.0927907 -0.044164814
000280 46 71 d3 bb a2 c4 ca bd ee 69 37 3c 2b cb 86 3d
       -0.006452712 -0.09900786 0.011194689 0.0658172
000290 18 bf 84 bd 6a 3f c3 bc 8d 9c 50 bd ad 55 2b 3d
       -0.06481761 -0.02383395 -0.05093055 0.041829754
0002a0 de 5c a4 3c 7b 93 86 bd a1 32 86 3d 9a 53 49 bd
       0.020063814 -0.065710984 0.065526254 -0.049151994
0002b0 56 34 8d 3d a9 b8 8d bd 19 c7 de bd eb b7 40 3c
       0.06894748 -0.06919987 -0.108778186 0.011762599
0002c0 7c f7 9c 3d 32 8a cb bb 85 07 60 3d 40 59 99 bd
       0.076643914 -0.0062115425 0.05469467 -0.07487726
0002d0 13 bd 72 3d 1c 1c 11 bd 6a 01 06 3d 9c 06 67 3d
       0.059262346 -0.035427198 0.032716192 0.056402788
0002e0 7b 12 1f 3d ab 1f 4f bb 29 66 72 3d 3f a2 ad bd
       0.038835984 -0.003160457 0.05917946 -0.084782116
0002f0 2d fb ae bd 04 a9 c8 bd a0 40 e1 ba 83 7c c5 bc
       -0.08544002 -0.09797862 -0.0017185397 -0.024107223
000300 f1 b4 04 bc 63 43 57 bd 81 b9 71 3d cc f5 bf 3c
       -0.00809978 -0.0525545 0.0590148 0.023432635
000310 37 eb bd 3c 7d f9 8a bd 8a c5 a2 bd 21 e1 84 3d
       0.023183448 -0.06785867 -0.07947834 0.064882524
000320 4d bd b9 3c a6 51 22 3d 73 aa 08 bd 01 c8 2c 3d
       0.022673273 0.039628647 -0.033365678 0.042182926
000330 02 8d b5 bd 01 dc 3d 3c 69 8d 01 3d 19 2d 48 3d
       -0.08864786 0.011588098 0.031629 0.048871133
000340 51 c0 a1 bd cc 1e 59 bd c6 f2 32 bd bb b2 98 bd
       -0.078980096 -0.053007886 -0.043688558 -0.07455965
000350 14 6a 8f 3d 48 ab 5a bc ad 16 8e 3d 46 8b f6 bc
       0.07002655 -0.013346501 0.06937919 -0.030095708
000360 8c b8 ef 3c 69 2f ab bd 8e 41 87 3d d9 de c6 bd
       0.029262803 -0.08358652 0.066043004 -0.097104736
000370 a1 54 87 bc 59 76 56 3d f2 d7 7b bc 9e fc 61 3d
       -0.016519846 0.05235896 -0.01537131 0.055172555
000380 22 25 c7 bd 92 e9 81 3d b5 fd 75 3d 0a b4 c3 3a
       -0.097238794 0.06343378 0.060056407 0.0014930975
000390 1a 16 84 3b 9c 6f 8e 3d 72 a8 4c 3d 57 04 11 bd
       0.004030955 0.069548815 0.04996533 -0.03540453
0003a0 6f d6 9d 3d 45 8b 13 3d 17 f7 83 3d ca f8 90 3c
       0.077069156 0.03602149 0.06443613 0.017696757
0003b0 d8 76 b7 bd 54 38 99 bd 94 ba 9a bc 3d 74 0a bc
       -0.089582145 -0.07481447 -0.018887796 -0.008450565
0003c0 c2 91 1b bd 44 31 ab bd c7 0d 99 3c 90 30 a8 bd
       -0.037980802 -0.08359006 0.018683327 -0.082123876
0003d0 fe 58 8a bd 30 0f 83 3d 07 23 98 bd 32 a0 df bb
       -0.06755255 0.06399381 -0.07428556 -0.0068245167
0003e0 f7 b1 32 3c 7d d5 c3 bc 40 61 32 bd ee 9c 3c 3d
       0.010906688 -0.02390551 -0.043549776 0.046048097
0003f0 c9 56 7c bd a3 76 16 3d 87 87 66 bc b5 33 76 bd
       -0.061606202 0.036734235 -0.014070398 -0.060107905

encoder.encoder_net.2.bias f4 [64]
000000 c4 d4 9f bd db 2e 08 3d ad c2 88 bd 96 91 95 bc
       -0.07804254 0.03324781 -0.066777565 -0.018257897
000010 ef d3 b1 bd 4d 7d 89 bc 96 d3 f4 bc 7e 6a 9e 3d
       -0.08683001 -0.01678338 -0.029886048 0.077351555
000020 35 a1 8d bc c6 78 87 3d 42 00 0b 3d 7f 7f a6 3d
       -0.017288784 0.066148326 0.033935793 0.08129787
000030 61 1d 21 3d c6 71 9a bd c2 87 d7 ba ac 21 17 3d
       0.03933466 -0.07541232 -0.0016443657 0.036897346
000040 ee b3 65 bc 8f 97 01 3d 06 71 c1 3d 07 69 50 bd
       -0.014019949 0.03163868 0.09445386 -0.050881412
000050 fa 31 cd 3c d0 ba 92 bd 11 7a ab 3d ad 8c de bc
       0.025048245 -0.07164538 0.08372892 -0.027166689
000060 d2 8c d4 bb 6e d6 ca 3d ce 78 97 bd 88 04 4a 3c
       -0.0064865137 0.099041805 -0.073960885 0.012330182
000070 72 08 89 bc 9d f9 6c 3c 57 b8 e4 3c 9d 3e 84 3d
       -0.01672766 0.014463809 0.027919931 0.06457255
000080 83 b0 cc bb b7 09 2c 3d ab d3 cd bd 3f 8b 37 3d
       -0.006246628 0.042001452 -0.10050138 0.04481053
000090 d2 73 49 bd 72 37 c3 bb 54 10 8c 3d d1 91 5b 3c
       -0.04918272 -0.0059575373 0.06839052 0.013401465
0000a0 89 41 29 bd 12 22 85 bd 4f 75 36 3d 6a af 98 bc
       -0.041322265 -0.06500639 0.044545468 -0.018638331
0000b0 a2 60 97 bc 4f f6 d1 3c c3 9f 03 bd 8f 6d b6 bc
       -0.018478695 0.025630144 -0.032134783 -0.022269038
0000c0 45 cc 31 3c 8c 67 47 bd be 18 0f bd 8a 2e b2 3d
       0.010851924 -0.048682734 -0.034935705 0.08700283
0000d0 77 23 90 3d aa 6c 49 3d 1c d7 42 3d fb e5 b1 bc
       0.070380144 0.049175896 0.047568426 -0.021716109
0000e0 4d 55 51 bc 43 5b 77 3d c9 74 5d 3d 36 02 96 3d
       -0.012776685 0.06038977 0.054066453 0.073246405
0000f0 16 13 d5 bc 18 23 99 3d 64 6a a3 3c b0 f6 52 3d
       -0.026010077 0.07477397 0.019948192 0.05150479

encoder.encoder_net.4.weight f4 [4, 64]
000000 1d 16 6f 3d 5c 28 14 3d c8 f2 9a 3d 2d fe e7 bd
       0.0583707 0.036171302 0.07565838 -0.11327777
000010 a1 b7 4b bd 67 d3 68 bd d5 40 75 3c 00 8a 91 3c
       -0.04973567 -0.056842234 0.01496907 0.017765999
000020 a6 e3 e0 bd 88 67 1f 3d 5d c9 50 bd 6d 09 4b bd
       -0.109809205 0.038917094 -0.050973285 -0.049569536
000030 0f e9 71 3d ed 1a 0a 3d c7 a9 61 bc 90 8c 29 3d
       0.059060153 0.033717085 -0.013773388 0.041393816
000040 5f 00 80 3d 3b c7 78 bd 69 59 cb bd 22 3f 84 bc
       0.06250071 -0.060736876 -0.09929163 -0.016143385
000050 ee aa da bd 78 3a 9f bc ce 46 32 3d 8b 90 64 3b
       -0.106771335 -0.01943706 0.043524556 0.0034876193
000060 cc 4e e7 ba 33 57 db bd 75 07 90 bd 8b 9b 8a 3b
       -0.0017647385 -0.10709991 -0.07032672 0.004229968
000070 33 76 54 bd d1 b9 8a bd 30 cb 86 3d 7f c6 d8 bc
       -0.051870536 -0.06773723 0.06581724 -0.026461838
000080 74 a0 99 3d bd d0 8d bd 45 51 89 3b 3e 64 4a 3e
       0.07501307 -0.06924579 0.0041905963 0.19764802
000090 28 8c 09 bd e2 73 65 bd 76 b8 8f 3d 72 4a 78 3d
       -0.03358093 -0.056018718 0.07017605 0.06061787
0000a0 88 7f de 3d ab 9c 27 bd 21 1c d5 3c 93 ce ca 3c
       0.108641684 -0.040920895 0.02601439 0.024756705
0000b0 04 99 ae 3b c2 f9 78 3d 5a a3 9f 3a c8 fc 80 3d
       0.0053282995 0.060785063 0.001217942 0.06298214
0000c0 30 ef 66 3d 9b bc f7 bd 46 8e a7 bd e4 b0 55 bd
       0.05638045 -0.120965205 -0.081814334 -0.05217065
0000d0 57 35 43 3b a4 7f 9b 3d b4 98 5f 3c 23 2a f7 3c
       0.0029786432 0.07592705 0.013647247 0.03017146
0000e0 df 96 1b 3d 4b 92 16 3d c6 6f 97 bd 3a d9 8f ba
       0.03798568 0.03676061 -0.07394366 -0.0010974773
0000f0 21 b1 f8 bd 3f cd 0a 3d be 19 43 bd f4 f2 d2 3c
       -0.1214316 0.033887144 -0.04763197 0.025750615
000100 6b 44 b7 3d 2f 13 e0 3d 5f db 1f bd 11 39 31 bd
       0.089485966 0.10941159 -0.039027568 -0.043267313
000110 c7 0b be 3c a2 20 8f bd 05 69 bd bd 6f eb 8b bd
       0.023198975 -0.06988646 -0.092485465 -0.06832015
000120 4e f1 68 bd 38 cc 79 bd 7c 63 9f bd e1 0d 90 bc
       -0.05687075 -0.060985774 -0.07782647 -0.017584743
000130 38 0f 40 bd 17 a1 c5 bc e5 86 ca bd 08 5c b3 3d
       -0.046889514 -0.024124665 -0.0988901 0.08757788
000140 78 a4 98 3d 27 93 92 3d 40 c4 3b bb b1 60 55 bd
       0.07453245 0.07156973 -0.002865091 -0.052094165
000150 ff 6c 75 bd 42 43 67 bd ae 5b a3 bd eb d4 8c 3d
       -0.0599184 -0.056460626 -0.07976471 0.068765484
000160 1b c3 c8 bc 78 1f e4 bd 68 5d e3 bc b9 4f 79 3d
       -0.024507096 -0.11138815 -0.0277545 0.060867045
000170 74 94 a4 b9 db ba 3d bd 79 75 eb bd d8 55 26 bd
       -0.00031391124 -0.046320777 -0.114970155 -0.04060921
000180 04 df 57 bd b3 72 26 3d 0b 67 6b 3d ac 3f fe bd
       -0.05270292 0.04063673 0.057471316 -0.12414488
000190 c3 d5 66 bc 6e 52 85 bc a1 21 71 3d c8 b7 34 bd
       -0.014089051 -0.016274657 0.05886996 -0.04412058
0001a0 87 a5 e0 3c 1f 7e d7 3d 1a cc a0 bd 80 c1 e5 3d
       0.02742268 0.105221026 -0.07851429 0.11218548
0001b0 6e fd b5 bd 90 37 b3 3e 8d a6 43 3b 3f d6 85 3d
       -0.088862285 0.35003328 0.002985391 0.06535005
0001c0 ef 9e 9f bd 90 0e 37 3d f0 50 d4 39 2b 90 c1 bd
       -0.07793986 0.044691622 0.00040496094 -0.09451326
0001d0 28 fb 38 3c 1f 04 75 bd 42 cd ea bd 1c 89 c3 bc
       0.011290349 -0.059818383 -0.11464931 -0.02386909
0001e0 e7 5f 5f bd c8 42 e2 bd f8 d5 84 bc 4b 54 b0 bd
       -0.05453482 -0.11047894 -0.01621531 -0.086098276
0001f0 c2 41 54 bc 46 12 22 bd 29 05 8c 3d 15 75 d2 3c
       -0.012955131 -0.03956821 0.06836922 0.025690595
000200 9f 0d e6 bd b4 36 ff bd 50 3a 99 bd fe db 74 bd
       -0.11233067 -0.12461606 -0.07481825 -0.059780113
000210 06 c9 93 3d 05 81 08 3d 40 d6 7f bc 1d 05 8a bd
       0.072160766 0.033326168 -0.015615046 -0.067392565
000220 95 40 54 3d 3f f5 14 bd 27 e4 b6 bd 28 f1 7a bc
       0.051819403 -0.036366697 -0.08930235 -0.015316285
000230 61 0f d1 bb 18 02 f8 3c a8 23 01 be 33 63 ab bd
       -0.006380007 0.030274436 -0.12611258 -0.0836853
000240 f5 6e bd 3d ff c2 c5 bd 21 28 b2 bd e6 28 94 3c
       0.09249679 -0.09656333 -0.0869906 0.018085908
000250 28 02 1a bd 65 32 75 3d 20 28 75 bd f2 41 ac 3d
       -0.037599713 0.059862513 -0.05985272 0.084110156
000260 99 d7 94 bc 37 c3 20 ba 0d 35 85 3c ed 29 d0 3c
       -0.018169211 -0.0006132605 0.016260648 0.025410617
000270 fe 96 d7 bd 9a 2f cc 3c fa 4f 3f bc 46 3b 69 3d
       -0.10526846 0.024925042 -0.011676783 0.056941293
000280 d1 ba 26 bd 64 f7 74 3d 0b e2 c8 3d 56 ec 38 bc
       -0.040705506 0.059806243 0.09808739 -0.011286816
000290 99 a0 cb 3d dc eb 91 3d 7c d7 7f 3d 94 85 c7 3d
       0.09942741 0.07125065 0.06246136 0.09742275
0002a0 15 47 1a 3d 06 c6 c8 bd 28 27 55 3d fe eb 46 3d
       0.037665445 -0.09803395 0.052039295 0.048564903
0002b0 39 38 9a bd 22 1c 35 3b 50 8c 7f bc 66 ef 81 bd
       -0.07530255 0.0027635177 -0.015597418 -0.0634449
0002c0 26 e0 30 3c 5d 4a 84 3d b8 50 05 bc b4 c2 1d 3d
       0.010795629 0.06459496 -0.008136921 0.03851576
0002d0 be 9a d0 bd 7e 32 77 bc 5e b5 8f bd 2a aa c7 3d
       -0.10185765 -0.015087722 -0.07017015 0.09749253
0002e0 bf be e4 3c 25 37 5e bd ff 8d 92 bd 42 77 be 3c
       0.027922986 -0.05425181 -0.0715599 0.023250226
0002f0 b8 1e d1 bc 29 3e 8d 3c 7b cb 37 bd 27 68 91 bd
       -0.025527343 0.017241554 -0.04487179 -0.070999436
000300 9d 82 50 3d 4e 87 0f bc 30 99 e5 bd 58 d5 92 3d
       0.050905813 -0.0087602865 -0.11210859 0.07169598
000310 36 0a 5f 3d b6 c9 96 bd 5c b8 a2 3b 68 44 40 bd
       0.054453097 -0.07362692 0.004965825 -0.046940237
000320 fa c6 c0 3d 69 c1 74 bd cc 3b e8 bd 1f a7 c0 3d
       0.09412952 -0.059754763 -0.1133953 0.09406876
000330 37 16 a5 3d e8 4b f6 3d db c8 8a 3c e7 00 af bc
       0.08060878 0.12026197 0.016941478 -0.021362735
000340 e6 4c a2 3d 29 43 90 3c ec 14 36 3d de 74 af bd
       0.079248235 0.01761015 0.044453546 -0.085672125
000350 8f 3a 53 3d 37 64 81 3d ca 98 31 bc 6d 37 fb 3c
       0.051569518 0.063179426 -0.01083965 0.030666078
000360 42 39 02 bd 0c 6a 74 bd 6b a8 ab 3c 9b 0f 8e bd
       -0.031792887 -0.059671447 0.020954331 -0.0693657
000370 d9 b1 3c 3d 3e 0b ee bd 2e 21 33 3d b0 6a 81 3d
       0.046068046 -0.11623238 0.043732814 0.06319177
000380 90 bc aa bd 7c 50 3c bc b3 7e 77 bd 63 86 ae 3c
       -0.08336747 -0.011493798 -0.060423564 0.021304315
000390 69 63 82 3c 16 c3 08 3d c1 89 96 3d 86 20 0a 3d
       0.015916543 0.033389173 0.07350493 0.033722423
0003a0 79 ea 94 3a 94 24 c4 3b 4d 89 8c 3d f5 bf 8c 3d
       0.0011361382 0.0059858058 0.068621255 0.068725504
0003b0 93 cb 8e bc 52 64 35 bd af 45 cd bd 75 25 99 3d
       -0.017431056 -0.044285126 -0.10023057 0.074778475
0003c0 ca 1b af bd 88 05 a4 bd db 6d 67 bc 11 12 6e bd
       -0.08550222 -0.080088675 -0.014125313 -0.0581227
0003d0 a6 93 ac bd c5 06 e0 3d 5e 10 a6 3d e8 1a 24 3d
       -0.08426599 0.10938791 0.081085905 0.040064722
0003e0 e9 3e cd 3d 17 ba 09 bd 67 d6 6a 3d 0b 7e 4c 3d
       0.10021765 -0.033624735 0.057333376 0.04992489
0003f0 4c 4c 81 bc 0e f9 a2 bd 68 1e dd bd da 39 44 bd
       -0.015783451 -0.0795766 -0.10796815 -0.047906734

encoder.encoder_net.4.bias f4 [4]
000000 01 f3 4c bd 48 f5 b1 bc 2c da d8 3d cc 83 eb bd
       -0.050036434 -0.021723405 0.10588488 -0.11499748
