models_v104/encoders/encoder_rerun0.pt (torch, 62862 bytes, 6 tensors)

encoder.encoder_net.0.weight f4 [128, 50]
000000 a0 de 6f bd f2 36 06 3d eb e8 a1 bc ac e1 58 bd
       -0.05856192 0.032767244 -0.019764384 -0.052949592
000010 2f e5 b0 bd 0f 80 a2 3c 4a 5f 64 bb d2 8a ed bc
       -0.08637463 0.019836454 -0.0034846836 -0.028996859
000020 b0 e9 42 bd a1 db 39 3c 8b 79 91 bc 71 17 9f bc
       -0.047586143 0.0113438675 -0.017758152 -0.019420357
000030 d1 e1 b7 bc 48 0b 93 bd 6d fc 9d 3d b9 e2 1e be
       -0.022446545 -0.07179886 0.07714162 -0.15516175
000040 73 2c 72 3d 62 2c 20 be 53 6e c3 bc 49 1e dd bd
       0.05912442 -0.1564193 -0.023856318 -0.10796792
000050 b6 da fa bd ee 50 b3 3d 6c 60 c7 bd 67 ac c8 bd
       -0.12248747 0.087556705 -0.09735188 -0.09798508
000060 cd e0 44 bd 31 33 e1 3c 07 7b 00 3d 8f 73 0a bc
       -0.04806595 0.02749023 0.031367328 -0.008450403
000070 d6 c6 40 bd 20 88 84 3d ef 61 a9 3d 08 e6 88 bd
       -0.047064625 0.06471276 0.082706325 -0.066845
000080 29 0a 03 3e ab 35 c2 3d 87 dc 16 3e 23 2e d6 3d
       0.12796845 0.094828926 0.14732562 0.10458019
000090 68 c1 b1 bc 76 ef c3 3c 29 0a 6e bd 22 62 11 3c
       -0.021698669 0.023917895 -0.05811516 0.008873494
0000a0 c8 01 45 bc d4 f6 17 be b7 0e a8 bc b3 f0 a8 3d
       -0.01202435 -0.14840251 -0.02051483 0.08249035
0000b0 c5 98 13 3e cb 63 4b bb 9d c6 c8 3d a8 63 02 be
       0.14413746 -0.0031034823 0.098035075 -0.12733328
0000c0 ce 1b 81 3a fd 13 f3 3c d9 a0 15 3e 05 5c 9b 3d
       0.0009850205 0.029672617 0.1461214 0.07585911
0000d0 55 2a e2 3d 3e 8a a4 3d fa 97 a4 bd 17 43 e9 bd
       0.110432304 0.0803418 -0.080368 -0.113897495
0000e0 31 07 08 be cb 3e 36 3d c2 d9 be 3d 62 bc b8 3d
       -0.13283993 0.044493478 0.09318878 0.09020306
0000f0 9c 59 c3 3c 39 a0 34 bd e9 1f 38 bc c4 e3 0a be
       0.02384644 -0.044098113 -0.011238077 -0.13563448
000100 d7 c5 ef 3c 51 66 3e b7 f5 54 ee bd bf c5 ab bc
       0.029269142 -1.1348705e-05 -0.11637298 -0.020968316
000110 53 bf a6 3d 7c bf c9 bc 5a 15 d3 bd 33 e8 7a 3c
       0.08141961 -0.02462744 -0.10306807 0.01531415
000120 ce d5 2d 3d ca 9f 06 bb 43 b3 76 3d fc d0 96 3d
       0.04244023 -0.002054202 0.06022955 0.07364079
000130 38 9e c1 bd f4 68 ed 3c b4 e6 50 bd 08 46 bb 3c
       -0.09454006 0.02898071 -0.051001266 0.022860542
000140 da 8c 51 3d 6d 5f b6 bd be 0c c6 3c 7d 39 ad 3d
       0.051159717 -0.0890492 0.024175998 0.08458231
000150 37 0f e1 bd 85 34 54 bb e0 5c 56 bd 0c 27 9a 3d
       -0.1098923 -0.0032379937 -0.052334666 0.07526979
000160 c6 1e b0 3d 42 f0 8b 3b 6c 02 9f bd e7 28 12 bd
       0.085996196 0.0042705843 -0.07764134 -0.03568354
000170 9b 7a 87 bd eb ae 1c bd 8b 8f 90 3d 2f 4d 06 be
       -0.06615182 -0.038252752 0.07058629 -0.1311538
000180 f5 d9 28 3d 01 71 8e 3d d1 6e 67 bd 89 7c 8d 3d
       0.041223485 0.069551475 -0.056502167 0.06908519
000190 13 cf fc bd ed 29 ec 3d 9f 71 e4 bc 0a 24 7a 3d
       -0.12344184 0.11531434 -0.02788621 0.061069526
0001a0 69 1f b1 3c 18 9d e4 3c ef f6 d0 3b c0 d5 10 bd
       0.021621423 0.02790694 0.006377093 -0.035360098
0001b0 d9 ab 0b be 30 57 eb 3a 74 7a d2 3d c2 6e ae 3c
       -0.13639773 0.0017955061 0.10277262 0.021293048
0001c0 c0 86 02 3e c2 fd 9f 3d 78 7f 97 bd 3a e6 1b 3d
       0.12746716 0.07812072 -0.073973596 0.038061358
0001d0 8d 7a 23 3d b9 83 9d 3d 2c 19 a8 bd c2 c3 04 bd
       0.039911795 0.0769114 -0.08207926 -0.03241325
0001e0 78 ab 96 bb e5 bf 44 bd f8 10 c8 3d 39 be ff bd
       -0.0045980774 -0.048034567 0.097688615 -0.12487454
0001f0 54 b0 f9 bd 91 30 a5 bc de ac ec 3d 88 63 43 bd
       -0.12191835 -0.02016476 0.11556409 -0.047702342
000200 48 82 c1 bd b3 3d 44 3c e8 ac 20 bd ae 7d 99 bd
       -0.09448677 0.011977601 -0.039227396 -0.074946746
000210 f2 ae 8e bd e6 23 14 bc 6f 0a 1c bb 2e ec 9b bc
       -0.06966962 -0.009041762 -0.002380993 -0.019033518
000220 8c 8d fa 3d 3d d2 73 bd fe 19 0a 3d a6 9c cc 3d
       0.12234029 -0.05952667 0.033716194 0.09990816
000230 46 55 00 3e e8 3c 02 be 48 ce c1 3c 5e e9 47 3d
       0.12532529 -0.12718546 0.023657933 0.04880654
000240 9b 0c d9 3d 4d 43 e1 3d af 86 95 3d 80 62 0c bd
       0.105981074 0.10999165 0.073010795 -0.034273624
000250 91 67 91 bd 9b 9a 81 bb 72 71 9c 3c 88 4b ad 3d
       -0.07099832 -0.003955198 0.019097064 0.08461672
000260 65 d5 58 bc 5c 5b 2a bd 45 5a d5 3d e9 63 93 3d
       -0.013234471 -0.041591033 0.10417608 0.07196791
000270 5e 03 b7 bc bd be 0c 3e 85 b4 8a 3d 46 24 c3 bd
       -0.022340473 0.13744636 0.067727126 -0.09528403
000280 41 ce d4 bd b8 63 ac bd 54 39 be 3c aa e8 02 be
       -0.10390902 -0.08417457 0.023220696 -0.12784067
000290 bf f9 0c 3e cc 0e a2 3d c7 e8 ea bd 83 04 e1 3c
       0.13767146 0.079129785 -0.1147018 0.027467972
0002a0 3a e2 03 3e db 18 cc 3c d4 75 7b 3d 62 80 e7 3d
       0.12879267 0.024914196 0.061391667 0.11303784
0002b0 06 ef da bd b9 1b 9f 3b 81 59 24 3d 47 ec d1 3b
       -0.10690121 0.0048555997 0.04012442 0.0064063403
0002c0 63 71 fe 3c 6c db 96 bd b3 d6 75 3d f7 01 0c 3d
       0.031059926 -0.0736607 0.060019206 0.03418156
0002d0 ec 03 79 bd 07 09 cf 3d 33 2a 0b 3e dd 76 c6 bd
       -0.060794756 0.10109144 0.13590316 -0.0969064
0002e0 e9 c0 e7 bd 9a c1 39 3d 78 24 67 3c 45 31 71 bd
       -0.113160916 0.04535065 0.014107816 -0.058884878
0002f0 a5 9f ba 3d b3 33 8b bd b6 3c ed 3c b8 bf fb 3d
       0.09112481 -0.0679697 0.028959613 0.12292427
000300 7a 75 72 bd 44 1a 15 bd eb 04 b0 3d e8 5a ec 3d
       -0.059194066 -0.036402002 0.08594688 0.115407765
000310 59 f5 c9 3d 42 9d be 3d 96 ff 88 3a 2c 29 a9 bd
       0.098612495 0.09307338 0.0010452147 -0.08259806
000320 7a 5b c7 bd c9 a2 c5 3c b5 b0 f3 3d 37 84 8d bd
       -0.09734245 0.024125474 0.118989386 -0.069099836
000330 94 e3 83 3d 7b 8c 49 bd ac de fa 3d 40 ac 5b 3d
       0.064398915 -0.04920624 0.122495025 0.053631067
000340 6a e3 a7 3c 16 87 40 bc 0b 97 20 bd 03 06 97 bd
       0.020494182 -0.011750957 -0.039206546 -0.073741935
000350 fb 57 6b bd 42 08 28 3c 7d 20 6e bd 60 44 9d 3d
       -0.05745695 0.010255875 -0.058136452 0.07679057
000360 0b 9b aa bd 93 f4 f5 3c 9b 39 7f 3d df 1a 27 bc
       -0.08330353 0.030023849 0.062310796 -0.010199278
000370 3f 74 c0 3c 4b 36 ba bd 06 e7 ab 3a 96 aa e7 bb
       0.02349293 -0.09092387 0.0013115115 -0.007069896
000380 59 44 04 3e 40 4a c4 3c 99 2a 93 bd 16 12 90 bc
       0.12916698 0.023961186 -0.07185859 -0.017586749
000390 15 05 e1 3d da 47 5a bd 68 ef 92 bd 88 2c 7b 3b
       0.109872974 -0.05329118 -0.07174569 0.0038326103
0003a0 33 ee ba 3d cf a7 a4 3c 9a 62 c2 3a 96 e8 8e bd
       0.09127464 0.020099549 0.0014830411 -0.06977956
0003b0 3b 46 5c bd 7e 88 e5 3b db 29 f8 bd bf c7 ba bd
       -0.053777914 0.0070047965 -0.12117358 -0.0912013
0003c0 26 3a 29 bd ef 51 ca bc 21 a8 44 3d ad e1 e1 bd
       -0.04131522 -0.024697272 0.048011903 -0.11029372
0003d0 f9 67 14 be 07 8e 08 be 02 e2 ab 3d 60 8a f7 3d
       -0.14492787 -0.13335429 0.08392717 0.1208694
0003e0 88 c2 27 3d 5b a8 b3 bd 92 9a 03 be 22 2b 2c bd
       0.040957004 -0.08772346 -0.12851933 -0.042033322
0003f0 cc 44 72 bc f0 a3 80 3c ae 75 51 bd c5 f9 09 3e
       -0.01478691 0.015703171 -0.05113762 0.13474186

encoder.encoder_net.0.bias f4 [128]
000000 fc 63 3e bd a9 50 14 be 72 7a 6a 3d 8e ae db bc
       -0.04648207 -0.14483894 0.05724568 -0.026816633
000010 c2 af ed 3d f5 a3 da bb fc 5f b6 3d cb 80 c3 bd
       0.11605789 -0.006672377 0.08905026 -0.0954605
000020 b2 16 95 3c 3b 96 7e 3d 9e 05 5b 3c 5d 3b 0b 3e
       0.018199299 0.06215499 0.013368038 0.13596864
000030 0c a9 c2 3c 07 4d 7a 3c 11 6f 93 3d 88 ee 1b bd
       0.023762248 0.015277154 0.071989186 -0.038069278
000040 8b 91 01 3e d0 47 d0 3d 8e 3d 98 bc 74 38 4b bd
       0.12653176 0.10169947 -0.018584039 -0.049614385
000050 7f 08 0f be ab 7d 8f bd 07 22 c6 3b 10 13 ec 3c
       -0.13968085 -0.07006391 0.006046537 0.028817683
000060 ca d1 08 3e 82 8d c7 bc 3f 40 51 3d 64 6e f9 bd
       0.13361278 -0.024359468 0.05108666 -0.121792585
000070 94 c8 51 3d 7a 1b 05 be 1a 3f e8 3d 82 26 f3 3d
       0.051216677 -0.12998763 0.11340161 0.11872579
000080 03 c9 2c 3d b2 af f5 bd 5d 33 b6 bd 73 93 1a 3d
       0.042183887 -0.11996402 -0.088965155 0.037738275
000090 19 cc 69 3d 16 73 05 be c6 ba 05 3d b2 1b aa bd
       0.05707941 -0.13032183 0.032648824 -0.08306064
0000a0 36 d5 b7 3d 15 6f b7 bc 70 fa b9 bd a6 71 90 bd
       0.08976214 -0.022391835 -0.0908097 -0.07052927
0000b0 d2 be 33 3d 6a d0 d4 bd 52 50 bb 3d 8e 23 d2 bc
       0.043883152 -0.10391314 0.09146179 -0.02565172
0000c0 4c 9c 30 3d f8 89 a6 bd 46 29 94 3c 9d 9a 12 bd
       0.043117806 -0.08131784 0.018086087 -0.035791982
0000d0 39 0a bc bd ae 89 74 ba 4e db 18 bd 5e 91 28 be
       -0.09181637 -0.0009328377 -0.03731852 -0.16461703
0000e0 33 bb dd 3d dc 6b e0 bd 58 23 e5 3d 35 92 a9 3d
       0.10826721 -0.109580725 0.11188382 0.0827984
0000f0 ba 11 6f 3d bc ea 5d bd 2e 43 a2 bd 16 b6 3c bc
       0.058366515 -0.05417894 -0.0792297 -0.011518022
000100 c1 c3 fc 3d d9 37 e7 bd 20 e7 00 bd 33 cf 8b 3d
       0.123420246 -0.11289949 -0.031470418 0.068266295
000110 65 e1 ab bc 4d 0a b0 bd 60 07 ea 3c 89 7b 2a bd
       -0.0209815 -0.08595715 0.02856797 -0.04162172
000120 54 e7 d7 bd 18 f1 9d 3d 83 f9 c1 bd d0 5f 4d bc
       -0.10542169 0.077120006 -0.09471419 -0.0125350505
000130 94 2a 31 bd f5 bb 9a bd 09 68 7c 3d 60 19 12 be
       -0.043253496 -0.07555381 0.061622653 -0.14267492
000140 e4 53 b3 3d 15 5d 18 be 72 c2 d7 3d 59 99 9a 3d
       0.08756235 -0.14879258 0.105351344 0.0754878
000150 ec d4 1c 3d 93 cb c1 3d f0 d3 70 bd 02 6a 3b bb
       0.038288996 0.09462657 -0.05879587 -0.002859712
000160 62 d1 67 bd 5a fc cf 3d 71 d6 e4 3d 4b b4 bb bd
       -0.056596167 0.10155554 0.11173714 -0.091652475
000170 2e f7 0b bc f2 50 95 3d 57 58 a3 bc 80 58 8a bd
       -0.008542819 0.0729083 -0.019939585 -0.06755161
000180 59 37 b7 bd 56 21 fe bc 6e fc af 3d 53 58 e1 bc
       -0.089461036 -0.031021755 0.08593069 -0.027507937
000190 b4 0c dd bb bf 77 a0 3a b0 57 40 bd 8d eb 3b bd
       -0.006745899 0.0012242718 -0.046958625 -0.045878936
0001a0 a8 d5 f3 bd bd 2f a3 3d 7c 26 91 3d 1f a6 fa 3d
       -0.11905986 0.0796809 0.070874184 0.12238716
0001b0 c0 90 0c be 39 9e ac 3d 49 ee 32 bd 5d ec 0d bd
       -0.13727093 0.08428616 -0.043684278 -0.03464924
0001c0 f4 e1 40 3d fd 25 97 bd f5 a8 af bc 7f 10 12 be
       0.047090486 -0.073802926 -0.02144287 -0.14264105
0001d0 99 69 b8 bd 80 40 d1 bd 12 76 ad 3d d9 99 e1 bd
       -0.09004516 -0.102173805 0.08469786 -0.11015672
0001e0 6d 5b 29 be 00 4a 14 3d 24 54 ec bc a7 44 87 3d
       -0.16538782 0.036203384 -0.028848715 0.06604891
0001f0 c7 a7 29 3d 7a c1 ee bb 98 7a ff bd b8 00 c6 3c
       0.04141977 -0.007286248 -0.12474555 0.024170265

encoder.encoder_net.2.weight f4 [64, 128]
000000 2b db 79 bd 1c 1a 89 3d c6 8b 6d bd 3f e2 a9 3d
       -0.06100003 0.06694433 -0.057994626 0.08295106
000010 21 2c 3a 3d 9e b1 1d bd 14 55 92 3d e2 36 8f bd
       0.04545224 -0.038499467 0.071451336 -0.0699289
000020 38 28 8e bd 6f 16 82 bc 45 84 da 3a 40 b5 38 3d
       -0.06941265 -0.015879838 0.00166715 0.04509473
000030 66 86 03 3c 21 6d 81 bd a6 ea c5 bd 94 ca 10 3d
       0.008027649 -0.06319643 -0.09663896 0.035349444
000040 3f 60 03 3d 8d 8d a7 bd 6a a3 85 3c 8d f2 2d bd
       0.03207421 -0.081812955 0.016313273 -0.042467643
000050 60 6c 5c 3d b8 44 9b bc ef 8f 9e 3d 85 9e 99 bd
       0.053814292 -0.018953666 0.07742297 -0.07500938
000060 d5 96 73 bd 22 43 a6 3d 23 45 91 3c b0 75 87 bc
       -0.059470017 0.08118273 0.017733162 -0.01653561
000070 4a 23 04 bd 13 3c 2c 3d 93 43 2b bd c1 86 0c 3d
       -0.032260217 0.04204948 -0.04181249 0.0343082
000080 c3 6f a4 3d 15 56 03 bd 04 80 cd bc 32 56 49 bd
       0.08029129 -0.032064516 -0.025085457 -0.049154468
000090 30 e9 68 bb 4a 3f 53 bc 79 b7 d9 3b ad f4 90 3d
       -0.0035539381 -0.012893507 0.006644186 0.07077918
0000a0 64 3c d5 bc 69 2f 11 bd 32 68 18 3d 22 b0 dc bc
       -0.026029773 -0.035445604 0.037208743 -0.026939455
0000b0 f2 e9 6b 3d ce 36 92 3d 73 c4 d3 3c be 59 9e bd
       0.057596155 0.071393594 0.02585051 -0.07731961
0000c0 63 e3 86 bd f5 22 ab 3d 96 5e 3b bd 44 29 43 3d
       -0.06586339 0.08356277 -0.0457445 0.047646776
0000d0 76 36 38 3c b3 22 9c 3c e5 6b a1 bd 84 4e 1a bd
       0.011243453 0.019059515 -0.078819074 -0.037672535
0000e0 3c 9a 82 3d 6e 8c 95 bd be 97 8a bd 77 e8 5c 3d
       0.06377074 -0.073021755 -0.06767224 0.053932633
0000f0 07 23 48 3c 9c 92 1d 3c 83 ec d0 3a 5b 33 82 bd
       0.012215382 0.009617474 0.0015939627 -0.063574515
000100 67 9f b9 3c 34 6f 83 bc e2 9e 06 bd e8 0d 80 3d
       0.022659017 -0.016044237 -0.032866366 0.062526524
000110 92 b4 58 bd cc fb 0b 3c aa d8 59 bd 6a 28 0e bd
       -0.05290658 0.00854392 -0.053185143 -0.03470651
000120 08 af d6 bc 0e 4c 8b 3c 9e a0 44 bd 0a 84 af 3d
       -0.026206508 0.01700404 -0.04800474 0.08570106
000130 f1 8f 9c 3c 77 50 76 bd 44 dd 22 3d 0d 6c 53 bc
       0.019111605 -0.06013533 0.039761797 -0.012904179
000140 27 0b 1e bd cb 26 12 3d a1 a9 fd 3c 65 f6 59 3d
       -0.038584854 0.035681527 0.030964674 0.053213496
000150 03 46 19 bd ac 1e 31 3d 2e 96 b2 3d d8 70 02 3c
       -0.037420284 0.04324214 0.08720051 0.007961474
000160 56 ac 40 bd 73 18 a7 b9 42 ea d0 3c 3b 26 c3 3c
       -0.047039352 -0.00031870938 0.025502328 0.02382194
000170 f8 75 10 3d 3c fc 43 bd 3a 0a 9f 3c d1 bd 85 3c
       0.035268754 -0.04784797 0.019414056 0.016325863
000180 3f 91 f9 3c 3a 41 3b bb 52 19 fd 3c 34 2a 46 bc
       0.030464767 -0.0028572814 0.030895863 -0.012095023
000190 26 1d d4 3c 2e 11 a9 3c 38 8c 1a bd be ee 91 3d
       0.025892805 0.020638075 -0.03773138 0.071256146
0001a0 de f7 00 3d 13 eb 53 bc b3 89 88 3d df 20 9f bd
       0.031486385 -0.012934464 0.06666889 -0.077699415
0001b0 dd 2d 72 bd b4 09 b5 bb 88 b4 6c 3d e6 3f e9 bc
       -0.05912577 -0.0055248383 0.057789356 -0.028472852
0001c0 0c ce 15 bd 1a a1 79 bd eb 3f 23 3d a8 40 95 bd
       -0.036573455 -0.060944654 0.03985588 -0.07287723
0001d0 49 2d 62 3d 46 3f 85 bd 23 16 33 3d a2 cc db bc
       0.05521897 -0.06506209 0.043722283 -0.026830975
0001e0 85 1e a9 3d c6 35 33 bd b7 68 62 3c 49 f2 4d bd
       0.08257774 -0.043752454 0.013818911 -0.05027989
0001f0 82 c0 90 3d 62 73 ba bb b7 fd 71 3d b7 44 8d 3c
       0.07067968 -0.0056900242 0.059079852 0.01724468
000200 21 f6 be bd 7e b9 f4 3c 49 58 3f 3d c5 db ec 3c
       -0.09324289 0.029873606 0.046715055 0.028913388
000210 8f 87 50 3c 8f 1c 99 3c 79 17 9b bb 67 6c 31 bd
       0.012727632 0.018690376 -0.004733023 -0.04331627
000220 d5 6d 51 3d ef 2e 12 3d 2d b2 38 bd b3 eb 85 3c
       0.051130135 0.03568929 -0.045091797 0.016347742
000230 42 ff 54 3d 1d 53 89 3d 64 1c 21 3d 5f 08 f1 bb
       0.052001245 0.06705306 0.039333716 -0.0073557342
000240 45 75 b7 3c bb 3b 94 3d be ce 04 bd 9d 71 cd bb
       0.022394786 0.07237955 -0.032423727 -0.0062696473
000250 3c ad b1 3c b7 a2 33 bd 07 8c 8c bd ca e8 6e bd
       0.02168905 -0.04385635 -0.068626456 -0.058327474
000260 3f c3 63 bc c4 ba 31 3b 91 52 8e 3b a2 76 aa bd
       -0.013901531 0.0027119378 0.004343339 -0.08323409
000270 cd 23 b2 bd b2 10 1c 3d 5a 07 af bd be 9f 8b bd
       -0.08698235 0.03810186 -0.08546324 -0.06817578
000280 33 29 e7 3c fa e7 0e 3d dc ee a5 3c 5c 21 0f bd
       0.028217888 0.0348892 0.020255499 -0.034943923
000290 12 97 24 bc bb 45 2d 3d be b9 32 3d bd 97 05 bd
       -0.010045784 0.04230283 0.04363417 -0.032615412
0002a0 b0 0d cc bd d0 44 c2 3c 7c 66 87 bd f5 4c a4 bc
       -0.09963548 0.023714453 -0.06611344 -0.020056227
0002b0 fd 92 44 bd 2b 2f 72 bd 53 97 cf bc 84 5a c2 bd
       -0.04799174 -0.059127014 -0.025340712 -0.09489921
0002c0 3b 97 82 bd 99 eb 2f bd 96 3d 7b bd f6 b8 ae bc
       -0.06376501 -0.042949293 -0.06133803 -0.02132843
0002d0 2e 9a 92 bd db db b2 bb 73 6f 80 3c 45 33 85 3b
       -0.07158314 -0.0054583377 0.015678143 0.0040649497
0002e0 25 a2 0f 3d 79 97 bf 3c 35 fe 8b 3d 9c dc b1 bd
       0.035066742 0.023387657 0.068355955 -0.08684656
0002f0 be 57 a1 bd a4 fb a7 bd c9 2c 5e bd c1 a2 66 3d
       -0.078780636 -0.082022935 -0.05424193 0.056307558
000300 38 10 38 bd 77 1b c5 3c 9e 1a bc bd b4 25 a0 bd
       -0.044937342 0.024060948 -0.09184764 -0.07819691
000310 3c 74 f6 3c de 6d 3a bd 01 ec b6 bd c8 78 85 3d
       0.030084722 -0.045514934 -0.08931733 0.06517178
000320 cf ed 02 bc 1a d7 4b 3d a6 ee 2f 3d 67 54 a4 bd
       -0.007991268 0.049765684 0.042952202 -0.08023911
000330 1a de 5a 3b 33 84 7f 3d 21 03 19 3d fb 1d e9 3b
       0.0033396543 0.062381934 0.0373565 0.0071141697
000340 ed 9f b9 bd c6 5a 65 3d d6 55 45 bc d8 03 e5 3c
       -0.090637065 0.05599477 -0.012044391 0.027955934
000350 a7 2b e0 3b d1 cd a9 bd 56 37 a2 bd 71 48 54 3d
       0.0068411413 -0.082912095 -0.07920711 0.051826898
000360 4e e0 04 3c 52 26 b5 bc 53 d0 b6 bc 23 48 6c 3d
       0.008110119 -0.022113 -0.022316134 0.057685982
000370 f2 b8 27 3d 66 c2 74 bd a4 fb 8e bd 7c 4b 81 bd
       0.040947862 -0.059755705 -0.069815904 -0.063132256
000380 1e 97 09 bc 2d f4 a5 bc 49 a0 79 bc 00 43 2c 3d
       -0.008397846 -0.020258034 -0.015235969 0.042056084
000390 e7 cc 4a bd 56 63 eb bc 80 83 a0 bc 44 d6 b7 bd
       -0.049511816 -0.02873389 -0.019593954 -0.08976415
0003a0 ed 3a cc bd d5 8d 09 bc a6 df 82 3d 98 fd 8e 3d
       -0.09972177 -0.008395632 0.06390314 0.06981963
0003b0 9e f1 e2 bc 05 27 fc 3c 83 6a 9d 3d 10 31 74 3d
       -0.027703103 0.030780325 0.07686331 0.059617102
0003c0 9d a4 91 3d af 53 b7 bd 1a 8f 95 3d be 9f 93 bc
       0.071114756 -0.08951508 0.07302685 -0.018020507
0003d0 32 06 9c bd 63 62 e2 bc 52 de 9d bc a5 12 53 3c
       -0.07618369 -0.027634805 -0.01927105 0.012882863
0003e0 c6 b0 a4 bd 8c 9f 43 3d 07 52 90 3d e2 5d 00 bb
       -0.08041529 0.047759578 0.070468955 -0.0019587209
0003f0 45 ae 51 3d 0a 9f 63 3d a0 4b 95 bc ec ce c3 bd
       0.051191587 0.055571593 -0.018224537 -0.095609516

encoder.encoder_net.2.bias f4 [64]
000000 09 cb 14 3c 1d 33 43 bc 47 fc 87 bc f9 62 e3 3c
       0.0090816105 -0.011914042 -0.016599787 0.027757155
000010 83 5d 7b bd 0d 47 94 3d 1f 57 39 3c 0e c9 a8 bc
       -0.061368477 0.07240114 0.011312275 -0.020603683
000020 f2 85 13 3d ba f6 fe bc 41 ea 8d 3c 56 55 80 bc
       0.036016412 -0.031123508 0.017323615 -0.015665691
000030 81 d6 88 3d 02 aa 61 3d 0b 1f 77 bc 78 b8 ad 3c
       0.066815384 0.055093773 -0.015083085 0.021206126
000040 ef 4d a2 bd 56 dc c9 3d 44 e5 b2 bd a7 d9 ca bc
       -0.07925021 0.09856479 -0.08735135 -0.024761988
000050 3e 80 b8 bc 6b c0 73 bc 4e d5 3d 3c d9 ce a2 bd
       -0.022522088 -0.014877419 0.0115865 -0.07949609
000060 cd 10 9a bb 1c bc 6f 3c c7 3a 8b bd 27 c1 60 3d
       -0.00470171 0.014632251 -0.0679832 0.054871704
000070 82 65 46 3d b0 fd 5f bd 22 f6 a2 bd 87 2e 4e bd
       0.04843665 -0.054685295 -0.07957102 -0.05033734
000080 98 59 14 bd 87 31 99 bd 66 3d 29 bd c4 62 35 bc
       -0.036218256 -0.0748015 -0.04131832 -0.011070911
000090 cb 36 0f 3d 39 38 8f bd 07 7c 3a bd 33 27 a4 bd
       0.034964364 -0.069931455 -0.045528438 -0.08015289
0000a0 8a 31 09 bd 0f 5e d6 3b d6 0f 62 bd 0d 84 31 bd
       -0.03349451 0.0065419744 -0.055190884 -0.043338824
0000b0 8b 43 c3 3d 30 3f 9f 3d a6 c4 e2 bc b0 b3 93 3d
       0.09534367 0.07775724 -0.02768166 0.07212007
0000c0 a6 ff cc 3c 66 ee 4a bd e3 35 b8 3c aa 21 4e bd
       0.025024246 -0.04954376 0.022486633 -0.050325073
0000d0 07 89 3b bc 6d 87 5e 3c 3a e7 c1 bc 0f 2c a4 3d
       -0.011446244 0.013582093 -0.023669828 0.08016216
0000e0 77 02 a6 bd 3f 02 5f 3d 3d 7e cd 3c 3f 0c 60 3d
       -0.08105939 0.0544455 0.02508461 0.05469918
0000f0 5e f5 f7 bb 5b 38 19 3d 5c 36 9a bd 37 10 a3 3c
       -0.007567092 0.03740726 -0.075298995 0.019905193

encoder.encoder_net.4.weight f4 [4, 64]
000000 89 eb 8d bc 04 db 90 3d 1b 6f 31 3e 02 bd af ba
       -0.017324226 0.07073024 0.1732754 -0.0013407769
000010 94 35 c0 bd b2 06 6b bd 02 05 8d bd 92 b0 e6 bd
       -0.09385219 -0.057379432 -0.06885721 -0.11264147
000020 d3 6c f0 bd 74 c9 26 3d f0 02 e9 bd 4c 92 b3 3d
       -0.117395066 0.040719464 -0.113775134 0.08768138
000030 9e ae 8a bd e4 1f 55 3d f1 4c ad 3d 02 72 f9 bc
       -0.06771587 0.052032366 0.08461941 -0.030449871
000040 f3 77 b9 b9 f3 35 af 3d 54 fb 94 3d fd 05 67 bd
       -0.0003537532 0.08555212 0.072744995 -0.056402195
000050 8b 33 59 bd cc 56 ed 3d 89 eb b1 bc 1b 75 3c bd
       -0.05302767 0.11588821 -0.021718757 -0.046010118
000060 06 73 b3 3d b5 fb 92 3d 6e db 2b bd 82 5a 8e 3d
       0.08762173 0.071769156 -0.04195731 0.06950857
000070 b1 2e 7b 3d c4 dd b3 bd 16 55 ee bd d4 71 de bd
       0.061323825 -0.08782533 -0.116373226 -0.10861555
000080 39 f9 19 bd d3 c3 03 bd 85 f0 66 3d c9 69 50 bd
       -0.037591193 -0.032169174 0.05638172 -0.050882135
000090 33 bf 22 3d 5c d8 ab 3d 35 aa e1 bc 31 95 d1 3c
       0.039733123 0.08390877 -0.027546981 0.025583835
0000a0 b5 0a 7d bd 7d a3 8f bd a7 9c d7 3c 5b 1e 4d bd
       -0.06177779 -0.07013605 0.026319815 -0.050077777
0000b0 b7 56 d7 bd b4 36 bf 3c 01 7e ae 3c eb 63 0a bd
       -0.105145864 0.023341514 0.021300318 -0.033786695
0000c0 c5 23 04 be 6b e5 47 3c f5 0e c8 3d db 1c 40 bd
       -0.1290427 0.012200694 0.09768478 -0.04690252
0000d0 ef e6 2e 3d ec db 42 3c 78 56 d0 bd 4e d3 2c bd
       0.042700704 0.011893254 -0.101727426 -0.042193703
0000e0 eb 11 18 3c c6 12 84 bd 3a 84 cd 3d 29 09 ca bd
       0.009281616 -0.06448893 0.10034986 -0.098650284
0000f0 42 20 8f bd b0 02 de bd 92 8e b2 3d 73 c6 99 3d
       -0.069885746 -0.10840356 0.087185994 0.07508554
000100 d5 f1 14 3c 4d 11 ea bc 63 72 c6 3d 50 7e 31 bd
       0.00909086 -0.028572703 0.09689786 -0.04333335
000110 ca 7f f3 bb b0 d9 0d bd 13 53 34 3b a0 05 d3 3b
       -0.007431005 -0.03463143 0.0027515336 0.0064398795
000120 78 44 38 bd 1d 00 97 bd 9d e5 64 3d 42 5e 33 3c
       -0.044987172 -0.073730685 0.05588304 0.010947766
000130 23 a1 49 bc 8e b0 5e 3d f5 9a ed 3d e8 c3 7b bd
       -0.012306484 0.054367594 0.11601821 -0.061466128
000140 db b8 8d bd 1e 47 05 be aa ef ad 3c 83 e4 7d 3d
       -0.06920024 -0.1301541 0.021232445 0.061985504
000150 9e 94 0c bd c4 bc 2e bc 97 68 63 bc d8 a1 49 bd
       -0.03432142 -0.010665122 -0.013879917 -0.04922661
000160 63 55 68 3d 34 14 22 3b 99 92 74 bc 45 87 cb 3c
       0.056722056 0.002473128 -0.01492753 0.024844775
000170 a5 f8 f6 bc 94 fc 23 bb 46 5a 11 bc 93 b0 c0 3d
       -0.03014786 -0.0025022374 -0.0088716205 0.09408679
000180 d3 fd 21 3d 47 fb d6 3c 54 56 87 bc 92 d0 f3 bc
       0.039548706 0.026242865 -0.016520657 -0.02976254
000190 2e 77 cc 3a 10 d2 16 3d be cd 57 bd 78 11 12 3d
       0.0015599483 0.036821425 -0.052686445 0.03566119
0001a0 0d 22 6c 3d c7 af 26 bd 79 1b 8c bd 86 d4 0c bd
       0.05764966 -0.040694978 -0.068411775 -0.034382366
0001b0 df 90 3e bd 65 7b 66 bd 0e 0f 04 bd 96 54 05 3a
       -0.04652488 -0.056270022 -0.03224092 0.00050861517
0001c0 7d 18 1f 3d df 3e de bb 3a 55 14 bc 60 f7 2e 3b
       0.038841713 -0.006782397 -0.009053523 0.002669774
0001d0 89 2c cd bd a7 a1 e0 bd 9b 4b ad bd 91 44 b6 3d
       -0.1001826 -0.10968333 -0.08461686 0.08899797
0001e0 08 ca 02 3d ff 1d 21 3c 5b a7 e2 bc 42 fb c0 3d
       0.031930953 0.009833812 -0.027667692 0.094229236
0001f0 15 2a 79 bd 4e 31 a1 3c f9 8e a3 bc 61 83 49 bc
       -0.06083115 0.01967683 -0.019965636 -0.01229939
000200 5b b6 01 be ec 44 27 3d 25 c2 d8 bb 50 36 54 3d
       -0.1266722 0.040837213 -0.0066149407 0.05180961
000210 5c 25 16 3d 75 be b6 bd 99 70 3a 3d 32 4e 8d 3d
       0.036656722 -0.089230455 0.045517538 0.0689968
000220 9a af 6f bd 72 b4 9d 3d dc 23 96 bd 44 2a 80 bd
       -0.058517076 0.07700433 -0.073310584 -0.062580615
000230 4f 74 f3 3d 77 be 89 3d 81 b4 2d 3d 00 4f c2 3b
       0.118874185 0.067257814 0.04240847 0.0059298277
000240 b5 d7 df 3d 8c 7b a1 bb b8 ff 47 3c d0 f5 9a 3a
       0.10929815 -0.004928058 0.012206964 0.0011822525
000250 36 9f 90 bd e6 c6 b9 3d f5 93 84 3d bd 39 ae bd
       -0.07061617 0.0907114 0.06473533 -0.085071065
000260 d1 db 01 be a4 61 88 bd 1e 19 9a bd 55 1a fa 3c
       -0.1268151 -0.066592485 -0.07524322 0.030530134
000270 79 e0 87 3c db 30 db bc a4 f5 d2 3d 03 f3 8a 3d
       0.01658653 -0.026756695 0.103007585 0.06784632
000280 92 84 0b be 9f ff 73 3d 67 7d bb bd 5f 32 e1 3d
       -0.1362479 0.05956995 -0.09154778 0.10995936
000290 95 13 bd 3d 4c f9 b9 bd a4 be 1c bd ec b6 8d bd
       0.092322506 -0.09080753 -0.038267747 -0.06919655
0002a0 c9 06 e0 3c fa a7 b5 3d e8 7e 42 bd ff fe f9 bd
       0.027346985 0.088699296 -0.04748431 -0.1220684
0002b0 d9 ef 47 bd ea c2 f9 3b a6 3e 60 3d 20 b0 66 bd
       -0.04881272 0.0076221125 0.054747246 -0.05632031
0002c0 d4 fa 18 3d b9 39 a2 3d 7c 9a 58 bd 91 b8 56 3c
       0.037348583 0.07921166 -0.052881703 0.0131055275
0002d0 26 34 2d 3c 51 a6 f9 3b 56 44 d0 bd d5 8d cc bc
       0.010571515 0.0076187034 -0.10169284 -0.024969975
0002e0 fd be a4 3b fc 63 e4 bc 55 21 93 bd 27 f0 0c 3d
       0.0050276504 -0.027879708 -0.07184092 0.034408715
0002f0 0f 6b 08 3d b7 df 01 bd ab 8f 17 3d bd 83 bd 3b
       0.033305224 -0.03170749 0.037002247 0.0057835267
000300 ea 65 60 3d 01 df 9e bd d1 6c 03 bd 88 16 30 bc
       0.054784693 -0.07757378 -0.032086197 -0.010747559
000310 5a 29 11 3d 0c 1d 2e bd cd cf 6b bd 55 42 f4 3d
       0.035439827 -0.04250817 -0.05757122 0.11926714
000320 63 bd 72 bc d3 46 ec 3d d2 74 7c bc 24 ee 67 3d
       -0.014815661 0.11536946 -0.0154087115 0.056623593
000330 46 0b d6 3d 20 da 3a bd b1 ce a5 bd a2 8f 97 bd
       0.10451369 -0.045618176 -0.08096064 -0.07400443
000340 f9 1b 13 bd ec 39 93 bd 94 f8 d8 3d 01 25 fc bc
       -0.03591535 -0.07188782 0.105942875 -0.030779364
000350 38 2c bf b9 8a 9d 4f bb 0b 18 82 bc a6 5b 23 3c
       -0.00036463304 -0.0031679594 -0.015880605 0.009970581
000360 f4 c8 66 3d 07 23 c1 bc c6 d5 df bd 78 3b ad 3d
       0.056343988 -0.023576273 -0.10929446 0.084586084
000370 dd 64 a4 bd f5 10 6f 3d d1 4e 42 bc 10 79 cd 3d
       -0.08027051 0.05836578 -0.011859612 0.100328565
000380 f5 22 e0 bd 82 d7 9a bc 68 1e 8a bc 8d 00 00 3c
       -0.109441675 -0.01890159 -0.016860202 0.007812631
000390 78 a4 96 bd bd ab d7 bd b3 ef a7 bc 6c d3 07 bd
       -0.07355589 -0.10530803 -0.02050004 -0.033160612
0003a0 74 a1 f9 3b 4c 7d de 3b a6 7b d0 bd d3 ca de bd
       0.0076181237 0.006789839 -0.10179834 -0.108785294
0003b0 9f 10 fb 3c 0b af 2e 3c 98 39 87 bd 82 fe 88 3d
       0.030647574 0.010661851 -0.06602782 0.066891685
0003c0 e1 5a c3 bc 28 88 db bc 23 31 ec bc 93 e0 84 3d
       -0.023847045 -0.026798323 -0.028832024 0.06488147
0003d0 33 c3 41 3d 9e 96 1f bb 61 90 80 bd 26 c1 17 bd
       0.047305297 -0.002435125 -0.06277538 -0.037049435
0003e0 1d 28 da 3d eb 31 5b bd 92 9d 87 bd fd fd da bb
       0.10652182 -0.053514402 -0.06621851 -0.00668311
0003f0 93 8f d4 3d 63 76 c9 bd c9 d9 04 3d fd 9e b3 bc
       0.10378947 -0.098370336 0.03243426 -0.021926397

encoder.encoder_net.4.bias f4 [4]
000000 fc 80 89 bd fa 89 8a 3d dc ae e7 bd 98 1f bd bd
       -0.06714055 0.06764598 -0.11312649 -0.09234542
