src/old/artifacts/vae_ld2_ep600_bs64_lr1e-03.pth (torch, 78690 bytes, 12 tensors)

encoder.0.weight f4 [128, 50]
0.001990981 -0.0035282727 -0.0036145193 0.001457096 0.0118710445 0.0022758176 0.0032452312 0.0039204075
0.0045130188 -0.0030662604 -0.008670141 -0.0006726273 -0.0014111724 -0.006118516 0.003048641 0.0012832123
0.010431736 0.0034126923 -0.008641206 -0.007473133 -0.01230331 -0.021739 0.00050492433 0.0060781473
-0.0022199876 -0.01887593 0.019324148 0.0077480706 -0.0052395 -0.005655556 0.019135712 -0.019645901
0.037322577 -0.00085008366 0.021284794 0.025816455 -0.011604441 -0.028064985 0.015709737 0.018491948
-0.029847195 0.024478918 -0.031097429 0.0006211823 -0.037020706 -0.01800876 -1.727912e-05 -9.799143e-05
-0.018378172 -0.010090131 0.0029918163 -0.0011115017 -0.004962674 -0.005057072 -0.00985513 0.0076918644
-0.0066632912 -0.0034840105 -0.0042484025 -0.0071958466 -0.005718675 -0.0024436237 -0.011590731 -0.01919331
-0.014335807 0.003719157 0.02350256 -0.009139626 0.009598691 0.014587138 -0.0059000477 0.0022291865
0.010137607 0.0020665538 -0.02065681 0.011020983 -0.00016396398 0.00914998 -0.014720719 -0.00043877598
0.0011248863 0.010099877 0.008678298 0.017457647 -0.012973662 -0.00015758727 0.025477694 0.0026499704
0.010099684 -0.003347924 0.008305052 -0.0058751074 -0.00043702562 0.017042294 0.012152075 0.0006426666
-0.0029621304 0.0040581217 -0.020513361 0.0046203113 0.012411549 0.014113294 -0.015763279 0.005417791
0.012173524 0.0092284195 0.0056930594 0.0008204048 -0.009337557 -0.0075458153 0.012206321 0.008126191
-0.012069186 -0.0048385225 -0.020473348 0.019875921 0.01731947 -0.012400145 -0.006344738 -0.019336822
0.0022141358 -0.0050091622 0.018518914 0.027576048 0.0021044835 0.01790028 0.00062786444 0.023227638
0.0050901966 0.02416383 -0.04271878 -0.003351192 0.02529005 0.024053186 -0.0033074098 0.030757673
-0.061690964 -0.022245934 -0.016687138 -0.031588044 -0.052705314 -0.020418694 0.013731211 0.005267023
-0.030002499 -0.021385977 0.016867135 -0.02129096 0.005262549 0.046821382 0.009806403 0.0022441973
-0.0054654176 0.021465484 0.02298861 0.0034762973 -0.003140701 0.004756469 -0.013221368 -0.003780613
-0.0123407915 -0.041371986 0.025828471 -0.009226172 -0.03141695 -0.0073999194 0.009856849 0.0036510453
0.0050272457 0.030155787 -0.02154237 0.022107152 -0.018740367 0.027197575 0.022087183 0.0028977718
0.018012179 0.011043364 0.005944809 -0.013412022 0.022458026 -0.04187704 -0.0044030114 -0.015787931
0.07317912 0.0004716092 -0.022277925 0.036698043 -0.0528572 -0.054288846 -0.01980115 -0.016339954
0.027870268 -0.043447923 -0.034815405 -0.05603245 0.122031376 -0.0024234052 0.07862648 0.04315088
0.083242685 -0.018714728 -0.01810209 0.10983571 0.047776483 0.015889307 0.10713796 0.14393377
0.0789964 0.26993117 0.05626706 -0.053618114 -0.06851656 0.1524659 -0.32849514 0.06502424
0.18475518 -0.069681026 0.06432412 -0.05316723 0.065323345 0.15087894 0.0052665956 0.065265216
-0.090878785 -0.0015131497 0.039597478 0.13493209 0.114642836 0.18941432 -0.07307814 0.20846966
-0.03402359 -0.15438873 0.01427063 0.20028752 0.06477335 0.10290977 -0.04443121 0.10033822
-0.021068746 0.006604585 -0.05107257 0.11997459 0.123558015 -0.15392019 -0.049102467 -0.041188665
-0.114792824 0.027898468 0.022965547 0.0652046 0.011109807 -0.011336402 0.04781123 0.04858898
00000000: 1e7b 023b 983a 67bb 92e1 6cbb 07fc be3a
00000010: c57e 423c e225 153b f2ad 543b c376 803b
00000020: f2e1 933b 50f3 48bb 350d 0ebc 4153 30ba
00000030: 17f7 b8ba d57d c8bb b5cb 473b 7631 a83a
00000040: dfe9 2a3c 7aa7 5f3b d893 0dbc 2fe1 f4bb
00000050: d393 49bc fd15 b2bc e65c 043a 322b c73b
00000060: 367d 11bb b2a1 9abc ad4d 9e3c 87e3 fd3b
00000070: 1db0 abbb 3e52 b9bb 7fc2 9c3c 71f0 a0bc
00000080: 8fdf 183d 26d8 5eba 735d ae3c 087d d33c
00000090: 8e20 3ebc 8ae8 e5bc b5b1 803c 6d7c 973c
000000a0: 1b82 f4bc 0388 c83c 09c0 febc d7d6 223a
000000b0: 06a3 17bd 1b87 93bc a1f2 90b7 c080 cdb8
000000c0: d28d 96bc 1451 25bc 5912 443b cfaf 91ba
000000d0: ed9d a2bb cbb5 a5bb 6977 21bc 090c fc3b
000000e0: bd57 dabb ff53 64bb 2f36 8bbb 23cb ebbb
000000f0: b963 bbbb 3425 20bb 0de7 3dbc 4a3b 9dbc
00000100: bce0 6abc 1abd 733b 7188 c03c 5fbe 15bc
00000110: d443 1d3c e4fe 6e3c 3055 c1bb 8b17 123b
00000120: 3518 263c 056f 073b 7838 a9bc 5a91 343c
00000130: bfed 2bb9 cce9 153c 2c2f 71bc 840b e6b9
00000140: ec70 933a f479 253c 6c2f 0e3c 5703 8f3c
00000150: 7b8f 54bc 033e 25b9 99b6 d03c 20ab 2d3b
00000160: 2579 253c d868 5bbb ea11 083c f983 c0bb
00000170: 9620 e5b9 489c 8b3c 7f19 473c a078 283a
00000180: 4d20 42bb fef9 843b a30b a8bc fb65 973b
00000190: cf59 4b3c 723b 673c fe21 81bc ba87 b13b
000001a0: 7673 473c cc32 173c d88c ba3b 6f10 573a
000001b0: 8dfc 18bc e342 f7bb 05fd 473c b723 053c
000001c0: d6bd 45bc 788c 9ebb b9b7 a7bc d4d2 a23c
000001d0: 90e1 8d3c fa29 4bbc 85e7 cfbb 4168 9ebc
000001e0: 091b 113b e623 a4bb fab4 973c 2ae7 e13c
000001f0: 60eb 093b 9ca3 923c 4597 243a e347 be3c
00000200: aacb a63b 39f3 c53c e3f9 2ebd ac9f 5bbb
00000210: 142d cf3c 300b c53c 21c1 58bb 84f7 fb3c
00000220: aaaf 7cbd 1b3d b6bc 77b3 88bc 7762 01bd
00000230: 87e1 57bd 1b45 a7bc e0f8 603c fe96 ac3b
00000240: cdc7 f5bc a531 afbc f22c 8a3c 616a aebc
00000250: 7671 ac3b c7c7 3f3d 09ab 203c 6213 133b
00000260: 3f17 b3bb 62d8 af3c 9c52 bc3c 97d2 633b
00000270: 38d4 4dbb 27dc 9b3b 709e 58bc 29c4 77bb
00000280: 0831 4abc ac75 29bd 3b96 d33c 5f29 17bc
00000290: 0faf 00bd 067b f2bb 9f7e 213c 6046 6f3b
000002a0: 98bb a43b 4509 f73c a079 b0bc 0f1a b53c
000002b0: 6685 99bc 73cd de3c 2ef0 b43c 8be8 3d3b
000002c0: 478e 933c 3aef 343c accc c23b 19be 5bbc
000002d0: e5f9 b73c 4287 2bbd 2347 90bb b155 81bc
000002e0: efde 953d 5142 f739 3280 b6bc b050 163d
000002f0: cb80 58bd fb5d 5ebd 0536 a2bc 5edb 85bc
00000300: 3050 e43c 73f6 31bd 999a 0ebd 4882 65bd
00000310: 96eb f93d fed1 1ebb ec06 a13d fabe 303d
00000320: 247b aa3d a14f 99bc d64a 94bc 8bf1 e03d
00000330: 46b1 433d 4b2a 823c 266b db3d 6063 133e
00000340: ddc8 a13d 6b34 8a3e 4a78 663d ab9e 5bbd
00000350: 6952 8cbd 0520 1c3e 8430 a8be 6e2b 853d
00000360: 7630 3d3e edb4 8ebd 5dbc 833d e2c5 59bd
00000370: 3fc8 853d 0280 1a3e 6893 ac3b c5a9 853d
00000380: a81e babd e154 c6ba f730 223d a32b 0a3e
00000390: ddc9 ea3d d4f5 413e fea9 95bd 1279 553e
000003a0: 525c 0bbd 1418 1ebe 5ccf 693c 2c18 4d3e
000003b0: e4a7 843d 5cc2 d23d 80fd 35bd 207e cd3d
000003c0: 5d98 acbc 466b d83b 7931 51bd 3db5 f53d
000003d0: fc0b fd3d 419d 1dbe ab1f 49bd 72b5 28bd
000003e0: 8018 ebbd 548b e43c 3e22 bc3c fd89 853d
000003f0: e805 363c 51bc 39bc b5d5 433d 3d05 473d

encoder.0.bias f4 [128]
-1.5094198 -1.314424 -1.9529988 -2.4553235 -0.16413997 -4.562775 0.92459965 -2.936677
-0.95969635 -2.6368573 -1.05693 -2.7146413 -0.66162235 1.6377941 -3.4934082 -3.1834607
-3.7030554 1.9481168 0.9357575 -0.8659969 -1.6724291 -5.4411073 -5.0773296 -5.264294
-2.648408 0.51886296 -4.807602 -3.50387 -5.6410627 -4.6742983 -4.5326996 -6.5213375
-3.3232923 -6.227455 -0.7355409 -0.6633702 -3.6998386 1.7757457 -2.365111 0.112783216
0.16213748 -4.241838 -1.4028851 1.8858708 -5.478827 -3.4418986 -6.070925 -2.7575169
-3.3030958 2.2258968 -4.088796 -4.3197203 -2.1917608 -1.7799112 -0.41961446 -4.2230844
-4.0094275 -2.0474663 -3.5182881 -2.3615794 -6.813263 -3.6664083 2.694636 -3.378051
1.0845147 0.8970829 -3.5883086 -1.0556998 -3.5962863 -0.38384452 -1.6847845 -4.9569035
0.120077804 -5.222347 -6.2065105 -3.6543179 -2.041663 1.0455599 -2.5291328 -1.8830478
-4.6201544 -0.024353012 -1.5719395 -4.221977 -3.049021 -2.2443073 -3.165371 -4.9267607
-5.685217 -5.1238985 -1.6630167 -4.832961 -2.905057 -5.8330207 -2.4611168 -3.1943276
-6.680486 -3.7303455 -1.8759803 -3.5672202 -2.521169 -5.027835 -2.9152088 -1.3207127
-2.5488415 -4.5502944 -3.0895612 -4.4499736 -3.530616 0.3263939 -1.647046 0.72237545
-4.6027336 -5.768365 -1.6056663 3.7547956 -2.5332677 -0.9905634 -0.59594303 -5.050539
-1.2097385 -1.8806708 -1.0015353 2.4094558 -3.038289 -2.633727 -2.7580702 0.88602805
00000000: ab34 c1bf 0c3f a8bf ddfb f9bf 0524 1dc0
00000010: 4f14 28be 4102 92c0 90b2 6c3f 84f2 3bc0
00000020: a9ae 75bf 45c2 28c0 7b49 87bf afbc 2dc0
00000030: 1560 29bf 3da3 d13f 0094 5fc0 d2bd 4bc0
00000040: dcfe 6cc0 e45b f93f ce8d 6f3f f9b1 5dbf
00000050: 2812 d6bf 8d1d aec0 7c79 a2c0 1975 a8c0
00000060: 847f 29c0 34d4 043f e0d7 99c0 683f 60c0
00000070: 9683 b4c0 da93 95c0 e00b 91c0 ccae d0c0
00000080: d2b0 54c0 5047 c7c0 694c 3cbf a1d2 29bf
00000090: 28ca 6cc0 a34b e33f fb5d 17c0 e3fa e63d
000000a0: 5e07 263e 23bd 87c0 bd91 b3bf 3764 f13f
000000b0: 8d52 afc0 1148 5cc0 0545 c2c0 287b 30c0
000000c0: ec65 53c0 1875 0e40 6bd7 82c0 263b 8ac0
000000d0: cf45 0cc0 21d4 e3bf b5d7 d6be 8223 87c0
000000e0: 3b4d 80c0 b009 03c0 a22b 61c0 1e24 17c0
000000f0: 4006 dac0 6fa6 6ac0 eb74 2c40 fd31 58c0
00000100: 61d1 8a3f 3aa7 653f d9a6 65c0 2c21 87bf
00000110: 8e29 66c0 4587 c4be 05a7 d7bf f49e 9ec0
00000120: 5aeb f53d 771d a7c0 bc9b c6c0 58e0 69c0
00000130: 9baa 02c0 e8d4 853f 50dd 21c0 b607 f1bf
00000140: 4ed8 93c0 f87f c7bc 5035 c9bf 701a 87c0
00000150: 2923 43c0 bba2 0fc0 7095 4ac0 06a8 9dc0
00000160: 4ced b5c0 faf6 a3c0 bbdd d4bf 9ea7 9ac0
00000170: 74ec 39c0 1ba8 bac0 f082 1dc0 dd6f 4cc0
00000180: 8bc6 d5c0 fbbd 6ec0 1f20 f0bf 564d 64c0
00000190: d55a 21c0 06e4 a0c0 c892 3ac0 1d0d a9bf
000001a0: 3820 23c0 039c 91c0 5fbb 45c0 2f66 8ec0
000001b0: 9df5 61c0 1a1d a73e 67d2 d2bf 99ed 383f
000001c0: 9849 93c0 7296 b8c0 7986 cdbf 924e 7040
000001d0: 0f21 22c0 9095 7dbf b98f 18bf 049e a1c0
000001e0: b6d8 9abf d2b9 f0bf 4f32 80bf 8634 1a40
000001f0: 5473 42c0 fc8e 28c0 3984 30c0 bcd2 623f

encoder.2.weight f4 [64, 128]
0.0284876 0.009810437 -0.0012510805 0.0433416 0.029492788 -0.06903663 0.09686879 0.015780238
0.116113 -0.34557533 0.018181888 -0.011135905 0.010298294 -0.06818995 0.008783664 -1.1763228
-0.03446239 -0.020043898 -0.12646833 0.0073668575 0.019641023 0.050959196 0.021440417 0.012327206
0.022991985 -0.113655195 -0.34721914 -0.0972271 -0.041873675 0.031025635 -0.0024229884 0.0083599705
-0.040235527 0.07438205 0.063743055 0.03907775 -0.10042475 0.0020055228 0.026180489 0.25807115
-0.034263812 0.040967423 -0.01074912 -0.14027256 -0.29230785 -0.033298794 0.040089864 -0.020865913
0.008309033 -0.13221638 0.109272644 0.01916956 0.005379323 0.0044336617 0.0024281172 -0.0331743
-0.09657109 -0.004608079 -0.058564775 0.01317095 0.05205863 0.011672076 -0.043536015 0.066956855
-0.060645398 0.033687256 0.007861358 -0.39095557 0.0023184607 0.025712926 -0.0039355266 -0.09920461
-0.1891033 0.09765795 -0.078853175 -0.21892887 -0.01387573 0.17131299 0.072934814 -0.00043178178
-0.10819359 0.009420801 -0.10933871 0.01802529 0.018991243 0.017703077 -0.018182155 -0.30383497
-0.05755831 -0.05010818 -0.00493251 0.09066394 0.009233579 -0.18194321 -0.005894376 -0.029802129
-0.057858802 -0.059527885 0.036358494 -0.23387611 0.001775987 -0.062385768 -0.034775324 -0.018107908
0.035991978 0.20117445 0.16796185 0.048188176 -0.07491549 -0.24357598 -0.062139727 -0.290004
0.026921878 0.10555614 0.013468813 -0.3686624 0.015278093 -0.22774193 0.018824091 -0.056764156
-0.0125224 0.029532356 0.0012327977 0.10974311 0.015675973 0.02238263 -0.03720868 0.038051613
-0.09109425 0.0560346 0.036314104 -0.008638138 0.051480763 0.07188144 -0.08971464 0.0034169098
-0.098425396 -0.011243692 -0.026773285 0.04317533 -0.024853038 -0.14537933 0.042772524 -0.07287996
-0.04277481 0.022178857 -0.06928205 -0.080628455 -0.03316851 0.056318756 -0.08356679 0.04148401
-0.08125187 -0.02745466 -0.026981981 -0.061656713 -0.12935144 0.08504583 -0.069940545 -0.08674146
-0.026210183 -0.06809834 -0.041062597 -0.012564853 -0.018733839 0.008917633 0.0243956 -0.07240365
-0.070411876 -0.06753844 -0.03370503 -0.048737213 -0.010048528 -0.023330797 0.0890144 0.044791147
-0.08871787 -0.13989751 -0.085425116 -0.08739009 -0.03352747 -0.06079695 -0.15350717 -0.11806892
-0.09149879 0.05132063 -0.0063872086 -0.13268262 -0.070931524 -0.014062116 -0.027939325 -0.08167671
-0.15144631 -0.08992027 -0.05667839 0.022647541 -0.018743604 -0.043539286 -0.08553047 0.0068536433
-0.019733174 0.023347355 0.033855952 -0.047027413 0.04865948 0.06245656 -0.012569215 -0.062478643
-0.045292687 0.01982336 -0.15587643 -0.08103142 0.051752914 -0.1612491 -0.091583125 0.05911125
0.05331793 -0.045643788 -0.1193552 -0.027320543 0.019154986 0.049484935 0.023285178 -0.059184473
-0.09337002 0.039443973 0.020215623 -0.071991205 -0.039022516 -0.116013385 -0.0047418713 -0.082292646
0.029746115 -0.063222274 -0.09779027 -0.04862142 -0.08631767 -0.111855716 0.042355143 -0.077391155
-0.03719975 -0.05992855 -0.03110995 -0.043830268 -0.0049467264 -0.034850046 -0.05810343 -0.020009305
0.029657977 0.009450347 0.0004693256 -0.10818326 0.046268273 0.03478633 0.01564088 -0.057541694
00000000: d45e e93c f5bb 203c 4cfb a3ba f686 313d
00000010: dc9a f13c 1463 8dbd 2563 c63d 8f45 813c
00000020: a7cc ed3d 40ef b0be 2ff2 943c 5f73 36bc
00000030: 2dba 283c 2ca7 8bbd 5be9 0f3c bf91 96bf
00000040: 6f28 0dbd 1a33 a4bc ea80 01be ae65 f13b
00000050: 36e6 a03c 97ba 503d d0a3 af3c 0df8 493c
00000060: b059 bc3c 0ec4 e8bd b5c6 b1be 001f c7bd
00000070: bb83 2bbd 7929 fe3c 00cb 1ebb 42f8 083c
00000080: 02ce 24bd 9e55 983d b88b 823d fe0f 203d
00000090: 7eab cdbd 176f 033b 7778 d63c e721 843e
000000a0: 3658 0cbd 75cd 273d 141d 30bc 9ca3 0fbe
000000b0: 60a9 95be 5164 08bd 4535 243d feee aabc
000000c0: 9c22 083c bb63 07be 56ca df3d 7b09 9d3c
000000d0: 0845 b03b 4048 913b 0c21 1f3b c6e1 07bd
000000e0: 10c7 c5bd 5eff 96bb 9ee1 6fbd f8ca 573c
000000f0: 6e3b 553d 3c3c 3f3c d252 32bd ad20 893d
00000100: 4f67 78bd a6fb 093d edcc 003c 542b c8be
00000110: 51f1 173b eaa3 d23c 97f5 80bb c92b cbbd
00000120: 4ca4 41be e400 c83d c67d a1bd e42e 60be
00000130: 0857 63bc ac6c 2f3e d95e 953d c560 e2b9
00000140: 9a94 ddbd b459 1a3c f9ec dfbd c6a9 933c
00000150: 8693 9b3c 0b06 913c bef2 94bc 4290 9bbe
00000160: 43c2 6bbd 3c3e 4dbd e5a0 a1bb 04ae b93d
00000170: 7048 173c 524f 3abe 9c25 c1bb 9823 f4bc
00000180: 5afd 6cbd 83d3 73bd a5ec 143d 387d 6fbe
00000190: 3cc8 e83a 3888 7fbd 9270 0ebd 0957 94bc
000001a0: 536c 133d ad00 4e3e 31fe 2b3e f760 453d
000001b0: 4b6d 99bd fb6b 79be 3a86 7ebd 677b 94be
000001c0: 458b dc3c d12d d83d 4cac 5c3c 51c1 bcbe
000001d0: f750 7a3c 2e35 69be fb34 9a3c 8881 68bd
000001e0: c12a 4dbc d7ed f13c d495 a13a ffc0 e03d
000001f0: e66a 803c c75b b73c 2168 18bd 02dc 1b3d
00000200: 9f8f babd 8984 653d 19be 143d fa86 0dbc
00000210: 7edd 523d 9436 933d 4fbc b7bd 3cee 5f3b
00000220: 4193 c9bd 7637 38bc a653 dbbc 9dd8 303d
00000230: 9998 cbbc 52de 14be 3e32 2f3d 1742 95bd
00000240: a434 2fbd 6fb0 b53c bfe3 8dbd 8820 a5bd
00000250: b4db 07bd 7fae 663d 1125 abbd 23eb 293d
00000260: 6167 a6bd 98e8 e0bc 5109 ddbc c08b 7cbd
00000270: b474 04be 822c ae3d fd3c 8fbd 82a5 b1bd
00000280: bdb6 d6bc 2477 8bbd 4131 28bd d0dc 4dbc
00000290: b577 99bc 441b 123c 48d9 c73c 5d48 94bd
000002a0: 1a34 90bd 9851 8abd 490e 0abd aca0 47bd
000002b0: 95a2 24bc 3a20 bfbc 2f4d b63d ec76 373d
000002c0: b7b1 b5bd 4b41 0fbe 5df3 aebd 93f9 b2bd
000002d0: 1a54 09bd 3906 79bd fc30 1dbe 1ece f1bd
000002e0: b863 bbbd 9535 523d ca4b d1bb f4dd 07be
000002f0: 8c44 91bd ca64 66bc 03e1 e4bc 1e46 a7bd
00000300: be14 1bbe 1e28 b8bd 9927 68bd 5687 b93c
00000310: 308c 99bc 4056 32bd 992a afbd 8794 e03b
00000320: 77a7 a1bc f442 bf3c 8aac 0a3d d19f 40bd
00000330: 2a4f 473d 73d2 7f3d 1cef 4dbc 9be9 7fbd
00000340: d384 39bd 9964 a23c 129e 1fbe cdf3 a5bd
00000350: ddfa 533d 7c1e 25be ef8f bbbd a31e 723d
00000360: e763 5a3d fbf4 3abd 8070 f4bd 55cf dfbc
00000370: ebea 9c3c b7b0 4a3d 8fc0 be3c 6b6b 72bd
00000380: c838 bfbd 0190 213d 3c9b a53c 2070 93bd
00000390: 13d6 1fbd 6d98 edbd b361 9bbb 0c89 a8bd
000003a0: 20ae f33c ae7a 81bd 4446 c8bd 4127 47bd
000003b0: 52c7 b0bd 9c14 e5bd 967c 2d3d 417f 9ebd
000003c0: c45e 18bd a477 75bd 4bda febc 5e87 33bd
000003d0: 2618 a2bb ecbe 0ebd ddfd 6dbd 8eea a3bc
000003e0: 49f5 f23c a1d5 1a3c d10f f639 2f8f ddbd
000003f0: cd83 3d3d 1c7c 0e3d 4e21 803c d7b0 6bbd

encoder.2.bias f4 [64]
1.86851 -0.101400346 -0.13634159 3.1622953 -0.09827374 -0.18005982 3.2291698 0.02650113
-0.023201194 -0.028278206 -0.06447392 -0.036284775 -0.1351328 -0.22197942 1.9142697 -0.0767822
-0.061195932 -0.18674627 -0.054313883 -0.14722948 2.562942 -0.16907342 0.19891647 0.1489331
3.54092 -0.05095131 1.0980026 -0.13521677 -0.11157874 3.0120547 -0.10604172 -0.14982527
0.10314211 1.5374814 -0.06346077 -0.05790344 -0.033356618 -0.09470984 2.097699 -0.037644964
-0.024857689 0.043537512 -0.08235817 0.30974472 -0.091992505 -0.011037031 -0.16102481 -0.026242716
-0.03526916 0.07593364 1.7561024 2.6027434 -0.007184874 -0.07675899 3.233079 -0.14946781
-0.08326468 -0.18379562 0.422075 -0.1761733 -0.017872434 0.13702998 -0.061097566 1.8347677
00000000: 562b ef3f fcaa cfbd 219d 0bbe 0c63 4a40
00000010: be43 c9bd 9a61 38be b8aa 4e40 e618 d93c
00000020: 6e10 bebc b2a7 e7bc e70a 84bd 589f 14bd
00000030: 4160 0abe 934e 63be ca06 f53f fc3f 9dbd
00000040: 96a8 7abd 6a3a 3fbe 3c78 5ebd 53c3 16be
00000050: 3e07 2440 9521 2dbe c2b0 4b3e eb81 183e
00000060: 6f9e 6240 52b2 50bd 598b 8c3f 4476 0abe
00000070: 6583 e4bd 81c5 4040 672c d9bd cc6b 19be
00000080: 2c3c d33d 31cc c43f b8f7 81bd 282c 6dbd
00000090: f3a0 08bd 3cf7 c1bd b340 0640 9b31 1abd
000000a0: 5aa2 cbbc 6454 323d 66ab a8bd dc96 9e3e
000000b0: 9166 bcbd aad4 34bc b0e3 24be f7fa d6bc
000000c0: 6576 10bd 1983 9b3d f7c7 e03f 5993 2640
000000d0: 176f ebbb d133 9dbd c4ea 4e40 170e 19be
000000e0: ac86 aabd eb34 3cbe 371a d83e c666 34be
000000f0: 3669 92bc 9651 0c3e 7141 7abd abd9 ea3f

mu.weight f4 [2, 64]
0.010325764 -0.0130744325 0.009946424 -0.043849215 0.038655188 0.05281703 0.047514014 0.049988423
0.04784557 -0.012255645 -0.030631041 0.007331739 -0.0056873043 -0.010633819 0.047081422 -0.05972862
-0.039833754 -0.016417148 0.023079813 0.01501074 0.07678841 -0.006279592 -0.016708031 0.0030941865
0.04423783 0.021624506 -0.1948525 -0.019785231 -0.017114755 -0.08315358 0.021911342 -0.042236447
-0.018398011 -0.02621198 0.016434245 -0.03150111 -0.02518427 0.016604086 -0.06392999 0.005316664
0.0065537705 0.07814494 -0.005719765 0.026437834 -0.086747244 0.005464968 0.025608648 -0.016091194
-0.0039397813 -0.015168396 0.031036453 0.034678884 -0.014674378 0.012524336 0.041020934 0.00015679069
-0.039199203 -0.042619903 -0.0035030856 -0.023037435 -0.05346266 -0.0038025992 -0.002789973 0.002166573
-0.005873611 -0.0060228663 -0.03548679 -0.006874036 0.017821385 -0.020673761 -0.08103711 0.0030844337
0.023867639 0.03704003 -0.024845798 0.001681421 -0.06791969 0.016812207 -0.020159082 0.0029388238
-0.00075234147 -0.027267598 0.0121182855 0.00452592 0.021212459 -0.05678812 0.034331236 0.006758144
0.1276709 0.032972462 -0.0060312045 0.033555888 -0.00018029517 -0.056095663 0.027119227 0.02125657
0.032471504 0.027490344 -0.016130056 -0.015174634 -0.015335967 -0.035131123 0.061275437 0.04112196
0.0023311258 -0.0074869865 -0.06974759 -0.022839053 0.037662573 0.02200816 -0.03089977 0.005921446
-0.0038068558 -0.032324914 0.052831464 -0.14457175 -0.015053692 0.007369136 -0.028750941 0.0155023495
0.062167145 -0.0035737592 0.0065640686 0.0042989776 -0.009109069 -0.06941858 0.021244336 -0.0018880678
00000000: 652d 293c 2536 56bc 53f6 223c 3c9b 33bd
00000010: e754 1e3d ac56 583d 0e9e 423d a9c0 4c3d
00000020: b7f9 433d e7cb 48bc f3ed fabc 163f f03b
00000030: 915c babb 7839 2ebc 73d8 403d ffa5 74bd
00000040: b828 23bd 417d 86bc e011 bd3c 9bef 753c
00000050: 3e43 9d3d 09c5 cdbb 48df 88bc d6c7 4a3b
00000060: ba32 353d e025 b13c 6a87 47be a314 a2bc
00000070: 3e34 8cbc 6d4c aabd 6a7f b33c 2000 2dbd
00000080: 6db7 96bc 82ba d6bc 1ca1 863c 4f07 01bd
00000090: 3e4f cebc 4b05 883c baed 82bd 6937 ae3b
000000a0: 03c1 d63b 740a a03d de6c bbbb 2894 d83c
000000b0: 8aa8 b1bd 7913 b33b 3ac9 d13c aed1 83bc
000000c0: 4819 81bb dd84 78bc 2940 fe3c 720b 0e3d
000000d0: cd6c 70bc df32 4d3c 9105 283d 2e68 2439
000000e0: 588f 20bd 3592 2ebd 0694 65bb 01b9 bcbc
000000f0: aafb 5abd 0735 79bb fbd7 36bb 10fd 0d3b
00000100: 6c77 c0bb 775b c5bb 995a 11bd 983f e1bb
00000110: 27fe 913c 055c a9bc c9f6 a5bd 3624 4a3b
00000120: 1186 c33c 49b7 173d 6a89 cbbc 2063 dc3a
00000130: 7a19 8bbd c1b9 893c a924 a5bc 4899 403b
00000140: c838 45ba 4c60 dfbc c68b 463c 2b4e 943b
00000150: c0c5 ad3c a99a 68bd e99e 0c3d 6c73 dd3b
00000160: 29bc 023e 220e 073d 69a1 c5bb e671 093d
00000170: 9e0d 3db9 91c4 65bd 2429 de3c 4222 ae3c
00000180: d700 053d 6e33 e13c 2e23 84bc 079f 78bc
00000190: b543 7bbc a7e5 0fbd f4fb 7a3d 806f 283d
000001a0: cdc5 183b 6555 f5bb d3d7 8ebd f718 bbbc
000001b0: 1244 1a3d 754a b43c 8421 fdbc b008 c23b
000001c0: 717c 79bb 2167 04bd ce65 583d 9e0a 14be
000001d0: c3a3 76bc cb78 f13b 1887 ebbc 91fd 7d3c
000001e0: faa2 7e3d bb35 6abb 6617 d73b 70de 8c3b
000001f0: 343e 15bc 542b 8ebd 9a08 ae3c 0b79 f7ba

mu.bias f4 [2]
0.07782987 -0.14439699
00000000: 4465 9f3d cedc 13be

logvar.weight f4 [2, 64]
-0.1123167 0.0012347178 0.255002 -0.08408908 -0.07076649 0.094847724 0.0052167806 -0.035637572
0.11546192 0.12012781 0.06489341 -0.03455753 0.043866955 0.0964063 0.06368471 0.06439278
0.04013085 -0.0014112986 -0.022885999 0.28638333 0.021940734 -0.11381244 0.0421217 -0.01537375
-0.025618505 -0.050344326 0.14137848 0.093001775 -0.029566983 0.047704335 0.13345276 0.003986787
-0.093278944 0.02714196 0.034916837 0.068442516 0.18741862 -0.048082773 0.023552217 0.060476985
-0.020492487 0.008394645 -0.057881754 0.077741146 0.123172715 -0.033982612 -0.053742766 -0.13656153
-0.00793657 -0.012507579 -0.035120226 -0.162417 0.09774283 0.0029591871 0.11381404 0.045539316
-0.06880917 -0.028890956 -0.23933628 -0.031063752 -0.095848724 0.1146255 0.071105935 -0.33712292
-0.29527912 0.14657286 0.12739573 -0.132249 -0.0638976 0.012084554 0.0024679205 -0.07790784
0.0213622 0.00871424 -0.003687041 -0.013687011 0.010962294 0.08530788 -0.052197408 0.11533519
0.123310335 0.054291576 -0.019757975 -0.013965922 0.0017563298 0.007990829 -0.09736448 -0.26436085
0.021434292 -0.055515226 0.005230838 0.05730662 -0.058620024 -0.028324453 0.06788346 0.04682098
-0.122719444 0.08986426 0.047968302 0.12705398 0.075906575 0.04307388 0.018606404 0.07130431
0.13486758 -0.11448167 0.20410155 -0.1473489 0.1616774 0.043421015 -0.10634649 0.027883047
-0.05901143 0.07405431 0.022470778 0.064254716 -0.060700275 0.15879358 -0.056783177 0.12772278
0.100136675 0.19787067 0.08897109 0.14843494 0.020912787 0.10824805 -0.010689768 -0.27230313
00000000: 4c06 e6bd 41d6 a13a 9f8f 823e e536 acbd
00000010: 06ee 90bd 863f c23d 87f1 aa3b b4f8 11bd
00000020: 4d77 ec3d 9205 f63d d6e6 843d 328c 0dbd
00000030: d6ad 333d ab70 c53d 216d 823d 5de0 833d
00000040: 3f60 243d 53fb b8ba 6b7b bbbc d6a0 923e
00000050: 0ebd b33c 7f16 e9bd ce87 2c3d 2ee2 7bbc
00000060: e6dd d1bc da35 4ebd 85c5 103e b777 be3d
00000070: 7536 f2bc 9f65 433d d7a7 083e 98a3 823b
00000080: 0809 bfbd d158 de3c f504 0f3d 972b 8c3d
00000090: abea 3f3e 71f2 44bd 94f0 c03c b7b6 773d
000000a0: dcdf a7bc b189 093c 6b15 6dbd c036 9f3d
000000b0: fa41 fc3d 5a31 0bbd 6021 5cbd c9d6 0bbe
000000c0: 6308 02bc 97ec 4cbc 3ada 0fbd a450 26be
000000d0: 652d c83d ecee 413b 5617 e93d 6f87 3a3d
000000e0: d2eb 8cbd baac ecbc 9214 75be 6979 febc
000000f0: 564c c4bd c6c0 ea3d fd9f 913d 609b acbe
00000100: d32e 97be 3217 163e 0774 023e 486c 07be
00000110: bfdc 82bd 4bfe 453c d6bc 213b 258e 9fbd
00000120: c8ff ae3c 2cc6 0e3c 49a2 71bb 7c3f 60bc
00000130: 329b 333c e6b5 ae3d f3cc 55bd db34 ec3d
00000140: 218a fc3d d860 5e3d 7adb a1bc 53d1 64bc
00000150: a634 e63a f7eb 023c 0767 c7bd 4e5a 87be
00000160: f896 af3c ef63 63bd 7367 ab3b 59ba 6a3d
00000170: 8d1b 70bd af08 e8bc 7c06 8b3d 5bc7 3f3d
00000180: 5554 fbbd c10a b83d 697a 443d 701a 023e
00000190: e874 9b3d 3d6e 303d 756c 983c fe07 923d
000001a0: ba1a 0a3e 5e75 eabd ffff 503e a1e2 16be
000001b0: c38e 253e 3cda 313d 30cc d9bd fd6a e43c
000001c0: f8b5 71bd c9a9 973d a314 b83c fa97 833d
000001d0: daa0 78bd c99a 223e 7a95 68bd c3c9 023e
000001e0: 7514 cd3d 9c9e 4a3e 7a36 b63d 54ff 173e
000001f0: 4b51 ab3c 27b1 dd3d 2324 2fbc 516b 8bbe

logvar.bias f4 [2]
-5.3117695 -5.5962152
00000000: 04fa a9c0 3214 b3c0

decoder.0.weight f4 [64, 2]
3.385283 7.444487 -5.703436 3.864995 -2.625327 -9.00255 -0.69392455 -6.1130486
8.32219 3.569042 -1.6379079 5.5383945 3.4386332 -8.662851 -13.012144 -0.27727455
4.599903 3.9699628 9.348262 -3.843658 0.3699356 -7.2795587 -2.2194736 9.009095
13.005982 -1.7687547 9.747713 1.5212924 -3.5500858 6.0144663 -4.0241504 5.390065
-1.4060504 9.043332 10.719556 -3.0728967 5.6298842 -6.3894925 -0.9968314 -4.893543
-5.715964 5.1270576 4.6358285 9.359681 10.851718 -0.4751843 -5.657096 8.661044
-4.65542 3.9541142 -0.3426621 -7.8697634 5.4608116 3.9982157 7.6694484 -6.4451222
0.5603454 -7.8862767 8.775066 -2.4684072 -2.4058714 8.637798 -2.1721997 -9.244391
-4.0918574 5.1216044 7.126096 -4.305463 -1.2056811 -11.1526165 -6.034575 -3.833075
-9.737913 2.7029085 0.5245346 8.8386 6.0487885 8.061893 8.66933 -0.23918897
-4.2840166 5.731118 3.0272496 6.0040083 -3.530978 -7.274916 9.221863 1.1744485
-3.7325335 5.6214876 -3.5377126 8.204053 4.227002 2.5578656 0.91217947 -5.7144423
-8.165173 -5.8271613 1.3610605 -5.137053 10.974244 3.4389653 -8.489031 4.2937765
9.422114 1.2102556 -0.33038855 -9.719504 -5.610436 3.8217347 -3.919551 4.495882
-7.210245 -4.705182 0.58319527 -7.076219 -5.9292445 -5.5767665 -5.3494115 5.63842
-4.4926634 -7.6147037 -11.213679 0.4449717 -2.464037 8.455571 -7.8805594 4.2264194
00000000: 7aa8 5840 3d39 ee40 8c82 b6c0 145c 7740
00000010: 5c05 28c0 720a 10c1 0aa5 31bf 189e c3c0
00000020: b127 0541 2f6b 6440 f7a6 d1bf 873a b140
00000030: 9112 5c40 0a9b 0ac1 be31 50c1 eef6 8dbe
00000040: 6832 9340 df13 7e40 7b92 1541 7efe 75c0
00000050: 3368 bd3e 25f2 e8c0 db0b 0ec0 4125 1041
00000060: 8118 5041 8e66 e2bf a2f6 1b41 b6b9 c23f
00000070: 9b34 63c0 8276 c040 d7c5 80c0 6a7b ac40
00000080: 76f9 b3bf 7db1 1041 4d83 2b41 57aa 44c0
00000090: 0328 b440 b976 ccc0 5830 7fbf e797 9cc0
000000a0: 2de9 b6c0 db10 a440 b558 9440 41c1 1541
000000b0: a3a0 2d41 5b4b f3be ee06 b5c0 a393 0a41
000000c0: 33f9 94c0 3510 7d40 6871 afbe 1ad5 fbc0
000000d0: f8be ae40 c4e2 7f40 1f6c f540 713e cec0
000000e0: cc72 0f3f 615c fcc0 ac66 0c41 62fa 1dc0
000000f0: ccf9 19c0 6c34 0a41 5205 0bc0 07e9 13c1
00000100: 7ff0 82c0 2fe4 a340 fa08 e440 5ac6 89c0
00000110: c253 9abf 1e71 32c1 3d1b c1c0 1a51 75c0
00000120: 7ece 1bc1 74fc 2c40 e647 063f e86a 0d41
00000130: ad8f c140 84fd 0041 93b5 0a41 f4ed 74be
00000140: aa16 89c0 5265 b740 75be 4140 d620 c040
00000150: 8bfb 61c0 1dcc e8c0 c08c 1341 5454 963f
00000160: d4e1 6ec0 3ae3 b340 e269 62c0 cd43 0341
00000170: 9a43 8740 12b4 2340 9884 693f b6dc b6c0
00000180: 8ca4 02c1 1b78 bac0 3b37 ae3f bd62 a4c0
00000190: 8196 2f41 0218 5c40 12d3 07c1 9e66 8940
000001a0: fbc0 1641 a8e9 9a3f b028 a9be 1783 1bc1
000001b0: b188 b3c0 4d97 7440 ecd9 7ac0 44de 8f40
000001c0: 54ba e6c0 da90 96c0 494c 153f 6370 e2c0
000001d0: 5fbc bdc0 df74 b2c0 612e abc0 f06d b440
000001e0: e6c3 8fc0 a7ab f3c0 3b6b 33c1 55d3 e33e
000001f0: c8b2 1dc0 054a 0741 8b2d fcc0 d43e 8740

decoder.0.bias f4 [64]
4.3458886 5.238157 0.09109795 -6.7110906 1.9910649 8.462753 6.6183534 4.6939993
-5.46723 3.5056615 0.7213102 -1.7001607 -2.4443445 0.51599234 4.4321094 1.8241931
1.6892267 0.047380887 2.9341853 -9.087535 3.7279828 1.6182492 2.8746057 -1.2189848
7.7684884 -6.057683 6.737272 -0.47096094 -2.0220037 1.056335 4.302736 -3.282583
2.12905 4.1237645 4.5962996 -3.6846318 6.2039595 3.1061082 -0.6562138 6.9701996
2.1677701 7.2730927 9.396226 -0.32090464 4.751608 2.5699072 9.1129875 -3.7424548
5.9158196 -3.7670329 -2.9555485 3.9820209 -0.29634318 -0.8405184 5.1956162 4.637521
0.80444 -3.7152739 -2.3651917 3.238821 3.1659217 -1.1082276 1.4613547 1.2377003
00000000: 8511 8b40 fb9e a740 9091 ba3d 41c1 d6c0
00000010: 37db fe3f 7067 0741 8dc9 d340 3e35 9640
00000020: 8cf3 aec0 c25c 6040 c9a7 383f de9e d9bf
00000030: 2470 1cc0 1318 043f d7d3 8d40 297f e93f
00000040: 9538 d83f 7612 423d b1c9 3b40 8b66 11c1
00000050: 4597 6e40 ca22 cf3f 8af9 3740 b207 9cbf
00000060: 7597 f840 8ad8 c1c0 bb97 d740 cb21 f1be
00000070: 8268 01c0 fc35 873f 03b0 8940 d715 52c0
00000080: 5b42 0840 e1f5 8340 e314 9340 02d1 6bc0
00000090: d686 c640 7aca 4640 a1fd 27bf e00b df40
000000a0: bfbc 0a40 2dbd e840 f156 1641 9d4d a4be
000000b0: 2c0d 9840 5c79 2440 ccce 1141 6184 6fc0
000000c0: 654e bd40 1117 71c0 b527 3dc0 6ed9 7e40
000000d0: 4bba 97be 372c 57bf 7d42 a640 9266 9440
000000e0: c8ef 4d3f 0cc7 6dc0 4d5f 17c0 d848 4f40
000000f0: 769e 4a40 67da 8dbf ac0d bb3f f76c 9e3f

decoder.2.weight f4 [50, 64]
-0.36349654 0.63499415 0.17611 -4.2593718 -1.2821634 2.6495142 -3.1807926 4.586816
-1.1603041 -0.20507485 1.2334778 -0.45620686 4.1510873 -0.80220115 1.3019309 -0.940392
0.558418 1.7812134 -0.0583039 1.2524285 0.16106342 2.1405642 -2.8429189 -0.16321802
-0.9773585 -1.7585571 0.021818828 2.5705817 0.3489319 1.2187618 -1.2873278 2.7189271
0.0019065143 -0.3883585 -0.8119167 -1.69171 0.38402525 0.13834475 -1.1935481 -0.25884098
-0.2580045 -1.7407892 0.8249295 -0.5377646 3.5522182 -1.8948554 -2.1747568 -3.2673743
0.06818437 -1.9690951 0.74251604 -2.0583394 -0.42541713 0.24857068 0.6285316 2.9790819
-0.74224913 -1.52847 0.21785435 0.18973632 0.084705494 -6.0146446 -0.3722588 -0.9795391
-2.0640512 1.1628047 1.0150387 -1.4799558 1.6783857 0.7668886 -0.26928207 -1.2699507
-0.8766263 2.1005485 0.5679866 0.62817645 -2.669515 2.197635 0.72265774 -0.7675104
-0.48740825 -3.1131954 0.016144244 -1.8385059 1.0168798 0.49011767 0.21183704 -2.4718142
-1.216132 -0.28666306 0.6028896 -0.78872305 -0.69683564 -2.0596554 -0.9227205 0.9879464
0.0037612184 2.4306588 0.08360577 1.234472 -1.4361476 0.10033253 -1.2418326 -0.029695133
-0.2818393 -1.5910276 -0.91534084 2.915928 1.5151836 0.22298826 -0.12109892 -0.7760835
-0.18963616 -2.000159 -0.8544534 0.4536612 2.7860854 -0.24913599 1.0460066 1.6589857
-2.0521488 0.60751957 -3.5122137 0.8320963 1.1869878 2.9946609 0.4132373 -1.2876893
-1.5186545 -2.249066 1.7972672 -0.097768925 2.1670873 -0.31243607 -0.5942869 1.0813332
-0.118039876 -0.9015444 0.45750448 0.056703568 -0.18050025 0.017960344 -1.4506497 2.6240938
0.84531903 1.7270242 -0.50947297 -0.37106788 2.236133 0.26889613 -0.7019755 0.48723602
-2.6543615 0.98770297 0.86831397 -0.65512 0.30274937 1.1402968 -0.48968148 -1.7957561
2.1203206 -0.16943368 0.14145228 2.268423 1.724245 0.111216865 -1.8002425 -0.116701014
2.3216891 0.01369357 0.57112443 0.07109361 -2.1716042 -0.32389414 1.647355 -0.98960215
-0.1947612 -1.4109708 -1.6190337 1.7966715 0.22768554 0.87415683 -2.0229151 -3.206683
-1.6331288 -0.7421293 -2.427273 2.1468384 0.9041896 -2.0017207 -0.7872337 0.14956994
0.6605488 -1.1599728 -1.6032208 1.6347028 1.4460523 -1.2370354 0.037365578 0.5165343
1.5653269 -0.8212513 -1.9423513 -1.5816835 1.1116209 -0.44079593 -0.06672466 1.3199271
0.7010919 1.828349 -0.5135713 -1.8401588 0.55097383 -1.8312652 -1.9893621 2.1363673
-1.2434933 0.00035756337 -0.16740002 -1.2813172 0.9602449 1.1301244 -0.00014395117 1.6327931
0.20959876 1.163435 1.1329908 3.61502 -0.12085343 0.52447724 -0.018087015 0.14026316
0.7215379 0.77658415 0.016911982 -0.39430964 -1.4936166 1.1287985 0.7495789 -0.39223868
-1.529102 -0.5368972 -1.9024888 0.057660606 0.032873157 -1.417319 -1.0533984 -0.35079312
-0.02858274 1.1961838 -0.36615917 0.7911399 0.6515877 -0.011087869 1.4334422 -0.10206583
00000000: 381c babe fa8e 223f 2e56 343e c64c 88c0
00000010: ee1d a4bf a491 2940 1b92 4bc0 32c7 9240
00000020: d884 94bf 24ff 51be 9ae2 9d3f f293 e9be
00000030: b5d5 8440 0e5d 4dbf aca5 a63f 88bd 70bf
00000040: 7bf4 0e3f cdfe e33f 12d0 6ebd 944f a03f
00000050: cfed 243e 01ff 0840 62f2 35c0 a022 27be
00000060: 2b34 7abf 6618 e1bf 66bd b23c 6984 2440
00000070: 34a7 b23e 6300 9c3f 28c7 a4bf e702 2e40
00000080: 01e4 f93a edd6 c6be c6d9 4fbf f489 d8bf
00000090: f59e c43e 3faa 0d3e 2fc6 98bf ce86 84be
000000a0: 2a19 84be 2ed2 debf 942e 533f f1aa 09bf
000000b0: 8b57 6340 9f8a f2bf 372f 0bc0 a91c 51c0
000000c0: 3fa4 8b3d 4f0b fcbf 8815 3e3f d5bb 03c0
000000d0: 46d0 d9be 5089 7e3e 72e7 203f 47a9 3e40
000000e0: 0a04 3ebf e8a4 c3bf 3615 5f3e 3d4a 423e
000000f0: 137a ad3d f877 c0c0 b598 bebe 13c3 7abf
00000100: 6a19 04c0 c9d6 943f caec 813f 316f bdbf
00000110: 58d5 d63f d052 443f 57df 89be bf8d a2bf
00000120: 956a 60bf 636f 0640 9267 113f 2cd0 203f
00000130: 55d9 2ac0 0da6 0c40 1900 393f 907b 44bf
00000140: 938d f9be 983e 47c0 ef40 843c 2954 ebbf
00000150: 1e29 823f b4f0 fa3e cfeb 583e 3432 1ec0
00000160: 37aa 9bbf 80c5 92be f956 1a3f c1e9 49bf
00000170: d263 32bf 65d1 03c0 6937 6cbf 0eea 7c3f
00000180: c67e 763b ea8f 1b40 8039 ab3d 2e03 9e3f
00000190: afd3 b7bf 247b cd3d 5ff4 9ebf 3543 f3bc
000001a0: 3e4d 90be cba6 cbbf c753 6abf 909e 3a40
000001b0: 89f1 c13f 0957 643e b602 f8bd 69ad 46bf
000001c0: fb2f 42be 9b02 00c0 75bd 5abf 4846 e83e
000001d0: 394f 3240 811d 7fbe 8be3 853f a559 d43f
000001e0: 6856 03c0 6786 1b3f 1cc8 60c0 4304 553f
000001f0: 37ef 973f 86a8 3f40 d793 d33e 01d3 a4bf
00000200: 4563 c2bf b3f0 0fc0 da0c e63f 133b c8bd
00000210: 8fb1 0a40 9ff7 9fbe 3023 18bf 2069 8a3f
00000220: e4be f1bd 9dcb 66bf 073e ea3e 0042 683d
00000230: 0fd5 38be 9221 933c e4ae b9bf 27f1 2740
00000240: d466 583f 210f dd3f d26c 02bf 9cfc bdbe
00000250: ce1c 0f40 c1ac 893e abb4 33bf 0077 f93e
00000260: 0fe1 29c0 1ada 7c3f d349 5e3f f2b5 27bf
00000270: f701 9b3e 3ff5 913f 88b7 fabe 56db e5bf
00000280: 55b3 0740 0680 2dbe ded8 103e d82d 1140
00000290: 0fb4 dc3f abc5 e33d 596e e6bf f100 efbd
000002a0: 8e96 1440 ff5a 603c 3635 123f 8799 913d
000002b0: 90fb 0ac0 74d5 a5be 87dc d23f 9156 7dbf
000002c0: 7b6f 47be b19a b4bf 7f3c cfbf 55f9 e53f
000002d0: 6626 693e bec8 5f3f 7177 01c0 4b3a 4dc0
000002e0: 5d0a d1bf 30fc 3dbf 7158 1bc0 cd65 0940
000002f0: f878 673f 311c 00c0 2688 49bf dd28 193e
00000300: ba19 293f fd79 94bf 5736 cdbf f13d d13f
00000310: 3e18 b93f 2d57 9ebf a60c 193d 983b 043f
00000320: a25c c83f 863d 52bf f89e f8bf 9b74 cabf
00000330: 9849 8e3f 01b0 e1be f0a6 88bd 5ff3 a83f
00000340: c27a 333f 5707 ea3f 6979 03bf 538a ebbf
00000350: 9f0c 0d3f e666 eabf 6ba3 febf 3eba 0840
00000360: ca2a 9fbf 5877 bb39 e96a 2bbe 3402 a4bf
00000370: 9cd2 753f eba7 903f 99f1 16b9 5dff d03f
00000380: 0fa1 563e 70eb 943f d805 913f 7d5c 6740
00000390: 0182 f7bd 2444 063f 382b 94bc 25a1 0f3e
000003a0: b5b6 383f 38ce 463f ff8a 8a3c f4e2 c9be
000003b0: d42e bfbf 787c 903f 67e4 3f3f 82d3 c8be
000003c0: 9db9 c3bf 1872 09bf c184 f3bf 872d 6c3d
000003d0: 01a6 063d b66a b5bf c2d5 86bf 289b b3be
000003e0: 5a26 eabc 8d1c 993f 3779 bbbe 2588 4a3f
000003f0: 74ce 263f e5a9 35bc 097b b73f e407 d1bd

decoder.2.bias f4 [50]
1.322633 1.592574 2.772158 -0.2783176 0.9440159 -3.6744568 2.5097988 1.6453485
-0.92955685 -0.9742849 1.1289513 -1.7913815 4.014908 -1.4100621 1.799645 -0.6850082
-1.4155697 0.7178053 0.01664388 -0.97558177 -0.89320624 2.777079 0.86075085 0.36639822
2.3486466 -0.084475465 -2.796469 3.0743558 -0.47029907 -1.4440874 0.10184435 0.15495531
-0.25067 -0.9262421 -0.9451325 -0.7757088 0.8448875 0.39757222 -0.4298365 -0.108426034
1.4403865 2.2405899 -0.94665825 -0.41234127 0.17386812 1.2355659 -0.33968112 -1.5855165
1.1464248 0.8572085
00000000: 0a4c a93f 77d9 cb3f 096b 3140 a57f 8ebe
00000010: 07ab 713f 4d2a 6bc0 8ba0 2040 c89a d23f
00000020: 70f7 6dbf bc6a 79bf 7a81 903f fd4b e5bf
00000030: 207a 8040 ea7c b4bf c45a e63f b35c 2fbf
00000040: 6331 b5bf 17c2 373f bf58 883c babf 79bf
00000050: 2aa9 64bf aabb 3140 2b5a 5c3f 8c98 bb3e
00000060: 3a50 1640 7901 adbd 59f9 32c0 3fc2 4440
00000070: 0acb f0be dbd7 b8bf c593 d03d 9bac 1e3e
00000080: d157 80be 341e 6dbf 34f4 71bf da94 46bf
00000090: 8c4a 583f 968e cb3e 8813 dcbe 780e debd
000000a0: 965e b83f d365 0f40 3258 72bf 651e d3be
000000b0: 7c0a 323e 0627 9e3f afea adbe 34f2 cabf
000000c0: 0cbe 923f 0472 5b3f
