models_v103/dec6/model_rerun7.pt (torch, 792770 bytes, 50 tensors)

encoder.encoder_net.0.weight f4 [128, 50]
0	0xbd032993	-0.03202207
1	0xbc30d2b4	-0.010792423
2	0xbdbda532	-0.09260024
3	0x3bc44162	0.0059892396
4	0x3cbb2264	0.022843547
5	0x3d0891f5	0.03334232
6	0xbe0711b8	-0.13190353
7	0xbd0bbefa	-0.034117676
8	0x3cec577b	0.028850308
9	0xbc36d85c	-0.0111599825
10	0xbdb8a719	-0.09016246
11	0xbe35e27b	-0.17762177
12	0x3cf8b740	0.030360818
13	0xbd2aed82	-0.04173041
14	0x3e541376	0.20710549
15	0xbcde2160	-0.027115524
16	0x3df57de9	0.11986906
17	0xbe3b7163	-0.18304972
18	0x3e23c729	0.15993942
19	0x3dad9697	0.08475988
20	0x3c3eca27	0.011644877
21	0xbcd376bc	-0.025813453
22	0xbda8218c	-0.082095236
23	0xbd85480c	-0.065078825
24	0xbdb97585	-0.09055618
25	0xbd58e053	-0.052948307
26	0x3da83c33	0.08214607
27	0xbd57142d	-0.052509475
28	0x3d5d0618	0.05396089
29	0x3d37f417	0.044910517
30	0xbc25e655	-0.010125716
31	0x3bf2686c	0.007397702
32	0x3c18605e	0.0093003195
33	0x3c92b435	0.017908195
34	0xbe0fd6f5	-0.14046843
35	0x3d97d4a2	0.07413603
36	0xbdbd8628	-0.09254104
37	0x3ddbeedd	0.10738919
38	0xbe2582f0	-0.1616323
39	0xbe6b919f	-0.23004769
40	0x3c109c41	0.008826316
41	0x3d6b692f	0.057473358
42	0xbdfc2986	-0.123126075
43	0xbe15eee7	-0.14641915
44	0xbd179ba4	-0.037013665
45	0xbd6b39a7	-0.05742803
46	0xbdc52a92	-0.0962726
47	0xbd40aa84	-0.047037616
48	0xbdd2c295	-0.1029102
49	0x3be00814	0.0068369005
50	0xbdc39c56	-0.09551303
51	0x3d0c2951	0.03421909
52	0xbd079055	-0.03309663
53	0x3da1ebfc	0.079063386
54	0xbd8b6f2e	-0.06808315
55	0xbe051da6	-0.12999591
56	0x3d1599f0	0.03652376
57	0xbe037a3c	-0.12839597
58	0x3d1b77d1	0.037956063
59	0x3e594690	0.21218324
60	0xbe1cc7dc	-0.15310615
61	0xbd8a2a78	-0.067463815
62	0x3dac060b	0.0839959
63	0x3d498d92	0.049207278
64	0x3e270536	0.16310582
65	0x3e583448	0.21113694
66	0xbe738480	-0.23781013
67	0xbd91fa60	-0.07127833
68	0xbc7759bc	-0.015097078
69	0x3d2fb20d	0.04289441
70	0xbe59d780	-0.21273613
71	0xbc98752e	-0.018610563
72	0xbd21f979	-0.039544556
73	0x3d0346dc	0.03205
74	0x3daf4a7a	0.08559127
75	0xbadbd808	-0.0016772756
76	0xbd639786	-0.055564426
77	0x3cd2b97a	0.025723208
78	0x3dd76a37	0.10518306
79	0x3d8091ea	0.06277831
80	0xbc9cac99	-0.01912527
81	0x3d4ada10	0.049524367
82	0x3d4134bc	0.047169432
83	0xbcba22ca	-0.022721667
84	0xbdd794e5	-0.10526446
85	0xbce70402	-0.028200153
86	0x3cd9f212	0.026604686
87	0xbd372fa3	-0.044723164
88	0x3dfce997	0.12349241
89	0xbd5baf66	-0.05363407
90	0x3ceead4e	0.029135372
91	0x3e402a8b	0.18766229
92	0x3db74170	0.08948028
93	0x3e0e062e	0.13869545
94	0xbcfa8e88	-0.030585542
95	0xbda21472	-0.07914056
96	0xbe6563b2	-0.22401312
97	0x3db4e8cb	0.08833464
98	0x3ca45574	0.020060278
99	0x3d491bfe	0.04909896
100	0x3e23f637	0.16011892
101	0xbdab67a6	-0.08369379
102	0xbe037451	-0.1283734
103	0xbe0b5062	-0.13604882
104	0xbe5b5d6b	-0.21422355
105	0xbd7149a0	-0.058908105
106	0x3da7966f	0.0818299
107	0xbe037f9a	-0.12841645
108	0xbd8073fc	-0.06272122
109	0x3d2cefcc	0.042220876
110	0xbddcdd63	-0.10784414
111	0xbdb6bfe9	-0.08923323
112	0xbdbea2d5	-0.093084015
113	0x3e067b12	0.13132885
114	0xbd6d5da2	-0.057950623
115	0x3cc45ebf	0.02397096
116	0xbe7de934	-0.24795991
117	0xbdaf2a0e	-0.08552943
118	0x3cb107a0	0.021610081
119	0x3e066955	0.13126118
120	0xbe02a609	-0.1275865
121	0xbe13c7ac	-0.14431638
122	0x3cabfe92	0.020995412
123	0xbc8684c4	-0.01642073
124	0xbe25d165	-0.16193159
125	0xbe29872b	-0.16555469
126	0x3cc78495	0.024355212
127	0xbe105d28	-0.14098036
128	0x3e552a4a	0.20816913
129	0x3e33c7c7	0.17556678
130	0x3e447564	0.19185406
131	0xbe7e7f7a	-0.24853316
132	0x3bf34d77	0.007425006
133	0x3aa5a138	0.0012636548
134	0xbdfbced9	-0.122953124
135	0x3c5112b7	0.01276081
136	0x3dad6318	0.08466166
137	0x3dbefcf2	0.09325589
138	0xbd1cb466	-0.03825798
139	0x3d2ee4bb	0.042698603
140	0xbe97165c	-0.29509246
141	0x3c270cad	0.010195893
142	0xbd0c742d	-0.03429048
143	0x3d2f903a	0.042862155
144	0xbdded31b	-0.10880109
145	0x3d01adb9	0.031659815
146	0xbc56b20f	-0.013103976
147	0xbcc2bca4	-0.023771591
148	0xbe4da2dc	-0.20081657
149	0xbe00c765	-0.12576063
150	0xbd84abe9	-0.06478102
151	0xbe01c085	-0.12671097
152	0xbda3be9b	-0.079953395
153	0x3cf2fd4a	0.029661793
154	0x3db07e81	0.08617879
155	0xbd769446	-0.0602
156	0x3c223701	0.009900809
157	0x3cf06057	0.029342813
158	0x3da19af4	0.07890883
159	0xbdc65029	-0.09683258
160	0xbcdef8c3	-0.027218228
161	0x3dddfe92	0.10839571
162	0xbd951680	-0.07279682
163	0x3eb472b3	0.3524376
164	0xbdf1ba66	-0.11803131
165	0xbdc027f5	-0.09382621
166	0xbda0ed3d	-0.078577496
167	0xbced9211	-0.029000314
168	0xbd8a4165	-0.06750754
169	0x3d108070	0.035278738
170	0xbd6a23db	-0.0571631
171	0x3d6f5140	0.058427095
172	0x3d2193e0	0.039447665
173	0xbb5c228f	-0.0033589934
174	0x3deb2042	0.11480762
175	0xbd3f7395	-0.046741087
176	0xbd81fff8	-0.0634765
177	0x3c4ced86	0.012507802
178	0x3e5d36f7	0.21602999
179	0xbe2fc451	-0.17164733
180	0x3e1c299f	0.15250252
181	0x3e03b30e	0.12861273
182	0xbe498e87	-0.19683276
183	0x3e432d35	0.19060214
184	0xbd9671a8	-0.07345897
185	0x3de2c175	0.11072055
186	0xbca2979b	-0.019847682
187	0x3e101795	0.14071496
188	0xbdd4d79c	-0.10392687
189	0xbe28994d	-0.1646473
190	0x3e0ada48	0.1355983
191	0xbc1b6a24	-0.009485755
192	0x3d37a79a	0.04483757
193	0x3cab4385	0.02090622
194	0x3d062660	0.03275144
195	0xbd5914f8	-0.052998513
196	0xbdcbcdad	-0.09951339
197	0xbe0ddbc0	-0.13853359
198	0xbe67836e	-0.2260873
199	0xbe8131be	-0.25233263
200	0xbb38d73d	-0.0028204464
201	0x3d006ddf	0.03135478
202	0x3c66eed1	0.014095024
203	0x3d3428dc	0.04398428
204	0xbdecd400	-0.11563873
205	0x3c883514	0.016626872
206	0x3cd9d4c3	0.02659071
207	0xbd87df71	-0.06634415
208	0x3d046e55	0.032331783
209	0x3de8106d	0.11331258
210	0xbd74a0dc	-0.05972372
211	0x3dd753ae	0.105140075
212	0x3e09e8ea	0.13467756
213	0x3b73c4fb	0.0037196267
214	0xbd9b2f7a	-0.07577415
215	0x3e4a3945	0.19748409
216	0xbd43c064	-0.0477909
217	0xbcd3db04	-0.02586127
218	0xbdbdfbc5	-0.09276537
219	0x3e0e6ecc	0.13909453
220	0xbd051ff3	-0.032501172
221	0xbdcdd244	-0.100498706
222	0xbdfb8a2a	-0.12282212
223	0xbe7a169f	-0.24422692
224	0x3e3f47bd	0.1867971
225	0xbdf53d8d	-0.119746305
226	0x3c9377ca	0.018001456
227	0xbddd93a5	-0.108191766
228	0x3e9f19c0	0.31074333
229	0x3e199ab1	0.15000416
230	0x3e05d59e	0.1306977
231	0xbde1a2e8	-0.110174
232	0x3e335568	0.17513049
233	0xbda9a889	-0.08284099
234	0x3ddf1201	0.10892106
235	0xbcde51bf	-0.027138589
236	0x3e27d816	0.16391024
237	0xbcfca9e3	-0.030842727
238	0x3e100d9e	0.14067695
239	0x3d35c0ec	0.044373438
240	0x3d9f87e8	0.07789594
241	0x3c06bca2	0.0082236845
242	0x3c56eb0d	0.013117564
243	0x3a4bef6f	0.0007779514
244	0xbd5c5676	-0.053793393
245	0x3d0e8ed4	0.03480418
246	0x3c01069f	0.007875114
247	0xbdb8e074	-0.09027186
248	0x3e0242ba	0.12720767
249	0xbe701cb9	-0.23448457
250	0x3b9a6c64	0.004712628
251	0x3db62f47	0.08895736
252	0x3d707879	0.05870864
253	0xbd108c47	-0.03529003
254	0xbd83ddfa	-0.06438823
255	0x3d0b9da8	0.0340859

encoder.encoder_net.0.bias f4 [128]
0	0xbfb1d805	-1.3894049
1	0x3f42bed2	0.7607242
2	0x3f5474cb	0.8299071
3	0xbf757b11	-0.9589091
4	0xbff498da	-1.9109147
5	0xbf98a296	-1.1924617
6	0x3eaa526e	0.33266014
7	0xbfe13e52	-1.7597144
8	0xbf1f1700	-0.6214447
9	0xbf9292b9	-1.1451026
10	0xbfcfd3cb	-1.6236509
11	0xbeced56d	-0.40397206
12	0xbfe5be5c	-1.7948718
13	0xbf9873cb	-1.1910337
14	0x3fa9a917	1.3254727
15	0xbf337015	-0.700929
16	0xbfe6d3e9	-1.803342
17	0xbfa094d2	-1.2545416
18	0xbf31933b	-0.6936528
19	0xbf9548cb	-1.166284
20	0xbf7fda58	-0.9994254
21	0x3fb335c6	1.4000785
22	0xbfc665db	-1.5499834
23	0xbf13c210	-0.5771799
24	0xbf5779a7	-0.8417
25	0xbf946de2	-1.1596034
26	0x3d63d53a	0.05562327
27	0x3ec87ec4	0.39159214
28	0xbecbac22	-0.39779764
29	0xbfba0423	-1.4532512
30	0x3f69f42a	0.9138819
31	0x3f3e7e9b	0.74411935
32	0xbf6ebd5f	-0.9325771
33	0xbfd1a447	-1.6378258
34	0xbfaeba0b	-1.3650526
35	0xbf36b290	-0.71366215
36	0xbf396ae0	-0.72428703
37	0xbfe7e0a9	-1.8115436
38	0x3c432fa8	0.011913218
39	0xbedf6626	-0.4363262
40	0xbfcefdf7	-1.6171254
41	0xbfef8ef5	-1.8715502
42	0x3dd56df2	0.10421361
43	0xbf8ad6c3	-1.084679
44	0xc00e3550	-2.222004
45	0xbecf6e17	-0.4051368
46	0xbf934961	-1.1506768
47	0x3eb60c9e	0.355565
48	0x3e34d8a6	0.1766077
49	0xbfb36808	-1.4016123
50	0xbeeb5b22	-0.45967966
51	0xbf491b97	-0.78557724
52	0xbe2f8300	-0.17139816
53	0x3d116dd6	0.03550514
54	0xbfb74f11	-1.4321004
55	0xbfc0ea76	-1.5071552
56	0xbfa202bd	-1.2657086
57	0xbf90e757	-1.1320599
58	0x3e22d41f	0.1590123
59	0xbe090be8	-0.13383448
60	0xbfb2bf7e	-1.3964689
61	0xbe270da3	-0.16313796
62	0xbec0d691	-0.376637
63	0xbf94b07d	-1.161636
64	0xc01f161a	-2.485724
65	0xbf9db73b	-1.2321543
66	0xbf895aff	-1.0730895
67	0x3eb3ba6f	0.35103175
68	0x3c983f82	0.01858497
69	0xbf4d9312	-0.80302536
70	0xbfb13ef9	-1.3847343
71	0x3f103f11	0.5634623
72	0x3e39ec27	0.18156491
73	0xbfa20859	-1.2658798
74	0x3eb8fa01	0.36128238
75	0xbf94dd58	-1.1630049
76	0x3e2fb2a7	0.17157994
77	0x3f65930e	0.8967751
78	0xbe80b91b	-0.25141224
79	0xbeba4c40	-0.363863
80	0xbf9aaef3	-1.208464
81	0xbf9178b8	-1.1364965
82	0xbff91edb	-1.9462541
83	0xbf0173e8	-0.50567484
84	0xbf06a27a	-0.5259167
85	0xbf826bb3	-1.0189117
86	0xc0032589	-2.049166
87	0xbf8e24db	-1.1104997
88	0xbf53b8fc	-0.8270414
89	0x3dae37bf	0.085067265
90	0xbec0922b	-0.37611517
91	0xbe9bc37f	-0.3042259
92	0xbf233706	-0.63755834
93	0x3f55320a	0.8327948
94	0xbf6d43c1	-0.9268151
95	0xbe4067eb	-0.18789642
96	0xbfab5bdd	-1.338741
97	0x3ef37c8c	0.4755596
98	0x3eb1357d	0.3461112
99	0xbfa842c9	-1.3145381
100	0xbf9252ce	-1.143152
101	0xbf39b6b8	-0.7254443
102	0x3f23ee6b	0.6403567
103	0x3f0ca879	0.5494457
104	0x3ec33bb7	0.38131496
105	0xbe83197d	-0.25605384
106	0xbfce010e	-1.6094072
107	0xbf0dedd7	-0.5544104
108	0x3ecb1646	0.3966543
109	0xbfc6a9c5	-1.552056
110	0xbe95c069	-0.2924836
111	0x3e578d6a	0.21050039
112	0xc02330fd	-2.549865
113	0xbeb98b10	-0.3623891
114	0xbfca6323	-1.5811504
115	0xbfdceacc	-1.7259154
116	0xbe5c330f	-0.21503852
117	0xbfdb96b4	-1.7155366
118	0xbf0e7303	-0.55644244
119	0xbfbc014e	-1.4687898
120	0xbecf63d6	-0.40505856
121	0xbf248155	-0.64259845
122	0x3f2bce5e	0.67111766
123	0xbf6e00a7	-0.92969745
124	0xbf7db6d7	-0.99107116
125	0xbe90aab3	-0.28255233
126	0xbfa5793c	-1.2927623
127	0x3e4febc5	0.20304783

encoder.encoder_net.2.weight f4 [64, 128]
0	0xbe00ff20	-0.12597322
1	0x3d1b7a6b	0.037958544
2	0xbe93432f	-0.28762195
3	0xbe54682c	-0.20742863
4	0x3ced974f	0.029002814
5	0xbd6be570	-0.057591856
6	0xbd74f683	-0.059805404
7	0xbe10b8f4	-0.14133054
8	0xbd131793	-0.035911154
9	0xbd0068d2	-0.031349964
10	0xbc3e6033	-0.011619615
11	0x3cc66712	0.02421907
12	0x3d031d5c	0.03201042
13	0x3bb2b408	0.0054535903
14	0x3c01dfd7	0.007926903
15	0xbd962d69	-0.0733288
16	0x3bf04427	0.007332343
17	0x3d8e1466	0.069374844
18	0x3e3f511d	0.18683286
19	0x3d2ab404	0.041675583
20	0x3c06f108	0.008236177
21	0xbe480c61	-0.19535972
22	0xbd127c9c	-0.035763368
23	0xbe0fbc25	-0.14036615
24	0xbd939745	-0.07206587
25	0x3d4cbca0	0.049984574
26	0xbca9740b	-0.020685216
27	0xbcd73a44	-0.0262729
28	0xbdff9591	-0.124796994
29	0xbd7293e3	-0.059223067
30	0xbe21ebf3	-0.15812664
31	0x3d0d0be1	0.034435157
32	0xbdc8a2ef	-0.09796702
33	0xbd94fb81	-0.07274533
34	0x3d42f01c	0.047592267
35	0xbe402006	-0.18762216
36	0xbe0cb8a6	-0.13742313
37	0xbde345ac	-0.11097273
38	0xbe300777	-0.17190348
39	0xbda794e9	-0.08182699
40	0xbe0f12cc	-0.13972014
41	0x3ca7cac5	0.02048243
42	0x3cd279e5	0.02569289
43	0x3dc55df5	0.096370615
44	0x3d932502	0.07184793
45	0xbce799bf	-0.028271554
46	0xbd825c40	-0.063652515
47	0x3dd98291	0.10620607
48	0xbbe49671	-0.006975942
49	0xbe15e4c0	-0.14638042
50	0xbe2d6270	-0.16932082
51	0xbd8bdf07	-0.068296485
52	0x3cff7ba1	0.03118688
53	0xbe4b1a63	-0.19834284
54	0xbdbcfcf5	-0.09227935
55	0x3e3aa82b	0.18228213
56	0x3d6a7b85	0.057246704
57	0x3c92a7b8	0.01790224
58	0xbea4e054	-0.322024
59	0xbdf1b3c0	-0.11801863
60	0xbd2d534f	-0.042315777
61	0xbc74b568	-0.014935829
62	0xbda5210b	-0.08062943
63	0xbd5bfc61	-0.053707484
64	0xbd3d1ab9	-0.046168063
65	0xbdcfa53f	-0.1013894
66	0x3c5d5208	0.013508327
67	0xbe35b237	-0.17743765
68	0xbe878058	-0.26465106
69	0xbd307b0c	-0.043086097
70	0x3da49577	0.08036321
71	0x3d28a325	0.04117121
72	0xbe050541	-0.12990285
73	0xbdbef0fe	-0.09323309
74	0x3c2bf088	0.010494359
75	0xbe5e8330	-0.21729732
76	0xbe0be5ab	-0.1366183
77	0xbe390e0e	-0.18071768
78	0xbc860aec	-0.01636263
79	0xbc315d7c	-0.010825511
80	0xbdf02583	-0.11725905
81	0xbd985221	-0.0743754
82	0xbdd829ac	-0.10554823
83	0x3c76ea39	0.0150704915
84	0xbda7f616	-0.08201234
85	0x3e1c20e8	0.15246928
86	0xbd44a4e6	-0.048008822
87	0xbd22bc40	-0.03973031
88	0xbd8d7145	-0.0690637
89	0x3ca31ed4	0.019912161
90	0xbe151b6b	-0.1456124
91	0xbd373780	-0.044730663
92	0x3ddf15a4	0.108927995
93	0xbc7d89eb	-0.015474777
94	0xbd93b932	-0.072130576
95	0xbe8cd6e6	-0.27507704
96	0xbdb3815d	-0.087649085
97	0xbbec9360	-0.007219717
98	0xbbfbb438	-0.007681396
99	0xbd980888	-0.07423502
100	0x3d17b987	0.037042167
101	0xbd671425	-0.056415696
102	0xbc0b8d2e	-0.008517547
103	0xbd7cca1d	-0.061716188
104	0xbd637e83	-0.055540573
105	0xbd6e9a6c	-0.058252737
106	0xbde29bfb	-0.11064907
107	0xbe7b083f	-0.24514864
108	0xbdab6b02	-0.083700195
109	0xbe349d4c	-0.17638129
110	0xbdc4c1d7	-0.096072845
111	0xbe2a04c8	-0.16603386
112	0xbe0bf615	-0.13668092
113	0xbd82f03e	-0.06393479
114	0x3bd5e53d	0.0065275715
115	0xbcb5d8fc	-0.022198193
116	0xbe11c8bb	-0.14236729
117	0xbd917acd	-0.071035005
118	0xbe27ad2c	-0.16374654
119	0xbd86b5ae	-0.065776214
120	0xbd394244	-0.04522921
121	0xbde90510	-0.11377919
122	0xbe4323aa	-0.19056574
123	0x3e14f7d8	0.1454767
124	0x3d8a9074	0.067658335
125	0xbe0df06f	-0.1386125
126	0xbc36c5e7	-0.011155582
127	0x3d21bf0c	0.039488837
128	0xbbd16387	-0.0063900384
129	0xbda30aed	-0.07961068
130	0xbded8bf1	-0.11598957
131	0xbd3dcca2	-0.04633773
132	0xbc4d3e84	-0.012527112
133	0xbe1f7afe	-0.15574262
134	0xbd7dbda2	-0.061948426
135	0x3c9bb30c	0.019006275
136	0x3d0d2200	0.034456253
137	0xbc4dcd1f	-0.012561112
138	0xbdc455e7	-0.09586697
139	0x3d5a427c	0.05328606
140	0xbd0ed3b5	-0.03486987
141	0xbd319dfe	-0.043363564
142	0x3b8f97a3	0.00438209
143	0xbd952970	-0.07283294
144	0xb8938500	-7.0342794e-05
145	0xbdb78d19	-0.08962459
146	0xbdc31f9f	-0.095275156
147	0x3d87a2d0	0.06622851
148	0xbdb2a775	-0.08723346
149	0xbd033b9a	-0.032039262
150	0xbd8aec37	-0.06783336
151	0xbdb87f82	-0.09008695
152	0x3ad1541c	0.0015970501
153	0xbd358edb	-0.04432569
154	0xbc17f83f	-0.009275495
155	0x3ccf5613	0.025309598
156	0x3d65ced1	0.05610544
157	0xbc3ce30f	-0.011528744
158	0x3b97361c	0.0046146046
159	0xbdd10b24	-0.10207203
160	0xbd8b5f00	-0.06805229
161	0xbb8d69ba	-0.004315582
162	0x3d1acb8c	0.037791774
163	0x3c8431d7	0.016137047
164	0xbb975059	-0.0046177325
165	0xbd1a1a0e	-0.037622504
166	0xbd66a97a	-0.05631397
167	0xbd56a4bf	-0.052403208
168	0xbdd2441f	-0.10266899
169	0xbdeb0f69	-0.11477549
170	0xbd4b48a0	-0.049629807
171	0x3c0501bb	0.008118088
172	0xbd837042	-0.06417896
173	0xbd0eb2e7	-0.034838583
174	0x3d4cacfc	0.04996966
175	0xbc720cd9	-0.014773571
176	0x3d47e13d	0.04879879
177	0xbdac9033	-0.08425941
178	0x3d1fa807	0.038978603
179	0xbca72d54	-0.020407356
180	0xbb9d68ca	-0.0048037516
181	0x398dd4ab	0.00027052066
182	0xbcb42489	-0.021990078
183	0x3d324ce2	0.043530352
184	0xbde38840	-0.11109972
185	0x3c20f497	0.00982394
186	0x3d8f6db0	0.07003343
187	0xbda964e3	-0.08271196
188	0xbd9d456f	-0.07679259
189	0x3d49a016	0.049224935
190	0x3d516c18	0.051128477
191	0x3be57474	0.0070024077
192	0xbc327de5	-0.010894273
193	0xbbc55cf6	-0.0060230447
194	0x3d9b8256	0.07593219
195	0x3c3845c7	0.011247105
196	0xbd40c461	-0.04706228
197	0xbd60dd13	-0.054898333
198	0xbd1e95ce	-0.038717084
199	0x3c8d4e39	0.017249214
200	0x3c933a0d	0.017972017
201	0xbd7eba59	-0.062189434
202	0xbb4d0296	-0.003128206
203	0x3d3dc83c	0.046333537
204	0xbc2a214c	-0.010383915
205	0xbd08b0f2	-0.033371873
206	0xbde49879	-0.11161894
207	0xbbfd21ad	-0.0077249617
208	0x3cd5acd4	0.026083387
209	0xbd022eef	-0.03178304
210	0xbd976e5b	-0.073940955
211	0x3d05deab	0.032683056
212	0xbd5430fc	-0.051804528
213	0xbcb800a5	-0.022461245
214	0xbda5ecbe	-0.081017956
215	0xbd8d2bc9	-0.06893117
216	0x3c47cc27	0.01219467
217	0xbb725ba9	-0.0036980903
218	0x3d1a57c9	0.037681375
219	0x3d59774e	0.053092293
220	0x39a6cfb0	0.00031816727
221	0x3cd36e96	0.025809567
222	0x3d31ea65	0.043436427
223	0xbd450740	-0.048102617
224	0xbc17348a	-0.009228835
225	0xbdae87db	-0.08522006
226	0xbdc1ec4b	-0.094688974
227	0x3c84f8f3	0.01623199
228	0xbdbb5b8a	-0.09148319
229	0xbdcff0e0	-0.10153365
230	0xbdb49aa9	-0.088185616
231	0xbcdf7039	-0.027275192
232	0x3d7f1229	0.06227318
233	0x3dd4eab1	0.10396326
234	0xbcb0906f	-0.021553246
235	0xbd933811	-0.07188428
236	0xbc864b87	-0.016393436
237	0x3d9ccacf	0.0765587
238	0xbdfed053	-0.124420784
239	0xbcc7a72e	-0.02437171
240	0xbd025617	-0.031820383
241	0xbd231e55	-0.03982385
242	0xbccee919	-0.025257634
243	0xbd732ca2	-0.059368737
244	0xbdec674d	-0.115431406
245	0xbace5bbd	-0.0015743893
246	0xbd3c3f1a	-0.045958616
247	0x3bca1416	0.006166945
248	0x3c9bbe8d	0.01901176
249	0xbd9a530e	-0.07535373
250	0xbdd222e6	-0.102605626
251	0xbda9ef95	-0.0829765
252	0xbd0dc944	-0.03461577
253	0xbdcaf840	-0.09910631
254	0x3c4300ed	0.011902076
255	0xbb11e11b	-0.0022259417

encoder.encoder_net.2.bias f4 [64]
0	0x3e011c83	0.12608533
1	0x3e07633b	0.13221447
2	0x3f25214a	0.6450392
3	0xbdb5644f	-0.08857023
4	0xbd288670	-0.041143835
5	0x3f94d065	1.1626097
6	0xbc97c36b	-0.0185258
7	0x3f9dbde0	1.232357
8	0x3f871315	1.0552698
9	0x3dd69560	0.1047771
10	0x3f597250	0.8494005
11	0x3f68714d	0.90797883
12	0x3d85cff3	0.06533804
13	0xbd9a0195	-0.07519833
14	0x3e243003	0.1603394
15	0x3ce2302e	0.027610864
16	0x3c87c57f	0.016573666
17	0xbdf4381c	-0.119247645
18	0xbe390255	-0.18067296
19	0xbcce723e	-0.02520096
20	0xbd83f203	-0.064426444
21	0x3ea4d68a	0.3219493
22	0xbd09252d	-0.03348272
23	0x3f7a75b0	0.97835827
24	0xbdb4f54b	-0.088358484
25	0x3cfba48c	0.03071811
26	0xbe14265d	-0.1446776
27	0x3f863fd9	1.0488235
28	0xbd8037e3	-0.062606595
29	0x3fb27521	1.3941995
30	0x3f6d14d9	0.92609936
31	0x3f279291	0.6545802
32	0x3f493ff6	0.7861322
33	0xbd13cc4a	-0.036083497
34	0x3f606862	0.87659276
35	0xbd6fd9c9	-0.058557305
36	0x3fa98da9	1.3246356
37	0x3f847130	1.0347042
38	0xbdd23083	-0.10263159
39	0x3f91e91b	1.1399263
40	0xbca13213	-0.019677198
41	0xbe3a6a7a	-0.1820468
42	0x3f434ee7	0.7629227
43	0xbd102e3e	-0.03520035
44	0xbd7dfdb9	-0.062009547
45	0x3efed43e	0.49771303
46	0x3cabe596	0.020983499
47	0x3b656c7d	0.003500729
48	0xba925108	-0.0011163065
49	0x3f2785ea	0.6543871
50	0x3fb46d37	1.409583
51	0xbd9eb108	-0.0774861
52	0x3d0c5705	0.034262676
53	0x3e1547af	0.14578126
54	0x3fa15795	1.2604853
55	0x3d02cc06	0.031932853
56	0xbe044f4e	-0.12920877
57	0x3d2a7493	0.04161508
58	0xbdc4b44c	-0.096047014
59	0x3fa521f4	1.2900987
60	0x3e056ad0	0.13029027
61	0x3f86ad45	1.0521628
62	0x3e9f9f59	0.3117626
63	0xbcba5e2f	-0.022749988

encoder.encoder_net.4.weight f4 [4, 64]
0	0x3cc4c6ad	0.024020517
1	0xbb22c174	-0.0024834545
2	0xbd4d7ccc	-0.050167844
3	0xbd06654a	-0.03281144
4	0xbd99a27f	-0.07501697
5	0xbc641a72	-0.013922321
6	0x3c8bf7c3	0.017085915
7	0xbca653dd	-0.020303661
8	0x3cb88539	0.022524463
9	0xbd0b42c6	-0.033999227
10	0xbbf66621	-0.007519499
11	0x3b56d85f	0.0032782776
12	0x395e0000	0.0002117157
13	0x3cc45143	0.02396453
14	0x3d1420c9	0.03616408
15	0x3c856902	0.016285423
16	0xbb82e3ef	-0.003994457
17	0xbd9a2f7c	-0.07528588
18	0x3c959a61	0.01826209
19	0x3d845446	0.064613864
20	0xbc1c182e	-0.009527249
21	0xbd89194b	-0.066942774
22	0x3cf3fce3	0.029783672
23	0x3d74cdd3	0.0597666
24	0xbd75524b	-0.059892934
25	0xbc470806	-0.012147909
26	0xbe181c62	-0.14854577
27	0xbbbfdddf	-0.0058553065
28	0xbc5af26f	-0.013363465
29	0x3d44553f	0.04793286
30	0xbca7c1cd	-0.020478154
31	0xb8d894fd	-0.00010327434
32	0xbcddf909	-0.027096288
33	0x3c34a219	0.011024975
34	0xbd84f281	-0.064915664
35	0xbd2cf140	-0.04222226
36	0xbd73153d	-0.059346426
37	0xbcf1b979	-0.029507386
38	0xbca857f1	-0.020549746
39	0xbc8b3c06	-0.016996395
40	0xbd016866	-0.031593703
41	0x3c21105e	0.009830562
42	0xbd8b5d85	-0.06804947
43	0xbccc2bde	-0.024923261
44	0xbd7befb9	-0.061507914
45	0x3d1f8a01	0.03894997
46	0x3cd93b27	0.026517464
47	0x3d6fb34f	0.05852061
48	0xba089eca	-0.00052116497
49	0x3d4b7f66	0.049682043
50	0x3aad9be8	0.0013245316
51	0xbccb1ecf	-0.024794964
52	0xbc2ac756	-0.010423502
53	0xbd1b6ded	-0.03794663
54	0x3d1e4913	0.038643908
55	0xbcbe0bc7	-0.023198975
56	0xbc81217f	-0.015763042
57	0xbbfdbb7f	-0.0077432985
58	0x3b85b0e9	0.004079927
59	0x3cda429c	0.02664309
60	0xbc6a2948	-0.014292069
61	0x3d691179	0.05690143
62	0x39c1380e	0.00036853593
63	0xba17afe8	-0.0005786405
64	0x3cbe7a75	0.023251751
65	0x3b02f28e	0.0019981
66	0xbb934230	-0.004493974
67	0x3c83bfcb	0.016082665
68	0x3dcc249a	0.09967919
69	0x3d50a8f0	0.05094236
70	0x3ccd392d	0.025051678
71	0xbd25e0e7	-0.040497687
72	0xbce7690a	-0.028248329
73	0x3d20ca99	0.039255712
74	0x3aaa5ed1	0.0012998228
75	0xbc80e0c1	-0.015732171
76	0xbb1d1277	-0.0023967305
77	0xbc1e6157	-0.009666762
78	0x3d139c3c	0.03603767
79	0x3ca33caf	0.019926397
80	0x3c7b6607	0.015344149
81	0xbc2ac81d	-0.010423687
82	0x3c96317c	0.018334143
83	0x3b025c0c	0.001989129
84	0x3c0761a8	0.008263029
85	0x3cab1639	0.02088462
86	0x3ad0f18d	0.0015941128
87	0xbd669d62	-0.056302436
88	0xbd52c605	-0.051458377
89	0x3cbd65dd	0.023119861
90	0xbcf05917	-0.029339356
91	0x3d481f22	0.048857816
92	0x3d579ee2	0.052641757
93	0xbcc4afe2	-0.024009649
94	0xbd9d3d6e	-0.076777324
95	0xbca4b225	-0.020104477
96	0xbd7a3b81	-0.061091904
97	0x3bc54b1a	0.0060209157
98	0x3c4a031b	0.012329842
99	0xba87648b	-0.0010329647
100	0x3c9f801d	0.019470269
101	0xbcd4b515	-0.025965253
102	0x3d53b3a8	0.051685005
103	0x3d3533ab	0.044238728
104	0xbd27c302	-0.04095746
105	0xbc09212e	-0.008369727
106	0xbd0ad622	-0.03389562
107	0xbd1d1b3e	-0.03835606
108	0xbc577c3e	-0.01315218
109	0xbbb7514b	-0.0055944077
110	0x3cabcf91	0.020972999
111	0x3d1f7c23	0.038936745
112	0x3ae26990	0.0017273892
113	0xba24db8d	-0.0006288819
114	0x3ca56a2f	0.020192234
115	0xbcbee85c	-0.023304157
116	0x3bb17885	0.0054159784
117	0x3cb2ca56	0.021824997
118	0x3d0700be	0.032959692
119	0xbcb0fe18	-0.021605536
120	0x3d2251b7	0.03962871
121	0xbb3dfbf3	-0.0028989285
122	0x3c029492	0.007969992
123	0xbba21791	-0.004946657
124	0x3cb25a7c	0.021771662
125	0xbdbf7315	-0.09348122
126	0x3c42cd21	0.011889727
127	0xbb1e1cf5	-0.0024126146
128	0xba5fc649	-0.00085363217
129	0xbd1a3d2f	-0.037656005
130	0xbd1abaaa	-0.037775673
131	0x3db28033	0.08715858
132	0x3cfe3206	0.031029712
133	0xbcc6be60	-0.0242607
134	0xbd79b5a6	-0.06096425
135	0xbd808b2a	-0.062765434
136	0xbd5dbaf2	-0.054133363
137	0xbd5ad8d2	-0.053429432
138	0xbe470040	-0.19433689
139	0xbcbd32e2	-0.023095552
140	0x3c815e31	0.015791984
141	0xbd8b5201	-0.068027504
142	0xbd38a5cf	-0.045080002
143	0xbbea3a7a	-0.007148084
144	0x3dc23330	0.094824195
145	0xbde51594	-0.11185756
146	0x3df0c780	0.117568016
147	0x3d2501af	0.04028481
148	0x3dc2a5b7	0.09504264
149	0x3d021a49	0.03176335
150	0xbd526876	-0.051369153
151	0x3d7b2139	0.06131098
152	0xbd56ef0c	-0.052474067
153	0xbd132509	-0.03592399
154	0xbdfa92df	-0.12235045
155	0x3b930988	0.00448722
156	0x3d9b0ba5	0.075705804
157	0x3ba540b3	0.005043113
158	0x3bb4f1a9	0.005521972
159	0x3ca901ce	0.020630743
160	0xbd04888f	-0.032356795
161	0xbcc423fe	-0.023942944
162	0x3d4e89c1	0.05042434
163	0x3db0b37a	0.086279824
164	0xbb77317d	-0.0037718706
165	0x3cb7302f	0.022361843
166	0xbc9ec4f2	-0.01938102
167	0x3d847021	0.064666994
168	0xbd557d36	-0.052121364
169	0xbdfd754d	-0.12375889
170	0x3d476fa0	0.04869044
171	0x3dff1243	0.12454655
172	0x3df94db8	0.12173027
173	0xbc8efeb5	-0.017455438
174	0x3d716735	0.058936317
175	0x3dd8bcf6	0.105829164
176	0x3ce0b7df	0.027431427
177	0x3ca209b5	0.01978002
178	0x3c14994d	0.009069753
179	0xbba28657	-0.004959862
180	0xbd0a61be	-0.03378462
181	0x3b84b0ba	0.0040493878
182	0xbc501411	-0.012700097
183	0xbd1efb1d	-0.0388137
184	0xbd86a517	-0.06574457
185	0x3c548647	0.012971467
186	0x3dbe9c06	0.09307103
187	0xbd53a7c6	-0.051673673
188	0x3cc670d3	0.02422372
189	0x3cee764d	0.029109145
190	0x3d26f0dc	0.040757045
191	0x3c9f01ae	0.01940998
192	0x3d0c3402	0.034229286
193	0xbcb163a3	-0.021653956
194	0xbd306f38	-0.043074816
195	0xbd121624	-0.035665646
196	0xbdc96284	-0.098332435
197	0x3c38663d	0.011254844
198	0x3ce5bfeb	0.028045615
199	0xbc704d28	-0.014666833
200	0xbda9e953	-0.08296456
201	0x3dc0d8d2	0.09416355
202	0xbe589e32	-0.21154097
203	0x3d47ae52	0.04875023
204	0xbe17cb58	-0.14823663
205	0x3d3d3f69	0.04620305
206	0x3cad1392	0.021127496
207	0x3d0306b6	0.031988822
208	0x3d44b171	0.048020784
209	0xbc809c23	-0.015699452
210	0x3db4516b	0.08804592
211	0xbd886c7e	-0.06661318
212	0xbc18fec0	-0.009338081
213	0xbc64bcc8	-0.013961025
214	0x3cda27c1	0.026630284
215	0x3d93a715	0.07209603
216	0xbd94ac88	-0.0725947
217	0x3da8840e	0.082283124
218	0xbe1e3399	-0.1544937
219	0x3cf33327	0.029687477
220	0x3d2c8cd6	0.0421265
221	0xbac8d362	-0.0015321786
222	0x3d44477e	0.047919743
223	0xbcb09210	-0.021554023
224	0x3d2b0a8d	0.04175811
225	0xbdaa15da	-0.08304949
226	0x3be52ec7	0.0069941017
227	0x3d0d946e	0.03456538
228	0xbd5106a6	-0.05103173
229	0xbcbb2e2f	-0.02284917
230	0xbdef06fe	-0.116712555
231	0x3d5d9b44	0.05410315
232	0xbd8fab3b	-0.070150815
233	0x3d0ceb19	0.034403894
234	0x3cfa1bd7	0.030530853
235	0x3ca3eea0	0.020011246
236	0xbd0a1790	-0.033713877
237	0x3c3ee24a	0.011650631
238	0x3da32747	0.07966476
239	0xbce75084	-0.028236635
240	0xbca64050	-0.020294338
241	0x3c339b9b	0.010962392
242	0xbc0c2eab	-0.008556048
243	0xbd2055b1	-0.03914422
244	0xbd85b074	-0.065277964
245	0xbc25e9a7	-0.010126508
246	0xbc90dae6	-0.017682504
247	0xbbfadddf	-0.0076558436
248	0xbd7df1e2	-0.061998256
249	0x3d9f8ea0	0.077908754
250	0xbd90ce63	-0.07070615
251	0xbd8cdae4	-0.068776876
252	0xbbde71c5	-0.0067884647
253	0x3cfc5607	0.03080274
254	0xbd5d354c	-0.054005906
255	0xbe032c96	-0.12809977

encoder.encoder_net.4.bias f4 [4]
0	0xbd97c975	-0.07411472
1	0x3d9adfde	0.075622305
2	0xc00d9d72	-2.2127347
3	0xc0170216	-2.3595023

decoders.0.decoder_net.0.weight f4 [128, 2]
0	0xbf8e26cd	-1.1105591
1	0xbead4393	-0.33840618
2	0xbfafa649	-1.3722621
3	0xbef2477f	-0.47320172
4	0x3f14d2fe	0.5813445
5	0xbe9fd28f	-0.3121533
6	0xbf7b3639	-0.9812961
7	0x3f49c314	0.7881329
8	0x3f663a02	0.8993226
9	0xbee90ed5	-0.45519128
10	0xbf4cee76	-0.8005136
11	0x3ec80ae1	0.390708
12	0xbf3a2da5	-0.727259
13	0xbf8538ca	-1.0407956
14	0x3f14d474	0.5813668
15	0xbf87e99e	-1.0618169
16	0xbef9913a	-0.48743612
17	0xbfe3a49e	-1.7784612
18	0x3f5b38bc	0.85633445
19	0xbe625b5b	-0.22105162
20	0x3f50e770	0.81603146
21	0x3c97c398	0.018525884
22	0x3f375862	0.71619236
23	0xbf3e0947	-0.74232906
24	0x3f486397	0.7827696
25	0xbf818cff	-1.0121154
26	0x3f029f0a	0.51023924
27	0xbff9492e	-1.9475458
28	0x3da695e2	0.08134057
29	0x3f35f789	0.71080834
30	0xbee47f02	-0.4462815
31	0xbf58118f	-0.8440179
32	0x3d82df80	0.063902855
33	0x3e89290d	0.26789132
34	0x3f316521	0.69294935
35	0x3f0dc6e8	0.5538163
36	0x3e81d01b	0.25354084
37	0x3f73ea14	0.9527905
38	0xbfc34a98	-1.5257139
39	0x3e2a0247	0.16602431
40	0xbe0564d8	-0.1302675
41	0xbfa03ae8	-1.2517977
42	0xbec601a6	-0.38673133
43	0x3fee7726	1.8630111
44	0xbf87bd1c	-1.0604587
45	0xbf958cff	-1.1683654
46	0xc00fad89	-2.2449667
47	0xbf5a2286	-0.8520893
48	0x3f3fefba	0.7497517
49	0x3e8ed052	0.2789331
50	0x3eb28485	0.3486673
51	0xbf1db0b0	-0.6159773
52	0x3f3a2906	0.72718847
53	0x3f08da1a	0.53457797
54	0x3f4b255b	0.79353875
55	0x3e15902d	0.1460578
56	0xbfb10426	-1.3829391
57	0x3e9e5167	0.3092148
58	0xbfa5c949	-1.2952052
59	0x3e30a9d5	0.17252286
60	0xbddff892	-0.10936083
61	0x3f848679	1.0353538
62	0xbe33f936	-0.17575535
63	0xbf3f024c	-0.7461288
64	0xbec08e8c	-0.37608755
65	0xbfc19a62	-1.5125239
66	0x3f676ec8	0.90403414
67	0x3f443f77	0.7665934
68	0xbca95984	-0.020672567
69	0x401de458	2.467062
70	0x3f1e43ca	0.6182219
71	0x3c479737	0.0121820485
72	0xbf8ceb22	-1.1009257
73	0x3fc41380	1.5318451
74	0x3f191f59	0.5981346
75	0x3f575a16	0.84121835
76	0x3ed25584	0.41080868
77	0x3f0ba2f8	0.54545546
78	0xbf5f57f8	-0.87243605
79	0x3f485a55	0.78262836
80	0xbf2605a6	-0.6485237
81	0xbf1f8479	-0.6231151
82	0xbde6c1eb	-0.11267456
83	0xbf8ef24a	-1.1167691
84	0xbe511f3b	-0.2042207
85	0xbfe75df6	-1.807555
86	0xbe62e5d9	-0.22157992
87	0x3da5d0bf	0.08096456
88	0xbf21159d	-0.62923604
89	0x3f174b06	0.5909885
90	0xbf6a79d2	-0.91592133
91	0xbf2c591c	-0.6732347
92	0xbf5060f5	-0.81397945
93	0xbec15ec8	-0.37767625
94	0xbf1ccc21	-0.61248976
95	0x3fb2a402	1.3956301
96	0xbe3e4120	-0.1857953
97	0x3c139457	0.009007535
98	0x3e9cc36c	0.30617845
99	0x3eec3947	0.4613745
100	0xbe6a0d5d	-0.2285666
101	0x3f1e4e81	0.6183854
102	0x3f97520e	1.1821916
103	0xbfb5bdce	-1.4198549
104	0x3f70ac2c	0.94012713
105	0x3e0c0480	0.13673592
106	0xbf1997eb	-0.59997433
107	0x3ecde664	0.40214837
108	0x3f56fc39	0.8397861
109	0x3ea3049c	0.31839454
110	0x3e4a871a	0.197781
111	0xbfd565a0	-1.6671638
112	0xbe234d97	-0.15947567
113	0x3f67184d	0.90271455
114	0x3be0f82f	0.0068655233
115	0x3eb3c76e	0.3511309
116	0xbf7380bf	-0.95118326
117	0x3f748f2e	0.95530975
118	0xbe06ce63	-0.13164668
119	0x3fb7ae1f	1.4350013
120	0x3e882004	0.26586926
121	0xbfd24bc7	-1.6429375
122	0x3b995ae6	0.0046800254
123	0xbd4c2194	-0.04983671
124	0x3e943ce4	0.28952706
125	0x3b4bf303	0.0031120188
126	0x3eefbd62	0.46824175
127	0xbf024c1d	-0.5089739
128	0x3ef4fdd9	0.4784992
129	0x3f08c6ff	0.53428644
130	0x3f67645a	0.903875
131	0xbda9ed6e	-0.08297239
132	0xbeecdf14	-0.46263945
133	0x3faaff25	1.3359114
134	0x3f477cae	0.7792462
135	0x3eb8e840	0.36114693
136	0xbf6d4c34	-0.926944
137	0xbf376dc3	-0.7165186
138	0xbf20abc5	-0.627621
139	0xc0047e8a	-2.0702233
140	0xbf677fd9	-0.90429455
141	0x3f86d7d6	1.0534618
142	0xbe98d21d	-0.29847804
143	0xbf786872	-0.9703437
144	0xbfa42cb0	-1.2826138
145	0xbf98978e	-1.1921251
146	0x3ef119fb	0.47090134
147	0xbe644370	-0.2229135
148	0x3f6c40da	0.92286456
149	0x3f1c7870	0.61121273
150	0xbf30d58d	-0.6907585
151	0x3f2e967d	0.68198377
152	0x3f81f009	1.0151378
153	0x3e3d74f8	0.18501651
154	0xbf7713f9	-0.9651485
155	0x3f410620	0.7539997
156	0x3eca6610	0.39530993
157	0x3ef86d20	0.48520756
158	0x3f24f121	0.64430434
159	0x3f2861f7	0.6577448
160	0x3f603fb3	0.875972
161	0x3ea64382	0.3247338
162	0xbfaf4a5f	-1.3694571
163	0x3f0116e2	0.5042554
164	0x3d00e6c9	0.031470094
165	0x3fa5570d	1.2917191
166	0xbec975c8	-0.39347672
167	0xbf12333c	-0.5710943
168	0xbf601015	-0.8752454
169	0xbf517954	-0.8182576
170	0x3e7c593e	0.24643418
171	0x3f40fc6b	0.7538516
172	0xbeeea868	-0.4661286
173	0x3f831e0f	1.0243548
174	0x3f27f5d6	0.6560949
175	0xbd4a2e38	-0.049360484
176	0x3e04c753	0.12966661
177	0x3da19794	0.07890239
178	0xbf6fe6ff	-0.9371185
179	0x3ef7cec5	0.4839994
180	0xbf8887eb	-1.0666479
181	0x3f9d3f8f	1.2285022
182	0x3f46a6d2	0.775983
183	0x3f8dc79b	1.107654
184	0x3f004c71	0.5011664
185	0x3f2a77bf	0.6658897
186	0xbe44b999	-0.19211425
187	0xbfe6e943	-1.8039936
188	0xbf5c99ae	-0.86171997
189	0x3ecd6f3d	0.4012393
190	0x3ee1de79	0.44115046
191	0xbd0fd635	-0.035116393
192	0x3f1bf7f5	0.6092523
193	0xbdc0525b	-0.09390708
194	0x3f25f2d2	0.6482364
195	0x3ef7d7d1	0.48406842
196	0xbfac15cb	-1.3444151
197	0xbdf50414	-0.119636685
198	0x3e556882	0.20840648
199	0xbf3ed805	-0.7454837
200	0x3f45f77a	0.77330744
201	0xbdc30257	-0.09521931
202	0x3f1c03ee	0.60943496
203	0x3eab602e	0.33471817
204	0x3f06a873	0.52600783
205	0x3f3e803f	0.7441444
206	0xbeee4560	-0.46537304
207	0x3f42b4ab	0.7605693
208	0x3f2fdbb8	0.6869464
209	0x3e0207ca	0.12698284
210	0x3f324a34	0.69644475
211	0xbf62bde0	-0.88570976
212	0xbf18be96	-0.5966581
213	0xbf8ac33b	-1.084083
214	0x3ebb1238	0.36537337
215	0x3eedd3e8	0.46450734
216	0xbf6d227e	-0.92630756
217	0xbf5fc637	-0.87411827
218	0x3f2f83aa	0.6856028
219	0xbe89c0a5	-0.2690479
220	0xbe30a30b	-0.17249696
221	0xc0311ce8	-2.7673893
222	0x3efef301	0.49794772
223	0x3eff6573	0.49882087
224	0xbcb87c0a	-0.022520084
225	0x3f332ffd	0.699951
226	0xbf590d73	-0.84786147
227	0xbfb2c001	-1.3964845
228	0x3dd3597e	0.10319804
229	0x3ee12369	0.43972328
230	0x3e857465	0.26065364
231	0xbea2117a	-0.3165396
232	0xbf8e0c0f	-1.109743
233	0xbddc5d95	-0.10760037
234	0x3f1af082	0.60523236
235	0xbe96a73e	-0.2942447
236	0x3f54ed06	0.8317417
237	0x3e99de36	0.30052346
238	0x3e79a6fd	0.24380107
239	0x3ecec60d	0.40385476
240	0xbfc7d6c2	-1.5612414
241	0x3e6fbaa1	0.23411037
242	0x3f2e2f73	0.6804115
243	0xbe1c8b05	-0.15287407
244	0x3f1d57a0	0.6146183
245	0xbf1cad49	-0.6120191
246	0x3ed2f510	0.41202593
247	0xbf422750	-0.75841236
248	0xbfdfd2fe	-1.7486265
249	0x3ebb1110	0.36536455
250	0x3f70c2cb	0.9404723
251	0xbf21574f	-0.6302385
252	0xbe8d63e3	-0.2761527
253	0x3e65c388	0.2243787
254	0x3ec53dfe	0.3852386
255	0xbfa6bbf0	-1.3026104

decoders.0.decoder_net.0.bias f4 [128]
0	0x3f1e47f4	0.6182854
1	0xbf3f6c2a	-0.7477442
2	0x3f680f45	0.906483
3	0x3f12451c	0.571367
4	0xbf3ed431	-0.7454253
5	0x3f24198d	0.6410149
6	0x3ed0b41c	0.40762413
7	0xbf0b84f1	-0.5449973
8	0xbe9c5198	-0.30531
9	0xbdf500cc	-0.119630426
10	0xbf3be11c	-0.73390365
11	0x3f410e59	0.7541252
12	0xbf257963	-0.64638346
13	0xbedbe9ab	-0.42951712
14	0x3ef96a39	0.48713854
15	0x3f70dc81	0.9408646
16	0x3e9fd383	0.31216058
17	0xbf3c3a0b	-0.73526067
18	0x3db2b8d9	0.08726663
19	0xbf443c2e	-0.76654327
20	0x3dabfc69	0.08397753
21	0xbf195715	-0.598985
22	0xbeca7d4b	-0.39548716
23	0xbeb37114	-0.3504721
24	0xbf886b49	-1.0657741
25	0x3ee6acd6	0.45053738
26	0xbf2ef635	-0.6834443
27	0xbe582376	-0.21107277
28	0x3f07d852	0.53064454
29	0xbf134b0f	-0.57536405
30	0x3d9df9c4	0.07713655
31	0x3e697339	0.2279786
32	0xbe369648	-0.17830765
33	0x3e604039	0.21899499
34	0xbefec61a	-0.49760514
35	0xbf100b3f	-0.5626716
36	0xbf739905	-0.95155364
37	0xbea899d7	-0.3292987
38	0x3f3e21cd	0.74270326
39	0x3f6d58b8	0.927135
40	0x3f59222b	0.8481776
41	0x3da38407	0.079841666
42	0x3df7c3ff	0.1209793
43	0x3e9cc040	0.30615425
44	0x3f172e79	0.59055287
45	0x3f492725	0.78575355
46	0x3f81efa2	1.0151255
47	0xbf414a3e	-0.7550391
48	0x3f346e7a	0.70481074
49	0x3f12f8be	0.574108
50	0x3f01a880	0.50647736
51	0xbf650bc2	-0.89471066
52	0x3f026dc3	0.50948733
53	0x3f1988e4	0.59974504
54	0xbf98dcef	-1.1942424
55	0xbf73e8f8	-0.9527736
56	0x3dcf06c0	0.10108709
57	0x3f0bd74f	0.5462541
58	0xbc76cffa	-0.015064234
59	0xbf2c375d	-0.6727198
60	0xbdefa131	-0.11700667
61	0x3effbc9c	0.49948585
62	0xbe88e3eb	-0.26736388
63	0x3ede831d	0.43459406
64	0xbea85f13	-0.32885036
65	0x3c233de9	0.009963491
66	0x3f1e43c4	0.6182215
67	0x3c0aeb3d	0.008478937
68	0xbe38cf7c	-0.18047899
69	0xbd7ef85c	-0.062248573
70	0xbe18472c	-0.148709
71	0x3ea5f3a0	0.32412434
72	0xbed1a61c	-0.40947044
73	0x3f3a1a70	0.7269659
74	0x3ee0c9c5	0.43903938
75	0x3f0c5444	0.5481608
76	0x3f1d8765	0.6153472
77	0x3e7d2faf	0.24725221
78	0xbf0c5f20	-0.5483265
79	0xbef27a80	-0.47359085
80	0xbf9d7baf	-1.230337
81	0x3dbc0173	0.09179964
82	0xbf4a4da1	-0.790247
83	0x3f3ae148	0.73
84	0xbe94b45b	-0.2904385
85	0x3f76b123	0.9636404
86	0x3eba020a	0.3632968
87	0x3f05e07e	0.5229567
88	0x3f3b08b9	0.73060185
89	0x3f56037a	0.83599055
90	0xbe5497b5	-0.20760997
91	0x3e7624c9	0.2403747
92	0xbe6fe885	-0.23428543
93	0x3df451a3	0.119296335
94	0x3f90a1ef	1.1299418
95	0x3f2ea137	0.68214744
96	0x3f6ea3bb	0.9321858
97	0x3e9397e2	0.28826815
98	0xbded2eac	-0.115811676
99	0x3f430275	0.76175624
100	0x3f1fafcd	0.62377626
101	0xbf58686a	-0.84534323
102	0xbe9617e5	-0.29315105
103	0x3ef8ef4c	0.4862007
104	0xbe35d06c	-0.17755288
105	0xbf227a9e	-0.6346835
106	0xbf58c4b3	-0.8467514
107	0x3f29ecfa	0.6637722
108	0xbf66237f	-0.8989791
109	0xbeca11c1	-0.3946667
110	0x3e4646c4	0.19362932
111	0x3f557476	0.8338083
112	0x3df5b27a	0.11996932
113	0xbe805e39	-0.25071886
114	0x3f08a157	0.53371185
115	0x3f4bc77b	0.7960126
116	0x3f7166b2	0.94297326
117	0x3f6d0a3b	0.92593735
118	0xbf975582	-1.182297
119	0x3eb36107	0.35034963
120	0xbf8a7c52	-1.081919
121	0xbf74d151	-0.9563189
122	0x3f28e021	0.65966994
123	0x3ee97629	0.45597962
124	0x3eb03dbd	0.34422103
125	0xbedb3cc0	-0.42819786
126	0x3f034187	0.5127186
127	0x3e89ce88	0.26915383

decoders.0.decoder_net.2.weight f4 [128, 128]
0	0x3cddfa21	0.02709681
1	0xbd324539	-0.043523047
2	0xbd889ca2	-0.066705
3	0xbcbf27f8	-0.023334488
4	0xbc90fec6	-0.01769961
5	0xbdaf1fa1	-0.085509546
6	0x3c786052	0.015159683
7	0xbdb22973	-0.08699312
8	0xbd9f4bcc	-0.07778129
9	0xbdb922ff	-0.09039878
10	0xbd8f5a3e	-0.06999634
11	0xbd9824b0	-0.074288726
12	0xbcc5c07e	-0.024139639
13	0x3d27f8c6	0.041008733
14	0xbd415c97	-0.04720744
15	0x3d4d9ff4	0.05020137
16	0x3ceae738	0.028674707
17	0x3cd9e609	0.026598947
18	0x3db775b8	0.08958
19	0x3c43bf9d	0.01194754
20	0x3c5170d0	0.012783244
21	0x3cc706e9	0.024295287
22	0xbcfead87	-0.031088604
23	0x3c737b39	0.014860922
24	0xbd0dec64	-0.034649268
25	0xbccbdca5	-0.024885485
26	0xbb7fc0d5	-0.003902485
27	0xbca1bf11	-0.019744428
28	0xbda6ee51	-0.08150924
29	0xbb94f61b	-0.0045459396
30	0x3cd7c596	0.026339334
31	0x3d648a77	0.055796113
32	0xbd9d4b0f	-0.07680332
33	0xbdb02284	-0.08600333
34	0xbcf011bb	-0.02930533
35	0x3b8e26dc	0.0043381285
36	0x3da3dabf	0.08000707
37	0x3d923508	0.07139021
38	0xbda61229	-0.081089325
39	0xbd325b9b	-0.043544393
40	0xbdc82f35	-0.09774629
41	0xbd171ed5	-0.036894638
42	0xbdb0b331	-0.08627928
43	0x3cbfe503	0.023424631
44	0xbd6cadb7	-0.057782855
45	0x3d8cab40	0.06868601
46	0x3bf9074b	0.0075997463
47	0x3d9b0fc0	0.075713634
48	0x3d5f3c68	0.054500967
49	0xbcfa9b20	-0.030591547
50	0xbc8b2ad4	-0.016988195
51	0x3d707836	0.058708392
52	0x3b476c4d	0.0030429543
53	0xbdc8af43	-0.097990535
54	0x3c946975	0.018116692
55	0xbdbada52	-0.091236725
56	0xbd050f38	-0.032485217
57	0xbd285e01	-0.041105274
58	0xbd9e5f36	-0.07733004
59	0xbc92ca3a	-0.017918695
60	0x3cee838c	0.02911546
61	0xbd373e6f	-0.044737276
62	0xbd7325b3	-0.059362125
63	0x3c831f25	0.016006062
64	0x3d344c70	0.04401821
65	0xbc1fefeb	-0.009761791
66	0x3d655b6a	0.055995382
67	0xbc4ecc1a	-0.012621904
68	0xbd8e48ca	-0.06947477
69	0x39cb730f	0.00038804903
70	0x3d88d575	0.06681339
71	0x3d4e44e0	0.050358653
72	0x3da15005	0.07876591
73	0xbce5fb6f	-0.028073994
74	0xbdc15a55	-0.094410576
75	0xbd52f4d6	-0.051503025
76	0x3d8b563d	0.06803558
77	0xbdae6848	-0.08515984
78	0x3ca6f79a	0.020381738
79	0xbd591cee	-0.053006105
80	0xbdaf8f46	-0.08572249
81	0x3ce96499	0.028490352
82	0x3d5ef6ea	0.054434694
83	0xbdb1fe54	-0.08691087
84	0xbc3b711b	-0.011440541
85	0xbd13bd4a	-0.036069192
86	0x3d17ad6a	0.037030615
87	0xbcca4a0d	-0.024693513
88	0xbdb9fa8b	-0.090809904
89	0xbd9ce430	-0.07660711
90	0x3c095764	0.008382652
91	0x3d6d190d	0.05788522
92	0x3d124ed7	0.03571972
93	0xbda76a05	-0.081745185
94	0x3d54dcb6	0.0519683
95	0x3d3f3f5b	0.04669128
96	0x3ba08496	0.004898618
97	0xbc287a63	-0.0102830855
98	0xba83d13f	-0.0010056867
99	0x3d9595f1	0.0730399
100	0x3d8fe103	0.070253395
101	0xbc41493c	-0.011797246
102	0xbda492a1	-0.0803578
103	0x3d5b2b7f	0.053508278
104	0xbd2a5cd5	-0.041592438
105	0x3d93657d	0.07197092
106	0xbc3ef9fe	-0.0116562825
107	0x3d343616	0.043996893
108	0x3d64aded	0.05582993
109	0xbd67a451	-0.05655319
110	0xbdb1a421	-0.08673883
111	0xbd9312b1	-0.071812995
112	0x3d9d986d	0.076950885
113	0xbc0976b7	-0.00839012
114	0x3d2a9fa6	0.04165616
115	0xbdb420ff	-0.08795356
116	0x3d1c3bd0	0.03814298
117	0xbd47b484	-0.048756137
118	0xbd6019fa	-0.054712273
119	0x3cb3597a	0.021893252
120	0xbd066371	-0.03280968
121	0xbc8c8d2d	-0.017157162
122	0xbda73892	-0.08165087
123	0x3d24f8fa	0.040276505
124	0xbd6a4dbe	-0.057203047
125	0x3d209856	0.03920778
126	0x3c98aa11	0.018635781
127	0xbd8e1953	-0.06938424
128	0x3e34c201	0.17652132
129	0xbf0b15d4	-0.5433018
130	0xbd37d77c	-0.044883236
131	0x3e0a2967	0.13492356
132	0xbc3106f0	-0.010804877
133	0x3d63bbfc	0.055599198
134	0xbce31894	-0.02772168
135	0xbd3c307f	-0.045944687
136	0x3de027bf	0.10945081
137	0x3dea141d	0.114296176
138	0xbd0e2c22	-0.034710057
139	0x3d2a1221	0.041521195
140	0xbdc21663	-0.09476926
141	0x3ccea924	0.025227137
142	0x3ccc2f7a	0.024924982
143	0xbdcbd7f7	-0.099533014
144	0x3d103190	0.035203516
145	0x3df98425	0.12183408
146	0xbadb16d1	-0.0016715174
147	0xbeaebd00	-0.3412857
148	0xbcf60090	-0.030029565
149	0xbd3c9636	-0.04604169
150	0x3e7a707d	0.24456973
151	0xbed2a8d3	-0.41144428
152	0xbe0f60fa	-0.14001837
153	0xbdeabb46	-0.11461501
154	0xbb6a0108	-0.003570618
155	0x3dd7e334	0.105413824
156	0x3e26689b	0.16250841
157	0xbea877ca	-0.32903892
158	0xbd1b4eb3	-0.03791685
159	0x3c839c58	0.016065761
160	0x3e095905	0.13412865
161	0x3dc3780b	0.09544381
162	0x3d9bbf31	0.07604826
163	0xbd802616	-0.06257264
164	0xbea939ce	-0.33051914
165	0x3d9aab91	0.07552255
166	0x3d33bd60	0.043881774
167	0x3df748d5	0.120744385
168	0x3c97f802	0.018550877
169	0x3e01d784	0.12679869
170	0xbd7c2e32	-0.061567493
171	0xbe023cff	-0.1271858
172	0x3e2c1beb	0.16807525
173	0x3cb09b74	0.0215585
174	0x3ca2d499	0.019876765
175	0xbe407d0f	-0.18797706
176	0xbdc7ba51	-0.09752334
177	0xbb0089e3	-0.0019613437
178	0xbdbebc05	-0.09313206
179	0xbda0db2f	-0.07854306
180	0xbdc8d28b	-0.09805783
181	0x3da126ed	0.07868753
182	0xbe1b2056	-0.15149054
183	0x3c559a59	0.013037288
184	0x3da83a85	0.08214287
185	0x3d9246d4	0.07142416
186	0x3c9b86c8	0.018985167
187	0xbe1268d0	-0.14297795
188	0x3d8b177b	0.06791588
189	0xbdce4898	-0.1007244
190	0xbe77a944	-0.24185663
191	0xbcd3ec9b	-0.025869658
192	0x3dadeeef	0.084928386
193	0x3da23419	0.07920093
194	0x3dae73b7	0.085181646
195	0x3d811178	0.0630216
196	0x3cb2482d	0.021762932
197	0x3d735a6b	0.0594124
198	0x3d169a76	0.0367684
199	0x3dede45b	0.11615821
200	0x3d0fe875	0.035133798
201	0x3c968cc6	0.018377673
202	0xbd9faaf1	-0.07796276
203	0x3d89fcd4	0.06737676
204	0xbd5e55d2	-0.054281063
205	0xbd425ee3	-0.047453772
206	0xbda0c6ea	-0.0785044
207	0x3e1a62b2	0.15076712
208	0xbd5955e5	-0.05306043
209	0x3e943997	0.28950188
210	0xbd8c1514	-0.06839958
211	0xbdb19ab0	-0.086720824
212	0x3e6df05f	0.23236226
213	0x3d64e438	0.05588171
214	0x3cfbec63	0.030752366
215	0xbdb8a8a5	-0.090165414
216	0xbcb1c8f9	-0.021702277
217	0x3ddc075d	0.10743592
218	0xbcecc323	-0.028901642
219	0x3d6e94cf	0.058247384
220	0x3cd49928	0.025951937
221	0x3e348823	0.17630057
222	0xbe1d5a4f	-0.15366481
223	0xbd31a1c4	-0.043367162
224	0xbdb054c8	-0.08609921
225	0x3d8fcefb	0.070219
226	0xbd55aef6	-0.05216881
227	0x3d299b35	0.041407783
228	0x3d8b1428	0.06790954
229	0xbd8576b3	-0.06516781
230	0x3dcfeabb	0.10152193
231	0xbd053520	-0.032521367
232	0x3e15fbea	0.14646879
233	0x3d18fca6	0.03735032
234	0x3e6914e2	0.22761872
235	0xbcb8563c	-0.022502057
236	0x3d42a254	0.04751809
237	0x3ca34aa3	0.01993305
238	0x3e3b4aef	0.18290304
239	0x3ceaf535	0.028681377
240	0xbc7f45be	-0.015580593
241	0x3e1c5e11	0.15270258
242	0x3daf6028	0.08563262
243	0x3d708c32	0.05872745
244	0xbd6a525e	-0.057207458
245	0xbcc2022c	-0.023682676
246	0xbd5f73d7	-0.054553833
247	0x3da421a5	0.0801423
248	0xbd820390	-0.06348336
249	0xbf042093	-0.51612204
250	0xbdc4b669	-0.096051045
251	0x3d002540	0.031285524
252	0x3db75b43	0.08952954
253	0xbb56119d	-0.0032664307
254	0xbdb13b63	-0.08653905
255	0xbc645ec3	-0.013938609

decoders.0.decoder_net.2.bias f4 [128]
0	0x3d1fcaaf	0.039011654
1	0x3c40b6f2	0.011762368
2	0x3c3962cb	0.011315058
3	0x3d0a2ba3	0.03373302
4	0xbd836c0a	-0.06417091
5	0xbd856491	-0.06513322
6	0x3dad5a1d	0.08464453
7	0xbc81d88c	-0.015850328
8	0x3d786a65	0.06064834
9	0xbc4d15fb	-0.012517448
10	0x3d1bc064	0.038025275
11	0xbdb1ff43	-0.086912654
12	0xbd226bec	-0.039653704
13	0x3e10acc7	0.1412841
14	0x3d23e704	0.040015236
15	0x3df5ddf7	0.12005227
16	0x3dfbdbb8	0.122977674
17	0x3d9e41c4	0.077273875
18	0x3d396b53	0.045268368
19	0x3d24c529	0.04022709
20	0x3e128528	0.14308608
21	0x3dab33fd	0.08359525
22	0x3d1255f4	0.035726503
23	0x3d868d56	0.065699264
24	0x3e01d26d	0.12677927
25	0xbcd2d060	-0.025734127
26	0xbd8dc5b2	-0.06922473
27	0x3e0a2d3b	0.13493817
28	0xbc1b41c5	-0.00947613
29	0x3e867804	0.2626344
30	0x3d35d2f0	0.04439062
31	0x3bd79f3b	0.006580261
32	0xbc86a4e6	-0.016436052
33	0x3ccd6aab	0.025075277
34	0x3d0b5f9f	0.03402674
35	0x3d9c996e	0.07646452
36	0x3da20a83	0.07912161
37	0x3d545ebb	0.051848155
38	0x3d3021a7	0.043000843
39	0x3dcdd93f	0.10051202
40	0x3d518d65	0.051160235
41	0xbcdeec33	-0.027212238
42	0x3d966487	0.07343393
43	0x3db06345	0.08612684
44	0xbc948cd5	-0.01813356
45	0x3d335157	0.043778744
46	0xbc661c72	-0.014044868
47	0x3cf06130	0.029343218
48	0x3a6d7d07	0.0009059463
49	0x3b67ba7f	0.0035358963
50	0x3e0a44a5	0.13502748
51	0xbc5d8de6	-0.013522601
52	0x3cf13be1	0.029447498
53	0x3e4e03a0	0.2011857
54	0xbca5498e	-0.020176675
55	0x3c5a85c5	0.013337557
56	0xbdd12579	-0.102122255
57	0x3d5e0c99	0.054211233
58	0xbd895ee0	-0.06707549
59	0x3d8a97f2	0.067672625
60	0x3dcac305	0.09900478
61	0x3e27fae1	0.16404296
62	0xbdcc9aa6	-0.09990434
63	0x3d2b24fe	0.041783325
64	0xbafe4b3e	-0.0019401086
65	0x3defa637	0.11701625
66	0x3c341334	0.0109909065
67	0x3e4cec88	0.20012105
68	0x3e34aa88	0.17643178
69	0xbee519be	-0.44746202
70	0xbd0edc20	-0.034877896
71	0x3bb24c99	0.00544126
72	0x3e78c269	0.24292912
73	0x3dea0e0f	0.11428463
74	0x3c959f5b	0.018264463
75	0x3d692124	0.05691637
76	0x3dd4c9c3	0.103900455
77	0xbdca9c82	-0.09893133
78	0x3cc9a937	0.02461682
79	0x3e457c9b	0.19285814
80	0x3ccdbf62	0.025115672
81	0x3e192a62	0.14957574
82	0xbc6d6837	-0.014490179
83	0x3e88464b	0.2661613
84	0xbda1e0a3	-0.07904174
85	0xbc3d6c91	-0.011561529
86	0xbd223074	-0.03959699
87	0x3d6e9c86	0.05825474
88	0x3e0ffebd	0.14062019
89	0xbc8be449	-0.017076628
90	0xbd59aa2e	-0.05314081
91	0xbd8fde8e	-0.07024871
92	0x3d48ccc6	0.049023412
93	0x3d5b6689	0.053564582
94	0x3d9233a1	0.07138754
95	0x3d92156c	0.07132992
96	0x3e0ccf35	0.13750918
97	0x3dc24ef0	0.094877124
98	0x3d7e16fc	0.06203364
99	0xbd3595ff	-0.0443325
100	0x3d2d1841	0.04225946
101	0x3e066cc8	0.13127434
102	0xbdabaec4	-0.08382943
103	0x3d8727bd	0.06599376
104	0x3d8de7cb	0.069289766
105	0xbd833080	-0.06405735
106	0x3e032ff5	0.12811263
107	0xbd2d981f	-0.042381402
108	0x3d179924	0.03701128
109	0x3c118100	0.008880854
110	0x3c62ec5d	0.013850299
111	0x3d9c7c1c	0.076408595
112	0x3d96fc34	0.07372323
113	0x3e130ce0	0.1436038
114	0xbd3a76a5	-0.045523304
115	0xbdce7ed2	-0.10082783
116	0x3da5f2ce	0.08102952
117	0xbd046da9	-0.032331143
118	0x3e1ce6b6	0.15322384
119	0x3da7337a	0.08164115
120	0x3d9d1e5d	0.07671807
121	0x3ea93810	0.33050585
122	0xbd5298e0	-0.051415324
123	0xbca5b7a3	-0.020229166
124	0x3d8ce0b2	0.06878795
125	0xbcb55714	-0.022136249
126	0x3e239c68	0.15977633
127	0x3d7fb335	0.062426765
