experiment_dscale_0.1/decoder_9_seed12.pt (torch, 96226 bytes, 6 tensors)

decoder_net.0.weight f4 [128, 2]
00000000: 8d23 45bf 7843 ed3e e1f9 40bf a987 5bbf
00000010: 2e56 d13e adff adbd a254 3f3f affd 14bf
00000020: b8b5 163f 4cea 06bf ba5c 27be dafb 6abf
00000030: ca1d f63d dc9e 7a3f d0d9 28bf 6848 38bf
00000040: 20b5 0c3f 2c7c ee3b 5bda 25bf d84f 6fbe
00000050: 32f0 d13e 5b19 393f 5d98 10bf e70f dabc
00000060: 52c0 cabe f334 3dbf fa43 c5be 8d08 36bf
00000070: 01b3 7cbf a142 c1be cc04 323f b489 36bf
00000080: 3abf d83e 9972 4cbf c9f6 803e 8712 2bbf
00000090: c6bf e13d 94a8 503f 4747 18bf a8fe c23e
000000a0: de1c f6be 2ad9 e3bc a19c 7cbe 04c6 febe
000000b0: 1d5c 1c3f 0153 453f aadc f73e 0fcf 403f
000000c0: 36b2 4ebf 7267 ff3e 0957 713f a5ca 0b3e
000000d0: 9570 3cbf e702 18bf 6928 c4be d8d6 0e3f
000000e0: 1705 be3e 4834 3e3e d431 69bf 352f 21bd
000000f0: 29fb d0be 00ba 403f 1190 353f 6f77 38bf
00000100: cb1c 233f 95f1 ba3d 4d23 0b3f 26ec eebd
00000110: 00b8 cb3d 96f9 713f 7742 8dbe 57a6 523f
00000120: 7e61 f6be 8678 54bf 6c84 9d3e 959d 0b3f
00000130: 9f24 e9be d348 54bf 5a8b d23d b334 7a3f
00000140: fa65 1bbf 770f 413f 27b7 b5be 5e4a 28bf
00000150: 938c 39bf 984a 06be 3cfd 30bf 8851 b83e
00000160: 454f 8abe 4e38 03bf 289e 2c3e 8f02 01bf
00000170: 561a 0abf 5111 81bf 4f6c 553f feb3 14bf
00000180: f0cb a83f 7130 31bf 57fc 0ebf 9d00 843f
00000190: df17 64be 0538 dbbe c0a3 21bf a411 303d
000001a0: 91a2 803e e12b d23e 7293 503f 1b0e 2d3f
000001b0: 3a72 d7be 6709 273f d8c8 3f3f 0e63 04bf
000001c0: d5fe 81be 2105 fdbe a5b2 dbbe cdf4 42bf
000001d0: 9640 3bbf 4afd 16be 8c72 2abf 38ce 353d
000001e0: fafe 0c3f de3a 243f c04f 733e 1c9e d73e
000001f0: dd38 323e 1729 b8be a8e2 c6be b263 8e3e
00000200: e1ab 19bf e34f 8e3f e74e 07bf 1a7f 6a3f
00000210: cf0c ffbd 1f1b 7cbf 7439 21be be17 afbe
00000220: 3794 63bf dec0 25bf a6bf 2c3e ca6b f0be
00000230: 3ebb 0cbf 17e7 8e3e f4d5 1b3f 4705 3c3f
00000240: 9bcf 953f 8731 2c3e 8a58 79be 3309 363f
00000250: 6abc 083f 105b 81bf f4b6 fa3e 5500 ecbe
00000260: 8f84 3b3f e303 5a3f 62e3 b23e 67e1 1c3f
00000270: 7ca0 f83e 1695 6abf c82d bcbe 14b1 2bbf
00000280: 2101 8cbe 200a cd3e 4352 e8be fa0c 2e3f
00000290: ab49 453f e2c2 3cbf 598d 823f c878 a9bc
000002a0: fa73 3f3e 521a 39bf 6037 0d3f 40db 84bf
000002b0: 5477 e83e 50f7 9abd bca4 21bf 6b77 163f
000002c0: 11a4 3ebe cd56 77bf 64f7 2dbf 559e 46bd
000002d0: 664f 953f bd6f 223e f8d0 553e c763 af3e
000002e0: 26cb b5be 660d 2bbf 8299 253e 429c 6ebf
000002f0: a41e 89bf c661 d4be b441 dc3e 2328 373f
00000300: 54c9 83be 3c09 683f 49fb 683f 50da 21bf
00000310: 67d9 873f 7fdb 0dbe 66a1 9a3e 1acb ca3e
00000320: 584c 583f ec05 54bf 61e2 11be 17d9 363f
00000330: a06c 7cbe ac75 b73e 55e0 4abf ffb3 ef3e
00000340: 14d3 59bf 60ca c23d 2690 823f 8ab2 103e
00000350: cb76 7d3f 568a 4abb e8d6 3abf 746a 843e
00000360: 255f 45bf 4602 9fbd 2763 62bf d488 b73d
00000370: f573 fbbe c5a7 f33e 24be 023f f4c8 663f
00000380: c404 48bf d79f 1d3e dde9 00bf eaf0 9c3e
00000390: ad6d 883e a2d8 3c3f 2640 bf3e 7f69 ecbe
000003a0: 5167 273f 5813 4a3f ca00 083f ee95 e0be
000003b0: 8c69 7fbe 4f36 ce3e 90ca 593e 1343 c33e
000003c0: 86ab 6c3f 4801 87bb 04bf f93e dcfa 4e3f
000003d0: 31c0 54be a7ef 80bf b266 983f d2ac 2c3e
000003e0: ebef 86be 325a ecbe 216e 8a3e 8fb7 02bf
000003f0: 02bd b73e 32a4 2dbf a4e9 003f f7c9 353f
-0.7700737 0.46340537 -0.75381285 -0.85753876 0.40886062 -0.08496032 0.74738514 -0.5819959
0.5887103 -0.5270126 -0.16343966 -0.91790545 0.120174006 0.9789865 -0.65957355 -0.71985483
0.54963875 0.007277986 -0.6478631 -0.23370302 0.41003567 0.72304314 -0.5648249 -0.026618911
-0.39599854 -0.7390892 -0.38528425 -0.711068 -0.9871064 -0.37746146 0.6953857 -0.7130387
0.42333394 -0.7986236 0.25188282 -0.66825145 0.11022906 0.8150723 -0.5948376 0.38084912
-0.480689 -0.027813513 -0.24669124 -0.4976045 0.61078054 0.7707978 0.4841054 0.75315946
-0.8074068 0.4988361 0.9427343 0.13651522 -0.73609287 -0.5937943 -0.3831208 0.55796576
0.37113258 0.18574631 -0.91091657 -0.03935166 -0.4081662 0.75283813 0.7092295 -0.7205724
0.6371581 0.09128109 0.5435074 -0.116661355 0.099472046 0.9452146 -0.2758977 0.82285064
-0.48121256 -0.82996404 0.30765092 0.54537326 -0.45535752 -0.8292362 0.102804855 0.9773666
-0.6070248 0.7541422 -0.35491297 -0.65738475 -0.72480124 -0.13114393 -0.69136405 0.35999703
-0.27013603 -0.5125779 0.16857207 -0.5039453 -0.53946435 -1.008341 0.8336839 -0.58087146
1.3187237 -0.6921454 -0.5585379 1.0312687 -0.22274731 -0.42816177 -0.6314049 0.042985573
0.25124028 0.41049102 0.81474984 0.6759965 -0.42079335 0.6524872 0.7491584 -0.51713645
-0.25389734 -0.49417976 -0.42909732 -0.76154786 -0.73145425 -0.1474506 -0.66581035 0.04438612
0.55076563 0.64152324 0.23760891 0.42112815 0.17404504 -0.3596885 -0.388448 0.27810436
-0.6002789 1.111813 -0.5285477 0.9160019 -0.12453615 -0.98478884 -0.15744573 -0.341978
-0.8889803 -0.64747417 0.16869983 -0.46957237 -0.5497321 0.27910683 0.6087334 0.7344555
1.1703981 0.16815768 -0.24350181 0.71107787 0.534125 -1.0105915 0.48967707 -0.46094003
0.73249143 0.8516218 0.34939104 0.61281437 0.4855994 -0.9163374 -0.36753678 -0.67067075
-0.2734461 0.40046787 -0.4537526 0.6798855 0.77065533 -0.7373487 1.0199386 -0.020687476
0.18696585 -0.72305787 0.5516262 -1.037941 0.4540354 -0.07566702 -0.6314199 0.5877597
-0.18617274 -0.9661682 -0.67955613 -0.04849084 1.1664855 0.15862937 0.20880497 0.34255812
-0.35506552 -0.6681732 0.1617184 -0.9320718 -1.0712476 -0.41480845 0.43018878 0.7154562
-0.2573954 0.9063909 0.9100843 -0.63223743 1.0613221 -0.13853262 0.30201262 0.3960808
0.8449149 -0.82821536 -0.14246513 0.71425 -0.24650812 0.35831964 -0.79248554 0.46817014
-0.85087705 0.09511256 1.0200241 0.14130607 0.9900939 -0.0030905209 -0.7298417 0.25862467
-0.77098304 -0.077641055 -0.88432544 0.08961645 -0.49111906 0.47588935 0.5107138 0.9015038
-0.7813227 0.15393005 -0.5035685 0.30652553 0.26646176 0.73768055 0.3735363 -0.46174237
0.65392023 0.78935766 0.53126204 -0.43864387 -0.24942607 0.4027581 0.21268678 0.3813711
0.92449224 -0.004120026 0.48778546 0.8085153 -0.2077644 -1.0073136 1.190634 0.168628
-0.26354918 -0.46162564 0.27037147 -0.5106134 0.3588639 -0.6782867 0.5035651 0.710113

decoder_net.0.bias f4 [128]
00000000: 9bb0 dcbf de8b 1fbf 3c5f 9ebf 11d6 76bf
00000010: 3d3e 203f 238a e43e 2a8d 173e 3b81 ec3e
00000020: 9e8e 1abf 07ae 343f 3dd5 933e 950b 8c3f
00000030: 8b9d 9c3e 7a4c 85bd bf36 ee3e 6982 c7be
00000040: de87 80be d0bd c7bf 8e1d a7be 0999 0bc0
00000050: 94a8 d73f f0e3 c73f 6255 b7bf f93f 8dbe
00000060: 45ec bebf c991 543b d929 983e a77f adbf
00000070: 879d d5bf 3c4c 9fbf 4aff 8fbe a3e7 47be
00000080: 162a 01be 2337 3b3f 0660 2c3f 7d15 bebd
00000090: f48e f4bf 3c1e da3e 36ae 00bf 20ff 2f3f
000000a0: 4a38 923e 8d9d 5f3d ad8d afbf 0b0a 5b3f
000000b0: a5c8 d83e 20c1 80bd 46ca a13e e92c 903e
000000c0: 5b92 f6be 71f9 10bd 1ce9 4cbe c9a8 b7bf
000000d0: 4e3c c4bd cb65 51bf ae2a 97bf d6c9 db3e
000000e0: c8fc 08bf 65e9 8dbf 8cac 06c0 9543 4abf
000000f0: 7ead 223e ec4e 4fbf 0f2e 653f ed95 8ebf
00000100: e80d 863d b8b7 b1bf 14d2 ebbe 685c dc3f
00000110: a41e fa3f a00e 7bbf 915b 3d3f d2c0 5abf
00000120: 034c 133e 8699 0fbe f65a a5be 2b35 8e3e
00000130: 2c81 0e3f dfd7 1e3f 99fc 34bd ca00 cabe
00000140: b28e 83bf b968 b8bf 8612 ba3e 903a ca3e
00000150: 06a9 153f 567b 99be 244c 63bf 3a5d 973f
00000160: 43ba 0a3e 414d c9bf 562f 0dbf df7d 5abd
00000170: 4456 443f e4b4 91be ae61 ae3e c54b 32be
00000180: ca96 7a3f b182 0b3f 2fb9 ba3c 58c4 e7bf
00000190: c333 f53d 040b 643f 07bb 64bf 4a64 eabf
000001a0: 8aa6 1bbf bf1a 4cbe 9ad1 78be 5a49 173f
000001b0: 2d49 863f 3068 5fbf 7282 80bd 4d07 313f
000001c0: 0c46 d13f c27f 02c0 f1e5 5cbf ca5b 88bf
000001d0: e800 78bf ed86 503f 18b7 20bf 4664 213d
000001e0: af2d dabd 273b d1be 45bd bc3f 794f 40be
000001f0: 8904 f9bf 8a6c 1ebe 960a 46be ab93 b9bf
-1.7241396 -0.62322795 -1.2372813 -0.9642039 0.6259497 0.4463664 0.14799944 0.46192345
-0.60373867 0.70578045 0.28873625 1.0941035 0.30588946 -0.06508727 0.46526143 -0.38966683
-0.25103658 -1.5604801 -0.32639736 -2.1812155 1.6848321 1.5616436 -1.4322932 -0.2758787
-1.4915854 0.0032435528 0.29719427 -1.3554581 -1.6688699 -1.244514 -0.28124458 -0.19521956
-0.12613711 0.73131007 0.6733402 -0.09281442 -1.9106126 0.42601192 -0.50265825 0.68748665
0.2855857 0.05459361 -1.3715111 0.855622 0.4234058 -0.06286836 0.31599635 0.28159264
-0.48158535 -0.035394136 -0.20010799 -1.4348384 -0.09581815 -0.8179595 -1.18099 0.42927426
-0.53510714 -1.1086851 -2.1042814 -0.7900937 0.15886495 -0.809798 0.89523405 -1.1139504
0.06545621 -1.3884192 -0.46058714 1.72157 1.9540601 -0.9806919 0.73967844 -0.8545047
0.14384465 -0.14023408 -0.3229596 0.2777494 0.5566585 0.62048143 -0.04418621 -0.39453727
-1.0277922 -1.4406959 0.36342257 0.39497805 0.58461034 -0.2997691 -0.88788056 1.1825325
0.13547616 -1.5726701 -0.55150354 -0.053342696 0.7669413 -0.2845832 0.340589 -0.17411716
0.97886336 0.54496294 0.02279338 -1.8106794 0.119727634 0.8907931 -0.8934788 -1.8311856
-0.60800993 -0.19932078 -0.24298707 0.590963 1.0491081 -0.8726835 -0.062748805 0.69151765
1.6349502 -2.0390477 -0.8628836 -1.0653012 -0.9687638 0.8145588 -0.6277938 0.03940227
-0.10653245 -0.40865442 1.474526 -0.18780316 -1.9454509 -0.15471092 -0.19339976 -1.449819

decoder_net.2.weight f4 [128, 128]
00000000: bd7a 19bd 9980 9a3d 9483 3c3e e1bd c1bc
00000010: 02b0 67be 2b71 933d bd5c a33d 0f89 b03c
00000020: 0d74 913d 6460 b43d 5653 9c3c 8169 82bc
00000030: 9072 f93d 122a 0e3e 1eb0 c93d a7ef a1be
00000040: eda1 b1bd ee3f ad3d 13a9 cf3d a886 1bbd
00000050: e0c5 1b3d 9631 1c3e d23e 193e 23d0 e3bc
00000060: c687 c5bd 0992 3a3d 7c2b 983d ead6 b43d
00000070: e8ed 543e 0649 803c 5ae0 6ebd c66c 89be
00000080: a5a9 093e 7f5f 553d 34ed 43bc d189 a8bc
00000090: 55d7 bd3d 724b 183e d8a4 333d c8a1 5b3d
000000a0: f508 0fbe 0308 463d 8df6 e13d 4177 aebd
000000b0: b5ec e13d fccb b83c 525f 253e 601b 8abc
000000c0: 1610 62be e22c 113d d0ff 1b3e 7905 be3d
000000d0: dddf 053e 1b16 083b ddb8 873d 0cc3 c7bd
000000e0: 80dd ae3d 1e43 8d3d 1b73 4b3d 9ec0 a13b
000000f0: 8510 9c3d 400e ab3d 1ea1 98bd a46d 9bbd
00000100: 607c 06be 81f4 34bc ce91 19bd d6c7 c7bb
00000110: fff8 1cbd cff8 e23d 5fc3 e53c 6678 0d3a
00000120: 8f4f fb3d b8db 6f3c fe50 b8bd 0530 6abe
00000130: 0bcd e8bc b03d e83d cb7b 04be cb6b 223c
00000140: 7e7c 8cbd 059a 36bd ebd9 a8be 8177 9e3d
00000150: 4638 e0bc a144 7abc 28b8 e93d c269 92bd
00000160: 2ff4 263e bd5f a23d 11c9 143e fc7e 9e3b
00000170: 9f91 113e aac7 f23d 643d 043e 90ed 2a3e
00000180: a230 bf3c d0eb 8dbd 74eb 583d 9557 163e
00000190: a904 a7be 1c14 753c 39cb c83b 5164 bbbd
000001a0: b192 6b3d 805f f03d 7042 13bc e164 d9bd
000001b0: 0130 493c 599d f73d 62a6 0a3c 143d f43d
000001c0: a1ea 15bb 8709 793c 2ea0 4d3d 8095 2fbd
000001d0: 9277 843d 0f5e c2be d905 9dbd 6c58 fd3d
000001e0: ddd1 853d c61e 183e b010 8f3d d8d3 823c
000001f0: 4d94 3e3e c75c 5abd 9a81 54be 6fdb 9e3d
00000200: 984e 623d 2e4f 83bd ecdb 123e 245c e03d
00000210: 523c 7f3d 57f6 8ebc c95c b2bd 7995 4ebc
00000220: 463d 71bd 7a20 e1bb 5a2e 303d 3bdf aebc
00000230: f19c 96bd 3772 70bd 8fde 0e3e b9d0 853c
00000240: 958d 63bd b9f9 4a3c c07b 373d 947c a7bc
00000250: 4e00 16be 8a73 03be cdab 8b3d 8977 913d
00000260: 47c5 de3d a070 0d3d 93d4 e7bd 4fc3 8abc
00000270: eceb 5bbe 0fac d1bd c572 6f3d 77d2 97bc
00000280: abe0 b3bd a7bd ce3c 8b02 803c bc55 213c
00000290: 637e 6fbc bb9c c6bd fea2 bebc 9f75 463d
000002a0: a4b9 bb3d 2ba0 59bd a987 753c bf92 61bd
000002b0: af8e 0f3d 6856 30b8 2a95 5c3d 4835 503d
000002c0: 9bbb 60ba 3490 193d c4bd 733d a0fd d6bc
000002d0: 0e98 3abd 1522 b9be 6f17 133d 0b4f 0bbd
000002e0: 7b6c 01bd 6614 d03b 9054 f0bd ea3e 8abd
000002f0: 591d fcbd 9984 6ebc 20da d33d 50ac 48bd
00000300: f34c d83c 30e5 a03d 86c8 0fbc 02d5 b5bc
00000310: c890 5abe 4b30 603d f837 29bd 8021 503c
00000320: a194 c6bd 7b90 8b3d aead e63d 53b2 093d
00000330: cd96 82bb 3b34 a0bd 4605 62bd 93ea 5d3d
00000340: c23a 7e3d 4277 89bd 3133 fe3d be93 883d
00000350: 7193 ce3d 96b9 863c 4b8a 2a3c 49ec 8e3b
00000360: b159 6dbc 2c00 503d 2f68 443d 52e3 253d
00000370: 72c6 93bc 5392 2f3d cbe2 ce3d a99d 0ebd
00000380: 212b 943d 187f cc3d d713 413d 91bf f5bd
00000390: 7ebb 793d 729d edbb fb98 333d d59c 863d
000003a0: a4b4 cf3c a9e5 c0bb 15c0 843b 4148 963d
000003b0: a3cf 9cbd d95a 28bd 2080 013d f899 aabd
000003c0: 1443 823d 7263 e93d 63b3 a0be 32d1 fd3c
000003d0: e2d5 d2bd ecfb 553b df43 57bd ac5a e8bc
000003e0: 9f89 303d 0fd8 4d3d 1282 33bd 1016 e0bd
000003f0: 6f6b 62bc 55bf 11bd b317 743d b30f 2bbd
-0.037470568 0.07544059 0.18409568 -0.023650112 -0.22625735 0.071993195 0.07976673 0.02154973
0.07102213 0.088074476 0.019082706 -0.015919449 0.12180054 0.13883236 0.09848045 -0.31628153
-0.08673463 0.08459459 0.1013967 -0.037970215 0.038030505 0.1525329 0.1496537 -0.027809208
-0.09645037 0.045549426 0.07430169 0.08830054 0.20793879 0.01565982 -0.058319427 -0.268408
0.1344362 0.052093025 -0.011958409 -0.020573528 0.09269587 0.1487253 0.04385838 0.053621083
-0.1396826 0.048347484 0.11033354 -0.0851884 0.110314764 0.022558205 0.16149643 -0.016858757
-0.22076449 0.035443194 0.15234303 0.092783876 0.13073678 0.002076513 0.06627057 -0.09753999
0.085383415 0.06897567 0.04967032 0.004936292 0.07620338 0.08352327 -0.07452606 -0.07589272
-0.13133383 -0.011044622 -0.037492566 -0.0060968203 -0.0383234 0.11082613 0.028047262 0.0005396664
0.12271034 0.014639787 -0.08999823 -0.2286988 -0.028418085 0.11339891 -0.12937848 0.009913395
-0.068596825 -0.04458048 -0.32978758 0.07737637 -0.027370583 -0.0152751515 0.11412078 -0.07149078
0.16304086 0.07928417 0.14529826 0.004836915 0.14215706 0.11854489 0.12914044 0.16692185
0.02333862 -0.06929743 0.05295892 0.14681847 -0.32620743 0.014958408 0.0061277417 -0.09149993
0.057512943 0.11736965 -0.008988008 -0.10614944 0.012279511 0.120905586 0.00846252 0.11925712
-0.0022875445 0.015200025 0.050201587 -0.042867184 0.06468119 -0.37962386 -0.07667131 0.12370381
0.06534169 0.14855489 0.06985605 0.015970156 0.1861126 -0.053311136 -0.20752564 0.077566974
0.055250734 -0.06411587 0.14341706 0.109550744 0.062313385 -0.017451448 -0.087091036 -0.012608879
-0.058896326 -0.0068703266 0.043012954 -0.021346679 -0.07354153 -0.058702674 0.13952087 0.016334878
-0.055554945 0.01238864 0.04479575 -0.020445146 -0.14648554 -0.12837043 0.06819878 0.07102878
0.108774714 0.034531236 -0.11319842 -0.016938834 -0.21476716 -0.10237896 0.058459062 -0.018532975
-0.087830864 0.025236918 0.015626213 0.009847101 -0.014617535 -0.09697863 -0.02327108 0.048452016
0.091662675 -0.053131264 0.014985957 -0.05507159 0.035048183 -4.2042142e-05 0.05385319 0.050832063
-0.0008572877 0.03749104 0.059507146 -0.026243985 -0.045555167 -0.36158815 0.03591102 -0.034010928
-0.031597596 0.006350088 -0.11734879 -0.06750281 -0.12310285 -0.014557981 0.103443384 -0.048992455
0.02640388 0.07856214 -0.008775836 -0.022196297 -0.21344292 0.054733556 -0.04131314 0.0127032995
-0.096963175 0.06814667 0.112635955 0.03361733 -0.003985262 -0.07822462 -0.05518081 0.054178786
0.062067755 -0.067122 0.12412108 0.066688046 0.10086716 0.016445916 0.010408948 0.0043616635
-0.014486716 0.050781414 0.04795092 0.040499993 -0.018038962 0.042864155 0.10101851 -0.034818325
0.07234789 0.09985179 0.04713806 -0.11999429 0.060969822 -0.007251435 0.043847065 0.06572882
0.02535469 -0.0058867526 0.0040512183 0.07338 -0.07656791 -0.041102264 0.03161633 -0.083301485
0.063604504 0.11395921 -0.3138686 0.030983541 -0.10294701 0.0032651378 -0.05255496 -0.028363548
0.043099996 0.050254878 -0.043825217 -0.10941708 -0.0138195595 -0.03558286 0.059592914 -0.04176302

decoder_net.2.bias f4 [128]
00000000: 6c66 b2be 38d8 4fbe 96f6 393f 9f33 d4bd
00000010: 7d82 01be b89c 773d 7ece c63e 66e5 b43d
00000020: 60ce 103f c183 0bbf d1ee 813f bdf8 f73d
00000030: 9b7c e5bc 2e32 01bf 530c 653d b7fb 39be
00000040: 54f3 d63e 1ace 103e 65ed 0cbf 218f 6a3f
00000050: 49d8 05be 7534 33bd c72f d03e 6005 cd3f
00000060: 8f1c b3bd 3a22 03bf d1b4 2cbe 0bcf 0e3f
00000070: 33f4 7dbe f235 743c 3abf f73e c84e 1fbd
00000080: 7ff9 09bf 778b c5bc 6675 c13e 3c3e 423d
00000090: f58a a73d e3d2 bb3f fb90 24bf e6fa ec3e
000000a0: debb 59bd 08fb 55be 6f23 333f d4c4 703f
000000b0: 5cd3 90be 7a56 65bf 2575 3dbf cdc3 3f3f
000000c0: 94ab ab3e ad1f d73d ffc4 8cbd 1bd1 0e3f
000000d0: c1c0 93bc 26ed ae3e 0f3a a3bf 86ba a83c
000000e0: 0891 253a 914d 923e 2a94 9d3d 00e2 293f
000000f0: 1743 adbf fc8c 10bf 227b 31bf d293 b1bd
00000100: 5ac1 21be b492 f3be f125 0c3e ccba e73d
00000110: 8e34 1e3e 16a4 6e3f dcc8 3f3e 33d9 d83e
00000120: ed11 0a3e b7db fabe a22b 0b3e 901d 473d
00000130: af72 243f 3192 27be 52d0 92be f4cb e7be
00000140: 924d 1c3c 78d0 41be 0232 213f 9b60 9fbd
00000150: f48d d6be 8123 17bc 9b2b 193e c612 e53d
00000160: 9bd8 95be 73bf ee3c ba9b 323f c51f 70bf
00000170: 3cf0 2b3f 8d78 f7be bbf3 cdbe 2502 8f3e
00000180: 8e6b 2b3c 28e5 c6be 9e1b 233e 7004 34bd
00000190: 4d95 823e 33b4 19bd 49be 003f 5e3b 70bf
000001a0: e031 b73e 067f bfbd 9b83 d53e ec41 08be
000001b0: 53d2 993d bc1b 74be 7890 b93e 6d82 9ebe
000001c0: 2a67 983f a4d5 8d3d fd4f 00bf 2d98 55bd
000001d0: 1219 d53e 709f a3bd 44fc 16be a871 e63c
000001e0: ea20 173f c79b f13c 968d c7bd 1a92 613d
000001f0: 08ff 0c3e 7112 3c3f 846c 1c3f 9d1c 0a3f
-0.34843767 -0.20297325 0.72641885 -0.103614084 -0.12647434 0.060452193 0.38829416 0.08832817
0.56564903 -0.54497916 1.0151006 0.1210799 -0.028013518 -0.50467193 0.055919956 -0.18162428
0.4198252 0.14141122 -0.55049735 0.9162465 -0.13070787 -0.0437512 0.4066145 1.6017265
-0.087456815 -0.512241 -0.16865851 0.5578467 -0.24800186 0.01490544 0.48388082 -0.03889349
-0.53896326 -0.024114354 0.3778488 0.047422633 0.08180801 1.4673733 -0.6428372 0.4628517
-0.05315768 -0.20896542 0.6997594 0.94050336 -0.28286254 -0.8958508 -0.74006873 0.74908143
0.3352934 0.105040886 -0.068735115 0.5578782 -0.018036248 0.34165305 -1.2752093 0.020596754
0.0006315862 0.28574803 0.07694276 0.66360474 -1.3536099 -0.56465125 -0.6932851 -0.086707726
-0.15796414 -0.47572863 0.13686348 0.113149256 0.15449736 0.93219125 0.18728966 0.4235321
0.134834 -0.48995754 0.13590863 0.048612177 0.64237493 -0.16364361 -0.2867456 -0.4527279
0.009539979 -0.18927181 0.6296693 -0.07782098 -0.41905177 -0.009224773 0.1495804 0.111852214
-0.2926682 0.029144024 0.6976887 -0.93798476 0.67163444 -0.4833416 -0.40225014 0.27931324
0.010462655 -0.38846707 0.15928504 -0.043949544 0.25504532 -0.037525367 0.5029035 -0.9384059
0.3578024 -0.093504 0.4170197 -0.13306397 0.07510819 -0.23838705 0.36243033 -0.30958882
1.1906483 0.06925514 -0.5012205 -0.05214708 0.4162069 -0.07989395 -0.14744669 0.028130367
0.590346 0.029493226 -0.09743802 0.055070974 0.13769162 0.7346564 0.6110308 0.5394991

decoder_net.4.weight f4 [50, 128]
00000000: 69e6 cf3d 0e8b 973c 71f3 14bd 5d5c 34bd
00000010: df26 d73c 3451 b9bc 7c05 abbd 78e1 aa3c
00000020: 1a54 6fbd f565 5cbe 489d 673e d3d6 df3d
00000030: 6d96 563d afb0 e2bc 0b4a d3bd 6cb3 0f3e
00000040: 33bf 9abb 5edc 8ebe 4293 663e 5822 28bb
00000050: 87f8 993c c7d8 42bd 6ad7 943d 934c a4bd
00000060: 781b 7bbd f981 403e 8a94 863d f7c0 1cbe
00000070: a8c9 f3be 41f2 d2bd bfbd 7b3d 5e95 a93b
00000080: ae6a b43d 7464 83bd eebd 04be 9c11 98bd
00000090: a147 95be 8059 f2bc d7e4 443e 55d0 06be
000000a0: 4dd5 c43d 97fc 0b3c ca68 dfbd 7f0b 4fbe
000000b0: d8e3 353d d357 8a3d a334 cf3d 18f8 26bc
000000c0: 6132 29be dd1c 96bd 1bae 603d ab0f 3cbd
000000d0: 17e1 713d 7a97 663c d6be 193d fe8b 44be
000000e0: 756e 8fbd 45b9 e1bc ec56 80bc 67b6 873d
000000f0: 2a7a 37bd 6eba 1ebe 7155 083d ba0d 22be
00000100: 3828 cf3a 53af 3ebd c732 03bd 5dc8 8bbd
00000110: c281 fabd c060 8dbd 2499 ef3d 01cd b03d
00000120: 61f4 b9bc df93 e73d b48e b0bd 3386 773c
00000130: 933b fcbc e2a3 7a3d 5f2f bd3d e3bc dc3d
00000140: 180e ab3d 4f6f ff3c caeb 99bd f964 69bd
00000150: 299d 59bd c050 1a3c a5de d63c 25e0 58bc
00000160: 7f75 5d3c 2837 85bd 411b 9d3c e8c1 cf3d
00000170: a041 87be 82d7 763b 25e0 3e3d 853d fd3d
00000180: 1e2b 023e 5f2c 8f3d e701 31be aa14 05bd
00000190: 8588 d0bd 466b 063e a893 dabb f488 413e
000001a0: d11d ae3d 4aad 9e3d e3b0 3a3e 6dce 80be
000001b0: 265d 82bc 1b96 2dbe 95b0 bebd 564c a73d
000001c0: 258b febc 8719 8bbe 23d7 6ebd 5e6e a6bd
000001d0: 261f 6e3d f1c6 edbd c401 cf3d 9367 a9bc
000001e0: b875 03be 670f d33c 71c9 adbd 1525 6e3d
000001f0: 78d6 1fbe 9b3b 86be fa06 fc3d 9a77 a7bd
00000200: 3271 b5bc 3356 af3b 2d61 e3bb 440a 46bd
00000210: 1d2f d63b 00fb 993c 604f 683d 4eab 573d
00000220: 52bd e53d dfa3 40bd 0ca4 b7bd 57ee 7d3d
00000230: 7c95 9a3d 64bf 0bbd 0c76 95be ecaf c3bc
00000240: 96a2 a0bc 7839 dcbd 8732 b03d d478 32bd
00000250: 4c6e 3f3d 3f84 3cbd 19d4 c5bd 40b2 87be
00000260: 8763 843e f557 1a3e 674e 363e bfeb fbbc
00000270: 9dd2 7bbd b854 a7bd 2c3b 503d 8cdc e8bb
00000280: 485b 90bd 333c 61be 7ce4 4cbd b7aa 0bbe
00000290: 9e3e 33be b788 8dbe 48fa 17bd 5a63 073d
000002a0: 029a 333e 1f8d b6bd c803 10bd 79d3 94bd
000002b0: 6564 8a3e 06e3 93bb c82b 3abd 1994 26bc
000002c0: 6ed7 563e 00a9 abbd 33df caba 7aba 84b9
000002d0: d257 7e3b e6ac 553e 2c6d 293e 0d0c 753d
000002e0: 2bd1 9fbd 07ea 913d 8246 cebc 905c 18be
000002f0: 84a8 423d 85d7 06be 0af8 f1bc b127 593c
00000300: 865c 013e a6d4 c0bd eb0c f2bc 9387 87bc
00000310: e1b1 88bd 5926 143c 6e21 1d3e 312e 983e
00000320: 3c88 7fbe dc66 cfbd a9e4 0cbd fa77 3f3d
00000330: 33e0 37be 7f98 6dbc 3bdb a83d 4532 4b3c
00000340: 3cd7 ccbd 3861 263d 7e24 443e 6537 64bd
00000350: 272c f43d b186 0a3d 9778 51bc 4a9b 1bbe
00000360: c1ca f6bc d38e 273d 8658 8fbe f55a 313e
00000370: 57e7 c9bd 9fd1 72be 133f b83d 9305 983d
00000380: becf bdbc d372 e83d 246a 583c 4924 163e
00000390: 8395 543e 86f2 8a3e 9358 7e3d 2d3e 583e
000003a0: faa8 9fbb bc06 353d 0127 5cbd 03cf 6fbe
000003b0: 0630 8abd e216 a63d 54fb 0bbd c71b c03c
000003c0: 887c 78bc 899e 9a3e dd62 29be 985d 863d
000003d0: 0900 00be 33ad 1dbe 162b 76be 75d4 d8bc
000003e0: 0839 af3c a20d b3bb ea45 053b faea 8d3d
000003f0: 0f8d d0bd 0202 773d 6c78 44be 6a79 9d3c
0.10151369 0.018498924 -0.036364976 -0.044033397 0.026263652 -0.022621728 -0.083506554 0.020859465
-0.058429815 -0.21523269 0.22618592 0.10929646 0.05238955 -0.02767214 -0.10316857 0.14033288
-0.0047224998 -0.27902502 0.22517112 -0.0025655236 0.018795265 -0.047570016 0.072676495 -0.08022418
-0.061305493 0.1879958 0.065713 -0.15307985 -0.4761479 -0.103001125 0.061460253 0.0051752767
0.0880941 -0.06415644 -0.12963077 -0.07425234 -0.2915621 -0.029583693 0.1922792 -0.1316541
0.096109964 0.008544109 -0.10908659 -0.20219229 0.04440674 0.067550324 0.101174615 -0.010190986
-0.16523124 -0.07329724 0.05485354 -0.04591338 0.059052553 0.014074201 0.03753551 -0.19194028
-0.0700349 -0.027554164 -0.015666448 0.06626587 -0.04479424 -0.15500805 0.03328461 -0.15825549
0.0015804833 -0.04655392 -0.032030847 -0.06825326 -0.122317806 -0.06903219 0.11699131 0.086328514
-0.022699537 0.11307501 -0.086209685 0.015107679 -0.030790126 0.061191447 0.09237551 0.10778215
0.083522975 0.031181006 -0.07515676 -0.05698106 -0.053128395 0.009418666 0.026229212 -0.013237034
0.013516783 -0.06504661 0.019178035 0.101444066 -0.26417255 0.0037665074 0.04660048 0.123652495
0.1271176 0.06990885 -0.17285882 -0.03249041 -0.10182289 0.13126859 -0.006670434 0.188999
0.08501781 0.07747896 0.1823154 -0.2515749 -0.015913557 -0.16951792 -0.09311024 0.08168857
-0.031072209 -0.27167913 -0.05831064 -0.081265196 0.058135174 -0.11610211 0.10107759 -0.02067927
-0.12837875 0.02576418 -0.084856875 0.058140833 -0.15609157 -0.2621735 0.12306018 -0.08177109
-0.022148702 0.005350852 -0.0069390745 -0.048349634 0.006536378 0.018796444 0.056716323 0.052653603
0.112177506 -0.04703128 -0.08966836 0.061994877 0.07548043 -0.03411807 -0.29191625 -0.023887597
-0.019608777 -0.10753149 0.08603387 -0.043572262 0.046736047 -0.046024557 -0.09659595 -0.2650318
0.25857183 0.15072615 0.17803346 -0.030752061 -0.061480153 -0.08170456 0.05083768 -0.0071063694
-0.070486605 -0.2199562 -0.050022587 -0.13639341 -0.17504355 -0.27643368 -0.03710392 0.033053733
0.17539218 -0.089136355 -0.035159856 -0.07266898 0.2702972 -0.0045131473 -0.04545191 -0.010167145
0.20980617 -0.083818436 -0.0015477896 -0.00025315938 0.003880967 0.20866737 0.16545552 0.059825946
-0.078035675 0.07124715 -0.025180105 -0.1487906 0.04752399 -0.13168152 -0.02953722 0.013254092
0.12632951 -0.094155595 -0.029547175 -0.016544139 -0.06674553 0.009042346 0.15344784 0.2972274
-0.24954313 -0.10127041 -0.034397755 0.046745278 -0.17956619 -0.01450169 0.0824494 0.012402122
-0.1000199 0.04062006 0.19154546 -0.05571689 0.11922484 0.033819858 -0.0127850985 -0.15195957
-0.030125977 0.040907692 -0.27997226 0.17319854 -0.09858578 -0.23712777 0.089964055 0.07422938
-0.023170348 0.11350026 0.0132089 0.14662279 0.20760159 0.27138156 0.06209619 0.21117468
-0.0048724385 0.044195876 -0.053748135 -0.23418812 -0.06747441 0.08109833 -0.034175232 0.023450745
-0.015166409 0.30199078 -0.1654162 0.0656082 -0.12500013 -0.15398102 -0.24039873 -0.026468495
0.0213895 -0.0054642716 0.0020335861 0.06929584 -0.10183155 0.06030465 -0.19186562 0.019222934

decoder_net.4.bias f4 [50]
00000000: 0e1f 66bf 5649 0ebf 31c7 573e e82d 48bf
00000010: ca77 01be 380e afbe a2b9 b9bd ab1d 63bf
00000020: 6a17 7bbf c4fd 243f 03d4 28bf fe1c 84bf
00000030: 05e8 75bf cbf6 c4be df12 883e 751f 4dbf
00000040: a29e 203f 6166 2abf c330 86bf 86e5 52be
00000050: 0743 83bf 212b e63d 7c4c bc3d 3fa6 fb3d
00000060: d2c2 9dbe 2e4b 34bd 64a1 fa3d 8ec6 313e
00000070: ded1 11bf 6bfd c83e 7866 da3e 921f 4b3e
00000080: 2df8 4e3e 067f 23bc 86df e3be 1e9e 9ebe
00000090: d86e b4bd 0ba2 f2be 3f26 603e c223 673e
000000a0: 8915 833b cb4f 933e 1237 00be acaa b1be
000000b0: 171b 0abd 02ed 5e3e 9f47 8c3d f381 85be
000000c0: ec18 e03e ea65 023e
-0.89891136 -0.5558065 0.21072079 -0.7819505 -0.12643352 -0.34190536 -0.0906861 -0.88717145
-0.980826 0.64449716 -0.65948504 -1.0321348 -0.9605716 -0.38469538 0.26576898 -0.80126125
0.62742054 -0.6656247 -1.0483631 -0.20595369 -1.025483 0.11238695 0.09194276 0.12287568
-0.308127 -0.04401701 0.12237814 0.17360899 -0.56960857 0.39255843 0.42656302 0.19836262
0.20211859 -0.009979015 -0.44506472 -0.3098001 -0.08810204 -0.47389254 0.2188959 0.22572234
0.00400037 0.28771815 -0.12521008 -0.34700525 -0.03371724 0.21770099 0.06849598 -0.26075706
0.43769014 0.1273419
