experiment_dscale_0.1/decoder_2_seed123.pt (torch, 96236 bytes, 6 tensors)

decoder_net.0.weight f4 [128, 2]
0.38976642 -1.0788864 1.0355722 -0.6657046 0.5945653 0.0035130105 -0.5412125 -0.5971585
0.90051943 -0.06338385 0.6926931 -0.44713444 0.7634238 -0.22405997 0.5740924 -0.51711094
-0.77970153 -0.86303 -0.6329842 0.5912449 -0.9604717 -0.49410117 0.18968543 0.43647495
0.48623314 0.01538399 0.68392384 0.09638915 -0.5693871 -0.6291507 0.9115103 -0.58998424
0.56957453 -0.5370338 -0.5113225 0.35944134 0.7463018 -0.04851678 0.12865756 -0.9034355
-0.48728013 -0.213968 0.26795092 1.3655941 -0.7113696 -0.79123867 0.34429634 0.99986255
-0.42547533 0.39810967 -0.26024857 0.69955367 0.7145184 -0.41330418 0.8763918 -0.58775604
0.91345024 -0.1886785 -0.73404247 0.4740266 0.44974414 -0.89663196 0.4182265 -0.72222257
-0.20867424 -0.50163925 0.1344667 -0.9849796 -0.36399052 -0.707709 -0.65034616 0.6101796
0.6448139 0.010634519 0.769364 0.85888153 -0.89612603 -0.45735556 0.26797134 -0.670957
-0.5925895 0.5145893 0.7705046 0.17499217 -0.26733568 -0.7208715 -0.9233654 0.8636904
-1.0281754 0.681172 -0.53854823 0.50898916 -0.067271926 -0.6968448 -0.37690702 1.0117081
-0.345049 -0.36129102 -0.38144106 0.2243302 -0.77046293 -0.24214368 -0.56274533 -0.2883987
-0.629113 0.59554654 -0.6007203 -0.032039147 -0.9036458 -0.24755193 -0.41588834 1.0094949
0.6883515 0.7521625 0.3526523 -0.79293764 0.8083146 -0.29254863 -0.9015609 -0.23595138
-0.41883934 0.1566592 -0.48220903 -0.023372151 0.9864911 -0.589742 -0.4845489 0.8517206
0.8106168 0.8888446 0.56069905 0.8004259 -0.5222407 0.6302706 -0.34589377 0.2554329
0.19292025 -0.6403215 -0.5214825 -0.57802206 0.9880887 0.25656214 0.0143681485 -0.73175335
0.9496382 -0.64311826 -0.2409347 0.22264552 -0.54415965 -0.27869925 0.24126768 -0.33059835
-0.14813142 1.1991656 0.7806261 0.005912599 -0.51655126 0.48352617 -0.590783 0.4081942
0.71297354 0.011768783 -0.36271018 -0.9564821 1.039003 -0.60693324 -0.9577508 -0.05238058
1.3998232 0.7059493 0.7618452 0.82651925 0.7962049 0.18115602 -0.74593526 -0.013292221
-0.53275687 -0.27038252 -0.36033395 -0.60397047 0.58030176 0.0014848236 0.26909205 0.79257214
0.41274372 -0.89604175 0.91749465 0.46249086 -0.1961726 0.8499841 0.47893536 0.81220853
-0.3954383 1.0136486 -0.35158372 0.24393535 -0.45955458 -0.8294971 -0.5185189 0.89372104
-0.8268118 -0.28101286 0.13711987 -0.96216094 0.7545778 0.76152974 -0.82736164 0.22580592
-0.38075492 0.65185404 -0.10848741 1.3058121 0.3588073 -0.2893413 0.14670858 0.7355914
0.87730145 -0.12418972 -0.42098066 -0.8113588 -0.35823056 0.25515476 -0.62174934 -0.16260034
-0.73794836 -0.3771451 -0.2718308 -0.2997625 0.60957575 0.68488604 0.78955394 0.03473809
-0.8137185 -0.19705468 -0.4229634 0.3689481 -0.3374026 -0.70639336 0.45477244 -0.8985472
0.9984668 -0.6348544 -0.26877904 0.25080302 -0.64197713 -0.020169735 0.1335145 -0.9859672
0.5908429 -0.01617524 -0.83326346 -0.21081538 0.97359014 0.2515856 0.119336635 -1.1075844
00000000: 778f c73e f318 8abf a18d 843f 9e6b 2abf
00000010: 6e35 183f 893a 663b e78c 0abf 61df 18bf
00000020: 7188 663f 64cf 81bd 5654 313f ceee e4be
00000030: be6f 433f fa6f 65be b8f7 123f 6261 04bf
00000040: 859a 47bf 89ef 5cbf 410b 22bf d35b 173f
00000050: 79e1 75bf d4fa fcbe e63c 423e a579 df3e
00000060: 8df3 f83e 210d 7c3c a215 2f3f ad67 c53d
00000070: 5ac3 11bf 0510 21bf bd58 693f 3509 17bf
00000080: a3cf 113f 0c7b 09bf 08e6 02bf b208 b83e
00000090: a20d 3f3f 88b9 46bd cfbe 033e 8d47 67bf
000000a0: c87c f9be 6d1a 5bbe dd30 893e cacb ae3f
000000b0: 511c 36bf 9e8e 4abf 9c47 b03e fef6 7f3f
000000c0: e7d7 d9be 08d5 cb3e 4d3f 85be f315 333f
000000d0: aeea 363f 9b9c d3be 375b 603f 2e77 16bf
000000e0: e0d7 693f f034 41be 35ea 3bbf 9db3 f23e
000000f0: dd44 e63e ac89 65bf c921 d63e 94e3 38bf
00000100: b3ae 55be 6e6b 00bf a3b1 093e a027 7cbf
00000110: f75c babe 6b2c 35bf 167d 26bf bb34 1c3f
00000120: 8612 253f 683c 2e3c 0af5 443f a9df 5b3f
00000130: 8468 65bf 822a eabe 8a33 893e d7c3 2bbf
00000140: f2b3 17bf 20bc 033f ca3f 453f 2631 333e
00000150: 39e0 88be 098b 38bf ad61 6cbf d01a 5d3f
00000160: 409b 83bf 4a61 2e3f 4cde 09bf 1d4d 023f
00000170: ddc5 89bd 6c64 32bf f5f9 c0be a77f 813f
00000180: 43aa b0be 23fb b8be 3e4c c3be d1b6 653e
00000190: 0f3d 45bf 83f4 77be 1410 10bf ffa8 93be
000001a0: 8d0d 21bf bd75 183f cec8 19bf 7b3b 03bd
000001b0: 5555 67bf 417e 7dbe 51ef d4be 2137 813f
000001c0: ce37 303f b98d 403f d88e b43e f6fd 4abf
000001d0: b5ed 4e3f efc8 95be b2cc 66bf 3d9d 71be
000001e0: 1c72 d6be 456b 203e 1ae4 f6be f476 bfbc
000001f0: ae8a 7c3f 55f9 16bf cb16 f8be 5c0a 5a3f
00000200: 9584 4f3f 528b 633f f989 0f3f b6e8 4c3f
00000210: 91b1 05bf 6a59 213f fd18 b1be 1ac8 823e
00000220: e38c 453e 1cec 23bf e17f 05bf 41f9 13bf
00000230: 62f3 7c3f 1d5c 833e 6268 6b3c 3054 3bbf
00000240: 7d1b 733f 66a3 24bf 96b7 76be 30fd 633e
00000250: 0c4e 0bbf abb1 8ebe e00e 773e 3044 a9be
00000260: c3af 17be 427e 993f 1dd7 473f 7abe c13b
00000270: b43c 04bf be90 f73e 8e3d 17bf d5fe d03e
00000280: 6f85 363f dbd1 403c 26b5 b9be 03dc 74bf
00000290: 0dfe 843f fa5f 1bbf 282f 75bf 058d 56bd
000002a0: 682d b33f 18b9 343f 4908 433f c496 533f
000002b0: 16d4 4b3f f780 393e 9df5 3ebf 9ec7 59bc
000002c0: c162 08bf 946f 8abe b17d b8be cf9d 1abf
000002d0: a88e 143f 6a9e c23a 6fc6 893e 02e6 4a3f
000002e0: 2553 d33e fe62 65bf eee0 6a3f 9acb ec3e
000002f0: 78e1 48be 8f98 593f 0437 f53e e6ec 4f3f
00000300: e476 cabe 3dbf 813f c802 b4be 30ca 793e
00000310: bd4a ebbe ec59 54bf a8bd 04bf e7ca 643f
00000320: f0a9 53bf ebe0 8fbe 2769 0c3e 2e50 76bf
00000330: 032c 413f 9df3 423f f9cd 53bf ab39 673e
00000340: 4ff2 c2be e8df 263f a62e debd da24 a73f
00000350: 97b5 b73e 8b24 94be c63a 163e b84f 3c3f
00000360: d496 603f 2e57 febd c78a d7be 36b5 4fbf
00000370: ff69 b7be a5a3 823e f72a 1fbf b480 26be
00000380: 2fea 3cbf 2a19 c1be 682d 8bbe 787a 99be
00000390: 280d 1c3f b154 2f3f 3520 4a3f 8749 0e3d
000003a0: db4f 50bf b4c8 49be a98e d8be c4e6 bc3e
000003b0: 09c0 acbe 32d6 34bf efd7 e83e 3007 66bf
000003c0: 859b 7f3f d185 22bf 689d 89be 4169 803e
000003d0: 9d58 24bf 003b a5bc 06b8 083e 5968 7cbf
000003e0: 7b41 173f f081 84bc c150 55bf fddf 57be
000003f0: 343d 793f d4cf 803e c466 f43d 53c5 8dbf

decoder_net.0.bias f4 [128]
1.4890616 1.0497432 -1.0891663 -0.6440211 -0.47486347 0.8108373 1.5264502 -0.84788823
-1.0737646 0.082163274 0.02787607 -1.163706 -0.34372354 2.7766037 -0.4260678 1.068498
0.6814886 0.7977108 1.3488361 -1.4456706 -1.5647849 -0.50464594 -0.63606143 0.08341957
0.026873203 -0.9160968 -0.5561037 -0.46184418 -0.568038 -0.6620052 -0.573616 0.7048337
-0.3322408 -1.23072 -0.10480514 -0.06909768 -1.0673779 0.8554396 -0.17934102 0.02857596
-0.8281073 0.08389784 0.59508467 0.11676421 0.15394334 -0.7260005 0.7513325 -1.1486591
-1.6526083 0.32635707 0.042788234 0.016379941 -0.20929894 0.020948185 1.0293434 -0.13832165
0.48639318 -1.912013 -0.64157027 1.3051744 0.0024952993 0.10172229 -0.4454328 -0.36093795
0.6646611 0.45192936 -0.90155506 0.9845192 2.1979198 -0.67621136 -1.3384478 -0.07200643
-1.6679688 -0.9104106 0.015310732 1.5019451 0.84447485 -1.6247792 -0.08584163 0.7227637
-1.0673325 0.92689574 -0.7923377 -0.0074312575 0.23178884 0.3136849 0.107202046 0.9886191
-0.21250065 1.079695 -1.3675853 0.13244803 -1.6060429 0.12666515 -0.53605944 1.9162301
-0.61586237 0.5110597 0.057445023 -1.174176 -0.45060524 -1.4574367 -1.7926836 -0.17063482
-0.7622679 -0.5769429 2.1044037 -0.30554187 -0.40220535 -0.0045920066 0.6749955 0.9186307
0.0055087125 -0.36750135 0.81171423 -0.22834061 -0.3306324 -0.5936241 -0.62834996 -0.69511825
0.577897 -0.079381324 0.45854786 -1.3537271 0.8329579 -0.49900997 -1.637767 -0.6598675
00000000: 9299 be3f fc5d 863f cd69 8bbf 91de 24bf
00000010: 4e21 f3be 0993 4f3f b862 c33f 340f 59bf
00000020: 1e71 89bf 3845 a83d 5b5c e43c 51f4 94bf
00000030: 88fc afbe e0b3 3140 8f25 dabe 8bc4 883f
00000040: 0976 2e3f c636 4c3f a9a6 ac3f bc0b b9bf
00000050: df4a c8bf 7a30 01bf ecd4 22bf e1d7 aa3d
00000060: 3125 dc3c 5285 6abf d05c 0ebf d776 ecbe
00000070: f06a 11bf 2c79 29bf 80d8 12bf fb6f 343f
00000080: 771b aabe 3c88 9dbf 14a4 d6bd 1683 8dbd
00000090: d79f 88bf 17fe 5a3f 2ca5 37be 2218 ea3c
000000a0: d7fe 53bf a1d2 ab3d 7857 183f 1322 ef3d
000000b0: 53a3 1d3e 2bdb 39bf 5457 403f 4307 93bf
000000c0: ab88 d3bf 4618 a73e b742 2f3d 3a2f 863c
000000d0: 7652 56be 879b ab3c 86c1 833f 31a4 0dbe
000000e0: 8708 f93e d8bc f4bf f33d 24bf f40f a73f
000000f0: 2d88 233b c753 d03d c50f e4be dccc b8be
00000100: 3b27 2a3f 4963 e73e 50cc 66bf 7309 7c3f
00000110: b8aa 0c40 301c 2dbf 4252 abbf 1b78 93bd
00000120: 0080 d5bf ab10 69bf ddd9 7a3c bd3f c03f
00000130: 812f 583f c4f8 cfbf bdcd afbd 0b07 393f
00000140: 5a9e 88bf 0a49 6d3f a5d6 4abf e881 f3bb
00000150: 0e5a 6d3e 4f9b a03e bf8c db3d 2416 7d3f
00000160: c599 59be 7233 8a3f 090d afbf 75a0 073e
00000170: d092 cdbf 82b4 013e 313b 09bf 0747 f53f
00000180: 28a9 1dbf cfd4 023f 794b 6b3d 664b 96bf
00000190: bbb5 e6be 498d babf a876 e5bf e5ba 2ebe
000001a0: fd23 43bf 88b2 13bf 8dae 0640 fc6f 9cbe
000001b0: dced cdbe 8b78 96bb 81cc 2c3f 622b 6b3f
000001c0: 6e82 b43b 2329 bcbe 81cc 4f3f 1fd2 69be
000001d0: a648 a9be c0f7 17bf 8bdb 20bf 45f3 31bf
000001e0: 0ff1 133f ad92 a2bd c9c6 ea3e ee46 adbf
000001f0: bb3c 553f 3c7e ffbe 59a2 d1bf 14ed 28bf

decoder_net.2.weight f4 [128, 128]
0.060510762 0.0737661 -0.14785434 -0.4908905 -0.08579682 0.12538847 0.1672411 -0.024910867
-0.4593037 -0.40182585 -0.04029327 -0.121519044 -0.011077203 0.16114205 -0.24393365 0.09197729
0.081080034 -0.06658182 0.09790279 -0.067581266 -0.18472205 -0.09408828 -0.28987563 0.0052237934
-0.41524944 0.0054231575 -0.04536929 -0.02579525 0.01259053 -0.013885193 -0.023495002 0.09490333
0.019686883 -0.25478634 -0.0759597 -0.283731 -0.14155763 -0.0593686 -0.009969659 -0.013917827
-0.048041433 0.032076757 0.21404716 -0.2111015 -0.10393396 -0.24163678 0.25713357 -0.045503616
-0.86829174 -0.037659883 -0.098462075 -0.17542505 -0.3014777 -0.06674298 -0.164789 -0.004897004
0.00036506032 -0.17548814 -0.08792169 -0.034071036 -0.0613453 -0.0060826987 0.08838821 -0.06174137
0.004241721 0.0572544 -0.4551553 -0.09728201 0.22913937 -0.523948 -0.04539548 -0.07202878
0.006407651 -0.3331158 -0.12438045 0.1680205 -0.0028527994 -0.021987148 -0.30274978 -0.18105793
0.012334805 0.3833359 0.015455291 -0.049626734 0.011606156 -0.074191704 0.059655108 -0.12564582
-0.07714556 0.26117975 -0.13837263 0.11720377 -0.022241378 0.026472028 0.1942026 -0.009473457
-0.023353778 -0.09779774 -0.03838511 0.1461123 -0.030422663 -0.27515012 -0.11703283 -0.0835089
0.06993679 0.0073048123 0.21052685 -0.082465574 0.057250343 -0.059816346 -0.18157257 -0.15692532
-0.13934356 -0.37083647 0.010482044 0.03479457 0.014691233 -0.05439775 -0.015557066 -0.061998367
0.08521707 -0.022656994 -0.014607101 -0.06416712 0.09155846 -0.015229543 -0.1233899 -0.13594466
0.07170969 -0.11993211 0.025319384 0.10251124 -0.49549836 -0.21387444 -0.47358564 -0.09546079
0.0710598 0.06483381 0.10925592 0.05883666 0.031784035 -0.064540215 0.07793291 -0.1115166
-0.06828488 0.026500663 -0.4410678 0.10032932 0.016477585 -0.06529081 0.13708654 -0.037975457
0.0622257 -0.05141541 -0.034199033 -0.09107511 -0.42688045 0.026837079 0.06209265 0.059168015
0.079651944 0.0789778 0.08634989 0.09538827 0.12860464 0.041358415 0.103698775 0.04724028
0.02248209 0.073097914 0.022273919 -0.034384884 -0.06741489 -0.0126842605 0.05146854 -0.014739244
0.1470923 0.065367214 -0.062460333 -0.045598254 -0.042015266 0.019504951 0.00093852635 -0.040984597
0.1572264 -0.078515306 -0.19136034 0.014293442 -0.016777962 0.020679323 -0.16686895 -0.018094216
0.052125648 0.16154434 -0.042995065 0.06891578 -0.07648969 0.11180992 0.058456197 -0.00582721
-0.06861745 0.064297065 -0.058332793 -0.096957944 -0.0063912324 0.07357006 0.05762468 0.025926905
0.007803519 0.11911666 -0.011138768 0.06932274 0.023532365 0.118882164 -0.06073448 0.078374356
-0.051603343 0.079526424 0.087182105 0.077581555 0.043600287 0.1393282 0.00701255 0.025314914
0.013435396 -0.08934568 0.050430134 0.078678556 0.051190533 0.060994748 0.14476809 -0.105697505
0.11107651 -0.0146391215 -0.034875263 0.061851468 -0.46116847 0.04855189 -0.09220939 0.0966636
0.02694523 0.030304074 0.16080667 -0.0032162587 -0.044750173 -0.03306765 0.087431125 0.028231915
-0.104640484 -0.0295303 -0.021912187 -0.02884649 -0.44758996 0.043074377 -0.039368834 -0.043995444
00000000: 22da 773d ae12 973d 2167 17be 0056 fbbe
00000010: 3eb6 afbd d665 003e 4041 2b3e e011 ccbc
00000020: db29 ebbe 1ebc cdbe 8e0a 25bd fade f8bd
00000030: 287d 35bc 6c02 253e bec9 79be 975e bc3d
00000040: 4a0d a63d 0d5c 88bd 4281 c83d 0c68 8abd
00000050: c727 3dbe 5bb1 c0bd 946a 94be 5b2c ab3b
00000060: 939b d4be beb4 b13b 26d5 39bd 8f50 d3bc
00000070: 8348 4e3c b87e 63bc 9778 c0bc ad5c c23d
00000080: 6346 a13c 5b73 82be c290 9bbd 3145 91be
00000090: 7cf4 10be 7d2c 73bd c857 23bc 9907 64bc
000000a0: 18c7 44bd eb62 033d 2e2f 5b3e fe2a 58be
000000b0: 54db d4bd a26f 77be 03a7 833e 0062 3abd
000000c0: 5e48 5ebf 4041 1abd 7ca6 c9bd a0a2 33be
000000d0: 495b 9abe 8bb0 88bd 73be 28be 0c77 a0bb
000000e0: 9165 bf39 2ab3 33be 4910 b4bd 128e 0bbd
000000f0: 3645 7bbd 6051 c7bb e104 b53d 85e4 7cbd
00000100: 22fe 8a3b 9783 6a3d 1e0a e9be ca3b c7bd
00000110: 83a3 6a3e 7521 06bf 9cf0 39bd d383 93bd
00000120: 46f7 d13b 278e aabe 2dbb febd 910d 2c3e
00000130: 08f6 3abb 641e b4bc 0502 9bbe 4067 39be
00000140: ec17 4a3c 9a44 c43e 3038 7d3c 6745 4bbd
00000150: bf27 3e3c d2f1 97bd ea58 743d 4ca9 00be
00000160: 7efe 9dbd 5ab9 853e 8eb1 0dbe 8808 f03d
00000170: 8d33 b6bc dedb d83c 0cdd 463e 8f36 1bbc
00000180: 6c50 bfbc 2e4a c8bd b539 1dbd 769e 153e
00000190: f338 f9bc 7ae0 8cbe e9ae efbd b706 abbd
000001a0: 053b 8f3d 355d ef3b 5a94 573e b6e3 a8bd
000001b0: 567f 6a3d fc01 75bd 29ee 39be 08b1 20be
000001c0: 14b0 0ebe 47de bdbe e1bc 2b3c c084 0e3d
000001d0: 7fb3 703c 2dd0 5ebd 10e3 7ebc 00f2 7dbd
000001e0: 4a86 ae3d 299b b9bc 9f52 6fbc 0d6a 83bd
000001f0: 0083 bb3d 5585 79bc d8b3 fcbd 1435 0bbe
00000200: 88dc 923d f79e f5bd 996a cf3c 6af1 d13d
00000210: f6b1 fdbe e701 5bbe d179 f2be f280 c3bd
00000220: cd87 913d 97c7 843d 91c1 df3d b6fe 703d
00000230: fa2f 023d a92d 84bd 4a9b 9f3d d162 e4bd
00000240: f1d8 8bbd eb17 d93c a4d3 e1be 7579 cd3d
00000250: 00fc 863c 30b7 85bd 6a60 0c3e 278c 1bbd
00000260: 60e0 7e3d f798 52bd 4914 0cbd 9685 babd
00000270: 1390 dabe 6fd9 db3c dd54 7e3d 295a 723d
00000280: 8f20 a33d 1dbf a13d 36d8 b03d ed5a c33d
00000290: efb0 033e 7167 293d 0660 d43d 067f 413d
000002a0: 5c2c b83c 5cb4 953d cb77 b63c 2ad7 0cbd
000002b0: d110 8abd a5d1 4fbc add0 523d df7c 71bc
000002c0: 5d9f 163e 3fdf 853d 68d6 7fbd 3cc5 3abd
000002d0: 3318 2cbd d9c8 9f3c 7007 763a 77df 27bd
000002e0: f5ff 203e a2cc a0bd f7f3 43be 0a2f 6a3c
000002f0: f071 89bc af67 a93c b2df 2abe 523a 94bc
00000300: b481 553d e16b 253e 981b 30bd b723 8d3d
00000310: a0a6 9cbd 99fc e43d c46f 6f3d 2ef2 bebb
00000320: 4e87 8cbd 2eae 833d 5eee 6ebd e391 c6bd
00000330: 8b6d d1bb e6ab 963d db07 6c3d a964 d43c
00000340: a9b4 ff3b 6ff3 f33d 617f 36bc 15f9 8d3d
00000350: f2c6 c03c 7e78 f33d b8c4 78bd bc82 a03d
00000360: 075e 53bd c0de a23d 888c b23d 14e3 9e3d
00000370: 3796 323d 0dac 0e3e 88c9 e53b 3961 cf3c
00000380: 2320 5c3c defa b6bd d48f 4e3d 3922 a13d
00000390: 2aad 513d a1d5 793d 163e 143e ef77 d8bd
000003a0: 157c e33d edd8 6fbc 5dd9 0ebd f757 7d3d
000003b0: 461e ecbe 59de 463d 47d8 bcbd 91f7 c53d
000003c0: 3ebc dc3c 4040 f83c 81aa 243e dec7 52bb
000003d0: f54b 37bd f271 07bd 170f b33d 9e46 e73c
000003e0: c04d d6bd 87e9 f1bc 3081 b3bc 794f ecbc
000003f0: 832a e5be c26e 303d 3741 21bd 9134 34bd

decoder_net.2.bias f4 [128]
1.908528 -0.05342827 -0.08895598 0.40706939 -0.4289109 -0.10823865 0.4582691 0.11417632
0.32223696 -0.11928457 -0.092930205 -0.016737832 -0.029947594 -0.21168911 -0.265465 0.2677323
0.65000427 -0.03981006 0.69864166 -0.08518234 -0.75198084 -1.3514215 -0.9052558 0.17502594
1.0053927 0.38710237 0.7721692 0.58609533 0.3249675 0.782595 -0.8233409 0.14151803
0.118541494 0.4211544 -0.01621045 -0.34013078 -0.07927418 0.21242604 -0.097792976 0.02729523
-0.16806439 -0.033306457 0.5806251 -0.07943149 -0.35124215 -0.0075797495 -0.075633585 0.08683938
1.150622 0.029165013 -0.3352909 0.2037322 0.32614112 -0.38547048 0.02963625 0.36270183
-0.14354193 0.90786177 -0.40824276 0.58723533 -0.4229834 -0.061748374 0.024324682 0.07520975
0.03446701 0.16408454 -0.07263255 -1.36166 0.92358637 -0.49407807 0.41742325 0.58842975
1.1684643 -0.03791239 -0.32754523 -0.8285566 0.74457186 0.24907617 -0.0117568765 0.09772337
-0.30111903 -0.110474445 0.020054389 0.007726701 0.014443736 -1.6357518 0.00870798 0.7892566
-0.24368359 -0.33437768 0.13474886 -0.0042133057 0.49858382 -0.25020352 -0.26324928 -0.045809284
-0.06202948 -0.114537954 -0.029505806 0.17329139 0.17690437 -0.12063905 -0.71842086 -0.3514451
-0.030351594 0.40505552 -0.023055159 0.5052139 -0.17203832 0.39946982 -0.53345764 -0.04539628
0.5445785 0.2087315 -0.075479165 -0.2733518 0.41774312 -0.060779743 -0.49714974 0.015820596
-0.040316 -0.79927534 -0.4688172 0.1452453 -0.5605866 -0.41353717 0.03982395 -0.018845523
00000000: a54a f43f 9ad7 5abd 8e2e b6bd 666b d03e
00000010: 369a dbbe 3aac ddbd 3fa2 ea3e 46d5 e93d
00000020: 3efc a43e 784b f4bd 3152 bebd c71d 89bc
00000030: a854 f5bc 08c5 58be 07eb 87be 3514 893e
00000040: ae66 263f e00f 23bd 2eda 323f 1474 aebd
00000050: d181 40bf 61fb acbf d8be 67bf 003a 333e
00000060: b5b0 803f 4832 c63e e1ac 453f 580a 163f
00000070: 2462 a63e 2558 483f 78c6 52bf 1aea 103e
00000080: e2c5 f23d 8da1 d73e c7cb 84bc 9f25 aebe
00000090: 805a a2bd 3686 593e af47 c8bd 3f9a df3c
000000a0: 1219 2cbe 5a6c 08bd d9a3 143f faac a2bd
000000b0: 03d6 b3be 8c5f f8bb c8e5 9abd d8d8 b13d
000000c0: 9547 933f 77eb ee3c 40ab abbe 2d9f 503e
000000d0: f8fb a63e 635c c5be b9c7 f23c 0eb4 b93e
000000e0: a8fc 12be a169 683f 3205 d1be 0e55 163f
000000f0: 4891 d8be ddeb 7cbd 8e44 c73c 9207 9a3d
00000100: 482d 0d3d c705 283e 60c0 94bd e04a aebf
00000110: 2870 6c3f cdf7 fcbe 80b8 d53e 55a3 163f
00000120: 3d90 953f 064a 1bbd 02b4 a7be 491c 54bf
00000130: 439c 3e3f d30d 7f3e ea9f 40bc 3123 c83d
00000140: 462c 9abe 6d40 e2bd 1a49 a43c 4430 fd3b
00000150: 6ba5 6c3c 5160 d1bf eaab 0e3c b80c 4a3f
00000160: 3188 79be 8d33 abbe 9bfb 093e c50f 8abb
00000170: 6146 ff3e ad1a 80be 9cc8 86be 84a2 3bbd
00000180: a012 7ebd e092 eabd 29b6 f1bc 4c73 313e
00000190: 6b26 353e 9b11 f7bd 6eea 37bf 9df0 b3be
000001a0: e8a3 f8bc 7063 cf3e 2cde bcbc b355 013f
000001b0: d02a 30be 4f87 cc3e ae90 08bf 73f1 39bd
000001c0: 7f69 0b3f b6bd 553e d294 9abd c4f4 8bbe
000001d0: 6de2 d53e 2ef4 78bd 698a febe 329a 813c
000001e0: 6422 25bd 4f9d 4cbf cf08 f0be 2fbb 143e
000001f0: 9a82 0fbf 25bb d3be 701e 233d ed61 9abc

decoder_net.4.weight f4 [50, 128]
0.2891356 0.02418694 0.25464967 -0.04466002 0.08719109 0.041612916 0.052710522 0.33249477
-0.059711114 -0.0946926 0.12038617 -0.052687027 0.1109511 -0.10093559 0.09603384 -0.15373889
0.15715355 0.033277564 -0.20375833 0.058368262 0.08092052 0.08034412 0.24902898 -0.17490275
-0.08141962 -0.23835292 0.03974944 -0.14041567 0.052074146 0.016483335 0.12790236 -0.008338277
-0.17316927 0.0066768057 0.0020411168 0.061065327 -0.047067452 0.033765055 0.010095773 -0.022239758
-0.0272609 -0.0723105 -0.0070039136 -0.070600465 0.029305868 -0.10515405 -0.035338826 -0.1542437
0.15235792 -0.039650854 -0.032185536 -0.19404869 -0.10558816 -0.18181922 -0.0059974897 -0.04079325
-0.0363014 -0.26505673 0.08561155 -0.17041156 0.06904209 0.16556922 0.050066385 -0.04612924
-0.020222219 -0.10443496 -0.10740151 0.028431354 -0.10835978 -0.05393698 -0.10126626 -0.0017583186
0.08761444 -0.015368606 -0.0010300928 0.026181346 0.062059306 0.19928415 -0.025250291 0.14527503
0.110457 0.03768366 0.066987805 0.015311651 0.0066117444 0.21494164 -0.053027872 -0.24878898
-0.06545512 -0.009066547 -0.28819692 -0.016453827 0.01653245 -0.04112534 0.03161055 -0.06916116
0.02676261 -0.019415746 0.013047737 0.072415195 -0.06748279 -0.018485872 0.0014693965 -0.118983775
-0.07655265 0.04268422 0.08081166 -0.043152712 -0.00492944 0.069028914 0.25132814 -0.26841718
-0.1604876 0.010706695 -0.12622349 0.043119986 0.06174357 0.061224654 -0.07783064 0.039592177
0.03437063 0.015131378 0.063205175 -0.021112721 -0.037047345 -0.0136134755 0.0751274 0.027151598
-0.27963662 -0.03390807 -0.10079587 -0.018027337 0.022134013 0.011294288 0.100434124 -0.08816123
0.10789202 0.050412264 0.039648637 -0.06470258 0.08568609 -0.056633234 0.033183005 0.11478188
-0.049242977 0.012258478 0.3270689 -0.056372005 0.19313379 0.0374232 -0.15411645 -0.18552755
0.023727166 -0.010318958 -0.15279178 0.24323884 -0.27238613 -0.09097101 -0.1567785 0.06319515
0.16399959 -0.09508931 0.035560086 -0.135652 -0.05003144 -0.122576505 -0.16473745 -0.018180758
0.08638683 -0.004578248 0.13531408 -0.030655043 0.066382915 0.123744465 -0.008774763 -0.23147598
-0.25007173 -0.020585107 0.06257973 0.012725608 -0.2513473 -0.38360095 -0.0610839 0.1309103
-0.029507274 0.2800488 0.17939264 0.0809498 0.089851774 -0.23494326 -0.06019045 -0.057729587
0.14216378 0.17074087 0.0028890914 -0.054358985 -0.067888245 -0.30209705 -0.025474353 -0.087998554
-0.24653362 0.025340488 -0.10620002 0.048043292 -0.20590667 -0.101462975 0.0603065 0.19174036
0.18137097 0.059933484 -0.1668957 0.120129 -0.0666849 0.22648232 0.34911114 0.31942415
0.18982007 -0.08651849 -0.31307587 -0.0023165848 0.2642317 -0.28298536 -0.10730303 -0.025095122
0.11767173 0.055166624 -0.021545378 0.006635812 -0.058767054 -0.16846149 -0.024856528 -0.014420693
0.120888606 -0.11748808 0.010392328 0.03977228 -0.011960352 -0.13787171 -0.05503346 -0.12255984
0.016733853 0.062023275 -0.11749237 -0.2831616 0.0045812908 -0.016961968 0.2578494 0.054596275
0.020945324 0.087665 0.11901083 0.18846309 -0.012128517 0.03599286 -0.07342338 -0.026564311
00000000: 9509 943e b123 c63c 7161 823e 6ded 36bd
00000010: 3e91 b23d 4e72 2a3d fde6 573d c13c aa3e
00000020: a493 74bd 32ee c1bd 068d f63d 5ace 57bd
00000030: 553a e33d 52b7 cebd 64ad c43d ba6d 1dbe
00000040: dcec 203e 0e4e 083d 06a6 50be 8f13 6f3d
00000050: a8b9 a53d 758b a43d 7401 7f3e b519 33be
00000060: 54bf a6bd ca12 74be 4fd0 223d 20c9 0fbe
00000070: b34b 553d 0f08 873c d6f8 023e 459d 08bc
00000080: 4953 31be 1bc9 da3b 42c4 053b a31f 7a3d
00000090: cdc9 40bd 3a4d 0a3d be68 253c 2730 b6bc
000000a0: 4052 dfbc 8717 94bd 1681 e5bb fa96 90bd
000000b0: dc12 f03c 025b d7bd 72bf 10bd 0ff2 1dbe
000000c0: b703 1c3e ef68 22bd fbd4 03bd b3b4 46be
000000d0: 9b3e d8bd d12e 3abe 9786 c4bb d316 27bd
000000e0: c7b0 14bd 84b5 87be 1c55 af3d 5e80 2ebe
000000f0: f065 8d3d fa8a 293e 6912 4d3d 04f2 3cbd
00000100: 11a9 a5bc ffe1 d5bd 53f5 dbbd dfe8 e83c
00000110: bbeb ddbd 06ed 5cbd af64 cfbd 6277 e6ba
00000120: 336f b33d 9bcc 7bbc 2e04 87ba 437a d63c
00000130: e631 7e3d 2511 4c3e b3d9 cebc fac2 143e
00000140: 4837 e23d 2e5a 1a3d e730 893d b8dd 7a3c
00000150: 55a7 d83b a919 5c3e c133 59bd 8ac2 7ebe
00000160: 550d 86bd db8b 14bc 8c8e 93be 2dca 86bc
00000170: 106f 873c 0b73 28bd 107a 013d 5ea4 8dbd
00000180: 433d db3c c50d 9fbc 2dc6 553c 6b4e 943d
00000190: 6b34 8abd af6f 97bc c498 c03a c4ad f3bd
000001a0: a3c7 9cbd a6d5 2e3d 9580 a53d e6c0 30bd
000001b0: 2487 a1bb 085f 8d3d 15ae 803e fa6d 89be
000001c0: dd56 24be 226b 2f3c bb40 01be 959e 303d
000001d0: d3e6 7c3d b4c6 7a3d ac65 9fbd 682b 223d
000001e0: 38c8 0c3d 99e9 773c b771 813d 96f4 acbc
000001f0: f5be 17bd 0e0b 5fbc 65dc 993d 076d de3c
00000200: 882c 8fbe 30e3 0abd 116e cebd 11ae 93bc
00000210: 6452 b53c ad0b 393c 68b0 cd3d e08d b4bd
00000220: 7ef6 dc3d 177d 4e3d 9c66 223d c982 84bd
00000230: 307c af3d 40f8 67bd e7ea 073d c312 eb3d
00000240: 01b3 49bd c9d7 483c 9375 a73e 55e6 66bd
00000250: ddc4 453e 1249 193d b4d0 1dbe effa 3dbe
00000260: 795f c23c d910 29bc 7375 1cbe 9a13 793e
00000270: 3276 8bbe 024f babd 8b8a 20be 756c 813d
00000280: 82ef 273e 2fbe c2bd 74a7 113d 5ce8 0abe
00000290: c4ed 4cbd 6409 fbbd efb0 28be d0ef 94bc
000002a0: 94eb b03d 2105 96bb c68f 0a3e 4920 fbbc
000002b0: c4f3 873d bd6d fd3d 06c4 0fbc 0a08 6dbe
000002c0: 6709 80be 19a2 a8bc cd29 803d 127f 503c
000002d0: 98b0 80be 5867 c4be 1d33 7abd 5a0d 063e
000002e0: 3db9 f1bc 8e62 8f3e b4b2 373e 02c9 a53d
000002f0: 3504 b83d f794 70be 438a 76bd dc75 6cbd
00000300: 6293 113e b2d6 2e3e e956 3d3b 87a7 5ebd
00000310: fe08 8bbd 77ac 9abe 97af d0bc 9638 b4bd
00000320: 4f73 7cbe db96 cf3c 657f d9bd 0bc9 443d
00000330: 33d9 52be d2cb cfbd f303 773d 9657 443e
00000340: 50b9 393e d07c 753d b5e6 2abe 3106 f63d
00000350: 1892 88bd fbea 673e b2be b23e 908b a33e
00000360: 3160 423e 9b30 b1bd 7b4b a0be d8d1 17bb
00000370: 6149 873e 75e3 90be b1c1 dbbd 4994 cdbc
00000380: e0fd f03d 66f6 613d ef7f b0bc 3a71 d93b
00000390: b9b5 70bd 2b81 2cbe eb9f cbbc c544 6cbc
000003a0: 7294 f73d 979d f0bd 9544 2a3c 42e8 223d
000003b0: 5af5 43bc 3e2e 0dbe c46a 61bd a700 fbbd
000003c0: 6f15 893c 1e0c 7e3d d79f f0bd 8ffa 90be
000003d0: a71e 963b d3f3 8abc d604 843e 58a0 5f3d
000003e0: 8795 ab3c b589 b33d f3bb f33d 78fc 403e
000003f0: b0b6 46bc 406d 133d ff5e 96bd 669d d9bc

decoder_net.4.bias f4 [50]
-0.8129295 -0.14790154 0.15838438 -0.35037944 0.1452841 -0.37115687 -0.16131781 -1.251707
-0.8288217 0.3038514 -0.75217277 -1.149457 -0.9037138 -0.40635046 0.6782437 -0.3761323
0.164126 -0.5829873 -1.0332791 -0.18354921 -1.1535559 0.015602287 0.47731662 0.032039218
-0.38981155 0.31571007 -0.10615579 0.38838547 -0.8833652 0.035432093 0.3411187 0.24791382
0.27435464 0.15620978 -0.5096348 -0.1467704 -0.14277248 -0.53806996 0.17102006 0.20134902
-0.16928726 0.3827374 -0.046230882 -0.23791716 -0.051908676 0.087276675 0.1891083 -0.378938
0.41256258 0.2487887
00000000: 261c 50bf 8073 17be 842f 223e ef64 b3be
00000010: 5bc5 143e 4608 bebe 7f30 25be ef37 a0bf
00000020: a92d 54bf 6992 9b3e 658e 40bf 6821 93bf
00000030: ca59 67bf 2b0d d0be 61a1 2d3f 6a94 c0be
00000040: a510 283e a83e 15bf 7d42 84bf 53f4 3bbe
00000050: b8a7 93bf bca0 7f3c d862 f43e 8e3b 033d
00000060: 6195 c7be c0a4 a13e 3568 d9bd 76da c63e
00000070: 3924 62bf 3e21 113d 1ca7 ae3e 1fdd 7d3e
00000080: 3678 8c3e 75f5 1f3e 6d77 02bf fb4a 16be
00000090: f332 12be f4be 09bf e21f 2f3e 702e 4e3e
000000a0: a459 2dbe 28f6 c33e 985c 3dbd 8ea0 73be
000000b0: 319e 54bd 1dbe b23d 9ba5 413e 2904 c2be
000000c0: 673b d33e 77c2 7e3e
