experiment_dscale_0.1/decoder_8_seed123.pt (torch, 96236 bytes, 6 tensors)

decoder_net.0.weight f4 [128, 2]
0	0x3e890cb7	0.26767513
1	0xbf8f01b7	-1.1172398
2	0x3f7a3095	0.9773038
3	0xbf1fe754	-0.62462354
4	0x3edf7dd9	0.43650702
5	0xbe7c4b5b	-0.24638121
6	0xbf15945a	-0.5842949
7	0xbf259fc9	-0.6469694
8	0x3f62c85c	0.88586974
9	0xbd109a95	-0.03530367
10	0x3f1d3955	0.61415607
11	0xbece62fa	-0.40309888
12	0x3f41fd45	0.75777084
13	0xbd856fb6	-0.06515448
14	0x3f20d14a	0.6281935
15	0xbed7e913	-0.4217001
16	0xbf80ec90	-1.0072193
17	0xbefe067c	-0.49614322
18	0xbf13b960	-0.57704735
19	0x3f0a527d	0.5403212
20	0xbf64255f	-0.89119524
21	0xbee878d5	-0.45404688
22	0x3ea714da	0.32633096
23	0x3eba3bd0	0.36373758
24	0x3f07af28	0.5300164
25	0x3d1d8b10	0.0384627
26	0x3f424877	0.7589182
27	0x3dcdf290	0.10056031
28	0xbf1e6151	-0.61867243
29	0xbeed6a3a	-0.46370107
30	0x3f5216ba	0.8206593
31	0xbf0a0dae	-0.53927124
32	0x3f29124e	0.66043556
33	0xbedb616c	-0.42847764
34	0xbf11507c	-0.56763434
35	0x3ea2e698	0.31816554
36	0x3f5e01ee	0.86721694
37	0xbd1921bb	-0.037385684
38	0x3ea1fc53	0.3163782
39	0xbf899862	-1.0749629
40	0xbef85226	-0.48500174
41	0xbe89531b	-0.26821217
42	0x3e960320	0.2929926
43	0x3fc60120	1.5469093
44	0xbf3c3136	-0.7351259
45	0xbf52883d	-0.82239133
46	0x3e532e9f	0.20623253
47	0x3f9a0287	1.2032021
48	0xbebb0c9f	-0.36533067
49	0x3eae0508	0.33988214
50	0xbe7aa6e0	-0.2447772
51	0x3f27240a	0.65289366
52	0x3f0c7358	0.548635
53	0xbf01ba18	-0.5067458
54	0x3f3f1a09	0.746491
55	0xbf04bed1	-0.5185366
56	0x3f6f1a99	0.9339996
57	0xbe14356e	-0.14473507
58	0xbf1f976f	-0.62340444
59	0x3f19ce59	0.60080487
60	0x3f33de18	0.70260763
61	0xbf46e025	-0.7768577
62	0x3f219a71	0.63126284
63	0xbf397107	-0.7243809
64	0x3d91b2f7	0.07114213
65	0xbee45680	-0.44597244
66	0x3dc2b427	0.095070176
67	0xbf700ac1	-0.9376641
68	0xbe106a37	-0.14103018
69	0xbf481610	-0.78158665
70	0xbf1d9609	-0.6155706
71	0x3f133ca7	0.57514423
72	0x3f0e55d7	0.5559973
73	0x3c42150c	0.011845838
74	0x3f3db725	0.7410758
75	0x3f545cf3	0.8295433
76	0xbf5543dd	-0.83306676
77	0xbeda4003	-0.42626962
78	0x3e9a7e47	0.30174467
79	0xbf3ee0d3	-0.74561805
80	0xbf196f23	-0.59935206
81	0x3f0bcdd0	0.5461092
82	0x3f3568f2	0.7086326
83	0x3e3e004f	0.18554805
84	0xbea7a519	-0.32743147
85	0xbf23a891	-0.63929087
86	0xbf632cc1	-0.88740164
87	0x3f540d52	0.82832825
88	0xbf6017d6	-0.8753637
89	0x3f505b74	0.81389546
90	0xbee3744f	-0.44424674
91	0x3f10c47f	0.5654983
92	0x3e8426ee	0.2581095
93	0xbf422392	-0.75835526
94	0xbe5b15bf	-0.21395014
95	0x3f7b6ba4	0.9821112
96	0xbecc0736	-0.39849252
97	0xbe89e513	-0.26932582
98	0xbebd1905	-0.3693315
99	0x3e4f74bd	0.20259376
100	0xbf4f54fd	-0.80989057
101	0xbe812a5d	-0.25227633
102	0xbf06a781	-0.5259934
103	0xbe0fbbda	-0.14036503
104	0xbf27b328	-0.65507746
105	0x3f1d8008	0.61523485
106	0xbf12ca65	-0.5734008
107	0x3c95926c	0.018258296
108	0xbf680f32	-0.90648186
109	0xbeee6f57	-0.4656932
110	0xbece00de	-0.40235037
111	0x3f723f9b	0.94628304
112	0x3f06e0a4	0.52686524
113	0x3f1412cf	0.578412
114	0x3f1edb27	0.6205315
115	0xbf26f701	-0.6522065
116	0x3f4dd494	0.80402493
117	0xbd3268c4	-0.043556944
118	0xbf6922ef	-0.9106893
119	0xbef1be57	-0.4721553
120	0xbf23db0e	-0.64006126
121	0x3d49f3fd	0.04930495
122	0xbef3ad5d	-0.47593203
123	0x3c56fb08	0.013121374
124	0x3f5f7da7	0.87301105
125	0xbf085f51	-0.5327044
126	0xbefea467	-0.49734804
127	0x3f21e4b2	0.63239586
128	0x3f4cf6d3	0.80064124
129	0x3f615a2f	0.88028234
130	0x3f3ea5cb	0.7447173
131	0x3f83539d	1.0259892
132	0xbf1018f4	-0.56288075
133	0x3f3455db	0.70443505
134	0xbe8b2f37	-0.2718446
135	0x3e6a089d	0.22854848
136	0x3e8a41d7	0.27003357
137	0xbf493ae8	-0.7860551
138	0xbf0d5790	-0.55211735
139	0xbf1c75fd	-0.61117536
140	0x3f8343a1	1.0255014
141	0x3f075a84	0.5287249
142	0x3bda705b	0.006666226
143	0xbf25549d	-0.64582235
144	0x3f61c009	0.8818365
145	0xbf1ea108	-0.61964464
146	0xbe916ceb	-0.2840341
147	0x3e553de5	0.20824392
148	0xbf095173	-0.53639907
149	0xbe8d4c7c	-0.27597415
150	0x3ebb65d5	0.3660113
151	0xbee2e6b6	-0.44316643
152	0xbdc0bf4b	-0.09411486
153	0x3f86028f	1.0469531
154	0x3f26d2b4	0.6516526
155	0xba49d1f7	-0.00076988287
156	0xbf0075e1	-0.5017987
157	0x3eef1041	0.46692088
158	0xbf0e0753	-0.55479926
159	0x3f046954	0.5172322
160	0x3f227e09	0.63473564
161	0x3e2a89a9	0.16654076
162	0xbe5b0382	-0.21388057
163	0xbf862734	-1.0480714
164	0x3f69694b	0.9117629
165	0xbf0c691d	-0.5484789
166	0xbf790bb7	-0.972835
167	0xbd56e44c	-0.052463815
168	0x3f94d3d4	1.1627145
169	0x3f17faf2	0.5936729
170	0x3f4bf82c	0.79675555
171	0x3f5f48c8	0.8722043
172	0x3f45cc07	0.77264446
173	0x3e26699f	0.16251229
174	0xbf340c4d	-0.7033127
175	0xbcaf9529	-0.02143343
176	0xbefb93a5	-0.4913608
177	0xbe7d1401	-0.24714662
178	0xbe8b68dc	-0.2722844
179	0xbf189a82	-0.5961076
180	0x3f150f21	0.5822621
181	0xbc62fa67	-0.013853646
182	0x3e2c26c1	0.16811658
183	0x3f828bf9	1.0198966
184	0x3f1d0392	0.6133357
185	0xbf259c48	-0.6469159
186	0x3f4f7915	0.8104413
187	0x3ed46aef	0.41487834
188	0xbe25b376	-0.1618174
189	0x3f237d4a	0.6386305
190	0x3f1a5260	0.60281944
191	0x3f7e67d7	0.993772
192	0xbec6aafd	-0.3880233
193	0x3f7b2299	0.98099667
194	0xbf0ca624	-0.5494101
195	0xbc6a5da8	-0.014304556
196	0xbf26b9b9	-0.6512714
197	0xbf38f70b	-0.7225196
198	0xbea826dd	-0.3284215
199	0x3f64de22	0.8940145
200	0xbf5c0054	-0.85938
201	0xbe955698	-0.29167628
202	0x3dfcf335	0.123510756
203	0xbf6f6de1	-0.93527037
204	0x3f3f747b	0.7478711
205	0x3f3d6214	0.7397778
206	0xbf6cab69	-0.9244905
207	0x3e30d2fd	0.17267986
208	0xbe7dfc31	-0.24803235
209	0x3f2cbb3c	0.67473197
210	0xbd7c9dd5	-0.061673958
211	0x3f979b65	1.1844298
212	0x3ebbd0c6	0.3668272
213	0xbe8f959b	-0.28043827
214	0x3ed36c1b	0.41293415
215	0x3f2524d9	0.6450935
216	0x3f59ed0b	0.85127324
217	0xbd9e09f2	-0.07716741
218	0xbea3c02a	-0.31982547
219	0xbf54a86f	-0.8306951
220	0xbeca7ad1	-0.39546826
221	0x3e5d4298	0.21607435
222	0xbf2a93a3	-0.66631526
223	0xbe31102b	-0.17291324
224	0xbf2d30fb	-0.67652863
225	0xbeb14224	-0.34620774
226	0xbe951f70	-0.29125547
227	0xbea5d9cc	-0.32392728
228	0x3f046197	0.5171141
229	0x3f6121f7	0.8794245
230	0x3f48edfd	0.7848814
231	0xbce53127	-0.02797754
232	0xbf67a088	-0.90479326
233	0xbe575674	-0.21029073
234	0xbed31f7d	-0.4123496
235	0x3eb19f9c	0.34692085
236	0xbe8559a7	-0.26044962
237	0xbf395d7e	-0.7240828
238	0x3f044467	0.51666874
239	0xbf83ed8e	-1.0306871
240	0x3f676201	0.9038392
241	0xbf12ec6b	-0.57391995
242	0xbe90882e	-0.28228897
243	0x3e52e947	0.205968
244	0xbf1b91f4	-0.6076958
245	0xbcb392d6	-0.021920603
246	0x3ea28685	0.31743255
247	0xbf95ded2	-1.1708624
248	0x3f0645ac	0.5245006
249	0xbd140bda	-0.036144115
250	0xbf60d37a	-0.8782269
251	0xbe554d8a	-0.2083036
252	0x3f698165	0.91213065
253	0x3e6553c8	0.22395241
254	0x3ddcd303	0.10782435
255	0xbf898c5b	-1.0745958

decoder_net.0.bias f4 [128]
0	0xbe24b222	-0.16083577
1	0x3f30bf79	0.69042164
2	0xbf2469c3	-0.6422388
3	0xbf25c19b	-0.64748544
4	0x3ebd468e	0.3696789
5	0x3f6f4945	0.93471175
6	0x3fc57ebc	1.5429301
7	0xbf49ecc5	-0.78876907
8	0xbfa8f554	-1.3199868
9	0x3d966a4b	0.073444925
10	0xbd83293e	-0.06404351
11	0x3ea9bd8a	0.3315242
12	0x3e6ed610	0.23323846
13	0x3ffb0706	1.9611518
14	0xbe5defde	-0.21673533
15	0x3fafae33	1.3725036
16	0x3f33a05a	0.7016655
17	0x3f1793f1	0.59210116
18	0x3faaa275	1.3330828
19	0xbf91b4fd	-1.1383358
20	0xbf9eb53e	-1.2399061
21	0xbec23ef2	-0.37938648
22	0xbeb2302b	-0.34802374
23	0x3e85ffd7	0.26171753
24	0xbd32f880	-0.04369402
25	0xbf4423e7	-0.7661728
26	0xbeb21d6d	-0.34788075
27	0xbfa4de7c	-1.2880397
28	0xbf308770	-0.6895666
29	0xbf6db4c3	-0.92853945
30	0xbf830edb	-1.0238909
31	0xbead3e63	-0.3383666
32	0xbf4fdaf0	-0.8119345
33	0xbfaf6101	-1.3701478
34	0xbe63b2f0	-0.22236228
35	0xbdecd4d6	-0.11564033
36	0xbf43f5ac	-0.7654674
37	0x3f731c9f	0.9496555
38	0x3c454fa6	0.012042915
39	0x3dcd7279	0.100315996
40	0xbf1352ea	-0.5754839
41	0xbf9de52d	-1.2335564
42	0x3ef606a9	0.48051956
43	0x3d38999b	0.045068365
44	0x3dea7c4e	0.114494905
45	0xbf8300a9	-1.0234576
46	0x3fecf097	1.8510922
47	0xbf49aa0c	-0.78775096
48	0xbfdfb636	-1.7477481
49	0x3f12dfc1	0.5737267
50	0x3eb30991	0.34968236
51	0x3f5f7f71	0.87303835
52	0xbe3729d5	-0.17887051
53	0xbeeaf4c3	-0.45889863
54	0x3e2b0703	0.16701894
55	0x3e72a188	0.23694432
56	0xbe028853	-0.12747316
57	0xbfea7437	-1.8316716
58	0x3c391251	0.011295871
59	0x3ecfd7f1	0.40594438
60	0x3dc6b23c	0.09701964
61	0xbee926c1	-0.4553738
62	0xbd4f6da8	-0.050641686
63	0xbf14ffdf	-0.5820293
64	0x3f286ec9	0.65794045
65	0x3e9ceaca	0.3064788
66	0xbf795513	-0.9739544
67	0x3f48a10c	0.7837074
68	0x3fe83be5	1.8143278
69	0xbf21f1ba	-0.6325947
70	0xbf383ad0	-0.7196474
71	0xbc7ee114	-0.0155565925
72	0xbfdd35ab	-1.7282003
73	0xbf914024	-1.1347699
74	0x3c9d80ae	0.019226398
75	0x3ec8b013	0.39196834
76	0x3f814a2d	1.0100762
77	0xbfdf2975	-1.7434527
78	0xbd1e4973	-0.038644265
79	0x3cff2be8	0.031148866
80	0xbf967c31	-1.175665
81	0x3f1acc4f	0.60468
82	0xbe435236	-0.1907433
83	0xbd14de57	-0.036344852
84	0xbeb18ef0	-0.34679365
85	0x3edf5c53	0.43625125
86	0x3f0f55e6	0.55990446
87	0x3f1ab984	0.60439324
88	0xbea2ed3e	-0.31821626
89	0x4006c616	2.1058402
90	0xbfd6e98e	-1.6790025
91	0x3ebf9761	0.3742018
92	0xbfd3cf2f	-1.6547602
93	0xbedf64f8	-0.4363172
94	0xbd0cfce2	-0.034420855
95	0x400b49a5	2.17637
96	0xbedebdcd	-0.43504182
97	0x3f187cce	0.59565437
98	0xbf18c620	-0.59677315
99	0xbf9ab215	-1.2085596
100	0xbea9ce12	-0.33165032
101	0xbfb399bb	-1.403129
102	0xbff79a39	-1.934394
103	0x3e934d36	0.28769845
104	0xbf600ee4	-0.8752272
105	0xbf5075d5	-0.814298
106	0x3fc9dda8	1.5770769
107	0x3f8c2ec6	1.0951774
108	0xbf536d0b	-0.8258826
109	0x3f78415a	0.9697472
110	0x3f2c6d53	0.67354316
111	0x3f9df4cf	1.2340335
112	0xbc6aa429	-0.014321365
113	0xbebcb65f	-0.36857888
114	0x400e4c6e	2.223415
115	0x3ecead4a	0.40366584
116	0x3d0bf44e	0.034168534
117	0xbf615953	-0.8802692
118	0x3e8f6280	0.28004837
119	0xbf410e0d	-0.75412065
120	0x3f160f11	0.5861674
121	0xbf8e29ac	-1.1106467
122	0x3eb01b5b	0.3439587
123	0xbf3640ca	-0.7119261
124	0x3f47dc6a	0.780707
125	0x3e04ca11	0.12967707
126	0xc00357ec	-2.0522413
127	0xbf3747d0	-0.7159395

decoder_net.2.weight f4 [128, 128]
0	0x3cebdb0c	0.028790973
1	0x3d715c52	0.058925934
2	0xbdca1be2	-0.098685995
3	0xbe9255ef	-0.28581187
4	0xbd546ad1	-0.05185968
5	0x3e0da508	0.13832486
6	0x3e224199	0.15845336
7	0xbba879e1	-0.005141482
8	0xbeb85452	-0.3600183
9	0xbefdbb25	-0.49556842
10	0xbecfdb3b	-0.40596947
11	0xbdd19ed4	-0.10235372
12	0x3cb05af7	0.02152775
13	0x3ddfac59	0.109215446
14	0xbdf9f33f	-0.12204599
15	0x3dd37935	0.10325853
16	0x3d99ca7f	0.07509326
17	0xbc9e2523	-0.019304818
18	0x3dbf3ee1	0.09338165
19	0x3dbeb6f6	0.09312241
20	0xbf168579	-0.58797413
21	0xbd490c69	-0.0490841
22	0xbe3b8d59	-0.18315639
23	0xbd0139e6	-0.031549357
24	0xbecdba90	-0.40181398
25	0x3e14bb19	0.14524497
26	0xbd2b4070	-0.0418095
27	0xbd20adb3	-0.039228152
28	0x3c38021c	0.011230972
29	0xbc5bc008	-0.013412483
30	0xbd133e07	-0.035947826
31	0x3d1f30e9	0.038865004
32	0xbe230a3b	-0.15921871
33	0xbe4a1535	-0.19734652
34	0xbd1fcae6	-0.03901186
35	0xbe8940c0	-0.26807213
36	0xbdfbcf76	-0.122954294
37	0xbd7c8ee0	-0.061659694
38	0xbec28aed	-0.37996617
39	0x3ccdb0f7	0.025108797
40	0xbd9f7cbd	-0.07787464
41	0xbd21009c	-0.03930722
42	0x3cc3d700	0.02390623
43	0xbe14028f	-0.14454101
44	0xbe21147d	-0.15730472
45	0xbf0ea9aa	-0.55727637
46	0x3e6f8e87	0.23394214
47	0x3da085c5	0.078380145
48	0xbf2c53cd	-0.6731537
49	0xbc34f71d	-0.0110452445
50	0xbe0f4b37	-0.13993536
51	0xbe8782b4	-0.26466906
52	0xbeba3b47	-0.3637335
53	0xbd79f7ea	-0.061027445
54	0xbf0312e4	-0.512007
55	0x3dfa0c64	0.122093946
56	0xbca3656b	-0.01994582
57	0xbe00c785	-0.1257611
58	0xbd838ed1	-0.064237244
59	0xbe8f1e9f	-0.2795305
60	0xbd89fbc1	-0.06737471
61	0x3c77db25	0.015127932
62	0x3dd7e728	0.105421364
63	0xbebe8d10	-0.37216997
64	0xbb29d096	-0.002591168
65	0x3cb84496	0.022493642
66	0xbf115cff	-0.56782526
67	0xbd462130	-0.048371494
68	0x3e2e7532	0.17036894
69	0xbe929858	-0.28631854
70	0xbd5a7e93	-0.053343367
71	0xbd62f337	-0.05540773
72	0x3cd9c733	0.026584243
73	0x3d383c1c	0.0449792
74	0xbefc89a3	-0.49323758
75	0x3d7326ed	0.059363294
76	0xbc6ef285	-0.014584188
77	0xbcf69723	-0.030101364
78	0xbe49fc7b	-0.1972522
79	0xbe4ab5b0	-0.19795871
80	0x3c0b352c	0.008496564
81	0x3e42e073	0.19030933
82	0x3d39ef64	0.045394316
83	0xbd63db8a	-0.05562929
84	0xbc9ae359	-0.018907236
85	0xbd90d0ec	-0.07071099
86	0x3d8bdab0	0.06828821
87	0xbdb227d3	-0.08699002
88	0xbee68f9d	-0.45031443
89	0x3ea2e667	0.31816408
90	0xbe18c512	-0.14918926
91	0x3db41674	0.08793345
92	0xbb67e2ba	-0.0035382942
93	0xbd046ad6	-0.03232845
94	0x3e112203	0.1417313
95	0xbd2ff383	-0.04295684
96	0x3dbccd99	0.09218902
97	0xbd69037d	-0.056888092
98	0xbe45875f	-0.19289921
99	0x3dc38f88	0.09548861
100	0xbec9bf87	-0.39403936
101	0xbe44576f	-0.19173978
102	0xbdb82b0b	-0.08992585
103	0xbda80597	-0.08204191
104	0xbc94b75f	-0.018153844
105	0xbd8042e2	-0.06262757
106	0x3e1a7068	0.15081942
107	0xbc87b0ab	-0.016563734
108	0x3d3044d3	0.043034386
109	0x3cb31cc2	0.021864299
110	0xbe14a212	-0.1451495
111	0xbe0f0f3b	-0.13970654
112	0xbefebc52	-0.49753052
113	0xbdfce3a4	-0.123481065
114	0x3d9cdfbf	0.07659864
115	0x3d7d98d6	0.061913334
116	0x3c9ade77	0.018904908
117	0xbd55fa24	-0.052240506
118	0x3dc42be2	0.095786825
119	0xbd20ad34	-0.03922768
120	0x3db6a8ea	0.089189366
121	0xbceb1438	-0.028696164
122	0xbc015db1	-0.007895873
123	0x3da57d5a	0.080805495
124	0x3dbcdfd4	0.09222379
125	0xbc4cffa0	-0.012512118
126	0xbe17c7c5	-0.148223
127	0xbdbf3119	-0.093355365
128	0x3d2c617f	0.042085167
129	0xbdd946af	-0.10609185
130	0xbeb76a59	-0.35823324
131	0x3d9e06cd	0.07716141
132	0xbe8f5611	-0.2799535
133	0xbe7e378c	-0.24825877
134	0xbe76b68f	-0.24093078
135	0xbe87725e	-0.26454443
136	0x3a8cba41	0.001073666
137	0x3d60d0ca	0.054886617
138	0x3dcdcdfa	0.100490525
139	0x3db061c6	0.08612399
140	0xbe42a552	-0.19008377
141	0xbe4242a8	-0.1897074
142	0xbcaeaf40	-0.0213238
143	0xbe70b0b5	-0.23504908
144	0xbe18de58	-0.14928567
145	0x3d894a93	0.06703677
146	0xbe41d2af	-0.18928026
147	0x3d512a54	0.051065758
148	0x3c37924a	0.011204312
149	0xbd909101	-0.07058907
150	0x3deba6d5	0.1150643
151	0xbd7cfaa3	-0.061762463
152	0x3d5d3553	0.054005932
153	0xbd0a8ab6	-0.03382369
154	0xbeeee58d	-0.46659508
155	0xbbbb73b7	-0.0057205814
156	0xbe84ff3a	-0.25975972
157	0x3d765aa5	0.06014504
158	0xbea39c75	-0.31955305
159	0xbe02052b	-0.12697284
160	0x3d3fac20	0.04679501
161	0x3d3700fd	0.044678677
162	0xbc251eec	-0.010078173
163	0x3db50082	0.088379875
164	0xbe13cc5c	-0.14433426
165	0x3cf85671	0.030314656
166	0x3dcb0e2f	0.09914815
167	0xbcb3437a	-0.021882761
168	0x3cf14426	0.029451441
169	0xbd590ac6	-0.05298879
170	0x3da16edd	0.078824736
171	0xbd12d613	-0.03584869
172	0xbd29f22e	-0.041490726
173	0x3c108c95	0.00882258
174	0x3c8ff0dd	0.017570907
175	0x3bbbd420	0.0057320744
176	0x3c6190d4	0.01376744
177	0x3deefcbc	0.11669299
178	0xbde1db64	-0.110281736
179	0xbdef17c0	-0.11674452
180	0xbd4a9265	-0.04945602
181	0xbb5a1932	-0.0033279178
182	0xb9ac04c6	-0.00032809953
183	0xbcef501f	-0.02921301
184	0x3d876acd	0.066121675
185	0xbf1a1f36	-0.60203874
186	0xbe07a485	-0.13246353
187	0x3be6b549	0.007040654
188	0x3cff1983	0.031140095
189	0xbb66e04b	-0.0035228904
190	0xbde474c9	-0.111550875
191	0xbacefe3b	-0.0015792319
192	0x3cf0d77e	0.02939963
193	0x3e3de934	0.18545991
194	0xbcf6cd45	-0.030127177
195	0x3de60887	0.11232095
196	0xbdd41b50	-0.10356772
197	0x3daf331b	0.085546695
198	0x3cf53612	0.02993301
199	0xbce47e57	-0.027892275
200	0xbd524ae5	-0.051340956
201	0x3d81a244	0.06329778
202	0xbd81919b	-0.063266
203	0xbca51165	-0.020149896
204	0x3c5df724	0.013547692
205	0xbe608713	-0.21926527
206	0x3d80b211	0.062839635
207	0x3cefb679	0.029261814
208	0xbe3e1c0c	-0.18565387
209	0x3ccd7242	0.025078896
210	0xbc8f3098	-0.017479226
211	0x3cf356c3	0.029704457
212	0x3d975ed0	0.07391131
213	0x3db0d657	0.08634632
214	0xbe28a42b	-0.16468875
215	0x3d6d7cc3	0.05798031
216	0xbd684e0a	-0.05671505
217	0x3dcb9d6f	0.099421374
218	0xbe637a30	-0.2221458
219	0x3d77a36e	0.060458593
220	0xbe9e3d5a	-0.30906183
221	0x3e21d2ae	0.15803024
222	0x3ca4efc2	0.020133857
223	0x3d966f69	0.073454686
224	0x3cfc26f9	0.030780302
225	0xbd60c8b0	-0.05487889
226	0x3cc29abd	0.023755426
227	0x3daff6df	0.08592009
228	0x3c2d92ce	0.010594083
229	0x3cd189e0	0.02557844
230	0x3dc4f9b7	0.09617942
231	0xbda2a1fb	-0.079410516
232	0x3df487fe	0.11940001
233	0xbbb31bf6	-0.0054659797
234	0xbecfb67e	-0.40568918
235	0x3e2e3558	0.17012537
236	0xbe563c5d	-0.20921464
237	0x3d19ff2e	0.037596874
238	0xbd354a27	-0.04426017
239	0x3d0fb9a6	0.035089158
240	0x3c936df9	0.017996775
241	0x3bba1659	0.0056789336
242	0x3e3b2885	0.18277176
243	0xbe491cda	-0.19639912
244	0xbdc86080	-0.09784031
245	0xbcd358c2	-0.025799159
246	0x3d84e65e	0.064892516
247	0xbdf574e5	-0.119851865
248	0xbdb38885	-0.087662734
249	0xbcaab7d8	-0.020839617
250	0xbd45065a	-0.04810176
251	0xbd96c8f7	-0.0736255
252	0xbe6d960c	-0.2320177
253	0xbc446515	-0.01198699
254	0xbe3db465	-0.18525846
255	0xbd9ef9fe	-0.07762526

decoder_net.2.bias f4 [128]
0	0x3fe4e536	1.788245
1	0xbbfcfccc	-0.0077205654
2	0x3ea0cd37	0.31406567
3	0x3eb4bc49	0.352999
4	0xbefd04b7	-0.4941766
5	0xbdd6ac21	-0.1048205
6	0x3f480302	0.7812959
7	0x3f65b139	0.89723545
8	0x3e98f9de	0.29878134
9	0x3f063694	0.5242703
10	0xbd80ccc6	-0.062890574
11	0xbc6a0fcf	-0.014285996
12	0xbcff510e	-0.03116658
13	0xbeeee7f0	-0.4666133
14	0xbf186824	-0.59533906
15	0xbd6788e3	-0.05652703
16	0xbe00f1da	-0.12592259
17	0xbdfc8d9d	-0.12331698
18	0x3f3489c8	0.7052274
19	0xbdaf82a2	-0.08569838
20	0x3edc4569	0.43021706
21	0xbfcbd1fa	-1.5923455
22	0xbf2991f1	-0.66238314
23	0x3ee3ecc5	0.44516578
24	0x3f4d22a0	0.8013096
25	0x3ef1d51a	0.47232896
26	0x3f057b6d	0.5214146
27	0x3f1fcb28	0.62419367
28	0xbeca171c	-0.39470756
29	0x3ee966b9	0.45586184
30	0xbf853dd1	-1.040949
31	0x3ea22883	0.31671533
32	0x3daec0aa	0.085328415
33	0x3ecde59a	0.40214235
34	0xbd5a2b86	-0.053264163
35	0xbed013b7	-0.4064004
36	0xbd7e32c8	-0.062060148
37	0x3ea65f43	0.32494554
38	0x3e8eb097	0.27869102
39	0x3c2a601e	0.010398893
40	0xbdbf0e2a	-0.093288735
41	0xbcc3f9b6	-0.023922782
42	0x3e934fd6	0.28771847
43	0x3e9836cb	0.29729304
44	0xbebf9f8d	-0.37426415
45	0xbe71c5f9	-0.23610677
46	0xbd9ae5c8	-0.075633585
47	0x3e162a68	0.14664614
48	0x3f8d188a	1.1023114
49	0x3cee6cd1	0.029104622
50	0x3e00a5d4	0.12563258
51	0x3f1a49ef	0.60269064
52	0x3e8ff28e	0.28114742
53	0xbf0026d9	-0.50059277
54	0x3d06b425	0.032886643
55	0x3cdadbf4	0.02671621
56	0xbe0408dd	-0.12894006
57	0x3f82b399	1.0211059
58	0xbf170f4c	-0.59007716
59	0x3f0afc72	0.5429145
60	0xbe9d6379	-0.30739954
61	0x3e84822c	0.25880563
62	0x3cd45147	0.025917662
63	0xbdfa95f2	-0.12235631
64	0xbfa5891a	-1.2932465
65	0x3e3c6396	0.18397364
66	0xbf2e5c3c	-0.6810949
67	0xbfcf412e	-1.6191766
68	0x3f51c839	0.8194614
69	0xbf052b01	-0.52018744
70	0x3eada745	0.3391668
71	0x3eb97984	0.36225522
72	0x3f0b96fc	0.5452726
73	0xbd8a15b4	-0.06742421
74	0x3e9114ef	0.28336284
75	0xbf5db15f	-0.8659877
76	0x3f26e5bc	0.65194297
77	0x3f8903c8	1.0704279
78	0xbbdb9254	-0.0067007933
79	0xbdf7e6d6	-0.12104575
80	0xbe826756	-0.25469464
81	0xbe88f133	-0.2674652
82	0x3c66c65e	0.01408538
83	0xbcab9de3	-0.02094931
84	0x3c6ca56b	0.014443736
85	0xbfb34c4c	-1.4007659
86	0xbe3d9074	-0.18512136
87	0x3f6c6bed	0.9235218
88	0xbc07531b	-0.00825956
89	0xbf12a71c	-0.5728624
90	0x3eb3f884	0.3515054
91	0xbbbbf75a	-0.0057362737
92	0x3ec5f0db	0.3866032
93	0xbe904fca	-0.28185874
94	0xbde0e49d	-0.109811045
95	0xbd3eee9e	-0.04661428
96	0xbea44cf2	-0.32089955
97	0xbe3b7a79	-0.18308438
98	0xbecda560	-0.40165234
99	0xbf2e44ce	-0.6807374
100	0x3dddd506	0.108316466
101	0xbdc62f75	-0.096770205
102	0xbd84aecb	-0.064786516
103	0xbf44bd65	-0.76851493
104	0x3d4e10ac	0.05030887
105	0x3e010e5d	0.12603135
106	0xbcbcde2c	-0.023055159
107	0x3efbd132	0.4918304
108	0x3e87fd39	0.2656038
109	0x3f2d7855	0.6776174
110	0xbeca058f	-0.39457366
111	0xbd5c2740	-0.05374837
112	0x3f15b61c	0.58481
113	0x3e6512e6	0.2237049
114	0x3e94daff	0.2907333
115	0xbe3b738f	-0.18305801
116	0x3f46e556	0.7769369
117	0x3b1b93aa	0.0023739138
118	0x3c62e6db	0.013848986
119	0xbe546f71	-0.20745637
120	0xbd205646	-0.039144777
121	0xbf8682aa	-1.0508626
122	0x3de3ef46	0.11129622
123	0xbdabc557	-0.08387249
124	0xbf5b123c	-0.855747
125	0x3e1a45a0	0.15065622
126	0x3eb80a02	0.35945135
127	0xbc835fd1	-0.0160369

decoder_net.4.weight f4 [50, 128]
0	0x3e03f5f4	0.12886792
1	0xbca3f839	-0.020015823
2	0x3e7ca34a	0.24671665
3	0xbc56a10d	-0.013099921
4	0x3d8e3d9b	0.06945344
5	0x3d1c7216	0.03819474
6	0x3d2c0426	0.041996144
7	0x3e9e2b0e	0.30892223
8	0xbe0446ef	-0.12917684
9	0xbe4baef3	-0.19890957
10	0x3d970606	0.07374196
11	0xbd221a32	-0.039575763
12	0x3d481132	0.048844524
13	0xbca1aefd	-0.019736761
14	0x3e1f51d6	0.15558562
15	0xbe10f9fe	-0.14157864
16	0x3d53d0fd	0.05171298
17	0x3d31420d	0.04327588
18	0xbe382878	-0.17984188
19	0x3d66b631	0.056326095
20	0xbdb64c88	-0.08901316
21	0x3d8f39fa	0.0699348
22	0x3e05d4a1	0.13069393
23	0xbe121df8	-0.14269245
24	0xbcdc175d	-0.02686661
25	0xbe7741d3	-0.24146204
26	0x3d01befb	0.031676274
27	0xbe05aa9b	-0.13053362
28	0xbdb4d980	-0.08830547
29	0x3e088185	0.13330658
30	0x3db8e953	0.09028878
31	0xbd3c72af	-0.04600781
32	0xbcb6a10c	-0.02229359
33	0x3c8c3d11	0.017118962
34	0xbcbd45ce	-0.023104575
35	0x3ddac502	0.106821075
36	0xbd49e474	-0.049290136
37	0xbcdcc361	-0.026948633
38	0xb88ad02c	-6.619128e-05
39	0xbceacdea	-0.02866264
40	0xbcbce73b	-0.023059478
41	0xbda3215e	-0.07965349
42	0xbc86d7ad	-0.016460264
43	0xbe250a8a	-0.16117302
44	0xbd2ff9ce	-0.04296284
45	0xbd9f2e0d	-0.07772455
46	0xbd10bf72	-0.035338826
47	0xbe1170c3	-0.14203171
48	0x3d579db1	0.05264062
49	0xbd1c7084	-0.03819324
50	0xbcc3150b	-0.023813745
51	0x3df317db	0.118697844
52	0xbe443439	-0.19160546
53	0xbe4c2d3b	-0.19939129
54	0xbb459365	-0.0030147668
55	0xbd235ed3	-0.039885353
56	0xbdc9b933	-0.09849777
57	0xbe543399	-0.20722808
58	0x3e074332	0.13209227
59	0xbdfcc6c4	-0.12342599
60	0x3de80f4b	0.11331042
61	0x3dbd0a81	0.09230519
62	0x3d32aae1	0.043619994
63	0xbd78c29f	-0.06073248
64	0x3dbedd0d	0.09319506
65	0xbdefa663	-0.117016576
66	0xbd03b98d	-0.032159377
67	0x3d07cfec	0.033157274
68	0x3ce8b3ce	0.02840605
69	0xbe1058c3	-0.1409636
70	0xbddfe126	-0.109316155
71	0xbdafec67	-0.08590012
72	0x3d7c1c9f	0.061550733
73	0xbcb72836	-0.022358041
74	0xbd0dd04b	-0.03462247
75	0x3d943c3e	0.07238053
76	0x3d8ac462	0.06775738
77	0x3e1bee73	0.1522768
78	0xbcdcef67	-0.026969625
79	0x3e298a8b	0.16556756
80	0x3dd3a78c	0.103346914
81	0x3e0d536e	0.13801357
82	0xbdde1e1a	-0.10845585
83	0xbd512da3	-0.051068913
84	0x3bd8a755	0.0066117444
85	0x3e53cb65	0.20683058
86	0xbdfff847	-0.12498527
87	0xbe8ce2ad	-0.2751669
88	0xbce8d76d	-0.028423036
89	0xbd546f6b	-0.05186407
90	0xbe6ab301	-0.22919847
91	0xbc3f538c	-0.011677634
92	0xbe2e04d5	-0.16994031
93	0xbd871191	-0.065951474
94	0xbd26dfcd	-0.040740777
95	0xbd8f895c	-0.07008621
96	0xbd2d93d8	-0.042377323
97	0x3e6e07f7	0.23245226
98	0x3d961ba5	0.073294915
99	0x3e707496	0.23481974
100	0xbdb33965	-0.087511815
101	0xbc128ac3	-0.008944216
102	0x3bdf0bfa	0.0068068476
103	0xbe10aadc	-0.14127678
104	0xbeb0156f	-0.34391353
105	0x3e08a04e	0.13342401
106	0x3da58095	0.08081166
107	0xbdc9e9b4	-0.098590285
108	0xbce215ba	-0.02759825
109	0x3df73002	0.12069704
110	0x3cfb304e	0.030662682
111	0xbe43516c	-0.19074029
112	0xbe34e190	-0.1766417
113	0x3d1db52f	0.03850287
114	0xbe2523c3	-0.16126923
115	0xbd1299de	-0.03579127
116	0x3e0be283	0.13660626
117	0xbd52d9ea	-0.05147735
118	0xbcbe4271	-0.023225041
119	0xbe2363d1	-0.15956046
120	0x3d0b940e	0.034076743
121	0x3da21418	0.07913989
122	0xbd053a94	-0.032526568
123	0x3d5d061a	0.053960897
124	0x3af9d3e2	0.0019060338
125	0x3c73ddd8	0.014884435
126	0x3de3ff28	0.111326516
127	0x3ce152b2	0.027505253
128	0xbe477024	-0.19476372
129	0xbd137254	-0.035997704
130	0xbbf4430c	-0.0074542817
131	0xbd723d93	-0.059140753
132	0x3e0b0b06	0.13578424
133	0x3c710e67	0.014712906
134	0x3d1936f4	0.037405923
135	0xbded989b	-0.11601373
136	0x3e8ad848	0.27118134
137	0x3dd1a792	0.102370396
138	0x3c53a346	0.012917345
139	0xbd8b39ad	-0.0679811
140	0x3cc12c30	0.02358064
141	0xbd369e8a	-0.04458479
142	0x3e028a06	0.12747964
143	0x3e1727cc	0.14761275
144	0xbd408b0b	-0.0470076
145	0xbc00db23	-0.007864746
146	0x3e9df013	0.30847225
147	0xbd967391	-0.07346261
148	0x3dab9d90	0.08379662
149	0x3d46d8ea	0.04854671
150	0xbb0c224f	-0.0021382754
151	0x38ee278d	0.00011356091
152	0x3ccde0a1	0.025131525
153	0xbda63ec1	-0.08117438
154	0x3e0371a0	0.12836313
155	0x3e3a4cba	0.18193331
156	0xbdfc95c9	-0.12333257
157	0xbe2a3dbb	-0.16625111
158	0x3cc2b11b	0.023766091
159	0xbda7200c	-0.08160409
160	0x3cb4bb8d	0.022062087
161	0xbe2223c7	-0.1583396
162	0xbb25f4a0	-0.002532281
163	0xbe008ef5	-0.12554534
164	0xbdaf9725	-0.085737504
165	0xbdeeef10	-0.11666691
166	0xbdfdca97	-0.123921566
167	0xbd72a545	-0.059239645
168	0x3d89edef	0.06734835
169	0x3bb85a30	0.0056259856
170	0x3d7280c7	0.059204843
171	0xbd1e4995	-0.038644392
172	0x3b0bbe2d	0.002132307
173	0x3db8c50c	0.09021959
174	0xbc0fc406	-0.008774763
175	0xbe422f06	-0.1896325
176	0xbe4d096d	-0.20023127
177	0xbc9cb59a	-0.019129563
178	0x3d26425c	0.04059063
179	0x3c9ccb49	0.019139903
180	0xbebd10af	-0.3692679
181	0xbee79f3a	-0.45238668
182	0xbd84601d	-0.06463645
183	0xbd7f9fca	-0.062408246
184	0x3d0d95aa	0.03456656
185	0x3e701c72	0.23448351
186	0x3e42a91d	0.19009824
187	0x3d83ef01	0.06442071
188	0x3d9e6a38	0.07735103
189	0xbe3d299c	-0.18472904
190	0xbd5dd59c	-0.054158792
191	0xbd494cb4	-0.049145415
192	0x3ec1e781	0.37871936
193	0x3e5d9597	0.21639095
194	0xbdea6702	-0.114454284
195	0x3cc93aea	0.024564225
196	0xbdec21d0	-0.11529887
197	0xbe967cbb	-0.29392037
198	0x3cce1c97	0.025160117
199	0xbe1c7b13	-0.15281324
200	0xbb8b8b57	-0.004258554
201	0x3cb05187	0.02152325
202	0x3e1544e2	0.14577058
203	0x3d102cc8	0.035198957
204	0xbe49dfa4	-0.19714218
205	0xbe2ce201	-0.16883089
206	0x3d78699f	0.060647603
207	0x3e4eafbf	0.2018423
208	0xbe18a9f9	-0.1490859
209	0x3d6649ed	0.056222845
210	0xbead8096	-0.33887166
211	0x3d7741c3	0.06036545
212	0xbd889218	-0.0666849
213	0x3dafd8f5	0.08586303
214	0xbce16f1b	-0.0275188
215	0x3e2cff27	0.16894208
216	0x3d5aa75a	0.053382255
217	0xbd61c846	-0.055122636
218	0xbd9c9de9	-0.076473065
219	0xbbd3651e	-0.006451263
220	0x3eeeff87	0.46679327
221	0xbe319112	-0.17340496
222	0xbd730bec	-0.05933754
223	0xbcc66d99	-0.024222182
224	0xbc9ef086	-0.0194018
225	0x3e880078	0.26562858
226	0xba77eeec	-0.00094579044
227	0x3c450316	0.0120246615
228	0xbd9ea793	-0.07746806
229	0xbd8f5d22	-0.070001855
230	0xbd5476d8	-0.05187115
231	0xbe09d49f	-0.13460015
232	0x3ef2c9d7	0.47419617
233	0xbdf424ef	-0.11921107
234	0x3c2a4495	0.010392328
235	0x3d2b3682	0.04180003
236	0xbb9b6810	-0.00474263
237	0xbe612376	-0.21986184
238	0xbe2b9c52	-0.1675885
239	0xbd34d5e5	-0.0441493
240	0xbd0a20ff	-0.033722874
241	0x3dce407a	0.10070892
242	0x3db9cd2b	0.09072336
243	0xbdcad227	-0.09903365
244	0xbd21b76a	-0.039481558
245	0xbd6a4ca4	-0.057201996
246	0x3d92960e	0.07157527
247	0x3e3c629e	0.18396994
248	0x3c8bf51c	0.01708465
249	0x3e0c14de	0.13679835
250	0x3e3c5279	0.18390836
251	0xbdc1dce1	-0.094659574
252	0x3d84d299	0.06485481
253	0xbcf724b8	-0.030168876
254	0xbdb1d329	-0.08682854
255	0xbcd1a8ec	-0.025593244

decoder_net.4.bias f4 [50]
0	0xbf3a8dbb	-0.72872514
1	0xbe1ff6e9	-0.15621532
2	0x3e49f101	0.19720842
3	0xbeb3df88	-0.35131478
4	0x3d681be5	0.056667227
5	0xbeb423b9	-0.35183504
6	0xbdfd27c2	-0.12361099
7	0xbfa56a25	-1.2923018
8	0xbf45c27f	-0.772499
9	0x3eaa92f9	0.33315256
10	0xbf365ab3	-0.71232146
11	0xbfa0d724	-1.2565656
12	0xbf666cf7	-0.9001002
13	0xbec79582	-0.38981253
14	0x3f1ebb19	0.6200424
15	0xbf19e955	-0.6012166
16	0x3e4084c4	0.18800646
17	0xbf26db38	-0.6517825
18	0xbf8391f2	-1.0278914
19	0xbe3e3e20	-0.18578386
20	0xbf9eb569	-1.2399112
21	0x3e3637f8	0.17794788
22	0x3e9520d0	0.29126596
23	0xbd5d4434	-0.05402012
24	0xbee0d47d	-0.43912116
25	0x3ebf22ed	0.37331334
26	0x3da27f77	0.07934468
27	0x3ebc89c5	0.3682386
28	0xbf5c0652	-0.85947144
29	0x3d6b01d6	0.057374798
30	0x3ed637a2	0.4183932
31	0x3e94fdc6	0.29099864
32	0x3e725a52	0.23667267
33	0x3e2ffbee	0.17185947
34	0xbf0cc752	-0.5499164
35	0xbe0b092d	-0.13577719
36	0xbe30d86b	-0.17270057
37	0xbf0b7206	-0.5447086
38	0x3e3d49d1	0.1848519
39	0x3e772b3c	0.24137586
40	0xbe57f62b	-0.2109
41	0x3ec27a53	0.3798395
42	0xbe0e8d57	-0.13921104
43	0xbe54a40e	-0.20765707
44	0xbda7c260	-0.08191371
45	0x3daddc13	0.084892415
46	0x3e64903a	0.22320643
47	0xbecf0a85	-0.40437713
48	0x3ecb7601	0.39738467
49	0x3e9e6db0	0.3094306
