models_v103/dec1/model_rerun4.pt (torch, 185670 bytes, 20 tensors)

encoder.encoder_net.0.weight f4 [128, 50]
0.13271907 -0.037060346 -0.08097436 0.3307055 -0.027680745 -0.07475755 -0.016272394 0.23726144
-0.1269603 0.15071017 0.3073659 -0.13230388 -0.10154982 -0.0040234467 0.047025435 -0.025625294
0.108937055 -0.056887377 0.032127514 0.15155108 -0.023119379 0.23022282 0.02287995 -0.016526574
-0.045125436 -0.02095994 -0.1704541 0.06863318 -0.07168738 0.13345921 -0.13713135 -0.014602402
0.116415955 0.034677666 0.047696587 0.14308073 0.13702007 -0.06180056 -0.07045382 0.107406765
0.019260637 0.18182981 0.11322313 0.02368441 0.04936353 -0.08305313 -0.037014335 -0.0433571
0.049109276 -0.15833636 -0.02718386 0.062223792 0.005032892 -0.07359123 0.094502866 0.10634377
0.24712661 -0.33730388 -0.042977944 -0.10198773 -0.009320342 -0.10641968 -0.08769279 0.160835
-0.10559966 0.19185941 -0.21254124 -0.011541549 -0.07752576 0.015083671 -0.101551756 -0.14566903
-0.11994515 -0.059191845 0.0182469 0.032726407 0.12410117 -0.030953184 0.072807886 -0.32984376
0.00705732 -0.07148305 0.100196876 0.022361897 -0.058599956 0.042521857 -0.012873717 0.10997877
-0.0105943335 -0.07211243 -0.15848446 -0.13360934 -0.017244978 -0.056100715 -0.07498882 -0.04051714
-0.06716233 0.11879305 -1.8840217e-06 -0.015699694 0.014950728 0.03435092 0.05504847 0.045144
-0.027082156 0.08356026 -0.049605805 -0.054753773 0.11260418 -0.049927358 0.013526177 0.034154642
0.108668864 -0.08321027 -0.30255246 0.12876853 -0.06298127 -0.04108791 -0.028280629 -0.10305304
-0.024616035 0.11069248 -0.19502565 0.06068682 -0.1139715 0.06528861 0.06403741 -0.12408916
0.06941864 -0.09709095 0.023706572 -0.05220785 0.10064988 -0.26407823 0.053172708 0.16332963
-0.029328024 0.18303455 0.31396255 -0.10228792 -0.030792303 -0.0009832792 0.052106 0.0010489095
-0.22120187 0.01956611 -0.059589084 0.09085915 -0.21357626 0.14636144 0.026781065 -0.0040947674
0.08718332 -0.09826863 -0.11545605 0.024971021 0.1421163 0.094979465 -0.055754628 0.025659466
0.06091154 0.17161472 -0.011056178 0.0027455485 -0.0734096 -0.002836724 0.048329923 0.08931244
0.0785959 0.1702202 0.119933896 0.11990219 0.19153588 -0.012864301 0.048229486 -0.07556953
-0.20967756 0.17842473 -0.24691984 -0.10382577 -0.043539494 -0.093827605 0.040109735 0.26611978
0.11724462 -0.07715029 -0.0711597 0.14717817 -0.0008558431 -0.0060951603 -0.13749236 -0.15901463
-0.18919325 -0.09907669 0.11724276 0.07985184 0.09559479 0.17831199 0.025910605 -0.0012610597
-0.117129534 0.13869318 0.22396679 -0.02363371 -0.17942704 0.1460262 0.17938319 -0.017671118
-0.07345673 -0.06750076 -0.15899764 0.013976454 0.02393469 0.050159242 -0.11967948 0.089709245
-0.04721264 -0.021793308 -0.057668682 -0.020358752 0.005206506 -0.22437006 -0.15733993 0.03352113
-0.06494838 -0.1701061 0.032511353 -0.09919082 0.051701233 0.040573645 -0.062391374 -0.07547282
0.063546486 -0.033071097 -0.10042128 0.00012428376 0.04438963 0.18054077 0.014383207 -0.1748311
-0.09929647 -0.14213008 0.003234854 0.038063716 -0.027618457 -0.019298086 -0.15329456 -0.05408182
-0.13778414 -0.103713155 -0.059503842 0.042770512 0.035312776 -0.016178964 -0.17030385 -0.08911982
00000000: 82e7 073e 97cc 17bd e3d5 a5bd 3b52 a93e
00000010: bbc2 e2bc 7d1a 99bd af4d 85bc aaf4 723e
00000020: e201 02be c453 1a3e 105f 9d3e ab7a 07be
00000030: 5af9 cfbd 1ed7 83bb be9d 403d 23ec d1bc
00000040: 641a df3d bd02 69bd 2498 033d 3530 1b3e
00000050: da64 bdbc 88bf 6b3e bc6e bb3c bd62 87bc
00000060: 73d5 38bd 2eb4 abbc 858b 2ebe 8d8f 8c3d
00000070: d5d0 92bd 88a9 083e 296c 0cbe ea3e 6fbc
00000080: 7d6b ee3d 2b0a 0e3d 7f5d 433d c183 123e
00000090: fd4e 0c3e 9622 7dbd 184a 90bd 14f8 db3d
000000a0: 7cc8 9d3c 9831 3a3e 87e1 e73d cf05 c23c
000000b0: 6a31 4a3d c217 aabd 589c 17bd 3797 31bd
000000c0: cf26 493d ed22 22be b0b0 debc 60de 7e3d
000000d0: f5ea a43b 00b7 96bd b88a c13d c3ca d93d
000000e0: c20e 7d3e 18b3 acbe a409 30bd f1de d0bd
000000f0: 59b4 18bc 90f2 d9bd 4798 b3bd eeb1 243e
00000100: a244 d8bd cb76 443e 69a4 59be c418 3dbc
00000110: d3c5 9ebd 8021 773c 5efa cfbd 432a 15be
00000120: cea5 f5bd 2673 72bd 867a 953c 200c 063d
00000130: c128 fe3d 8891 fdbc 4d1c 953d 48e1 a8be
00000140: 1741 e73b b565 92bd 0534 cd3d 4c30 b73c
00000150: 8206 70bd 662b 2e3d 48ec 52bc 8d3c e13d
00000160: db93 2dbc afaf 93bd c049 22be e3d0 08be
00000170: 5745 8dbc ddc9 65bd bd93 99bd 4df5 25bd
00000180: 678c 89bd c549 f33d 7ede fcb5 a59c 80bc
00000190: e6f3 743c 8db3 0c3d 817a 613d eae8 383d
000001a0: 66db ddbc a421 ab3d 752f 4bbd 7e45 60bd
000001b0: 059d e63d a180 4cbd e69c 5d3c bde5 0b3d
000001c0: c88d de3d 256a aabd 28e8 9abe e6db 033e
000001d0: 53fc 80bd cc4b 28bd c7ac e7bc 790d d3bd
000001e0: 91a7 c9bc bdb2 e23d ceb4 47be be92 783d
000001f0: e469 e9bd 09b6 853d 0c26 833d 7522 febd
00000200: 5c2b 8e3d 9fd7 c6bd 4934 c23c e6d7 55bd
00000210: 8621 ce3d 4335 87be a0cb 593d e23f 273e
00000220: 5341 f0bc 696d 3b3e b3bf a03e 547c d1bd
00000230: 2440 fcbc 60e1 80ba 1a6d 553d 907b 893a
00000240: be82 62be 1b49 a03c af13 74bd 5d14 ba3d
00000250: bcb3 5abe c6df 153e f763 db3c 662d 86bb
00000260: 2b8d b23d 1041 c9bd 3974 ecbd 0790 cc3c
00000270: ef86 113e 9884 c23d f75e 64bd cd33 d23c
00000280: 617e 793d c5bb 2f3e f924 35bc a9ee 333b
00000290: c657 96bd 55e8 39bb 99f5 453d 71e9 b63d
000002a0: e3f6 a03d 344e 2e3e e79f f53d 488f f53d
000002b0: fb21 443e cac4 52bc 488c 453d 33c4 9abd
000002c0: b7b5 56be f9b4 363e 8ed8 7cbe 9ba2 d4bd
000002d0: 7856 32bd b028 c0bd 1b4a 243d da40 883e
000002e0: f31d f03d f900 9ebd 2dbc 91bd e0b5 163e
000002f0: a95a 60ba e9b9 c7bb ccca 0cbe bbd4 22be
00000300: e0bb 41be b8e8 cabd f91c f03d 5d89 a33d
00000310: 34c7 c33d 6b97 363e 7a42 d43c 244a a5ba
00000320: 9ce1 efbd 9605 0e3e 8d57 653e 7b9b c1bc
00000330: b9bb 37be e487 153e 3ab0 373e 05c3 90bc
00000340: 7b70 96bd d73d 8abd 47d0 22be 7ffd 643c
00000350: af12 c43c c773 4d3d 841a f5bd 7bb9 b73d
00000360: 0b62 41bd e187 b2bc ff35 6cbd 66c7 a6bc
00000370: 569b aa3b 44c1 65be b81d 21be 744d 093d
00000380: a803 85bd 4b30 2ebe a02a 053d 8e24 cbbd
00000390: acc4 533d 8d30 263d 198e 7fbd 7e91 9abd
000003a0: a924 823d 8f75 07bd aca9 cdbd 2b52 0239
000003b0: e7d1 353d aedf 383e 8ba7 6b3c ed06 33be
000003c0: f35b cbbd 8c8a 11be d8ff 533b b3e8 1b3d
000003d0: 1a40 e2bc 0517 9ebc 40f9 1cbe e684 5dbd
000003e0: 4917 0dbe 9067 d4bd 4dba 73bd 2230 2f3d
000003f0: 21a4 103d bf89 84bc 2264 2ebe 7484 b6bd

encoder.encoder_net.0.bias f4 [128]
-0.23161772 -0.8546485 -0.8510065 0.38566425 -0.08919937 -1.2822953 -0.4780507 -1.1342937
-1.8983617 -0.16459244 -1.6185888 -0.9251529 -1.3646383 -1.373211 -2.619131 -1.1945524
1.2441632 -2.640416 -2.40184 -0.48290104 -1.8911062 -1.7280794 -1.6475735 -0.5423872
-1.4687301 -0.4630777 -2.3846483 -0.9822079 -1.5942514 -2.0465202 -0.16972661 -1.2541761
-1.59348 0.05173465 -1.5835369 -2.410719 -2.1125114 -0.2954961 0.4357749 -0.64445734
-0.09536657 -0.11310641 -0.1144744 -0.8087423 0.70706743 0.53669924 -1.8116682 -0.7253619
-1.3100374 -1.0622112 -2.6583283 -2.8920135 -0.17521214 -0.8610582 -0.45559943 -0.90828454
-0.88735974 -1.7986693 -2.5294266 -0.8954253 1.2649719 -1.7183857 0.40792358 -1.3180765
-1.0354148 -0.84873533 0.3027878 -1.2546376 -0.78747725 -1.6675568 -2.1083102 -2.1591914
-1.2263525 -0.43664485 0.67160654 -0.4617803 -1.4456826 -2.4045403 -2.2617624 -2.0047157
-1.2042413 -1.489348 -2.0575752 -0.7322563 -0.92838615 -0.81321514 -2.5592794 -1.2585326
-1.5083399 -1.8971964 -1.1317366 -0.19190367 -0.48374918 -2.2810905 -0.92756706 -0.40825093
0.29624635 -1.5202218 -1.6807214 -0.98048306 -1.2779361 -1.5202085 -0.94068867 -0.06815273
-2.1822762 -0.085566185 -0.86130744 0.64576715 -0.06648496 -0.9510235 -1.0201983 -2.19216
-0.8186709 -1.6368748 -0.5659688 -0.8958463 -0.97676814 0.16551316 -1.845267 -1.0903153
0.8853757 0.41106787 -1.270992 -1.2155205 -2.5017278 -0.268092 -0.5052095 -0.4562224
00000000: 322d 6dbe 3eca 5abf 90db 59bf c975 c53e
00000010: 29ae b6bd 4122 a4bf 10c3 f4be 8930 91bf
00000020: 84fd f2bf ec8a 28be eb2d cfbf d2d6 6cbf
00000030: 78ac aebf 61c5 afbf d89f 27c0 18e7 98bf
00000040: bd40 9f3f 93fc 28c0 bfb7 19c0 ce3e f7be
00000050: c50f f2bf b531 ddbf b0e3 d2bf e3d9 0abf
00000060: 59ff bbbf 8518 edbe 149e 18c0 fa71 7bbf
00000070: 6e10 ccbf 30fa 02c0 d0cc 2dbe d888 a0bf
00000080: 27f7 cbbf b6e7 533d 56b1 cabf 3849 1ac0
00000090: 6333 07c0 444b 97be e31d df3e 28fb 24bf
000000a0: 8c4f c3bd 55a4 e7bd 8e71 eabd bc09 4fbf
000000b0: 5f02 353f 1f65 093f bee4 e7bf 51b1 39bf
000000c0: 4eaf a7bf 89f6 87bf 0d22 2ac0 c016 39c0
000000d0: d06a 33be 4f6e 5cbf 5444 e9be 5685 68bf
000000e0: 022a 63bf cc3a e6bf 20e2 21c0 983a 65bf
000000f0: 99ea a13f 10f4 dbbf 5cdb d03e bbb6 a8bf
00000100: 7988 84bf b846 59bf 0107 9b3e f797 a0bf
00000110: 1c98 49bf 8072 d5bf 8eee 06c0 3130 0ac0
00000120: 1ef9 9cbf ea8f dfbe 68ee 2b3f 786e ecbe
00000130: 210c b9bf fde3 19c0 b7c0 10c0 434d 00c0
00000140: 9424 9abf f5a2 bebf 50af 03c0 2675 3bbf
00000150: b7aa 6dbf de2e 50bf 3ccb 23c0 9917 a1bf
00000160: 4811 c1bf 55d7 f2bf bfdc 90bf 6582 44be
00000170: f9ad f7be 63fd 11c0 0975 6dbf 4406 d1be
00000180: 9aad 973e a196 c2bf e121 d7bf f000 7bbf
00000190: 6993 a3bf 3196 c2bf f9d0 70bf a993 8bbd
000001a0: 6aaa 0bc0 533d afbd a57e 5cbf ff50 253f
000001b0: 4429 88bd 4776 73bf dc95 82bf 594c 0cc0
000001c0: 6b94 51bf 1d85 d1bf 55e3 10bf 2f56 65bf
000001d0: 7a0d 7abf 487c 293e b631 ecbf 748f 8bbf
000001e0: fba7 623f 7d77 d23e deaf a2bf 2d96 9bbf
000001f0: 4f1c 20c0 5b43 89be 6955 01bf fb95 e9be

encoder.encoder_net.2.weight f4 [64, 128]
0.009074585 -0.13233763 0.09967837 -0.06375462 -0.058390327 0.15507989 -0.17523104 -0.034004524
0.06302966 0.07846792 0.04544897 -0.67345184 -0.045770556 -0.038340226 -0.05002783 -0.88862795
0.021242179 0.03850231 -0.056952775 0.023258999 0.11121691 -0.057482753 -0.050343376 0.013150058
0.05122883 0.013122476 -0.29893473 -0.0039121187 -0.009631343 -0.047455963 0.020639217 -0.06682467
-0.019254927 -0.022519644 0.014011957 -0.0025873366 -0.0060505904 0.059972562 -0.09180207 0.15904567
0.024448156 -0.6970959 0.056764007 0.0195743 -0.012965161 0.058759008 -0.048491854 -0.06890832
0.1002542 0.098184444 -0.9462761 -0.28861922 -0.37603772 -0.08047493 0.30992475 -0.021210095
-0.1680494 0.04611333 -0.035047386 0.024582742 -0.6569237 0.027334483 0.12256338 -0.082522154
-0.01696668 -0.08711291 0.06310504 0.015457157 -0.04358614 -0.14974463 -0.022251802 -0.014190988
-0.035281554 0.05121736 -0.14123088 0.043259837 0.06603458 -0.024435986 -0.023869788 -0.12162877
0.0805709 0.014069226 0.3625582 0.06680395 0.015635641 0.09908869 0.14259483 -0.050460186
-0.024639953 0.017165551 -0.018434945 0.061399266 0.040254734 -0.011093913 -0.0667082 0.03310323
0.07085825 -0.03624278 0.13132407 -0.0134020075 -0.03995721 -0.13845775 -0.04076682 0.13837144
-0.11835706 0.051506218 0.12229341 0.22239201 -0.076040864 -0.036201138 -0.028038453 -0.19382764
0.090393215 0.08727568 -0.087885536 -0.13445336 0.12143221 0.09379448 -0.09766802 0.04217368
-0.57868093 0.20020738 0.016659895 0.0036014349 -0.053220198 -0.055095423 -0.42891473 -0.8208997
-0.1025431 -0.05000905 -0.12725501 -0.3076125 -0.07021886 -0.07602981 0.027076859 -0.12199786
0.028992869 -0.033210382 -0.075094454 -0.20091262 0.08412642 -0.48157242 -0.10647179 -0.49744582
-0.09233463 -0.104916245 -0.0042876685 0.05771801 -0.14956306 -0.13505311 -0.08388633 0.0931335
0.11294524 0.09644061 -0.021682054 -0.27057838 -0.14489624 -0.019725857 -0.2109101 0.017589225
0.00637991 0.040763758 0.11868266 0.03362241 -0.06742549 0.06600335 0.07015628 -0.16603689
0.13499093 -0.5819581 0.021738466 -0.055156182 0.04822755 0.0066409423 -0.05615521 -0.12565792
0.0853136 0.031106185 -0.1265996 0.0052754674 -0.025394417 -0.09285931 0.0073231556 -0.21507329
0.1085525 -0.124823555 0.15813549 -0.071165144 -0.12774129 -0.2730395 -0.13460161 -0.06072161
-0.012900069 -0.14461175 -0.22842857 0.06995724 -0.03908756 -0.21540229 0.014846084 0.006674377
0.035827383 0.09443941 -0.010229914 -0.13088617 -0.067246 -0.048447587 -0.11373616 -0.63932747
-0.039288774 -0.17676894 -0.12613396 0.08389202 -0.26500612 -0.12177076 -0.03967972 -0.04196589
-0.029727051 0.006365633 -0.08682279 0.0034263965 0.15709727 0.06414436 0.0854917 0.09494658
-0.0045708665 0.16030279 -0.059934013 -0.037331562 -0.06601159 -0.5232344 -0.5501266 0.062621415
0.31453237 0.0055732606 -0.20254068 0.003743591 -0.3367174 -0.014420973 -0.035470635 0.19050317
0.055998735 0.15552169 0.0049102027 -0.6195286 -0.089493334 0.17615147 -0.047107644 0.041129235
-0.10280726 -0.14589421 -0.14283533 0.14993896 0.07887801 0.07484985 -0.04755654 -0.31723896
00000000: 91ad 143c 8483 07be 2c24 cc3d c891 82bd
00000010: b22a 6fbd 43cd 1e3e c46f 33be 5448 0bbd
00000020: b215 813d cab3 a03d b328 3a3d 5767 2cbf
00000030: e879 3bbd a40a 1dbd fbe9 4cbd 1f7d 63bf
00000040: 1404 ae3c 99b4 1d3d 5047 69bd a889 be3c
00000050: b1c5 e33d 0973 6bbd db34 4ebd 5773 573c
00000060: 52d5 513d a7ff 563c f90d 99be 3b31 80bb
00000070: c8cc 1dbc 2f61 42bd 9313 a93c 5fdb 88bd
00000080: 82bc 9dbc 1e7b b8bc 6892 653c 4e90 29bb
00000090: 0844 c6bb caa5 753d b902 bcbd dedc 223e
000000a0: 8047 c83c e074 32bf 6081 683d 485a a03c
000000b0: d46b 54bc 49ad 703d 659f 46bd ce1f 8dbd
000000c0: 1352 cd3d ed14 c93d 273f 72bf e6c5 93be
000000d0: 0488 c0be 0ad0 a4bd 75ae 9e3e cbc0 adbc
000000e0: 2415 2cbe 55e1 3c3d d98d 0fbd bf61 c93c
000000f0: 272c 28bf 91ec df3c 8202 fb3d 6001 a9bd
00000100: b5fd 8abc 4168 b2bd 373d 813d 0440 7d3c
00000110: 6187 32bd a856 19be 6949 b6bc 5181 68bc
00000120: 6483 10bd 4bc9 513d d49e 10be 3a31 313d
00000130: 233d 873d fa2d c8bc 938a c3bc 8118 f9bd
00000140: 5b02 a53d 9c82 663c 3aa1 b93e 82d0 883d
00000150: 5116 803c 03ef ca3d 6104 123e 57af 4ebd
00000160: bad9 c9bc c59e 8c3c e204 97bc cc7d 7b3d
00000170: 26e2 243d 3ec3 35bc 4f9e 88bd 4197 073d
00000180: 211e 913d 4f73 14bd d179 063e 1894 5bbc
00000190: 2caa 23bd dec7 0dbe 1cfb 26bd 3eb1 0d3e
000001a0: 3065 f2bd 2ff8 523d f874 fa3d bbba 633e
000001b0: 50bb 9bbd a547 14bd e6b0 e5bc c17a 46be
000001c0: 1420 b93d 97bd b23d 55fd b3bd 24ae 09be
000001d0: 73b1 f83d 5217 c03d 2c06 c8bd 4fbe 2c3d
000001e0: 6f24 14bf 2a03 4d3e 557a 883c 0d06 6c3b
000001f0: 6cfd 59bd bdab 61bd b69a dbbe 7c26 52bf
00000200: 1e02 d2bd 4ad6 4cbd 234f 02be 637f 9dbe
00000210: e8ce 8fbd 84b5 9bbd 4ad0 dd3c 04da f9bd
00000220: 7482 ed3c 9c07 08bd 1fcb 99bd 0abc 4dbe
00000230: 794a ac3d a990 f6be e20d dabd 38b1 febe
00000240: f019 bdbd 54de d6bd 927f 8cbb b869 6c3d
00000250: 0f27 19be 5d4b 0abe 99cc abbd c7bc be3d
00000260: d64f e73d a882 c53d 909e b1bc 4089 8abe
00000270: ae5f 14be 1f98 a1bc d1f8 57be 4717 903c
00000280: 900e d13b e6f7 263d e50f f33d a7b7 093d
00000290: 6016 8abd c42c 873d 19ae 8f3d 9305 2abe
000002a0: 103b 0a3e 35fb 14bf de14 b23c 73eb 61bd
000002b0: 408a 453d 439c d93b 0103 66bd 78ac 00be
000002c0: e6b8 ae3d 66d2 fe3c 53a3 01be d4dd ac3b
000002d0: f407 d0bc 062d bebd 15f7 ef3b 2c3c 5cbe
000002e0: c650 de3d 7ea3 ffbd 45ee 213e 08bf 91bd
000002f0: 9dce 02be d5cb 8bbe 01d5 09be 39b7 78bd
00000300: d05a 53bc 1a15 14be 2ee9 69be be45 8f3d
00000310: 471a 20bd 6b92 5cbe fd3c 733c bbb4 da3b
00000320: bcbf 123d 7369 c13d 5f9b 27bc 0607 06be
00000330: 45b8 89bd fa70 46bd 81ee e8bd f7aa 23bf
00000340: 44ed 20bd eb02 35be 4329 01be 94cf ab3d
00000350: e2ae 87be f362 f9bd 3487 22bd 6de4 2bbd
00000360: 2586 f3bc cd96 d03b 26d0 b1bd 658d 603b
00000370: 1bde 203e 1e5e 833d 4616 af3d 5a73 c23d
00000380: 35c7 95bb 6a26 243e 5e7d 75bd fbe8 18bd
00000390: 1631 87bd b1f2 05bf 19d5 0cbf a83f 803d
000003a0: 630a a13e e69f b63b d366 4fbe 0957 753b
000003b0: 3966 acbe f245 6cbc a849 11bd 4313 433e
000003c0: ee5e 653d 1441 1f3e c4e5 a03b 6d99 1ebf
000003d0: 4848 b7bd 0d61 343e f2f3 40bd 2177 283d
000003e0: 9d8c d2bd 4b65 15be 6d43 12be 9989 193e
000003f0: cb8a a13d e14a 993d a6ca 42bd 256d a2be

encoder.encoder_net.2.bias f4 [64]
1.0855954 0.49650225 0.18820846 -0.1988429 -0.101494364 1.4834439 -0.081592925 0.077754006
1.3352572 -0.22088704 0.2647607 1.0610213 -0.020249048 -0.12905477 0.008404514 -0.020681465
-0.0759785 0.004752849 0.04331556 -0.13158977 -0.008342626 0.27318305 0.5187852 -0.057804026
-0.09353024 0.7468585 -0.082267776 -0.016315866 0.2571273 0.22321934 0.8397586 0.7583038
0.29136258 0.7874146 0.7507785 0.587571 -0.0929822 -0.06844635 0.03279016 0.60821843
-0.073058724 -0.13149832 0.97772825 0.7571632 0.044264503 0.15200062 -0.6450364 -0.09236197
1.1233416 -0.0927003 1.0298148 0.034105297 0.06792367 0.045926917 0.70949686 0.0038939584
-0.021672972 0.7494983 -0.06961467 -0.18486112 0.74424464 1.4021636 -0.029291207 -0.006533967
00000000: caf4 8a3f 8b35 fe3e b8b9 403e 799d 4bbe
00000010: 47dc cfbd 7de1 bd3f 311a a7bd 7e3d 9f3d
00000020: b5e9 aa3f 3630 62be b78e 873e 8ccf 873f
00000030: 55e1 a5bc ef26 04be 16b3 093c 2d6c a9bc
00000040: 9e9a 9bbd cabd 9b3b a86b 313d 78bf 06be
00000050: 82af 08bc a6de 8b3e 1bcf 043f eac3 6cbd
00000060: c88c bfbd 1e32 3f3f 027c a8bd daa8 85bc
00000070: 31a6 833e 9c93 643e 6bfa 563f 3320 423f
00000080: 7a2d 953e 0194 493f 0533 403f 0e6b 163f
00000090: 746d bebd 9a2d 8cbd fa4e 063d 34b4 1b3f
000000a0: d09f 95bd 7fa7 06be 664c 7a3f 73d5 413f
000000b0: b24e 353d 0da6 1b3e 1b21 25bf 4628 bdbd
000000c0: a8c9 8f3f a8d9 bdbd f9d0 833f ffb1 0b3d
000000d0: 911b 8b3d dd1d 3c3d 96a1 353f c831 7f3b
000000e0: 848b b1bc 1fdf 3f3f 2392 8ebd 3c4c 3dbe
000000f0: d186 3e3f 197a b33f 1df4 efbc e31a d6bb

encoder.encoder_net.4.weight f4 [4, 64]
0.02114969 0.047778197 0.03568295 0.0074269786 -0.052738186 -0.028570635 -0.01704179 0.01166192
-0.061188504 -0.0011954819 -0.03395194 -0.046116315 0.012526139 0.00670901 -0.024749849 -0.0009231831
0.023906779 -0.00090197794 -0.035099044 -0.0018241551 -0.000746551 0.022422954 0.0005473185 -0.014270826
-0.0062325476 -0.0031120528 -0.003510371 0.043370947 0.00992128 -0.012879742 0.015295494 0.020389687
0.03817297 -0.02099245 -0.00706337 0.036405746 -0.0038222289 -0.020554602 0.039806034 0.06136336
0.07329712 -0.027268806 0.0030596554 -0.012815257 0.0100035025 0.008388635 0.0021566895 0.052352246
0.115000986 -0.07102211 -0.017124185 -0.006185161 0.017503876 0.0044482406 0.013975638 -0.011200408
0.13280094 0.0021215617 -0.010658484 -0.031475835 -0.030529566 0.05248213 -0.009790131 0.020030549
0.059745647 0.022633944 -0.011912493 -0.012244032 -0.013697081 -0.059334043 -0.035674572 -0.009631406
-0.018484611 -0.018536486 -0.008141595 0.032961335 0.0063904617 7.1192786e-05 0.023494113 0.07177397
0.00096647744 0.07674821 0.02262267 -0.0030229527 0.014251109 -0.027249625 -0.02320075 0.032393098
0.013332268 0.0015220401 0.0016266669 0.013185438 0.02518974 -0.01531633 -0.051142182 -0.10551889
0.007692012 -0.014751293 0.08479853 0.002420408 0.01618514 0.0154863745 0.010590497 0.02872585
0.014560963 -0.012435668 -0.09010095 0.07236642 -0.031413358 0.039008275 0.027891131 -0.009515426
0.01934394 0.011575104 0.0060323523 0.024450256 0.0008034428 -0.0032554758 -0.026524311 -0.008642114
-0.004651093 -0.0054060775 -0.018070372 -0.00358915 -0.0118559245 -0.07330058 0.035155326 0.0049873707
0.017535562 0.026516167 0.035980985 0.008520689 -0.0055212844 -0.07823822 -0.45204124 0.2046778
0.030455947 0.07371136 0.05082846 0.026982836 0.024994869 0.029824417 -0.024443535 -0.044780653
0.04455473 -0.0681142 -0.08679004 0.015055032 -0.10202852 0.010966568 0.07630777 0.11642434
-0.068313114 -0.14809445 0.057730548 0.03224065 -0.016090695 -0.04148505 -0.043518282 -0.008216348
0.064113416 -0.0069443556 0.00039947883 -0.015564828 0.09282241 0.07117642 0.052417006 0.07248042
0.036461506 -0.052897744 0.02462494 -0.006420461 -0.105134025 -0.051932737 0.03198874 -0.011133414
0.1109599 0.040722653 -0.09666967 -0.05266141 -0.10962453 -0.047242966 0.03545105 -0.029940689
0.061707567 -0.32200474 7.5149954e-05 0.023869855 0.07887979 0.020912884 -0.030258726 -0.096420094
0.015761003 0.037912384 -0.016318195 -0.025372097 -0.052351005 0.017520994 -0.19359219 -0.14136162
-0.010751407 0.055122342 -0.23978543 0.015750932 0.10704694 0.12083578 -0.07367315 -0.032811917
0.08264076 -0.042294227 0.01778053 -0.044663884 -0.0124667585 0.056080114 -0.22409776 0.019915724
-0.07531832 -0.18382391 -0.054439303 -0.05122774 -0.008702141 -0.06391362 -0.01613188 0.073460884
-0.119197 0.020239826 0.040265758 -0.063668415 0.014290942 0.0018519626 0.08544289 0.016985996
-0.009436817 0.0030803136 0.06521733 0.03530876 -0.1367864 -0.018512078 0.01763086 0.11536381
0.010834188 -0.09364139 -0.055748276 -0.011622974 0.01564942 0.035232455 -0.042093635 -0.07807548
0.07119948 -0.260279 -0.051187307 -0.061130743 0.04726934 0.051433165 -0.018239126 0.020541117
00000000: 1d42 ad3c 12b3 433d 4928 123d 035e f33b
00000010: ff03 58bd f70c eabc 399b 8bbc a311 3f3c
00000020: cca0 7abd b7b1 9cba 3011 0bbd 76e4 3cbd
00000030: 6f3a 4d3c 41d7 db3b 32c0 cabc c501 72ba
00000040: 26d8 c33c b772 6cba 04c4 0fbd 7d18 efba
00000050: 31b4 43ba 58b0 b73c ec79 0f3a 2fd0 69bc
00000060: 663a ccbb 95f3 4bbb 410e 66bb bca5 313d
00000070: dd8c 223c 8e05 53bc f499 7a3c 4608 a73c
00000080: 435b 1c3d 5cf8 abbc d873 e7bb 311e 153d
00000090: 5c7e 7abb 2062 a8bc a70b 233d 2658 7b3d
000000a0: cd1c 963d d562 dfbc 8084 483b 15f7 51bc
000000b0: bbe5 233c 7c70 093c 3f57 0d3b 4f6f 563d
000000c0: a385 eb3d 0a74 91bd 0548 8cbc e4ac cabb
000000d0: 4a64 8f3c 8cc2 913b 13fa 643c eb81 37bc
000000e0: f8fc 073e e609 0b3b eca0 2ebc ceec 00bd
000000f0: 2419 fabc 80f7 563d c966 20bc 1b17 a43c
00000100: dab7 743d d26a b93c 9e2c 43bc 319b 48bc
00000110: b969 60bc 4108 73bd 801f 12bd 0bcd 1dbc
00000120: 0a6d 97bc d4d9 97bc 5364 05bc 7702 073d
00000130: 1467 d13b 564d 9538 ba76 c03c 3bfe 923d
00000140: 345b 7d3a 2a2e 9d3d 2d53 b93c bb1c 46bb
00000150: 7c7d 693c 9b3a dfbc 800f bebc a0ae 043d
00000160: 966f 5a3c 317f c73a e235 d53a bc07 583c
00000170: b75a ce3c 58f1 7abc 777a 51bd 4a1a d8bd
00000180: 460d fc3b 68af 71bc daaa ad3d b59f 1e3b
00000190: b396 843c 90ba 7d3c c483 2d3c 7952 eb3c
000001a0: 1b91 6e3c f9be 4bbc d986 b8bd d834 943d
000001b0: 4bab 00bd 24c7 1f3d f17b e43c 97e6 1bbc
000001c0: 2f77 9e3c 81a5 3d3c 0aab c53b e74b c83c
000001d0: 229e 523a d259 55bb 8349 d9bc a797 0dbc
000001e0: 3268 98bb 7725 b1bb 5108 94bc f237 6bbb
000001f0: 5a3f 42bc 9d1e 96bd 08ff 0f3d 196d a33b
00000200: bda6 8f3c 6f38 d93c cc60 133d 5c9a 0b3c
00000210: e4eb b4bb 5c3b a0bd f371 e7be 0f97 513e
00000220: c07e f93c fbf5 963d 8131 503d 1c0b dd3c
00000230: 0ac2 cc3c 5652 f43c cf3d c8bc eb6b 37bd
00000240: 057f 363d 757f 8bbd fabe b1bd 62a9 763c
00000250: 54f4 d0bd 1fad 333c 4047 9c3d e26f ee3d
00000260: bfe7 8bbd 12a6 17be de76 6c3d c60e 043d
00000270: a2d0 83bc 3aec 29bd 3a40 32bd dc9d 06bc
00000280: e54d 833d 7a8d e3bb 2471 d139 9f03 7fbc
00000290: ad19 be3d f1c4 913d 37b3 563d 9d70 943d
000002a0: a958 153d 4eab 58bd 3eba c93c bb62 d2bb
000002b0: 8250 d7bd 6cb7 54bd a006 033d ec68 36bc
000002c0: f23e e33d cccc 263d bffa c5bd 7eb3 57bd
000002d0: d382 e0bd d781 41bd 1f35 113d 2d46 f5bc
000002e0: 13c1 7c3d cedd a4be d399 9d38 b78a c33c
000002f0: ba8b a13d 7f51 ab3c 26e1 f7bc e677 c5bd
00000300: 381d 813c 044a 1b3d bcad 85bc 25d9 cfbc
00000310: 026e 56bd 3088 8f3c 083d 46be 1ac1 10be
00000320: ab26 30bc f7c7 613d 508a 75be 1908 813c
00000330: 6d3b db3d c078 f73d f3e1 96bd ca65 06bd
00000340: 8f3f a93d b63c 2dbd 79a8 913c 7af1 36bd
00000350: 6041 4cbc 43b4 653d e279 65be 4d26 a33c
00000360: 7e40 9abd 563c 3cbe bffb 5ebd 2ed4 51bd
00000370: 6d93 0ebc 25e5 82bd 0127 84bc a972 963d
00000380: 8f1d f4bd fecd a53c b5ed 243d 9664 82bd
00000390: 8e24 6a3c 8ebd f23a affc ae3d 3726 8b3c
000003a0: e19c 1abc 16df 493b aa90 853d eb9f 103d
000003b0: bc11 0cbe a4a6 97bc 986e 903c dc43 ec3d
000003c0: e181 313c 0fc7 bfbd 4e58 64bd 496e 3ebc
000003d0: 3633 803c e84f 103d 606a 2cbd 0ae6 9fbd
000003e0: 08d1 913d 4a43 85be c8a9 51bd 3b64 7abd
000003f0: 7f9d 413d 95ab 523d 386a 95bc d845 a83c

encoder.encoder_net.4.bias f4 [4]
-0.045228597 0.06916606 -2.7163074 -2.6742392
00000000: 9f41 39bd efa6 8d3d fbd7 2dc0 bc26 2bc0

decoders.0.decoder_net.0.weight f4 [128, 2]
-1.1843616 1.2881321 0.8311243 1.7924954 -0.22639856 -0.21768562 1.0421836 0.1932602
-1.3396546 -0.28185293 0.64343286 1.0640687 -0.31311142 0.27098215 -0.20906068 -0.5345616
-0.37867776 -0.02636973 0.73067266 0.5326732 1.7791044 0.33657673 -0.4108811 0.02920059
-0.10270405 0.10923222 -0.63253504 -1.2104589 -0.9645426 -1.4050514 -0.21617378 1.6716193
0.9737514 0.86914104 2.0953093 -0.09449532 -0.4786877 -0.6346278 1.0916662 0.21739855
-1.210184 1.7368001 1.4218563 1.6765549 -0.72972333 1.7069991 2.0754175 -0.3451421
-1.469192 -0.8875553 -0.2275053 0.0064649084 0.13498017 0.06766441 -1.9872909 1.7532306
0.11240897 -0.042406585 1.1162434 0.18457974 -0.3660171 1.0134217 -0.014169172 0.019091181
-0.4727266 -0.9978893 -0.27479467 2.0854254 -0.20621204 2.1889973 -0.28063512 0.018128317
-0.7634959 -1.7263976 -0.80523664 -1.0614499 -0.23505239 -0.09505276 1.0184996 0.5505587
-0.80142385 0.3468591 -0.5805203 0.05490531 -0.37662372 0.8985817 -0.16525148 0.93211865
-0.27459884 -1.6354301 0.05114756 0.16012649 1.3652897 -0.73747635 1.3172828 0.3746154
0.51874924 -0.99623 -0.95080054 0.3486737 0.067453496 1.1054871 -0.28282395 0.7353117
-1.4751637 0.3167793 -0.3476134 0.3159696 0.63403153 1.6946055 1.2335681 -0.47694674
1.3591146 -1.7488207 0.053459026 1.170543 -1.6723845 0.26359558 -0.84167993 0.39608386
2.1917489 0.8476527 0.07147708 -0.13391986 0.14979252 -0.5820936 -1.0154352 -0.16353887
0.03482896 -1.7756684 -1.5218763 0.020222498 -0.23698775 -0.31771964 1.6137494 1.0178431
1.7743005 0.19280687 1.0381817 0.8655679 0.13820592 0.6234399 -1.1901981 -1.3039591
0.061777838 0.16235463 1.0658431 -0.34541684 -0.5964285 -1.487605 2.2614973 0.43962622
-1.5491374 -0.012219656 1.9575232 0.93490386 -0.34185553 -1.8955166 -1.9312819 0.079780094
-0.75625813 -0.6452201 -1.0934911 -1.0473996 -2.371302 -0.1270675 -0.49242082 1.7892964
-0.85996383 -0.6680799 -2.007718 1.1816267 0.84948236 -0.21839899 -0.7607399 1.1771015
-0.2980982 0.10784265 -0.001397379 -0.002351734 0.51777786 -0.30238605 -0.6247128 1.4703217
0.616158 -0.73895913 1.7092826 -0.7174289 0.37332517 -0.6515932 -0.7820361 1.313534
1.3799447 1.219748 -0.07227179 -0.070010476 0.8431179 0.5142893 0.5305079 2.025072
0.26667234 -0.7567561 -1.4517628 -0.55680025 -0.55492455 -1.3876005 1.4646814 -1.4304963
1.0193385 -0.29166922 1.1015816 -1.8172088 -0.9803553 0.048277862 0.38701138 -0.80524814
1.0041347 -0.45957494 0.88890606 2.6531482 1.6934373 -0.44129857 -1.33051 2.2189052
1.0874009 -0.6099845 1.4558834 -2.1007159 1.9153824 -0.7707869 -0.39471117 -1.8380513
0.08592842 1.4787215 1.4398159 0.37811187 0.47648913 -0.91986036 -0.4095814 -0.32827443
-0.40547606 0.7905728 1.3114841 0.5842133 0.23709261 1.7323862 0.29105717 0.5666553
-0.28425738 1.2979622 -0.0035723425 0.0010715869 -0.6094173 0.82443136 -1.0183936 -1.0197897
00000000: 2999 97bf 83e1 a43f 90c4 543f 7d70 e53f
00000010: 06d5 67be fbe8 5ebe 4666 853f 00e6 453e
00000020: cd79 abbf 074f 90be 04b8 243f 6733 883f
00000030: 2450 a0be 2cbe 8a3e 0114 56be 07d9 08bf
00000040: 0de2 c1be 5505 d8bc 5d0d 3b3f 455d 083f
00000050: b1b9 e33f c953 ac3e 025f d2be 1336 ef3c
00000060: 8056 d2bd 24b5 df3d d1ed 21bf 51f0 9abf
00000070: 44ec 76bf b9d8 b3bf a95c 5dbe 9ff7 d53f
00000080: c647 793f 0780 5e3f 8c19 0640 c386 c1bd
00000090: 8e16 f5be f876 22bf b8bb 8b3f ba9d 5e3e
000000a0: 4fe7 9abf 774f de3f 63ff b53f 5a99 d63f
000000b0: 26cf 3abf f27e da3f a4d3 0440 77b6 b0be
000000c0: 7c0e bcbf d336 63bf 26f7 68be 95d7 d33b
000000d0: 3e38 0a3e a393 8a3d 8c5f febf dc69 e03f
000000e0: ad36 e63d 87b2 2dbd 10e1 8e3f 7902 3d3e
000000f0: 9866 bbbe cdb7 813f d125 68bc 1c65 9c3c
00000100: 3909 f2be ac75 7fbf e3b1 8cbe 9c77 0540
00000110: 4029 53be 8818 0c40 68af 8fbe d681 943c
00000120: 7874 43bf 99fa dcbf fd23 4ebf 97dd 87bf
00000130: 93b1 70be 05ab c2bd 325e 823f 6af1 0c3f
00000140: 1d2a 4dbf 8497 b13e fa9c 14bf 64e4 603d
00000150: d3d4 c0be 7309 663f af37 29be 549f 6e3f
00000160: 3898 8cbe c655 d1bf 1b80 513d 33f8 233e
00000170: d0c1 ae3f 40cb 3cbf b99c a83f 97cd bf3e
00000180: c0cc 043f ee08 7fbf aa67 73bf 5c85 b23e
00000190: 0f25 8a3d 9a80 8d3f 4dce 90be 633d 3c3f
000001a0: 2ad2 bcbf e530 a23e 62fa b1be c4c6 a13e
000001b0: e44f 223f d5e8 d83f 8fe5 9d3f 5d32 f4be
000001c0: 78f7 ad3f 5bd9 dfbf daf7 5a3d 5ad4 953f
000001d0: b210 d6bf 00f6 863e 5678 57bf 81cb ca3e
000001e0: 9d45 0c40 c4ff 583f 9362 923d 4a22 09be
000001f0: 3663 193e 1604 15bf c8f9 81bf bc76 27be
00000200: d0a8 0e3d 1a49 e3bf d8cc c2bf a7a9 a53c
00000210: ebac 72be 26ac a2be 578f ce3f af48 823f
00000220: 471c e33f 2a6f 453e 23e3 843f dc95 5d3f
00000230: da85 0d3e c299 1f3f 6958 98bf 22e8 a6bf
00000240: c20a 7d3d 4b40 263e 8c6d 883f 7ada b0be
00000250: 8aaf 18bf d769 bebf 5fbc 1040 b016 e13e
00000260: 224a c6bf f434 48bc 1f90 fa3f dc55 6f3f
00000270: b007 afbe 4aa0 f2bf 3f34 f7bf bf63 a33d
00000280: 229a 41bf 252d 25bf 84f7 8bbf 3111 86bf
00000290: 69c3 17c0 fc1d 02be 951e fcbe aa07 e53f
000002a0: 9726 5cbf 4907 2bbf 747e 00c0 8b3f 973f
000002b0: ad77 593f fca3 5fbe dabf 42bf 43ab 963f
000002c0: 54a0 98be 9bdc dc3d 4228 b7ba 8d1f 1abb
000002d0: 178d 043f 58d2 9abe 2eed 1fbf 8033 bc3f
000002e0: 88bc 1d3f 6d2c 3dbf c6c9 da3f 6ca9 37bf
000002f0: 7a24 bf3e d0ce 26bf 8533 48bf e221 a83f
00000300: 07a2 b03f b420 9c3f 3b03 94bd a761 8fbd
00000310: 93d6 573f 77a8 033f 5ecf 073f c89a 0140
00000320: 4789 883e c5ba 41bf 5dd3 b9bf 768a 0ebf
00000330: 890f 0ebf e59c b1bf ae7a bb3f 811a b7bf
00000340: af79 823f ab55 95be a000 8d3f 4c9a e8bf
00000350: 91f8 7abf 02bf 453d 5b26 c63e be24 4ebf
00000360: 7c87 803f 684d ebbe 598f 633f 2ecd 2940
00000370: 8ec2 d83f e3f1 e1be 274e aabf 8b02 0e40
00000380: f42f 8b3f f227 1cbf 635a ba3f 2172 06c0
00000390: 402b f53f 4a52 45bf 9517 cabe 4445 ebbf
000003a0: 3dfb af3d bf46 bd3f e34b b83f e197 c13e
000003b0: 62f6 f33e f87b 6bbf a7b4 d1be 9613 a8be
000003c0: 8f9a cfbe fb62 4a3f b6de a73f 018f 153f
000003d0: 68c8 723e d5be dd3f 7205 953e 5210 113f
000003e0: 2f8a 91be a023 a63f f61d 6abb 7d74 8c3a
000003f0: c602 1cbf ef0d 533f b95a 82bf 7888 82bf

decoders.0.decoder_net.0.bias f4 [128]
-0.4750346 0.47176862 0.2943024 0.24927793 0.09296093 0.91470516 0.497731 0.5501743
0.16668373 0.8717014 0.17981428 0.46422935 0.4121533 0.2770089 -0.4720336 0.13059528
0.5694906 -0.7598696 -0.13488518 0.23616472 -0.39296764 0.07458388 -0.19479935 0.23158449
-1.2544783 0.2782466 -0.69278014 -1.3477019 -0.48375377 0.14027494 0.55252004 0.07720862
0.3186009 -0.28780258 0.200497 0.33059832 -1.1909201 0.3313985 0.32994613 0.8242705
-0.31364167 0.4618171 0.38294342 0.7506279 -0.6357769 -0.5098073 0.20398122 0.43102586
0.21250023 -0.015445534 0.53380084 0.6609249 -0.8197869 0.707152 -1.1876764 0.35265347
-0.78429705 0.62664485 -0.65702236 -0.56791985 -1.0361948 -0.46827856 0.22144483 0.09402504
-0.51796454 -0.52681774 0.40762988 -0.7896236 -0.4235202 0.7575554 0.8240849 -0.5228799
-0.55959415 0.93515986 -1.1733869 0.1634185 -1.3907776 -0.5720954 -1.57522 -1.3270905
0.3362916 0.052796412 -0.5773111 -0.5936445 0.17611848 -0.71209764 0.8939536 0.8570034
0.4808606 -0.018458808 0.8826245 -0.18148972 0.49906486 -0.43263298 0.6222442 -0.22611849
0.429353 0.08555904 0.6701865 -0.6960407 0.6328327 -1.1444207 -1.1696532 -0.7286358
0.9357667 0.20457141 -0.37011775 0.20758273 0.6766315 0.02573764 0.5216759 -0.36913314
0.4646271 -0.013257233 0.28894112 -0.81025237 0.6848799 0.020792067 0.19862854 0.063829064
0.6527137 0.74216306 -0.8486761 1.2076107 0.41799068 -0.012907351 0.1856001 -0.045145404
00000000: bc37 f3be a88b f13e ceae 963e b742 7f3e
00000010: 4d62 be3d 1e2a 6a3f 99d6 fe3e 39d8 0c3f
00000020: 24af 2a3e d327 5f3f 3c21 383e 78af ed3e
00000030: c205 d33e 1cd4 8d3e 63ae f1be c5ba 053e
00000040: 23ca 113f d086 42bf 571f 0abe 2ad5 713e
00000050: 0e33 c9be 6fbf 983d 7b79 47be 7c24 6d3e
00000060: bf92 a0bf 5776 8e3e 0a5a 31bf 7f81 acbf
00000070: 93ae f7be 3ca4 0f3e f471 0d3f 8e1f 9e3d
00000080: a81f a33e dc5a 93be 164f 4d3e 2f44 a93e
00000090: 1270 98bf 10ad a93e b3ee a83e 6403 533f
000000a0: a495 a0be 4a73 ec3e 2911 c43e 2629 403f
000000b0: 46c2 22bf bb82 02bf 74e0 503e 6caf dc3e
000000c0: a999 593e 440f 7dbc 2ca7 083f 6032 293f
000000d0: 8edd 51bf ea07 353f c805 98bf ff8e b43e
000000e0: b1c7 48bf cc6b 203f 9e32 28bf 3263 11bf
000000f0: 08a2 84bf 35c2 efbe 6fc2 623e 3390 c03d
00000100: 5399 04bf 87dd 06bf ddb4 d03e c624 4abf
00000110: a4d7 d8be 27ef 413f 3af7 523f 75db 05bf
00000120: 9041 0fbf a366 6f3f 8b31 96bf 2e57 273e
00000130: 0005 b2bf d874 12bf cfa0 c9bf 1ade a9bf
00000140: 6a2e ac3e 0d41 583d a9ca 13bf 16f9 17bf
00000150: 6758 343e 084c 36bf 25da 643f 9364 5b3f
00000160: 5c33 f63e ed36 97bc aef3 613f 71d8 39be
00000170: 6e85 ff3e 1282 ddbe 654b 1f3f 9b8b 67be
00000180: 28d4 db3e 9439 af3d 5891 2b3f b92f 32bf
00000190: 5301 223f 617c 92bf 32b7 95bf e087 3abf
000001a0: 688e 6f3f 2b7b 513e 1380 bdbe 9190 543e
000001b0: b937 2d3f bed7 d23c 8d8c 053f 05ff bcbe
000001c0: 9ae3 ed3e de34 59bc 17f0 933e b36c 4fbf
000001d0: 4a54 2f3f 2054 aa3c 4865 4b3e d0b8 823d
000001e0: 3f18 273f 66fe 3d3f d642 59bf fd92 9a3f
000001f0: e002 d63e 5b79 53bc f40d 3e3e 63ea 38bd

decoders.0.decoder_net.2.weight f4 [128, 128]
-0.039145377 0.4830115 0.099738434 0.30877057 -0.3952905 0.053068854 0.08700557 -0.014684708
0.023026954 0.11715728 -0.07581718 -0.029982716 0.029960651 0.02968215 -0.0336252 0.07136537
0.43892482 0.16158046 0.19737189 0.43347913 0.36017135 -0.33308774 -0.18871956 0.091021456
0.30280465 0.08133507 -0.083310485 -0.48220098 0.012098253 0.12556085 -0.04391267 0.09703034
0.1483456 -0.30317634 -0.09896851 0.076780155 0.06011429 0.07152705 0.13598162 0.22856474
-0.08439364 0.12428015 -0.051446445 0.04903788 -0.02799031 -0.0016022335 0.2497068 0.37164444
0.21653906 0.11741792 0.095897354 -0.07881281 -0.012048064 0.20747295 -0.7299439 0.08997075
-0.115022086 0.35915872 -0.23506281 -0.30205986 -0.61958843 0.050616685 0.2675559 -0.20250444
-0.27306783 -0.04279115 0.11674475 -2.7632039 0.21287514 0.3777877 0.09845824 -0.46683127
-0.043081656 0.0365855 -0.32011244 -0.43370098 0.21423203 0.029073251 -0.21483631 0.35846397
-0.11980763 0.14470169 0.11491919 -0.32718533 0.08370188 0.10138587 -0.094351165 -0.20083939
0.07652877 0.031471424 -0.27278107 0.069360256 -0.0072120326 -0.075477794 -0.06918695 0.16618372
-0.79353905 0.051136553 0.29415163 0.199563 0.0555599 0.031673998 -0.3820041 -0.0076966975
0.05339547 0.16067183 -0.15177147 0.17901558 -0.15683195 -0.08768043 -0.20576602 0.60218614
0.040217362 0.17492054 0.036113318 0.43718725 0.041914202 -0.51944697 0.09697425 0.06075903
0.0179961 0.22219908 0.19547623 -0.012405575 -0.18821368 0.11946599 -0.12896863 0.092514426
-0.18965392 0.28928757 0.03018239 -0.19647758 0.3869465 0.111367606 0.1598543 -0.18764296
0.19675349 -0.08320328 -0.3381739 0.10684094 0.2960153 0.6598555 -0.5121946 0.20315024
0.004320576 -0.58423185 0.6987504 -0.19662991 -0.6516135 1.2412406 -0.021870278 -0.2131215
-1.7301977 0.18350045 0.021533193 0.012949733 -0.022766821 -0.26930684 0.2696587 0.29945233
0.49499488 -0.10399299 0.1254346 0.110388145 -0.91563135 0.13495421 -0.04606642 0.038894296
-0.06571128 0.19322301 0.12195197 0.20784555 -0.616705 0.0686247 -0.92646194 0.13309248
-8.9446535 0.27348277 0.07556876 0.28257057 0.12114348 0.2628623 -0.033019904 -0.49140775
-0.11967489 0.19789073 0.12816767 0.14021091 0.035645287 0.027591212 -3.9991353 0.61264616
1.2094023 0.07046578 -0.08771168 -0.13168739 0.46014005 -0.034037754 0.13437092 0.2827107
0.012602855 0.215746 -1.9245244 -0.08900946 0.20264995 0.1750549 -4.9652643 -0.16506517
0.4032582 0.7761505 0.04347177 -0.7405182 0.4088098 -0.20762064 0.027601574 0.23289655
0.1914933 0.17989706 -0.08571574 0.08285721 0.5019194 1.0637065 1.0476063 -0.7658224
0.20639175 0.03871349 0.08295933 -0.09598905 1.2598375 -0.6726004 -3.6217327 3.4082587
0.17876127 -7.389498 0.17453612 -8.285961 0.05900865 -0.10666004 -0.21493702 -0.76440823
-0.2142751 0.044166464 -0.24098906 -1.12253 0.12779342 -0.19353104 -8.521447 0.19484885
0.2555728 0.2837717 -0.36162812 0.14302988 0.20937014 0.24028426 0.18258943 0.52404636
00000000: e756 20bd 494d f73e aa43 cc3d 2d17 9e3e
00000010: 8463 cabe ba5e 593d fa2f b23d 2198 70bc
00000020: 06a3 bc3c 28f0 ef3d 0a46 9bbd 509e f5bc
00000030: 0a70 f53c fb27 f33c 94ba 09bd 0228 923d
00000040: c1ba e03e 5975 253e db1b 4a3e faf0 dd3e
00000050: 6168 b83e 7a8a aabe b33f 41be 7569 ba3d
00000060: 3609 9b3e 0093 a63d b09e aabd 0ce3 f6be
00000070: c037 463c 0693 003e c6dd 33bd d8b7 c63d
00000080: e9e7 173e ee39 9bbe 01b0 cabd ea3e 9d3d
00000090: 673a 763d c67c 923d c43e 0b3e e00c 6a3e
000000a0: 93d6 acbd 9786 fe3d 82b9 52bd f2db 483d
000000b0: ef4b e5bc 0902 d2ba 24b3 7f3e 2e48 be3e
000000c0: 6abc 5d3e ce78 f03d d565 c43d 9c68 a1bd
000000d0: 3e65 45bc ca73 543e 9add 3abf 9642 b83d
000000e0: b390 ebbd a7e3 b73e 4eb4 70be 97a7 9abe
000000f0: 599d 1ebf 7153 4f3d 16fd 883e 535d 4fbe
00000100: 8ccf 8bbe c645 2fbd df17 ef3d 55d8 30c0
00000110: f1fb 593e 646d c13e 79a4 c93d 8204 efbe
00000120: 6476 30bd adda 153d c7e5 a3be 0e0e debe
00000130: a45f 5b3e 072b ee3c 0dfe 5bbe 9788 b73e
00000140: b45d f5bd ae2c 143e c15a eb3d d684 a7be
00000150: e46b ab3d 65a3 cf3d 2f3b c1bd d7a8 4dbe
00000160: 1ebb 9c3d 2ee8 003d f6a9 8bbe c00c 8e3d
00000170: ea52 ecbb 1a94 9abd e3b1 8dbd 112c 2a3e
00000180: 6025 4bbf 9074 513d 0b9b 963e 3e5a 4c3e
00000190: c792 633d 98bc 013d 0b96 c3be 9434 fcbb
000001a0: 35b5 5a3d 2887 243e fb69 1bbe dc4f 373e
000001b0: 8e98 20be cc91 b3bd 54b4 52be df28 1a3f
000001c0: f6ba 243d 5f1e 333e 8feb 133d 02d7 df3e
000001d0: 3aae 2b3d 7afa 04bf 709a c63d 76de 783d
000001e0: 8f6c 933c 2888 633e ec2a 483e c140 4bbc
000001f0: 16bb 40be 96aa f43d 5a10 04be 3478 bd3d
00000200: a334 42be 801d 943e 0f41 f73c 6b31 49be
00000210: da1d c63e b314 e43d d8b0 233e 7a25 40be
00000220: bf79 493e 7b66 aabd 2125 adbe 6ccf da3d
00000230: 518f 973e 4aec 283f 2f1f 03bf 9e06 503e
00000240: 9e93 8d3b 3890 15bf 4ee1 323f 5a59 49be
00000250: 24d0 26bf f9e0 9e3f 4c29 b3bc 863c 5abe
00000260: 1e77 ddbf 8be7 3b3e 6166 b03c 1e2b 543c
00000270: 7c81 babc 96e2 89be b510 8a3e d151 993e
00000280: f86f fd3e 47fa d4bd ee71 003e 2e13 e23d
00000290: d166 6abf 7031 0a3e 24b0 3cbd a04f 1f3d
000002a0: a393 86bd 41dc 453e f4c1 f93d 77d5 543e
000002b0: 61e0 1dbf 1b8b 8c3d 9c2c 6dbf 6549 083e
000002c0: 4d1d 0fc1 ef05 8c3e cbc3 9a3d 17ad 903e
000002d0: 131a f83d e395 863e e13f 07bd cc99 fbbe
000002e0: 1c18 f5bd dea3 4a3e 633e 033e 7393 0f3e
000002f0: cb00 123d f706 e23c d5f1 7fc0 61d6 1c3f
00000300: b2cd 9a3f 5d50 903d 2ea2 b3bd 0fd9 06be
00000310: 7a97 eb3e 2c6b 0bbd 8898 093e 75bf 903e
00000320: 357c 4e3c 85ec 5c3e d156 f6bf 974a b6bd
00000330: 7883 4f3e 9741 333e 72e3 9ec0 d806 29be
00000340: dc77 ce3e cdb1 463f 740f 323d 9a92 3dbf
00000350: 854f d13e 819a 54be b21c e23c 6f7c 6e3e
00000360: d216 443e ef36 383e bc8b afbd 0ab1 a93d
00000370: ca7d 003f 8927 883f f717 863f f00c 44bf
00000380: 5c58 533e 0992 1e3d 95e6 a93d e895 c4bd
00000390: 5b42 a13f 8a2f 2cbf 78ca 67c0 e920 5a40
000003a0: 320d 373e c576 ecc0 99b9 323e 4c93 04c1
000003b0: 0eb3 713d 9470 dabd 7318 5cbe 42b0 43bf
000003c0: ef6a 5bbe e5e7 343d d6c5 76be 10af 8fbf
000003d0: 47dc 023e 002d 46be d957 08c1 7586 473e
000003e0: 70da 823e 864a 913e 5227 b9be 6d76 123e
000003f0: 2065 563e 140d 763e b9f8 3a3e e727 063f

decoders.0.decoder_net.2.bias f4 [128]
-0.027227111 0.20443355 -0.011500016 0.17933883 -0.107197456 0.07999269 0.7906218 0.036859915
0.22128169 0.19314781 0.1544008 0.029072808 0.001640258 0.19002162 0.26531002 0.12856092
-0.17115289 0.2498888 -0.023736974 -0.062067643 -0.03211892 0.09856844 0.074030325 -0.037538815
-0.099559434 0.01969833 0.2230101 0.098453134 -0.06358886 0.12991011 0.02659778 0.14183226
0.14325298 -0.04843956 0.027127067 -0.100592345 -0.04904594 0.20378518 0.111078754 -0.06279725
-0.016268019 0.114322245 -0.01282055 0.22182332 0.21614948 -0.081334226 0.32054192 0.4176992
0.0680482 0.10048217 0.3600934 0.27554405 0.028770294 0.058150727 0.30032802 -0.04377051
0.44983828 0.04129582 0.031797796 0.030874114 0.2933184 0.26024404 0.31020203 0.08830927
-0.01596867 -0.056049146 0.060221788 0.12940773 -0.08499388 -0.018498272 0.13674863 -0.0014529797
0.12674704 0.24260096 0.0040485994 0.026323704 -0.32644054 0.12638141 -0.06467159 -0.029724238
0.066363715 0.116624326 0.15662774 0.20673306 0.01592977 0.07040956 0.16795316 0.30925676
0.017863855 -0.015239558 0.12500148 0.1435143 0.2200329 0.0003753249 0.13801448 -0.117798775
-0.118514545 0.18945716 -0.12551808 0.18294099 0.09834089 0.00798176 -0.060557585 -0.027347485
0.3390467 0.062044993 0.04108951 0.11615485 0.077884644 -0.08260483 0.08624997 0.010944387
0.22284338 0.07304039 0.13118535 -0.1530333 -0.0110803535 0.07640193 0.05355378 0.1235814
0.14512318 -0.058625612 -0.00074558944 -0.017070727 0.050917886 0.1530863 0.28756067 -0.017524071
00000000: 640b dfbc 0757 513e 906a 3cbc 99a4 373e
00000010: 578a dbbd 35d3 a33d 3166 4a3f 6cfa 163d
00000020: ab97 623e 8ac8 453e 3e1b 1e3e 192a ee3c
00000030: edfd d63a 0795 423e b7d6 873e 79a5 033e
00000040: b442 2fbe d9e2 7f3e 0b74 c2bc a43a 7ebd
00000050: 218f 03bd 40de c93d 369d 973d 4dc2 19bd
00000060: d1e5 cbbd 645e a13c c25c 643e cca1 c93d
00000070: e03a 82bd 2807 053e 96e3 d93c 7a3c 113e
00000080: e9b0 123e 8f68 46bd 9539 de3c 5c03 cebd
00000090: 65e4 48bd 10ad 503e 427d e33d d89b 80bd
000000a0: 8244 85bc c821 ea3d 490d 52bc a725 633e
000000b0: 4a56 5d3e 8f92 a6bd 121e a43e abdc d53e
000000c0: db5c 8b3d 99c9 cd3d 2a5e b83e 1c14 8d3e
000000d0: aeaf eb3c 752f 6e3d 98c4 993e b548 33bd
000000e0: 3451 e63e ce25 293d 683e 023d b6eb fc3c
000000f0: d42d 963e b53e 853e cdd2 9e3e 7edb b43d
00000100: bad0 82bc ca93 65bd 1fab 763d 7683 043e
00000110: 4511 aebd b089 97bc d507 0c3e e971 beba
00000120: fac9 013e 636c 783e 1daa 843b cfa4 d73c
00000130: 3723 a7be 216a 013e 8a72 84bd 3f80 f3bc
00000140: b3e9 873d bcd8 ee3d 0663 203e d5b1 533e
00000150: 267f 823c e332 903d eafb 2b3e e756 9e3e
00000160: 3857 923c 57af 79bc 6300 003e 6af5 123e
00000170: 4e50 613e 41c7 c439 ab53 0d3e 7c40 f1bd
00000180: c1b7 f2bd 0f01 423e d087 00be e254 3b3e
00000190: f366 c93d eec5 023c 3b0b 78bd d507 e0bc
000001a0: 8797 ad3e e422 7e3d 794d 283d 98e2 ed3d
000001b0: fc81 9f3d b92c a9bd d3a3 b03d 1650 333c
000001c0: 0e31 643e 3396 953d 7455 063e c3b4 1cbe
000001d0: 5f8a 35bc 9d78 9c3d 355b 5b3d 3f18 fd3d
000001e0: 2c9b 143e 6921 70bd a973 43ba e9d7 8bbc
000001f0: 468f 503d a8c2 1c3e 273b 933e a48e 8fbc

decoders.0.decoder_net.4.weight f4 [100, 128]
0.18274054 -2.4303837 0.11721466 -0.30032966 1.2092555 0.23011748 -1.6424625 -1.3446872
0.82458633 -2.7580943 0.2128994 -0.075516306 -0.034158748 -0.1731767 -0.09351118 -0.2568387
1.1700968 0.55053437 0.053995553 1.480072 -0.15586713 -1.0185366 0.3366566 0.9933373
-0.07634035 -0.9337204 1.070732 0.0071394052 0.4717892 -0.86054945 -0.025162095 0.19938256
0.00030926077 0.10089893 -0.05198428 -0.045728337 2.2928953 -0.4052385 -1.5682139 0.44530898
0.024208177 -2.351392 2.6564095 -1.57735 -0.31402934 -0.08049351 -0.3258809 0.7632773
-0.23802765 -0.6463679 1.1186001 0.85468894 0.012413717 0.031953227 2.126575 0.026935428
-2.084675 -0.44964656 0.056198932 -0.39471465 -1.4487971 -3.1287327 -2.3976402 1.9769377
0.074577294 0.0130687915 -0.11468044 -0.38667855 0.006329639 0.8872881 0.50931305 -0.86027384
2.8155837 1.3058692 -0.05703828 0.2860008 -1.6834168 -0.29344174 0.9890857 -0.049063418
-0.96408945 0.16499071 1.3999213 1.1080103 0.038438637 -0.02099216 2.8943667 0.8343489
-0.029837677 -0.09230191 -0.020318393 -0.526868 1.6427422 -0.75952137 -0.17506544 -0.23559642
0.03623284 -0.9514766 0.086625844 -0.080968484 -1.9497894 -0.07085434 -0.033235297 -1.2904458
-1.1461065 0.3697193 0.008170044 0.25153008 -0.0031020923 0.07997926 -0.31258833 0.04215725
0.5077904 0.054934602 -1.6709198 -1.1304377 0.024902096 2.4979813 -1.2110473 2.1319318
0.15107721 0.034482498 2.9581263 -1.1897086 -0.0576048 -0.23090301 -0.21785496 -0.09665271
-0.018727712 2.8586383 -0.07337816 -0.83596945 -0.26178652 0.4797465 -3.751832 1.450773
1.3229336 -0.5534551 0.27040896 -0.002553383 -0.053243794 -0.54602677 0.8022202 0.1542147
0.7482791 0.07197616 -0.008144549 -0.26119086 0.23925593 0.32487836 -0.5062295 -0.061143544
0.09763859 -0.24113013 0.23583925 -0.015910486 -1.7407657 -2.237317 0.018422939 -0.2076386
-0.99268794 0.01862534 0.01682752 -0.07333915 -0.27032423 -0.79864234 0.050270885 0.882544
-0.040281262 0.7592761 0.07571302 -1.9493035 -0.34303907 0.010292675 -0.08259193 0.3511125
-0.36058605 -1.4019928 -0.5965001 -0.33315724 0.041746918 0.016835086 -0.32514215 -0.054531485
-1.5162212 -0.5752852 0.010350296 -0.3718563 0.686108 0.15904951 -1.0434852 -0.64068156
0.060882542 0.017146174 1.0527517 -0.13229325 0.05428067 -0.29405195 1.9499822 0.7346467
1.5473292 0.5475769 -0.03810658 -0.47075954 0.8129367 -0.4148593 0.37845838 -0.03781916
-0.43967417 -2.374622 0.45771343 2.3313482 -0.0077359374 0.07286104 -0.6441896 -0.17918754
0.065413326 0.0049461653 0.5229042 -0.42552665 -1.3676353 -0.32675377 1.9735296 -0.13001345
-0.040036634 0.22969587 -0.060820363 -1.3538322 0.5051629 -0.035128854 -0.07240464 -0.038320545
-3.0789356 1.1234988 2.870671 -0.42490235 -0.08491241 0.0013200986 -0.4964255 0.04421197
0.93926686 -0.020002792 1.1696253 0.30971873 -0.029133992 -0.57850826 0.24922942 0.2954709
0.07311763 0.082461275 2.3573887 0.02658879 0.05931697 -0.85848737 -0.0526277 -0.0021118026
00000000: 5620 3b3e 688b 1bc0 3d0e f03d cfc4 99be
00000010: e2c8 9a3f eba3 6b3e 363c d2bf b61e acbf
00000020: 1718 533f 9e84 30c0 4d02 5a3e 4ba8 9abd
00000030: 0bea 0bbd 3c55 31be ca82 bfbd 5d80 83be
00000040: bbc5 953f d2ef 0c3f 712a 5d3d 0073 bd3f
00000050: a29b 1fbe 685f 82bf 415e ac3e 5a4b 7e3f
00000060: 5458 9cbd 4d08 6fbf bf0d 893f acf1 e93b
00000070: 5b8e f13e f84c 5cbf bd20 cebc f12a 4c3e
00000080: 4724 a239 19a4 ce3d 78ed 54bd a34d 3bbd
00000090: ccbe 1240 6c7b cfbe 3cbb c8bf 8aff e33e
000000a0: 3a50 c63c 357d 16c0 9d02 2a40 9be6 c9bf
000000b0: 74c8 a0be c8d9 a4bd dcd9 a6be 2466 433f
000000c0: 85bd 73be 5e78 25bf 4a2e 8f3f e5cc 5a3f
000000d0: e762 4b3c 63e1 023d ce19 0840 b0a7 dc3c
000000e0: 516b 05c0 1338 e6be da30 663d 0a18 cabe
000000f0: 2f72 b9bf 283d 48c0 f072 19c0 4b0c fd3f
00000100: fbbb 983d 7c1e 563c 94dd eabd bbfa c5be
00000110: dc68 cf3b 5025 633f 5762 023f e83a 5cbf
00000120: 8632 3440 b926 a73f f9a0 69bd b26e 923e
00000130: 347a d7bf ff3d 96be b834 7d3f b9f6 48bd
00000140: 91ce 76bf 53f3 283e 9f30 b33f 48d3 8d3f
00000150: d571 1d3d c0f7 abbc 4e3d 3940 e497 553f
00000160: 256e f4bc c908 bdbd c272 a6bc d2e0 06bf
00000170: 6045 d23f fe6f 42bf 5b44 33be 3040 71be
00000180: e368 143d f893 73bf e468 b13d ced2 a5bd
00000190: b392 f9bf 151c 91bd bc21 08bd 542d a5bf
000001a0: 9eb3 92bf d94b bd3e a6db 053c 8dc8 803e
000001b0: 794c 4bbb 2bcc a33d 940b a0be 15ad 2c3d
000001c0: 8dfe 013f 1b03 613d b3e0 d5bf 2fb2 90bf
000001d0: 7bff cb3c edde 1f40 9903 9bbf 9271 0840
000001e0: fcb3 1a3e 853d 0d3d f151 3d40 5f48 98bf
000001f0: 03f3 6bbd d771 6cbe 5f15 5fbe dbf1 c5bd
00000200: dc6a 99bc eef3 3640 4a47 96bd 1802 56bf
00000210: e208 86be 55a1 f53e 041e 70c0 eeb2 b93f
00000220: e355 a93f 3caf 0dbf 0b73 8a3e a856 27bb
00000230: 2a16 5abd 69c8 0bbf 4e5e 4d3f 75ea 1d3e
00000240: 388f 3f3f 3d68 933d b770 05bc cfba 85be
00000250: 82ff 743e 7556 a63e 4298 01bf a771 7abd
00000260: bef6 c73d d1ea 76be d87f 713e b556 82bc
00000270: 69d1 debf 3430 0fc0 b4eb 963c 379f 54be
00000280: cc20 7ebf 2b94 983c ded9 893c d632 96bd
00000290: f067 8abe d373 4cbf d8e8 4d3d 67ee 613f
000002a0: f7fd 24bd eb5f 423f 6e0f 9b3d c782 f9bf
000002b0: d1a2 afbe 9ca2 283c f525 a9bd 05c5 b33e
000002c0: bc9e b8be 8074 b3bf 3bb4 18bf 9693 aabe
000002d0: d1fe 2a3d bce9 893c 0879 a6be 685c 5fbd
000002e0: 8913 c2bf e445 13bf 4a94 293c f363 bebe
000002f0: c6a4 2f3f e0dd 223e ec90 85bf b503 24bf
00000300: f95f 793d 2276 8c3c 91c0 863f e277 07be
00000310: 6855 5e3d fa8d 96be 0499 f93f ce11 3c3f
00000320: e20e c63f 002e 0c3f a515 1cbd 6507 f1be
00000330: 9f1c 503f 7068 d4be 4cc5 c13e 43e8 1abd
00000340: f91c e1be cff9 17c0 6a59 ea3e cf34 1540
00000350: bf7d fdbb 2b38 953d 9ce9 24bf f07c 37be
00000360: 6cf7 853d 7113 a23b 0ddd 053f a1de d9be
00000370: ac0e afbf 454c a7be 9e9c fc3f 3f22 05be
00000380: 74fd 23bd 6535 6b3e c61e 79bd 604a adbf
00000390: 5b52 013f 46e3 0fbd e248 94bd 01f6 1cbd
000003a0: 480d 45c0 cfce 8f3f 13b9 3740 cd8c d9be
000003b0: 8fe6 adbd 2907 ad3a 7c2b febe 9c17 353d
000003c0: cb73 703f e5dc a3bc 48b6 953f 7493 9e3e
000003d0: 69aa eebc 1e19 14bf ff35 7f3e f647 973e
000003e0: b2be 953d 75e1 a83d 75df 1640 bcd0 d93c
000003f0: 5af6 723d d4c5 5bbf 2590 57bd 2b66 0abb
