experiment/splines_opt_model_seed12/spline_batch_opt_euclidean_10.pt (torch, 77998 bytes, 180 tensors)

a f4 [2]
00000000: 3aeb 04bf 6f8c 23c0
-0.5192143 -2.5554464

b f4 [2]
00000000: 5431 39bf 0f4d 4cbf
-0.72340894 -0.7980508

omega_init f4 [5, 2]
00000000: 934c 8fbe 188f 47b6 2479 59be c06b c2b5
00000010: 2c65 7b3e b82c 12b6 c2a4 81be 487a 47b5
00000020: 7800 d2be 00c2 e7b3
-0.2798811 -2.9736602e-06 -0.21237618 -1.4485486e-06 0.24550313 -2.1781725e-06 -0.25321013 -7.431122e-07
-0.41015983 -1.0792064e-07

omega_optimized f4 [5, 2]
00000000: 2f7a bbbe d765 993e af52 b0be f630 26bf
00000010: 29ad 123c 3681 653e a436 cdbd 2c2e 3c3f
00000020: 7810 d0be cb41 763f
-0.36616656 0.2996051 -0.34438083 -0.6491846 0.008952417 0.22412571 -0.100201875 0.7350795
-0.40637565 0.9619414

a f4 [2]
00000000: 3aeb 04bf 6f8c 23c0
-0.5192143 -2.5554464

b f4 [2]
00000000: 96a4 62c0 5578 74bf
-3.5412955 -0.9549611

omega_init f4 [5, 2]
00000000: 800e 44b7 c428 1abf c0c1 8cb7 5648 d2be
00000010: 0066 83b6 1328 473e 0081 d836 cbaf d0be
00000020: 8059 0c37 bb07 76be
-1.1685886e-05 -0.60218453 -1.6779522e-05 -0.41070813 -3.9159786e-06 0.19448881 6.452319e-06 -0.4075912
8.365489e-06 -0.24026386

omega_optimized f4 [5, 2]
00000000: 0625 883f 8b34 e43c e23f a43c 54eb 1ebf
00000010: de88 b1be 79ed f3be 6636 1bbf d8d0 63bf
00000020: b2b1 10bf d0a5 1cbf
1.0636299 0.027857086 0.020049993 -0.6207783 -0.34674734 -0.47642115 -0.6062988 -0.88990545
-0.5652114 -0.6119051

a f4 [2]
00000000: 3aeb 04bf 6f8c 23c0
-0.5192143 -2.5554464

b f4 [2]
00000000: 6ee4 45c0 5578 74bf
-3.0920672 -0.9549611

omega_init f4 [5, 2]
00000000: 2578 9b38 22a1 5b3d f6f0 6db8 ab8c da3d
00000010: df6b 5838 1c56 80be 5640 1a38 c229 3a3e
00000020: b679 6037 e657 fb3d
7.4133546e-05 0.053620465 -5.6729616e-05 0.106713615 5.1598876e-05 -0.25065696 3.677638e-05 0.18179992
1.33797785e-05 0.12272625

omega_optimized f4 [5, 2]
00000000: c1e6 4b3f a996 3f3f 4414 3cbd daa8 78bf
00000010: 4769 27be ccf6 91bf 19ab bdbe ade9 9ebe
00000020: 19dd 36bf 5d37 9cbe
0.7964898 0.74839264 -0.045917764 -0.9713265 -0.16348754 -1.1403441 -0.370446 -0.31037655
-0.7143112 -0.3051099

a f4 [2]
00000000: 3aeb 04bf 6f8c 23c0
-0.5192143 -2.5554464

b f4 [2]
00000000: bfa5 43bf bb2f 153f
-0.76424783 0.58275956

omega_init f4 [5, 2]
00000000: 534f 82bc 8081 29b5 129e d83d 1093 c8b5
00000010: 355b 2e3e a814 4d35 de14 623d 689f 1cb5
00000020: 7582 9fbe d03d 32b5
-0.015906965 -6.3145853e-07 0.105770245 -1.4943962e-06 0.1702698 7.639851e-07 0.05519568 -5.8346495e-07
-0.31154218 -6.6400116e-07

omega_optimized f4 [5, 2]
00000000: d5cc 92be c657 2ebf 764e 39bd 29ed 343f
00000010: f533 ba3d c813 543e 4f41 cf3e 3abd 3cbf
00000020: b178 85be 5ac3 04be
-0.286719 -0.6810268 -0.04524084 0.7067438 0.09091941 0.20710671 0.40479514 -0.73726237
-0.26068643 -0.12965146

a f4 [2]
00000000: 3aeb 04bf 6f8c 23c0
-0.5192143 -2.5554464

b f4 [2]
00000000: 7d48 24bf 0a41 253f
-0.6417311 0.64552367

omega_init f4 [5, 2]
00000000: 4249 84bc 0045 e4b5 63c7 b33d 0052 0936
00000010: 5007 3439 0065 bf35 c086 9c3d 8040 82b5
00000020: 8123 96be 8025 23b5
-0.016148213 -1.7007405e-06 0.087782644 2.046232e-06 0.00017168862 1.4260004e-06 0.07642889 -9.704527e-07
-0.29323962 -6.07768e-07

omega_optimized f4 [5, 2]
00000000: 2d5d 79be 98f8 44bf b73d 2abd 07ac 2c3f
00000010: 99d1 65bd c273 a8be 698b e13c 537a 4cbf
00000020: ac45 61be 4e2b 263c
-0.2435195 -0.76941824 -0.041562762 0.6744999 -0.05610809 -0.32900816 0.027532296 -0.7987415
-0.21999234 0.010142161

a f4 [2]
00000000: 3aeb 04bf 6f8c 23c0
-0.5192143 -2.5554464

b f4 [2]
00000000: a65f 0fbf 6338 1d3f
-0.5600532 0.61414164

omega_init f4 [5, 2]
00000000: efb7 4bbc 40ba 04b6 b1e1 d93c 0092 a736
00000010: 56d2 183b 20fe 66b5 c0e9 103d 6824 6bb6
00000020: f4db ecbd 10fc 44b6
-0.01243399 -1.9777945e-06 0.026596876 4.9939845e-06 0.002331873 -8.605148e-07 0.03537917 -3.503892e-06
-0.1156539 -2.9352996e-06

omega_optimized f4 [5, 2]
00000000: a835 5dbe da65 47bf 6042 08be 194b 263f
00000010: 6ec3 b2bc 0624 13bf 67be 60bc 4d95 4cbf
00000020: 45dc 17bc e211 bbbc
-0.216025 -0.7788979 -0.1330657 0.6495834 -0.021821704 -0.5747684 -0.01371727 -0.79915315
-0.009268825 -0.022835676

a f4 [2]
00000000: 3aeb 04bf 6f8c 23c0
-0.5192143 -2.5554464

b f4 [2]
00000000: c604 e0be 4be6 b93e
-0.43753642 0.36308512

omega_init f4 [5, 2]
00000000: d841 c4bc b0c6 13b8 8aea 4dbd 80e2 c337
00000010: be2c 4ebd e014 31b7 3d4f 173d eeea 34b7
00000020: 9680 bd3c 207e a236
-0.023957178 -3.5232573e-05 -0.050272502 2.3351284e-05 -0.05033564 -1.05548825e-05 0.036940802 -1.0783535e-05
0.023132604 4.842659e-06

omega_optimized f4 [5, 2]
00000000: 3978 3ebe 4182 3fbf e00d 6dbe fd81 2f3f
00000010: ba08 79bd f5e4 3abf dd76 12be 502f 58bf
00000020: 5f69 773e 4648 cbbe
-0.18600549 -0.74808127 -0.23149824 0.6855772 -0.060799338 -0.7300561 -0.14303155 -0.84447193
0.2416129 -0.39703578

a f4 [2]
00000000: 3aeb 04bf 6f8c 23c0
-0.5192143 -2.5554464

b f4 [2]
00000000: 11d4 19bf fcd4 a93e
-0.6008921 0.33170307

omega_init f4 [5, 2]
00000000: 707d c43c e042 85b8 b865 543d a85c 1538
00000010: bd5a 3d3d e031 32b8 a967 10bd 8ca3 f0b7
00000020: e1eb ebbc 4452 06b7
0.023985595 -6.354391e-05 0.05185482 3.561066e-05 0.046229113 -4.2484957e-05 -0.035255108 -2.8686387e-05
-0.028799 -8.006176e-06

omega_optimized f4 [5, 2]
00000000: 80de 31be 49e2 34bf 02a8 0cbe a8cd 3d3f
00000010: fde3 173d fb44 23bf f2ee 453d ec93 57bf
00000020: 176a d43d dbc4 f8be
-0.17370033 -0.70657784 -0.13735965 0.7414193 0.03708266 -0.6377713 0.04832358 -0.84210086
0.103717975 -0.4858769

a f4 [2]
00000000: 3aeb 04bf 6f8c 23c0
-0.5192143 -2.5554464

b f4 [2]
00000000: c604 e0be fcd4 a93e
-0.43753642 0.33170307

omega_init f4 [5, 2]
00000000: e080 c4bc 7c8b 85b8 4167 54bd 14a4 1538
00000010: 7258 3dbd b498 31b8 ff66 103d b8c1 f0b7
00000020: dee6 eb3c b44f 05b7
-0.023987234 -6.367915e-05 -0.051856283 3.5677178e-05 -0.046226926 -4.2342304e-05 0.035254475 -2.8700437e-05
0.02879661 -7.945975e-06

omega_optimized f4 [5, 2]
00000000: f2b1 41be d680 3dbf 39ec 6fbe 2446 323f
00000010: fa93 57bd 5503 39bf 2aa5 04be 2569 58bf
00000020: 937b 783e eb1f dfbe
-0.18915537 -0.74024713 -0.23429956 0.69638276 -0.052631356 -0.7227071 -0.1295363 -0.8453544
0.2426589 -0.4357904

a f4 [2]
00000000: 5431 39bf 0f4d 4cbf
-0.72340894 -0.7980508

b f4 [2]
00000000: 96a4 62c0 5578 74bf
-3.5412955 -0.9549611

omega_init f4 [5, 2]
00000000: a474 7a37 906a bdbd 2880 43b7 2820 783d
00000010: 44f5 3c37 d033 973d d4eb 0b37 ef58 ab3d
00000020: 28b1 4636 8195 80be
1.4928319e-05 -0.09248841 -1.1652744e-05 0.06057754 1.1262779e-05 0.07382929 8.339954e-06 0.08366572
2.9607418e-06 -0.25114062

omega_optimized f4 [5, 2]
00000000: 8e96 72bf 3d3a dabe ef7d 513e d88b 08be
00000010: 4857 fcbe 046d 51be 86ca 4c3f eb94 06bf
00000020: ba03 2b3f 63d9 a83d
-0.9476098 -0.42622557 0.20458196 -0.13334596 -0.4928534 -0.20451742 0.79996526 -0.5257098
0.6680256 0.08244588

a f4 [2]
00000000: 5431 39bf 0f4d 4cbf
-0.72340894 -0.7980508

b f4 [2]
00000000: 6ee4 45c0 5578 74bf
-3.0920672 -0.9549611

omega_init f4 [5, 2]
00000000: 620a 10b8 15d7 2ebd 7e2a 8037 1783 a63d
00000010: d4ca bab7 23dd 2d3d 801d 57b7 1b21 ccbc
00000020: b04d 42b6 5604 22be
-3.4341945e-05 -0.042685587 1.5278576e-05 0.08130472 -2.2267377e-05 0.04244722 -1.2821867e-05 -0.02491813
-2.8953473e-06 -0.15821967

omega_optimized f4 [5, 2]
00000000: 7d19 84bf 09f2 a4be eb4a 133f 3172 84be
00000010: be9e 52bf 2158 7cbe 56ab 33bf a61d 47bc
00000020: 23f4 b93e 4fe6 293e
-1.0320278 -0.32215908 0.5753619 -0.2586837 -0.8227347 -0.24642994 -0.7018331 -0.012153065
0.36319074 0.16591762

a f4 [2]
00000000: 5431 39bf 0f4d 4cbf
-0.72340894 -0.7980508

b f4 [2]
00000000: bfa5 43bf bb2f 153f
-0.76424783 0.58275956

omega_init f4 [5, 2]
00000000: 25b2 3ebc c079 7334 7a8a dc3c 4029 4d34
00000010: bcc5 003b fe61 81b5 c415 0d3d a8ca 11b5
00000020: fd1c e9bd 0829 0135
-0.011639153 2.2675431e-07 0.0269215 1.910712e-07 0.001964911 -9.639768e-07 0.034444585 -5.4311613e-07
-0.11382482 4.8115953e-07

omega_optimized f4 [5, 2]
00000000: 30d4 12bf 574d 3c3f e349 323e 6944 07be
00000010: 1757 123d b2ba 343f a318 c8be 5963 cf3d
00000020: 43d2 91be 6c70 1bbf
-0.5735502 0.7355551 0.17410998 -0.1320969 0.035727587 0.70597374 -0.39081296 0.10126371
-0.2848073 -0.6071842

a f4 [2]
00000000: 5431 39bf 0f4d 4cbf
-0.72340894 -0.7980508

b f4 [2]
00000000: 7d48 24bf 0a41 253f
-0.6417311 0.64552367

omega_init f4 [5, 2]
00000000: ac55 5ebb f066 f8b7 ff68 82bd c014 cf36
00000010: 60d1 723b f821 b2b7 8ce5 f5bc f04c 19b7
00000020: 841f 223e 60f8 cf35
-0.0033925576 -2.9611838e-05 -0.06367683 6.1714964e-06 0.0037051067 -2.1235071e-05 -0.030016683 -9.137424e-06
0.15832335 1.5494988e-06

omega_optimized f4 [5, 2]
00000000: 3f03 0bbf ada6 3d3f 78ce 133e 2c22 60be
00000010: 09c0 a23d 36db 373f 2b6d e3be 9ea9 1b3e
00000020: 1070 c03d f401 1ebf
-0.5430183 0.7408245 0.1443423 -0.21888036 0.07946784 0.71818864 -0.44419226 0.15201423
0.09396374 -0.6172173

a f4 [2]
00000000: 5431 39bf 0f4d 4cbf
-0.72340894 -0.7980508

b f4 [2]
00000000: a65f 0fbf 6338 1d3f
-0.5600532 0.61414164

omega_init f4 [5, 2]
00000000: ee08 c13e 401b 30b7 8e34 6c3e f8eb ee36
00000010: 079d 9dbe a0f4 00b7 40fd 533e c8ee b5b6
00000020: 1c99 c03e 00f0 c3b5
0.37702125 -1.0496762e-05 0.23066923 7.120423e-06 -0.30783865 -7.686351e-06 0.20702076 -5.422018e-06
0.37616813 -1.4598481e-06

omega_optimized f4 [5, 2]
00000000: 29d7 4dbe 786a 643f a650 913e ea8d 53bd
00000010: 51d6 a2be 99b4 1b3f 8784 2cbe 9a09 023f
00000020: f3fa dd3e df9f 29bf
-0.20101608 0.8922496 0.28381842 -0.05164901 -0.31804135 0.60822445 -0.1684743 0.507959
0.43355522 -0.6625957

a f4 [2]
00000000: 5431 39bf 0f4d 4cbf
-0.72340894 -0.7980508

b f4 [2]
00000000: c604 e0be 4be6 b93e
-0.43753642 0.36308512

omega_init f4 [5, 2]
00000000: c295 f33e d386 1538 a9f3 0f3e f1d0 f6b7
00000010: c33b c1bd 5343 bb37 b8b4 e73d c499 a137
00000020: a7f7 a23d a60a 1637
0.47575194 3.5649933e-05 0.14057793 -2.9422781e-05 -0.09435227 2.2323487e-05 0.11313766 1.9264298e-05
0.07957392 8.943176e-06

omega_optimized f4 [5, 2]
00000000: acfe 423f 287c 503f c29b 403e c8d8 723d
00000010: 5990 3a3e 1af2 ec3e 87af 1fbe f5a7 243f
00000020: d469 afbe 5086 9bbe
0.7616985 0.8143945 0.18809417 0.05928877 0.18219127 0.4627846 -0.15594302 0.6431878
-0.34260428 -0.3037591

a f4 [2]
00000000: 5431 39bf 0f4d 4cbf
-0.72340894 -0.7980508

b f4 [2]
00000000: 11d4 19bf fcd4 a93e
-0.6008921 0.33170307

omega_init f4 [5, 2]
00000000: 37d3 753e 63d2 dfb7 b6db 803e 6cd1 8d37
00000010: 77d4 56be 8cda a3b7 cf64 923e 60af 41b7
00000020: b6f1 413e 7040 61b6
0.24006353 -2.668164e-05 0.25167626 1.690603e-05 -0.20979486 -1.9532883e-05 0.28592536 -1.1544529e-05
0.18939862 -3.356512e-06

omega_optimized f4 [5, 2]
00000000: 47a7 66be 007d 6e3f c33e 833e c0ba f63d
00000010: 3de2 0abf 7b20 2a3f d1b5 26be 645c 9dbe
00000020: 1af9 953e a96a 27bf
-0.22524749 0.93159485 0.2563382 0.120473385 -0.5425146 0.6645581 -0.16280295 -0.3073455
0.29291612 -0.65397125

a f4 [2]
00000000: 5431 39bf 0f4d 4cbf
-0.72340894 -0.7980508

b f4 [2]
00000000: c604 e0be fcd4 a93e
-0.43753642 0.33170307

omega_init f4 [5, 2]
00000000: 3fe2 ed3e 8090 50b6 93db 183e 6059 ac36
00000010: b036 bebd 802b 62b6 e06f 033e 809b 13b6
00000020: 2a5b a43d e01d a5b5
0.46461675 -3.1078525e-06 0.14927511 5.136404e-06 -0.092877746 -3.3701945e-06 0.12835646 -2.199522e-06
0.08025201 -1.2302153e-06

omega_optimized f4 [5, 2]
00000000: 2fbe 423f 3b89 513f af5a 493e f86b c23d
00000010: 0a83 2c3e ca4d eb3e 0226 0fbe 079b 243f
00000020: 7981 b5be e9f7 aabe
0.7607145 0.8185002 0.196635 0.0949325 0.16846862 0.45957786 -0.13979343 0.6429905
-0.35450342 -0.33392265

a f4 [2]
00000000: 96a4 62c0 5578 74bf
-3.5412955 -0.9549611

b f4 [2]
00000000: 6ee4 45c0 5578 74bf
-3.0920672 -0.9549611

omega_init f4 [5, 2]
00000000: 0000 0000 0000 0000 0000 0000 0000 0000
00000010: 0000 0000 0000 0000 0000 0000 0000 0000
00000020: 0000 0000 0000 0000
0.0 0.0 0.0 0.0 0.0 0.0 0.0 0.0
0.0 0.0

omega_optimized f4 [5, 2]
00000000: 71a2 f53d 3282 bc3c b135 9ebe 9247 af39
00000010: d501 ac3d 1607 763c d90c 6e3d e5fd 4f3d
00000020: 3998 a63e 69b3 1fbe
0.11993874 0.0230113 -0.30900338 0.00033431925 0.08398787 0.015016338 0.05811772 0.050779242
0.32538012 -0.15595783

a f4 [2]
00000000: 96a4 62c0 5578 74bf
-3.5412955 -0.9549611

b f4 [2]
00000000: bfa5 43bf bb2f 153f
-0.76424783 0.58275956

omega_init f4 [5, 2]
00000000: 00a1 90b5 da0d de3d 80c2 d535 5f09 7c3e
00000010: c013 94b5 a01e 87be 40a7 97b5 d305 f13d
00000020: e08f 44b5 b8f2 073e
-1.0775693e-06 0.10842486 1.5926344e-06 0.2461295 -1.1032607e-06 -0.26390553 -1.1299053e-06 0.11768689
-7.3225056e-07 0.13276184

omega_optimized f4 [5, 2]
00000000: 477f 143f de92 2f3e b453 303f b848 263f
00000010: 09ae 0c3f d33e be3d 2401 3e3f 2efb 323e
00000020: c034 2ebf 3452 b33e
0.5800671 0.17145869 0.6887772 0.6495471 0.54953057 0.092893265 0.7422049 0.1747863
-0.6804924 0.35023654

a f4 [2]
00000000: 96a4 62c0 5578 74bf
-3.5412955 -0.9549611

b f4 [2]
00000000: 7d48 24bf 0a41 253f
-0.6417311 0.64552367

omega_init f4 [5, 2]
00000000: 0051 54b7 671d e03d 007c 31b7 d3f5 7f3e
00000010: 0080 1db7 bb3e 76be 008e 1636 1d24 ba3d
00000020: 00c8 c036 61d6 183e
-1.2655044e-05 0.10943108 -1.0578893e-05 0.24996118 -9.387732e-06 -0.24047367 2.2434397e-06 0.09088919
5.745329e-06 0.14925529

omega_optimized f4 [5, 2]
00000000: 564c 173f d112 313e ab8d 333f 808d 1a3f
00000010: c41d 0b3f f2d0 4d3e 684f 223f 21b4 a13e
00000020: 194c 2bbf e116 d63e
0.59100854 0.17292334 0.70138043 0.6037216 0.54342294 0.20099238 0.63402414 0.3158274
-0.6691299 0.4181433

a f4 [2]
00000000: 96a4 62c0 5578 74bf
-3.5412955 -0.9549611

b f4 [2]
00000000: a65f 0fbf 6338 1d3f
-0.5600532 0.61414164

omega_init f4 [5, 2]
00000000: 800b 6837 c9a4 353e 00e4 4035 e545 a83e
00000010: 009d 2537 0335 6dbe 8085 6b36 5ccd 0cbb
00000020: 40f8 42b6 00a7 523e
1.3830955e-05 0.17738642 7.185736e-07 0.32865825 9.871321e-06 -0.23164754 3.5095436e-06 -0.0021484708
-2.9052753e-06 0.20571518

omega_optimized f4 [5, 2]
00000000: 8799 173f 0435 693e 6c94 2d3f d51a 253f
00000010: a975 0c3f ef63 6f3e fa32 243f 860c 9f3e
00000020: 2345 1ebf 19d2 f93e
0.5921864 0.2277413 0.678046 0.6449407 0.54867035 0.23377965 0.64140284 0.31064242
-0.61824244 0.48793104

a f4 [2]
00000000: 96a4 62c0 5578 74bf
-3.5412955 -0.9549611

b f4 [2]
00000000: c604 e0be 4be6 b93e
-0.43753642 0.36308512

omega_init f4 [5, 2]
00000000: 4c93 e5b6 f072 283f 60d8 8936 b463 a63e
00000010: 85e2 0b37 1cde 39bf b161 bb36 442e 8bbe
00000020: 1cb6 0037 f41b 133f
-6.8418794e-06 0.6580038 4.1081075e-06 0.32497942 8.337786e-06 -0.72604537 5.584407e-06 -0.27183735
7.671795e-06 0.5746453

omega_optimized f4 [5, 2]
00000000: 770d 293f 038f 1f3f 6ae3 313f cec0 4f3f
00000010: 9d06 273f 6705 87be 6428 243f c08d 19be
00000020: 7ef1 0abf b3c8 093f
0.6603617 0.62327594 0.6948763 0.8115357 0.65244466 -0.2637131 0.6412413 -0.1499548
-0.5427474 0.5382187

a f4 [2]
00000000: 96a4 62c0 5578 74bf
-3.5412955 -0.9549611

b f4 [2]
00000000: 11d4 19bf fcd4 a93e
-0.6008921 0.33170307

omega_init f4 [5, 2]
00000000: 88f2 fdb4 a38c 2b3f 6ccb 06b6 668d a63e
00000010: 6603 93b5 3baa 58bf 2c09 0d35 7bd4 51bd
00000020: 98e1 26b5 274c fe3e
-4.7301387e-07 0.6701147 -2.0085963e-06 0.32529753 -1.0953343e-06 -0.8463475 5.253994e-07 -0.051228028
-6.21681e-07 0.49667475

omega_optimized f4 [5, 2]
00000000: 2039 253f eeb8 213f 102b 4f3f 562f 5f3f
00000010: 5f83 173f 7dd3 dcbe eb37 103f 73e8 07be
00000020: e22a 36bf e365 d63e
0.6454029 0.63172805 0.80925083 0.87181604 0.5918483 -0.43130103 0.56335324 -0.13272266
-0.71159184 0.41874608

a f4 [2]
00000000: 96a4 62c0 5578 74bf
-3.5412955 -0.9549611

b f4 [2]
00000000: c604 e0be fcd4 a93e
-0.43753642 0.33170307

omega_init f4 [5, 2]
00000000: 206d 87b6 ffbb 2d3f 0069 48b5 214d b63e
00000010: 6034 4736 b02d 3bbf 7034 3e36 9305 94be
00000020: c0bc 8c36 830a 113f
-4.0360173e-06 0.67864984 -7.46586e-07 0.3560572 2.9683797e-06 -0.7311659 2.834273e-06 -0.28910503
4.1942985e-06 0.56656665

omega_optimized f4 [5, 2]
00000000: c53f 293f f249 233f 822f 313f da73 573f
00000010: bac0 263f c6f1 91be 738c 213f c6db 25be
00000020: 4cef 0bbf cabc fe3e
0.6611293 0.63784707 0.69213116 0.8416115 0.6513783 -0.2850477 0.63104934 -0.16197118
-0.54662013 0.4975341

a f4 [2]
00000000: 6ee4 45c0 5578 74bf
-3.0920672 -0.9549611

b f4 [2]
00000000: bfa5 43bf bb2f 153f
-0.76424783 0.58275956

omega_init f4 [5, 2]
00000000: d0b0 f8b6 3b93 203d 20bc c9b6 8ab7 2b3c
00000010: 283e d2b6 5951 dfbc 806a d734 041b e13d
00000020: d07e 2936 896a 7e3d
-7.4115596e-06 0.03920291 -6.0121674e-06 0.010480771 -6.2657236e-06 -0.02726047 4.012436e-07 0.10991481
2.5256777e-06 0.06211332

omega_optimized f4 [5, 2]
00000000: 719c 653f fa58 403f da05 1c3f 7de8 ab3d
00000010: 6562 323f 8e6a 673f 8b6a 42be 54e6 043e
00000020: 24d0 7bbf 3e3b 0dbe
0.89691836 0.7513577 0.6094643 0.08393953 0.6968139 0.90396965 -0.18985955 0.12978488
-0.9836447 -0.1379213

a f4 [2]
00000000: 6ee4 45c0 5578 74bf
-3.0920672 -0.9549611

b f4 [2]
00000000: 7d48 24bf 0a41 253f
-0.6417311 0.64552367

omega_init f4 [5, 2]
00000000: 3032 6a37 b8d5 873d 60bd b137 f3ad c33c
00000010: f07c 3037 f043 07bd 60f6 9bb6 a4d1 b33d
00000020: 102d 45b7 94f4 c13d
1.3959172e-05 0.066325605 2.1188229e-05 0.023886656 1.0519507e-05 -0.033023775 -4.648042e-06 0.0878022
-1.1752607e-05 0.09470478

omega_optimized f4 [5, 2]
00000000: ddff 643f e422 573f 42b2 e83e 281c 8f3c
00000010: a7b9 4a3f f4db 663f deb1 90be b402 bd3d
00000020: 1283 4ebf 3282 e63c
0.89452916 0.84037614 0.454485 0.01746948 0.79189533 0.9017937 -0.28260702 0.09229031
-0.8066875 0.028138254

a f4 [2]
00000000: 6ee4 45c0 5578 74bf
-3.0920672 -0.9549611

b f4 [2]
00000000: a65f 0fbf 6338 1d3f
-0.5600532 0.61414164

omega_init f4 [5, 2]
00000000: 60cd 4836 b30f b03d f63b 4db7 2d65 ae3d
00000010: c0da 6f35 e355 e4bc 6812 f936 6bd2 bd3d
00000020: 34f6 a836 761f 4fbc
2.9921866e-06 0.085967444 -1.2232913e-05 0.085153915 8.935276e-07 -0.027872985 7.422921e-06 0.0926865
5.035452e-06 -0.012641778

omega_optimized f4 [5, 2]
00000000: a2a6 643f 2e92 633f d80d a73e a97e ca3c
00000010: b996 553f f5f5 643f 1921 acbe cced f03d
00000020: d91d 38bf 9fcb 32bd
0.8931676 0.8889493 0.3262775 0.0247186 0.8343311 0.894378 -0.33619002 0.11764106
-0.71920544 -0.04365122

a f4 [2]
00000000: 6ee4 45c0 5578 74bf
-3.0920672 -0.9549611

b f4 [2]
00000000: c604 e0be 4be6 b93e
-0.43753642 0.36308512

omega_init f4 [5, 2]
00000000: 0046 d933 044e c83e 00eb 3cb3 0cb7 f43e
00000010: 28c5 89b5 6d58 9dbe baf6 8b35 2bb9 b5bc
00000020: c094 5bb4 e142 ed3e
1.0117583e-07 0.3912202 -4.3985892e-08 0.47795904 -1.0264675e-06 -0.30731526 1.0428114e-06 -0.022183022
-2.045008e-07 0.46340087

omega_optimized f4 [5, 2]
00000000: ee12 8f3f cfcb 7c3f 7b28 f53e ea0e ac3e
00000010: c420 8d3f 068b ea3e ac5a 913d c14d f3be
00000020: c1ee d8be 9fc3 17bc
1.1177652 0.9874849 0.47882447 0.3360513 1.1025624 0.4580919 0.070973724 -0.4752026
-0.42369655 -0.009262948

a f4 [2]
00000000: 6ee4 45c0 5578 74bf
-3.0920672 -0.9549611

b f4 [2]
00000000: 11d4 19bf fcd4 a93e
-0.6008921 0.33170307

omega_init f4 [5, 2]
00000000: 481c 4eb7 6b3e b13e 508b c5b6 a442 e33e
00000010: 7cd8 f4b6 fdcc c1be 9033 4536 46b0 ab3d
00000020: 5027 c936 1fe8 be3e
-1.2285142e-05 0.34617934 -5.8872756e-06 0.4438678 -7.2969688e-06 -0.37851706 2.93853e-06 0.08383231
5.9948434e-06 0.3728647

omega_optimized f4 [5, 2]
00000000: 0cbc 8e3f 9ae4 743f 7140 0c3f cef5 ab3e
00000010: faf1 6c3f d8ec c43e 3f3f c13d 36df e5be
00000020: 9c58 4bbf ea2e dcbd
1.1151137 0.9566132 0.5478583 0.33585972 0.92556727 0.38461947 0.09435891 -0.4489686
-0.7943208 -0.10751136

a f4 [2]
00000000: 6ee4 45c0 5578 74bf
-3.0920672 -0.9549611

b f4 [2]
00000000: c604 e0be fcd4 a93e
-0.43753642 0.33170307

omega_init f4 [5, 2]
00000000: 809b d535 90e3 d53e 40b5 49b6 9fae 023f
00000010: 0068 3db4 deb8 9fbe 809c 3a36 b0be 4cbd
00000020: 402c 7035 5878 f23e
1.5914993e-06 0.4177518 -3.0056835e-06 0.510477 -1.7639832e-07 -0.3119573 2.7807255e-06 -0.04998654
8.947136e-07 0.4735744

omega_optimized f4 [5, 2]
00000000: 5807 8e3f 0878 823f 695b f23e 1783 c43e
00000010: 4e0c 8b3f 2880 e73e 2b72 883d c0f5 ecbe
00000020: 2fac dfbe 3c15 89bc
1.1095991 1.0192881 0.47335365 0.38381264 1.086313 0.45214963 0.06662401 -0.46281242
-0.43686053 -0.016733758

a f4 [2]
00000000: bfa5 43bf bb2f 153f
-0.76424783 0.58275956

b f4 [2]
00000000: 7d48 24bf 0a41 253f
-0.6417311 0.64552367

omega_init f4 [5, 2]
00000000: 0000 0000 532c 16bd 0000 0000 084c b1ba
00000010: 0000 0000 6b09 92bc 0000 0000 0e2f d7bb
00000020: 0000 0000 c15b 183c
0.0 -0.036663365 0.0 -0.0013526687 0.0 -0.017826756 0.0 -0.0065668887
0.0 0.00929922

omega_optimized f4 [5, 2]
00000000: 0c57 833e 173f b5be 20ee 51be 1024 e1bd
00000010: a57f 8e3e 5d11 d2bb e46b d4be 9b4b 323e
00000020: b4f1 babe 4635 c63e
0.2565235 -0.35399696 -0.20500994 -0.109932065 0.2783176 -0.0064107613 -0.41488564 0.17411654
-0.3651253 0.3871252

a f4 [2]
00000000: bfa5 43bf bb2f 153f
-0.76424783 0.58275956

b f4 [2]
00000000: a65f 0fbf 6338 1d3f
-0.5600532 0.61414164

omega_init f4 [5, 2]
00000000: a0ba 6b35 51e6 a3bb a0c3 a535 71f0 1b3c
00000010: 40f0 f6b4 a5d9 b0bd b052 5f35 4427 8c3d
00000020: 50af cbb5 9300 88bd
8.7815897e-07 -0.005001821 1.2350392e-06 0.009517775 -4.5995876e-07 -0.086352624 8.31943e-07 0.06843427
-1.5175701e-06 -0.066407345

omega_optimized f4 [5, 2]
00000000: 62e1 643e dd3e aebe 7999 97be 163e 92bd
00000010: 56e6 a73e 3ae4 13bd 5050 f1be 3cc3 5a3e
00000020: 8b56 71be 7d43 a73e
0.22351602 -0.34032336 -0.29609278 -0.07140748 0.3279292 -0.036106326 -0.47131586 0.21363539
-0.2356817 0.32668677

a f4 [2]
00000000: bfa5 43bf bb2f 153f
-0.76424783 0.58275956

b f4 [2]
00000000: c604 e0be 4be6 b93e
-0.43753642 0.36308512

omega_init f4 [5, 2]
00000000: cb84 da37 6904 13bc 882d 23b7 1d3a a2bd
00000010: 8960 8637 8f83 d73d 840b 0d37 4236 afbd
00000020: 00ca 3933 cf02 bebd
2.6049462e-05 -0.008973219 -9.726158e-06 -0.079212405 1.6018997e-05 0.1052314 8.406936e-06 -0.08555271
4.3257387e-08 -0.092778794

omega_optimized f4 [5, 2]
00000000: 7806 5e3e b18c 6dbe fefd c5be 11f8 623e
00000010: ae6e a63e cd18 2fbe eed6 eabe ddd7 9c3e
00000020: 5e39 b9bc 3bfc c63c
0.21682155 -0.23198201 -0.38670343 0.22164942 0.32506317 -0.17099304 -0.45867103 0.3063344
-0.022610363 0.024290195

a f4 [2]
00000000: bfa5 43bf bb2f 153f
-0.76424783 0.58275956

b f4 [2]
00000000: 11d4 19bf fcd4 a93e
-0.6008921 0.33170307

omega_init f4 [5, 2]
00000000: 2e54 443c c0ad b3b6 fa3d 6abc 002e 3c35
00000010: cc96 053d 807a b5b6 3f73 0ebe 00bf 65b5
00000020: 7559 84bc 0010 bc32
0.011982961 -5.354843e-06 -0.014297003 7.0102396e-07 0.032614514 -5.4084812e-06 -0.1391115 -8.558709e-07
-0.016155938 2.1893356e-08

omega_optimized f4 [5, 2]
00000000: 9222 913e dd0a 84be e15f 47be 9e99 623e
00000010: d396 4c3e abab 0bbe c7c3 a4be c000 a23e
00000020: 3e87 98be f864 b7bd
0.28346688 -0.25789538 -0.19470169 0.22128913 0.1997941 -0.13639705 -0.32180616 0.31641197
-0.29790682 -0.08954805

a f4 [2]
00000000: bfa5 43bf bb2f 153f
-0.76424783 0.58275956

b f4 [2]
00000000: c604 e0be fcd4 a93e
-0.43753642 0.33170307

omega_init f4 [5, 2]
00000000: 0000 0000 0000 0000 0000 0000 0000 0000
00000010: 0000 0000 0000 0000 0000 0000 0000 0000
00000020: 0000 0000 0000 0000
0.0 0.0 0.0 0.0 0.0 0.0 0.0 0.0
0.0 0.0

omega_optimized f4 [5, 2]
00000000: c022 5d3e 4728 42be 2ab5 c5be 4e20 903e
00000010: 9ff9 a73e dd52 78be 3730 e8be 4ec3 b53e
00000020: f02c c0bc 0a42 edba
0.21595287 -0.18960677 -0.3861478 0.28149647 0.32807633 -0.2425036 -0.45349285 0.35500568
-0.023458928 -0.0018101346

a f4 [2]
00000000: 7d48 24bf 0a41 253f
-0.6417311 0.64552367

b f4 [2]
00000000: a65f 0fbf 6338 1d3f
-0.5600532 0.61414164

omega_init f4 [5, 2]
00000000: 5ff0 db33 23de 5cbc 1131 0234 cfbd 82bc
00000010: d8cf 0634 9761 87bc 00cd 6232 31c2 e3ba
00000020: 2040 43b3 3c13 c43b
1.02417054e-07 -0.013480696 1.2125044e-07 -0.015959648 1.2555336e-07 -0.016526027 1.3201543e-08 -0.0017376599
-4.5460297e-08 0.005983738

omega_optimized f4 [5, 2]
00000000: 80ac 1f3e 6a71 bebe de76 20bd 8951 b7bc
00000010: 0792 773d 693b 1fbe fc13 20be ac5f 873e
00000020: 76d0 373d c572 ca3e
0.15593147 -0.37195903 -0.03917586 -0.022377746 0.060441997 -0.15550007 -0.15632623 0.2644018
0.04487654 0.39540687

a f4 [2]
00000000: 7d48 24bf 0a41 253f
-0.6417311 0.64552367

b f4 [2]
00000000: c604 e0be 4be6 b93e
-0.43753642 0.36308512

omega_init f4 [5, 2]
00000000: 3cb2 9b3d acd6 e4b6 0f67 ad3d 8c9a a636
00000010: 7172 d9bd a8ed abb6 433c 273e e02c 71b6
00000020: fe56 013e d448 9fb5
0.07602355 -6.8199206e-06 0.084669225 4.965177e-06 -0.10617531 -5.123864e-06 0.16331582 -3.593792e-06
0.12630841 -1.1867619e-06

omega_optimized f4 [5, 2]
00000000: 3c99 363e 8728 83be 760e 19be dfc2 bb3e
00000010: 6626 023d 554b a9be e741 48be 6186 f73e
00000020: 5c27 843e 9e7e 323e
0.17831892 -0.25616857 -0.14946923 0.36672112 0.0317749 -0.33065286 -0.1955639 0.4834471
0.2581128 0.17431113

a f4 [2]
00000000: 7d48 24bf 0a41 253f
-0.6417311 0.64552367

b f4 [2]
00000000: 11d4 19bf fcd4 a93e
-0.6008921 0.33170307

omega_init f4 [5, 2]
00000000: 49fa 90bc a8ec 9db4 a72e 5abc 9807 20b5
00000010: 3fa9 7fbd 405f 67b3 8e93 453d 5250 1bb4
00000020: 91e8 65bd 60fb 8d34
-0.01769747 -2.941572e-07 -0.013316787 -5.9615695e-07 -0.062417265 -5.3870508e-08 0.048236422 -1.446472e-07
-0.056129996 2.6446196e-07

omega_optimized f4 [5, 2]
00000000: dcd0 113e 446e 6cbe c42c 0bbd fe65 d13e
00000010: 6e39 013d b9da bcbe ba5d 8ebd 79ec 023f
00000020: 31bd 2fbe 40dc 0a3e
0.1423983 -0.23088938 -0.03397824 0.40898126 0.03154891 -0.36885622 -0.06951471 0.5114208
-0.17162015 0.13560581

a f4 [2]
00000000: 7d48 24bf 0a41 253f
-0.6417311 0.64552367

b f4 [2]
00000000: c604 e0be fcd4 a93e
-0.43753642 0.33170307

omega_init f4 [5, 2]
00000000: 6067 e73d 8087 3036 5f5c d23d 8001 34b6
00000010: 2112 08be 008a 1b36 524d 123e 806b 9b35
00000020: eb86 0f3e 00e9 c434
0.11299014 2.6304915e-06 0.10271525 -2.6822963e-06 -0.13288166 2.3177126e-06 0.14287308 1.1579687e-06
0.14016311 3.6677375e-07

omega_optimized f4 [5, 2]
00000000: 7e4a 3d3e bd38 76be c8c9 0fbe ca1f cf3e
00000010: b142 a83c d28d b6be 4e9a 3dbe a037 023f
00000020: 4397 883e 8156 fd3d
0.18485448 -0.24045081 -0.14041817 0.4045394 0.020539613 -0.35655075 -0.18515894 0.50866127
0.26677904 0.12370015

a f4 [2]
00000000: a65f 0fbf 6338 1d3f
-0.5600532 0.61414164

b f4 [2]
00000000: c604 e0be 4be6 b93e
-0.43753642 0.36308512

omega_init f4 [5, 2]
00000000: a79d e5bb b0bf 39b7 1772 413d e0c8 9fb5
00000010: 93ee 10bd 8c28 40b7 8796 183e 667e 8cb6
00000020: 2e22 60bd 80c0 0f35
-0.007007319 -1.107149e-05 0.047227945 -1.1904885e-06 -0.035383772 -1.1453532e-05 0.14901172 -4.18704e-06
-0.054720096 5.3551776e-07

omega_optimized f4 [5, 2]
00000000: 30d1 303c 727f 52be 6a39 77bd 0c2f a13e
00000010: 8445 2bbd 4ef8 92be f515 a23d bafa b93e
00000020: ff01 513e cd1a 2c3e
0.010792062 -0.20556429 -0.06035749 0.31481206 -0.041814342 -0.28705066 0.07914344 0.36324102
0.20410918 0.16807099

a f4 [2]
00000000: a65f 0fbf 6338 1d3f
-0.5600532 0.61414164

b f4 [2]
00000000: 11d4 19bf fcd4 a93e
-0.6008921 0.33170307

omega_init f4 [5, 2]
00000000: 0827 e5bb b0fe 9537 ad90 6fbb 6794 85b7
00000010: d765 b03d 7415 1b37 6463 bdbc 506d fd36
00000020: 17a8 5e3c 4cb0 fc35
-0.0069931783 1.7880782e-05 -0.003655474 -1.592394e-05 0.086131744 9.243715e-06 -0.023118682 7.552713e-06
0.01358988 1.8826772e-06

omega_optimized f4 [5, 2]
00000000: 13d7 a33d b33b 33be 35a1 b83d c7e9 cd3e
00000010: 5ddd edbd 20c1 bbbe b04c 9e3d b514 013f
00000020: 1b77 f6bc f0f5 f43d
0.080000065 -0.17503242 0.09015123 0.4021742 -0.11614487 -0.3667078 0.07729471 0.5042222
-0.03008609 0.11960971

a f4 [2]
00000000: a65f 0fbf 6338 1d3f
-0.5600532 0.61414164

b f4 [2]
00000000: c604 e0be fcd4 a93e
-0.43753642 0.33170307

omega_init f4 [5, 2]
00000000: e797 6b3d 18a9 10b6 5f83 ac3d 0852 0c36
00000010: 5124 b7bd e04c 68b5 3dc9 d73d a08c aab5
00000020: 83aa 903c c027 36b5
0.057517912 -2.1556098e-06 0.084234945 2.0909374e-06 -0.08942474 -8.65386e-07 0.1053643 -1.2706914e-06
0.017659431 -6.785813e-07

omega_optimized f4 [5, 2]
00000000: 3305 4b3d e852 46be 6c3c ccbc 010d b53e
00000010: e123 c1bd ffb1 9fbe dd7c c83d d8e0 cb3e
00000020: d967 853e 270c e63d
0.049565505 -0.19367564 -0.024931155 0.35361484 -0.094306715 -0.31190488 0.09789441 0.3981998
0.26055792 0.112327866

a f4 [2]
00000000: c604 e0be 4be6 b93e
-0.43753642 0.36308512

b f4 [2]
00000000: 11d4 19bf fcd4 a93e
-0.6008921 0.33170307

omega_init f4 [5, 2]
00000000: a7e6 2d37 2b95 143c 74ae 7c37 2c1d a1ba
00000010: f35d 0e37 4b2f 223d 101e 86b6 71f7 083d
00000020: ea2b f2b6 d71c 343c
1.03653065e-05 0.009068768 1.50609885e-05 -0.0012292019 8.485734e-06 0.039595883 -3.997011e-06 0.033439104
-7.2172743e-06 0.010993204

omega_optimized f4 [5, 2]
00000000: c911 c8bd 8138 d83d 3492 893e 9019 a13b
00000010: 1376 84be 35b3 a53c d068 b23e 69fd 87bd
00000020: 0b90 f13d c5ca 70be
-0.09769017 0.10557652 0.26869357 0.0049163774 -0.25871333 0.020227054 0.3484559 -0.06640131
0.11795052 -0.2351485

a f4 [2]
00000000: c604 e0be 4be6 b93e
-0.43753642 0.36308512

b f4 [2]
00000000: c604 e0be fcd4 a93e
-0.43753642 0.33170307

omega_init f4 [5, 2]
00000000: 0000 0000 0000 0000 0000 0000 0000 0000
00000010: 0000 0000 0000 0000 0000 0000 0000 0000
00000020: 0000 0000 0000 0000
0.0 0.0 0.0 0.0 0.0 0.0 0.0 0.0
0.0 0.0

omega_optimized f4 [5, 2]
00000000: 5f58 5fbe 1a73 e13d 7002 af3c 1d7b 2f3c
00000010: cda2 8bbd 9982 943c 1e06 403e e6d9 aabd
00000020: c193 9b3e 234d 5ebe
-0.21811055 0.11008282 0.021363467 0.010710505 -0.06818161 0.01812868 0.18752334 -0.08342342
0.30386165 -0.21709113

a f4 [2]
00000000: 11d4 19bf fcd4 a93e
-0.6008921 0.33170307

b f4 [2]
00000000: c604 e0be fcd4 a93e
-0.43753642 0.33170307

omega_init f4 [5, 2]
00000000: 0000 0000 0000 0000 0000 0000 0000 0000
00000010: 0000 0000 0000 0000 0000 0000 0000 0000
00000020: 0000 0000 0000 0000
0.0 0.0 0.0 0.0 0.0 0.0 0.0 0.0
0.0 0.0

omega_optimized f4 [5, 2]
00000000: 692b 19bd f0dc 093e a359 53be bffe 64bd
00000010: 9344 483e cac2 b53d bced 3cbe 4c27 2fbe
00000020: 2baf 0c3e 6995 8dbe
-0.037394915 0.13463187 -0.20639662 -0.055907007 0.19557409 0.08875044 -0.18450063 -0.17104834
0.13738696 -0.27653053
