models_v103/dec3/model_rerun3.pt (torch, 428510 bytes, 32 tensors)

encoder.encoder_net.0.weight f4 [128, 50]
0	0xbd410e8b	-0.04713301
1	0x3bbaec4f	0.0057044397
2	0x3c896844	0.01677335
3	0xbd02768a	-0.03185133
4	0xbdcdc532	-0.10047378
5	0xbbc9e49f	-0.006161287
6	0x3c895cd0	0.01676789
7	0xbd286ad6	-0.04111751
8	0xbd63537e	-0.055499546
9	0x3d2f7cd5	0.04284366
10	0x3c0593b0	0.008152887
11	0xbd8b1433	-0.06790962
12	0xbd583bc2	-0.052791364
13	0xbe00af96	-0.1256698
14	0x3b504873	0.0031781464
15	0xbdda4a37	-0.106586866
16	0x3cc80518	0.024416491
17	0x3cfbd027	0.030738903
18	0xbc01507b	-0.007892723
19	0xbe046444	-0.12928873
20	0x3d4ef582	0.050527103
21	0xbcde5596	-0.02714042
22	0xbdac4b2a	-0.08412774
23	0x3b373624	0.0027955854
24	0xbde24ac5	-0.110494174
25	0xbdaa74a5	-0.083230294
26	0xbe0e4553	-0.13893633
27	0xbd28ee12	-0.041242667
28	0x3d716e92	0.05894334
29	0x3d734acb	0.0593975
30	0xbe5513cd	-0.20808335
31	0xbe011ca7	-0.12608586
32	0x3d011a2d	0.031519104
33	0xbe01cbda	-0.1267542
34	0xbd2ef549	-0.04271439
35	0xbdfa2d0c	-0.12215623
36	0xbca0b6ee	-0.019618478
37	0x3c45fb05	0.0120837735
38	0x3dbb9fe3	0.09161355
39	0x3e0a4c99	0.13505782
40	0x3dbaa04a	0.09112604
41	0xbd6ea4b6	-0.05826255
42	0x3c0db0b4	0.008648086
43	0x3e4e0b4c	0.20121497
44	0x3de7956e	0.11307798
45	0x3ce22e1a	0.027609874
46	0xbe09d87d	-0.1346149
47	0x3c196209	0.009361752
48	0xbd556843	-0.052101385
49	0x3dbee9fc	0.09321973
50	0xbd9ed611	-0.07755674
51	0xbbe00a92	-0.0068371976
52	0x3cb87822	0.022518221
53	0xbc584273	-0.0131994365
54	0xbd986291	-0.07440675
55	0x3c474034	0.012161303
56	0xbd2aa7f3	-0.041664075
57	0x3dd7bbc4	0.1053386
58	0xbe01a8e9	-0.1266209
59	0xbe228f40	-0.15874958
60	0x3d290781	0.041266922
61	0xbda7b61e	-0.08189033
62	0xbe30838e	-0.17237684
63	0x3e3c25f8	0.18373859
64	0x3d3ff214	0.046861723
65	0xbd3b6ea0	-0.045759797
66	0x3c91a701	0.017779829
67	0x3e12a44c	0.14320487
68	0xbd4faef9	-0.050703976
69	0x3d5caf6f	0.053878244
70	0x3bcf3432	0.006323361
71	0x3d894874	0.067032725
72	0xbcef4d5d	-0.029211694
73	0x3d8623bc	0.065497845
74	0xbd53d005	-0.051712055
75	0x3d653daa	0.05596701
76	0x3e3d31be	0.18476006
77	0x3e1fafc7	0.15594397
78	0xbd739ad1	-0.059473816
79	0xbd0b0574	-0.033940747
80	0xbdf7e980	-0.121050835
81	0x3d7ca9ba	0.0616853
82	0x3daf4c99	0.08559532
83	0x3c878d0b	0.016546747
84	0xbc6a7995	-0.014311214
85	0xbbaea6d3	-0.0053299456
86	0xbe19655d	-0.14980073
87	0x3e3b67e4	0.1830135
88	0xbd3f03a6	-0.04663434
89	0xbe348c95	-0.17631753
90	0x3e18f957	0.14938866
91	0x3e3bb7f6	0.18331894
92	0x3c411d91	0.011786834
93	0xbdcc5f28	-0.09979087
94	0xbe04f804	-0.12985235
95	0x3e4786bf	0.19484995
96	0xbd1b1ff6	-0.037872277
97	0x3d895e3a	0.067074254
98	0x3d65dd5e	0.056119315
99	0x3d1dc067	0.038513567
100	0x3d2f8cb0	0.04285878
101	0x3d3b2ee6	0.045699023
102	0x3c41952a	0.011815349
103	0x3d23d5ff	0.039999004
104	0x3dbc639a	0.09198685
105	0x3ddcda38	0.107838094
106	0x3d78c9fc	0.060739502
107	0xbc752c02	-0.014964106
108	0x3e1e7d1d	0.15477414
109	0x3d9f7e8b	0.07787808
110	0xbdc9369f	-0.09824871
111	0xbe1b7d46	-0.15184507
112	0x3d91be84	0.07116416
113	0xbe077fcf	-0.13232349
114	0xbe32d66f	-0.17464612
115	0x3de28b2a	0.110617
116	0x3df8db2d	0.121511795
117	0x3e601825	0.2188421
118	0xbbdcea39	-0.0067417887
119	0xbd77f66d	-0.060537744
120	0x3c5acec7	0.013354964
121	0x3da197e0	0.07890296
122	0xbd431f48	-0.047637254
123	0x3d9d148c	0.07669935
124	0x3e29b60e	0.16573355
125	0xbce600c7	-0.028076543
126	0x3c7f8ac6	0.015597051
127	0x3cfb77e0	0.03069681
128	0x3e0549aa	0.13016382
129	0x3e14bc2a	0.14524904
130	0xbdcd4e84	-0.10024741
131	0xba15ec0c	-0.00057190727
132	0xbd189660	-0.037252784
133	0xbd0274db	-0.031849723
134	0x3e8eb5c4	0.2787305
135	0x3e1119db	0.1417002
136	0xbea52322	-0.32253367
137	0xbcfdf9dc	-0.031002931
138	0xbdfdf04e	-0.1239935
139	0xbe3b376a	-0.18282858
140	0x3c6f17ea	0.014593104
141	0xbdeb97b3	-0.11503544
142	0xbd764173	-0.06012101
143	0x3e347a3f	0.17624758
144	0x3e47e369	0.19520344
145	0x3e223ddf	0.15843914
146	0x3c81c0ab	0.015838942
147	0xbe02cb48	-0.12772858
148	0xbe1161e7	-0.14197503
149	0xbe5027f2	-0.20327738
150	0xbc113522	-0.0088627655
151	0x3dcc2a47	0.09969001
152	0xbdd527f3	-0.1040801
153	0x3e0353df	0.12824963
154	0xbc853d13	-0.016264474
155	0xbc683ad5	-0.014174183
156	0xbe360e28	-0.17778838
157	0xbcd87244	-0.026421674
158	0xbe46cc3e	-0.1941385
159	0x3dc6b7dd	0.09703038
160	0xbd5271e5	-0.05137815
161	0x3c3b791e	0.011442451
162	0xbcd45a92	-0.025922094
163	0x3db4147b	0.08792969
164	0x3c4d3f3c	0.012527283
165	0xbe236996	-0.15958247
166	0x3dfb39e2	0.122669
167	0xbb81fa53	-0.0039666086
168	0xbcbeb057	-0.023277445
169	0xbd4e69ca	-0.050393857
170	0x3ea0f5a3	0.31437406
171	0xbdac4daf	-0.084132545
172	0x3da34e44	0.07973912
173	0xbcec03a9	-0.028810339
174	0x3e572b61	0.21012641
175	0xbdbba675	-0.091626085
176	0x3e04b828	0.12960875
177	0x3e88f2a9	0.26747635
178	0xbe2c1698	-0.16805494
179	0x3cfd4d2e	0.030920591
180	0x3e8147ae	0.2525
181	0x3e17d334	0.14826661
182	0xbdc5165c	-0.09623405
183	0x3d8003fd	0.06250761
184	0x3d6a2074	0.057159856
185	0xbe894fc0	-0.26818657
186	0x3e10bf1d	0.14135404
187	0xbca40826	-0.020023417
188	0xbcb35943	-0.02189315
189	0x3d65ac2b	0.056072395
190	0x3e91aa62	0.28450304
191	0xbd23cfd9	-0.03999314
192	0x3bac7f26	0.0052641807
193	0x3d69448b	0.056950133
194	0x3e3a336a	0.18183675
195	0xbdb0e80f	-0.08638012
196	0xbe816684	-0.25273526
197	0x3d1c0a23	0.038095605
198	0xbe02330f	-0.1271479
199	0x3da9c449	0.082893915
200	0xbe08ff0b	-0.13378541
201	0xbe092049	-0.13391222
202	0x3e965630	0.2936263
203	0x3e81bc37	0.2533891
204	0x3bc73f60	0.006080553
205	0xbc726d69	-0.014796593
206	0xbdec3f1c	-0.11535475
207	0xbe367522	-0.1781812
208	0x3d216637	0.03940412
209	0xbeea8505	-0.4580461
210	0xbd4cfba0	-0.050044656
211	0x3d90263b	0.07038542
212	0x3d2f42c8	0.042788297
213	0x3e85c146	0.26124018
214	0x3e3325e2	0.1749492
215	0xbd7a3aba	-0.061091162
216	0xbd404ac6	-0.04694631
217	0xbd9672f4	-0.07346144
218	0xbda19765	-0.07890204
219	0x3da479a4	0.080310136
220	0xbd398fde	-0.045303218
221	0xbe148525	-0.14503916
222	0xbe0637d4	-0.13107234
223	0xbdf09ff3	-0.11749258
224	0xbceb62be	-0.028733607
225	0x3e25cd4b	0.16191594
226	0xbe1a1ca9	-0.15049995
227	0xbda0945c	-0.07840797
228	0xbe26acaf	-0.16276811
229	0x3d7fa25d	0.0624107
230	0x3e096ab2	0.13419607
231	0x3ccca81b	0.024982503
232	0xbe01f2ee	-0.12690327
233	0x3e32cc21	0.17460681
234	0xbd1f361e	-0.03886997
235	0xbed6ad2e	-0.41929
236	0xbbaec551	-0.0053335805
237	0x3e0c633c	0.1370973
238	0x3d0cfbfa	0.03441999
239	0x3e361cdb	0.17784445
240	0xbe46e9e9	-0.19425167
241	0xbb7b007b	-0.0038299847
242	0x3df901e9	0.121585675
243	0x3d3ea632	0.046545215
244	0xbcf0fa2a	-0.029416163
245	0xbdb56258	-0.08856648
246	0x3c11888c	0.008882653
247	0xbe634f73	-0.22198276
248	0x3d3a3af6	0.045466386
249	0x3c881111	0.0166097
250	0xbb3ec2c8	-0.0029107798
251	0x3d72b803	0.05925752
252	0x3da8268b	0.082104765
253	0xbd8e4401	-0.069465645
254	0x3c1a275c	0.009408798
255	0xbe1d8229	-0.15381683

encoder.encoder_net.0.bias f4 [128]
0	0xbf17e401	-0.5933228
1	0xbf910201	-1.1328737
2	0xbe5915f0	-0.21199775
3	0xbe8e1261	-0.27748397
4	0xbf10703c	-0.56421256
5	0xbee49a26	-0.44648856
6	0xbfd8cb58	-1.6937056
7	0xbfaa0b1e	-1.3284643
8	0x3f0cad7b	0.5495221
9	0xbf914872	-1.1350234
10	0xbf6f629d	-0.93509847
11	0x3d93aac1	0.07210303
12	0xbeb95240	-0.36195564
13	0xbf39815b	-0.72463006
14	0xbd34f8f4	-0.044182733
15	0xbe9f0e95	-0.31065813
16	0xc007ff2a	-2.124949
17	0xbfef1c18	-1.8680449
18	0xc0005887	-2.0054033
19	0xbff86027	-1.9404343
20	0xbf4fca25	-0.81167823
21	0xbf9536a8	-1.1657305
22	0x3dd4c85a	0.103897765
23	0xbf82a4b7	-1.0206517
24	0xbf245f25	-0.6420768
25	0xbfee9eba	-1.864219
26	0xbf42ceea	-0.76096976
27	0xbebc545b	-0.36783108
28	0xbf04a4b7	-0.51813835
29	0xbfa791a3	-1.309132
30	0x3e224289	0.15845694
31	0xbf9b100d	-1.2114273
32	0xbf39f485	-0.7263873
33	0xbf7794fd	-0.96711713
34	0xbf8bdd97	-1.0926999
35	0xc00dae7e	-2.2137752
36	0xbea0290b	-0.31281313
37	0xbfca8f36	-1.5824955
38	0xbfabdcc9	-1.3426753
39	0xbfaa8128	-1.3320665
40	0xbf5496b9	-0.83042485
41	0xbfa3c660	-1.2794914
42	0xbf99b723	-1.2009014
43	0xbea48730	-0.3213439
44	0xbfb02c57	-1.3763531
45	0xbfadd7ce	-1.3581483
46	0xbf5eb8af	-0.87000555
47	0xbe949bb0	-0.2902503
48	0xbf750484	-0.95710015
49	0xbef66f5b	-0.48131832
50	0xbfd599b8	-1.6687536
51	0xbf163a89	-0.5868307
52	0xbf89a61a	-1.0753815
53	0xbe1a4393	-0.1506484
54	0xbff5b4cb	-1.9195799
55	0xbd983f0b	-0.074338995
56	0xbfb5a90b	-1.4192213
57	0xbe2770e5	-0.1635166
58	0xbf8a89b8	-1.0823278
59	0xbe926515	-0.28592744
60	0xbfec2012	-1.8447287
61	0xbfa7e6ab	-1.3117269
62	0xbf942fb2	-1.1577055
63	0xbfe08400	-1.7540283
64	0x3ff7dbba	1.936393
65	0xbef1fb99	-0.47262266
66	0xc02c367e	-2.690826
67	0xbfd31855	-1.64918
68	0xbf99dc33	-1.2020324
69	0xbf723ff6	-0.94628847
70	0xbfe4d6cd	-1.7878052
71	0xbfcdb295	-1.6070124
72	0xbf132da7	-0.57491535
73	0xbf165213	-0.58718985
74	0xbec19998	-0.37812495
75	0xbf8d1bbd	-1.102409
76	0xbfef63a9	-1.8702289
77	0xc02075c1	-2.5071871
78	0xbf976620	-1.1828041
79	0x3e061b6a	0.13096395
80	0xbfe20154	-1.7656655
81	0xbf9289dc	-1.1448321
82	0xbf484dc6	-0.7824367
83	0xbf7468d3	-0.9547245
84	0xbfa28c74	-1.2699113
85	0xbfa481c3	-1.28521
86	0xbf7c05b6	-0.98446214
87	0xbfecf4f2	-1.8512251
88	0xbf6b1988	-0.9183583
89	0xbf8b5a7b	-1.0886987
90	0xbfadbe48	-1.3573694
91	0xbf923ab4	-1.1424165
92	0xbf0f408e	-0.5595788
93	0x3e88f55f	0.26749703
94	0xbfac0c68	-1.3441286
95	0xbf8909ad	-1.0706078
96	0xbfd0d95f	-1.6316336
97	0xbffafd84	-1.9608617
98	0x3e323339	0.17402352
99	0xbf56c307	-0.8389134
100	0xbf92ff48	-1.1484156
101	0xbf4d8d4a	-0.80293715
102	0xbf971949	-1.1804591
103	0xbf05a7cf	-0.5220918
104	0xbe86eba2	-0.2635165
105	0xbdbd371c	-0.09239027
106	0xbfb51618	-1.4147367
107	0x3e9baeaf	0.3040671
108	0xc02b7ed1	-2.6796153
109	0xc01df646	-2.4681563
110	0xbfeac923	-1.8342632
111	0xc03ad807	-2.9194353
112	0x3bbaddf4	0.0057027284
113	0xc00bf96f	-2.1870992
114	0xbfee13b6	-1.8599765
115	0xbf314d01	-0.69258124
116	0xbfe37bc7	-1.7772149
117	0xbe7da090	-0.24768281
118	0xbfb3cd04	-1.4046941
119	0xbe46bd8d	-0.19408245
120	0xbf5de1d6	-0.86672723
121	0xc03775ac	-2.8665571
122	0xbfb0d055	-1.3813578
123	0xbf0579d6	-0.5213903
124	0xbff0dc24	-1.8817182
125	0xc01c7f7b	-2.4452808
126	0xbf4d4b15	-0.8019269
127	0x3ef97449	0.4872153

encoder.encoder_net.2.weight f4 [64, 128]
0	0x3d160b49	0.036631856
1	0x3c6d8085	0.0144959735
2	0xba59d78b	-0.00083100115
3	0x3ccdeab0	0.025136322
4	0xbf8e9a34	-1.1140809
5	0xbbf69f39	-0.007526305
6	0x3cffc28b	0.031220695
7	0xbca56c10	-0.02019313
8	0x3dbfe292	0.09369387
9	0x3d9b4952	0.07582344
10	0x3da4ef6a	0.08053477
11	0xbcbacdad	-0.022803152
12	0x3df57dd1	0.11986888
13	0x3d21af07	0.03947356
14	0x3adab487	0.0016685881
15	0x3c8eea2e	0.01744565
16	0x3d37d052	0.044876404
17	0x3dcee964	0.101031095
18	0x3bd242cc	0.006416654
19	0xbcffb47f	-0.031213997
20	0x3ca16c96	0.019705098
21	0xbc396cfe	-0.01131749
22	0x3d71462d	0.058904815
23	0xbbc5c454	-0.006035367
24	0x3ca7eadd	0.020497734
25	0x3a95ac1b	0.0011419089
26	0xbc746adc	-0.014918055
27	0x3c8ced4b	0.017202994
28	0xbdc11788	-0.09428316
29	0x3da4406b	0.08020099
30	0x3d1c57ae	0.038169555
31	0xbcff1b27	-0.031140877
32	0x3d72eca6	0.059307717
33	0x3e1d7a76	0.15378746
34	0xbb286bdc	-0.0025699055
35	0xbd13415e	-0.03595101
36	0xbd168042	-0.03674341
37	0x3d8cf5d8	0.068828285
38	0xbe4f3161	-0.2023368
39	0x3d5cf77f	0.05394697
40	0xbf2d3129	-0.6765314
41	0x3c631d8b	0.013862024
42	0x3d355347	0.044268873
43	0xbd228778	-0.039679974
44	0x3bf4ec03	0.007474424
45	0xbb0baa21	-0.0021311122
46	0x3c88a975	0.016682366
47	0x3ceb1a6a	0.028699119
48	0xbba52842	-0.0050401995
49	0x3ba2e216	0.004970799
50	0xbca37a86	-0.019955885
51	0x3aae6d6e	0.0013307759
52	0xba826fe8	-0.0009951564
53	0x3a7272f7	0.00092486985
54	0x3da9ffc7	0.08300739
55	0x3d974890	0.07386887
56	0xbdde4b88	-0.1085425
57	0x3d8a710c	0.06759843
58	0x3da9bbad	0.082877494
59	0xbb265869	-0.0025382286
60	0xbd2d64e4	-0.042332545
61	0x3d2073bf	0.039172884
62	0x3c075e9a	0.008262301
63	0x3d4bb4af	0.04973286
64	0xbb08579a	-0.0020804168
65	0x3c394378	0.01130759
66	0x3cdd7d10	0.027037174
67	0x3d4b4a04	0.049631134
68	0x3c5e3dbd	0.013564524
69	0x3b7d82ad	0.0038682625
70	0x3d4be796	0.049781404
71	0x3d168338	0.036746234
72	0x3d1c1652	0.038107224
73	0x3d4508c1	0.04810405
74	0x3e1ad71d	0.15121122
75	0xbc337d0c	-0.0109551065
76	0xbdaede96	-0.08538549
77	0xbcc9aea5	-0.02461941
78	0xbc11f8cc	-0.008909415
79	0x3c82a4f9	0.015947806
80	0x3d2374fb	0.039906483
81	0xbc19e0de	-0.009391991
82	0x3d05d646	0.03267505
83	0x3d43ade7	0.047773268
84	0xbcb8b213	-0.02254585
85	0xba6bb8ca	-0.0008992074
86	0xbcccba01	-0.024991037
87	0x3c123bbd	0.0089253755
88	0x3bda0081	0.006652892
89	0xbc7ac965	-0.015306805
90	0x3e08754a	0.13325992
91	0x3d3999b6	0.045312606
92	0xbf966306	-1.174897
93	0xbe4e9741	-0.20174886
94	0x3aec1231	0.0018010793
95	0xbc8e7118	-0.017387912
96	0xbdd9bd58	-0.106318176
97	0xbd121923	-0.035668503
98	0x3c2b0bae	0.010439796
99	0xbd56abe8	-0.052410036
100	0x3d46fda6	0.04858174
101	0x3e3673b8	0.1781758
102	0x3d58d449	0.052936826
103	0x3dcfe05e	0.101502165
104	0x3d9357a2	0.07194449
105	0x3c104374	0.008805145
106	0xbbb90ef3	-0.005647534
107	0x3cc2a12b	0.023758492
108	0xbbf1684e	-0.0073671704
109	0x3d597bd9	0.053096626
110	0xbd95b75e	-0.07310365
111	0xbcfb95eb	-0.030711135
112	0xb999a9e5	-0.00029309015
113	0xbd0bbe50	-0.034117043
114	0xbd97ef62	-0.074187055
115	0xbd1d145f	-0.038349506
116	0x3c6a01d3	0.0142826615
117	0xbdb43f23	-0.08801105
118	0xbbb05646	-0.0053813783
119	0x3d81506c	0.063141674
120	0x3c847557	0.016169233
121	0xbb8b6e0a	-0.004255061
122	0x3ca61984	0.020275839
123	0xbc8a5ea9	-0.01689084
124	0x3c4a2895	0.012338777
125	0xbd913239	-0.07089657
126	0x3c18bf11	0.0093228975
127	0xbf35cfdc	-0.71020293
128	0xbdb4511d	-0.08804534
129	0x3d552738	0.052039355
130	0x3d92c1d7	0.07165878
131	0xbd283747	-0.04106834
132	0x3c9f6cd9	0.019461082
133	0xbda0bb93	-0.07848277
134	0xbd406895	-0.046974737
135	0xbd0e193d	-0.034692038
136	0xbdd415de	-0.10355733
137	0xbd20ddf6	-0.03927418
138	0xbdf6a0f7	-0.1204242
139	0xbdbb638a	-0.09149845
140	0xbd93f8b4	-0.07225171
141	0xbd0e7e77	-0.034788575
142	0x3cf981be	0.030457374
143	0xbdb7dcee	-0.08977686
144	0xbd929f4c	-0.0715929
145	0xbdb00d0e	-0.0859624
146	0xbabb5785	-0.0014293051
147	0xbe0ce38c	-0.13758677
148	0x3b1783bd	0.0023119294
149	0x3c6c7cdd	0.014434067
150	0xbcf93a8c	-0.030423425
151	0xbdb6bcde	-0.08922742
152	0xb9a7da8c	-0.00032015552
153	0xbbc5dd0e	-0.0060383147
154	0x3a893f24	0.0010471088
155	0xbca3c3b1	-0.019990774
156	0x3d3170a0	0.0433203
157	0x3d0da9f8	0.034585923
158	0x3d7f3877	0.06230971
159	0x3c9121e8	0.017716363
160	0x3cd21232	0.025643442
161	0x3ac037d3	0.0014665074
162	0xbcf4ae5c	-0.029868297
163	0xbd156c48	-0.03648022
164	0x3bbf65fd	0.0058410154
165	0xbd2ccfe1	-0.042190436
166	0xbe2bb06e	-0.16766521
167	0xbddff491	-0.10935319
168	0x3ce82736	0.02833901
169	0xbd41f89b	-0.04735623
170	0x3c8e5c2a	0.017377932
171	0xbd974b57	-0.07387417
172	0xbda8a54d	-0.082346536
173	0x3cdb7557	0.02678935
174	0xbd5c1b89	-0.053737197
175	0xbcffe4ed	-0.03123709
176	0xbc524196	-0.01283302
177	0xbdfa1bf2	-0.122123614
178	0x3b222f37	0.002474738
179	0x3d548d16	0.051892363
180	0x3d57b216	0.05266007
181	0x3ce5b141	0.028038623
182	0xbd1cad0e	-0.038250975
183	0x3c95c447	0.018282069
184	0x3cf98816	0.030460399
185	0x3c9c33f8	0.01906775
186	0xbdbb9a9a	-0.09160347
187	0xbdd55dbd	-0.1041827
188	0x3bb02f82	0.005376757
189	0xbccfd252	-0.025368843
190	0xbc9fcda1	-0.019507231
191	0xbd6a0028	-0.057129055
192	0xbe0aa77c	-0.13540453
193	0xbc55b070	-0.013042554
194	0x3c56bf18	0.013107084
195	0xbd959688	-0.07304102
196	0xbd83efb6	-0.064422056
197	0xbc24920e	-0.010044588
198	0xbb4afae0	-0.0030972287
199	0x3cfb7d7e	0.030699488
200	0xbd80bd34	-0.06286088
201	0x3cf295b3	0.029612398
202	0xbdac44c6	-0.08411555
203	0xbdad2871	-0.08454979
204	0xbe05701c	-0.13031048
205	0xbd23a047	-0.039947774
206	0x3b393a7b	0.0028263617
207	0x3d8799a2	0.066211
208	0x3c742fb2	0.01490395
209	0xbce59629	-0.028025704
210	0x3cb3005d	0.02185076
211	0xbba08cb1	-0.004899584
212	0xbdb28da8	-0.08718425
213	0xbdafa5ee	-0.085765705
214	0xbc66f442	-0.014096322
215	0xbd5c1883	-0.053734314
216	0xbd889661	-0.066693075
217	0xbd9f3a7a	-0.077748254
218	0xbcad9bd3	-0.021192467
219	0x3bf3debf	0.007442325
220	0x3c9d0bec	0.019170724
221	0x3d84bd19	0.0648138
222	0xbda1cef0	-0.07900798
223	0xbdc236d8	-0.09483117
224	0x3d8bf428	0.068336785
225	0xbdba7021	-0.09103418
226	0x3e0a878a	0.13528267
227	0xbd02e9bb	-0.031961184
228	0x3d55ebb9	0.052226756
229	0xbdedf130	-0.116182685
230	0xbd68146b	-0.056660097
231	0xbd6fbc05	-0.05852892
232	0xbcd304d8	-0.025759146
233	0xbc24616e	-0.010032995
234	0xbd34368e	-0.04399734
235	0xbd807b88	-0.06273562
236	0xbdb4cce4	-0.08828142
237	0x3ca52323	0.020158356
238	0xbc20689b	-0.009790565
239	0xbc98a57b	-0.018633595
240	0xbd2f216b	-0.04275648
241	0x3d420dce	0.047376446
242	0xbd4fe867	-0.050758746
243	0xbd9ba72f	-0.07600247
244	0xbd88c3d5	-0.06677977
245	0xbd9fb61e	-0.07798408
246	0xbc8a73bd	-0.016900891
247	0xbdc4dfcd	-0.09612999
248	0x3c9c6d7d	0.019095177
249	0x3d52aa0e	0.051431708
250	0x3c294476	0.010331264
251	0x3c19aab9	0.009379082
252	0x3cd9699e	0.02653962
253	0xbd286e80	-0.041121006
254	0xbcccedad	-0.025015676
255	0xbd5ae15e	-0.053437583

encoder.encoder_net.2.bias f4 [64]
0	0x3fc392c1	1.5279161
1	0xbdac7873	-0.08421411
2	0xbd14c372	-0.036319204
3	0xbe0c8a2d	-0.13724585
4	0xbe262d37	-0.16228186
5	0x3da1d1d9	0.079013534
6	0x3f3f5dd0	0.7475252
7	0xbdccbaa6	-0.09996538
8	0x3e312edd	0.17303033
9	0xbdc5fb2b	-0.09667047
10	0x3db3a1b4	0.08771077
11	0x3f14db97	0.5814757
12	0xbde54d5b	-0.11196395
13	0x3d1b86c7	0.03797033
14	0x3fa9eb91	1.3275014
15	0xbd05e68f	-0.03269058
16	0x3cfb0c0b	0.030645391
17	0x3b550d06	0.0032508983
18	0x3df0584d	0.11735592
19	0x3f3ddf91	0.7416926
20	0xbdb4c55d	-0.088267066
21	0xbd99c39c	-0.07508013
22	0xbd982011	-0.07427991
23	0x3cb37bea	0.021909673
24	0x3f3417b8	0.7034869
25	0x3f45756b	0.7713229
26	0x3faa7aa3	1.3318676
27	0xbdf23968	-0.118273556
28	0x3f04e365	0.51909477
29	0x3ec459ce	0.38349766
30	0x3f10e362	0.5659696
31	0x3f8b274b	1.0871366
32	0x3f9d39eb	1.22833
33	0xbd73fe90	-0.05956894
34	0xbec1679c	-0.3777436
35	0x3d830c11	0.06398786
36	0x3a6c6733	0.00090180634
37	0x3e9b075a	0.30279046
38	0xbdb0e6c0	-0.08637762
39	0x3f51f866	0.8201965
40	0xbe0f8622	-0.14016011
41	0xbe0095ce	-0.12557146
42	0x3f2a6b24	0.66569734
43	0x3f9525a0	1.1652107
44	0xbe1120f9	-0.14172734
45	0x3f8af554	1.0856118
46	0xbd1dda9d	-0.038538564
47	0x3d51dcfd	0.05123614
48	0xbdc513ad	-0.096228935
49	0xbdfd42b6	-0.1236624
50	0x3f054f59	0.520742
51	0x3dd3abf2	0.1033553
52	0x3ed39493	0.4132429
53	0x3f29edc1	0.6637841
54	0x3f8cf201	1.1011354
55	0x3f8f772c	1.1208243
56	0x3ee55769	0.4479325
57	0x3f5b00f8	0.85548353
58	0xbe29bd6a	-0.16576162
59	0xbd90caf0	-0.07069957
60	0xbcacd7a2	-0.021098915
61	0xbdc4fcab	-0.09618505
62	0x3daeed1a	0.08541317
63	0x3ed39893	0.41327342

encoder.encoder_net.4.weight f4 [4, 64]
0	0xbd91cf23	-0.07119586
1	0xbd0ea76d	-0.03482764
2	0xbabc1321	-0.0014348963
3	0x3d4daf26	0.050215863
4	0xbcc84a72	-0.02444956
5	0x3d227fab	0.039672535
6	0xbc1aaf04	-0.009441141
7	0x3b638e23	0.0034722171
8	0xbbe049cf	-0.006844736
9	0x3dceec16	0.101036236
10	0x3bffaec4	0.007802816
11	0x3dc93683	0.098248504
12	0x3aeff5a8	0.0018307464
13	0x3d17cfaa	0.03706328
14	0x3d57262c	0.052526638
15	0xbca3d94d	-0.020001078
16	0x3d3dd730	0.046347797
17	0x3d8af9ab	0.06785902
18	0xbd0c93b6	-0.034320556
19	0x3c9ccea7	0.019141508
20	0x3cc09817	0.023510022
21	0x3c807d47	0.015684737
22	0xbd28b354	-0.041186646
23	0xbd07dc4c	-0.033169076
24	0xbcbad29e	-0.022805508
25	0x3c54aa45	0.012980049
26	0xbd6a1a3e	-0.057153933
27	0x3b75d91c	0.003751344
28	0xbbff7991	-0.0077964743
29	0xbd40293e	-0.04691433
30	0x3d211491	0.039326254
31	0x3d309f70	0.0431208
32	0xbc65c25a	-0.014023388
33	0xbb646dbe	-0.003485545
34	0xbc09d949	-0.008413621
35	0x3ca18d7c	0.019720785
36	0xbcdc2022	-0.02687079
37	0x3da2b09d	0.079438426
38	0xbd122643	-0.03568102
39	0x3cd483a5	0.02594168
40	0x3cdd60ff	0.02702379
41	0x3c67a25f	0.014137833
42	0xbce9b82c	-0.028530203
43	0xbd45104e	-0.048111252
44	0x3c9fa556	0.019488018
45	0x3d8e5236	0.06949274
46	0x3d77cfcc	0.060500905
47	0xbd5dea39	-0.05417845
48	0x3b3ea083	0.0029087372
49	0x3d977228	0.073948205
50	0x3bbd4262	0.0057757357
51	0x3d536eaf	0.051619228
52	0x3d5ec2fd	0.054385174
53	0x3ca572c7	0.020196332
54	0xbcd00202	-0.025391582
55	0x3c83a8c8	0.016071692
56	0x3c955448	0.018228665
57	0x3b93c745	0.0045098388
58	0x3c06ee36	0.008235505
59	0x3dac6fff	0.08419799
60	0x3b9de8bf	0.0048190053
61	0x3cc91b1c	0.02454906
62	0xbd6b4c21	-0.05744565
63	0xbd300ad5	-0.04297908
64	0x3cef6745	0.029224047
65	0xbc8aa423	-0.01692397
66	0x3c47cefe	0.012195347
67	0xbc945785	-0.018108139
68	0xbd3f16c4	-0.04665257
69	0xbc50448f	-0.012711658
70	0x3b968c75	0.0045943805
71	0xba0ef321	-0.0005453099
72	0xbb226050	-0.0024776645
73	0x3b67030f	0.0035249626
74	0x3bbab288	0.005697552
75	0xbc7f02ee	-0.015564663
76	0xbb03d931	-0.002011847
77	0xbc3d6eb6	-0.01156204
78	0xbd07f71b	-0.033194643
79	0xbb5fad4b	-0.003413039
80	0x3daa830c	0.083257765
81	0xbc6d3931	-0.0144789675
82	0xbc04e5a5	-0.008111392
83	0x3dbba7a0	0.09162831
84	0xbc30b0ee	-0.010784371
85	0x3d463390	0.048389018
86	0xbc57f2d2	-0.0131804515
87	0x3cda505b	0.026649645
88	0xbd99bbda	-0.07506533
89	0x3cd7ff9d	0.026367003
90	0x3dd60b72	0.10451402
91	0x3d56400f	0.052307185
92	0x3d4348ec	0.047676966
93	0xbd853a65	-0.065052785
94	0xbc2eb4c9	-0.01066322
95	0x3ceb37d9	0.028713154
96	0xbd3aa831	-0.045570556
97	0xbaedb5ef	-0.0018135885
98	0x3d47ebfe	0.048809044
99	0xba8e727c	-0.0010867859
100	0xbcdb8899	-0.026798533
101	0x3c746c1c	0.014918353
102	0xbb625412	-0.0034534973
103	0xbc7039ad	-0.0146621885
104	0xbc87b3c3	-0.01656521
105	0x3ce64963	0.028111165
106	0x3ce9f79c	0.028560452
107	0xbbd8dc58	-0.006618064
108	0xbcc348f3	-0.023838496
109	0x3c452578	0.012032859
110	0x3d8c1eed	0.06841836
111	0xbcf6d261	-0.030129613
112	0xba261d04	-0.0006336721
113	0x3d8c2740	0.06843424
114	0xbc29b920	-0.010359079
115	0x3c5b13c4	0.013371412
116	0xbc956cb9	-0.01824032
117	0x3dcb2aa4	0.099202424
118	0xbcd6fd6a	-0.026243884
119	0x3d38c811	0.045112673
120	0xbd092211	-0.033479754
121	0x3cccffcc	0.025024317
122	0xbc24210a	-0.010017643
123	0x3da38217	0.07983797
124	0x3c3cb120	0.011516839
125	0x3c5267c3	0.0128421215
126	0x390d0813	0.00013449816
127	0x3ce0a5b5	0.027422765
128	0xbd57567b	-0.05257271
129	0x3d0b269f	0.03397238
130	0x3e069703	0.13143544
131	0x3d199347	0.03749397
132	0x3dc99b38	0.09844059
133	0x3e30d1be	0.1726751
134	0xbea84ca7	-0.3287098
135	0x3c06319e	0.008190541
136	0x3ce5fced	0.028074706
137	0x3dc711a3	0.09720161
138	0xbd131b39	-0.035914633
139	0x3cf698a0	0.030102074
140	0xbcf8849c	-0.03033667
141	0xbd4ee164	-0.050507918
142	0xbc16ff3c	-0.009216126
143	0xbd2e182d	-0.042503525
144	0xbc40ac92	-0.011759894
145	0xbe03f707	-0.12887202
146	0xbe52b404	-0.20576483
147	0x3caf4143	0.021393424
148	0x3cf5f223	0.030022686
149	0xbdc3d894	-0.095627934
150	0xbd0df242	-0.034654863
151	0xbd5cb350	-0.053881943
152	0x3c452796	0.012033364
153	0x3dcda358	0.10040921
154	0x3c014c5c	0.007891741
155	0xbe0e32b6	-0.13886532
156	0x3d3b51ac	0.045732185
157	0xbdee771f	-0.11643814
158	0xbb92fee8	-0.0044859536
159	0x3b4fe100	0.0031719804
160	0x3a5edacb	0.00085012306
161	0xbdacd32e	-0.08438717
162	0xbd682727	-0.056677964
163	0xbd01286c	-0.03153269
164	0xbdc6f41c	-0.09714529
165	0x3d9066b4	0.07050839
166	0xbbcb3d89	-0.006202404
167	0xb90bec06	-0.00013343999
168	0x390fd587	0.00013717088
169	0x3deb02ae	0.114751205
170	0x3cc50adf	0.024053035
171	0x3d6c29c1	0.057657007
172	0x3b15f37c	0.0022880724
173	0x3d329828	0.04360214
174	0x3d9d1c03	0.076713584
175	0xbc5330cd	-0.012890053
176	0xbdd48427	-0.103767686
177	0x3d021f8f	0.031768378
178	0xbe1edc92	-0.15513828
179	0x3b12a423	0.0022375665
180	0x3d88b7d2	0.06675686
181	0x3a4ab607	0.00077328127
182	0xbd3e8aff	-0.046519276
183	0x3ccfb70d	0.02535584
184	0x3d050123	0.032471787
185	0xbe1b3db0	-0.1516025
186	0x3d814e5f	0.06313776
187	0xbd5b1481	-0.05348635
188	0x3d8ff10f	0.070284
189	0xbcb9d94d	-0.022686625
190	0xbd8d07cd	-0.068862535
191	0x3d558e7f	0.052137848
192	0xbd128120	-0.035767674
193	0xbcd11e04	-0.025527008
194	0xbd891c23	-0.0669482
195	0xbd790bbb	-0.060802203
196	0xbce13e89	-0.02749564
197	0xbdb4dd24	-0.08831242
198	0x3d94c89b	0.07264825
199	0xbd9b55d3	-0.07584729
200	0xbdafad73	-0.08578005
201	0xbd86352d	-0.06553111
202	0x3dbf1ca2	0.09331633
203	0x3c29a003	0.010353091
204	0x3cff60ec	0.031174146
205	0x3d0ae5aa	0.03391043
206	0xbbe4857b	-0.00697392
207	0xbda502ac	-0.0805715
208	0xbe09b6d6	-0.13448653
209	0xbe180906	-0.14847192
210	0xbdaf1d98	-0.085505664
211	0x3d49d52d	0.049275566
212	0x3ccb9309	0.024850385
213	0x3df64736	0.12025301
214	0xbd913f42	-0.070921436
215	0x3c56df5d	0.013114777
216	0x3ca3230c	0.019914173
217	0x3c70f4a1	0.014706762
218	0x3da72ced	0.08162866
219	0xbd375a00	-0.044763565
220	0xbc6dea79	-0.014521235
221	0xbc4ef62f	-0.012631937
222	0xbc2b870d	-0.01046921
223	0x3ca43d9a	0.020048905
224	0x3d06945e	0.032856338
225	0xbcfb0b50	-0.030645043
226	0xbbdb9a30	-0.00670173
227	0xbdc7ec55	-0.09761874
228	0x3de839ac	0.11339125
229	0xbba1fbad	-0.004943332
230	0x3b9ec1d0	0.0048448816
231	0xbf15c764	-0.5850737
232	0xbd2e6dd7	-0.04258522
233	0xbb0905ab	-0.002090792
234	0xbb1da22c	-0.002405296
235	0x3bfdb18e	0.0077421134
236	0xbd393843	-0.04521967
237	0xbc2fa6b5	-0.010720898
238	0xbd559c91	-0.052151266
239	0xbd70637b	-0.058688622
240	0xbcdb71fa	-0.026787747
241	0x3d5ca370	0.053866804
242	0xbe425ea7	-0.1898142
243	0xbcba8136	-0.02276669
244	0x3de97dfd	0.114009835
245	0x3d6ef06a	0.058334745
246	0xbd10c294	-0.035341814
247	0x3d500500	0.05078602
248	0x3c7d0b39	0.01544457
249	0xbe16a6f4	-0.14712125
250	0x3ce2586d	0.027630055
251	0xbd82c843	-0.06385853
252	0x3cfc88cc	0.030826949
253	0x3d044736	0.032294475
254	0xbd8b64d2	-0.06806339
255	0x3d646ffc	0.05577086

encoder.encoder_net.4.bias f4 [4]
0	0x3bdc97f2	0.0067319805
1	0xbdb81bee	-0.08989702
2	0xc015b896	-2.3393912
3	0xc0265c36	-2.599378

decoders.0.decoder_net.0.weight f4 [128, 2]
0	0x3f911f54	1.1337686
1	0xbf222da2	-0.6335088
2	0xbe13bfc9	-0.14428629
3	0xbf91290c	-1.1340652
4	0xbfe4bcbb	-1.7870096
5	0xbfaa84d2	-1.3321784
6	0x3e7a5f4f	0.2445042
7	0xbfbe5dc1	-1.4872361
8	0xbfa801b8	-1.3125525
9	0x3ed428c4	0.41437352
10	0x3f52c0c9	0.82325417
11	0x3fb688f9	1.4260551
12	0xbfcc4df1	-1.5961286
13	0x3df82cc2	0.12117912
14	0x3f8a1521	1.0787698
15	0xbd349982	-0.04409171
16	0xbf8086ff	-1.0041198
17	0xbf7cb0b7	-0.98707145
18	0xbf0a43e8	-0.54009867
19	0x3fa2515d	1.268108
20	0xbfb09eee	-1.3798501
21	0xbfb651b8	-1.4243689
22	0x3f7995f3	0.9749443
23	0xbf15dee6	-0.5854324
24	0x3ef3dd03	0.47629556
25	0xbef316fb	-0.4747847
26	0x3ed68a1b	0.4190224
27	0x40093316	2.143743
28	0xbf5f8a9f	-0.87320894
29	0x3fb126b3	1.3839935
30	0x3e99f740	0.3007145
31	0xbf705bf7	-0.9389033
32	0xc0096cf0	-2.147274
33	0x3efd01ff	0.49415585
34	0x3f9c3259	1.2202865
35	0x3e9c05ce	0.3047318
36	0x3e535828	0.20639098
37	0xbf206613	-0.6265575
38	0xbdfe57b8	-0.12419075
39	0xbf7c69af	-0.9859876
40	0xbf526fe8	-0.82202005
41	0xbd0674ac	-0.03282611
42	0x3fcb4ff2	1.5883772
43	0x3c65d2f7	0.014027349
44	0xbfb2eefd	-1.3979183
45	0x3f29df67	0.6635651
46	0xbff3571b	-1.9010957
47	0x3f7a53e4	0.97784257
48	0xbfc5e84e	-1.5461519
49	0xbeaf23e8	-0.34207082
50	0xbf1bbb75	-0.6083291
51	0x40012990	2.0181618
52	0x3f851210	1.0396137
53	0x3f3ea0de	0.74464214
54	0x3ea36b14	0.31917632
55	0xbfb6ae71	-1.4271985
56	0xbfab6cfc	-1.3392634
57	0x3f1381d4	0.57619977
58	0xbfc943f1	-1.5723859
59	0x3f4a4a97	0.79020065
60	0x3f0c8467	0.5488953
61	0xbcfec342	-0.031098966
62	0x3f885b3e	1.0652845
63	0x3eb2b49b	0.34903416
64	0x3f301fc0	0.68798447
65	0xbf3832b9	-0.71952397
66	0x3e27b59e	0.16377875
67	0xbfb0caa0	-1.3811836
68	0x3f9e4081	1.2363435
69	0xbf3d96ef	-0.7405843
70	0xbf850a7c	-1.0393825
71	0xbf0706a1	-0.5274449
72	0x3f0dc620	0.5538044
73	0xbf4be172	-0.7964088
74	0x3f3d4d07	0.7394566
75	0xbfdb2d53	-1.7123207
76	0x3cc4c7a2	0.024020974
77	0x3f21ce71	0.6320563
78	0x3f96a776	1.1769855
79	0x3f0a7a74	0.540931
80	0x3f5eb79a	0.86998904
81	0x3fd750f5	1.6821581
82	0x3d26b6db	0.04070173
83	0xbe5908cd	-0.21194763
84	0xbf6bcb04	-0.9210665
85	0xbfba86ce	-1.4572389
86	0xbf460d46	-0.77364004
87	0x3fb64835	1.4240786
88	0x3f94becc	1.1620727
89	0x3f08503a	0.53247416
90	0xbe2cdedd	-0.1688189
91	0xbe25eb24	-0.1620298
92	0xbf67a4ca	-0.90485823
93	0x3f46ff03	0.77732867
94	0x3e937616	0.2880103
95	0xbfb51c21	-1.4149209
96	0xbfa850ef	-1.3149699
97	0x3f0f7b91	0.5604792
98	0xbc567d51	-0.013091401
99	0x3e0e013e	0.13867661
100	0xbf994e98	-1.197711
101	0x3f807d5d	1.0038258
102	0x3f5a166b	0.8519046
103	0x3dc29631	0.09501303
104	0x3e7b4b9f	0.24540566
105	0xbf8a9d74	-1.0829301
106	0x3e223dad	0.1584384
107	0xbef48152	-0.47754914
108	0x3ec1cd7c	0.37852085
109	0x3f7c872f	0.98643774
110	0x3f918d76	1.1371295
111	0x3fa195d8	1.2623854
112	0x3f9fdf4d	1.2490021
113	0xbe29ed3a	-0.16594401
114	0x3fc4b8d4	1.5368905
115	0x3f8fb4c2	1.1227038
116	0x3faea03a	1.3642647
117	0x3b8d3812	0.0043096626
118	0x3f8f3f10	1.119112
119	0x3e21e198	0.15808713
120	0xbec94d52	-0.39316803
121	0xbdf33571	-0.118754275
122	0xbf9cdc65	-1.2254759
123	0x3ef8219f	0.4846315
124	0xbeb5b02a	-0.35485965
125	0x3f7c1384	0.9846728
126	0x3f7ab772	0.97936165
127	0x3fd7a169	1.6846133
128	0xbcea193e	-0.02857649
129	0xbd698028	-0.057006985
130	0x3f532fb9	0.82494694
131	0xbf86802c	-1.0507865
132	0xbfb49ab9	-1.4109718
133	0x3f9c979f	1.2233771
134	0xbf0132c8	-0.5046811
135	0xbfd028dc	-1.6262469
136	0x3ef47f08	0.47753167
137	0xbf0604a3	-0.52350825
138	0x3f09b534	0.5379212
139	0xbedd9ca8	-0.43283582
140	0x3ee92d99	0.455426
141	0xbf1c0f40	-0.6096077
142	0x3dc83f16	0.09777658
143	0x3f3a9f51	0.7289935
144	0xbf6f0808	-0.9337163
145	0xbfd0115b	-1.6255296
146	0x3e25603a	0.16149989
147	0xbf3f750a	-0.7478796
148	0xbf6c5b83	-0.92327136
149	0x3f6bd36d	0.92119485
150	0x3f3cc675	0.7374032
151	0x3ddb7388	0.10715395
152	0x3e9aed1d	0.30259028
153	0x3fe5b9ce	1.7947328
154	0xbfa93b4f	-1.3221225
155	0xbf5bbfe0	-0.85839653
156	0xbf47066a	-0.7774416
157	0x3f80e774	1.0070634
158	0xbfa2cf18	-1.271945
159	0xbfb0175f	-1.3757132
160	0xbdad6249	-0.08466012
161	0x3fcdb8b8	1.6071997
162	0x3eca7420	0.3954172
163	0x3f76502a	0.9621607
164	0xbfd74620	-1.6818275
165	0xbdc97cb2	-0.09838237
166	0x3f182c83	0.5944292
167	0x3f67a812	0.9049083
168	0x3e8a05e1	0.2695761
169	0x3f3125c9	0.6919828
170	0x3e9dd11e	0.30823606
171	0x3f219c34	0.6312897
172	0xbfbd9e5e	-1.4813955
173	0xbd807b13	-0.062734745
174	0xbf8d9792	-1.106188
175	0x3dc6b111	0.097017415
176	0xbfd84ae7	-1.6897858
177	0xbf37ba77	-0.717689
178	0xbe2ee36d	-0.17078944
179	0x3f2aecd7	0.6676764
180	0xbf66144b	-0.89874715
181	0xc0060398	-2.0939693
182	0x3e363435	0.17793353
183	0xbef75857	-0.48309585
184	0xbf533fe3	-0.8251936
185	0xbf36d9d8	-0.71426153
186	0xbd182fd0	-0.037154973
187	0xbda09f76	-0.07842915
188	0xbdb14389	-0.086554594
189	0xbdb74d41	-0.08950282
190	0x3e5c41b9	0.21509446
191	0xbf9fcb0d	-1.2483841
192	0x3f8b16db	1.086635
193	0xbea87c3a	-0.32907277
194	0x3f86986e	1.0515268
195	0xbf293926	-0.66102827
196	0x3f1d9b04	0.6156466
197	0x3f3d1542	0.7386056
198	0xbfb28504	-1.3946843
199	0x3e39f4f4	0.18159848
200	0xbdf16f53	-0.117888115
201	0x3f952e85	1.1654822
202	0xbfbe53a4	-1.4869275
203	0x3fe32a01	1.7747194
204	0x3eecb3a8	0.46230817
205	0xbfe90f6d	-1.8207833
206	0x3faa73ba	1.3316567
207	0xbe782739	-0.24233712
208	0x3f43fded	0.76559335
209	0xbf129509	-0.5725866
210	0x3ec9de35	0.39427343
211	0xbe37b8cb	-0.17941587
212	0xbe98d0be	-0.29846758
213	0x3f82c47b	1.0216211
214	0x3d299297	0.041399565
215	0x3f826c44	1.018929
216	0x3dab53ca	0.08365591
217	0x3f2c7445	0.67364913
218	0x3f4ddd70	0.8041601
219	0xbfbe2f16	-1.485812
220	0x3ec323bd	0.38113204
221	0xbeebe193	-0.46070537
222	0x3f31b61f	0.6941852
223	0x3f9942d8	1.1973524
224	0x3f13e199	0.5776611
225	0x3f80346c	1.0015998
226	0xbf8b6d30	-1.0892696
227	0xbf9424e8	-1.1573763
228	0xbfaa2a59	-1.3294173
229	0xbcaaf50d	-0.020868802
230	0xbfab1897	-1.3366879
231	0xbfafc849	-1.3732997
232	0xbe23bb81	-0.15989496
233	0xbf8bb35c	-1.0914111
234	0x3cafc29e	0.021455105
235	0x3e036bb8	0.1283406
236	0xbf8d3877	-1.1032857
237	0x3fa46e7d	1.2846218
238	0xbf651fb1	-0.8950148
239	0x3ef0394f	0.46918723
240	0xbd8a927a	-0.067662194
241	0x3fb8d709	1.4440624
242	0x3d42e7cb	0.047584336
243	0xbe51ec60	-0.20500326
244	0x3e62cd52	0.22148636
245	0xbf4528a9	-0.7701517
246	0x3d269df4	0.04067798
247	0xbfdf881e	-1.7463415
248	0x3e2625c2	0.16225341
249	0xbe08edcd	-0.13371964
250	0x3f09ad49	0.5378004
251	0x3f65b94f	0.89735883
252	0xbf858cf4	-1.043364
253	0xbe1040a4	-0.14087158
254	0xbf4cc2ba	-0.7998463
255	0x3d80f03a	0.062958196

decoders.0.decoder_net.0.bias f4 [128]
0	0xbe5ae406	-0.21376047
1	0x3f7dd78a	0.9915701
2	0xbf66bfc4	-0.9013636
3	0xbf1daab8	-0.6158862
4	0x3f34cf54	0.7062886
5	0x3d13207a	0.035919644
6	0xbe9f5bd1	-0.31124738
7	0x3dcf9472	0.101357356
8	0xbeedf173	-0.46473274
9	0x3f03a45d	0.51422673
10	0xbf1c1d37	-0.6098208
11	0xbc0035d8	-0.007825337
12	0x3ea87b80	0.32906723
13	0xbec283cc	-0.37991178
14	0x3f16fb2e	0.5897702
15	0x3f180df7	0.5939631
16	0xbecdf161	-0.4022322
17	0xbed4cdb1	-0.4156318
18	0x3f14fc7f	0.5819778
19	0xbc89be7f	-0.016814468
20	0x3f77701a	0.9665543
21	0xbfa89a57	-1.3172101
22	0xbf869f8e	-1.0517442
23	0xbe523742	-0.20528892
24	0xbf50fbc9	-0.81634194
25	0x3f174d0a	0.5910193
26	0xbec0af90	-0.37633944
27	0xbf4a11c3	-0.7893335
28	0x3f03eaa5	0.51529914
29	0xbe4e17b3	-0.20126228
30	0x3f4a208a	0.789559
31	0x3e81f970	0.25385618
32	0x3efc9c65	0.4933807
33	0x3f303fc5	0.68847305
34	0xbe261a19	-0.16220893
35	0x3edfcb79	0.43709925
36	0x3e85e1a2	0.26148707
37	0xbfcb402a	-1.5878956
38	0x3f17214d	0.5903519
39	0x3e16a443	0.14711098
40	0x3e4fe4e4	0.20302159
41	0x3f23052a	0.63679755
42	0xbd5dc848	-0.05414608
43	0xbec5cbfb	-0.38632187
44	0xbe66048e	-0.22462675
45	0x3f662f7c	0.89916205
46	0x3f7b5fbd	0.9819296
47	0xbf321734	-0.69566655
48	0xbf1d563b	-0.614597
49	0xbf2e804c	-0.68164515
50	0xbeb8c6ff	-0.36089322
51	0x3f0b316b	0.5437228
52	0x3f3b474f	0.73155683
53	0x3f3a223d	0.72708493
54	0x3e96958c	0.2941097
55	0xbf02db6b	-0.51116055
56	0xbf092867	-0.53577274
57	0xbe443bdc	-0.1916346
58	0xbf59bb75	-0.8505166
59	0xbea3ffe0	-0.32031155
60	0x3f3ce188	0.73781633
61	0x3f1710da	0.5901009
62	0x3ed13838	0.40863204
63	0x3d1c5737	0.038169112
64	0xbe862ba8	-0.26205182
65	0x3f6f1d7f	0.9340438
66	0x3e4e78fc	0.2016334
67	0xbe3c68f9	-0.18399419
68	0x3e1a6b2d	0.15079947
69	0x3f6db2b7	0.9285082
70	0x3e53afb6	0.20672497
71	0x3e1fabe2	0.15592912
72	0xbf868d48	-1.0511866
73	0xbea96db2	-0.33091503
74	0xbf4e05c6	-0.8047756
75	0x3ee8a447	0.45437834
76	0xbf3bcace	-0.7335633
77	0x3f031708	0.5120702
78	0xbf4b9016	-0.7951673
79	0xbe2d9507	-0.1695138
80	0xbeb776bb	-0.35832772
81	0x3f49a4a9	0.78766876
82	0x3e9bcb75	0.30428663
83	0x3f1a6e2b	0.6032435
84	0x3f0e00f3	0.554702
85	0x3e9fca2f	0.3120894
86	0xbedffe8b	-0.43748888
87	0x3d037fed	0.03210442
88	0x3e926ae3	0.28597173
89	0x3f2cd0e9	0.6750627
90	0x3dac88e0	0.08424544
91	0x3f29db6a	0.66350424
92	0x3ecd1156	0.4005229
93	0x3f46a5e4	0.7759688
94	0x3f47b443	0.7800943
95	0xbf07dc33	-0.5307037
96	0xbf1e382f	-0.6180448
97	0xb910e64c	-0.00013818702
98	0x3f09ea7e	0.5387343
99	0xbfa63e1e	-1.2987707
100	0x3f472772	0.77794564
101	0x3eeb0dd0	0.45908976
102	0xbf9148e3	-1.1350368
103	0xbfc7b250	-1.5601292
104	0x3f10515e	0.56374156
105	0x3f2eef39	0.68333775
106	0x3ed4f1c0	0.4159069
107	0x3f6ae47b	0.91754884
108	0x3ec54def	0.3853602
109	0xbff30ea9	-1.8988849
110	0x3f5bb3a6	0.85820997
111	0x3ccb000b	0.024780294
112	0x3cacd0c8	0.021095648
113	0x3f5e67ae	0.8687695
114	0x3defdb61	0.11711765
115	0xbf164387	-0.5869679
116	0x3f0d1af8	0.55119276
117	0xbf0f27a0	-0.5591984
118	0xbf368fa4	-0.7131293
119	0x3f698fff	0.91235346
120	0x3f43d8f2	0.7650291
121	0x3f286634	0.6578095
122	0x3f81e5c8	1.0148249
123	0xbf0b2f2c	-0.54368854
124	0x3f2fa48f	0.6861047
125	0x3f3f2428	0.74664545
126	0x3f67111c	0.9026048
127	0x3f8dd99a	1.1082032

decoders.0.decoder_net.2.weight f4 [128, 128]
0	0xbb8243f8	-0.0039753877
1	0x3e6582bc	0.22413152
2	0x3e1a5739	0.15072335
3	0x3e477120	0.19476748
4	0x3cb2abb6	0.021810394
5	0xc0605592	-3.5052228
6	0xbc8f542c	-0.017496191
7	0xbdbd8584	-0.09253982
8	0x3c99abe4	0.018758722
9	0x3e719b28	0.23594344
10	0xbd739e8a	-0.059477367
11	0xbd27a3d2	-0.040927716
12	0x3d82f108	0.06393629
13	0xbf29c151	-0.663106
14	0x3ddf7520	0.10911012
15	0x3db5f233	0.088840865
16	0x3e299430	0.16560435
17	0xbcec15b3	-0.02881894
18	0xbe776de5	-0.24163015
19	0x3e820249	0.25392368
20	0xbd60754b	-0.05479936
21	0xbdbc206c	-0.091858715
22	0x3f225367	0.6340851
23	0x3e1ab7c0	0.15109158
24	0x3d524888	0.051338702
25	0x3ee63cb7	0.44968197
26	0xbd400ae3	-0.046885382
27	0xbc41d6da	-0.01183101
28	0x3de47966	0.111559674
29	0x3ead0ef5	0.33800474
30	0xc019305a	-2.3935761
31	0xbd0ace5f	-0.033888217
32	0x3d2121ce	0.03933888
33	0xbea60246	-0.3242361
34	0x3cfa595a	0.030560184
35	0xbe209df2	-0.15685251
36	0xbd7fc43b	-0.062443
37	0xbdb29bff	-0.0872116
38	0xbd8dbc7c	-0.06920716
39	0x3c29cc17	0.0103636
40	0xbfc59ec8	-1.5439081
41	0x3e809a9c	0.25117958
42	0xbda909f2	-0.0825385
43	0x3edb78bf	0.4286556
44	0x3b471601	0.0030378106
45	0x3c30a0d7	0.010780535
46	0xbe0b4647	-0.13601027
47	0x3d2c1767	0.042014506
48	0x3f140927	0.57826465
49	0xbd4dc83d	-0.05023979
50	0x3f25eaae	0.6481122
51	0xbd45e306	-0.04831221
52	0xbeb31130	-0.3497405
53	0x3e5d9200	0.21637726
54	0x3e09adf5	0.13445266
55	0xbd9426d8	-0.07233971
56	0xbbc3338e	-0.0059570735
57	0xbd964e99	-0.0733921
58	0x3d87ab37	0.066244535
59	0x3d600a9b	0.054697614
60	0xbdcc0548	-0.09961945
61	0xbbcd2c2e	-0.00626137
62	0x3e8d2aa7	0.27571604
63	0xc05f4984	-3.488862
64	0xbc705f15	-0.014671107
65	0x3f1f8fcd	0.623288
66	0x3e2b8c30	0.16752696
67	0x3ef883f3	0.4853817
68	0x3c1f796c	0.009733539
69	0xbfe95b56	-1.8230999
70	0x3d45f134	0.048325732
71	0xbf3a934a	-0.72880995
72	0xbea7b156	-0.32752484
73	0xbcda84f3	-0.026674723
74	0x3f01617f	0.5053939
75	0xbd8f8f23	-0.07009723
76	0xbfc6dd75	-1.5536333
77	0xbce773df	-0.028253494
78	0x3efec5fd	0.49760428
79	0xbee59d2c	-0.44846475
80	0xbfdbcff0	-1.7172832
81	0xbf22c33f	-0.6357917
82	0xbdaeb517	-0.08530634
83	0x3f43198c	0.76210856
84	0xbf0babc8	-0.5455899
85	0x3ed217ed	0.4103388
86	0x3d3733ca	0.044727124
87	0xbd13a5ea	-0.0360469
88	0xbe37403f	-0.17895602
89	0xbd861f75	-0.06548969
90	0xbeda8136	-0.42676705
91	0x3de8bf9b	0.11364671
92	0xbe071f86	-0.13195619
93	0x3dd89629	0.10575516
94	0x3da91a84	0.082570106
95	0x3e442a40	0.19156742
96	0x3d4a4606	0.049383186
97	0xbcd50c51	-0.02600685
98	0xbee1c098	-0.4409225
99	0x3eb62a93	0.35579357
100	0xbee3bc84	-0.44479764
101	0x3d95f8ee	0.0732287
102	0xbd73005b	-0.05932651
103	0xbc7432d5	-0.014904697
104	0x3cc0ea3a	0.023549188
105	0xc00e1cef	-2.220516
106	0x3e646910	0.22305703
107	0x3ccf8e35	0.025336364
108	0x3cebbcda	0.028776575
109	0xbcdb5c96	-0.026777547
110	0xbf9f1a45	-1.2429892
111	0xc06481dd	-3.5704262
112	0xc048c7ff	-3.1372068
113	0xbd4f86d8	-0.050665706
114	0xbe35ee7f	-0.1776676
115	0xbd888d9a	-0.06667633
116	0x3e011334	0.12604982
117	0xba4be316	-0.0007777674
118	0x3efd0058	0.49414325
119	0xbdd1ead3	-0.10249867
120	0x3e547d60	0.20750952
121	0x3e7023a6	0.23451099
122	0x3e99bb3d	0.30025664
123	0x3e57d256	0.2107633
124	0x3e886426	0.26638907
125	0x3ea3c632	0.3198715
126	0xbe2bf27c	-0.16791719
127	0xbd5abf5f	-0.053405162
128	0x3e6a251c	0.22865719
129	0x3d860b18	0.06545085
130	0x3dc5e008	0.09661871
131	0x3e31f446	0.17378339
132	0xbea71523	-0.32633314
133	0xbd2daa48	-0.04239872
134	0xbea3fe41	-0.32029918
135	0x3dde0117	0.108400516
136	0xbf19baac	-0.60050464
137	0x3dcb89fa	0.09938426
138	0xbe7feaf5	-0.24991973
139	0x3e94c18c	0.29053915
140	0x3d5d61c3	0.05404831
141	0xbeb6e713	-0.3572317
142	0xbe82a9e9	-0.25520256
143	0x3e7c7139	0.24652566
144	0xbe20fbd0	-0.15721059
145	0xbe4772ba	-0.19477358
146	0x3de1ba93	0.11021914
147	0x3e1cf44d	0.15327568
148	0x3dfbc02a	0.12292512
149	0x3ee6fd2b	0.45115027
150	0x3f129e73	0.57273024
151	0xbdb55354	-0.08853784
152	0xbea91970	-0.3302722
153	0x3ee1b101	0.44080356
154	0x3e37ce45	0.1794978
155	0x3ebaa88b	0.36456713
156	0xbe8a5482	-0.270176
157	0x3e38b838	0.18039024
158	0x3e74f6ae	0.23922226
159	0xbc6e9ac8	-0.01456327
160	0x3e28ed05	0.16496666
161	0xbc714ce5	-0.014727806
162	0x3e3276a6	0.17428073
163	0x3e63382a	0.22189394
164	0xbd0a4ec5	-0.033766527
165	0xbdd87790	-0.1056968
166	0xbe9d94da	-0.30777627
167	0xb9d50e36	-0.00040637114
168	0x3ccf4a14	0.025303878
169	0x3d95749e	0.072976336
170	0x3d32d026	0.043655537
171	0x3e209022	0.15679982
172	0xbe0aff40	-0.13573933
173	0x3d785853	0.060631108
174	0xbed3fdd2	-0.41404587
175	0x3eed0ae6	0.46297377
176	0x3e9bf170	0.3045764
177	0x3d9a1c92	0.075249806
178	0x3e146900	0.1449318
179	0xbe085ae0	-0.13315916
180	0x3e2df8ac	0.16989392
181	0x3dd07b48	0.10179764
182	0xbd427719	-0.04747686
183	0x3ec2d848	0.38055634
184	0xbe1a8beb	-0.15092437
185	0x3d22f36b	0.039782923
186	0x3da4bc7b	0.08043762
187	0xbd203e64	-0.039122
188	0xbd507ee2	-0.050902255
189	0xbe8441a6	-0.25831336
190	0x3b93e763	0.0045136674
191	0x3d3b67f6	0.04575344
192	0xbd8c0b5a	-0.06838103
193	0x3d2438d9	0.040093277
194	0x3de87101	0.11349679
195	0x3db75b67	0.089529805
196	0xbd7aa01e	-0.061187856
197	0x3ddae82d	0.10688815
198	0x3d4424c4	0.047886625
199	0x3d7752e6	0.060381792
200	0x3ee77700	0.45207977
201	0x3ea73efd	0.32665244
202	0x3ea9c791	0.3316007
203	0xbd83d37a	-0.0643682
204	0x3e3ee999	0.18643798
205	0x3ea0c3ed	0.3139948
206	0x3ebc09d9	0.36726263
207	0xbf20a05a	-0.6274468
208	0x3dfea451	0.124336846
209	0x3e040a1c	0.12894481
210	0xbd5aac57	-0.053387012
211	0x3e1394a5	0.14412172
212	0x3c848aef	0.01617953
213	0x3e10424e	0.14087793
214	0xbee4bda2	-0.44675928
215	0x3d9db801	0.077011116
216	0x3ce25801	0.027629854
217	0xbeb619be	-0.35566515
218	0xbe27b7a7	-0.16378652
219	0x3c6e9970	0.01456295
220	0x3f25b6f9	0.6473232
221	0x3d09d876	0.0336537
222	0x3c365dfa	0.011130804
223	0x3e984599	0.297406
224	0xbea369a9	-0.3191655
225	0x3e34b38e	0.1764662
226	0xbc894b75	-0.016759614
227	0x3fbd8fcc	1.4809508
228	0x3d63fdd4	0.05566199
229	0x3df7744e	0.1208273
230	0x3ed552e5	0.41664806
231	0xbe9074c6	-0.2821409
232	0x3d83d020	0.06436181
233	0x3d81c952	0.06337227
234	0xbc9c1069	-0.019050794
235	0xbe10038a	-0.1406385
236	0xbcc8f4de	-0.024530824
237	0xbd9cc07a	-0.076538995
238	0x3c81e467	0.015855981
239	0xbdbf5221	-0.09341837
240	0xbdaec3a8	-0.08533412
241	0x3ef98a24	0.48738205
242	0x3dba6d45	0.09102873
243	0xbe1243b4	-0.14283639
244	0x3deeb01b	0.11654683
245	0xbd7ba65e	-0.061437957
246	0x3ea96d63	0.33091268
247	0xbe9aef79	-0.30260828
248	0xbe026e92	-0.12737492
249	0x3d934ff9	0.07192988
250	0x3de323db	0.11090823
251	0x3f21bc8a	0.6317831
252	0x3e157cb4	0.14598352
253	0x3ddd00e2	0.10791184
254	0x3e32857c	0.17433733
255	0x3db50bce	0.08840142

decoders.0.decoder_net.2.bias f4 [128]
0	0x3dce364b	0.10068949
1	0x3d0b74ef	0.034047063
2	0x3e37bbe4	0.17942768
3	0x3e046f3b	0.12933056
4	0xbcdf78e1	-0.02727932
5	0x3e3704b8	0.17872894
6	0xbd9e7782	-0.07737638
7	0xbd881fe1	-0.066467054
8	0x3dfdaa06	0.12385945
9	0x3d3c3655	0.045950253
10	0xbce1e0b1	-0.027572962
11	0xbd960cd3	-0.07326665
12	0x3e1857e3	0.14877276
13	0x3e146049	0.14489855
14	0x3e474b31	0.19462277
15	0x3e0812e4	0.13288456
16	0x3d1b5cf7	0.037930455
17	0x3db4832b	0.08814081
18	0xbbef2558	-0.007298153
19	0x3e1cabbb	0.15299885
20	0x3e0918cb	0.13388364
21	0x3d2c7da6	0.042112015
22	0x3d4cec7a	0.05003021
23	0x3d20340c	0.039112136
24	0xbd3e4f6d	-0.046462465
25	0xbb7a0aae	-0.0038153338
26	0x3e15c2ec	0.14625138
27	0xbdc0de88	-0.094174445
28	0x3e20a7da	0.1568903
29	0x3e48506b	0.19561927
30	0x3e29a31a	0.16566125
31	0x3d5c3120	0.053757787
32	0x3d14423d	0.036195982
33	0x3c6d3550	0.014478043
34	0x3e1753eb	0.14778106
35	0x3e933357	0.28750107
36	0xbb6d820c	-0.0036240844
37	0x3d2d2b57	0.04227766
38	0x3d0064b6	0.031346045
39	0x3dcde492	0.10053362
40	0x3de2b52a	0.110697106
41	0xbdafbfa1	-0.08581472
42	0x3d994365	0.074835576
43	0x3dcbfa58	0.09959859
44	0x3d08684e	0.033302598
45	0x3d9ddb80	0.07707882
46	0x3e1b5923	0.15170722
47	0x3d9acc47	0.07558494
48	0x3db50088	0.08837992
49	0x3d6e2f24	0.058150426
50	0x3e28fdbc	0.16503042
51	0xbd6478ff	-0.055779453
52	0xbd050f12	-0.032485075
53	0x3e05810d	0.1303751
54	0x3d576b2f	0.052592453
55	0x3e292f8d	0.16522045
56	0x3e244fb7	0.16046034
57	0x3e49c282	0.19703105
58	0xbd06090a	-0.032723464
59	0x3dcc22a3	0.09967544
60	0x3ecbbb03	0.39791116
61	0x3c37ed5f	0.011226027
62	0xbd34a5cd	-0.044103432
63	0x3d5ce259	0.0539268
64	0x3ea26ff5	0.3172604
65	0x3dbc624e	0.09198438
66	0x3e38f500	0.1806221
67	0xbda3b7c1	-0.07994033
68	0x3d7f200e	0.06228643
69	0x3db4c549	0.08826692
70	0xbde78efb	-0.11306568
71	0x3d35c2fc	0.044375405
72	0xbdeae117	-0.11468714
73	0x3e3ba7d8	0.18325746
74	0xbbc126bb	-0.0058945096
75	0x3e54c7f2	0.20779398
76	0x3d004a56	0.031320892
77	0x3e4c61d0	0.19959188
78	0xbd4b0bee	-0.049571924
79	0xbcaa7aa8	-0.02081044
80	0xbd4366de	-0.047705524
81	0x3d023d1b	0.031796556
82	0x3e104f4d	0.14092751
83	0xbdb5a50e	-0.08869372
84	0x3e9637a9	0.2933934
85	0x3e54b630	0.20772624
86	0xbdd43a24	-0.10362652
87	0x3d5baf04	0.053633705
88	0xbdddd044	-0.10830739
89	0x3e5e3fb8	0.21703994
90	0x3e564550	0.20924878
91	0x3e0139ff	0.1261978
92	0xbd6bb30d	-0.057543803
93	0x3de69161	0.112581976
94	0xbd31dfae	-0.04342621
95	0x3e39d38b	0.18147103
96	0x3e43cefa	0.19121924
97	0x3c0e43ff	0.008683204
98	0x3e5de9e4	0.21671253
99	0x3e0d23ca	0.13783184
100	0x3e0c11b2	0.13678625
101	0x3e03202a	0.12805238
102	0x3dfa804d	0.12231503
103	0xbd26883b	-0.040657263
104	0x3e38fc6e	0.18065044
105	0x3ccc21cb	0.024918457
106	0x3c581e15	0.013190766
107	0x3d9bcc3e	0.076073155
108	0x3d346680	0.044043064
109	0x3c81ab2a	0.015828688
110	0x3e6f6ff6	0.23382553
111	0xbcde48c5	-0.027134309
112	0x3eb06d61	0.3445845
113	0xbb47a635	-0.0030464057
114	0x3e7ba38d	0.24574108
115	0x3ce8c8a0	0.028415978
116	0xbc52c68b	-0.012864719
117	0xbd084aa4	-0.033274308
118	0xbb8b3196	-0.0042478545
119	0xbc46555f	-0.012105315
120	0xbda283ea	-0.07935317
121	0x3d4ead8e	0.050458483
122	0x3dddb42f	0.10825383
123	0xbd05638e	-0.032565646
124	0x3d63f3b1	0.055652324
125	0x3ea4bd42	0.32175642
126	0x3d6c91e2	0.057756312
127	0x3e4a6c15	0.19767793
