models_v103/dec3/model_rerun7.pt (torch, 428510 bytes, 32 tensors)

encoder.encoder_net.0.weight f4 [128, 50]
-0.03202207 -0.010792423 -0.09260024 0.0059892396 0.022843547 0.03334232 -0.13190353 -0.034117676
0.028850308 -0.0111599825 -0.09016246 -0.17762177 0.030360818 -0.04173041 0.20710549 -0.027115524
0.11986906 -0.18304972 0.15993942 0.08475988 0.011644877 -0.025813453 -0.082095236 -0.065078825
-0.09055618 -0.052948307 0.08214607 -0.052509475 0.05396089 0.044910517 -0.010125716 0.007397702
0.0093003195 0.017908195 -0.14046843 0.07413603 -0.09254104 0.10738919 -0.1616323 -0.23004769
0.008826316 0.057473358 -0.123126075 -0.14641915 -0.037013665 -0.05742803 -0.0962726 -0.047037616
-0.1029102 0.0068369005 -0.09551303 0.03421909 -0.03309663 0.079063386 -0.06808315 -0.12999591
0.03652376 -0.12839597 0.037956063 0.21218324 -0.15310615 -0.067463815 0.0839959 0.049207278
0.16310582 0.21113694 -0.23781013 -0.07127833 -0.015097078 0.04289441 -0.21273613 -0.018610563
-0.039544556 0.03205 0.08559127 -0.0016772756 -0.055564426 0.025723208 0.10518306 0.06277831
-0.01912527 0.049524367 0.047169432 -0.022721667 -0.10526446 -0.028200153 0.026604686 -0.044723164
0.12349241 -0.05363407 0.029135372 0.18766229 0.08948028 0.13869545 -0.030585542 -0.07914056
-0.22401312 0.08833464 0.020060278 0.04909896 0.16011892 -0.08369379 -0.1283734 -0.13604882
-0.21422355 -0.058908105 0.0818299 -0.12841645 -0.06272122 0.042220876 -0.10784414 -0.08923323
-0.093084015 0.13132885 -0.057950623 0.02397096 -0.24795991 -0.08552943 0.021610081 0.13126118
-0.1275865 -0.14431638 0.020995412 -0.01642073 -0.16193159 -0.16555469 0.024355212 -0.14098036
0.20816913 0.17556678 0.19185406 -0.24853316 0.007425006 0.0012636548 -0.122953124 0.01276081
0.08466166 0.09325589 -0.03825798 0.042698603 -0.29509246 0.010195893 -0.03429048 0.042862155
-0.10880109 0.031659815 -0.013103976 -0.023771591 -0.20081657 -0.12576063 -0.06478102 -0.12671097
-0.079953395 0.029661793 0.08617879 -0.0602 0.009900809 0.029342813 0.07890883 -0.09683258
-0.027218228 0.10839571 -0.07279682 0.3524376 -0.11803131 -0.09382621 -0.078577496 -0.029000314
-0.06750754 0.035278738 -0.0571631 0.058427095 0.039447665 -0.0033589934 0.11480762 -0.046741087
-0.0634765 0.012507802 0.21602999 -0.17164733 0.15250252 0.12861273 -0.19683276 0.19060214
-0.07345897 0.11072055 -0.019847682 0.14071496 -0.10392687 -0.1646473 0.1355983 -0.009485755
0.04483757 0.02090622 0.03275144 -0.052998513 -0.09951339 -0.13853359 -0.2260873 -0.25233263
-0.0028204464 0.03135478 0.014095024 0.04398428 -0.11563873 0.016626872 0.02659071 -0.06634415
0.032331783 0.11331258 -0.05972372 0.105140075 0.13467756 0.0037196267 -0.07577415 0.19748409
-0.0477909 -0.02586127 -0.09276537 0.13909453 -0.032501172 -0.100498706 -0.12282212 -0.24422692
0.1867971 -0.119746305 0.018001456 -0.108191766 0.31074333 0.15000416 0.1306977 -0.110174
0.17513049 -0.08284099 0.10892106 -0.027138589 0.16391024 -0.030842727 0.14067695 0.044373438
0.07789594 0.0082236845 0.013117564 0.0007779514 -0.053793393 0.03480418 0.007875114 -0.09027186
0.12720767 -0.23448457 0.004712628 0.08895736 0.05870864 -0.03529003 -0.06438823 0.0340859
00000000: 9329 03bd b4d2 30bc 32a5 bdbd 6241 c43b
00000010: 6422 bb3c f591 083d b811 07be fabe 0bbd
00000020: 7b57 ec3c 5cd8 36bc 19a7 b8bd 7be2 35be
00000030: 40b7 f83c 82ed 2abd 7613 543e 6021 debc
00000040: e97d f53d 6371 3bbe 29c7 233e 9796 ad3d
00000050: 27ca 3e3c bc76 d3bc 8c21 a8bd 0c48 85bd
00000060: 8575 b9bd 53e0 58bd 333c a83d 2d14 57bd
00000070: 1806 5d3d 17f4 373d 55e6 25bc 6c68 f23b
00000080: 5e60 183c 35b4 923c f5d6 0fbe a2d4 973d
00000090: 2886 bdbd ddee db3d f082 25be 9f91 6bbe
000000a0: 419c 103c 2f69 6b3d 8629 fcbd e7ee 15be
000000b0: a49b 17bd a739 6bbd 922a c5bd 84aa 40bd
000000c0: 95c2 d2bd 1408 e03b 569c c3bd 5129 0c3d
000000d0: 5590 07bd fceb a13d 2e6f 8bbd a61d 05be
000000e0: f099 153d 3c7a 03be d177 1b3d 9046 593e
000000f0: dcc7 1cbe 782a 8abd 0b06 ac3d 928d 493d
00000100: 3605 273e 4834 583e 8084 73be 60fa 91bd
00000110: bc59 77bc 0db2 2f3d 80d7 59be 2e75 98bc
00000120: 79f9 21bd dc46 033d 7a4a af3d 08d8 dbba
00000130: 8697 63bd 7ab9 d23c 376a d73d ea91 803d
00000140: 99ac 9cbc 10da 4a3d bc34 413d ca22 babc
00000150: e594 d7bd 0204 e7bc 12f2 d93c a32f 37bd
00000160: 97e9 fc3d 66af 5bbd 4ead ee3c 8b2a 403e
00000170: 7041 b73d 2e06 0e3e 888e fabc 7214 a2bd
00000180: b263 65be cbe8 b43d 7455 a43c fe1b 493d
00000190: 37f6 233e a667 abbd 5174 03be 6250 0bbe
000001a0: 6b5d 5bbe a049 71bd 6f96 a73d 9a7f 03be
000001b0: fc73 80bd ccef 2c3d 63dd dcbd e9bf b6bd
000001c0: d5a2 bebd 127b 063e a25d 6dbd bf5e c43c
000001d0: 34e9 7dbe 0e2a afbd a007 b13c 5569 063e
000001e0: 09a6 02be acc7 13be 92fe ab3c c484 86bc
000001f0: 65d1 25be 2b87 29be 9584 c73c 285d 10be
00000200: 4a2a 553e c7c7 333e 6475 443e 7a7f 7ebe
00000210: 774d f33b 38a1 a53a d9ce fbbd b712 513c
00000220: 1863 ad3d f2fc be3d 66b4 1cbd bbe4 2e3d
00000230: 5c16 97be ad0c 273c 2d74 0cbd 3a90 2f3d
00000240: 1bd3 debd b9ad 013d 0fb2 56bc a4bc c2bc
00000250: dca2 4dbe 65c7 00be e9ab 84bd 85c0 01be
00000260: 9bbe a3bd 4afd f23c 817e b03d 4694 76bd
00000270: 0137 223c 5760 f03c f49a a13d 2950 c6bd
00000280: c3f8 debc 92fe dd3d 8016 95bd b372 b43e
00000290: 66ba f1bd f527 c0bd 3ded a0bd 1192 edbc
000002a0: 6541 8abd 7080 103d db23 6abd 4051 6f3d
000002b0: e093 213d 8f22 5cbb 4220 eb3d 9573 3fbd
000002c0: f8ff 81bd 86ed 4c3c f736 5d3e 51c4 2fbe
000002d0: 9f29 1c3e 0eb3 033e 878e 49be 352d 433e
000002e0: a871 96bd 75c1 e23d 9b97 a2bc 9517 103e
000002f0: 9cd7 d4bd 4d99 28be 48da 0a3e 246a 1bbc
00000300: 9aa7 373d 8543 ab3c 6026 063d f814 59bd
00000310: adcd cbbd c0db 0dbe 6e83 67be be31 81be
00000320: 3dd7 38bb df6d 003d d1ee 663c dc28 343d
00000330: 00d4 ecbd 1435 883c c3d4 d93c 71df 87bd
00000340: 556e 043d 6d10 e83d dca0 74bd ae53 d73d
00000350: eae8 093e fbc4 733b 7a2f 9bbd 4539 4a3e
00000360: 64c0 43bd 04db d3bc c5fb bdbd cc6e 0e3e
00000370: f31f 05bd 44d2 cdbd 2a8a fbbd 9f16 7abe
00000380: bd47 3f3e 8d3d f5bd ca77 933c a593 ddbd
00000390: c019 9f3e b19a 193e 9ed5 053e e8a2 e1bd
000003a0: 6855 333e 89a8 a9bd 0112 df3d bf51 debc
000003b0: 16d8 273e e3a9 fcbc 9e0d 103e ecc0 353d
000003c0: e887 9f3d a2bc 063c 0deb 563c 6fef 4b3a
000003d0: 7656 5cbd d48e 0e3d 9f06 013c 74e0 b8bd
000003e0: ba42 023e b91c 70be 646c 9a3b 472f b63d
000003f0: 7978 703d 478c 10bd fadd 83bd a89d 0b3d

encoder.encoder_net.0.bias f4 [128]
-1.3894049 0.7607242 0.8299071 -0.9589091 -1.9109147 -1.1924617 0.33266014 -1.7597144
-0.6214447 -1.1451026 -1.6236509 -0.40397206 -1.7948718 -1.1910337 1.3254727 -0.700929
-1.803342 -1.2545416 -0.6936528 -1.166284 -0.9994254 1.4000785 -1.5499834 -0.5771799
-0.8417 -1.1596034 0.05562327 0.39159214 -0.39779764 -1.4532512 0.9138819 0.74411935
-0.9325771 -1.6378258 -1.3650526 -0.71366215 -0.72428703 -1.8115436 0.011913218 -0.4363262
-1.6171254 -1.8715502 0.10421361 -1.084679 -2.222004 -0.4051368 -1.1506768 0.355565
0.1766077 -1.4016123 -0.45967966 -0.78557724 -0.17139816 0.03550514 -1.4321004 -1.5071552
-1.2657086 -1.1320599 0.1590123 -0.13383448 -1.3964689 -0.16313796 -0.376637 -1.161636
-2.485724 -1.2321543 -1.0730895 0.35103175 0.01858497 -0.80302536 -1.3847343 0.5634623
0.18156491 -1.2658798 0.36128238 -1.1630049 0.17157994 0.8967751 -0.25141224 -0.363863
-1.208464 -1.1364965 -1.9462541 -0.50567484 -0.5259167 -1.0189117 -2.049166 -1.1104997
-0.8270414 0.085067265 -0.37611517 -0.3042259 -0.63755834 0.8327948 -0.9268151 -0.18789642
-1.338741 0.4755596 0.3461112 -1.3145381 -1.143152 -0.7254443 0.6403567 0.5494457
0.38131496 -0.25605384 -1.6094072 -0.5544104 0.3966543 -1.552056 -0.2924836 0.21050039
-2.549865 -0.3623891 -1.5811504 -1.7259154 -0.21503852 -1.7155366 -0.55644244 -1.4687898
-0.40505856 -0.64259845 0.67111766 -0.92969745 -0.99107116 -0.28255233 -1.2927623 0.20304783
00000000: 05d8 b1bf d2be 423f cb74 543f 117b 75bf
00000010: da98 f4bf 96a2 98bf 6e52 aa3e 523e e1bf
00000020: 0017 1fbf b992 92bf cbd3 cfbf 6dd5 cebe
00000030: 5cbe e5bf cb73 98bf 17a9 a93f 1570 33bf
00000040: e9d3 e6bf d294 a0bf 3b93 31bf cb48 95bf
00000050: 58da 7fbf c635 b33f db65 c6bf 10c2 13bf
00000060: a779 57bf e26d 94bf 3ad5 633d c47e c83e
00000070: 22ac cbbe 2304 babf 2af4 693f 9b7e 3e3f
00000080: 5fbd 6ebf 47a4 d1bf 0bba aebf 90b2 36bf
00000090: e06a 39bf a9e0 e7bf a82f 433c 2666 dfbe
000000a0: f7fd cebf f58e efbf f26d d53d c3d6 8abf
000000b0: 5035 0ec0 176e cfbe 6149 93bf 9e0c b63e
000000c0: a6d8 343e 0868 b3bf 225b ebbe 971b 49bf
000000d0: 0083 2fbe d66d 113d 114f b7bf 76ea c0bf
000000e0: bd02 a2bf 57e7 90bf 1fd4 223e e80b 09be
000000f0: 7ebf b2bf a30d 27be 91d6 c0be 7db0 94bf
00000100: 1a16 1fc0 3bb7 9dbf ff5a 89bf 6fba b33e
00000110: 823f 983c 1293 4dbf f93e b1bf 113f 103f
00000120: 27ec 393e 5908 a2bf 01fa b83e 58dd 94bf
00000130: a7b2 2f3e 0e93 653f 1bb9 80be 404c babe
00000140: f3ae 9abf b878 91bf db1e f9bf e873 01bf
00000150: 7aa2 06bf b36b 82bf 8925 03c0 db24 8ebf
00000160: fcb8 53bf bf37 ae3d 2b92 c0be 7fc3 9bbe
00000170: 0637 23bf 0a32 553f c143 6dbf eb67 40be
00000180: dd5b abbf 8c7c f33e 7d35 b13e c942 a8bf
00000190: ce52 92bf b8b6 39bf 6bee 233f 79a8 0c3f
000001a0: b73b c33e 7d19 83be 0e01 cebf d7ed 0dbf
000001b0: 4616 cb3e c5a9 c6bf 69c0 95be 6a8d 573e
000001c0: fd30 23c0 108b b9be 2363 cabf ccea dcbf
000001d0: 0f33 5cbe b496 dbbf 0373 0ebf 4e01 bcbf
000001e0: d663 cfbe 5581 24bf 5ece 2b3f a700 6ebf
000001f0: d7b6 7dbf b3aa 90be 3c79 a5bf c5eb 4f3e

encoder.encoder_net.2.weight f4 [64, 128]
-0.12597322 0.037958544 -0.28762195 -0.20742863 0.029002814 -0.057591856 -0.059805404 -0.14133054
-0.035911154 -0.031349964 -0.011619615 0.02421907 0.03201042 0.0054535903 0.007926903 -0.0733288
0.007332343 0.069374844 0.18683286 0.041675583 0.008236177 -0.19535972 -0.035763368 -0.14036615
-0.07206587 0.049984574 -0.020685216 -0.0262729 -0.124796994 -0.059223067 -0.15812664 0.034435157
-0.09796702 -0.07274533 0.047592267 -0.18762216 -0.13742313 -0.11097273 -0.17190348 -0.08182699
-0.13972014 0.02048243 0.02569289 0.096370615 0.07184793 -0.028271554 -0.063652515 0.10620607
-0.006975942 -0.14638042 -0.16932082 -0.068296485 0.03118688 -0.19834284 -0.09227935 0.18228213
0.057246704 0.01790224 -0.322024 -0.11801863 -0.042315777 -0.014935829 -0.08062943 -0.053707484
-0.046168063 -0.1013894 0.013508327 -0.17743765 -0.26465106 -0.043086097 0.08036321 0.04117121
-0.12990285 -0.09323309 0.010494359 -0.21729732 -0.1366183 -0.18071768 -0.01636263 -0.010825511
-0.11725905 -0.0743754 -0.10554823 0.0150704915 -0.08201234 0.15246928 -0.048008822 -0.03973031
-0.0690637 0.019912161 -0.1456124 -0.044730663 0.108927995 -0.015474777 -0.072130576 -0.27507704
-0.087649085 -0.007219717 -0.007681396 -0.07423502 0.037042167 -0.056415696 -0.008517547 -0.061716188
-0.055540573 -0.058252737 -0.11064907 -0.24514864 -0.083700195 -0.17638129 -0.096072845 -0.16603386
-0.13668092 -0.06393479 0.0065275715 -0.022198193 -0.14236729 -0.071035005 -0.16374654 -0.065776214
-0.04522921 -0.11377919 -0.19056574 0.1454767 0.067658335 -0.1386125 -0.011155582 0.039488837
-0.0063900384 -0.07961068 -0.11598957 -0.04633773 -0.012527112 -0.15574262 -0.061948426 0.019006275
0.034456253 -0.012561112 -0.09586697 0.05328606 -0.03486987 -0.043363564 0.00438209 -0.07283294
-7.0342794e-05 -0.08962459 -0.095275156 0.06622851 -0.08723346 -0.032039262 -0.06783336 -0.09008695
0.0015970501 -0.04432569 -0.009275495 0.025309598 0.05610544 -0.011528744 0.0046146046 -0.10207203
-0.06805229 -0.004315582 0.037791774 0.016137047 -0.0046177325 -0.037622504 -0.05631397 -0.052403208
-0.10266899 -0.11477549 -0.049629807 0.008118088 -0.06417896 -0.034838583 0.04996966 -0.014773571
0.04879879 -0.08425941 0.038978603 -0.020407356 -0.0048037516 0.00027052066 -0.021990078 0.043530352
-0.11109972 0.00982394 0.07003343 -0.08271196 -0.07679259 0.049224935 0.051128477 0.0070024077
-0.010894273 -0.0060230447 0.07593219 0.011247105 -0.04706228 -0.054898333 -0.038717084 0.017249214
0.017972017 -0.062189434 -0.003128206 0.046333537 -0.010383915 -0.033371873 -0.11161894 -0.0077249617
0.026083387 -0.03178304 -0.073940955 0.032683056 -0.051804528 -0.022461245 -0.081017956 -0.06893117
0.01219467 -0.0036980903 0.037681375 0.053092293 0.00031816727 0.025809567 0.043436427 -0.048102617
-0.009228835 -0.08522006 -0.094688974 0.01623199 -0.09148319 -0.10153365 -0.088185616 -0.027275192
0.06227318 0.10396326 -0.021553246 -0.07188428 -0.016393436 0.0765587 -0.124420784 -0.02437171
-0.031820383 -0.03982385 -0.025257634 -0.059368737 -0.115431406 -0.0015743893 -0.045958616 0.006166945
0.01901176 -0.07535373 -0.102605626 -0.0829765 -0.03461577 -0.09910631 0.011902076 -0.0022259417
00000000: 20ff 00be 6b7a 1b3d 2f43 93be 2c68 54be
00000010: 4f97 ed3c 70e5 6bbd 83f6 74bd f4b8 10be
00000020: 9317 13bd d268 00bd 3360 3ebc 1267 c63c
00000030: 5c1d 033d 08b4 b23b d7df 013c 692d 96bd
00000040: 2744 f03b 6614 8e3d 1d51 3f3e 04b4 2a3d
00000050: 08f1 063c 610c 48be 9c7c 12bd 25bc 0fbe
00000060: 4597 93bd a0bc 4c3d 0b74 a9bc 443a d7bc
00000070: 9195 ffbd e393 72bd f3eb 21be e10b 0d3d
00000080: efa2 c8bd 81fb 94bd 1cf0 423d 0620 40be
00000090: a6b8 0cbe ac45 e3bd 7707 30be e994 a7bd
000000a0: cc12 0fbe c5ca a73c e579 d23c f55d c53d
000000b0: 0225 933d bf99 e7bc 405c 82bd 9182 d93d
000000c0: 7196 e4bb c0e4 15be 7062 2dbe 07df 8bbd
000000d0: a17b ff3c 631a 4bbe f5fc bcbd 2ba8 3a3e
000000e0: 857b 6a3d b8a7 923c 54e0 a4be c0b3 f1bd
000000f0: 4f53 2dbd 68b5 74bc 0b21 a5bd 61fc 5bbd
00000100: b91a 3dbd 3fa5 cfbd 0852 5d3c 37b2 35be
00000110: 5880 87be 0c7b 30bd 7795 a43d 25a3 283d
00000120: 4105 05be fef0 bebd 88f0 2b3c 3083 5ebe
00000130: abe5 0bbe 0e0e 39be ec0a 86bc 7c5d 31bc
00000140: 8325 f0bd 2152 98bd ac29 d8bd 39ea 763c
00000150: 16f6 a7bd e820 1c3e e6a4 44bd 40bc 22bd
00000160: 4571 8dbd d41e a33c 6b1b 15be 8037 37bd
00000170: a415 df3d eb89 7dbc 32b9 93bd e6d6 8cbe
00000180: 5d81 b3bd 6093 ecbb 38b4 fbbb 8808 98bd
00000190: 87b9 173d 2514 67bd 2e8d 0bbc 1dca 7cbd
000001a0: 837e 63bd 6c9a 6ebd fb9b e2bd 3f08 7bbe
000001b0: 026b abbd 4c9d 34be d7c1 c4bd c804 2abe
000001c0: 15f6 0bbe 3ef0 82bd 3de5 d53b fcd8 b5bc
000001d0: bbc8 11be cd7a 91bd 2cad 27be aeb5 86bd
000001e0: 4442 39bd 1005 e9bd aa23 43be d8f7 143e
000001f0: 7490 8a3d 6ff0 0dbe e7c5 36bc 0cbf 213d
00000200: 8763 d1bb ed0a a3bd f18b edbd a2cc 3dbd
00000210: 843e 4dbc fe7a 1fbe a2bd 7dbd 0cb3 9b3c
00000220: 0022 0d3d 1fcd 4dbc e755 c4bd 7c42 5a3d
00000230: b5d3 0ebd fe9d 31bd a397 8f3b 7029 95bd
00000240: 0085 93b8 198d b7bd 9f1f c3bd d0a2 873d
00000250: 75a7 b2bd 9a3b 03bd 37ec 8abd 827f b8bd
00000260: 1c54 d13a db8e 35bd 3ff8 17bc 1356 cf3c
00000270: d1ce 653d 0fe3 3cbc 1c36 973b 240b d1bd
00000280: 005f 8bbd ba69 8dbb 8ccb 1a3d d731 843c
00000290: 5950 97bb 0e1a 1abd 7aa9 66bd bfa4 56bd
000002a0: 1f44 d2bd 690f ebbd a048 4bbd bb01 053c
000002b0: 4270 83bd e7b2 0ebd fcac 4c3d d90c 72bc
000002c0: 3de1 473d 3390 acbd 07a8 1f3d 542d a7bc
000002d0: ca68 9dbb abd4 8d39 8924 b4bc e24c 323d
000002e0: 4088 e3bd 97f4 203c b06d 8f3d e364 a9bd
000002f0: 6f45 9dbd 16a0 493d 186c 513d 7474 e53b
00000300: e57d 32bc f65c c5bb 5682 9b3d c745 383c
00000310: 61c4 40bd 13dd 60bd ce95 1ebd 394e 8d3c
00000320: 0d3a 933c 59ba 7ebd 9602 4dbb 3cc8 3d3d
00000330: 4c21 2abc f2b0 08bd 7998 e4bd ad21 fdbb
00000340: d4ac d53c ef2e 02bd 5b6e 97bd abde 053d
00000350: fc30 54bd a500 b8bc beec a5bd c92b 8dbd
00000360: 27cc 473c a95b 72bb c957 1a3d 4e77 593d
00000370: b0cf a639 966e d33c 65ea 313d 4007 45bd
00000380: 8a34 17bc db87 aebd 4bec c1bd f3f8 843c
00000390: 8a5b bbbd e0f0 cfbd a99a b4bd 3970 dfbc
000003a0: 2912 7f3d b1ea d43d 6f90 b0bc 1138 93bd
000003b0: 874b 86bc cfca 9c3d 53d0 febd 2ea7 c7bc
000003c0: 1756 02bd 551e 23bd 19e9 cebc a22c 73bd
000003d0: 4d67 ecbd bd5b ceba 1a3f 3cbd 1614 ca3b
000003e0: 8dbe 9b3c 0e53 9abd e622 d2bd 95ef a9bd
000003f0: 44c9 0dbd 40f8 cabd ed00 433c 1be1 11bb

encoder.encoder_net.2.bias f4 [64]
0.12608533 0.13221447 0.6450392 -0.08857023 -0.041143835 1.1626097 -0.0185258 1.232357
1.0552698 0.1047771 0.8494005 0.90797883 0.06533804 -0.07519833 0.1603394 0.027610864
0.016573666 -0.119247645 -0.18067296 -0.02520096 -0.064426444 0.3219493 -0.03348272 0.97835827
-0.088358484 0.03071811 -0.1446776 1.0488235 -0.062606595 1.3941995 0.92609936 0.6545802
0.7861322 -0.036083497 0.87659276 -0.058557305 1.3246356 1.0347042 -0.10263159 1.1399263
-0.019677198 -0.1820468 0.7629227 -0.03520035 -0.062009547 0.49771303 0.020983499 0.003500729
-0.0011163065 0.6543871 1.409583 -0.0774861 0.034262676 0.14578126 1.2604853 0.031932853
-0.12920877 0.04161508 -0.096047014 1.2900987 0.13029027 1.0521628 0.3117626 -0.022749988
00000000: 831c 013e 3b63 073e 4a21 253f 4f64 b5bd
00000010: 7086 28bd 65d0 943f 6bc3 97bc e0bd 9d3f
00000020: 1513 873f 6095 d63d 5072 593f 4d71 683f
00000030: f3cf 853d 9501 9abd 0330 243e 2e30 e23c
00000040: 7fc5 873c 1c38 f4bd 5502 39be 3e72 cebc
00000050: 03f2 83bd 8ad6 a43e 2d25 09bd b075 7a3f
00000060: 4bf5 b4bd 8ca4 fb3c 5d26 14be d93f 863f
00000070: e337 80bd 2175 b23f d914 6d3f 9192 273f
00000080: f63f 493f 4acc 13bd 6268 603f c9d9 6fbd
00000090: a98d a93f 3071 843f 8330 d2bd 1be9 913f
000000a0: 1332 a1bc 7a6a 3abe e74e 433f 3e2e 10bd
000000b0: b9fd 7dbd 3ed4 fe3e 96e5 ab3c 7d6c 653b
000000c0: 0851 92ba ea85 273f 376d b43f 08b1 9ebd
000000d0: 0557 0c3d af47 153e 9557 a13f 06cc 023d
000000e0: 4e4f 04be 9374 2a3d 4cb4 c4bd f421 a53f
000000f0: d06a 053e 45ad 863f 599f 9f3e 2f5e babc

encoder.encoder_net.4.weight f4 [4, 64]
0.024020517 -0.0024834545 -0.050167844 -0.03281144 -0.07501697 -0.013922321 0.017085915 -0.020303661
0.022524463 -0.033999227 -0.007519499 0.0032782776 0.0002117157 0.02396453 0.03616408 0.016285423
-0.003994457 -0.07528588 0.01826209 0.064613864 -0.009527249 -0.066942774 0.029783672 0.0597666
-0.059892934 -0.012147909 -0.14854577 -0.0058553065 -0.013363465 0.04793286 -0.020478154 -0.00010327434
-0.027096288 0.011024975 -0.064915664 -0.04222226 -0.059346426 -0.029507386 -0.020549746 -0.016996395
-0.031593703 0.009830562 -0.06804947 -0.024923261 -0.061507914 0.03894997 0.026517464 0.05852061
-0.00052116497 0.049682043 0.0013245316 -0.024794964 -0.010423502 -0.03794663 0.038643908 -0.023198975
-0.015763042 -0.0077432985 0.004079927 0.02664309 -0.014292069 0.05690143 0.00036853593 -0.0005786405
0.023251751 0.0019981 -0.004493974 0.016082665 0.09967919 0.05094236 0.025051678 -0.040497687
-0.028248329 0.039255712 0.0012998228 -0.015732171 -0.0023967305 -0.009666762 0.03603767 0.019926397
0.015344149 -0.010423687 0.018334143 0.001989129 0.008263029 0.02088462 0.0015941128 -0.056302436
-0.051458377 0.023119861 -0.029339356 0.048857816 0.052641757 -0.024009649 -0.076777324 -0.020104477
-0.061091904 0.0060209157 0.012329842 -0.0010329647 0.019470269 -0.025965253 0.051685005 0.044238728
-0.04095746 -0.008369727 -0.03389562 -0.03835606 -0.01315218 -0.0055944077 0.020972999 0.038936745
0.0017273892 -0.0006288819 0.020192234 -0.023304157 0.0054159784 0.021824997 0.032959692 -0.021605536
0.03962871 -0.0028989285 0.007969992 -0.004946657 0.021771662 -0.09348122 0.011889727 -0.0024126146
-0.00085363217 -0.037656005 -0.037775673 0.08715858 0.031029712 -0.0242607 -0.06096425 -0.062765434
-0.054133363 -0.053429432 -0.19433689 -0.023095552 0.015791984 -0.068027504 -0.045080002 -0.007148084
0.094824195 -0.11185756 0.117568016 0.04028481 0.09504264 0.03176335 -0.051369153 0.06131098
-0.052474067 -0.03592399 -0.12235045 0.00448722 0.075705804 0.005043113 0.005521972 0.020630743
-0.032356795 -0.023942944 0.05042434 0.086279824 -0.0037718706 0.022361843 -0.01938102 0.064666994
-0.052121364 -0.12375889 0.04869044 0.12454655 0.12173027 -0.017455438 0.058936317 0.105829164
0.027431427 0.01978002 0.009069753 -0.004959862 -0.03378462 0.0040493878 -0.012700097 -0.0388137
-0.06574457 0.012971467 0.09307103 -0.051673673 0.02422372 0.029109145 0.040757045 0.01940998
0.034229286 -0.021653956 -0.043074816 -0.035665646 -0.098332435 0.011254844 0.028045615 -0.014666833
-0.08296456 0.09416355 -0.21154097 0.04875023 -0.14823663 0.04620305 0.021127496 0.031988822
0.048020784 -0.015699452 0.08804592 -0.06661318 -0.009338081 -0.013961025 0.026630284 0.07209603
-0.0725947 0.082283124 -0.1544937 0.029687477 0.0421265 -0.0015321786 0.047919743 -0.021554023
0.04175811 -0.08304949 0.0069941017 0.03456538 -0.05103173 -0.02284917 -0.116712555 0.05410315
-0.070150815 0.034403894 0.030530853 0.020011246 -0.033713877 0.011650631 0.07966476 -0.028236635
-0.020294338 0.010962392 -0.008556048 -0.03914422 -0.065277964 -0.010126508 -0.017682504 -0.0076558436
-0.061998256 0.077908754 -0.07070615 -0.068776876 -0.0067884647 0.03080274 -0.054005906 -0.12809977
00000000: adc6 c43c 74c1 22bb cc7c 4dbd 4a65 06bd
00000010: 7fa2 99bd 721a 64bc c3f7 8b3c dd53 a6bc
00000020: 3985 b83c c642 0bbd 2166 f6bb 5fd8 563b
00000030: 0000 5e39 4351 c43c c920 143d 0269 853c
00000040: efe3 82bb 7c2f 9abd 619a 953c 4654 843d
00000050: 2e18 1cbc 4b19 89bd e3fc f33c d3cd 743d
00000060: 4b52 75bd 0608 47bc 621c 18be dfdd bfbb
00000070: 6ff2 5abc 3f55 443d cdc1 a7bc fd94 d8b8
00000080: 09f9 ddbc 19a2 343c 81f2 84bd 40f1 2cbd
00000090: 3d15 73bd 79b9 f1bc f157 a8bc 063c 8bbc
000000a0: 6668 01bd 5e10 213c 855d 8bbd de2b ccbc
000000b0: b9ef 7bbd 018a 1f3d 273b d93c 4fb3 6f3d
000000c0: ca9e 08ba 667f 4b3d e89b ad3a cf1e cbbc
000000d0: 56c7 2abc ed6d 1bbd 1349 1e3d c70b bebc
000000e0: 7f21 81bc 7fbb fdbb e9b0 853b 9c42 da3c
000000f0: 4829 6abc 7911 693d 0e38 c139 e8af 17ba
00000100: 757a be3c 8ef2 023b 3042 93bb cbbf 833c
00000110: 9a24 cc3d f0a8 503d 2d39 cd3c e7e0 25bd
00000120: 0a69 e7bc 99ca 203d d15e aa3a c1e0 80bc
00000130: 7712 1dbb 5761 1ebc 3c9c 133d af3c a33c
00000140: 0766 7b3c 1dc8 2abc 7c31 963c 0c5c 023b
00000150: a861 073c 3916 ab3c 8df1 d03a 629d 66bd
00000160: 05c6 52bd dd65 bd3c 1759 f0bc 221f 483d
00000170: e29e 573d e2af c4bc 6e3d 9dbd 25b2 a4bc
00000180: 813b 7abd 1a4b c53b 1b03 4a3c 8b64 87ba
00000190: 1d80 9f3c 15b5 d4bc a8b3 533d ab33 353d
000001a0: 02c3 27bd 2e21 09bc 22d6 0abd 3e1b 1dbd
000001b0: 3e7c 57bc 4b51 b7bb 91cf ab3c 237c 1f3d
000001c0: 9069 e23a 8ddb 24ba 2f6a a53c 5ce8 bebc
000001d0: 8578 b13b 56ca b23c be00 073d 18fe b0bc
000001e0: b751 223d f3fb 3dbb 9294 023c 9117 a2bb
000001f0: 7c5a b23c 1573 bfbd 21cd 423c f51c 1ebb
00000200: 49c6 5fba 2f3d 1abd aaba 1abd 3380 b23d
00000210: 0632 fe3c 60be c6bc a6b5 79bd 2a8b 80bd
00000220: f2ba 5dbd d2d8 5abd 4000 47be e232 bdbc
00000230: 315e 813c 0152 8bbd cfa5 38bd 7a3a eabb
00000240: 3033 c23d 9415 e5bd 80c7 f03d af01 253d
00000250: b7a5 c23d 491a 023d 7668 52bd 3921 7b3d
00000260: 0cef 56bd 0925 13bd df92 fabd 8809 933b
00000270: a50b 9b3d b340 a53b a9f1 b43b ce01 a93c
00000280: 8f88 04bd fe23 c4bc c189 4e3d 7ab3 b03d
00000290: 7d31 77bb 2f30 b73c f2c4 9ebc 2170 843d
000002a0: 367d 55bd 4d75 fdbd a06f 473d 4312 ff3d
000002b0: b84d f93d b5fe 8ebc 3567 713d f6bc d83d
000002c0: dfb7 e03c b509 a23c 4d99 143c 5786 a2bb
000002d0: be61 0abd bab0 843b 1114 50bc 1dfb 1ebd
000002e0: 17a5 86bd 4786 543c 069c be3d c6a7 53bd
000002f0: d370 c63c 4d76 ee3c dcf0 263d ae01 9f3c
00000300: 0234 0c3d a363 b1bc 386f 30bd 2416 12bd
00000310: 8462 c9bd 3d66 383c ebbf e53c 284d 70bc
00000320: 53e9 a9bd d2d8 c03d 329e 58be 52ae 473d
00000330: 58cb 17be 693f 3d3d 9213 ad3c b606 033d
00000340: 71b1 443d 239c 80bc 6b51 b43d 7e6c 88bd
00000350: c0fe 18bc c8bc 64bc c127 da3c 15a7 933d
00000360: 88ac 94bd 0e84 a83d 9933 1ebe 2733 f33c
00000370: d68c 2c3d 62d3 c8ba 7e47 443d 1092 b0bc
00000380: 8d0a 2b3d da15 aabd c72e e53b 6e94 0d3d
00000390: a606 51bd 2f2e bbbc fe06 efbd 449b 5d3d
000003a0: 3bab 8fbd 19eb 0c3d d71b fa3c a0ee a33c
000003b0: 9017 0abd 4ae2 3e3c 4727 a33d 8450 e7bc
000003c0: 5040 a6bc 9b9b 333c ab2e 0cbc b155 20bd
000003d0: 74b0 85bd a7e9 25bc e6da 90bc dfdd fabb
000003e0: e2f1 7dbd a08e 9f3d 63ce 90bd e4da 8cbd
000003f0: c571 debb 0756 fc3c 4c35 5dbd 962c 03be

encoder.encoder_net.4.bias f4 [4]
-0.07411472 0.075622305 -2.2127347 -2.3595023
00000000: 75c9 97bd dedf 9a3d 729d 0dc0 1602 17c0

decoders.0.decoder_net.0.weight f4 [128, 2]
-0.50647795 -0.3059441 0.5784329 -1.1528939 0.65144944 0.6541341 0.9469916 -0.6904087
-0.41043863 -0.65409356 -0.13269328 1.3774748 -0.28543907 0.00837857 0.01882855 1.3958248
0.21192528 0.8005162 0.26002842 1.3185349 0.9462199 1.0329158 -1.6024883 0.2489989
1.0710926 -0.08708931 0.6349764 -0.05780476 0.807073 -0.99722505 0.075813435 1.8434287
-0.92741877 0.5091559 -0.34803897 1.1747437 -1.9140257 -0.65850914 -1.051642 1.2228485
0.8183544 -0.46976015 0.30027005 1.0653164 -0.010331204 0.08925649 0.11491177 0.09912489
-0.522456 -0.670993 -0.65699935 -2.4616942 -1.4013276 -1.4489025 -1.4503037 0.42725742
-1.1041125 1.3714272 1.2190639 0.83305466 0.03472363 -0.61668444 0.86980164 0.032594554
1.8786224 -0.6523346 0.6304466 1.2532564 1.493392 0.3481778 -1.0204847 2.3732693
-1.8230187 -1.1585295 -1.2337561 -0.22750263 -0.14130019 -1.460311 -1.1993076 -0.07215515
1.8697042 -1.361898 -0.6168762 0.98023576 1.0553274 -0.4670428 -0.31369764 -0.51637876
1.0768186 0.04424939 -1.5748667 -0.5626722 -0.36899787 -0.62089145 0.6499618 1.1466786
-0.17324694 -0.07174447 -0.4585375 -0.73651475 0.9113129 1.7943013 -0.38853395 -1.078489
-0.3400924 1.9576741 0.22544177 0.17980568 0.87990195 -1.2603977 -1.3599135 1.010612
-1.5184886 0.4961027 0.5000865 0.95480835 0.4820584 0.71628505 -0.36356488 -1.085637
-0.30714095 -1.1068083 0.07212247 1.1251024 0.9333338 0.268934 1.1003299 0.5031153
-0.114068925 -1.5623673 -1.8929374 0.20299087 -0.34215266 -0.5089159 0.042306557 1.3985947
-1.1579556 -0.09098121 -0.40902832 -1.6342609 0.34984493 0.00029667612 0.78124046 0.16623954
1.0708506 0.81532973 0.75753546 -0.67617476 -1.1793158 0.9007762 0.65778 -0.15521358
-1.4498737 0.9276094 -0.48084646 1.237069 0.03170598 -0.14682639 0.23197398 -0.19623221
-1.2378026 0.92805505 -0.7210633 -2.0792713 0.88779783 0.6722646 -0.2944801 -0.13163197
-0.055675514 0.010161521 -0.3531285 1.4952677 0.21782868 -0.31792054 -1.1601954 -0.3709467
-0.42976156 2.0317004 1.3252811 0.79006183 0.54744655 1.1110146 -0.8202415 1.2409084
-0.33886725 -0.53235954 0.4486284 -1.9371674 0.545738 0.62271184 0.89402366 -1.0827771
-0.5654341 -1.3683821 -0.12981859 0.63892055 0.27033445 -1.3100795 0.19773531 0.16294351
0.17631836 -1.2720624 -0.98021495 1.2401078 -0.3601613 1.3467814 -1.5170097 0.19052777
-0.99761236 0.14244375 0.50501853 -1.2590114 -0.22595768 -2.259808 -0.36754093 -1.2320393
-0.5978241 -0.86463517 0.90812016 -0.3194662 0.71180946 -0.5357773 -0.2518588 1.8157359
0.11058924 2.0649266 -1.390367 0.9177391 0.28101027 -0.57145643 0.93290097 0.29352772
0.039742973 1.3672339 0.6749166 -1.2926694 0.8339656 0.57250684 -1.9415172 -0.08249576
0.6403433 1.0273021 0.87603015 1.5757042 0.21461332 0.075900294 -1.53965 1.5236046
0.10766683 -0.07088647 0.89265364 -0.870474 -0.53427124 -1.9497585 0.40395594 0.84454346
00000000: 8aa8 01bf b4a4 9cbe 2e14 143f 0792 93bf
00000010: 64c5 263f 5575 273f 0b6e 723f a0be 30bf
00000020: 0325 d2be ad72 27bf bfe0 07be 1851 b03f
00000030: 1225 92be 4546 093c 553e 9a3c 63aa b23f
00000040: f102 593e a1ee 4c3f 7222 853e c0c5 a83f
00000050: 783b 723f 9636 843f 561e cdbf 91f9 7e3e
00000060: 9019 893f e15b b2bd d08d 223f afc4 6cbd
00000070: 569c 4e3f 244a 7fbf 1344 9b3d 79f5 eb3f
00000080: 516b 6dbf 0b58 023f 2a32 b2be 005e 963f
00000090: cbfe f4bf 0e94 28bf 349c 86bf 4d86 9c3f
000000a0: ad7f 513f 6784 f0be ffbc 993e 4a5c 883f
000000b0: 3644 29bc 1bcc b63d dd56 eb3d fe01 cb3d
000000c0: adbf 05bf 32c6 2bbf 1c31 28bf 668c 1dc0
000000d0: b45e b3bf a375 b9bf 8da3 b9bf 7cc1 da3e
000000e0: 8f53 8dbf ed8a af3f 490a 9c3f 1243 553f
000000f0: 5d3a 0e3d 08df 1dbf 52ab 5e3f de81 053d
00000100: b376 f03f 66ff 26bf f364 213f b56a a03f
00000110: 7827 bf3f 5c44 b23e 3e9f 82bf a5e3 1740
00000120: ad58 e9bf b24a 94bf b8eb 9dbf 73f6 68be
00000130: ffb0 10be 79eb babf e982 99bf 14c6 93bd
00000140: 7852 ef3f ac52 aebf 99eb 1dbf bbf0 7a3f
00000150: f814 873f 3c20 efbe fa9c a0be 6631 04bf
00000160: 31d5 893f d93e 353d 3b95 c9bf 490b 10bf
00000170: 4aed bcbe bef2 1ebf e663 263f 5dc6 923f
00000180: a567 31be c4ee 92bd 6dc5 eabe 3b8c 3cbf
00000190: cd4b 693f aaab e53f eced c6be ed0b 8abf
000001a0: 9720 aebe 1195 fa3f 35da 663e fb1e 383e
000001b0: 4141 613f b654 a1bf a511 aebf bc5b 813f
000001c0: d65d c2bf 2c01 fe3e ab05 003f 526e 743f
000001d0: 5cd0 f63e 755e 373f 2d25 babe 27f6 8abf
000001e0: 9441 9dbe e5ab 8dbf f2b4 933d 5b03 903f
000001f0: f7ee 6e3f b8b1 893e 9cd7 8c3f 2acc 003f
00000200: f89c e9bd a7fb c7bf c64b f2bf d7dc 4f3e
00000210: a22e afbe 5048 02bf a449 2d3d 2705 b33f
00000220: e437 94bf 5b54 babd 296c d1be 762f d1bf
00000230: e01e b33e 328b 9b39 60ff 473f b33a 2a3e
00000240: a211 893f 73b9 503f d8ed 413f ca19 2dbf
00000250: d2f3 96bf 4599 663f 4564 283f 4ff0 1ebe
00000260: 7695 b9bf cf77 6d3f 8231 f6be 4758 9e3f
00000270: 21de 013d a859 16be 968a 6d3e 19f1 48be
00000280: 5170 9ebf 0495 6d3f 9b97 38bf c812 05c0
00000290: b846 633f 8819 2c3f 18c6 96be 88ca 06be
000002a0: 020c 64bd 827c 263c 42cd b4be ef64 bf3f
000002b0: 7b0e 5f3e 7bc6 a2be 4881 94bf baec bdbe
000002c0: b509 dcbe 6107 0240 d0a2 a93f 7e41 4a3f
000002d0: 7525 0c3f ba35 8e3f 59fb 51bf 16d6 9e3f
000002e0: 0280 adbe b748 08bf 9fb2 e53e 1af5 f7bf
000002f0: 7cb5 0b3f 0b6a 1f3f bcde 643f 7198 8abf
00000300: 4ac0 10bf 2527 afbf 2aef 04be 4c90 233f
00000310: 4769 8a3e afb0 a7bf 207b 4a3e aada 263e
00000320: cd8c 343e f1d2 a2bf 5eef 7abf dabb 9e3f
00000330: 1067 b8be 5563 ac3f 602d c2bf b619 433e
00000340: 8663 7fbf c6dc 113e e548 013f 4927 a1bf
00000350: 7361 67be b2a0 10c0 532e bcbe 77b3 9dbf
00000360: 000b 19bf bb58 5dbf 907a 683f 1391 a3be
00000370: 2539 363f b328 09bf a3f3 80be 096a e83f
00000380: 9d7c e23d c227 0440 8cf7 b1bf f3f0 6a3f
00000390: 94e0 8f3e f84a 12bf 99d2 6e3f 4449 963e
000003a0: 87c9 223d 8501 af3f 56c7 2c3f 3176 a5bf
000003b0: c57e 553f cf8f 123f a383 f8bf 89f3 a8bd
000003c0: 8aed 233f a37e 833f 8343 603f adb0 c93f
000003d0: 98c3 5b3e 9d71 9b3d 4013 c5bf 7a05 c33f
000003e0: 6d80 dc3d ed2c 91bd f384 643f 62d7 5ebf
000003f0: 00c6 08bf b091 f9bf 50d3 ce3e 0034 583f

decoders.0.decoder_net.0.bias f4 [128]
1.152334 -0.51183796 0.5532461 -0.13384558 0.6358887 -0.9186603 0.68862957 0.10432126
0.9651586 -0.42227912 -1.2063279 -0.5791708 -0.8031463 0.57021886 -0.7563981 0.12824082
0.7801533 0.81586784 -1.0793976 -1.2493045 0.4866786 0.18234146 -0.44837695 0.5099314
0.8475029 -0.30863932 -0.48784074 -0.19407278 -0.318123 -0.3490743 0.19144891 0.8235633
-1.0447063 -0.97692096 -0.3300941 0.4012443 -0.4809569 0.3237491 0.08148782 0.5701895
-0.8051476 -0.72709805 -0.18225397 0.5132156 1.1961666 0.7234169 0.5741623 -0.0064033293
0.40011963 0.7627968 -0.72568274 0.33122364 0.8169811 0.75346583 -1.0568278 0.1732042
0.4485505 0.87758297 0.35874122 0.34840867 0.5383032 0.089508206 0.9189244 -1.4916621
0.10231812 -0.96734124 0.695493 -0.923416 0.36774346 -0.31932265 0.46299103 0.767836
-0.8678035 0.7717797 -0.7468359 0.858878 -0.9133447 -0.671438 -0.48427173 0.7348056
0.19098881 -0.84184647 0.5922423 0.684187 -0.31617108 -0.46282348 0.42038387 0.60131764
-0.73404396 0.12819125 -0.63226366 -0.36672074 0.53873426 -0.5091227 0.8644136 -0.67704105
-0.0017230434 0.95087385 -0.21322088 0.7092471 -0.07551225 -0.67244494 0.6021309 0.044439055
0.6843451 -1.0033282 0.110463 0.33813748 0.9337746 -0.76506364 0.53245777 -1.040968
0.15798993 0.63317734 0.53377366 -1.1774496 0.0887172 -0.6042337 -0.7244501 -0.27732643
0.15310805 -0.057323303 0.6472256 -0.120159954 0.62487084 -0.51336354 -0.4233921 0.35580269
00000000: ae7f 933f d007 03bf 89a1 0d3f d10e 09be
00000010: 9ac9 223f 522d 6bbf 074a 303f 62a6 d53d
00000020: a214 773f f834 d8be f468 9abf 8a44 14bf
00000030: ff9a 4dbf ddf9 113f 4ea3 41bf 9051 033e
00000040: 20b8 473f b7dc 503f b329 8abf 36e9 9fbf
00000050: f02d f93e b8b7 3a3e aa91 e5be dd8a 023f
00000060: f3f5 583f f905 9ebe 43c6 f9be 04bb 46be
00000070: 05e1 a2be deb9 b2be 2f0b 443e 0bd5 523f
00000080: f0b8 85bf 7e17 7abf 1802 a9be e56f cd3e
00000090: fc3f f6be 71c2 a53e 16e3 a63d f0f7 113f
000000a0: 271e 4ebf 1923 3abf c9a0 3abe 1962 033f
000000b0: fd1b 993f da31 393f 4dfc 123f 05d3 d1bb
000000c0: 7bdc cc3e a746 433f 58c6 39bf 2596 a93e
000000d0: ac25 513f 23e3 403f 2246 87bf 715c 313e
000000e0: 69a8 e53e 47a9 603f eeac b73e 9f62 b23e
000000f0: 3dce 093f 1450 b73d a13e 6b3f c9ee bebf
00000100: 2a8c d13d ada3 77bf d40b 323f fe64 6cbf
00000110: df48 bc3e 427e a3be 290d ed3e e690 443f
00000120: 5f28 5ebf 5b93 453f a330 3fbf 6edf 5b3f
00000130: f5d0 69bf 5ce3 2bbf 77f2 f7be 381c 3c3f
00000140: 9292 433e 4083 57bf 319d 173f e126 2f3f
00000150: 2de1 a1be 33f7 ecbe 8e3c d73e f4ef 193f
00000160: 4eea 3bbf 9144 033e 08dc 21bf d2c2 bbbe
00000170: 7dea 093f de55 02bf 364a 5d3f 9052 2dbf
00000180: bed7 e1ba 786c 733f 9356 5abe 3891 353f
00000190: 2ba6 9abd 5a25 2cbf 4025 1a3f ba05 363d
000001a0: 3e31 2f3f 0f6d 80bf 6d3a e23d 5b20 ad3e
000001b0: da0b 6f3f 36db 43bf 274f 083f 703e 85bf
000001c0: 1dc8 213e e917 223f 64a5 083f abb6 96bf
000001d0: 5db1 b53d 0faf 1abf 9075 39bf bbfd 8dbe
000001e0: 5bc8 1c3e d7cb 6abd 94b0 253f 6c16 f6bd
000001f0: 89f7 1f3f cb6b 03bf d9c6 d8be c52b b63e

decoders.0.decoder_net.2.weight f4 [128, 128]
0.03142761 -0.07970199 -0.024518033 -0.061380804 -0.053812336 0.054495346 0.05427078 -0.020694861
-0.004946707 -0.07523892 0.08072985 0.010428592 0.05693608 0.024498193 -0.024364218 -0.04879117
0.02894107 0.0031861046 0.029750744 -0.032944858 0.03444628 -0.07831916 0.037564557 -0.01437113
-0.07921621 -0.025997639 0.013952266 -0.05742239 -0.034445476 0.086390145 -0.082114264 0.031590242
-0.051614158 -0.06110625 -0.061352734 -0.017648296 -0.07492399 0.07165548 -0.06652609 0.028191786
-0.0014252273 -0.021542307 -0.059141953 0.0023758425 -0.076706514 0.04976997 0.028381202 0.05568527
0.049802426 0.048027348 0.01039651 0.016236925 -0.06348164 0.00061806245 0.08068958 0.011783034
0.0715405 -0.03325046 0.05215171 -0.08994266 -0.04588038 -0.060662992 -0.027878022 -0.086318724
-0.057175845 0.016414007 0.019770497 0.04390909 -0.06874294 -0.0870272 -0.0280855 -0.051677957
0.0038392618 0.06381932 0.05865475 0.048374392 0.008645452 0.07051599 0.048094336 -0.08211711
0.018886626 0.0358855 0.028037643 0.05189895 -0.06043403 -0.03597432 0.053766567 -0.027684366
0.023289336 -0.03549007 -0.009420442 0.002909633 -0.086089365 -0.013365587 -0.085376054 0.011900605
0.020300452 0.0127672665 0.05737031 -0.022585109 -0.006429744 -0.092778854 0.03760719 -0.068899386
-0.071503274 -0.085645206 -0.039800428 -0.07686008 -0.045513365 -0.0032463293 0.032949522 0.031525947
-0.051275294 -0.01354183 -0.07015204 0.0559967 -0.05550469 -0.03607294 0.033190485 0.06856046
0.044176515 -0.01359023 -0.08086044 -0.02379275 0.041758206 0.06642246 -0.03274277 0.024415268
0.24800986 -0.025510855 -0.042587582 -0.42102867 0.16128996 -0.093024425 0.10274088 -1.7727847
0.05565866 1.5328168 0.38832685 0.58005464 0.503206 0.32144818 0.13233505 -2.110131
0.20886652 -0.03045715 0.31534755 -0.12508073 0.25428182 -0.5126387 0.07840494 0.0842613
0.27888158 -0.62618494 -0.22237995 0.56677264 -0.09078315 0.026196755 -0.03280301 0.20114961
1.3111316 0.6177059 -0.23320939 -1.8958942 -0.13503997 0.121249765 0.20231444 0.20235997
-0.44098184 -0.96371365 -0.18086466 0.20142074 0.30304974 0.14363074 0.15908907 -0.28946152
0.15909515 0.24150163 1.4203074 0.2608441 -0.14875129 -0.106202304 -0.49901322 -0.104448065
0.22809625 0.4009502 -0.38349977 0.121497065 0.20458728 -2.4824855 0.3463976 0.38879865
-0.17993267 0.5521459 0.1659065 -0.00720334 0.022748606 -2.2727478 0.08520602 0.31179902
0.2412813 -0.13019277 0.6121709 -0.03155179 1.0753639 -0.74672306 -0.039799206 -0.07497561
-0.30407396 -1.5442576 0.07999859 0.20297343 0.057367373 -0.4969547 -0.06452865 0.23300418
0.24291328 0.03744055 1.5627706 -0.8187911 0.095613904 -1.8107152 0.3977554 -0.15060286
-0.23504023 0.01640259 -1.4564961 0.050249822 -0.88299024 -0.9833969 -0.078923054 0.23994386
0.2812487 -0.48619547 0.27389297 0.2890541 0.15782712 0.52266544 -0.085403554 -0.05667659
-2.4321604 0.32360932 -0.1008824 0.50046134 -2.0740757 -0.14476785 0.13050248 0.46334758
-0.20987046 -0.3232659 -0.08508311 -1.0675069 0.013045368 -0.14419873 -1.6692827 -0.49568644
00000000: 3dba 003d cc3a a3bd 0bda c8bc 706a 7bbd
00000010: 536a 5cbd 8336 5f3d 0a4b 5e3d 4588 a9bc
00000020: fc17 a2bb dd16 9abd b155 a53d afdc 2a3c
00000030: cf35 693d 6fb0 c83c 7897 c7bc 40d9 47bd
00000040: d315 ed3c f7cd 503b d5b7 f33c 30f1 06bd
00000050: 8b17 0d3d cc65 a0bd 4bdd 193d e374 6bbc
00000060: 1c3c a2bd 00f9 d4bc 0c98 643c bd33 6bbd
00000070: b316 0dbd 51ed b03d 862b a8bd c564 013d
00000080: 5e69 53bd 8c4a 7abd 014d 7bbd 2993 90bc
00000090: c071 99bd 1cc0 923d d53e 88bd 76f2 e63c
000000a0: b1ce baba 7e79 b0bc d53e 72bd 06b4 1b3b
000000b0: 4e18 9dbd 99db 4b3d b27f e83c 3d16 643d
000000c0: a1fd 4b3d 53b8 443d 2056 2a3c 4d03 853c
000000d0: a902 82bd 7805 223a 9440 a53d a00d 413c
000000e0: d383 923d a231 08bd 089d 553d db33 b8bd
000000f0: 11ed 3bbd c279 78bd 7360 e4bc dfc7 b0bd
00000100: 3831 6abd ab76 863c bdf5 a13c 05da 333d
00000110: 19c9 8cbd 513b b2bd 9013 e6bc 44ac 53bd
00000120: 209c 7b3b b4b3 823d f73f 703d 3a24 463d
00000130: a7a5 0d3c b06a 903d 91fe 443d 042d a8bd
00000140: 20b8 9a3c adfc 123d 33af e53c fe93 543d
00000150: ac89 77bd cf59 13bd 553a 5c3d 53ca e2bc
00000160: 47c9 be3c 095e 11bd 3358 1abc 8baf 3e3b
00000170: 9f4f b0bd 56fb 5abc a4d9 aebd c1fa 423c
00000180: 224d a63c cc2d 513c 21fd 6a3d 6804 b9bc
00000190: 9ab0 d2bb d702 bebd ff09 1a3d 1f1b 8dbd
000001a0: 4f70 92bd c166 afbd c605 23bd d168 9dbd
000001b0: 396c 3abd 5ec0 54bb 14f6 063d 5a21 013d
000001c0: 0b06 52bd 8dde 5dbc dfab 8fbd cc5c 653d
000001d0: e358 63bd 38c1 13bd bff2 073d 6d69 8c3d
000001e0: 6ff2 343d 8ea9 5ebc 299a a5bd 03e9 c2bc
000001f0: a70a 2b3d 8008 883d 481d 06bd 8702 c83c
00000200: 4cf6 7d3e 24fc d0bc 5170 2ebd 1291 d7be
00000210: 3229 253e 9783 bebd cf69 d23d 9cea e2bf
00000220: 56fa 633d 5733 c43f c7d2 c63e 767e 143f
00000230: 1cd2 003f db94 a43e d782 073e 630c 07c0
00000240: 1be1 553e 4681 f9bc 3c75 a13e 2a15 00be
00000250: 3a31 823e 4a3c 03bf c592 a03d 3091 ac3d
00000260: 91c9 8e3e a84d 20bf 92b7 63be 0318 113f
00000270: 84ec b9bd 949a d63c 735c 06bd 2afa 4d3e
00000280: 29d3 a73f f921 1e3f 71ce 6ebe a9ac f2bf
00000290: eb47 0abe cc51 f83d 842b 4f3e 7437 4f3e
000002a0: 5fc8 e1be f0b5 76bf 9634 39be 3d41 4e3e
000002b0: 5629 9b3e f013 133e 3fe8 223e 4d34 94be
000002c0: d7e9 223e 344c 773e a2cc b53f 5c8d 853e
000002d0: 4252 18be 9880 d9bd a97e ffbe dee8 d5bd
000002e0: 1092 693e 5849 cd3e 155a c4be 74d3 f83d
000002f0: 547f 513e 0be1 1ec0 075b b13e 9e10 c73e
00000300: 4540 38be 6f59 0d3f 65e3 293e ff09 ecbb
00000310: 495b ba3c b374 11c0 7e80 ae3d 1fa4 9f3e
00000320: 7212 773e 4151 05be 3bb7 1c3f 733c 01bd
00000330: 86a5 893f 3e29 3fbf 7e04 23bd d08c 99bd
00000340: 95af 9bbe 3caa c5bf 4dd6 a33d 44d8 4f3e
00000350: 0dfa 6a3d d970 febe 9927 84bd a698 6e3e
00000360: 42be 783e 435b 193d de08 c83f 4b9c 51bf
00000370: 39d1 c33d 84c5 e7bf 99a6 cb3e a337 1abe
00000380: 63ae 70be b95e 863c 776e babf c2d2 4d3d
00000390: a60b 62bf e6bf 7bbf 69a2 a1bd d8b3 753e
000003a0: d4ff 8f3e 9dee f8be b33b 8c3e e6fe 933e
000003b0: 6f9d 213e 67cd 053f 0fe8 aebd b625 68bd
000003c0: 84a8 1bc0 1fb0 a53e 6f9b cebd 3c1e 003f
000003d0: a8bd 04c0 063e 14be 71a2 053e e53b ed3e
000003e0: 48e8 56be 1c83 a5be 0e40 aebd 11a4 88bf
000003f0: 3dbc 553c d5a8 13be 0eab d5bf 9dca fdbe

decoders.0.decoder_net.2.bias f4 [128]
-0.08966775 0.056670226 0.0650396 -0.008151186 0.029895503 0.116409004 -0.05236048 0.071732916
-0.07348904 -0.024870884 0.1532385 0.07586591 0.16703102 0.06802087 0.27396226 0.17223985
0.26438642 0.28246802 0.10256865 0.0060674245 0.20274775 -0.0691487 0.13450654 0.06244389
-0.09790226 -0.03782299 -0.0332182 -0.091266096 0.034879345 0.15102474 0.15707274 -0.124853976
0.12901293 -0.0022437237 -0.002373223 0.08467856 0.23206027 0.065717705 0.026329057 0.09668256
0.07680011 -0.041270386 -0.03272699 0.04538693 0.06176699 -0.07624825 0.20633303 -0.07183427
-0.11547881 0.31271306 0.0303335 -0.019566435 -0.035850048 0.009615878 -0.0017909077 0.15031043
-0.002397079 0.02568707 0.12477055 0.046241265 0.15679844 -0.012112606 0.12098276 -0.047309782
0.102400474 -0.08323256 0.10008607 0.01831244 -0.007440936 0.15226947 0.2288462 -0.019988138
-0.030041574 0.040376056 0.035593893 0.09068928 0.16677031 0.12895359 -0.090411425 -0.0055013183
0.006885263 -0.040333934 0.09720507 0.1480482 0.073135726 -0.077815935 -0.07243089 -0.09530292
0.069061756 0.058413617 0.19558583 -0.008097152 0.068632975 -0.085322335 0.10820537 0.12552102
-0.02670666 -0.03640937 0.19140054 0.16359842 0.055019666 0.07802572 -0.028208682 -0.05089546
-0.079373755 0.13356473 0.050652947 0.011585472 0.05627293 0.11554899 0.11903689 0.05026775
-0.009488364 -0.015839303 -0.01787328 -0.07732555 0.18729462 -0.112311944 -0.0953231 0.12881507
0.16050734 0.24004269 -0.040291365 0.073797904 0.017653333 0.100784875 -0.0023114963 -0.11784185
00000000: baa3 b7bd 0a1f 683d 7b33 853d 8d8c 05bc
00000010: 6ae7 f43c d867 ee3d f177 56bd b5e8 923d
00000020: 6c81 96bd 06be cbbc 8eea 1c3e 965f 9b3d
00000030: 2e0a 2b3e 874e 8b3d c844 8c3e a55f 303e
00000040: a85d 873e a69f 903e 830f d23d 3fd1 c63b
00000050: 1b9d 4f3e d59d 8dbd 15bc 093e 2ac5 7f3d
00000060: fb80 c8bd 48ec 1abd cf0f 08bd b8e9 babd
00000070: a5dd 0e3d 3ba6 1a3e add7 203e 71b3 ffbd
00000080: f71b 043e 700b 13bb 1388 1bbb f46b ad3d
00000090: 35a1 6d3e 0197 863d 09b0 d73c 8201 c63d
000000a0: 6049 9d3d 230b 29bd bc0c 06bd a5e7 393d
000000b0: 62ff 7c3d 0b28 9cbd f748 533e d91d 93bd
000000c0: 2880 ecbd ed1b a03e f67d f83c ca49 a0bc
000000d0: 80d7 12bd ea8b 1d3c e4bc eaba faea 193e
000000e0: 5018 1dbb b16d d23c b487 ff3d 7b67 3d3d
000000f0: c58f 203e f473 46bc cfc5 f73d e7c7 41bd
00000100: 57b7 d13d d575 aabd edf9 cc3d f803 963c
00000110: 18d3 f3bb 87ec 1b3e a956 6a3e 2abe a3bc
00000120: bf19 f6bc 5d61 253d e7ca 113d 4dbb b93d
00000130: d6c5 2a3e 690c 043e a029 b9bd 6744 b4bb
00000140: c69d e13b 3235 25bd 7413 c73d f399 173e
00000150: 2fc8 953d f65d 9fbd a556 94bd 2d2e c3bd
00000160: 4070 8d3d 1e43 6f3d a747 483e eba9 04bc
00000170: 728f 8c3d 7abd aebd c79a dd3d 9588 003e
00000180: edc7 dabc fe21 15bd 81fe 433e 5886 273e
00000190: 4d5c 613d f3cb 9f3d e515 e7bc c277 50bd
000001a0: b58e a2bd 31c5 083e 7779 4f3d fed0 3d3c
000001b0: 727e 663d f3a4 ec3d 9dc9 f33d 8ee5 4d3d
000001c0: 1575 1bbc 6dc1 81bc fc6a 92bc dc5c 9ebd
000001d0: 29ca 3f3e ce03 e6bd c238 c3bd 19e8 033e
000001e0: 095c 243e c0cd 753e 8f08 25bd 5b23 973d
000001f0: b99d 903c 4d68 ce3d 797c 17bb 1157 f1bd

decoders.0.decoder_net.4.weight f4 [100, 128]
0.08485039 2.6999073 0.08929101 -0.8324272 0.51562196 -0.25295004 -0.06864953 1.6821183
0.093617946 -0.2907817 -0.5808853 2.0123353 -0.7496901 -0.0006506209 -1.1380887 1.2109375
-2.5128713 -0.53371394 1.0618902 0.03260644 0.04700535 0.0039741592 2.434501 0.797875
0.0079018315 -0.0325447 -0.4573038 -0.008782154 0.53696156 -0.6333374 -0.94153905 1.1104287
1.5366566 0.9076759 0.022094004 -0.35057497 0.4418092 0.07679073 -0.022926072 -1.8660802
-0.09129737 -0.056343425 0.11882536 0.36605516 0.39774594 -0.012180061 -1.0032914 0.05297033
-0.9599772 -1.0121641 -0.013229822 0.0030518982 -0.08992842 1.4427189 -0.64352703 -0.3194995
-0.3041624 0.021808887 1.6627731 -0.079966456 -0.2915671 -1.061219 0.85273755 -0.021916162
0.38482162 0.045841858 0.07794996 0.050400943 0.06133762 -0.5647163 -0.9060288 -0.079398915
-0.002949555 -0.0049932436 0.048096083 -0.3655382 -0.3957638 -0.42549267 0.036057003 0.026080169
-0.3028201 -0.04662131 0.93973696 -0.5805695 1.5493844 0.0650861 -0.10489002 -0.034555603
-0.026504532 -1.0532032 -0.77745306 -0.03917489 0.013204811 -0.039629348 -0.9693677 1.1880738
0.42743137 -0.037871756 -1.6495086 -0.5193028 -0.07149536 -0.77602893 0.040315304 0.08709575
-0.005598641 -0.9093026 -0.084122874 -1.147858 0.020209147 0.9670735 -0.39203662 0.00027215408
-1.4812257 0.009849997 0.085409865 -0.6768956 -0.99165213 1.2205104 -0.040069647 0.6065419
0.87260425 0.7602991 0.037607994 0.9792287 -0.055386905 0.5538422 -0.055879217 -0.016375456
-0.0039494997 -1.9930028 0.50316435 -0.6765858 0.18453398 0.18623446 0.060450483 1.2372978
0.026268015 -0.521474 0.7078477 1.9006791 -0.89161426 -0.072639346 2.7348707 -0.4949521
-1.9640015 0.0655669 -0.15900804 -0.060201097 -0.36221093 -0.061548546 -1.9263629 0.2150326
0.023857214 -0.023110699 0.14095287 -0.093599394 -0.0567013 0.04861709 0.03729025 1.4809043
1.163077 0.62945336 -0.7628593 0.058369447 -0.15107052 0.0865438 -0.66414446 -1.1504002
-0.03857148 0.00054601504 -1.4489177 -0.14161508 0.50431246 0.023299297 -0.12952995 0.0013708794
-1.1463611 1.1855019 0.061069462 0.006736328 0.07981026 -0.39660555 0.32105488 -0.27862912
1.51629 -0.08112148 -1.42677 0.8843735 0.12866506 -0.40027222 1.1533319 0.14334768
0.22277395 -0.09153258 0.5312986 0.035021998 0.27046922 0.23488964 -0.82439303 -0.07417838
0.01737235 -0.09501005 0.0011791409 -0.7061435 0.18538234 -1.4848738 -0.016391493 -0.0001318368
-0.5656103 -0.06518169 0.044930737 -0.7725744 -0.43761125 0.010626904 0.005720338 -0.024421733
-0.078712985 0.881972 -0.5682364 0.04675676 -0.04173975 -0.008259948 1.1788293 0.35396287
-0.052904997 0.07631609 0.2700882 0.62768555 0.038255848 -0.6375013 -0.02397576 -0.061517864
-0.015636334 -0.5725524 -0.038238492 -0.77761984 -0.06587034 0.3368016 -0.3541649 -0.02750525
0.16452302 0.02774584 0.003691214 -0.75256884 -0.1426161 0.24306367 0.04203236 -0.63495547
-0.7278833 0.28469542 0.03627849 0.5536088 -0.056727815 0.36070487 0.034334943 -0.08939704
00000000: 0bc6 ad3d 48cb 2c40 34de b63d f319 55bf
00000010: cdff 033f ab82 81be 2098 8cbd a74f d73f
00000020: c4ba bf3d 57e1 94be e6b4 14bf 1aca 0040
00000030: b1eb 3fbf 6e8e 2aba e4ac 91bf 0000 9b3f
00000040: e2d2 20c0 7aa1 08bf 05ec 873f 558e 053d
00000050: af88 403d aa39 823b ddce 1b40 8941 4c3f
00000060: af76 013c 974d 05bd b923 eabe 06e3 0fbc
00000070: 5076 093f 6622 22bf b408 71bf 8722 8e3f
00000080: 2ab1 c43f 735d 683f 7cfe b43c 907e b3be
00000090: d134 e23e 7544 9d3d 75cf bbbc b7db eebf
000000a0: 1efa babd 5dc8 66bd b65a f33d 956b bb3e
000000b0: 5ba5 cb3e e18e 47bc da6b 80bf 6bf7 583d
000000c0: 11c1 75bf 988e 81bf e5c1 58bc 5b02 483b
000000d0: 642c b8bd 03ab b83f 30be 24bf 7095 a3be
000000e0: 2dbb 9bbe 8da8 b23c c0d5 d43f 74c5 a3bd
000000f0: 4848 95be 06d6 87bf 024d 5a3f 8689 b3bc
00000100: 5707 c53e acc4 3b3d 3ba4 9f3d 3871 4e3d
00000110: 283d 7b3d 3f91 10bf 81f1 67bf e69b a2bd
00000120: 524d 41bb 5d9e a3bb 6600 453d d327 bbbe
00000130: 8ea1 cabe 2dda d9be 82b0 133d 14a6 d53c
00000140: 3c0b 9bbe fdf5 3ebd 9a92 703f 34a0 14bf
00000150: 3a52 c63f dc4b 853d 94d0 d6bd 2d8a 0dbd
00000160: 0820 d9bc 5dcf 86bf 2a07 47bf d975 20bd
00000170: fe58 583c 6252 22bd 7b28 78bf cd12 983f
00000180: 49d8 da3e 6a1f 1bbd 1923 d3bf 07f1 04bf
00000190: 296c 92bd d5a9 46bf a921 253d 425f b23d
000001a0: ce74 b7bb 0ec8 68bf 9d48 acbd 03ed 92bf
000001b0: a78d a53c 2192 773f 06b9 c8be e7af 8e39
000001c0: ce98 bdbf e261 213c 5eeb ae3d 0849 2dbf
000001d0: eadc 7dbf af39 9c3f 1220 24bd 5446 1b3f
000001e0: fe62 5f3f f6a2 423f d70a 1a3d bbae 7a3f
000001f0: 61dd 62bd 9ac8 0d3f 9be1 64bd d225 86bc
00000200: ce6a 81bb b71a ffbf 61cf 003f ba34 2dbf
00000210: 7af6 3c3e 3fb4 3e3e ed9a 773d c65f 9e3f
00000220: 0530 d73c 527f 05bf 8235 353f 7449 f33f
00000230: d540 64bf f0c3 94bd 1f08 2f40 5d6a fdbe
00000240: 6764 fbbf f047 863d 01d3 22be 6d95 76bd
00000250: b673 b9be 541a 7cbd 0f93 f6bf 8231 5c3e
00000260: 3470 c33c a652 bdbc f355 103e 0ab1 bfbd
00000270: 9f3f 68bd b722 473d a9bd 183d 468e bd3f
00000280: b5df 943f db23 213f bf4a 43bf cd14 6f3d
00000290: 3bb2 1abe e03d b13d 5f05 2abf 5040 93bf
000002a0: 21fd 1dbd 7322 0f3a 2376 b9bf 8b03 11be
000002b0: 9f1a 013f 2bde be3c 80a3 04be 14af b33a
000002c0: f6bb 92bf 87be 973f f923 7a3d 6abc dc3b
000002d0: 9073 a33d e20f cbbe 4e61 a43e 7aa8 8ebe
000002e0: ca15 c23f 0523 a6bd 66a0 b6bf 4d66 623f
000002f0: c6c0 033e 7bf0 ccbe 61a0 933f bcc9 123e
00000300: db1e 643e 6f75 bbbd 2f03 083f 3a73 0f3d
00000310: f17a 8a3e e986 703e 6c0b 53bf d6ea 97bd
00000320: 7550 8e3c a194 c2bd 678d 9a3a d2c5 34bf
00000330: ded4 3d3e 5810 bebf 7447 86bc ac3d 0ab9
00000340: d6cb 10bf fa7d 85bd 4b09 383d 70c7 45bf
00000350: 950e e0be 771c 2e3c ac71 bb3b 1610 c8bc
00000360: 4634 a1bd ebc8 613f f177 11bf 0484 3f3d
00000370: 4df7 2abd bc54 07bc e1e3 963f 9f3a b53e
00000380: e9b2 58bd 9c4b 9c3d 0049 8a3e 00b0 203f
00000390: 2ab2 1c3d 4933 23bf d068 c4bc 28fa 7bbd
000003a0: c517 80bc cb92 12bf f79f 1cbd 1812 47bf
000003b0: 07e7 86bd 4271 ac3e 1a55 b5be b152 e1bc
000003c0: b978 283e 3e4b e33c 4be8 713b 5aa8 40bf
000003d0: f409 12be afe5 783e 202a 2c3d 718c 22bf
000003e0: 8f56 3abf 99c3 913e c198 143d 4eb9 0d3f
000003f0: 6d5b 68bd 4fae b83e cca2 0c3d cc15 b7bd
