models_v103/dec4/model_rerun9.pt (torch, 549930 bytes, 38 tensors)

encoder.encoder_net.0.weight f4 [128, 50]
0	0xbc89869a	-0.016787816
1	0x3cb41d62	0.021986667
2	0x3cf9d5db	0.030497482
3	0xbdb90798	-0.090346515
4	0xbd2a2053	-0.041534733
5	0xbd5e8f49	-0.054335866
6	0xbd2b40e4	-0.04180993
7	0x3c2d84da	0.010590756
8	0xbc5aae6d	-0.01334725
9	0xbd7a8dac	-0.061170265
10	0xbe004185	-0.12524994
11	0x3dc38b90	0.09548104
12	0xbe03390d	-0.12814732
13	0xbd31a57c	-0.04337071
14	0xbe0eaf6e	-0.13934109
15	0xbaa65b25	-0.0012691958
16	0xbbd15982	-0.006388844
17	0xbcb4b5a7	-0.022059275
18	0x3da7a0f4	0.08184996
19	0xbe3813f1	-0.17976357
20	0x3ca10c80	0.01965928
21	0x3e3f2d40	0.18669605
22	0x3dacb4fc	0.084329575
23	0x3cba4130	0.022736162
24	0x3d2b343e	0.04179787
25	0x3d1fa7a8	0.03897825
26	0xbdd43871	-0.10362328
27	0x3e2050bd	0.15655799
28	0xbe262ef5	-0.1622885
29	0x3d976b4c	0.07393512
30	0xbd53bb9c	-0.05169259
31	0xbd79d2fc	-0.060992226
32	0xbe337b58	-0.1752752
33	0x3e279bd2	0.16368034
34	0xbd494cdb	-0.04914556
35	0xbd1d329e	-0.03837835
36	0xbe5382c1	-0.20655347
37	0x3eafc91a	0.34333116
38	0xbd3776c3	-0.044790994
39	0xbe637930	-0.22214198
40	0xbaf0e601	-0.0018379093
41	0xbe70160c	-0.2344591
42	0xbda82726	-0.08210592
43	0xbdf6e0a0	-0.120545626
44	0xbd7dfbd2	-0.062007733
45	0xbd13e351	-0.036105458
46	0xbe02922c	-0.12751073
47	0xbdf61856	-0.120163605
48	0x3e8b66f9	0.27227
49	0xbc1ec381	-0.009690166
50	0xbdcf1722	-0.10111834
51	0xbcbb35ed	-0.022852862
52	0x3d90ab16	0.07063882
53	0x3de847ee	0.113418445
54	0xbc0226d1	-0.007943825
55	0xbe172800	-0.14761353
56	0x3d2bcc93	0.041943144
57	0xbd34b370	-0.044116437
58	0xbe21c7cf	-0.15798877
59	0x3e8f564b	0.27995524
60	0xbe64d4da	-0.22346821
61	0x3e618331	0.22022702
62	0x3dcdc01c	0.100464076
63	0xbd7b6e81	-0.06138468
64	0x3dc5112b	0.09622415
65	0xbcd05e31	-0.025435539
66	0x3bd6952e	0.0065485453
67	0xbcc7f2c8	-0.02440776
68	0x3ddecb2c	0.10878596
69	0x3d0ffe72	0.035154767
70	0x3d6173c3	0.05504204
71	0x3e93453a	0.28763753
72	0xbe28670d	-0.16445561
73	0xbcbe091f	-0.023197709
74	0xbdfbbee3	-0.12292268
75	0x3c94e220	0.018174231
76	0x3da24b77	0.0792455
77	0x3cc875a4	0.024470158
78	0xbd94f822	-0.0727389
79	0x3da37cdc	0.079827994
80	0x3de79261	0.113072164
81	0xbe3e486e	-0.18582317
82	0xbcc3fc90	-0.023924142
83	0x3de18d78	0.11013311
84	0x3de7bbfd	0.11315153
85	0xbd8c2ab8	-0.068440855
86	0x3d4099dc	0.04702173
87	0x3e4dd153	0.20099382
88	0xbd6adc58	-0.057339042
89	0xbdde7270	-0.10861671
90	0x3e6d144c	0.23152274
91	0xbcdb47e1	-0.026767673
92	0xbcc562d2	-0.024094973
93	0xbe3eeb64	-0.18644482
94	0xbd3e3905	-0.046441097
95	0xbdb514c0	-0.088418484
96	0x3e22d47a	0.15901366
97	0x3e05e9e3	0.13077502
98	0xbd0a2945	-0.033730764
99	0x3d13ac05	0.036052722
100	0x3d259989	0.040429626
101	0x3d1e6fb8	0.038680762
102	0xbd38f8ab	-0.045159023
103	0xbc5014d4	-0.012700278
104	0xbd2b680c	-0.041847274
105	0x3dae88fd	0.08522222
106	0x3dcd3744	0.10020307
107	0x3cddc053	0.027069246
108	0x3d82ca9e	0.063863024
109	0xbb94b48f	-0.004538126
110	0x3d434e3e	0.04768204
111	0xbe2eb817	-0.17062412
112	0x3d586537	0.0528309
113	0x3df73bd5	0.12071959
114	0xbdcb120a	-0.0991555
115	0x3de735fb	0.11289593
116	0xbe006f3b	-0.12542431
117	0xbd0f3704	-0.034964576
118	0xbbfd6fc5	-0.007734271
119	0x3e0dcf39	0.1384858
120	0x3d5161ec	0.051118776
121	0x3b806a74	0.00391894
122	0xbcc0d3ee	-0.023538556
123	0xbe106b06	-0.14103326
124	0xbe20d9da	-0.15708104
125	0xbdd463f7	-0.10370629
126	0x3da0165b	0.07816764
127	0x3e291467	0.16511689
128	0x3db48923	0.08815219
129	0xbdbd5447	-0.0924459
130	0xbe1b31d8	-0.15155733
131	0xbe5ef94a	-0.21774784
132	0x3d818818	0.06324786
133	0xbcf32166	-0.029679012
134	0x3e96b579	0.29435328
135	0xbdf84548	-0.12122589
136	0x3d128a89	0.03577665
137	0x3df121a4	0.117739946
138	0x3d7d403d	0.06182884
139	0xbe256538	-0.16151893
140	0x3b846c4c	0.0040412303
141	0x3da22483	0.0791712
142	0xbe0ac19f	-0.13550423
143	0xbe55c2e5	-0.20875128
144	0xbe40c7a4	-0.18826157
145	0x3e03bdd0	0.12865376
146	0x3e59453b	0.21217816
147	0x3e4d29df	0.20035504
148	0xbcc75a48	-0.024335042
149	0x3e328ea5	0.17437227
150	0xbd87c02a	-0.06628449
151	0x3d494dbb	0.049146395
152	0x3cfaa684	0.030596979
153	0xbddf5a2e	-0.10905872
154	0x3d386355	0.045016605
155	0xbdd1ef69	-0.10250742
156	0x3c6a75ea	0.0143103395
157	0xbda03c27	-0.07823973
158	0xbe2702cf	-0.16309665
159	0x3c76eb16	0.015070697
160	0xbe27a6a3	-0.1637216
161	0xbe20ec11	-0.15715052
162	0xbea8f5f3	-0.33000144
163	0xbc9228b8	-0.017841682
164	0xbd19fc83	-0.03759433
165	0x3ddadfbb	0.106872045
166	0xbe196a03	-0.14981847
167	0x3e017463	0.12642054
168	0xbca0a69b	-0.019610694
169	0xbe6c2b71	-0.23063447
170	0xbce80b8f	-0.028325824
171	0x3d2cc972	0.0421843
172	0x3cd63be8	0.026151612
173	0x3e1bdb4d	0.15220375
174	0x3cf81391	0.030282767
175	0xbe8d58a2	-0.27606684
176	0x3de5fef8	0.11230272
177	0xbd67c9bc	-0.056588873
178	0x3d353c2c	0.044246837
179	0x3d2ea607	0.042638805
180	0xbbe654e5	-0.007029163
181	0xbc7f6a15	-0.015589257
182	0x3db458a0	0.088059664
183	0xbb9b244a	-0.0047345506
184	0x3e31b03c	0.17352384
185	0x3da12102	0.07867624
186	0x3d9f1082	0.077668205
187	0xbdb36f1c	-0.08761427
188	0x3a967bd8	0.0011481
189	0xbd358426	-0.04431548
190	0x3dce7cba	0.100823835
191	0xbd882033	-0.066467665
192	0x3dc41728	0.09574729
193	0x3d9e052e	0.07715832
194	0x3b313ba5	0.0027043608
195	0xbd77a98b	-0.060464423
196	0xbdbc21de	-0.09186147
197	0xbd262358	-0.04056105
198	0x3da77826	0.08177213
199	0x3d0d2ffb	0.034469586
200	0xbba9b330	-0.0051788315
201	0xbc642226	-0.013924157
202	0xbd73fe87	-0.059568908
203	0xbd8bf93e	-0.068346485
204	0xbe03787a	-0.12838927
205	0xbcc3a858	-0.023883983
206	0x3cd344ed	0.025789702
207	0x3d10829e	0.035280816
208	0xbce3d4af	-0.027811376
209	0x3d83883b	0.06422468
210	0xbd7ced16	-0.06174954
211	0xbdc0ef31	-0.09420622
212	0x3d3b8899	0.045784567
213	0x3d66ba25	0.056329865
214	0xbe1e86f0	-0.15481162
215	0x3e416243	0.1888514
216	0xbe26d6c8	-0.1629287
217	0x3e19ce37	0.15020071
218	0xbdced833	-0.100998305
219	0x3dadf70c	0.08494386
220	0xbe2bc8cd	-0.16775818
221	0xbe203b21	-0.15647556
222	0xbe0969c4	-0.13419253
223	0x3cc34984	0.023838766
224	0xbdd4f138	-0.10397571
225	0x3e6060ee	0.21911976
226	0x3e2c63b4	0.16834909
227	0x3e267cd0	0.1625855
228	0xbde7eb60	-0.11324191
229	0x3c27e24d	0.010246825
230	0x3cadfdc6	0.021239173
231	0x3d9a80b2	0.07544078
232	0xbd18f739	-0.037345145
233	0xbdd0a014	-0.101867825
234	0xbd1b7666	-0.03795471
235	0xbde00f12	-0.109403744
236	0xbe4d1d5b	-0.2003073
237	0xbc73df76	-0.01488482
238	0x3e9c0086	0.3046915
239	0x3cf2b03d	0.029625053
240	0xbe44cd05	-0.19218834
241	0x3b33d8e9	0.002744252
242	0xbd1ecaa1	-0.03876746
243	0xbccc7dfc	-0.024962418
244	0xbda2a495	-0.07941548
245	0x3d8377d9	0.064193435
246	0x3d8a65b5	0.0675768
247	0x3d0ae610	0.03391081
248	0x3e230626	0.15920314
249	0xbde46778	-0.111525476
250	0x3cc4cf88	0.02402474
251	0x3b87999a	0.004138184
252	0x3cfa6795	0.03056697
253	0x3c400758	0.011720501
254	0xbb5a22eb	-0.0033284973
255	0xbd8d44dc	-0.068978995

encoder.encoder_net.0.bias f4 [128]
0	0xbf4f894a	-0.8106886
1	0xbfbae152	-1.4600012
2	0xbfdc63b0	-1.7217922
3	0x3f05eb1e	0.52311885
4	0xbf6d6825	-0.92737037
5	0xc006c81e	-2.1059642
6	0x3f41545d	0.75519353
7	0xc00cf2c9	-2.2023184
8	0xc01d1e82	-2.454987
9	0xbf5ee1ec	-0.8706348
10	0xbee55f37	-0.44799206
11	0xbfb637ce	-1.423578
12	0x3f014d55	0.50508624
13	0xbf6e03e1	-0.9297467
14	0x3eda9ad0	0.42696238
15	0xbefdddd4	-0.49583304
16	0xbfadd079	-1.3579246
17	0x3ea8da99	0.32979277
18	0xbfcf857d	-1.6212612
19	0xbf83e1fe	-1.0303342
20	0xbf8d0422	-1.1016886
21	0xbede9f1e	-0.43480772
22	0xbfbd9b23	-1.4812969
23	0xc0288bee	-2.6335406
24	0xbf1f5b8e	-0.62249076
25	0xbfbbfa81	-1.4685823
26	0xbf99e527	-1.2023057
27	0xbf9ef99b	-1.2419924
28	0xbf088b7d	-0.5333784
29	0xbf874bc3	-1.0569996
30	0xc015a48e	-2.3381686
31	0xbfc72ed5	-1.5561167
32	0xbfd5da55	-1.6707255
33	0xc000b26c	-2.01089
34	0xbff3dd4c	-1.905191
35	0x3ec839c9	0.39106587
36	0xbf0b4d2d	-0.54414636
37	0xbdd4f94f	-0.10399114
38	0xbf24cd39	-0.64375645
39	0xc0222608	-2.5335712
40	0x3dad2cff	0.08455848
41	0xbef356d3	-0.4752718
42	0xc0209965	-2.5093625
43	0x3e1e4b42	0.15458396
44	0xbfec0395	-1.8438593
45	0xbfef2345	-1.8682638
46	0xbf3270e4	-0.6970351
47	0xc02184ce	-2.5237308
48	0xc01d26c5	-2.4554913
49	0x3e9e2799	0.30889586
50	0xbdc0baa7	-0.09410601
51	0xbe82b0cb	-0.25525507
52	0xbfd967fe	-1.6984861
53	0xbeb57458	-0.35440326
54	0xbfa5f682	-1.2965853
55	0x3d3b5465	0.04573478
56	0x3f152687	0.58261913
57	0xbfe5e960	-1.7961845
58	0x3f4536c3	0.77036685
59	0xbfc7855c	-1.5587573
60	0xbfb069c6	-1.378228
61	0xbf9a74ec	-1.2066932
62	0xbebdce48	-0.37071443
63	0xbfa4580f	-1.2839373
64	0xc003f93b	-2.0620868
65	0xbda53bfe	-0.08068083
66	0xbf11d87c	-0.56970954
67	0xbf6da1d8	-0.9282508
68	0xbf5693c0	-0.838192
69	0x3f27b676	0.6551279
70	0xbf84c4a6	-1.0372512
71	0x3e110d23	0.14165168
72	0xbf192751	-0.5982562
73	0xbf24d3f0	-0.6438589
74	0xbfd229d0	-1.641901
75	0xbf81c80f	-1.0139178
76	0x3f2d9bc0	0.6781578
77	0x3eec6ea7	0.4617817
78	0xbf5e1852	-0.8675586
79	0xbf1eabfa	-0.61981165
80	0xbf66e546	-0.90193594
81	0xbf06a01c	-0.5258806
82	0xbf15060f	-0.5821237
83	0xbfab42ae	-1.3379724
84	0xbe80e175	-0.2517201
85	0xbfaa1601	-1.3287965
86	0xbfcd71d5	-1.6050364
87	0xbf96d8ec	-1.1784949
88	0xc02023a1	-2.5021746
89	0xc008fdaf	-2.1404836
90	0xbe3d3312	-0.18476513
91	0xbfaf6e5d	-1.3705555
92	0xbe083a37	-0.13303457
93	0xbfb87a17	-1.4412259
94	0xbe5b618a	-0.21423927
95	0xbf29fb9c	-0.6639955
96	0xbf93764b	-1.1520475
97	0x3f7ec635	0.9952119
98	0xbfa64e1d	-1.2992588
99	0xbf576372	-0.84136117
100	0xbfbeefa7	-1.4916886
101	0xbfac73fa	-1.3472893
102	0xbf87abb4	-1.0599275
103	0xbe3eaa6e	-0.18619701
104	0xbf083515	-0.53205997
105	0xbfa39e36	-1.2782657
106	0x3fa9857e	1.3243864
107	0xbfc555f2	-1.5416853
108	0xbe90a448	-0.28250337
109	0xbf5b41cd	-0.8564728
110	0xbfecf33b	-1.8511728
111	0xbfc7de81	-1.5614778
112	0xbf95eb5b	-1.171245
113	0xc00e4fc4	-2.2236185
114	0xbf91e30d	-1.1397415
115	0xc02154a1	-2.5207903
116	0xbf71667e	-0.94297016
117	0xc021680c	-2.5219755
118	0xbfbee2dd	-1.4912983
119	0xc01d3b4a	-2.4567437
120	0x3faaa3dd	1.3331257
121	0xbfa8bd94	-1.3182855
122	0xbfdbdcf7	-1.7176808
123	0x3f050e11	0.5197459
124	0xbf735da9	-0.9506479
125	0xbea37649	-0.31926182
126	0xbeb255de	-0.34831136
127	0xbffdc681	-1.9826204

encoder.encoder_net.2.weight f4 [64, 128]
0	0x3d58c5ca	0.052923
1	0x3dac1469	0.084023304
2	0xbdd12fbe	-0.10214184
3	0xbd719cc4	-0.058987394
4	0xba966a48	-0.0011475766
5	0x3d492099	0.049103353
6	0xbe7bcc2c	-0.24589604
7	0xbd13d620	-0.036092877
8	0x3dbe0ba9	0.09279568
9	0xbe700252	-0.23438385
10	0xbf392071	-0.72315127
11	0x3cd78b1d	0.026311452
12	0xbdd60171	-0.10449494
13	0xbf038a63	-0.51383036
14	0xbe047fb9	-0.12939347
15	0xbd41ac73	-0.0472836
16	0xbcdb0d3f	-0.026739715
17	0xbcdeb568	-0.02718611
18	0x3dde50a2	0.10855223
19	0x3d192982	0.0373931
20	0x3dc3ebff	0.09566497
21	0xbd053caf	-0.032528576
22	0xbc300721	-0.010743887
23	0xbe9b7ccb	-0.30368647
24	0xbd4cdece	-0.05001717
25	0x3d0219cc	0.031762883
26	0x3df3a3e1	0.11896492
27	0xbe9af26c	-0.30263078
28	0x3d6bcb10	0.057566702
29	0xbc829a93	-0.015942847
30	0x3e85a0cb	0.26099238
31	0xbefc2fc0	-0.4925518
32	0xbf0668fd	-0.5250395
33	0x3ca80208	0.020508781
34	0x3e182279	0.148569
35	0xbdf90e14	-0.12160888
36	0xbd30c3ad	-0.04315536
37	0xbe480286	-0.19532213
38	0x3c6d0a26	0.014467752
39	0x3dbfdf20	0.093687296
40	0xbe4c7dcb	-0.19969861
41	0xbd35aa72	-0.044352002
42	0xbe077aa0	-0.13230371
43	0x3bc5dd48	0.0060383417
44	0x3d5669a0	0.052346826
45	0x3d7e1d3b	0.062039595
46	0xbd89704c	-0.06710872
47	0x3cdaef93	0.026725566
48	0xbe0a0d6a	-0.1348168
49	0xbe1cd0dc	-0.15314049
50	0xbe911999	-0.28339842
51	0xbe1e2a77	-0.15445887
52	0xbe1d51fe	-0.15363309
53	0x3cfb9cd7	0.030714436
54	0xbdd4519e	-0.1036713
55	0xbc298839	-0.010347419
56	0xbd936b3e	-0.07198189
57	0xbe39bc67	-0.18138276
58	0xbe364044	-0.17797953
59	0xbe57a5f6	-0.21059403
60	0x3d04f6b6	0.032461844
61	0x3ab30b4f	0.0013659986
62	0xbe3dc70e	-0.18532965
63	0xbcc5424f	-0.02407947
64	0xbfa8b112	-1.3179038
65	0x3e0c3474	0.13691884
66	0xbdf3bc5d	-0.11901162
67	0xbe0e3dcd	-0.13890763
68	0x3dd51e95	0.10406224
69	0x3de1ff72	0.110350505
70	0xbe1b8c2a	-0.15190187
71	0xbe3916af	-0.1807506
72	0xbd4c6fb9	-0.049911235
73	0x3ddb8b4f	0.107199304
74	0x3e756276	0.23963341
75	0x3dc6cb1d	0.097067095
76	0x3c974c29	0.018468933
77	0x3adc00c9	0.0016784902
78	0xbea7861e	-0.3271951
79	0xbda4de04	-0.080501586
80	0xbe55c55a	-0.20876065
81	0xbdb0b477	-0.08628171
82	0xbe528143	-0.20557122
83	0xbd29ab69	-0.041423235
84	0xbd9d85aa	-0.0769151
85	0xbe382025	-0.17981012
86	0x3d75169a	0.059836008
87	0x3d92d4ce	0.071694955
88	0xbce15b65	-0.0275094
89	0xbf45cc83	-0.77265185
90	0x3e29b3f5	0.16572554
91	0xbedcdedb	-0.43138775
92	0x3de3e2b5	0.11127225
93	0x3c852dfd	0.01625728
94	0xbd65a51c	-0.056065664
95	0x3d960b59	0.07326383
96	0x3d00f9d6	0.031488262
97	0xbe26a8cc	-0.16275328
98	0x3e4cd938	0.20004737
99	0x3b69b4be	0.003566071
100	0x3db8cd77	0.09023564
101	0xbf0731b8	-0.5281024
102	0x3dd937fb	0.106063806
103	0xbbcd6ffe	-0.006269454
104	0xbe540e86	-0.20708665
105	0xbd247755	-0.040152866
106	0x3da81c6e	0.082085475
107	0xbdd6ddf6	-0.104915544
108	0xbf0add32	-0.5424377
109	0x3e294856	0.165315
110	0xbeb5905c	-0.354617
111	0x3d93594e	0.07194768
112	0x3d53d584	0.051717296
113	0xbe45be39	-0.19310845
114	0xb93a8924	-0.00017789431
115	0xbe9d4a6e	-0.30720848
116	0xbede71ab	-0.43446097
117	0x3cf0d906	0.02940036
118	0x3d46a3f1	0.04849619
119	0xbf05592a	-0.5208918
120	0xbe656594	-0.2240203
121	0x3e36df73	0.17858677
122	0x3d2ce0b5	0.042206485
123	0xbd9424d1	-0.07233585
124	0x3e369394	0.17829734
125	0xbd82a3b5	-0.06378881
126	0xbd92384f	-0.07139646
127	0xbc7a4900	-0.015276194
128	0xbd8cca02	-0.068744674
129	0xbe8321f7	-0.2561185
130	0x3ca6cbb6	0.020360809
131	0xbd052943	-0.032510053
132	0x398b0e00	0.00026522577
133	0xbd6e589c	-0.058189973
134	0xbcbc516a	-0.02298804
135	0xbde50873	-0.11183252
136	0xbea29d84	-0.317608
137	0x3c62c9bd	0.0138420435
138	0xbd0e1d87	-0.03469613
139	0xbca690ae	-0.02033266
140	0xbc1f502c	-0.009723704
141	0x3d87ee7e	0.06637286
142	0xbcf10f88	-0.029426351
143	0xbd04c269	-0.032411966
144	0x3d33870e	0.04382997
145	0x3b8ca848	0.0042925216
146	0x3cab98bb	0.020946851
147	0xbbb82e16	-0.0056207282
148	0x3da78444	0.081795245
149	0x3d85a0f5	0.06524841
150	0xbec2cc00	-0.38046265
151	0xbdb1e14b	-0.08685549
152	0xbcec3d70	-0.02883789
153	0x3d4129af	0.047158893
154	0x3db992e5	0.09061221
155	0xbd5f2d53	-0.054486584
156	0x3d095725	0.033530373
157	0xbcfc3f2f	-0.030791847
158	0xbd820180	-0.06347942
159	0x3d165b54	0.03670819
160	0xbb29e8e3	-0.0025926165
161	0xbd9b41b9	-0.07580895
162	0xbbaf590b	-0.005351191
163	0xbd89db1a	-0.067312434
164	0xbd328be9	-0.04359046
165	0xbe22567d	-0.15853305
166	0x3e703682	0.23458293
167	0xbc4d4036	-0.012527516
168	0x3d5f67ec	0.054542467
169	0xbc815a1a	-0.015790034
170	0xbd466481	-0.04843569
171	0xbdaf6584	-0.085642844
172	0x3da50de3	0.08059289
173	0x3c153b92	0.009108441
174	0xbb0fa39e	-0.0021917592
175	0x3a7d3053	0.0009658385
176	0xbdc97f57	-0.09838741
177	0xbe5e5a55	-0.21714146
178	0x3c8733e1	0.01650423
179	0x3e1e30e5	0.1544834
180	0xbb2e17af	-0.002656441
181	0xbc2308b1	-0.009950803
182	0xbcb8724d	-0.02251544
183	0x3b7ea29f	0.0038854254
184	0xbf9e2f7e	-1.2358243
185	0xbc33da7d	-0.010977385
186	0x3cb9d416	0.022684138
187	0xbd314e60	-0.043287635
188	0xbd51a405	-0.05118181
189	0xbdcf2f03	-0.10116389
190	0xbc5f4f6b	-0.013629775
191	0x3cae2cc9	0.02126159
192	0xbdc64190	-0.09680474
193	0x3dd14c8c	0.10219678
194	0x3d7a60c0	0.061127424
195	0xbd047d48	-0.03234604
196	0x3d729d63	0.059232127
197	0xbc3d48ff	-0.011553048
198	0xbe2a40cf	-0.16626285
199	0x3d7bb8f3	0.06145568
200	0xbded5c16	-0.115898296
201	0x3df5ae5c	0.11996147
202	0x3d091437	0.033466544
203	0xbed72618	-0.4202125
204	0xbebc9038	-0.3682878
205	0xbd336dce	-0.04380589
206	0x3e4b151b	0.1983227
207	0x3ca41f3a	0.020034421
208	0xbd9e77a3	-0.07737663
209	0x3e0d67e6	0.13809165
210	0x3d02d0af	0.031937297
211	0x3d07f808	0.033195525
212	0x3c5026ab	0.012704532
213	0xbdf500f3	-0.11963072
214	0xbda2924f	-0.079380624
215	0xbd8f587e	-0.069993004
216	0xbd7a6f0e	-0.061141066
217	0xbaa45745	-0.0012538215
218	0xbdf574c4	-0.11985162
219	0xbd1fdc08	-0.039028198
220	0xbd896faa	-0.06710751
221	0xbf594673	-0.8487312
222	0x3d2538b9	0.040337298
223	0x3db892ba	0.09012361
224	0x3d02e4ca	0.03195647
225	0xbd8b8cfe	-0.068140015
226	0x3c2417c9	0.010015436
227	0xbe33e288	-0.17566884
228	0xbdf345cd	-0.11878548
229	0x3aa074cc	0.001224184
230	0x3d4be6de	0.04978072
231	0x3c74ec18	0.014948867
232	0xbe8bf5bc	-0.27335918
233	0x3d890be0	0.06691718
234	0x3de1df97	0.110289745
235	0xbe3018fd	-0.17197032
236	0x3cc1757c	0.023615591
237	0x3b957d15	0.00456203
238	0xbdad205e	-0.08453439
239	0xbe66b4e6	-0.22529945
240	0xbd145770	-0.0362162
241	0x3bed51b0	0.007242404
242	0x3d6d5b48	0.05794838
243	0x3db4d30e	0.08829318
244	0x3d2a4074	0.041565374
245	0xbe21caec	-0.15800065
246	0xbb0b57f3	-0.0021262139
247	0xbd3252f7	-0.043536153
248	0x3e258853	0.16165285
249	0xbdadbf71	-0.0848378
250	0xbd8b46a0	-0.0680058
251	0xbc52a6cd	-0.012857151
252	0x3c2a13a3	0.010380658
253	0x3e6bbcc8	0.23021233
254	0xbb859ee5	-0.0040777796
255	0xbde9cc8f	-0.114159696

encoder.encoder_net.2.bias f4 [64]
0	0x3ebb784e	0.36615223
1	0x3e10fc7c	0.14158815
2	0xbd6f0abd	-0.05835985
3	0x3e4bf67a	0.19918242
4	0x3fb37e44	1.4022908
5	0x3f16019e	0.5859622
6	0xbdb9a979	-0.090655275
7	0x3f1df6ca	0.61704695
8	0xbcc3bb3f	-0.023892997
9	0xbe31b226	-0.17353114
10	0x3fb31273	1.3990005
11	0x3e12f074	0.14349538
12	0x3fa61c4c	1.2977386
13	0xbed2cc9e	-0.41171736
14	0xbdf98cff	-0.12185096
15	0xbe0a0801	-0.13479616
16	0xbdd81026	-0.10549955
17	0xbdc5003f	-0.096191876
18	0x3eaed516	0.34146947
19	0x3f65e3f6	0.89800966
20	0x3bef1c64	0.0072970856
21	0xbe2eb60c	-0.17061633
22	0x3f8a53d1	1.0806829
23	0x3c8ed69a	0.017436314
24	0x3effaf2a	0.49938327
25	0xbddcfbb3	-0.10790195
26	0x3d123fd7	0.035705414
27	0x3ebde213	0.37086543
28	0xbc50a5bf	-0.012734829
29	0xbda0dd56	-0.078547165
30	0x3f497b4f	0.7870378
31	0xbdb208a0	-0.08693051
32	0x3d853555	0.06504313
33	0x3f54f51b	0.831865
34	0xbd6fc08b	-0.058533233
35	0x3eabf1bb	0.33582863
36	0xbd3d6bd0	-0.046245396
37	0x3f9d411d	1.2285496
38	0xbd9d9a60	-0.0769546
39	0xbdec2651	-0.11530746
40	0xba5d4559	-0.00084408146
41	0xbca1355d	-0.019678766
42	0x3f4e808b	0.8066489
43	0xbc4dc29e	-0.012558607
44	0x3ed0a154	0.40748084
45	0xbe04e2e5	-0.12977178
46	0xbdc73ba7	-0.09728175
47	0x3d1fd2b4	0.0390193
48	0x3c9bff32	0.019042585
49	0xbe125692	-0.14290836
50	0x3fa40c9e	1.281635
51	0x3ee54120	0.4477625
52	0x3dcb26c0	0.099195
53	0x3d5b141a	0.053485967
54	0x3f127631	0.57211596
55	0xbc7f3c93	-0.015578407
56	0x3f0067fa	0.50158656
57	0x3f5938ca	0.8485228
58	0x3f38d345	0.7219737
59	0x3ef38ee6	0.4756996
60	0x3c7dd8f5	0.015493621
61	0x3f7aa796	0.97911966
62	0xbc943cfd	-0.018095488
63	0x3ed3b585	0.41349426

encoder.encoder_net.4.weight f4 [4, 64]
0	0xbc8b16b5	-0.016978601
1	0x3cbf7c7a	0.023374785
2	0x3b2dfa57	0.002654692
3	0x3d0cdcb6	0.034390174
4	0x3b89592f	0.0041915397
5	0xbcab8dd6	-0.020941656
6	0x3cb19e07	0.021681799
7	0x3bc71c69	0.006076385
8	0x3d6d2114	0.057892874
9	0x3bb4526d	0.00550299
10	0x3d81be19	0.063350864
11	0xbc5aa123	-0.013344082
12	0xbc3fa44d	-0.011696887
13	0xbc97e0fa	-0.018539894
14	0x3d9ea661	0.07746578
15	0xbd9b4859	-0.075821586
16	0xbcbe7b53	-0.023252165
17	0x3c2fcecf	0.010730459
18	0xbb2f8870	-0.0026784204
19	0xba7a78f4	-0.00095547666
20	0x3be65e46	0.0070302812
21	0x3c9e5f42	0.019332532
22	0xbd3c23be	-0.045932524
23	0xbcde52c6	-0.027139079
24	0x3d432064	0.047638312
25	0x3cc0a20f	0.023514776
26	0xbcefc791	-0.029269965
27	0x3cdb45a4	0.026766606
28	0xbcf7a44f	-0.030229716
29	0x3c5f53c4	0.013630811
30	0x3c92f0e1	0.017937126
31	0xbd146c51	-0.03623611
32	0xbcf065c9	-0.02934541
33	0x3b0d8e5e	0.002159975
34	0x3cb04a56	0.021519821
35	0x3c3c2667	0.011483765
36	0xbbd30405	-0.006439688
37	0xbdbb4ec5	-0.091458835
38	0x3ce1fb13	0.027585542
39	0x3ca4124c	0.020028256
40	0x3c3d906b	0.011570076
41	0xbcb179dd	-0.021664554
42	0xbc9b0386	-0.018922579
43	0x3b7ff6c5	0.0039056998
44	0x3d0af7fb	0.0339279
45	0x3ce7e3ea	0.02830692
46	0x3d0682fa	0.032839753
47	0x3c2b6313	0.010460633
48	0x3ace8821	0.0015757122
49	0xbc04ae68	-0.008098222
50	0xbb66aedd	-0.0035199441
51	0x3e21ec20	0.15812731
52	0x3d2bb28d	0.041918326
53	0xbcdb69db	-0.026783874
54	0xbb0c8e9a	-0.0021447302
55	0x3c347361	0.011013837
56	0x3d52d2fa	0.051470734
57	0xb9bafea5	-0.0003566641
58	0xbd8f9e51	-0.07012618
59	0xbc4febfc	-0.01269054
60	0xbc5f66d5	-0.013635357
61	0xbce62291	-0.028092654
62	0x3ce68be6	0.02814288
63	0xbd45cc8f	-0.048290785
64	0xbd87c8f6	-0.06630127
65	0x3d31a43e	0.043369524
66	0xbbbd1591	-0.005770393
67	0xbbc1fc7c	-0.005919991
68	0xbd57fb87	-0.05273011
69	0xbc0fdee6	-0.0087811705
70	0xbd33ffa3	-0.043944966
71	0xbd261ea8	-0.04055658
72	0x3d85fcb5	0.06542341
73	0x3b0f119e	0.002183057
74	0xbbbf6c4f	-0.005841769
75	0xbce47a7d	-0.027890438
76	0x3da5c37d	0.08093927
77	0xbd0839b2	-0.033258148
78	0x3ccc2088	0.024917856
79	0x3d85b2c3	0.06528237
80	0xbc43c4e2	-0.011948796
81	0x3a83a9e3	0.0010045137
82	0xbd65736d	-0.05601828
83	0xbd33889c	-0.043831453
84	0x3bf67386	0.0075210957
85	0x3ca5f752	0.020259533
86	0x3b497f42	0.0030746018
87	0xbc56df8c	-0.013114821
88	0x3da4e17e	0.08050822
89	0xbc840b85	-0.016118774
90	0x3c9a546a	0.01883908
91	0x3c5dcae0	0.013537139
92	0x3c3fcfdc	0.011707272
93	0xbd1ab212	-0.037767477
94	0x3dceb42f	0.10092961
95	0x3c0d146b	0.008610825
96	0x3c1ed5ca	0.009694526
97	0xbc572065	-0.013130282
98	0xbcbbb29f	-0.022912322
99	0x3d83443f	0.06409501
100	0x3c9bdc31	0.019025894
101	0x3c7a0e27	0.015262163
102	0x3ce8b6ca	0.028407473
103	0x3d16d7bc	0.036826834
104	0x3ce12d7b	0.027487507
105	0x39128f7e	0.000139771
106	0xbc50e069	-0.012748816
107	0x3ccf4733	0.025302505
108	0xbd4d67a2	-0.05014766
109	0x3c95cf00	0.018287182
110	0x3ce2f784	0.027705915
111	0x3d3ffe4f	0.046873387
112	0x3c097972	0.008390771
113	0x3c524445	0.01283366
114	0xbdcca970	-0.09993255
115	0xbddb6e8d	-0.10714445
116	0xbe03ae67	-0.12859498
117	0x3c9384b9	0.018007623
118	0x3c8efd07	0.017454637
119	0x3c8d3cf4	0.017240979
120	0x3bdac5c0	0.0066764057
121	0xbc0b0e80	-0.008487344
122	0xbca99073	-0.020698762
123	0x3c89b4e0	0.01680988
124	0xbb82317a	-0.003973183
125	0xbd32a7e5	-0.043617148
126	0x3d17a2c7	0.03702047
127	0xbd6b000c	-0.05737309
128	0x3d981357	0.07425564
129	0x3dc66758	0.0968768
130	0x3e58e84f	0.21182369
131	0x3d281fab	0.041045826
132	0xbc888ed3	-0.016669666
133	0x3e0dcb86	0.1384717
134	0xbd7d50d6	-0.06184467
135	0x3b229b58	0.002481183
136	0xbcc9b214	-0.024621047
137	0x3d0e5a75	0.034754235
138	0x3d4983e7	0.049198058
139	0xbd905602	-0.07047655
140	0xbd769ce1	-0.060208205
141	0x3cdbb5bd	0.026820058
142	0xbd75ed7c	-0.060040936
143	0xbd3aa427	-0.045566704
144	0x3bedb550	0.00725428
145	0xbdbba749	-0.091627665
146	0x3de3d2c3	0.11124184
147	0xbcb4089f	-0.021976767
148	0x3d91514c	0.07095584
149	0x3cc63fb2	0.024200294
150	0x3c40712b	0.011745731
151	0x3b6b191a	0.0035873116
152	0x3d852f9f	0.06503224
153	0x3d975647	0.07389503
154	0xbda66211	-0.081241734
155	0xbd206f5d	-0.039168704
156	0xbe06ab6c	-0.1315133
157	0xbda4a09b	-0.080384456
158	0xbd9e1ee0	-0.07720733
159	0x3b6cdc56	0.0036142073
160	0x3d0d0121	0.034424905
161	0xbd253222	-0.040331014
162	0xbc79be01	-0.015243054
163	0x3e32d0c4	0.1746245
164	0xbd70961f	-0.058736917
165	0x3cf442a0	0.029816926
166	0xbd27fcb0	-0.041012466
167	0x3d997e47	0.074947886
168	0xbcad70c6	-0.021171939
169	0xbc8b297a	-0.016987551
170	0xbba2593a	-0.0049544843
171	0x3c5fb354	0.013653595
172	0x3e023460	0.12715292
173	0xbd8c67a1	-0.06855703
174	0x3d386362	0.045016654
175	0xbd5c3705	-0.05376341
176	0xbc8b2203	-0.016983991
177	0xbcbb3b2d	-0.022855366
178	0xbc659d45	-0.014014547
179	0x3e56185a	0.20907727
180	0xbd43a6ac	-0.047766373
181	0xbd24ded2	-0.04025156
182	0xbe043227	-0.12909757
183	0x3e0f586f	0.13998578
184	0x3ceafc48	0.02868475
185	0xbe43ed30	-0.19133449
186	0xbcab764e	-0.020930436
187	0xbe1e3f1f	-0.15453766
188	0x3d9521d2	0.07281841
189	0xbd99ecf9	-0.07515902
190	0xbdc72a20	-0.097248316
191	0x3d8ab4a8	0.06772739
192	0x3d194192	0.03741605
193	0x3d8fa938	0.07014698
194	0xbc083c40	-0.008315146
195	0x3d85e1b7	0.06537192
196	0x3ccffcc3	0.02538908
197	0x3cc7420c	0.024323486
198	0x3d3edc2f	0.046596702
199	0x3c0452bc	0.008076366
200	0x3d87ef55	0.06637446
201	0xbe116482	-0.14198497
202	0x3bb7de49	0.0056112153
203	0xbdc441da	-0.09582873
204	0x3cde5db2	0.027144287
205	0xbd543a36	-0.051813327
206	0xbd5164ba	-0.05112145
207	0x3e04f922	0.12985662
208	0xbdb8832a	-0.090093926
209	0xbd51a7a4	-0.051185265
210	0xbd24c900	-0.04023075
211	0xbae0cfbf	-0.0017151757
212	0x3da9d710	0.08292973
213	0x3c18018a	0.009277711
214	0xbd017d0f	-0.031613406
215	0x3dbe4084	0.09289649
216	0x3d9ffe30	0.07812154
217	0x3d2b773e	0.041861765
218	0x3ca11d97	0.01966743
219	0xbd440373	-0.047854852
220	0x3d3f2e67	0.046675112
221	0x3d3093c6	0.043109678
222	0x3d5a055a	0.05322776
223	0xbd1fcc08	-0.03901294
224	0xbd3e8a39	-0.04651854
225	0x3dac3579	0.084086366
226	0xbd63baa4	-0.055597916
227	0x3c71e172	0.014763223
228	0xbdc5ee5e	-0.096646056
229	0xbc76a37e	-0.015053628
230	0x3e1d8103	0.15381245
231	0xbe2ef6db	-0.17086355
232	0x3c728a6f	0.014803513
233	0xbd19c8f4	-0.03754516
234	0x3c69ac91	0.014262334
235	0xbe02e767	-0.12783585
236	0x3d7d6555	0.061864216
237	0x3e0b31c5	0.13593204
238	0xbd863e97	-0.06554907
239	0x3b85bca8	0.0040813275
240	0x3d1fe0fc	0.03903292
241	0x3db272aa	0.08713277
242	0x3d045330	0.032305896
243	0x3e170f63	0.14751963
244	0x3cc0e5f4	0.02354715
245	0x3d0e2a4e	0.034708314
246	0xbd90e9b4	-0.07075825
247	0x3d1d6afc	0.038432106
248	0x3a41d136	0.00073935406
249	0xbe224afb	-0.15848915
250	0x3cbc18a0	0.02296096
251	0xbd44fae0	-0.048090816
252	0x3d15910f	0.03651529
253	0xbc46199d	-0.012091068
254	0xbd155339	-0.03645632
255	0x3d112e67	0.035444643

encoder.encoder_net.4.bias f4 [4]
0	0x3d5c4bcf	0.053783234
1	0x3e40d2e4	0.18830448
2	0xc026ab5f	-2.6042097
3	0xc03830a4	-2.8779688

decoders.0.decoder_net.0.weight f4 [128, 2]
0	0xbf59eb11	-0.8512431
1	0xbef6c473	-0.48196754
2	0x3edbf374	0.42959177
3	0xbec4f655	-0.38469186
4	0xbf11dab1	-0.5697432
5	0xbf338feb	-0.70141476
6	0x3f67ef9a	0.9059998
7	0x3eec8faf	0.46203372
8	0x3fe2c0a7	1.7715043
9	0x3f02ce85	0.51096374
10	0xbf3862ff	-0.72026056
11	0xbf87be3f	-1.0604934
12	0xbf0b9780	-0.54528046
13	0xbf565155	-0.8371785
14	0xbf1095d2	-0.5647861
15	0xbf336a5b	-0.7008416
16	0x3faaed33	1.3353637
17	0xbe724dc5	-0.23662479
18	0xbfab08a3	-1.3362011
19	0x3ddae2b6	0.10687773
20	0x400a9d8a	2.1658654
21	0xbf3cd22c	-0.73758197
22	0x3f46cf59	0.7766014
23	0xbfba8421	-1.4571573
24	0x3f261238	0.6487155
25	0xbe0d49aa	-0.13797632
26	0xbe082aea	-0.1329762
27	0xbf6e1ed9	-0.9301582
28	0xbf835277	-1.0259541
29	0x3f450842	0.76965725
30	0x3f5e710f	0.86891264
31	0x3f4a15b8	0.7893939
32	0xbf8afb57	-1.0857953
33	0x3f339e61	0.7016354
34	0x3e8c15cd	0.27360383
35	0xbf071c8c	-0.52777934
36	0x3f9aeea4	1.2104077
37	0xbf004823	-0.5011007
38	0xbbbf9272	-0.005846315
39	0x3efb6281	0.4909859
40	0xbf86b056	-1.0522563
41	0x3f87222a	1.0557301
42	0xbeeaae5f	-0.4583616
43	0x3f90cec0	1.1313095
44	0xbf361f6a	-0.71141684
45	0x3f2bc13a	0.67091715
46	0xbfaf8a76	-1.371413
47	0x3f4cd140	0.8000679
48	0xbe8d41b6	-0.27589196
49	0xbf499bc6	-0.78753316
50	0x3f8e475f	1.1115531
51	0xbe3eecd8	-0.18645036
52	0x3fc8ef3c	1.5698009
53	0xbe36af4d	-0.1784031
54	0xbfb51e15	-1.4149805
55	0x3f24c4de	0.64362895
56	0xbe0e734b	-0.13911168
57	0xbf29d2c6	-0.6633724
58	0x3f7020f8	0.93800306
59	0x3f3c7b51	0.73625666
60	0xbed42a08	-0.41438317
61	0x3f9fe31f	1.2491187
62	0xbf496b3e	-0.78679264
63	0xbf495c18	-0.7865615
64	0xbd80683f	-0.06269883
65	0xbf175c76	-0.5912546
66	0xbf9718db	-1.180446
67	0xbc03e4d6	-0.008050164
68	0x40036927	2.053293
69	0x3f8b91ba	1.0903847
70	0xbfd0aee8	-1.6303377
71	0x3f481555	0.7815755
72	0x4013ae1a	2.3075013
73	0xbf972b3a	-1.1810067
74	0xbfc24765	-1.5178038
75	0xbedf670a	-0.436333
76	0x3f647648	0.8924298
77	0x3f874103	1.0566715
78	0x3df3f1e9	0.11911375
79	0xbfbb834d	-1.4649445
80	0x3eff4933	0.49860534
81	0x3fb711f5	1.4302355
82	0xbf84ae0c	-1.0365615
83	0xbc39232e	-0.011299891
84	0x3ec087b9	0.37603548
85	0x3f87317c	1.0561976
86	0xbeb6aa94	-0.35677016
87	0x3feb6048	1.8388758
88	0xbfa55106	-1.2915351
89	0xbeb9bc9a	-0.36276704
90	0x3f08690f	0.53285307
91	0x3f4fc062	0.8115293
92	0xbf774cb6	-0.96601427
93	0x3f1e3913	0.6180584
94	0x3e94905a	0.29016382
95	0x3f152f1d	0.58275014
96	0xbf2c8ae9	-0.6739946
97	0x3fae1d16	1.3602626
98	0xbf37cf86	-0.7180103
99	0xbfa4b2e6	-1.2867095
100	0x3eaa87b4	0.33306658
101	0x3f5e4a2e	0.8683194
102	0xbf15684c	-0.5836227
103	0xbf81b125	-1.0132185
104	0xbfac66e5	-1.3468901
105	0x3fe1461f	1.7599524
106	0xbf7f58f2	-0.99745095
107	0xbf040089	-0.51563317
108	0xbf2b5d95	-0.6693967
109	0xbf5eea8a	-0.8707663
110	0x3fa891b8	1.316947
111	0xbcafdb36	-0.021466833
112	0x3f5577fb	0.833862
113	0x3f8e2002	1.1103518
114	0xbf16fe2a	-0.58981574
115	0x3f8a4e43	1.0805134
116	0xbcdd6440	-0.027025342
117	0xbf9d9cef	-1.2313517
118	0xbea8784c	-0.3290428
119	0xbf5630d7	-0.83668274
120	0x3f3428ef	0.7037496
121	0xbeb99eee	-0.36254066
122	0x3ebc5584	0.36783993
123	0xbdb7e93e	-0.08980034
124	0x3f5f2c0f	0.87176603
125	0x3f959514	1.168612
126	0x3f5ea287	0.8696675
127	0x3f938ece	1.1527956
128	0x3f45aa1a	0.7721268
129	0x3f09af89	0.5378347
130	0x3d49ec11	0.049297396
131	0x3dc8f2b9	0.09811921
132	0xbf8c7dc5	-1.0975882
133	0xbca95f0a	-0.020675201
134	0xbf439dd2	-0.7641269
135	0x3e3b6b91	0.18302752
136	0xbf84bd60	-1.0370293
137	0x3f363e94	0.71189237
138	0xbde3c0dc	-0.111207694
139	0x3e2bc93b	0.16775982
140	0x3fc87ea7	1.5663651
141	0xbf81b2b0	-1.0132656
142	0xbf4f3b3b	-0.80949754
143	0x3f57bd61	0.84273344
144	0x3f25d37c	0.64775825
145	0x3f304787	0.6885914
146	0x3e86313b	0.26209435
147	0xbf9dbd7a	-1.2323449
148	0x3faea8c3	1.3645252
149	0xbe5f0ec2	-0.21782973
150	0x40076592	2.1155744
151	0xbf88b46d	-1.0680062
152	0x3e7cf345	0.24702175
153	0x3fe17c4d	1.7616059
154	0xbf8e2a9b	-1.1106752
155	0x3f9551f4	1.1665635
156	0xbf72f1a6	-0.94899976
157	0x3f30cb96	0.6906065
158	0x3f9ea624	1.2394452
159	0x3f8c1791	1.0944692
160	0xbefe2dcb	-0.49644312
161	0xbf1bd9c7	-0.60879177
162	0x3f12bcea	0.5731951
163	0x3f7a2f82	0.9772874
164	0x3f4bc262	0.7959348
165	0x3f5ab216	0.8542799
166	0xbfa788e5	-1.3088652
167	0x3d817123	0.06320407
168	0xbf12db21	-0.57365614
169	0xbf408345	-0.752003
170	0xbf2794dc	-0.65461516
171	0xbf8d94ad	-1.1060997
172	0x3f9b7355	1.2144572
173	0xbf604f69	-0.8762117
174	0xbc591d66	-0.013251638
175	0x3fc52805	1.5402838
176	0x3f9fc8b9	1.2483131
177	0x3d76e749	0.060279164
178	0xbe4d9c66	-0.20079193
179	0xbf0f381a	-0.5594498
180	0x3eed2275	0.4631535
181	0x3fc81192	1.5630362
182	0xbf231ee7	-0.6371903
183	0xbf3dc59e	-0.74129665
184	0xbf77290a	-0.96546996
185	0x3f8ba381	1.0909272
186	0x3fa28248	1.2696009
187	0x3d90c912	0.07069601
188	0xbf1c2212	-0.6098949
189	0xbf432d42	-0.7624093
190	0x3ed8a3a1	0.4231234
191	0xbf503487	-0.8133015
192	0x3f710987	0.9415516
193	0x3f12ab35	0.5729249
194	0x3b9350d5	0.00449572
195	0xbe2c498b	-0.1682493
196	0xbf5be5a7	-0.85897297
197	0x3f65811a	0.8965012
198	0x3f4e9572	0.80696785
199	0xbf198006	-0.59960973
200	0xbf81146b	-1.0084356
201	0x3f339ef2	0.70164406
202	0xbf9ffdc9	-1.2499324
203	0x3f7c957f	0.9866561
204	0xbeaa9173	-0.33314094
205	0xbf4c4755	-0.79796344
206	0xbe0c49dd	-0.13700052
207	0x3d30c6a8	0.043158203
208	0xbf86021a	-1.0469391
209	0xbe452476	-0.1925219
210	0x3f1268ce	0.5719117
211	0xbe2b2ff4	-0.16717511
212	0xbf85f093	-1.0464042
213	0x3f8b2c2c	1.0872855
214	0xbf58e918	-0.8473067
215	0xbea6569c	-0.32487953
216	0x3fa90ea0	1.3207588
217	0xbe7c4de0	-0.24639082
218	0xbf9b0d9f	-1.2113532
219	0x3f422cc5	0.7584956
220	0xbecb4cc9	-0.3970702
221	0xbed8a049	-0.42309788
222	0xbc77d4c9	-0.0151264155
223	0xbd663d95	-0.056211073
224	0x3f6840cb	0.90723866
225	0x3f4d6572	0.8023292
226	0xbd178e1b	-0.037000757
227	0xbda289e9	-0.079364605
228	0xbfb911df	-1.4458579
229	0x3f841f31	1.0322019
230	0xbf159001	-0.5842286
231	0xbf944043	-1.1582111
232	0xbf2d4882	-0.67688763
233	0xbf7c501d	-0.98559743
234	0xbf12f3e6	-0.5740341
235	0xbf855eb1	-1.0419523
236	0xbe297d69	-0.16551746
237	0xbf589aae	-0.8461102
238	0xbe87fb9a	-0.26559144
239	0xbe0df238	-0.1386193
240	0xbc9a1722	-0.018809859
241	0x3fa9c4ad	1.3263146
242	0x3c977ad2	0.018491182
243	0x3fd95c81	1.6981355
244	0xbeb1e0f8	-0.3474195
245	0xbf3ce8ea	-0.737929
246	0x3ea0125a	0.31264
247	0xbf6af6d1	-0.9178286
248	0xbfbab164	-1.4585385
249	0xbea67fb4	-0.32519305
250	0x3f01887d	0.5059889
251	0xbe6a2985	-0.22867401
252	0xbdac871e	-0.08424209
253	0xbfa35c6c	-1.276258
254	0x3f3d8e61	0.7404538
255	0xbe84ed09	-0.25962093

decoders.0.decoder_net.0.bias f4 [128]
0	0xbf7f716a	-0.9978243
1	0x3f62be56	0.8857168
2	0xbfb1586b	-1.3855108
3	0xbf00581a	-0.5013443
4	0xbe69a2ee	-0.22816059
5	0x3ea592f4	0.3233868
6	0x3d94063d	0.07227752
7	0xbfaf0132	-1.367224
8	0x3e5ea52c	0.21742696
9	0xbf60bc0a	-0.87786925
10	0x3efa45fa	0.48881513
11	0xbfa58f0f	-1.2934283
12	0x3f0245d5	0.50887805
13	0xbc047328	-0.008084096
14	0xbf73c883	-0.9522783
15	0x3ebddd53	0.3708292
16	0xbd39f786	-0.045402072
17	0x3f2b4d17	0.66914505
18	0xbf38a568	-0.7212739
19	0x3f34bdf1	0.7060233
20	0xbeb6b203	-0.35682687
21	0x3f10d5f6	0.5657648
22	0xbe4e3f37	-0.20141302
23	0x3b2beaf5	0.0026232575
24	0x3ec0d4f2	0.37662464
25	0x3e1dc713	0.15407972
26	0xbf50588e	-0.81385124
27	0x3e0a23df	0.13490246
28	0x3f0b263b	0.5435521
29	0x3e5b1c4d	0.21397515
30	0x3f4db26b	0.8035037
31	0x3ed41775	0.41424146
32	0x3efd5f55	0.49486795
33	0x3eb5a37a	0.35476285
34	0xbf609fa4	-0.8774359
35	0xbf7a6992	-0.9781734
36	0x3e94e63f	0.29081914
37	0xbf22178b	-0.63317174
38	0x3d912de0	0.07088828
39	0xbf516ef1	-0.8180991
40	0x3e2f441a	0.17115822
41	0x3e9bbc2f	0.3041701
42	0x3f0217ba	0.50817454
43	0xbec5c373	-0.38625678
44	0x3f11dda7	0.5697884
45	0x3f46ca96	0.7765287
46	0xbd0822ae	-0.033236198
47	0x3f4b178d	0.7933281
48	0xbf7ce890	-0.9879236
49	0xbec71cd8	-0.38889194
50	0x3ed62d34	0.41831362
51	0x3f4c2b21	0.7975331
52	0x3f1916ff	0.59800714
53	0xbf912a12	-1.1340964
54	0xbfe05b4a	-1.7527859
55	0xbf2ac5ab	-0.6670787
56	0xbcd4b43c	-0.025964849
57	0xbee78a1c	-0.45222557
58	0xbe5efc9e	-0.21776053
59	0x3f4fa705	0.81114227
60	0x3ebef28f	0.37294433
61	0x3f29c3e9	0.6631456
62	0xbe416ac0	-0.18888378
63	0xbf01d62d	-0.5071743
64	0x3f1f447e	0.62213886
65	0xbee4df79	-0.44701746
66	0xbe9fb87b	-0.31195435
67	0x3f37b9ac	0.7176769
68	0xbefdf5cd	-0.49601594
69	0x3f738659	0.95126873
70	0x3c627c35	0.013823559
71	0xbec8e5fa	-0.39237958
72	0x3f0a2d8d	0.53975755
73	0xbe63bd48	-0.22240174
74	0x3e2290fb	0.15875618
75	0x3e835919	0.25653914
76	0xbf04d7d1	-0.5189181
77	0xbf0df84d	-0.55457
78	0x3e15bad6	0.14622054
79	0xbf280665	-0.6563476
80	0xbf9a137c	-1.2037196
81	0x3e51bd97	0.20482479
82	0xbda600ea	-0.08105643
83	0x3ec4d31e	0.3844232
84	0x3e8b0062	0.2714873
85	0x3eea9419	0.45816115
86	0xbe126bde	-0.1429896
87	0xbf294c8a	-0.66132414
88	0x3f51dbfb	0.8197629
89	0x3f107d94	0.56441617
90	0xbf49cd4b	-0.7882888
91	0x3ea33926	0.31879538
92	0x3f459bed	0.7719105
93	0x3e931173	0.2872425
94	0xbfc07c1d	-1.5037876
95	0x3e5d2103	0.21594624
96	0x3f321ec6	0.69578207
97	0xbf219610	-0.631196
98	0xbed13d12	-0.40866905
99	0x3ead776c	0.33880174
100	0x3f92f6f4	1.1481614
101	0xbe57a9a6	-0.2106081
102	0x3ea3e929	0.32013825
103	0xbf00a2c6	-0.5024837
104	0x3edc2559	0.42997244
105	0x3f0685c9	0.5254789
106	0xbef831de	-0.48475546
107	0xbf4ba5c5	-0.7954982
108	0xbee0934e	-0.43862385
109	0xbcdad42f	-0.026712505
110	0x3f702438	0.93805265
111	0x3ef79345	0.48354545
112	0x3f0edec6	0.55808675
113	0x3f69c189	0.91310936
114	0x3f163cd5	0.5868657
115	0x3e543b3a	0.20725718
116	0xbfdc4e87	-1.7211465
117	0x3edc096d	0.4297594
118	0x3f36a378	0.71343184
119	0x3f48ba24	0.7840903
120	0x3f3ae8a4	0.7301123
121	0xbf255b2c	-0.6459224
122	0x3e90cd63	0.28281698
123	0x3e18eeec	0.14934891
124	0xbf6a75b4	-0.9158585
125	0x3f2cff32	0.675769
126	0xbf63d8fa	-0.89002955
127	0x3f4514a2	0.7698461

decoders.0.decoder_net.2.weight f4 [128, 128]
0	0xbc2ad6a4	-0.010427151
1	0xbdf0b1cb	-0.11752661
2	0xbd9f599d	-0.07780764
3	0x3cb18e4b	0.021674296
4	0x3d0bfe5c	0.034178123
5	0xbd69bdc6	-0.057065748
6	0x3d963aaa	0.07335408
7	0xbb9073a7	-0.004408318
8	0x3d60e3c6	0.05490472
9	0xbd020633	-0.031744193
10	0xbde6a96b	-0.11262783
11	0xbd04fe78	-0.032469243
12	0xbda80545	-0.0820413
13	0xbd324288	-0.04352048
14	0x3c9b7ba0	0.018979847
15	0xbd146a4a	-0.036234178
16	0xbda4f1f6	-0.08053963
17	0xbde4ac07	-0.11165624
18	0xbd180bac	-0.037120506
19	0xbd7317f3	-0.05934901
20	0xbccdefae	-0.025138702
21	0x3c7bc5d8	0.015366994
22	0xbd0fa0a2	-0.0350653
23	0x3caa4cb9	0.020788537
24	0x3d878a0e	0.06618129
25	0xbd166f86	-0.03672745
26	0x3c007abc	0.007841762
27	0x3d0aef50	0.033919632
28	0xbcce43a1	-0.025178732
29	0xbcc29f5c	-0.02375763
30	0xbdd3fa76	-0.10350506
31	0x3c7084b1	0.014680074
32	0xbd21f31e	-0.039538495
33	0xbde6be86	-0.11266808
34	0xbb2105e7	-0.0024570168
35	0x3a4b3194	0.0007751223
36	0x3c23b53a	0.009991938
37	0x3d95f51d	0.07322142
38	0xbda4c287	-0.08044916
39	0x3b63a1dc	0.0034733927
40	0xbd6a33d1	-0.057178322
41	0xbd326fd9	-0.043563697
42	0xbd4f86cf	-0.050665673
43	0xbc77f302	-0.015133621
44	0xbd9633e5	-0.07334117
45	0x3ccb6d89	0.024832504
46	0x3c930295	0.017945567
47	0xbde70768	-0.112807095
48	0xbd08d5da	-0.03340707
49	0xbca26630	-0.019824117
50	0xbdbc0123	-0.09179904
51	0xbcc205e0	-0.023684442
52	0x3b4263e4	0.002966159
53	0xbbf8fbc1	-0.007598371
54	0xbda01719	-0.078169055
55	0xbdd3c7f8	-0.103408754
56	0xbcec077f	-0.028812168
57	0xbde08c3c	-0.109642476
58	0xbd56b8b7	-0.05242225
59	0xbdaba74f	-0.08381521
60	0xbcb0b676	-0.02157138
61	0xbd6fcb96	-0.058543764
62	0x3d07fa81	0.033197884
63	0x3c0953ee	0.008381827
64	0xbdaaf1ef	-0.083469264
65	0xbd15a629	-0.036535416
66	0xbc304bc1	-0.010760249
67	0xbdfa691d	-0.1222708
68	0x3cb72164	0.02235479
69	0xbd392360	-0.04519975
70	0x3d31d534	0.043416217
71	0x3d33c1a0	0.043885827
72	0xbd2ac74a	-0.041693963
73	0x3dbb07ee	0.09132372
74	0xbcf1d393	-0.029519832
75	0xbdc130fd	-0.09433172
76	0x3cfb7c49	0.030698912
77	0x3d0501f2	0.03247256
78	0xbcb66088	-0.022262827
79	0xbc548834	-0.0129719265
80	0x3cbc9b10	0.023023158
81	0xbdb5076d	-0.08839307
82	0x3c9e5e5a	0.0193321
83	0xbdbf4b77	-0.09340566
84	0xbd9e2da8	-0.07723552
85	0x3d4adbe0	0.049526095
86	0xbdbb79ce	-0.09154092
87	0xbdd0c08b	-0.10192975
88	0x3d1d43eb	0.03839485
89	0x3d25dbcb	0.040492814
90	0x3c1a21a9	0.009407439
91	0xbd9cdc9c	-0.076592654
92	0xbcdd5a4b	-0.027020594
93	0x3d08bd0f	0.033383425
94	0x3c86faa1	0.016476931
95	0xbd016070	-0.03158611
96	0x3afdaa08	0.0019353041
97	0x3d19b00a	0.0375214
98	0x3c527b19	0.012846732
99	0x3cf2b012	0.029624972
100	0xbd92f17a	-0.07174964
101	0xbc71059e	-0.014710812
102	0x3da50a8e	0.08058654
103	0xbd04cc26	-0.032421254
104	0x3c97f2b7	0.018548353
105	0xbc06d1ac	-0.008228701
106	0xbdc33cf0	-0.09533107
107	0x3d65dea4	0.05612053
108	0x3cec3e0f	0.028838186
109	0xbdcbd121	-0.099519975
110	0xbd5ce26c	-0.05392687
111	0xbd7ba252	-0.061434098
112	0x3d0ca846	0.034340166
113	0x3ca5c68d	0.020236278
114	0xbcc98f8b	-0.02460458
115	0xbd90ead5	-0.07076041
116	0xbd1130fd	-0.03544711
117	0x3d162d32	0.036664195
118	0xbd3555e9	-0.044271383
119	0xbdc18b38	-0.09450382
120	0xbd737875	-0.05944105
121	0x3d42aa5a	0.04752574
122	0x3d2daccf	0.04240113
123	0xbd565138	-0.05232355
124	0xbd06826c	-0.032839224
125	0xbdc33d5c	-0.09533188
126	0xbd6e4eb5	-0.05818053
127	0xbd0dfc6f	-0.034664568
128	0xbcdd6b38	-0.027028665
129	0x3f1258d8	0.57166815
130	0xbda1fa28	-0.07909042
131	0x3ec57319	0.38564375
132	0x3ee990a6	0.4561817
133	0x3e877ee6	0.26464003
134	0x3e08a734	0.13345033
135	0x3de6f5ce	0.11277352
136	0xbf6b31fa	-0.91873133
137	0x3e598834	0.21243364
138	0xc008ecb7	-2.139448
139	0xc02febf2	-2.748776
140	0x3f384ce5	0.7199233
141	0x3e5ab2b3	0.21357231
142	0xbe8dfb65	-0.2773086
143	0xbe9fe984	-0.31232846
144	0xbdaa80b2	-0.08325328
145	0x3ec17ad3	0.3778902
146	0x3d9bd302	0.07608606
147	0x3dde116b	0.10843166
148	0xbe365b8a	-0.17808357
149	0x3d6c5060	0.05769384
150	0xbdbae294	-0.091252476
151	0x3d853255	0.06503741
152	0x3e3493a0	0.1763444
153	0xbf3555bd	-0.7083395
154	0xbf6a4abd	-0.9152029
155	0x3bdbfd14	0.006713519
156	0x3e2641a1	0.16235973
157	0xbec190d3	-0.37805805
158	0xbd1a9b5d	-0.037745822
159	0x3e2492f7	0.16071688
160	0x3d97765b	0.073956214
161	0x3e911edb	0.28343853
162	0x3f683746	0.9070934
163	0xbd9f6636	-0.07783167
164	0xc0b963b5	-5.7934213
165	0xbf0b812c	-0.54493976
166	0xbd5f1557	-0.05446371
167	0xbeb7db79	-0.35909632
168	0x3d673a62	0.056452163
169	0x3e5573c1	0.20844938
170	0xbcf958d5	-0.030437866
171	0x3e17f080	0.14837837
172	0x3e335265	0.175119
173	0x3ebc7142	0.3680516
174	0xbe7865ab	-0.24257533
175	0x3ebf4ec9	0.37364796
176	0xbdab8019	-0.08374042
177	0xbd06b588	-0.032887965
178	0xbaf0ce5c	-0.0018372047
179	0x3e29040a	0.16505447
180	0x3ecd20cc	0.40064085
181	0x3e728edd	0.2368731
182	0x3f094bdf	0.53631395
183	0x3f6c6b3d	0.9235113
184	0x3a59ebf1	0.0008313051
185	0xbde10277	-0.10986798
186	0x3d88f15e	0.06686662
187	0x3e422edc	0.18963188
188	0x3e9bc178	0.30421042
189	0x3f0f4e2c	0.55978656
190	0xbc249e6c	-0.010047536
191	0xbd4a35ce	-0.04936772
192	0x3d87c05a	0.06628485
193	0xbbb93dda	-0.0056531252
194	0x3ccacf6a	0.024757106
195	0x3e55bd33	0.20872955
196	0xbe26ece5	-0.16301306
197	0x3eb695a0	0.3566103
198	0xc0421404	-3.0324717
199	0xbe3c58ad	-0.18393202
200	0xbe509391	-0.20368792
201	0xbd0ca2ef	-0.034335073
202	0xbf1970c0	-0.5993767
203	0xc0c7028a	-6.21906
204	0xbd8c41e4	-0.06848505
205	0xbea210db	-0.31653485
206	0x3d3e2184	0.04641868
207	0xbdcb15fb	-0.09916302
208	0x3dc54773	0.096327685
209	0xbd642f60	-0.055709243
210	0x3d7573ea	0.059924997
211	0x3e441a04	0.19150549
212	0x3e621833	0.22079544
213	0x3e138444	0.14405924
214	0xc02ae9d7	-2.6705225
215	0x3d3ab95d	0.045586932
216	0x3f2ee077	0.68311256
217	0x3e29cdb8	0.16582382
218	0x3cffe99b	0.031239321
219	0x3e6edee5	0.23327215
220	0x3cb73214	0.022362746
221	0xbd0b25ca	-0.033971585
222	0x3ed0f28d	0.40810052
223	0x3e97e9b7	0.29670498
224	0xbddd1918	-0.10795802
225	0x3da31eaa	0.07964833
226	0xbd9de4dd	-0.07709668
227	0xc04b146f	-3.1731222
228	0x3e55de62	0.20885614
229	0xbd8a2089	-0.06744487
230	0x3e3512f2	0.17683008
231	0xbd42bc87	-0.047543075
232	0x3e7e3425	0.24824579
233	0x3f37eb12	0.71843064
234	0xbdef15c0	-0.1167407
235	0x3e10979b	0.14120333
236	0xbf9a746b	-1.2066778
237	0xbdbb7e8d	-0.09154997
238	0x3dbb84bb	0.09156176
239	0x3f0c67bc	0.54845786
240	0xbe27ef25	-0.1639982
241	0x3eee0d6a	0.4649461
242	0x3ddc5b81	0.107596405
243	0x3d942359	0.072333045
244	0x3deabae3	0.11461427
245	0x3e28ab97	0.16471706
246	0x3d44826f	0.047975954
247	0x3e9bca6c	0.30427873
248	0xbb2d88c8	-0.0026479233
249	0x3f3121d7	0.6919226
250	0x3e67b83e	0.22628877
251	0x3e6797a0	0.22616434
252	0xbdfa93c2	-0.12235214
253	0x3f22cd4b	0.635945
254	0xbe6fa17f	-0.2340145
255	0x3f93bcd5	1.1542002

decoders.0.decoder_net.2.bias f4 [128]
0	0x3d31c9ec	0.04340546
1	0x3e9c584a	0.3053611
2	0x3e574c59	0.21025218
3	0x3e3c7742	0.18404868
4	0xbd80efdb	-0.06295749
5	0x3d8f458f	0.06995689
6	0x3cc585d4	0.024111666
7	0x3e1f9c39	0.15586938
8	0x3d8d2c1c	0.06893179
9	0xbc140435	-0.009034206
10	0xbdbd822a	-0.092533424
11	0x3d2b2e30	0.041792095
12	0x3dd3dca5	0.10344819
13	0xbc9796a6	-0.018504452
14	0x3d719c7d	0.05898713
15	0x3d677508	0.056508094
16	0x3d233aea	0.039851107
17	0x3d49e465	0.04929008
18	0x3e12bf2a	0.14330736
19	0x3dbca0ff	0.09210395
20	0x3c889811	0.016674073
21	0x3e173b6f	0.14768766
22	0xbd2175b7	-0.039418902
23	0xbd8cd3b9	-0.068763204
24	0x3df49f9e	0.11944507
25	0x3e3c5c32	0.18394545
26	0xbd02e815	-0.031959612
27	0x3e56727c	0.2094211
28	0x3e5fc348	0.21851838
29	0x3e2f9afd	0.17148967
30	0x3e627b80	0.22117424
31	0xbdbe8fd4	-0.09304777
32	0x3d2b0ab7	0.041758265
33	0xbdac3bf7	-0.08409875
34	0x3e061ca8	0.13096869
35	0xbdfb18c7	-0.12260585
36	0xbd9abf00	-0.075559616
37	0x3cb20085	0.021728763
38	0x3d1e6486	0.038670085
39	0x3da140c6	0.07873683
40	0xbdbf7956	-0.09349315
41	0x3dec4527	0.11536627
42	0x3da2c3e8	0.079475224
43	0x3df4d0c0	0.119538784
44	0x3d1b6267	0.03793564
45	0x3e1e8d56	0.15483603
46	0x3e3f8125	0.18701608
47	0x3e7f329d	0.24921651
48	0x3e01c81f	0.12673996
49	0x3db70e50	0.08938277
50	0x3d9d7a94	0.076893955
51	0x3d101e24	0.035184994
52	0xbca98d27	-0.02069719
53	0xbd527dec	-0.05138962
54	0x3e54f04d	0.20794792
55	0x3d15be01	0.036558155
56	0xbcae469b	-0.021273902
57	0xbc15f89b	-0.00915351
58	0x3de85909	0.11345107
59	0xbdcac601	-0.099010475
60	0xbd0ea3d0	-0.034824193
61	0x3e165d30	0.14683986
62	0x3ddf2a83	0.1089678
63	0x3b78766e	0.0037912386
64	0x3e591493	0.21199255
65	0x3d00bcd7	0.03143009
66	0x3e628d4a	0.2212421
67	0x3db1f1e5	0.08688716
68	0x3c344271	0.011002169
69	0x3dd137b5	0.102157034
70	0xbc330249	-0.010925838
71	0x3da6c4e6	0.08143024
72	0x3e220986	0.15823945
73	0x3deb666f	0.11494147
74	0x3e39675d	0.18105836
75	0x3d6c3bb1	0.057674114
76	0x3def5bfb	0.11687466
77	0xbd9ee05a	-0.077576354
78	0xbd82d1da	-0.06387682
79	0x3e0edc3a	0.13951197
80	0x3db29f7e	0.08721827
81	0xbe11f3c5	-0.14253147
82	0x3da73f6e	0.08166395
83	0xbd59b704	-0.053153053
84	0x3eebe401	0.4607239
85	0xbce5a3e4	-0.02803225
86	0xbd89a697	-0.067212276
87	0x3c01e4c7	0.00792808
88	0xbd154d86	-0.036450885
89	0xbd047e16	-0.032346807
90	0xbd3a7258	-0.045519203
91	0x3d1aff5a	0.03784118
92	0x3d9a2181	0.075259216
93	0x3e8e3a9f	0.277791
94	0xbd95f44c	-0.073219866
95	0x3d930873	0.07179346
96	0x3d93fe87	0.072262816
97	0x3b4c1c61	0.0031144845
98	0x3d620b8f	0.055186804
99	0x3e4d9adb	0.20078604
100	0x3e217b49	0.15769686
101	0x3dd28bc6	0.10280566
102	0x3e5e61a6	0.21716937
103	0xbc878b39	-0.016545879
104	0xbdb081ba	-0.086184934
105	0x3dca4091	0.09875596
106	0x3c829c57	0.01594369
107	0x3e765106	0.24054345
108	0x3d0f28a8	0.034950882
109	0xbd8af073	-0.06784143
110	0x3cb6f21d	0.022332245
111	0x3cb58834	0.022159673
112	0xbc8302cb	-0.015992543
113	0x3e0dc1da	0.1384348
114	0x3e35b453	0.1774457
115	0x3e508172	0.2036188
116	0x3dee1e36	0.11626856
117	0x3d902fc4	0.070403606
118	0x3ef03b7f	0.46920392
119	0x3dd58cc7	0.10427242
120	0x3ced20e2	0.028946344
121	0xbce751e2	-0.028237287
122	0xbd824718	-0.06361216
123	0x3c37ba9e	0.011213927
124	0xbd285e62	-0.041105635
125	0x3dbf2594	0.09333339
126	0xbcc5383b	-0.024074664
127	0x3e80f4de	0.2518682
