models_v103/dec5/model_rerun2.pt (torch, 671350 bytes, 44 tensors)

encoder.encoder_net.0.weight f4 [128, 50]
-0.071291074 0.07826955 -0.103476375 0.0129736075 -0.054585736 0.0035758817 -0.08029533 -0.06469317
-0.09189866 0.167495 0.21855743 -0.040863063 0.12620118 0.0059608906 -0.11104142 -0.01903402
-0.030171493 -0.050681338 -0.09231655 -0.041684903 0.058440372 0.027654443 0.106200054 0.03971877
-0.07759429 0.049747027 -0.012887278 0.036956824 -0.12683259 -0.0041190833 -0.06949141 0.1368601
-0.06844989 -0.0072712116 -0.0066506225 -0.052769653 -0.17756091 -0.19038372 0.050252143 -0.07253602
-0.13747099 0.124194294 -0.16338125 -0.044240646 -0.056331515 0.052032318 0.046511482 0.09837628
0.10373004 -0.011118318 0.009294201 0.08167702 0.0018461822 -0.06751903 0.20495385 0.11627946
-0.06468188 -0.006733864 -0.04211781 -0.15984684 -0.074114 0.20341204 0.12996854 0.15621568
-0.13451043 0.11594667 -0.1952944 0.06626208 0.058853723 -0.095678665 -0.19878867 -0.13911977
-0.12642245 -0.10250315 -0.141274 0.16892189 0.00034867268 -0.13649862 0.018734977 0.08253976
0.045198347 -0.08487663 -0.010863112 0.14019111 0.0075172903 0.029952658 0.08823656 0.037888326
0.07526326 0.00367281 -0.120008916 -0.0011542694 -0.042344697 -0.078082584 -0.23220316 0.036782417
0.008623994 0.010549793 -0.04504364 -0.027587418 0.044209782 0.028321514 0.046641894 0.050309885
-0.01537141 -0.01492096 0.10209899 0.051035292 0.056895886 0.08592555 0.004372602 -0.1122822
-0.07785038 -0.031632964 -0.15980835 0.109768875 -0.07312433 0.06522816 0.03964969 -0.19418332
-0.13368644 0.15930477 -0.054447792 -0.07843702 -0.2918501 0.11667942 -0.0015148302 -0.011778453
0.08098988 -0.1818281 0.12751266 -0.124522194 0.19844162 -0.039619133 0.130807 0.05117491
-0.21163134 -0.07673797 0.38929716 -0.020841518 -0.0044978056 0.18176872 -0.026581457 -0.09854256
-0.07830145 0.0084891645 0.17865786 0.1539403 -0.11845511 0.20550258 0.06478176 0.011543419
-0.019378921 0.018306162 -0.024480065 0.13693866 -0.03938535 -0.12918893 0.101504505 -0.021278793
-0.037250564 -0.037649002 0.12887397 -0.079006664 -0.03219757 -0.07139149 0.035674606 -0.07881548
0.11221425 -0.21550083 -0.033297073 -0.048205614 -0.13964261 0.021499645 0.0779032 0.02000575
0.09382309 0.013883292 0.0616697 -0.028712263 -0.06450526 0.07661596 0.029851373 -0.022125397
-0.1202713 0.10826627 -0.094189025 -0.16357608 -0.0582822 -0.004528834 -0.0848918 0.083426125
0.08151243 0.083605304 -0.10680163 -0.17962424 0.009870792 0.084380455 0.18342482 -0.13177168
0.0062419637 -0.0046170265 0.0751102 0.043837763 0.10993565 0.06572546 -0.174898 0.08095143
-0.030412199 -0.07807168 -0.008335232 0.11967581 -0.08638527 -0.047882263 -0.04843454 0.12825373
0.022929737 -0.082593545 -0.06487373 -0.16142079 0.09835905 0.23166984 -0.013279708 0.1827164
-0.058918994 -0.3120478 -0.04629897 0.3217223 0.021702824 0.064840995 0.14434193 0.09269269
0.17252918 0.0861362 0.26270667 -0.08515176 0.33743286 -0.046951655 0.059577275 -0.26058182
-0.06224055 -0.0773814 0.06497658 0.22199368 0.27561316 0.13523121 0.11698377 0.009251646
-0.03141104 -0.23715585 0.00072205724 0.016213171 0.03206595 -0.004361988 0.03434738 -0.05344775
00000000: 0e01 92bd c94b a03d 6ceb d3bd 418f 543c
00000010: 4b95 5fbd 5759 6a3b e171 a4bd da7d 84bd
00000020: 5d35 bcbd cf83 2b3e 85cd 5f3e 0760 27bd
00000030: e23a 013e 9353 c33b af69 e3bd 3ced 9bbc
00000040: 352a f7bc 3c97 4fbd 7610 bdbd cabd 2abd
00000050: 2c5f 6f3d 928b e23c 6a7f d93d 26b0 223d
00000060: c1e9 9ebd 8ac3 4b3d 2925 53bc 0a60 173d
00000070: 67e0 01be 60f9 86bb 8351 8ebd 0e25 0c3e
00000080: 752f 8cbd 5843 eebb 77ed d9bb fe24 58bd
00000090: 87d2 35be f3f3 42be 31d5 4d3d c48d 94bd
000000a0: 32c5 0cbe 9459 fe3d 6a4d 27be ae35 35bd
000000b0: e0bb 66bd d71f 553d d382 3e3d 8179 c93d
000000c0: 6a70 d43d 9b29 36bc b446 183c 4846 a73d
000000d0: 98fb f13a 6b47 8abd 6cdf 513e ed23 ee3d
000000e0: ef77 84bd bfa7 dcbb ba83 2cbd e4ae 23be
000000f0: 15c9 97bd 3f4b 503e 7916 053e 01f7 1f3e
00000100: 1abd 09be 7375 ed3d 41fb 47be 6ab4 873d
00000110: 9a10 713d 2df3 c3bd 428f 4bbe 6a75 0ebe
00000120: e374 01be 2ced d1bd 22aa 10be dcf9 2c3e
00000130: 0ece b639 4bc6 0bbe 187a 993c 9b0a a93d
00000140: e721 393d ccd3 adbd 32fb 31bc 428e 0f3e
00000150: 9a53 f63b 475f f53c 5fb5 b43d ca30 1b3d
00000160: a023 9a3d 87b3 703b 3cc7 f5bd db4a 97ba
00000170: a271 2dbd c3e9 9fbd aac6 6dbe 29a9 163d
00000180: a74b 0d3c 0ad9 2c3c ae7f 38bd 02ff e1bc
00000190: 5115 353d 8502 e83c 920b 3f3d bd11 4e3d
000001a0: 5ed8 7bbc 0b77 74bc 4619 d13d 620a 513d
000001b0: a90b 693d bcf9 af3d 0b48 8f3b 36f4 e5bd
000001c0: 0570 9fbd 9191 01bd cda4 23be 81ce e03d
000001d0: 35c2 95bd 5796 853d b767 223d fed7 46be
000001e0: 19e5 08be ca20 233e a604 5fbd 97a3 a0bd
000001f0: 606d 95be 9ff5 ee3d 448d c6ba 6afa 40bc
00000200: 06de a53d 2531 3abe ae92 023e 7e05 ffbd
00000210: 4834 4b3e ac47 22bd 45f2 053e c89c 513d
00000220: e3b5 58be cc28 9dbd f551 c73e d5bb aabc
00000230: 5462 93bb 9421 3a3e 5bc1 d9bc afd0 c9bd
00000240: 835c a0bd 2316 0b3c 16f2 363e 87a2 1d3e
00000250: 9898 f2bd 456f 523e 4dac 843d 9c20 3d3c
00000260: 8bc0 9ebc cef6 953c 6b8a c8bc a639 0c3e
00000270: 8852 21bd 1a4a 04be 98e1 cf3d dd50 aebc
00000280: 0c94 18bd d735 1abd 8af7 033e 3fce a1bd
00000290: 99e1 03bd b435 92bd 891f 123d 036a a1bd
000002a0: 96d0 e53d 40ac 5cbe 8362 08bd 4073 45bd
000002b0: 79fe 0ebe 0620 b03c b78b 9f3d 19e3 a33c
000002c0: 5226 c03d bf76 633c 5e99 7c3d fb35 ebbc
000002d0: 551b 84bd d4e8 9c3d de8a f43c 5240 b5bc
000002e0: cd50 f6bd b5ba dd3d 2de6 c0bd 7d80 27be
000002f0: 51b9 6ebd 9d66 94bb c1db adbd 51db aa3d
00000300: fdef a63d 4239 ab3d d0ba dabd 6bef 37be
00000310: 1ab9 213c a9cf ac3d b7d3 3b3e 28ef 06be
00000320: 6389 cc3b 6d4a 97bb 60d3 993d 3a8f 333d
00000330: f125 e13d 129b 863d 7618 33be ddc9 a53d
00000340: 0123 f9bc 0ce4 9fbd 7f90 08bc 9718 f53d
00000350: c3ea b0bd 3120 44bd 4c63 46bd f254 033e
00000360: 25d7 bb3c ce26 a9bd 85dc 84bd 7e4b 25be
00000370: 7870 c93d dc3a 6d3e 2293 59bc 021a 3b3e
00000380: 0b55 71bd bbc4 9fbe fda3 3dbd c9b8 a43e
00000390: 1fca b13c 5bcb 843d 5fce 133e aad5 bd3d
000003a0: 7dab 303e 2d68 b03d 7d81 863e 0c64 aebd
000003b0: 00c4 ac3e 6150 40bd 4d07 743d fb6a 85be
000003c0: f2ef 7ebd 247a 9ebd 7112 853d 5052 633e
000003d0: 2b1d 8d3e 0d7a 0a3e 3095 ef3d 3794 173c
000003e0: dda8 00bd fcd8 72be 7148 3d3a 7cd1 843c
000003f0: 9657 033d 02ef 8ebb d7af 0c3d 07ec 5abd

encoder.encoder_net.0.bias f4 [128]
-0.10814514 -1.2409785 0.27880496 0.2872944 -0.13606346 -1.5321572 -0.75221944 -0.691533
-1.0158076 -1.8360742 -1.1741825 -2.0792131 -1.4957801 -0.3451552 -0.10351081 -1.5992055
-1.5574298 -1.6165938 -0.30063257 1.0113512 -1.4850115 -1.789118 -0.4857662 -0.565267
-0.43903494 -1.1582874 -0.68781924 1.0017686 -0.58341146 -1.47868 -0.95442104 -1.9252423
-0.08016621 -1.5633608 0.53041404 0.3780848 -0.9109425 -0.4760299 -1.5454443 -1.3477712
-1.8106986 -0.20035017 -1.9171844 -1.2555178 -1.6919965 0.4527576 -0.37066647 -0.70918024
-1.4736938 -0.42193383 -1.3457581 -1.2295246 -0.7065979 -1.007387 -2.0131447 -0.5397343
-0.7428762 -0.45650634 -1.2055781 -2.026681 1.1387854 -1.3664227 -0.13346747 -1.0624253
-0.77407223 1.1583036 -1.2303334 -1.5144492 -0.38798615 -1.1720339 -0.3541797 -1.1090583
-1.3135463 -1.3255837 -0.25718358 -0.00011072339 -1.1358185 -2.30884 -1.6450986 -2.6911566
-1.3956107 -0.48403215 -2.11777 -0.36566958 -1.9002585 -1.4170716 -1.1258277 -1.367144
-1.9659729 1.2154359 -0.6362581 -1.545917 1.2047769 -1.8977267 -1.6018827 -0.10582495
-1.6795862 -0.7799594 -0.98184735 -0.3516421 -0.472461 -1.3328956 -0.888367 -1.1936946
-2.446394 -1.825216 -0.15858237 0.35720327 -1.25063 0.6758213 0.27728653 -1.072052
-2.518615 -1.4671077 -1.272771 -1.6046124 -2.66859 0.37239572 -1.78033 -1.9152213
-0.7746032 -1.1757271 -0.2566799 -2.5445514 0.63731176 -1.8297158 -0.2312749 -2.192243
00000000: 337b ddbd 62d8 9ebf 86bf 8e3e 4018 933e
00000010: 3854 0bbe ba1d c4bf 7491 40bf 4f08 31bf
00000020: fc05 82bf 7b04 ebbf 9d4b 96bf d411 05c0
00000030: b975 bfbf 2fb8 b0be 7afd d3bd c4b2 ccbf
00000040: dc59 c7bf 8cec cebf 83ec 99be f573 813f
00000050: db14 bebf d201 e5bf 59b6 f8be 57b5 10bf
00000060: 30c9 e0be c342 94bf ec14 30bf f439 803f
00000070: 745a 15bf 6345 bdbf f054 74bf 576e f6bf
00000080: 2f2e a4bd 351c c8bf 37c9 073f 5594 c13e
00000090: 8733 69bf 31ba f3be 1ed1 c5bf c483 acbf
000000a0: f9c4 e7bf 9828 4dbe 4c66 f5bf cfb4 a0bf
000000b0: 5793 d8bf d8cf e73e ffc7 bdbe d68c 35bf
000000c0: 00a2 bcbf b607 d8be cd41 acbf 1061 9dbf
000000d0: 9ae3 34bf 0ff2 80bf 5dd7 00c0 072c 0abf
000000e0: 222d 3ebf 33bb e9be 6250 9abf 24b5 01c0
000000f0: b8c3 913f f0e6 aebf b2ab 08be 8dfd 87bf
00000100: 9929 46bf 4b43 943f 917b 9dbf 79d9 c1bf
00000110: 1fa6 c6be 3505 96bf 0b57 b5be 9ff5 8dbf
00000120: 4922 a8bf baac a9bf 91ad 83be 2b34 e8b8
00000130: 8062 91bf 09c4 13c0 9792 d2bf e93b 2cc0
00000140: 5fa3 b2bf 10d3 f7be 8b89 07c0 0b39 bbbe
00000150: ac3b f3bf 9a62 b5bf 1f1b 90bf 93fe aebf
00000160: 00a5 fbbf 6793 9b3f d0e1 22bf 9ce0 c5bf
00000170: 2136 9a3f b5e8 f2bf 7e0a cdbf c0ba d8bd
00000180: aefc d6bf 6bab 47bf 595a 7bbf 6f0a b4be
00000190: 68e6 f1be 539c aabf 056c 63bf fcca 98bf
000001a0: b891 1cc0 aea0 e9bf 6b63 22be 59e3 b63e
000001b0: a514 a0bf a002 2d3f 80f8 8d3e 0039 89bf
000001c0: fd30 21c0 2fca bbbf 29ea a2bf f063 cdbf
000001d0: 2eca 2ac0 a7aa be3e dae1 e3bf f925 f5bf
000001e0: 654c 46bf 3a7e 96bf 8c6b 83be eed9 22c0
000001f0: dd26 233f 2134 eabf 54d3 6cbe b64d 0cc0

encoder.encoder_net.2.weight f4 [64, 128]
0.017124688 -0.06342136 -0.066137224 0.011280182 -0.068336725 -0.12640229 0.007245048 0.052513927
0.027090503 0.0013647128 -0.039398517 -0.06665351 0.035867132 0.0071950285 -0.0022757323 -0.022213323
-0.03474752 -0.046401076 0.019990457 -0.12106732 -0.035973758 0.03071596 -0.042050883 -0.080025166
-0.044554386 -0.045256514 0.053834256 -0.05785754 0.062696785 0.051120598 0.017056687 0.015175331
-0.031650316 -0.07580138 -0.029107865 -0.064998016 0.0041232696 0.036359567 -0.034676965 0.028534966
-0.032126255 -0.063264556 0.032668818 0.06788436 -0.0088995 -0.0421324 -0.10525501 -0.13678494
0.0020496005 -0.120353594 0.041542932 -0.10000358 0.0025472352 -0.01968511 -0.09456492 -0.08629699
0.046903975 -0.039573494 -0.007031146 -0.033513557 -0.036730465 0.02353723 -0.027553467 0.00019317883
-0.12570009 -0.09419549 0.016233193 -0.04857578 -0.05294082 0.048901528 -0.1314881 -0.010411562
0.039628115 -0.16966753 -0.03556587 0.027282307 -0.03580736 -0.04888717 -0.02354767 0.043005597
-0.12018103 -0.08434654 0.027230272 -0.104335494 -0.07293874 -0.064234145 -0.11463777 -0.006164042
0.05597512 -0.088031314 -0.10804603 -0.0022694508 -0.042576957 -0.010361662 0.047577303 -0.05461995
0.07078459 -0.082183994 -0.099622004 -0.039771475 -0.0035808883 -0.08658571 -0.08857423 0.0094242105
-0.062089793 -0.038977947 0.026789954 -0.095955335 -0.09531531 0.0042120754 -0.080744326 -0.09952066
-0.08983226 -0.0022128222 -0.05790459 -0.12080762 -0.06248032 0.014647314 0.027708849 0.08693647
-0.0012749968 -0.000962321 0.042176068 -0.10315867 -0.021896886 -0.069132134 -0.07680262 0.007996538
0.051217996 -0.12377294 -0.033174578 -0.06928593 -0.0788428 0.027365273 -0.108162135 -0.09067452
-0.069293216 -0.030827742 -0.10511489 -0.036282364 0.026874755 0.032938942 0.0435378 -0.018583534
-0.02999849 -0.09546671 -0.11066996 -0.07115013 -0.057899185 -0.12102914 -0.0359523 0.024877463
-0.06378073 -0.08103479 -0.07909522 0.049530514 -0.050476268 -0.03485567 -0.014943469 -0.078738615
-0.029132707 -0.0011207529 0.007440695 -0.08595639 -0.039743837 -0.08286247 0.05114038 -0.0141982185
-0.101486295 -0.03127881 -0.05749412 -0.041877836 -0.08494865 0.05964858 -0.064327575 -0.010264029
-0.07628352 -0.053004436 -0.0885536 -0.11207414 -0.025017897 -0.0246475 0.052150093 -0.1134028
-0.090592645 0.022862345 -0.10006779 0.016917756 -0.0006622315 -0.052408323 -0.09190506 -0.09129934
-0.060187798 0.01684407 -0.09407612 0.02806002 0.01277021 -0.07018258 -0.08517934 0.059666835
-0.028617868 -0.056129046 -0.04945139 0.060114272 0.0093328515 -0.061261825 -0.06417875 -0.06799874
0.02801731 0.06777487 -0.07075188 -0.06314239 -0.10284383 -0.024176516 -0.007066991 0.032986984
0.0040149847 -0.053683862 0.022079993 -0.10088492 0.068400614 -0.0740158 -0.08633455 -0.011971529
-0.0077518406 -0.027264463 -0.08100382 -0.052842535 0.010127501 -0.017772803 -0.024169445 -0.04221974
-0.095334664 0.046951655 0.051208396 -0.061694015 0.014958821 -0.06986467 -0.104956485 -0.07905026
-0.07318489 -0.041614775 0.00063611043 0.0889804 0.0029641374 0.008650267 -0.09261809 -0.0029548286
-0.10502573 -0.0191298 -0.09522685 0.01684878 0.054569963 -0.012164936 -0.100519374 -0.035761695
00000000: 1349 8c3c 0fe3 81bd f472 87bd 83d0 383c
00000010: 20f4 8bbd 9a6f 01be de67 ed3b d818 573d
00000020: e7ec dd3c 2ae0 b23a 5760 21bd a381 88bd
00000030: 6ae9 123d 46c4 eb3b 7424 15bb b7f8 b5bc
00000040: 6a53 0ebd 0e0f 3ebd 07c3 a33c 25f2 f7bd
00000050: 3859 13bd 09a0 fb3c 8c3d 2cbd 3ce4 a3bd
00000060: a97e 36bd e55e 39bd 4f81 5c3d 07fc 6cbd
00000070: 2c67 803d d563 513d 77ba 8b3c f4a1 783c
00000080: c3a3 01bd c13d 9bbd 9e73 eebc ae1d 85bd
00000090: 7e1c 873b c5ed 143d 6f09 0ebd 29c2 e93c
000000a0: d296 03bd d990 81bd bdcf 053d f506 8b3d
000000b0: 35cf 11bc 0693 2cbd f08f d7bd 5a11 0cbe
000000c0: 9752 063b f27b f6bd ec28 2a3d adce ccbd
000000d0: 84ef 263b ab42 a1bc 41ab c1bd 7abc b0bd
000000e0: 621e 403d d117 22bd 8765 e6bb 8345 09bd
000000f0: af72 16bd 26d1 c03c cfb7 e1bc 0c90 4a39
00000100: 86b7 00be 91e9 c0bd 79fb 843c 66f7 46bd
00000110: 79d8 58bd f84c 483d d1a4 06be 4295 2abc
00000120: 1751 223d 53bd 2dbe 85ad 11bd 257f df3c
00000130: bdaa 12bd ea3d 48bd 0be7 c0bc a326 303d
00000140: 7921 f6bd e1bd acbd 0512 df3c d9ad d5bd
00000150: e860 95bd 318d 83bd 35c7 eabd bbfb c9bb
00000160: 2b46 653d c349 b4bd 3d47 ddbd 11bb 14bb
00000170: 2d65 2ebd f6c3 29bc 6be0 423d 2bb9 5fbd
00000180: 83f7 903d 1550 a8bd 9f06 ccbd 6ae7 22bd
00000190: 56ad 6abb d953 b1bd 6866 b5bd 0168 1a3c
000001a0: de51 7ebd 57a7 1fbd 9b76 db3c 3b84 c4bd
000001b0: ac34 c3bd 7305 8a3b 485d a5bd 7dd1 cbbd
000001c0: faf9 b7bd ff04 11bb 5d2d 6dbd fc69 f7bd
000001d0: 5deb 7fbd 4afb 6f3c abfd e23c bf0b b23d
000001e0: cb1d a7ba 4544 7cba d0c0 2c3d da44 d3bd
000001f0: 1961 b3bc 2695 8dbd b14a 9dbd e903 033c
00000200: f6c9 513d ab7c fdbd 11e2 07bd c8e5 8dbd
00000210: 5578 a1bd 232d e03c 1c84 ddbd 90b3 b9bd
00000220: 9ae9 8dbd 768a fcbc 7a46 d7bd d19c 14bd
00000230: 7228 dc3c fcea 063d b154 323d 7f3c 98bc
00000240: 65bf f5bc 0d84 c3bd efa6 e2bd 29b7 91bd
00000250: b227 6dbd 20de f7bd b842 13bd d2cb cb3c
00000260: 799f 82bd 91f5 a5bd adfc a1bd 82e0 4a3d
00000270: 34c0 4ebd d2c4 0ebd 74d5 74bc b641 a1bd
00000280: b7a7 eebc 3ae6 92ba 13d1 f33b e709 b0bd
00000290: 6fca 22bd ccb3 a9bd 9378 513d a59f 68bc
000002a0: 0cd8 cfbd 361e 00bd f47e 6bbd 1888 2bbd
000002b0: 8ff9 adbd 1252 743d 2dbe 83bd 752a 28bc
000002c0: 893a 9cbd 2e1b 59bd 975b b5bd 2087 e5bd
000002d0: 55f2 ccbc 8ee9 c9bc 569b 553d ba3f e8bd
000002e0: a388 b9bd d049 bb3c 57f0 ccbd 1b97 8a3c
000002f0: 9b99 2dba 1caa 56bd b838 bcbd 26fb babd
00000300: 7b87 76bd 93fc 893c fbaa c0bd 21de e53c
00000310: 253a 513c e2bb 8fbd 8172 aebd 3665 743d
00000320: 0570 eabc 92e7 65bd 8a8d 4abd 623a 763d
00000330: d1e8 183c aeed 7abd 2670 83bd ec42 8bbd
00000340: 8f84 e53c 8dcd 8a3d 5de6 90bd cc50 81bd
00000350: c99f d2bd d40d c6bc 3892 e7bb 5c1d 073d
00000360: 2290 833b 9ce3 5bbd 1ae1 b43c c19c cebd
00000370: 9f15 8c3d 9995 97bd 2bd0 b0bd 3b24 44bc
00000380: 2703 febb b959 dfbc 55e5 a5bd 6a71 58bd
00000390: d1ed 253c 4598 91bc 00ff c5bc 9bee 2cbd
000003a0: d23e c3bd 6150 403d e5bf 513d ddb2 7cbd
000003b0: d815 753c 3515 8fbd 6df3 d6bd 1ae5 a1bd
000003c0: f6e1 95bd 4174 2abd a6c0 263a 5b3b b63d
000003d0: f941 423b d9b9 0d3c 8eae bdbd cca5 41bb
000003e0: bb17 d7bd 19b6 9cbc 4b06 c3bd 7406 8a3c
000003f0: c184 5f3d 714f 47bc 1add cdbd db7a 12bd

encoder.encoder_net.2.bias f4 [64]
-0.03609807 -0.0026430937 0.0685672 -0.08959491 -0.13994873 1.2919102 0.005945132 0.4738144
0.03738722 0.7695071 0.8676223 -0.100856215 0.01518683 1.2085896 0.9005213 0.045040328
0.016900549 0.02046403 0.18220532 -0.11029686 -0.04356239 -0.18051623 0.40248755 -0.028318528
-0.16353635 0.0063245455 -0.039829623 0.06442929 -0.5905938 -0.060550798 0.00029916372 1.2328281
0.005393826 0.5933568 0.016732577 1.0177706 -0.07892571 -0.006751685 -0.16018716 0.2582465
0.80475205 0.013957327 0.028344763 0.8599919 1.4061155 -0.049105942 1.1007829 0.66584456
1.2695872 0.9612327 -0.12631899 0.008008727 0.06928526 1.0019631 -0.09629762 -0.0422043
0.35271716 0.21486671 0.33289534 -0.10150331 0.10934583 0.4342928 0.08973379 1.0021845
00000000: 92db 13bd c137 2dbb f66c 8c3d 897d b7bd
00000010: b84e 0fbe 505d a53f 62cf c23b cd97 f23e
00000020: 5723 193d 6bfe 443f 7f1c 5e3f b48d cebd
00000030: 2fd2 783c 10b3 9a3f 9088 663f 357c 383d
00000040: 0573 8a3c 2ea4 a73c 0894 3a3e 52e3 e1bd
00000050: 7a6e 32bd 3fd9 38be d912 ce3e 42fc e7bc
00000060: 1376 27be 223e cf3b 6324 23bd 81f3 833d
00000070: 2831 17bf 1d04 78bd 13d9 9c39 50cd 9d3f
00000080: b1be b03b 3be6 173f c212 893c 4f46 823f
00000090: cda3 a1bd 3d3d ddbb 1a08 24be e338 843e
000000a0: 3b04 4e3f 46ad 643c 4733 e83c 6e28 5c3f
000000b0: 98fb b33f 5023 49bd 74e6 8c3f ca74 2a3f
000000c0: d581 a23f 5913 763f c459 01be 0937 033c
000000d0: 6ee5 8d3d 5440 803f b037 c5bd 6bde 2cbd
000000e0: 5897 b43e 0506 5c3e 4271 aa3e f8e0 cfbd
000000f0: b5f0 df3d a05b de3e 59c6 b73d 9547 803f

encoder.encoder_net.4.weight f4 [4, 64]
0.004181925 -0.013124615 -0.032725785 0.0070565683 -0.03347113 -0.024597263 0.030861467 0.017520724
0.0026224821 -0.0044371667 0.05991757 -0.053061794 -0.046143483 -0.14343563 -0.043613836 -0.02048272
0.015933694 -0.014062176 0.049333792 0.0020304038 -0.012054169 0.017320719 0.08771386 -0.012775122
0.060871392 0.027920408 0.013767407 -0.02027397 0.01733196 0.004814432 0.039233673 0.023974057
-0.034509607 -0.007857255 0.027262317 0.032996904 -0.051631752 0.008782146 -0.024307001 -0.027237337
-0.017322537 -0.100820675 -0.0027437257 -0.07038458 0.013738887 -0.0037221052 0.013971786 -0.04433616
-0.054465268 -0.034635913 -0.049188234 -0.0045502502 -0.049281526 -0.05105992 0.091105714 -0.05036627
-0.04639891 0.0020892113 -0.0066944594 0.019589026 0.010197155 -0.004507373 0.008620571 0.017365769
-0.03600028 0.049062997 0.028127126 0.0046260725 0.012794237 -0.063224204 0.03360234 0.04799769
-0.00051061 0.053463962 -0.0023359186 0.008508141 0.056883894 -0.03256344 -0.007506738 0.006122552
0.0021499156 -0.0070499363 0.0035746517 0.026187856 -0.028703675 0.047335275 0.03494465 -0.015576006
-0.006476324 0.0011316541 -0.00023093745 -0.020654691 -0.014580561 -0.023921886 0.022258181 0.010746854
0.023793828 -0.032627013 0.013323772 -0.0070385966 0.019858848 -0.044375397 0.01471034 -0.025475182
0.04161456 -0.0072098854 0.005621604 0.036287043 -0.047736213 -0.046331413 -0.09655888 0.0555515
-0.039340816 0.005338299 -0.05133402 -0.026420329 0.00031233477 0.03871242 -0.04907286 0.08964542
-0.00096809154 0.015608603 0.0018333755 0.031617727 0.009276634 -0.012028742 0.01802021 0.0041651283
0.07940328 0.12120023 -0.019874927 0.09059464 0.00063809706 -0.07703219 -0.039822545 -0.0022741465
0.042048577 0.03845077 0.033333648 0.02409937 -0.06801954 0.11276755 -0.0125282835 -0.03082588
-0.06554799 0.101404816 0.016999986 -0.002144354 -0.032155573 0.035531107 0.060697697 0.014896651
0.07278714 0.046673 -0.06597462 0.04569165 -0.10518571 -0.06715919 -0.06252286 -0.09348155
-0.071071364 -0.12871684 0.026372202 0.019933822 -0.09401819 -0.1113874 0.10765507 0.010655568
-0.043665223 -0.06107201 0.020583222 0.023847632 -0.06893791 -0.057169434 0.00762488 0.03007456
0.0432875 0.03160993 0.03165506 -0.051694285 0.16269478 -0.045461677 -0.010924638 0.006704086
-0.030776383 0.060342763 -0.16926125 0.06976809 -0.092998326 -0.30793583 0.006827533 -0.05219747
0.0031854028 0.05926635 0.02207446 0.07274355 0.08979456 -0.027958434 -0.05320692 0.005944648
0.033577066 0.06770969 -0.014080977 0.06455528 -0.012405141 0.064591534 -0.011427067 0.06746161
-0.13411005 -0.025356162 -0.12948644 0.11919839 0.10710928 0.024018219 -0.002548841 0.05241413
0.0618203 -0.107008934 -0.08057663 0.026220873 -0.20811129 -0.03084945 0.028295955 -0.09786488
0.049214385 -0.17733863 0.05670976 0.011990377 0.05654085 -0.019379163 0.034457218 -0.039234754
0.028316015 0.026619535 -0.09400154 0.036707617 -0.03937406 -0.0128253 0.022432657 0.050516248
-0.0035515435 -0.0024271233 0.063908905 0.031942848 -0.020409675 -0.08268028 0.08353476 0.056089543
0.0024141322 -0.1641345 -0.15856688 -0.13775787 -0.0038588825 -0.17168298 -0.401668 -0.4153343
00000000: 8808 893b a008 57bc 790b 06bd c93a e73b
00000010: 0619 09bd 3380 c9bc 30d1 fc3c 9f87 8f3c
00000020: f3dd 2b3b a765 91bb 206c 753d 5357 59bd
00000030: f300 3dbd cae0 12be 6ca4 32bd 61cb a7bc
00000040: 6187 823c 0b65 66bc 3b12 4a3d 8610 053b
00000050: d97e 45bc 2ee4 8d3c 53a3 b33d bf4e 51bc
00000060: 4854 793d 57b9 e43c b190 613c 9915 a6bc
00000070: c1fb 8d3c 62c2 9d3b 7db3 203d 3e65 c43c
00000080: f259 0dbd b7bb 00bc 3955 df3c c327 073d
00000090: d17b 53bd fde2 0f3c 7a1f c7bc d620 dfbc
000000a0: fee7 8dbc 127b cebd 14d0 33bb ca25 90bd
000000b0: 1219 613c 90ee 73bb ebe9 643c d599 35bd
000000c0: f916 5fbd 63de 0dbd 9a79 49bd 441a 95bb
000000d0: 6ddb 49bd 3524 51bd a295 ba3d dd4c 4ebd
000000e0: c90c 3ebd 26eb 083b 325d dbbb 2a79 a03c
000000f0: f811 273c 96b2 93bb 4c3d 0d3c a842 8e3c
00000100: 0875 13bd 48f6 483d dc6a e63c 4f96 973b
00000110: eb9e 513c b17b 81bd 9ba2 093d 3a99 443d
00000120: 75da 05ba 07fd 5a3d 3616 19bb bb65 0b3c
00000130: 16ff 683d 3e61 05bd 15fb f5bb b09f c83b
00000140: 99e5 0c3b 2703 e7bb b444 6a3b ea87 d63c
00000150: f823 ebbc a2e2 413d 1f22 0f3d 8132 7fbc
00000160: 5837 d4bb 0354 943a cd27 72b9 0734 a9bc
00000170: 4ee3 6ebc d5f7 c3bc ca56 b63c 9313 303c
00000180: 46eb c23c e7a3 05bd f34b 5a3c 07a4 e6bb
00000190: 06af a23c fac2 35bd a303 713c 54b1 d0bc
000001a0: 0774 2a3d e740 ecbb 6f35 b83b b9a1 143d
000001b0: 0c87 43bd 02c6 3dbd a9c0 c5bd f889 633d
000001c0: d623 21bd e6ec ae3b 9f43 52bd 726f d8bc
000001d0: ddc0 a339 ea90 1e3d a000 49bd 0598 b73d
000001e0: 86c7 7dba 3abb 7f3c e04d f03a 9781 013d
000001f0: 06fd 173c 3314 45bc 1f9f 933c a17b 883b
00000200: 309e a23d d437 f83d bed0 a2bc af89 b93d
00000210: f845 273a 0ec3 9dbd f71c 23bd d909 15bb
00000220: 213b 2c3d 8e7e 1d3d dd88 083d 0b6c c53c
00000230: d44d 8bbd acf2 e63d 6e43 4dbc 8e86 fcbc
00000240: 063e 86bd 54ad cf3d 8e43 8b3c 4a88 0cbb
00000250: 90b5 03bd 1189 113d 269e 783d 1511 743c
00000260: 6d11 953d 302c 3f3d b41d 87bd 2b27 3b3d
00000270: 9b6b d7bd c28a 89bd fc0b 80bd 4173 bfbd
00000280: dd8d 91bd 59ce 03be 840a d83c 414c a33c
00000290: 9c8c c0bd 141f e4bd 437a dc3d b194 2e3c
000002a0: 4eda 32bd a526 7abd 259e a83c 1c5c c33c
000002b0: 522f 8dbd 7f2a 6abd 21da f93b ec5e f63c
000002c0: 3c4e 313d 6a79 013d bca8 013d 63bd 53bd
000002d0: 7699 263e 0636 3abd 41fd 32bc f3ad db3b
000002e0: c11e fcbc f929 773d d252 2dbe 93e2 8e3d
000002f0: e875 bebd c4a9 9dbe 7fb9 df3b 04cd 55bd
00000300: 31c2 503b 46c1 723d 7fd5 b43c 92fa 943d
00000310: 36e6 b73d 1609 e5bc 80ef 59bd 52cb c23b
00000320: 1b88 093d 61ab 8a3d e6b3 66bc 8f35 843d
00000330: ef3e 4bbc 9148 843d 9838 3bbc 5029 8a3d
00000340: 2554 09be bab7 cfbc 1898 04be 491e f43d
00000350: 1c5c db3d dbc1 c43c 750a 27bb 33b0 563d
00000360: 4837 7d3d 8027 dbbd 5c05 a5bd 28cd d63c
00000370: 201b 55be fcb7 fcbc ebcc e73c 626d c8bd
00000380: 0695 493d 4298 35be 7e48 683d 4973 443c
00000390: 6197 673d 0dc1 9ebc 0323 0d3d 9fb4 20bd
000003a0: fdf6 e73c 3611 da3c e183 c0bd ba5a 163d
000003b0: b246 21bd 3521 52bc b1c4 b73c 20ea 4e3d
000003c0: 03c1 68bb 5f10 1fbb ace2 823d 81d6 023d
000003d0: 3132 a7bc 4754 a9bd 4614 ab3d 26be 653d
000003e0: 6b36 1e3b e012 28be 5b5f 22be 6610 0dbe
000003f0: 4ee5 7cbb aacd 2fbe 6ea7 cdbe b3a6 d4be

encoder.encoder_net.4.bias f4 [4]
0.12107176 0.022936609 -2.6508405 -2.5644403
00000000: 79f4 f73d 8ee5 bb3c 5fa7 29c0 ca1f 24c0

decoders.0.decoder_net.0.weight f4 [128, 2]
0.44996798 -0.5169643 0.08736854 -0.8590294 -2.1189172 0.009354216 1.3335966 1.4322978
-0.36579996 -0.83369136 0.23521353 1.0263717 0.75298905 -0.9959266 1.2242999 -0.08194844
-1.2345312 -0.28269732 -1.2060047 0.6945097 -1.4177645 -0.24932446 -1.3635086 0.6642612
1.4216306 0.58589196 0.73558074 -0.3154174 0.68266124 -0.79996055 -0.76306385 0.8717181
-0.96865684 1.0476723 -0.113508455 -0.06430176 0.14962943 1.3406196 0.6356936 -0.916548
1.2434169 0.83615535 0.4915314 1.1805793 0.72626096 0.116173424 -1.3898559 -0.23530453
0.5901928 0.28118622 -0.1497203 -0.85962594 1.4247814 -0.9925277 1.0496258 0.58190936
0.5691899 -0.8092761 0.2976603 -1.2126797 -0.7009324 -1.1123074 -0.36845785 1.0773746
0.8185392 0.24926251 -1.8498031 -0.2546378 0.72562 -0.82215446 0.71961933 0.44826534
-1.0698191 1.4512085 0.5640958 1.5113751 -1.144993 -0.5224023 0.8361944 1.4043782
0.61289394 0.46440837 0.34950095 -0.0079102535 0.7841303 0.05068517 -1.4342183 -0.95051587
0.94739664 -0.24161275 -0.6029118 -1.0402972 -0.08007143 0.035471294 0.49335805 0.89050245
0.06077998 -1.1648158 -0.5234136 -0.9095646 -0.10354525 -0.76305556 0.81904507 0.65731376
-0.44301543 -0.95023793 0.07858328 1.0493064 -1.6850576 0.58731234 -0.8854832 -0.44796437
-0.5919386 0.86321706 -0.42256507 1.3812426 -0.99948126 -0.18184534 0.56152666 0.34812236
0.67964005 -0.6033961 -2.1848288 -0.33410624 0.30145606 -0.9153486 -1.6285772 0.1944574
-0.67333716 1.5726246 -0.95622426 1.3197176 -1.2140998 -1.0063385 -0.7678868 0.15186332
-0.73774326 0.8327012 1.1067284 -0.99589944 0.36586568 -1.0968897 -1.0102627 1.1150926
-0.8601417 0.50632346 0.83435225 1.0873004 -0.8940428 0.722483 -0.44660825 -0.29197663
0.12991075 -1.0651946 0.63708943 0.9076835 -0.27776372 0.41544193 1.4449681 0.66919297
0.799311 -0.52344954 1.3895628 -0.5786587 -0.8542434 0.0914375 -0.5477508 -0.93210036
0.184602 1.857989 -0.32700127 -1.3234805 0.15965314 1.7602712 0.51643354 -0.32111895
-1.054615 -0.1851033 -1.1578276 -1.2670561 0.97679675 -1.1492438 1.0143093 0.24790777
-0.8023491 0.5056553 1.7200867 0.32146212 -0.5235993 1.0651306 0.83120435 1.4977444
-1.3004205 -0.19526042 -0.8459488 0.04037834 0.064927414 -0.8505215 -0.88333315 0.45935857
1.7734828 0.033391863 -1.1522338 0.011808366 -1.5310191 -0.2508739 -0.26200268 -0.55811495
-0.936238 0.6958306 -1.4997259 -0.5514535 0.8389215 -0.378131 -0.09864085 -1.2444558
-1.1304756 1.1384313 1.2363317 1.2164704 -0.11266873 -1.0397624 1.4530336 -0.74003685
-0.27259237 -1.2725021 0.98484457 -0.13008116 0.40559664 -1.1688426 -0.63040435 0.82951754
0.47992396 0.09289782 0.9412826 1.0982736 -1.8346819 0.43587038 0.22401005 -0.036754806
-0.4460993 1.3786253 -0.7328475 0.711067 0.09007374 -0.6572047 -0.27137205 -1.02766
1.3017477 0.9351997 -0.7236367 -0.8118124 0.33471295 -0.8679163 0.8034727 0.6485115
00000000: 3462 e63e c657 04bf 47ee b23d 5ae9 5bbf
00000010: 579c 07c0 6d42 193c 4bb3 aa3f 8955 b73f
00000020: 224a bbbe cc6c 55bf d1db 703e 2660 833f
00000030: e4c3 403f 0cf5 7ebf dcb5 9c3f 95d4 a7bd
00000040: 1e05 9ebf b4bd 90be 5d5e 9abf 63cb 313f
00000050: 4f79 b5bf e94e 7fbe 7387 aebf 060d 2a3f
00000060: fef7 b53f 04fd 153f 054f 3c3f 647e a1be
00000070: e3c2 2e3f 37ca 4cbf 2758 43bf eb28 5f3f
00000080: e5f9 77bf 201a 863f 1f77 e8bd a4b0 83bd
00000090: 7538 193e 6c99 ab3f d1bc 223f e4a2 6abf
000000a0: 4928 9f3f 470e 563f 01aa fb3e 391d 973f
000000b0: 3dec 393f 55ec ed3d cce6 b1bf acf3 70be
000000c0: e016 173f a4f7 8f3e 4750 19be 7210 5cbf
000000d0: 3d5f b63f 4c16 7ebf 235a 863f 03f8 143f
000000e0: 6eb6 113f b82c 4fbf ee66 983e 1739 9bbf
000000f0: 4e70 33bf 1760 8ebf 82a6 bcbe 69e7 893f
00000100: c98b 513f ac3e 7f3e 59c6 ecbf e35f 82be
00000110: 3bc2 393f b778 52bf f938 383f 0983 e53e
00000120: d5ef 88bf 33c1 b93f 9568 103f bd74 c13f
00000130: 218f 92bf 28bc 05bf d610 563f aac2 b33f
00000140: 9ee6 1c3f efc6 ed3e caf1 b23e 029a 01bc
00000150: c3bc 483f 419b 4f3d 7794 b7bf 0255 73bf
00000160: 9688 723f 5569 77be 6d58 1abf 7528 85bf
00000170: 7dfc a3bd 594a 113d 6d99 fc3e f8f7 633f
00000180: 6ef4 783d af18 95bf 6ffe 05bf 3ad9 68bf
00000190: 880f d4bd 9c57 43bf f0ac 513f b745 283f
000001a0: ebd2 e2be cb42 73bf 45f0 a03d ac4f 863f
000001b0: f8af d7bf 1a5a 163f 07af 62bf 965b e5be
000001c0: 4a89 17bf cbfb 5c3f 735a d8be 8fcc b03f
000001d0: 01de 7fbf aa35 3abe 36c0 0f3f 183d b23e
000001e0: e4fc 2d3f 2b78 1abf 3cd4 0bc0 f90f abbe
000001f0: 7358 9a3e 4954 6abf 3875 d0bf d71f 473e
00000200: d35f 2cbf c34b c93f 1dcb 74bf 82ec a83f
00000210: 9f67 9bbf b3cf 80bf 3b94 44bf 0f82 1b3e
00000220: bedc 3cbf e82b 553f 47a9 8d3f 44f3 7ebf
00000230: bf52 bb3e e266 8cbf 4a50 81bf 5bbb 8e3f
00000240: 3f32 5cbf 6a9e 013f 1c98 553f a92c 8b3f
00000250: fddf 64bf a5f4 383f d6a9 e4be f67d 95be
00000260: 5307 053e 4c58 88bf 4b18 233f f25d 683f
00000270: 0c37 8ebe ceb4 d43e b7f4 b83f 3b50 2b3f
00000280: a59f 4c3f ca00 06bf 32dd b13f fa22 14bf
00000290: b2af 5abf 9643 bb3d 6539 0cbf 219e 6ebf
000002a0: 4f08 3d3e 95d2 ed3f b66c a7be cf67 a9bf
000002b0: 1d7c 233e 9150 e13f fd34 043f b469 a4be
000002c0: a0fd 86bf b88b 3dbe b233 94bf e52e a2bf
000002d0: 5a0f 7a3f 6c1a 93bf e3d4 813f 89db 7d3e
000002e0: c066 4dbf a072 013f cd2b dc3f af96 a43e
000002f0: 9b0a 06bf 3356 883f cfc9 543f 17b6 bf3f
00000300: 2e74 a6bf 59f2 47be 1a90 58bf c263 253d
00000310: aaf8 843d c7bb 59bf 1f22 62bf 0c31 eb3e
00000320: 7c01 e33f e8c5 083d 667c 93bf e077 413c
00000330: 6ff8 c3bf 8b72 80be 3725 86be 9fe0 0ebf
00000340: 4bad 6fbf f421 323f 05f7 bfbf 0e2c 0dbf
00000350: 8fc3 563f 639a c1be 3704 cabd 544a 9fbf
00000360: 6db3 90bf 1eb8 913f 1e40 9e3f 4db5 9b3f
00000370: ddbe e6bd ef16 85bf 01fd b93f 0e73 3dbf
00000380: 3a91 8bbe 59e1 a2bf c61e 7c3f ff33 05be
00000390: 5daa cf3e a29c 95bf 2e62 21bf 435b 543f
000003a0: 98b8 f53e 3641 be3d e5f7 703f 3b94 8c3f
000003b0: dbd6 eabf 672a df3e e462 653e 358c 16bd
000003c0: 2167 e4be cb76 b03f e59b 3bbf 7d08 363f
000003d0: 9578 b83d 913e 28bf 47f1 8abe 5d8a 83bf
000003e0: ab9f a63f 3f69 6f3f 4140 39bf f0d2 4fbf
000003f0: 7f5f ab3e c32f 5ebf 63b0 4d3f da04 263f

decoders.0.decoder_net.0.bias f4 [128]
0.131473 0.18099153 -0.10262932 -0.2761106 -0.3329016 0.18598539 0.19748087 0.8747235
0.5945485 0.250228 0.19649766 -0.24336526 -0.30049995 0.9110986 -0.993555 0.84792215
-0.31261668 -0.59630203 0.57635754 0.7543758 -0.4469723 -0.023879778 0.61997205 0.19928901
0.63232625 0.40593934 -0.87084156 -0.8830512 -1.2980986 -1.800843 0.47806215 0.799472
0.15724763 0.20681657 0.6605651 0.21969974 0.2946521 -0.13594705 0.28183493 -0.91007245
0.22109686 0.8461443 0.74091923 -0.2930524 0.61855835 -0.44057003 -0.57191706 0.67245376
0.16167806 -0.12632872 0.72191757 0.8067611 -0.3985425 1.012765 -0.20558293 0.3786641
0.7308825 0.041714966 0.13473444 0.742427 0.27678746 0.26667252 0.32971007 -0.49292073
-0.6301489 -0.82009566 -0.5937745 0.87727493 0.896621 -1.1202928 -1.8314852 -0.3926672
0.19749837 -0.31872976 0.6851352 0.7789438 0.93606406 0.7435593 0.5267001 -0.8259938
0.37670666 -0.783706 0.7209939 0.46491778 -0.75877905 -0.60866636 -0.26579624 0.058408953
0.17009814 -0.7624717 -1.2935253 0.83125806 0.25135922 -0.23613848 0.53801453 -0.49574357
0.15955615 0.596528 0.15133196 0.22007473 -0.029595988 -0.09925728 0.19950283 0.63371
-0.039406404 0.15584178 -0.5680256 -1.3082962 -0.033651505 -0.3995926 0.33883935 -0.5188426
0.37334463 0.42063892 0.37561026 0.16167751 0.39668918 0.37027398 -0.27899343 0.85473555
0.34245548 0.6257552 0.8564776 0.6807347 0.5893222 0.7286543 0.3023703 0.3950965
00000000: dca0 063e d855 393e 522f d2bd 5e5e 8dbe
00000010: 1472 aabe f472 3e3e 6d38 4a3e e1ed 5f3f
00000020: 5534 183f e21d 803e af36 493e be34 79be
00000030: 21db 99be c23d 693f 9f59 7ebf 6d11 593f
00000040: 4b0f a0be 40a7 18bf 2b8c 133f c61e 413f
00000050: 8ed9 e4be 869f c3bc 7db6 1e3f 6b12 4c3e
00000060: 22e0 213f 48d7 cf3e 79ef 5ebf a50f 62bf
00000070: 1828 a6bf 0682 e6bf 90c4 f43e 32aa 4c3f
00000080: 8605 213e b9c7 533e cb1a 293f f8f8 603e
00000090: a4dc 963e b435 0bbe ab4c 903e 82fa 68bf
000000a0: 3767 623e ea9c 583f e2ac 3d3f f70a 96be
000000b0: d759 1e3f 6592 e1be 2869 12bf ee25 2c3f
000000c0: ef8e 253e 515c 01be 97cf 383f e587 4e3f
000000d0: c30d ccbe 49a2 813f 5584 52be 43e0 c13e
000000e0: 1e1b 3b3f 50dd 2a3d d3f7 093e b20f 3e3f
000000f0: 16b7 8d3e 4d89 883e c2cf a83e 1b60 fcbe
00000100: 7051 21bf caf1 51bf 9b01 18bf 1795 603f
00000110: f488 653f c165 8fbf 1b6e eabf ad0b c9be
00000120: 033d 4a3e 8c30 a3be 0565 2f3f dc68 473f
00000130: e5a1 6f3f e759 3e3f d1d5 063f 5474 53bf
00000140: b2df c03e f5a0 48bf 0e93 383f b409 ee3e
00000150: 583f 42bf 8fd1 1bbf 7216 88be 3a3e 6f3d
00000160: 352e 2e3e 5831 43bf 3d92 a5bf 54cd 543f
00000170: 28b2 803e 49ce 71be 52bb 093f 1ad2 fdbe
00000180: b062 233e 0fb6 183f c4f6 1a3e 455b 613e
00000190: 4973 f2bc 6747 cbbd 784a 4c3e d23a 223f
000001a0: 9c68 21bd fd94 1f3e 206a 11bf 4076 a7bf
000001b0: 29d6 09bd 6797 ccbe 5a7c ad3e ded2 04bf
000001c0: 0727 bf3e fc5d d73e fd4f c03e ca8e 253e
000001d0: d81a cb3e 8d94 bd3e 3ad8 8ebe f3cf 5a3f
000001e0: 5356 af3e 7e31 203f 1e42 5b3f a144 2e3f
000001f0: d2dd 163f 1789 3a3f 48d0 9a3e 174a ca3e

decoders.0.decoder_net.2.weight f4 [128, 128]
0.7555191 -0.40162694 0.18045232 -0.11900152 0.74144435 0.19548655 0.821928 0.2525034
0.09658512 0.4248742 0.053481244 0.4386989 0.14122911 -1.3618758 0.79646593 0.20578319
0.65044737 -0.08595322 0.32333645 -0.49637014 0.06355468 -0.7557871 -1.3456372 0.26001176
-0.26066098 0.066082194 0.49287686 -0.108905874 1.0248853 1.1625856 0.17294042 0.15383159
-0.2613258 0.10483981 0.0049027465 -0.15047196 0.21898423 -1.3503727 0.22059254 0.052282557
-0.17295817 -0.23347503 -0.8028677 0.30008256 0.64753824 0.39060512 -0.05561032 0.37726143
-0.049892135 -0.1557806 0.06685794 0.01741841 0.69328564 0.19570889 0.5056321 0.17527781
0.23081817 0.1156826 0.07856323 0.2888314 0.50157887 0.163944 -0.35038415 0.6769354
-0.16619663 0.25369975 0.16564657 0.12634866 0.28007698 0.6552362 1.2741979 0.35679632
0.07698336 -0.09004773 0.12953712 0.15677553 -0.34413135 0.16423945 0.3524774 -0.10699702
0.56028014 0.35806826 0.10170544 0.09765089 -1.4235413 0.91017354 -0.49706587 0.41693214
0.011069519 0.24626204 0.70853144 -0.9798181 0.15270187 -2.052948 0.21401572 -0.31827694
0.35488737 0.06508856 -0.07153736 0.41957664 -2.0937636 0.17097877 0.13094491 0.19965343
0.50573653 0.20076834 -2.3987334 0.6208952 0.357573 0.095665105 -0.35486802 0.5703134
-0.10449258 0.44791597 -0.06115494 0.18296699 -1.0996044 -1.0767549 0.47782847 0.03508198
0.34189558 0.27252662 0.008198743 0.13733268 -1.0760008 0.2312989 -0.24746916 -0.8797235
0.046383843 0.27361536 -0.053248353 0.15101781 -0.015842292 -0.18988416 0.13030517 -0.04000781
0.03513768 0.034062646 -0.04174694 -0.48635566 -0.11583498 0.12934303 -0.17247343 0.17865877
-0.32079202 0.039784506 -0.015578327 -0.027851887 -0.085627444 -0.25216123 0.015248473 0.0124471905
-0.061527587 0.16087042 0.13417402 -0.41687298 -0.4124634 -0.4131231 -0.067628026 -0.0127226915
0.008506518 0.026257532 -0.08511595 0.059058554 0.36889583 -0.36728293 0.00785242 -0.57848257
0.10554025 0.23544893 0.0076438887 0.053792965 -0.13712959 -0.33320814 0.018259268 0.025557231
0.3101134 -0.23118508 0.047908485 -0.1330701 -0.09206589 0.1624784 -0.47684705 -0.13542569
0.06666892 0.1932146 -0.039022997 -0.009980713 -0.0510258 -0.048366282 0.22019121 -0.33816576
0.01612944 -0.49981278 -0.2619162 0.18133609 0.17033942 0.10384898 -0.36276704 -0.4748319
0.20589834 0.12912531 0.13316135 0.22340055 0.08682874 0.06642822 0.07853104 -0.15912476
-0.003853469 0.08890735 0.16335289 0.118667506 -0.029585108 -0.13694037 0.09779375 -0.011712903
-0.032780875 -0.24653205 -0.11014801 -0.1035257 0.18214272 0.08236858 0.21007241 0.10081602
-0.015525819 0.009937407 0.24194497 0.0052167745 0.055476036 -0.10436767 -0.082389474 0.0577175
-0.028380506 -0.081106275 0.044107977 -0.02179096 0.15342276 0.08271369 0.08973921 0.12652503
0.14814577 -0.05830068 0.15894087 0.27923948 -0.124229796 -0.07809819 -0.38325074 0.20136237
0.28056887 0.14764042 0.073095 0.14226599 -0.15908453 -0.064317115 0.16861086 -0.16453725
00000000: b369 413f 0ca2 cdbe 7ec8 383e 12b7 f3bd
00000010: 4ccf 3d3f a02d 483e e069 523f 2048 813e
00000020: 6bce c53d 1c89 d93e 260f 5b3d 249d e03e
00000030: 5d9e 103e f251 aebf 31e5 4b3f d4b8 523e
00000040: b883 263f 3e08 b0bd 5b8c a53e 3a24 febe
00000050: f528 823d 437b 41bf d73d acbf 4320 853e
00000060: 5b75 85be 1a56 873d 5b5a fc3e 0b0a dfbd
00000070: 712f 833f 9bcf 943f 4b17 313e 0786 1d3e
00000080: 7fcc 85be 41b6 d63d 38a7 a03b 5215 1abe
00000090: 673d 603e 03d9 acbf 03e3 613e 3c26 563d
000000a0: f21b 31be 1414 6fbe bd88 4dbf 6ca4 993e
000000b0: 11c5 253f 65fd c73e a6c7 63bd 6928 c13e
000000c0: b25b 4cbd f384 1fbe d1ec 883d 0eb1 8e3c
000000d0: 2b7b 313f e967 483e 1b71 013f 077c 333e
000000e0: 995b 6c3e 00eb ec3d c2e5 a03d b6e1 933e
000000f0: 7967 003f f0e0 273e 8d65 b3be a34b 2d3f
00000100: 732f 2abe efe4 813e 419f 293e 8b61 013e
00000110: 4066 8f3e 8fbd 273f eb18 a33f 02ae b63e
00000120: 74a9 9d3d f26a b8bd 61a5 043e c489 203e
00000130: fc31 b0be 632e 283e eb77 b43e 4121 dbbd
00000140: 856e 0f3f b954 b73e f14a d03d 31fd c73d
00000150: 9a36 b6bf 2201 693f 6b7f febe 2178 d53e
00000160: ee5c 353c 1e2c 7c3e 5162 353f 5cd5 7abf
00000170: e15d 1c3e 8063 03c0 f026 5b3e 32f5 a2be
00000180: ccb3 b53e 274d 853d 2e82 92bd c0d2 d63e
00000190: 3900 06c0 0f15 2f3e 6c16 063e f371 4c3e
000001a0: f377 013f 3796 4d3e d984 19c0 fdf2 1e3f
000001b0: cf13 b73e 11ec c33d 43b1 b5be 0f00 123f
000001c0: 3500 d6bd 3e55 e53e 9a7d 7abd b35b 3b3e
000001d0: d6bf 8cbf 1bd3 89bf efa5 f43e 1fb2 0f3d
000001e0: f00c af3e 9c88 8b3e 0554 063c f0a0 0c3e
000001f0: 65ba 89bf 9ed9 6c3e 8e68 7dbe 8f35 61bf
00000200: fcfc 3d3d 5017 8c3e f21a 5abd 6aa4 1a3e
00000210: b2c7 81bc fe70 42be b86e 053e 3bdf 23bd
00000220: 87ec 0f3d 4685 0b3d d7fe 2abd 9c03 f9be
00000230: e43a edbd 8072 043e e09c 30be 53f2 363e
00000240: da3e a4be 14f5 223d 3d3c 7fbc a429 e4bc
00000250: 715d afbd 471b 81be bbd4 793c 4def 4b3c
00000260: 5a04 7cbd 37bb 243e ea64 093e 6070 d5be
00000270: 672e d3be df84 d3be 9080 8abd d672 50bc
00000280: ec5e 0b3c 091a d73c 4551 aebd 62e7 713d
00000290: eadf bc3e 820c bcbe 70a7 003c 6f17 14bf
000002a0: 7d25 d83d 8619 713e 9679 fa3b 0356 5c3d
000002b0: b36b 0cbe 429a aabe 7694 953c 665d d13c
000002c0: 2fc7 9e3e c8bb 6cbe b03b 443d 8743 08be
000002d0: 0b8d bcbd bd60 263e 4c25 f4be 08ad 0abe
000002e0: b789 883d 0cda 453e 94d6 1fbd 2586 23bc
000002f0: 6e00 51bd b91b 46bd ce79 613e 1024 adbe
00000300: e321 843c 76e7 ffbe e119 86be 2bb0 393e
00000310: 756d 2e3e c6ae d43d 9abc b9be 2b1d f3be
00000320: 04d7 523e 6d39 043e 735b 083e 1dc3 643e
00000330: 44d3 b13d 850b 883d e2d4 a03d 9af1 22be
00000340: 7b8a 7cbb 0f15 b63d fb45 273e f307 f33d
00000350: 785c f2bc 193a 0cbe 1748 c83d 7ae7 3fbc
00000360: 3d45 06bd e672 7cbe 4895 e1bd 4805 d4bd
00000370: 9f83 3a3e dcb0 a83d 391d 573e a178 ce3d
00000380: 0160 7ebc 82d0 223c 6cc0 773e 7af1 aa3b
00000390: d73a 633d b8be d5bd d0bb a8bd 2f69 6c3d
000003a0: 3c7e e8bc 0c1b a6bd 91aa 343d f582 b2bc
000003b0: db1a 1d3e cc65 a93d 31c9 b73d c78f 013e
000003c0: 86b3 173e b2cc 6ebd 65c1 223e 7af8 8e3e
000003d0: 316c febd f2f1 9fbd 7139 c4be f031 4e3e
000003e0: b9a6 8f3e 0d2f 173e d5b2 953d 2dae 113e
000003f0: 0ee7 22be b1b8 83bd 53a8 2c3e 747c 28be

decoders.0.decoder_net.2.bias f4 [128]
0.051351056 0.13660815 0.001588628 -0.014551098 -0.03939742 -0.08403365 0.06608597 0.046967942
0.6498844 -0.018503934 -0.03138136 0.09928369 0.17853369 0.23830156 0.010871739 0.07214169
-0.08471379 0.044051867 0.100040935 0.13633361 -0.022379491 -0.05526657 0.61519724 0.06333615
-0.09305057 0.035985213 0.0712814 0.0015212522 0.022207629 -0.07301438 -0.0685149 0.12759133
-0.043007616 -0.072436616 0.13169384 0.17211293 -0.080637835 0.03606651 -0.18442199 0.1539446
-0.019717837 0.1662534 -0.033320326 0.12498125 0.03815068 -0.057819497 -0.053332664 0.10766215
0.03844145 0.028203448 -0.011559766 0.12638278 0.14541364 0.15646145 -0.020054914 0.060134653
0.25167027 -0.044903502 -0.041993577 0.10991747 0.079494566 0.24286419 -0.062627345 0.15766975
0.031513836 0.07813301 0.017655982 0.020570625 -0.068960845 0.013351803 -0.10053323 0.19137369
0.1545405 -0.05896642 0.19364254 0.016890934 0.24628033 -0.03289435 0.24719757 -0.037877664
0.14471263 0.33108723 0.038467806 0.20970865 0.080617554 0.19495171 0.21525136 0.0799487
-0.013681625 0.07801899 -0.016994834 0.21330608 0.2879407 0.12093587 -0.04453082 -0.022767732
-0.017361939 0.007351723 -0.048508346 0.11160025 0.06471497 0.25203013 0.012603582 -0.05689549
0.16623792 0.0033417528 0.0076196073 0.027933821 0.0774782 0.0020589635 0.17351343 0.030916192
-0.06575581 0.11219539 -0.015050595 0.015615421 0.22837557 0.04850693 0.08470466 0.10422524
-0.02019057 0.019800795 0.05709899 -0.047701634 0.014892617 0.025980456 0.008624402 0.13020529
00000000: 7c55 523d 02e3 0b3e 8339 d03a bb67 6ebc
00000010: 305f 21bd d619 acbd 1558 873d 7561 403d
00000020: d35e 263f 9095 97bc be89 00bd 3f55 cb3d
00000030: 89d1 363e 5305 743e 611f 323c 06bf 933d
00000040: 6c7e adbd bb6f 343d 43e2 cc3d 0a9b 0b3e
00000050: 3255 b7bc 335f 62bd 917d 1d3f 62b6 813d
00000060: 4c91 bebd 3b65 133d fcfb 913d c164 c73a
00000070: c6ec b53c 9088 95bd 8a51 8cbd 4da7 023e
00000080: c128 30bd a659 94bd c0da 063e 5f3e 303e
00000090: 7325 a5bd 7aba 133d 1ed9 3cbe a7a3 1d3e
000000a0: 4d87 a1bc 553e 2a3e e57a 08bd 2bf6 ff3d
000000b0: e343 1c3d 23d4 6cbd 5a73 5abd f97d dc3d
000000c0: c874 1d3d eb0a e73c 2c65 3dbc 7d6a 013e
000000d0: 50e7 143e 6e37 203e 344a a4bc c14f 763d
000000e0: edda 803e bcec 37bd 7501 2cbd 691c e13d
000000f0: 0cce a23d 64b1 783e c442 80bd 2e74 213e
00000100: a714 013d 3304 a03d 47a3 903c ba83 a83c
00000110: 583b 8dbd 85c1 5a3c 5ee4 cdbd 77f7 433e
00000120: dd3f 1e3e c686 71bd 3b4a 463e db5e 8a3c
00000130: e930 7c3e 3abc 06bd 5c21 7d3e 9c25 1bbd
00000140: 8c2f 143e 4484 a93e 6b90 1d3d ddbd 563e
00000150: d11a a53d 6ca1 473e da6a 5c3e 25bc a33d
00000160: e528 60bc 6cc8 9f3d c038 8bbc e96c 5a3e
00000170: f76c 933e 3aad f73d f365 36bd 6583 babc
00000180: a03a 8ebc b9e6 f03b b0b0 46bd ac8e e43d
00000190: 4889 843d 180a 813e 417f 4e3c 3f0b 69bd
000001a0: 463a 2a3e 4f01 5b3b e6ad f93b 78d5 e43c
000001b0: e4ac 9e3d adef 063b 81ad 313e f443 fd3c
000001c0: fbaa 86bd b2c6 e53d c596 76bc d3d7 7f3c
000001d0: 49db 693e 34af 463d a379 ad3d 0b74 d53d
000001e0: b266 a5bc 4735 a23c a1e0 693d ca62 43bd
000001f0: 2a00 743c f7d4 d43c 5d4d 0d3c 8954 053e

decoders.0.decoder_net.4.weight f4 [100, 128]
-1.8310041 0.05690297 -0.33174217 0.18774606 -0.08499988 0.054833896 1.3795328 -0.14984402
-2.7649906 0.063600935 0.07616025 -1.2363752 2.0061867 -0.008932469 0.29891458 0.018439831
0.017698878 -0.29739904 0.5266922 0.46434316 0.07176955 -0.03593824 1.9493428 -0.13160874
-0.050567087 0.03502346 1.5490006 0.021197798 -0.05984734 -0.5386998 0.0062077884 -1.1941277
0.03300088 0.03067982 0.07728012 1.1859685 0.04934084 -0.24754697 0.93635744 0.244216
0.027512945 0.90839756 0.45266846 0.37483227 -1.4038553 0.040170703 -0.030483853 -0.6773882
-0.068430156 -0.10882226 -0.5136235 -0.22528958 -0.1070334 -0.009451051 -0.81729084 -0.68255156
-1.4840589 0.8478209 1.5003959 -0.9125442 -1.1373965 0.13346025 0.31616634 0.7907088
-0.079626545 -0.12641308 0.02026288 -0.49696055 -1.3850441 0.047693927 -0.100952186 0.5288759
-0.18040659 -0.15709539 -0.15039892 0.063216075 -0.7491054 0.009859036 0.014167418 -0.27224815
-0.48251006 1.7120786 0.08619118 0.16919634 -0.48057204 -0.5096744 1.8158242 -0.34572816
0.067587696 0.07868066 -0.15987566 0.1408752 -0.2008986 0.97477084 1.3812759 0.021561304
-0.09959099 0.08778627 0.9636567 -0.031670835 -0.03696419 -0.4880921 -0.24038574 1.0286317
-0.4468376 -0.120473824 0.32134864 -0.23350869 -1.7239031 -0.05709465 -0.3555835 0.97832406
-0.033197135 -0.719242 0.33455136 -0.39388144 -1.1786419 -0.07447249 0.40545458 -0.2986206
0.6901799 0.053026386 -0.075957 0.021873793 0.021278601 0.10551882 0.0045536123 0.5436921
1.8617878 -0.25235748 -0.56069905 -0.7732646 -0.034774084 -0.09907415 1.0919971 0.44734615
1.0587976 0.038966276 0.03576059 -0.4709415 2.1227977 -0.48412326 -0.21059197 -0.4370785
0.019597577 0.08182953 0.07493068 1.0897208 0.07117755 0.049224902 1.7191967 -0.15641761
-0.06278831 -0.59430635 -1.4468496 0.035229146 -0.05830367 -0.77398 0.009137277 -0.25496835
0.066594034 0.042639244 -0.4016512 2.0343761 0.056320116 -0.9203906 0.74496853 -0.80435556
-0.09107954 2.1650822 0.36643305 -1.0939475 0.15617205 0.002469971 -0.08876889 0.7267822
-0.07104265 -0.21903227 -0.42341706 -0.433864 0.033746846 -0.5281508 -0.57737726 0.43695074
-1.7690424 -0.9481634 -0.875891 -0.49868083 -1.1551819 0.10686756 -1.0105934 1.4176787
-0.08664828 -1.0510927 0.05137977 -0.6152451 -0.67492306 -0.042417306 0.018091079 -0.107005335
0.115646854 -0.4789795 -0.27497855 -0.034411404 0.3070571 -0.010722743 -0.6249032 -0.5481522
-0.423038 -0.44768342 -0.0687331 1.5862981 0.2780377 -1.0297965 2.5681047 -0.503474
0.07785781 0.0771262 -0.51735914 -1.0709095 -0.22915171 -0.64968044 1.1159602 0.043971468
-0.6896289 0.25638565 0.6159072 -0.7737838 -0.04179057 0.2848984 -0.6459989 -1.9972011
-0.9473429 -0.28450716 -1.6946864 -0.4731141 0.07782378 0.022604002 -0.65071607 -0.2660041
-0.0665996 -0.549699 0.64043146 -1.0651137 -0.79950273 -0.1398277 0.1839658 -0.20630339
-0.20051321 -0.022742778 -1.5918422 -0.014980844 0.0710557 -1.3596642 -0.5373972 0.0949561
00000000: 585e eabf 1713 693d 1cda a9be 8140 403e
00000010: 6b14 aebd 8299 603d 8894 b03f b670 19be
00000020: 9bf5 30c0 3541 823d e8f9 9b3d 8b41 9ebf
00000030: 5d65 0040 7e59 12bc 550b 993e 210f 973c
00000040: 3dfd 903c b044 98be 4dd5 063f 63be ed3e
00000050: eafb 923d fa33 13bd 1184 f93f 71c4 06be
00000060: 6f1f 4fbd c274 0f3d a745 c63f 01a7 ad3c
00000070: 7c22 75bd 3be8 09bf b46a cb3b 2dd9 98bf
00000080: ee2b 073d 3f54 fb3c 0a45 9e3d d1cd 973f
00000090: 9f19 4a3d f47c 7dbe 1fb5 6f3f c213 7a3e
000000a0: d462 e13c be8c 683f 29c4 e73e 04ea bf3e
000000b0: 88b1 b3bf 098a 243d 46b9 f9bc 5069 2dbf
000000c0: 1c25 8cbd 34de debd d47c 03bf 50b2 66be
000000d0: 5434 dbbd 95d8 1abc f939 51bf b3bb 2ebf
000000e0: a4f5 bdbf ca0a 593f f90c c03f 7f9c 69bf
000000f0: 3596 91bf cea9 083e 8ee0 a13e e46b 4a3f
00000100: 3e13 a3bd 6e72 01be 57fe a53c 9d71 febe
00000110: 2049 b1bf b55a 433d 05c0 cebd 6964 073f
00000120: 81bc 38be 9ddd 20be 2d02 1abe 6e77 813d
00000130: 5fc5 3fbf cb87 213c 751e 683c 1c64 8bbe
00000140: 8f0b f7be 6425 db3f 0085 b03d ce41 2d3e
00000150: 8a0d f6be 057a 02bf ed6c e83f 4803 b1be
00000160: 6b6b 8a3d 5323 a13d 72b6 23be 9741 103e
00000170: 5db8 4dbe 958a 793f a6cd b03f 55a1 b03c
00000180: 5cf6 cbbd 4ac9 b33d 35b2 763f 47b9 01bd
00000190: c367 17bd 35e7 f9be ae27 76be 34aa 833f
000001a0: e6c7 e4be fbba f6bd cf87 a43e e71c 6fbe
000001b0: dba8 dcbf 14dc 69bd 0a0f b6be 7273 7a3f
000001c0: b8f9 07bd 3e20 38bf 514a ab3e d4aa c9be
000001d0: bddd 96bf 0885 98bd be97 cf3e cde4 98be
000001e0: a1af 303f 3232 593d 588f 9bbd ab30 b33c
000001f0: 7650 ae3c 401a d83d 7836 953b 682f 0b3f
00000200: 104f ee3f 0035 81be f989 0fbf abf4 45bf
00000210: 456f 0ebd 63e7 cabd 90c6 8b3f 8e0a e53e
00000220: ae86 873f 1a9b 1f3d b279 123d 3f1f f1be
00000230: ebdb 0740 01df f7be 6ca5 57be c1c8 dfbe
00000240: 198b a03c 3e96 a73d 4275 993d f97b 8b3f
00000250: 89c5 913d 0da0 493d a30e dc3f f02b 20be
00000260: 2897 80bd 7624 18bf 5e32 b9bf 704c 103d
00000270: d4cf 6ebd 8e23 46bf 84b4 153c 368b 82be
00000280: 7462 883d 7da6 2e3d 3aa5 cdbe 3833 0240
00000290: ecaf 663d b89e 6bbf 42b6 3e3f 3fea 4dbf
000002a0: e987 babd b590 0a40 1d9d bb3e 7906 8cbf
000002b0: 91eb 1f3e 3ddf 213b 77cc b5bd 660e 3a3f
000002c0: cf7e 91bd ff49 60be 1fca d8be 6c23 debe
000002d0: 223a 0a3d e434 07bf ffce 13bf 02b8 df3e
000002e0: fb6f e2bf d6ba 72bf 643a 60bf 1853 ffbe
000002f0: 00dd 93bf 61dd da3d 205b 81bf 7f76 b53f
00000300: a774 b1bd 358a 86bf 9873 523d b480 1dbf
00000310: c2c7 2cbf c5bd 2dbd be33 943c 9d25 dbbd
00000320: 42d8 ec3d cd3c f5be fdc9 8cbe f9f2 0cbd
00000330: 9736 9d3e 72ae 2fbc a8f9 1fbf b453 0cbf
00000340: 7098 d8be c336 e5be f1c3 8cbd d10b cb3f
00000350: f55a 8e3e 5fd0 83bf d45b 2440 ace3 00bf
00000360: ea73 9f3d 57f4 9d3d a671 04bf 9013 89bf
00000370: bfa6 6abe 7551 26bf c9d7 8e3f 6d1b 343d
00000380: 858b 30bf fb44 833e 18ac 1d3f b216 46bf
00000390: 972c 2bbd 34de 913e 2f60 25bf 49a4 ffbf
000003a0: 1085 72bf ecaa 91be 7ceb d8bf 033c f2be
000003b0: 1362 9f3d 072c b93c 5495 26bf b031 88be
000003c0: 5f65 88bd 13b9 0cbf 51f3 233f a555 88bf
000003d0: 36ac 4cbf fe2e 0fbe 8861 3c3e 3241 53be
000003e0: 5653 4dbe 104f babc 7cc1 cbbf 3772 75bc
000003f0: a785 913d 7a09 aebf dd92 09bf 5878 c23d
