models_v103/dec5/model_rerun9.pt (torch, 671350 bytes, 44 tensors)

encoder.encoder_net.0.weight f4 [128, 50]
0	0xbc89869a	-0.016787816
1	0x3cb41d62	0.021986667
2	0x3cf9d5db	0.030497482
3	0xbdb90798	-0.090346515
4	0xbd2a2053	-0.041534733
5	0xbd5e8f49	-0.054335866
6	0xbd2b40e4	-0.04180993
7	0x3c2d84da	0.010590756
8	0xbc5aae6d	-0.01334725
9	0xbd7a8dac	-0.061170265
10	0xbe004185	-0.12524994
11	0x3dc38b90	0.09548104
12	0xbe03390d	-0.12814732
13	0xbd31a57c	-0.04337071
14	0xbe0eaf6e	-0.13934109
15	0xbaa65b25	-0.0012691958
16	0xbbd15982	-0.006388844
17	0xbcb4b5a7	-0.022059275
18	0x3da7a0f4	0.08184996
19	0xbe3813f1	-0.17976357
20	0x3ca10c80	0.01965928
21	0x3e3f2d40	0.18669605
22	0x3dacb4fc	0.084329575
23	0x3cba4130	0.022736162
24	0x3d2b343e	0.04179787
25	0x3d1fa7a8	0.03897825
26	0xbdd43871	-0.10362328
27	0x3e2050bd	0.15655799
28	0xbe262ef5	-0.1622885
29	0x3d976b4c	0.07393512
30	0xbd53bb9c	-0.05169259
31	0xbd79d2fc	-0.060992226
32	0xbe337b58	-0.1752752
33	0x3e279bd2	0.16368034
34	0xbd494cdb	-0.04914556
35	0xbd1d329e	-0.03837835
36	0xbe5382c1	-0.20655347
37	0x3eafc91a	0.34333116
38	0xbd3776c3	-0.044790994
39	0xbe637930	-0.22214198
40	0xbaf0e601	-0.0018379093
41	0xbe70160c	-0.2344591
42	0xbda82726	-0.08210592
43	0xbdf6e0a0	-0.120545626
44	0xbd7dfbd2	-0.062007733
45	0xbd13e351	-0.036105458
46	0xbe02922c	-0.12751073
47	0xbdf61856	-0.120163605
48	0x3e8b66f9	0.27227
49	0xbc1ec381	-0.009690166
50	0xbdcf1722	-0.10111834
51	0xbcbb35ed	-0.022852862
52	0x3d90ab16	0.07063882
53	0x3de847ee	0.113418445
54	0xbc0226d1	-0.007943825
55	0xbe172800	-0.14761353
56	0x3d2bcc93	0.041943144
57	0xbd34b370	-0.044116437
58	0xbe21c7cf	-0.15798877
59	0x3e8f564b	0.27995524
60	0xbe64d4da	-0.22346821
61	0x3e618331	0.22022702
62	0x3dcdc01c	0.100464076
63	0xbd7b6e81	-0.06138468
64	0x3dc5112b	0.09622415
65	0xbcd05e31	-0.025435539
66	0x3bd6952e	0.0065485453
67	0xbcc7f2c8	-0.02440776
68	0x3ddecb2c	0.10878596
69	0x3d0ffe72	0.035154767
70	0x3d6173c3	0.05504204
71	0x3e93453a	0.28763753
72	0xbe28670d	-0.16445561
73	0xbcbe091f	-0.023197709
74	0xbdfbbee3	-0.12292268
75	0x3c94e220	0.018174231
76	0x3da24b77	0.0792455
77	0x3cc875a4	0.024470158
78	0xbd94f822	-0.0727389
79	0x3da37cdc	0.079827994
80	0x3de79261	0.113072164
81	0xbe3e486e	-0.18582317
82	0xbcc3fc90	-0.023924142
83	0x3de18d78	0.11013311
84	0x3de7bbfd	0.11315153
85	0xbd8c2ab8	-0.068440855
86	0x3d4099dc	0.04702173
87	0x3e4dd153	0.20099382
88	0xbd6adc58	-0.057339042
89	0xbdde7270	-0.10861671
90	0x3e6d144c	0.23152274
91	0xbcdb47e1	-0.026767673
92	0xbcc562d2	-0.024094973
93	0xbe3eeb64	-0.18644482
94	0xbd3e3905	-0.046441097
95	0xbdb514c0	-0.088418484
96	0x3e22d47a	0.15901366
97	0x3e05e9e3	0.13077502
98	0xbd0a2945	-0.033730764
99	0x3d13ac05	0.036052722
100	0x3d259989	0.040429626
101	0x3d1e6fb8	0.038680762
102	0xbd38f8ab	-0.045159023
103	0xbc5014d4	-0.012700278
104	0xbd2b680c	-0.041847274
105	0x3dae88fd	0.08522222
106	0x3dcd3744	0.10020307
107	0x3cddc053	0.027069246
108	0x3d82ca9e	0.063863024
109	0xbb94b48f	-0.004538126
110	0x3d434e3e	0.04768204
111	0xbe2eb817	-0.17062412
112	0x3d586537	0.0528309
113	0x3df73bd5	0.12071959
114	0xbdcb120a	-0.0991555
115	0x3de735fb	0.11289593
116	0xbe006f3b	-0.12542431
117	0xbd0f3704	-0.034964576
118	0xbbfd6fc5	-0.007734271
119	0x3e0dcf39	0.1384858
120	0x3d5161ec	0.051118776
121	0x3b806a74	0.00391894
122	0xbcc0d3ee	-0.023538556
123	0xbe106b06	-0.14103326
124	0xbe20d9da	-0.15708104
125	0xbdd463f7	-0.10370629
126	0x3da0165b	0.07816764
127	0x3e291467	0.16511689
128	0x3db48923	0.08815219
129	0xbdbd5447	-0.0924459
130	0xbe1b31d8	-0.15155733
131	0xbe5ef94a	-0.21774784
132	0x3d818818	0.06324786
133	0xbcf32166	-0.029679012
134	0x3e96b579	0.29435328
135	0xbdf84548	-0.12122589
136	0x3d128a89	0.03577665
137	0x3df121a4	0.117739946
138	0x3d7d403d	0.06182884
139	0xbe256538	-0.16151893
140	0x3b846c4c	0.0040412303
141	0x3da22483	0.0791712
142	0xbe0ac19f	-0.13550423
143	0xbe55c2e5	-0.20875128
144	0xbe40c7a4	-0.18826157
145	0x3e03bdd0	0.12865376
146	0x3e59453b	0.21217816
147	0x3e4d29df	0.20035504
148	0xbcc75a48	-0.024335042
149	0x3e328ea5	0.17437227
150	0xbd87c02a	-0.06628449
151	0x3d494dbb	0.049146395
152	0x3cfaa684	0.030596979
153	0xbddf5a2e	-0.10905872
154	0x3d386355	0.045016605
155	0xbdd1ef69	-0.10250742
156	0x3c6a75ea	0.0143103395
157	0xbda03c27	-0.07823973
158	0xbe2702cf	-0.16309665
159	0x3c76eb16	0.015070697
160	0xbe27a6a3	-0.1637216
161	0xbe20ec11	-0.15715052
162	0xbea8f5f3	-0.33000144
163	0xbc9228b8	-0.017841682
164	0xbd19fc83	-0.03759433
165	0x3ddadfbb	0.106872045
166	0xbe196a03	-0.14981847
167	0x3e017463	0.12642054
168	0xbca0a69b	-0.019610694
169	0xbe6c2b71	-0.23063447
170	0xbce80b8f	-0.028325824
171	0x3d2cc972	0.0421843
172	0x3cd63be8	0.026151612
173	0x3e1bdb4d	0.15220375
174	0x3cf81391	0.030282767
175	0xbe8d58a2	-0.27606684
176	0x3de5fef8	0.11230272
177	0xbd67c9bc	-0.056588873
178	0x3d353c2c	0.044246837
179	0x3d2ea607	0.042638805
180	0xbbe654e5	-0.007029163
181	0xbc7f6a15	-0.015589257
182	0x3db458a0	0.088059664
183	0xbb9b244a	-0.0047345506
184	0x3e31b03c	0.17352384
185	0x3da12102	0.07867624
186	0x3d9f1082	0.077668205
187	0xbdb36f1c	-0.08761427
188	0x3a967bd8	0.0011481
189	0xbd358426	-0.04431548
190	0x3dce7cba	0.100823835
191	0xbd882033	-0.066467665
192	0x3dc41728	0.09574729
193	0x3d9e052e	0.07715832
194	0x3b313ba5	0.0027043608
195	0xbd77a98b	-0.060464423
196	0xbdbc21de	-0.09186147
197	0xbd262358	-0.04056105
198	0x3da77826	0.08177213
199	0x3d0d2ffb	0.034469586
200	0xbba9b330	-0.0051788315
201	0xbc642226	-0.013924157
202	0xbd73fe87	-0.059568908
203	0xbd8bf93e	-0.068346485
204	0xbe03787a	-0.12838927
205	0xbcc3a858	-0.023883983
206	0x3cd344ed	0.025789702
207	0x3d10829e	0.035280816
208	0xbce3d4af	-0.027811376
209	0x3d83883b	0.06422468
210	0xbd7ced16	-0.06174954
211	0xbdc0ef31	-0.09420622
212	0x3d3b8899	0.045784567
213	0x3d66ba25	0.056329865
214	0xbe1e86f0	-0.15481162
215	0x3e416243	0.1888514
216	0xbe26d6c8	-0.1629287
217	0x3e19ce37	0.15020071
218	0xbdced833	-0.100998305
219	0x3dadf70c	0.08494386
220	0xbe2bc8cd	-0.16775818
221	0xbe203b21	-0.15647556
222	0xbe0969c4	-0.13419253
223	0x3cc34984	0.023838766
224	0xbdd4f138	-0.10397571
225	0x3e6060ee	0.21911976
226	0x3e2c63b4	0.16834909
227	0x3e267cd0	0.1625855
228	0xbde7eb60	-0.11324191
229	0x3c27e24d	0.010246825
230	0x3cadfdc6	0.021239173
231	0x3d9a80b2	0.07544078
232	0xbd18f739	-0.037345145
233	0xbdd0a014	-0.101867825
234	0xbd1b7666	-0.03795471
235	0xbde00f12	-0.109403744
236	0xbe4d1d5b	-0.2003073
237	0xbc73df76	-0.01488482
238	0x3e9c0086	0.3046915
239	0x3cf2b03d	0.029625053
240	0xbe44cd05	-0.19218834
241	0x3b33d8e9	0.002744252
242	0xbd1ecaa1	-0.03876746
243	0xbccc7dfc	-0.024962418
244	0xbda2a495	-0.07941548
245	0x3d8377d9	0.064193435
246	0x3d8a65b5	0.0675768
247	0x3d0ae610	0.03391081
248	0x3e230626	0.15920314
249	0xbde46778	-0.111525476
250	0x3cc4cf88	0.02402474
251	0x3b87999a	0.004138184
252	0x3cfa6795	0.03056697
253	0x3c400758	0.011720501
254	0xbb5a22eb	-0.0033284973
255	0xbd8d44dc	-0.068978995

encoder.encoder_net.0.bias f4 [128]
0	0xbf4f894a	-0.8106886
1	0xbfbae152	-1.4600012
2	0xbfdc63b0	-1.7217922
3	0x3f05eb1e	0.52311885
4	0xbf6d6825	-0.92737037
5	0xc006c81e	-2.1059642
6	0x3f41545d	0.75519353
7	0xc00cf2c9	-2.2023184
8	0xc01d1e82	-2.454987
9	0xbf5ee1ec	-0.8706348
10	0xbee55f37	-0.44799206
11	0xbfb637ce	-1.423578
12	0x3f014d55	0.50508624
13	0xbf6e03e1	-0.9297467
14	0x3eda9ad0	0.42696238
15	0xbefdddd4	-0.49583304
16	0xbfadd079	-1.3579246
17	0x3ea8da99	0.32979277
18	0xbfcf857d	-1.6212612
19	0xbf83e1fe	-1.0303342
20	0xbf8d0422	-1.1016886
21	0xbede9f1e	-0.43480772
22	0xbfbd9b23	-1.4812969
23	0xc0288bee	-2.6335406
24	0xbf1f5b8e	-0.62249076
25	0xbfbbfa81	-1.4685823
26	0xbf99e527	-1.2023057
27	0xbf9ef99b	-1.2419924
28	0xbf088b7d	-0.5333784
29	0xbf874bc3	-1.0569996
30	0xc015a48e	-2.3381686
31	0xbfc72ed5	-1.5561167
32	0xbfd5da55	-1.6707255
33	0xc000b26c	-2.01089
34	0xbff3dd4c	-1.905191
35	0x3ec839c9	0.39106587
36	0xbf0b4d2d	-0.54414636
37	0xbdd4f94f	-0.10399114
38	0xbf24cd39	-0.64375645
39	0xc0222608	-2.5335712
40	0x3dad2cff	0.08455848
41	0xbef356d3	-0.4752718
42	0xc0209965	-2.5093625
43	0x3e1e4b42	0.15458396
44	0xbfec0395	-1.8438593
45	0xbfef2345	-1.8682638
46	0xbf3270e4	-0.6970351
47	0xc02184ce	-2.5237308
48	0xc01d26c5	-2.4554913
49	0x3e9e2799	0.30889586
50	0xbdc0baa7	-0.09410601
51	0xbe82b0cb	-0.25525507
52	0xbfd967fe	-1.6984861
53	0xbeb57458	-0.35440326
54	0xbfa5f682	-1.2965853
55	0x3d3b5465	0.04573478
56	0x3f152687	0.58261913
57	0xbfe5e960	-1.7961845
58	0x3f4536c3	0.77036685
59	0xbfc7855c	-1.5587573
60	0xbfb069c6	-1.378228
61	0xbf9a74ec	-1.2066932
62	0xbebdce48	-0.37071443
63	0xbfa4580f	-1.2839373
64	0xc003f93b	-2.0620868
65	0xbda53bfe	-0.08068083
66	0xbf11d87c	-0.56970954
67	0xbf6da1d8	-0.9282508
68	0xbf5693c0	-0.838192
69	0x3f27b676	0.6551279
70	0xbf84c4a6	-1.0372512
71	0x3e110d23	0.14165168
72	0xbf192751	-0.5982562
73	0xbf24d3f0	-0.6438589
74	0xbfd229d0	-1.641901
75	0xbf81c80f	-1.0139178
76	0x3f2d9bc0	0.6781578
77	0x3eec6ea7	0.4617817
78	0xbf5e1852	-0.8675586
79	0xbf1eabfa	-0.61981165
80	0xbf66e546	-0.90193594
81	0xbf06a01c	-0.5258806
82	0xbf15060f	-0.5821237
83	0xbfab42ae	-1.3379724
84	0xbe80e175	-0.2517201
85	0xbfaa1601	-1.3287965
86	0xbfcd71d5	-1.6050364
87	0xbf96d8ec	-1.1784949
88	0xc02023a1	-2.5021746
89	0xc008fdaf	-2.1404836
90	0xbe3d3312	-0.18476513
91	0xbfaf6e5d	-1.3705555
92	0xbe083a37	-0.13303457
93	0xbfb87a17	-1.4412259
94	0xbe5b618a	-0.21423927
95	0xbf29fb9c	-0.6639955
96	0xbf93764b	-1.1520475
97	0x3f7ec635	0.9952119
98	0xbfa64e1d	-1.2992588
99	0xbf576372	-0.84136117
100	0xbfbeefa7	-1.4916886
101	0xbfac73fa	-1.3472893
102	0xbf87abb4	-1.0599275
103	0xbe3eaa6e	-0.18619701
104	0xbf083515	-0.53205997
105	0xbfa39e36	-1.2782657
106	0x3fa9857e	1.3243864
107	0xbfc555f2	-1.5416853
108	0xbe90a448	-0.28250337
109	0xbf5b41cd	-0.8564728
110	0xbfecf33b	-1.8511728
111	0xbfc7de81	-1.5614778
112	0xbf95eb5b	-1.171245
113	0xc00e4fc4	-2.2236185
114	0xbf91e30d	-1.1397415
115	0xc02154a1	-2.5207903
116	0xbf71667e	-0.94297016
117	0xc021680c	-2.5219755
118	0xbfbee2dd	-1.4912983
119	0xc01d3b4a	-2.4567437
120	0x3faaa3dd	1.3331257
121	0xbfa8bd94	-1.3182855
122	0xbfdbdcf7	-1.7176808
123	0x3f050e11	0.5197459
124	0xbf735da9	-0.9506479
125	0xbea37649	-0.31926182
126	0xbeb255de	-0.34831136
127	0xbffdc681	-1.9826204

encoder.encoder_net.2.weight f4 [64, 128]
0	0x3d58c5ca	0.052923
1	0x3dac1469	0.084023304
2	0xbdd12fbe	-0.10214184
3	0xbd719cc4	-0.058987394
4	0xba966a48	-0.0011475766
5	0x3d492099	0.049103353
6	0xbe7bcc2c	-0.24589604
7	0xbd13d620	-0.036092877
8	0x3dbe0ba9	0.09279568
9	0xbe700252	-0.23438385
10	0xbf392071	-0.72315127
11	0x3cd78b1d	0.026311452
12	0xbdd60171	-0.10449494
13	0xbf038a63	-0.51383036
14	0xbe047fb9	-0.12939347
15	0xbd41ac73	-0.0472836
16	0xbcdb0d3f	-0.026739715
17	0xbcdeb568	-0.02718611
18	0x3dde50a2	0.10855223
19	0x3d192982	0.0373931
20	0x3dc3ebff	0.09566497
21	0xbd053caf	-0.032528576
22	0xbc300721	-0.010743887
23	0xbe9b7ccb	-0.30368647
24	0xbd4cdece	-0.05001717
25	0x3d0219cc	0.031762883
26	0x3df3a3e1	0.11896492
27	0xbe9af26c	-0.30263078
28	0x3d6bcb10	0.057566702
29	0xbc829a93	-0.015942847
30	0x3e85a0cb	0.26099238
31	0xbefc2fc0	-0.4925518
32	0xbf0668fd	-0.5250395
33	0x3ca80208	0.020508781
34	0x3e182279	0.148569
35	0xbdf90e14	-0.12160888
36	0xbd30c3ad	-0.04315536
37	0xbe480286	-0.19532213
38	0x3c6d0a26	0.014467752
39	0x3dbfdf20	0.093687296
40	0xbe4c7dcb	-0.19969861
41	0xbd35aa72	-0.044352002
42	0xbe077aa0	-0.13230371
43	0x3bc5dd48	0.0060383417
44	0x3d5669a0	0.052346826
45	0x3d7e1d3b	0.062039595
46	0xbd89704c	-0.06710872
47	0x3cdaef93	0.026725566
48	0xbe0a0d6a	-0.1348168
49	0xbe1cd0dc	-0.15314049
50	0xbe911999	-0.28339842
51	0xbe1e2a77	-0.15445887
52	0xbe1d51fe	-0.15363309
53	0x3cfb9cd7	0.030714436
54	0xbdd4519e	-0.1036713
55	0xbc298839	-0.010347419
56	0xbd936b3e	-0.07198189
57	0xbe39bc67	-0.18138276
58	0xbe364044	-0.17797953
59	0xbe57a5f6	-0.21059403
60	0x3d04f6b6	0.032461844
61	0x3ab30b4f	0.0013659986
62	0xbe3dc70e	-0.18532965
63	0xbcc5424f	-0.02407947
64	0xbfa8b112	-1.3179038
65	0x3e0c3474	0.13691884
66	0xbdf3bc5d	-0.11901162
67	0xbe0e3dcd	-0.13890763
68	0x3dd51e95	0.10406224
69	0x3de1ff72	0.110350505
70	0xbe1b8c2a	-0.15190187
71	0xbe3916af	-0.1807506
72	0xbd4c6fb9	-0.049911235
73	0x3ddb8b4f	0.107199304
74	0x3e756276	0.23963341
75	0x3dc6cb1d	0.097067095
76	0x3c974c29	0.018468933
77	0x3adc00c9	0.0016784902
78	0xbea7861e	-0.3271951
79	0xbda4de04	-0.080501586
80	0xbe55c55a	-0.20876065
81	0xbdb0b477	-0.08628171
82	0xbe528143	-0.20557122
83	0xbd29ab69	-0.041423235
84	0xbd9d85aa	-0.0769151
85	0xbe382025	-0.17981012
86	0x3d75169a	0.059836008
87	0x3d92d4ce	0.071694955
88	0xbce15b65	-0.0275094
89	0xbf45cc83	-0.77265185
90	0x3e29b3f5	0.16572554
91	0xbedcdedb	-0.43138775
92	0x3de3e2b5	0.11127225
93	0x3c852dfd	0.01625728
94	0xbd65a51c	-0.056065664
95	0x3d960b59	0.07326383
96	0x3d00f9d6	0.031488262
97	0xbe26a8cc	-0.16275328
98	0x3e4cd938	0.20004737
99	0x3b69b4be	0.003566071
100	0x3db8cd77	0.09023564
101	0xbf0731b8	-0.5281024
102	0x3dd937fb	0.106063806
103	0xbbcd6ffe	-0.006269454
104	0xbe540e86	-0.20708665
105	0xbd247755	-0.040152866
106	0x3da81c6e	0.082085475
107	0xbdd6ddf6	-0.104915544
108	0xbf0add32	-0.5424377
109	0x3e294856	0.165315
110	0xbeb5905c	-0.354617
111	0x3d93594e	0.07194768
112	0x3d53d584	0.051717296
113	0xbe45be39	-0.19310845
114	0xb93a8924	-0.00017789431
115	0xbe9d4a6e	-0.30720848
116	0xbede71ab	-0.43446097
117	0x3cf0d906	0.02940036
118	0x3d46a3f1	0.04849619
119	0xbf05592a	-0.5208918
120	0xbe656594	-0.2240203
121	0x3e36df73	0.17858677
122	0x3d2ce0b5	0.042206485
123	0xbd9424d1	-0.07233585
124	0x3e369394	0.17829734
125	0xbd82a3b5	-0.06378881
126	0xbd92384f	-0.07139646
127	0xbc7a4900	-0.015276194
128	0xbd8cca02	-0.068744674
129	0xbe8321f7	-0.2561185
130	0x3ca6cbb6	0.020360809
131	0xbd052943	-0.032510053
132	0x398b0e00	0.00026522577
133	0xbd6e589c	-0.058189973
134	0xbcbc516a	-0.02298804
135	0xbde50873	-0.11183252
136	0xbea29d84	-0.317608
137	0x3c62c9bd	0.0138420435
138	0xbd0e1d87	-0.03469613
139	0xbca690ae	-0.02033266
140	0xbc1f502c	-0.009723704
141	0x3d87ee7e	0.06637286
142	0xbcf10f88	-0.029426351
143	0xbd04c269	-0.032411966
144	0x3d33870e	0.04382997
145	0x3b8ca848	0.0042925216
146	0x3cab98bb	0.020946851
147	0xbbb82e16	-0.0056207282
148	0x3da78444	0.081795245
149	0x3d85a0f5	0.06524841
150	0xbec2cc00	-0.38046265
151	0xbdb1e14b	-0.08685549
152	0xbcec3d70	-0.02883789
153	0x3d4129af	0.047158893
154	0x3db992e5	0.09061221
155	0xbd5f2d53	-0.054486584
156	0x3d095725	0.033530373
157	0xbcfc3f2f	-0.030791847
158	0xbd820180	-0.06347942
159	0x3d165b54	0.03670819
160	0xbb29e8e3	-0.0025926165
161	0xbd9b41b9	-0.07580895
162	0xbbaf590b	-0.005351191
163	0xbd89db1a	-0.067312434
164	0xbd328be9	-0.04359046
165	0xbe22567d	-0.15853305
166	0x3e703682	0.23458293
167	0xbc4d4036	-0.012527516
168	0x3d5f67ec	0.054542467
169	0xbc815a1a	-0.015790034
170	0xbd466481	-0.04843569
171	0xbdaf6584	-0.085642844
172	0x3da50de3	0.08059289
173	0x3c153b92	0.009108441
174	0xbb0fa39e	-0.0021917592
175	0x3a7d3053	0.0009658385
176	0xbdc97f57	-0.09838741
177	0xbe5e5a55	-0.21714146
178	0x3c8733e1	0.01650423
179	0x3e1e30e5	0.1544834
180	0xbb2e17af	-0.002656441
181	0xbc2308b1	-0.009950803
182	0xbcb8724d	-0.02251544
183	0x3b7ea29f	0.0038854254
184	0xbf9e2f7e	-1.2358243
185	0xbc33da7d	-0.010977385
186	0x3cb9d416	0.022684138
187	0xbd314e60	-0.043287635
188	0xbd51a405	-0.05118181
189	0xbdcf2f03	-0.10116389
190	0xbc5f4f6b	-0.013629775
191	0x3cae2cc9	0.02126159
192	0xbdc64190	-0.09680474
193	0x3dd14c8c	0.10219678
194	0x3d7a60c0	0.061127424
195	0xbd047d48	-0.03234604
196	0x3d729d63	0.059232127
197	0xbc3d48ff	-0.011553048
198	0xbe2a40cf	-0.16626285
199	0x3d7bb8f3	0.06145568
200	0xbded5c16	-0.115898296
201	0x3df5ae5c	0.11996147
202	0x3d091437	0.033466544
203	0xbed72618	-0.4202125
204	0xbebc9038	-0.3682878
205	0xbd336dce	-0.04380589
206	0x3e4b151b	0.1983227
207	0x3ca41f3a	0.020034421
208	0xbd9e77a3	-0.07737663
209	0x3e0d67e6	0.13809165
210	0x3d02d0af	0.031937297
211	0x3d07f808	0.033195525
212	0x3c5026ab	0.012704532
213	0xbdf500f3	-0.11963072
214	0xbda2924f	-0.079380624
215	0xbd8f587e	-0.069993004
216	0xbd7a6f0e	-0.061141066
217	0xbaa45745	-0.0012538215
218	0xbdf574c4	-0.11985162
219	0xbd1fdc08	-0.039028198
220	0xbd896faa	-0.06710751
221	0xbf594673	-0.8487312
222	0x3d2538b9	0.040337298
223	0x3db892ba	0.09012361
224	0x3d02e4ca	0.03195647
225	0xbd8b8cfe	-0.068140015
226	0x3c2417c9	0.010015436
227	0xbe33e288	-0.17566884
228	0xbdf345cd	-0.11878548
229	0x3aa074cc	0.001224184
230	0x3d4be6de	0.04978072
231	0x3c74ec18	0.014948867
232	0xbe8bf5bc	-0.27335918
233	0x3d890be0	0.06691718
234	0x3de1df97	0.110289745
235	0xbe3018fd	-0.17197032
236	0x3cc1757c	0.023615591
237	0x3b957d15	0.00456203
238	0xbdad205e	-0.08453439
239	0xbe66b4e6	-0.22529945
240	0xbd145770	-0.0362162
241	0x3bed51b0	0.007242404
242	0x3d6d5b48	0.05794838
243	0x3db4d30e	0.08829318
244	0x3d2a4074	0.041565374
245	0xbe21caec	-0.15800065
246	0xbb0b57f3	-0.0021262139
247	0xbd3252f7	-0.043536153
248	0x3e258853	0.16165285
249	0xbdadbf71	-0.0848378
250	0xbd8b46a0	-0.0680058
251	0xbc52a6cd	-0.012857151
252	0x3c2a13a3	0.010380658
253	0x3e6bbcc8	0.23021233
254	0xbb859ee5	-0.0040777796
255	0xbde9cc8f	-0.114159696

encoder.encoder_net.2.bias f4 [64]
0	0x3ebb784e	0.36615223
1	0x3e10fc7c	0.14158815
2	0xbd6f0abd	-0.05835985
3	0x3e4bf67a	0.19918242
4	0x3fb37e44	1.4022908
5	0x3f16019e	0.5859622
6	0xbdb9a979	-0.090655275
7	0x3f1df6ca	0.61704695
8	0xbcc3bb3f	-0.023892997
9	0xbe31b226	-0.17353114
10	0x3fb31273	1.3990005
11	0x3e12f074	0.14349538
12	0x3fa61c4c	1.2977386
13	0xbed2cc9e	-0.41171736
14	0xbdf98cff	-0.12185096
15	0xbe0a0801	-0.13479616
16	0xbdd81026	-0.10549955
17	0xbdc5003f	-0.096191876
18	0x3eaed516	0.34146947
19	0x3f65e3f6	0.89800966
20	0x3bef1c64	0.0072970856
21	0xbe2eb60c	-0.17061633
22	0x3f8a53d1	1.0806829
23	0x3c8ed69a	0.017436314
24	0x3effaf2a	0.49938327
25	0xbddcfbb3	-0.10790195
26	0x3d123fd7	0.035705414
27	0x3ebde213	0.37086543
28	0xbc50a5bf	-0.012734829
29	0xbda0dd56	-0.078547165
30	0x3f497b4f	0.7870378
31	0xbdb208a0	-0.08693051
32	0x3d853555	0.06504313
33	0x3f54f51b	0.831865
34	0xbd6fc08b	-0.058533233
35	0x3eabf1bb	0.33582863
36	0xbd3d6bd0	-0.046245396
37	0x3f9d411d	1.2285496
38	0xbd9d9a60	-0.0769546
39	0xbdec2651	-0.11530746
40	0xba5d4559	-0.00084408146
41	0xbca1355d	-0.019678766
42	0x3f4e808b	0.8066489
43	0xbc4dc29e	-0.012558607
44	0x3ed0a154	0.40748084
45	0xbe04e2e5	-0.12977178
46	0xbdc73ba7	-0.09728175
47	0x3d1fd2b4	0.0390193
48	0x3c9bff32	0.019042585
49	0xbe125692	-0.14290836
50	0x3fa40c9e	1.281635
51	0x3ee54120	0.4477625
52	0x3dcb26c0	0.099195
53	0x3d5b141a	0.053485967
54	0x3f127631	0.57211596
55	0xbc7f3c93	-0.015578407
56	0x3f0067fa	0.50158656
57	0x3f5938ca	0.8485228
58	0x3f38d345	0.7219737
59	0x3ef38ee6	0.4756996
60	0x3c7dd8f5	0.015493621
61	0x3f7aa796	0.97911966
62	0xbc943cfd	-0.018095488
63	0x3ed3b585	0.41349426

encoder.encoder_net.4.weight f4 [4, 64]
0	0xbc8b16b5	-0.016978601
1	0x3cbf7c7a	0.023374785
2	0x3b2dfa57	0.002654692
3	0x3d0cdcb6	0.034390174
4	0x3b89592f	0.0041915397
5	0xbcab8dd6	-0.020941656
6	0x3cb19e07	0.021681799
7	0x3bc71c69	0.006076385
8	0x3d6d2114	0.057892874
9	0x3bb4526d	0.00550299
10	0x3d81be19	0.063350864
11	0xbc5aa123	-0.013344082
12	0xbc3fa44d	-0.011696887
13	0xbc97e0fa	-0.018539894
14	0x3d9ea661	0.07746578
15	0xbd9b4859	-0.075821586
16	0xbcbe7b53	-0.023252165
17	0x3c2fcecf	0.010730459
18	0xbb2f8870	-0.0026784204
19	0xba7a78f4	-0.00095547666
20	0x3be65e46	0.0070302812
21	0x3c9e5f42	0.019332532
22	0xbd3c23be	-0.045932524
23	0xbcde52c6	-0.027139079
24	0x3d432064	0.047638312
25	0x3cc0a20f	0.023514776
26	0xbcefc791	-0.029269965
27	0x3cdb45a4	0.026766606
28	0xbcf7a44f	-0.030229716
29	0x3c5f53c4	0.013630811
30	0x3c92f0e1	0.017937126
31	0xbd146c51	-0.03623611
32	0xbcf065c9	-0.02934541
33	0x3b0d8e5e	0.002159975
34	0x3cb04a56	0.021519821
35	0x3c3c2667	0.011483765
36	0xbbd30405	-0.006439688
37	0xbdbb4ec5	-0.091458835
38	0x3ce1fb13	0.027585542
39	0x3ca4124c	0.020028256
40	0x3c3d906b	0.011570076
41	0xbcb179dd	-0.021664554
42	0xbc9b0386	-0.018922579
43	0x3b7ff6c5	0.0039056998
44	0x3d0af7fb	0.0339279
45	0x3ce7e3ea	0.02830692
46	0x3d0682fa	0.032839753
47	0x3c2b6313	0.010460633
48	0x3ace8821	0.0015757122
49	0xbc04ae68	-0.008098222
50	0xbb66aedd	-0.0035199441
51	0x3e21ec20	0.15812731
52	0x3d2bb28d	0.041918326
53	0xbcdb69db	-0.026783874
54	0xbb0c8e9a	-0.0021447302
55	0x3c347361	0.011013837
56	0x3d52d2fa	0.051470734
57	0xb9bafea5	-0.0003566641
58	0xbd8f9e51	-0.07012618
59	0xbc4febfc	-0.01269054
60	0xbc5f66d5	-0.013635357
61	0xbce62291	-0.028092654
62	0x3ce68be6	0.02814288
63	0xbd45cc8f	-0.048290785
64	0xbd87c8f6	-0.06630127
65	0x3d31a43e	0.043369524
66	0xbbbd1591	-0.005770393
67	0xbbc1fc7c	-0.005919991
68	0xbd57fb87	-0.05273011
69	0xbc0fdee6	-0.0087811705
70	0xbd33ffa3	-0.043944966
71	0xbd261ea8	-0.04055658
72	0x3d85fcb5	0.06542341
73	0x3b0f119e	0.002183057
74	0xbbbf6c4f	-0.005841769
75	0xbce47a7d	-0.027890438
76	0x3da5c37d	0.08093927
77	0xbd0839b2	-0.033258148
78	0x3ccc2088	0.024917856
79	0x3d85b2c3	0.06528237
80	0xbc43c4e2	-0.011948796
81	0x3a83a9e3	0.0010045137
82	0xbd65736d	-0.05601828
83	0xbd33889c	-0.043831453
84	0x3bf67386	0.0075210957
85	0x3ca5f752	0.020259533
86	0x3b497f42	0.0030746018
87	0xbc56df8c	-0.013114821
88	0x3da4e17e	0.08050822
89	0xbc840b85	-0.016118774
90	0x3c9a546a	0.01883908
91	0x3c5dcae0	0.013537139
92	0x3c3fcfdc	0.011707272
93	0xbd1ab212	-0.037767477
94	0x3dceb42f	0.10092961
95	0x3c0d146b	0.008610825
96	0x3c1ed5ca	0.009694526
97	0xbc572065	-0.013130282
98	0xbcbbb29f	-0.022912322
99	0x3d83443f	0.06409501
100	0x3c9bdc31	0.019025894
101	0x3c7a0e27	0.015262163
102	0x3ce8b6ca	0.028407473
103	0x3d16d7bc	0.036826834
104	0x3ce12d7b	0.027487507
105	0x39128f7e	0.000139771
106	0xbc50e069	-0.012748816
107	0x3ccf4733	0.025302505
108	0xbd4d67a2	-0.05014766
109	0x3c95cf00	0.018287182
110	0x3ce2f784	0.027705915
111	0x3d3ffe4f	0.046873387
112	0x3c097972	0.008390771
113	0x3c524445	0.01283366
114	0xbdcca970	-0.09993255
115	0xbddb6e8d	-0.10714445
116	0xbe03ae67	-0.12859498
117	0x3c9384b9	0.018007623
118	0x3c8efd07	0.017454637
119	0x3c8d3cf4	0.017240979
120	0x3bdac5c0	0.0066764057
121	0xbc0b0e80	-0.008487344
122	0xbca99073	-0.020698762
123	0x3c89b4e0	0.01680988
124	0xbb82317a	-0.003973183
125	0xbd32a7e5	-0.043617148
126	0x3d17a2c7	0.03702047
127	0xbd6b000c	-0.05737309
128	0x3d981357	0.07425564
129	0x3dc66758	0.0968768
130	0x3e58e84f	0.21182369
131	0x3d281fab	0.041045826
132	0xbc888ed3	-0.016669666
133	0x3e0dcb86	0.1384717
134	0xbd7d50d6	-0.06184467
135	0x3b229b58	0.002481183
136	0xbcc9b214	-0.024621047
137	0x3d0e5a75	0.034754235
138	0x3d4983e7	0.049198058
139	0xbd905602	-0.07047655
140	0xbd769ce1	-0.060208205
141	0x3cdbb5bd	0.026820058
142	0xbd75ed7c	-0.060040936
143	0xbd3aa427	-0.045566704
144	0x3bedb550	0.00725428
145	0xbdbba749	-0.091627665
146	0x3de3d2c3	0.11124184
147	0xbcb4089f	-0.021976767
148	0x3d91514c	0.07095584
149	0x3cc63fb2	0.024200294
150	0x3c40712b	0.011745731
151	0x3b6b191a	0.0035873116
152	0x3d852f9f	0.06503224
153	0x3d975647	0.07389503
154	0xbda66211	-0.081241734
155	0xbd206f5d	-0.039168704
156	0xbe06ab6c	-0.1315133
157	0xbda4a09b	-0.080384456
158	0xbd9e1ee0	-0.07720733
159	0x3b6cdc56	0.0036142073
160	0x3d0d0121	0.034424905
161	0xbd253222	-0.040331014
162	0xbc79be01	-0.015243054
163	0x3e32d0c4	0.1746245
164	0xbd70961f	-0.058736917
165	0x3cf442a0	0.029816926
166	0xbd27fcb0	-0.041012466
167	0x3d997e47	0.074947886
168	0xbcad70c6	-0.021171939
169	0xbc8b297a	-0.016987551
170	0xbba2593a	-0.0049544843
171	0x3c5fb354	0.013653595
172	0x3e023460	0.12715292
173	0xbd8c67a1	-0.06855703
174	0x3d386362	0.045016654
175	0xbd5c3705	-0.05376341
176	0xbc8b2203	-0.016983991
177	0xbcbb3b2d	-0.022855366
178	0xbc659d45	-0.014014547
179	0x3e56185a	0.20907727
180	0xbd43a6ac	-0.047766373
181	0xbd24ded2	-0.04025156
182	0xbe043227	-0.12909757
183	0x3e0f586f	0.13998578
184	0x3ceafc48	0.02868475
185	0xbe43ed30	-0.19133449
186	0xbcab764e	-0.020930436
187	0xbe1e3f1f	-0.15453766
188	0x3d9521d2	0.07281841
189	0xbd99ecf9	-0.07515902
190	0xbdc72a20	-0.097248316
191	0x3d8ab4a8	0.06772739
192	0x3d194192	0.03741605
193	0x3d8fa938	0.07014698
194	0xbc083c40	-0.008315146
195	0x3d85e1b7	0.06537192
196	0x3ccffcc3	0.02538908
197	0x3cc7420c	0.024323486
198	0x3d3edc2f	0.046596702
199	0x3c0452bc	0.008076366
200	0x3d87ef55	0.06637446
201	0xbe116482	-0.14198497
202	0x3bb7de49	0.0056112153
203	0xbdc441da	-0.09582873
204	0x3cde5db2	0.027144287
205	0xbd543a36	-0.051813327
206	0xbd5164ba	-0.05112145
207	0x3e04f922	0.12985662
208	0xbdb8832a	-0.090093926
209	0xbd51a7a4	-0.051185265
210	0xbd24c900	-0.04023075
211	0xbae0cfbf	-0.0017151757
212	0x3da9d710	0.08292973
213	0x3c18018a	0.009277711
214	0xbd017d0f	-0.031613406
215	0x3dbe4084	0.09289649
216	0x3d9ffe30	0.07812154
217	0x3d2b773e	0.041861765
218	0x3ca11d97	0.01966743
219	0xbd440373	-0.047854852
220	0x3d3f2e67	0.046675112
221	0x3d3093c6	0.043109678
222	0x3d5a055a	0.05322776
223	0xbd1fcc08	-0.03901294
224	0xbd3e8a39	-0.04651854
225	0x3dac3579	0.084086366
226	0xbd63baa4	-0.055597916
227	0x3c71e172	0.014763223
228	0xbdc5ee5e	-0.096646056
229	0xbc76a37e	-0.015053628
230	0x3e1d8103	0.15381245
231	0xbe2ef6db	-0.17086355
232	0x3c728a6f	0.014803513
233	0xbd19c8f4	-0.03754516
234	0x3c69ac91	0.014262334
235	0xbe02e767	-0.12783585
236	0x3d7d6555	0.061864216
237	0x3e0b31c5	0.13593204
238	0xbd863e97	-0.06554907
239	0x3b85bca8	0.0040813275
240	0x3d1fe0fc	0.03903292
241	0x3db272aa	0.08713277
242	0x3d045330	0.032305896
243	0x3e170f63	0.14751963
244	0x3cc0e5f4	0.02354715
245	0x3d0e2a4e	0.034708314
246	0xbd90e9b4	-0.07075825
247	0x3d1d6afc	0.038432106
248	0x3a41d136	0.00073935406
249	0xbe224afb	-0.15848915
250	0x3cbc18a0	0.02296096
251	0xbd44fae0	-0.048090816
252	0x3d15910f	0.03651529
253	0xbc46199d	-0.012091068
254	0xbd155339	-0.03645632
255	0x3d112e67	0.035444643

encoder.encoder_net.4.bias f4 [4]
0	0x3d5c4bcf	0.053783234
1	0x3e40d2e4	0.18830448
2	0xc026ab5f	-2.6042097
3	0xc03830a4	-2.8779688

decoders.0.decoder_net.0.weight f4 [128, 2]
0	0xbf440fe2	-0.76586735
1	0xbeda135e	-0.425929
2	0x3f5d39d8	0.8641639
3	0xbec990d7	-0.39368317
4	0xbf07eff8	-0.5310054
5	0x3f84ef26	1.0385482
6	0xbf832583	-1.0245823
7	0x3f2894d2	0.6585208
8	0xbf18bc8c	-0.596627
9	0xbf51cbd2	-0.8195163
10	0xbf20072e	-0.62510955
11	0xbebfaad6	-0.37435025
12	0xbeea00c9	-0.45703724
13	0xbf71d8fc	-0.94471717
14	0x3d8f6745	0.07002119
15	0xbd8fc0b7	-0.07019179
16	0xbf097dbf	-0.537075
17	0xbf161610	-0.58627415
18	0x3f560338	0.8359866
19	0xbf422d5c	-0.7585046
20	0xbf6a68fa	-0.9156643
21	0xbe98ce4d	-0.29844895
22	0xbf67215b	-0.9028527
23	0x3f09c931	0.5382262
24	0x3f6d7ba6	0.927668
25	0x3f411355	0.75420123
26	0xbe948306	-0.29006213
27	0xbf124049	-0.5712934
28	0xbf4bc712	-0.7960063
29	0x3ca0742c	0.019586645
30	0x3f229c6f	0.6351995
31	0xbf805707	-1.0026559
32	0x3e8925f3	0.26786765
33	0xbf9fdc9c	-1.24892
34	0xbfdbcc3b	-1.7171701
35	0x3fb0c995	1.3811518
36	0xbf8b6ad3	-1.0891975
37	0x3f8046e0	1.0021629
38	0xbf47a1eb	-0.7798144
39	0xbf7dac94	-0.9909146
40	0xbf41762f	-0.7557096
41	0x3e81f1b4	0.25379717
42	0xbd009224	-0.03138937
43	0x3dcb631a	0.099310115
44	0x3ec45e72	0.38353306
45	0xbef9e88f	-0.4881024
46	0x3e3dde6a	0.18541875
47	0xbd872a3e	-0.06599854
48	0x3d270561	0.040776614
49	0xbf998f77	-1.1996907
50	0xbdf76abb	-0.12080904
51	0xbea91b7f	-0.3302879
52	0xbd4e1a8d	-0.05031829
53	0x400700cb	2.1094234
54	0xbf2f98ba	-0.6859242
55	0x3d88587e	0.066575035
56	0x3f3aafdc	0.7292459
57	0x3f80230e	1.0010698
58	0xbf2906a1	-0.6602574
59	0x3f30b64b	0.69028157
60	0x3fe5bfca	1.7949154
61	0xbeed6675	-0.4636723
62	0x3fd41c49	1.6571132
63	0xbecd274c	-0.40069044
64	0x3fd91c40	1.6961746
65	0xbf084a95	-0.53238803
66	0x3fcaa7b5	1.583243
67	0x3ea9ea54	0.3318659
68	0xbf948224	-1.1602216
69	0x3f19443f	0.5986976
70	0xbf86700d	-1.0502945
71	0x3f956e3a	1.1674263
72	0xbf4115c3	-0.7542383
73	0x3ef91421	0.4864817
74	0x3fc39936	1.5281131
75	0xbe23e944	-0.16006953
76	0xbe821c68	-0.25412297
77	0xbf209902	-0.6273347
78	0xbee612ff	-0.44936368
79	0x3fcee4d5	1.6163584
80	0xbe317ac9	-0.17331995
81	0xbec4ab3c	-0.3841189
82	0x3e81735c	0.25283325
83	0xbf8d9ce5	-1.1063505
84	0x3da6807b	0.081299745
85	0x3f2e187b	0.68006104
86	0xbf113294	-0.567178
87	0xbf6f4b2f	-0.93474096
88	0xbf20cf2e	-0.6281613
89	0x3eec81eb	0.4619287
90	0x3ecd895e	0.40143865
91	0xbf2cb71e	-0.67466915
92	0xbed9b68d	-0.42522088
93	0x3d5a51b1	0.053300563
94	0xbec8aab1	-0.39192727
95	0x3f62d43e	0.88605106
96	0x3fb1a581	1.3878633
97	0xbf362d7f	-0.7116317
98	0x3f61b7ab	0.8817088
99	0xbecc4173	-0.39893684
100	0x3e19a897	0.15005718
101	0x3f8f2412	1.1182883
102	0xbf1bd557	-0.60872406
103	0xbf481f02	-0.78172314
104	0x3f3dd197	0.74147934
105	0x3fa39a07	1.278138
106	0x3e84798b	0.2587398
107	0xbf8368e6	-1.0266387
108	0x3da895d8	0.082317054
109	0xbf89aca7	-1.0755814
110	0xbeef4db5	-0.46738973
111	0x3f786824	0.97033906
112	0xbf1b6e38	-0.60715055
113	0x3f9049fb	1.1272577
114	0xbf2281e4	-0.6347945
115	0xbf5fce04	-0.8742373
116	0xbf7a2fdc	-0.9772928
117	0x3f83772c	1.0270743
118	0x3f7cea9e	0.987955
119	0xbf501bc1	-0.8129235
120	0xbf09ffd5	-0.53905994
121	0xbefe4748	-0.49663758
122	0xbeb7143c	-0.35757625
123	0x3f78c10c	0.97169566
124	0xbfaac61a	-1.3341706
125	0xbe690ff6	-0.22759995
126	0x400165dd	2.0218422
127	0x3f905859	1.1276962
128	0x3f12659d	0.571863
129	0xbf5b8e5a	-0.85764086
130	0x3ebed30d	0.37270394
131	0xbf20f76b	-0.6287753
132	0x3e2b1d0a	0.16710296
133	0x3fde5b1e	1.7371557
134	0xbf392690	-0.72324467
135	0xbf5eec40	-0.8707924
136	0xbf4e3a4e	-0.80557716
137	0xbe40acde	-0.18815944
138	0x3ebaf7d1	0.36517194
139	0xbf82a85f	-1.0207633
140	0xbf8598a2	-1.0437205
141	0xbd841a68	-0.06450349
142	0x3e184afa	0.14872351
143	0x3fd114a3	1.6334423
144	0x3fc1fff7	1.5156239
145	0x3d253120	0.040330052
146	0x3f089e68	0.5336671
147	0xbf49900f	-0.7873544
148	0x3c6ada18	0.014334224
149	0x3c9fb952	0.019497547
150	0xbe4bb750	-0.19894147
151	0x3da4b595	0.080424465
152	0xbf92d230	-1.1470394
153	0x3fa6ffea	1.3046849
154	0xbf83fc48	-1.0311365
155	0x3f3553a9	0.7083078
156	0x3f81402c	1.0097709
157	0xbf1f675e	-0.622671
158	0x3f6871c8	0.90798616
159	0xbf8c8b5d	-1.098003
160	0xbe45ef1a	-0.19329491
161	0x3e4a87de	0.19778392
162	0x3f9f2f3c	1.243629
163	0xbe2e8aad	-0.17045088
164	0x3c0e7fc0	0.00869745
165	0xbf9659af	-1.1746119
166	0xbefdd060	-0.4957304
167	0xbf323c4c	-0.69623256
168	0x3d839498	0.064248264
169	0x3f99cba5	1.2015272
170	0x3fb52af9	1.4153739
171	0xbe84a435	-0.2590653
172	0xbf3da9e7	-0.74087375
173	0xbf67eba5	-0.9059394
174	0xbf7d23c9	-0.9888273
175	0x3f0a73c8	0.5408292
176	0xbe999e22	-0.30003458
177	0x3ce16e4f	0.02751842
178	0x3da27120	0.07931733
179	0x3d82e9db	0.06392261
180	0xbf43e42d	-0.76520044
181	0x3eee9ca5	0.46603885
182	0xbe84f283	-0.25966272
183	0xbe931698	-0.28728175
184	0x3df94543	0.12171414
185	0x3fa01619	1.2506744
186	0xbfb0f195	-1.3823725
187	0xbec55cc6	-0.38547343
188	0x3fbac108	1.4590158
189	0x3ee8f0ae	0.45496124
190	0x3f5fd07b	0.8742749
191	0xbf919243	-1.137276
192	0xbd9e8c42	-0.07741596
193	0x4000c024	2.0117273
194	0x3f507f89	0.81444603
195	0x3f460d0e	0.7736367
196	0x3f351fa7	0.7075142
197	0xbf6d1b49	-0.9261976
198	0xbfb30f3d	-1.3989025
199	0x3f824a62	1.017895
200	0x3f5b8491	0.85749155
201	0x3f842590	1.0323963
202	0xbf3a2f97	-0.72728866
203	0x3f81d7d3	1.0143989
204	0x3dc31551	0.0952555
205	0x3d0672dd	0.032824386
206	0xbec382e3	-0.38185796
207	0x3f8e0606	1.1095588
208	0x3e8f4d29	0.27988556
209	0xbf413d38	-0.7548404
210	0x4005efe8	2.0927677
211	0x3e3d7db7	0.18504988
212	0x3fa55c62	1.2918818
213	0xbe036565	-0.12831648
214	0xbd1121ee	-0.03543275
215	0x3fa233da	1.2672074
216	0x3f56bd61	0.8388272
217	0x3e43d5aa	0.19124475
218	0x3fc445e1	1.5333825
219	0xbf8d2d5c	-1.1029468
220	0xbf82a164	-1.0205503
221	0xbdc51107	-0.09622388
222	0x3efd81ab	0.4951299
223	0x3fb52466	1.4151733
224	0x3fc62bf3	1.5482162
225	0x3e894dd9	0.26817206
226	0x3fd054c7	1.6275872
227	0x3e95ee21	0.2928324
228	0x4024833b	2.5705097
229	0xbf91fa5c	-1.1404529
230	0x3f17d513	0.593095
231	0x3f6c9a7b	0.9242322
232	0x3ea7a02e	0.32739395
233	0xbf52727c	-0.8220594
234	0xbf45a304	-0.7720187
235	0xbefbe051	-0.49194577
236	0xbf6e823e	-0.93167484
237	0xbeebec6b	-0.4607881
238	0xbf116acb	-0.5680358
239	0xbe5bb20c	-0.21454638
240	0xbf4da447	-0.8032879
241	0x3edf1442	0.43570143
242	0x3f607568	0.8767915
243	0x3f64ba86	0.8934711
244	0xbe5bb1ed	-0.21454592
245	0xbf9ca759	-1.223857
246	0xbe1c9e5b	-0.15294783
247	0x3f806123	1.0029644
248	0x3d9d861b	0.07691594
249	0xbe166489	-0.14686789
250	0x3f8a9958	1.0828047
251	0xbf1e3549	-0.61800057
252	0x3fe25035	1.7680727
253	0xbec22d44	-0.3792516
254	0x3fc673a1	1.5504037
255	0x3e085e2b	0.13317172

decoders.0.decoder_net.0.bias f4 [128]
0	0xbf62ab67	-0.8854279
1	0x3f711ff0	0.9418936
2	0x3e7101c3	0.23535828
3	0xbd8c1ae2	-0.06841065
4	0xbfc41622	-1.5319254
5	0x3d95f4f2	0.0732211
6	0xbeaf9968	-0.34296727
7	0x3f0de890	0.5543299
8	0x3eb1c300	0.34719086
9	0x3f3d96d5	0.74058276
10	0xbf34886b	-0.7052066
11	0xbdcd5ec7	-0.10027843
12	0x3e76e2b1	0.24109913
13	0xbea97bad	-0.3310217
14	0x3f4d4aba	0.8019215
15	0xbf72262e	-0.9458951
16	0xbec2b87f	-0.38031384
17	0xbea6a99d	-0.3255128
18	0xbeac962a	-0.33708316
19	0xbff80765	-1.9377257
20	0x3f3adea2	0.7299596
21	0xbf2d9eaa	-0.6782023
22	0x3f497b10	0.78703403
23	0x3f651668	0.89487314
24	0xbf2dedb3	-0.67940825
25	0x3f1b04fe	0.6055449
26	0xbe001903	-0.12509541
27	0x3eb004ad	0.34378567
28	0xbdb7aeff	-0.08968925
29	0xbe9bf590	-0.30460787
30	0xbf20d248	-0.62820864
31	0x3ec1d7d1	0.37859967
32	0x3ed8a3c2	0.42312437
33	0xbe644272	-0.22290972
34	0x3cc9e7a6	0.024646591
35	0xbf10198c	-0.5628898
36	0x3ea1c359	0.3159435
37	0x3e9463b0	0.28982306
38	0x3f7d161b	0.98861855
39	0xbf105ae1	-0.5638867
40	0x3e0da860	0.13833761
41	0xbe7ebf8d	-0.24877758
42	0x3f925688	1.1432657
43	0x3dd17bb6	0.10228674
44	0x3f367303	0.71269244
45	0x3ec4e3b0	0.38454962
46	0x3f4c47f3	0.79797286
47	0x3f08a457	0.5337576
48	0x3e3219c0	0.17392635
49	0x3f8fa5d9	1.1222488
50	0xbea7652f	-0.32694384
51	0xbfc222a1	-1.5166818
52	0xbf14d9a3	-0.5814459
53	0xbf13340c	-0.5750129
54	0xbf0142c5	-0.5049251
55	0xbcb36f4d	-0.021903658
56	0x3ea917f6	0.33026093
57	0xbd26f05a	-0.04075656
58	0xbee0e8af	-0.43927523
59	0x3e32d0d8	0.1746248
60	0x3ef4d723	0.47820386
61	0x3f2d7c40	0.67767715
62	0xbf471d70	-0.77779293
63	0xbebd8605	-0.3701631
64	0xbf8377f7	-1.0270985
65	0x3f501bf9	0.8129268
66	0xbeee93d5	-0.46597162
67	0x3f2a6ed9	0.6657539
68	0x3f58ffb6	0.84765184
69	0xbf42e7be	-0.7613486
70	0xbe9257e0	-0.28582668
71	0xbedae544	-0.4275304
72	0x3f89abcd	1.0755554
73	0xbdd7de66	-0.10540466
74	0x3f03f984	0.51552606
75	0x3f612b81	0.87957007
76	0xbf217b44	-0.63078713
77	0x3f112af4	0.56706166
78	0x3f5473f9	0.8298946
79	0xbf4e3e0f	-0.80563444
80	0x3f6aa2c0	0.91654587
81	0xbf58e5ef	-0.8472585
82	0x3ef36f8a	0.47546035
83	0xbe373c03	-0.17893986
84	0x3f45fef1	0.77342135
85	0x3e8ed0f8	0.27893806
86	0x3e98fa16	0.298783
87	0x3b4d8bd6	0.0031363866
88	0x3f260018	0.64843893
89	0xbeb5d767	-0.355159
90	0xbc9b3a8c	-0.018948816
91	0x3e321b82	0.17393306
92	0xbeb56e4b	-0.3543571
93	0xbf026e1b	-0.5094926
94	0x3ef0fe1c	0.4706887
95	0xbf9ee207	-1.2412728
96	0xbf5421b4	-0.82863927
97	0x3ef64d3e	0.48105806
98	0xbf857339	-1.0425788
99	0xbe21d254	-0.1580289
100	0xbed3cdc8	-0.41367936
101	0xbd24d14d	-0.040238667
102	0xbf18d892	-0.5970546
103	0x3f41af30	0.7565794
104	0x3b68f414	0.0035545873
105	0x3ecf4245	0.40480247
106	0x3eebffe7	0.46093675
107	0x3e86fd66	0.26365203
108	0x3f6fef9b	0.93724984
109	0xbd096210	-0.033540785
110	0xbcb43ad7	-0.022000713
111	0xbf497745	-0.78697616
112	0x3e0d2219	0.13782538
113	0xbea7d8ee	-0.32782692
114	0x3eaa98f2	0.33319813
115	0x3f6b65de	0.9195231
116	0xbf2311c5	-0.6369899
117	0x3f251bb0	0.6449537
118	0xbf78fa1a	-0.97256625
119	0x3f1a4ffd	0.602783
120	0x3ea4225c	0.32057464
121	0x3f122b84	0.5709765
122	0xbdf0e178	-0.11761755
123	0x3f65d9e5	0.89785606
124	0x3f2f2c87	0.6842732
125	0xbf8ffdb9	-1.1249305
126	0x3ed867f7	0.4226682
127	0x3e91b91f	0.2846155

decoders.0.decoder_net.2.weight f4 [128, 128]
0	0x3ecec1c7	0.40382215
1	0xbd825454	-0.063637406
2	0xbdb60cba	-0.08889146
3	0xbca5a4ee	-0.020220246
4	0x3e87169d	0.2638444
5	0x3dd05212	0.10171904
6	0x3e2a41bd	0.1662664
7	0x3a8c2ede	0.001069512
8	0x3d439817	0.047752466
9	0xbe4d64e9	-0.20058025
10	0x3d39988a	0.04531149
11	0x3d79fcd0	0.061032116
12	0x3d6b58ac	0.05745761
13	0x3e0995e3	0.13436083
14	0x3c5b9420	0.013402015
15	0xbf143f45	-0.5790904
16	0x3dfec0a1	0.12439085
17	0xbeb467ad	-0.35235348
18	0xbe01ea4f	-0.12687038
19	0x3ea63830	0.32464743
20	0xbcf6533b	-0.030068984
21	0x3db11ec3	0.086484455
22	0x3ccc1a91	0.024915012
23	0xbbeadae2	-0.007167206
24	0x3df76d38	0.12081379
25	0xbc7f57d2	-0.015584903
26	0x3d8b4ef7	0.06802171
27	0x3dd55f0e	0.10418521
28	0x3e6bc16f	0.23023008
29	0xbb1486bd	-0.0022663318
30	0x3e96ad7c	0.29429233
31	0xbca9c48e	-0.020723607
32	0x3c09ab48	0.008402653
33	0x3e3ee663	0.18642573
34	0x3cd53539	0.026026355
35	0xbe581f54	-0.211057
36	0x3d2bb782	0.041923054
37	0xbd90cc3a	-0.07070203
38	0xbc93effd	-0.018058771
39	0xbf07a868	-0.5299134
40	0xbcb147a5	-0.021640608
41	0x3e0cc7a7	0.13748036
42	0xbc6771d2	-0.014126258
43	0xbc22a447	-0.009926862
44	0x3cdf630f	0.027268915
45	0xbe88f444	-0.2674886
46	0x3d713a77	0.058893647
47	0x3d81bfe1	0.06335426
48	0xbd864aa7	-0.065572076
49	0xbda78df8	-0.08181375
50	0x3ef18c92	0.4717756
51	0x3eaff844	0.343691
52	0x3f5c283f	0.8599891
53	0x3f18c339	0.59672886
54	0x3dd2573e	0.102705464
55	0xbb77075e	-0.00376936
56	0x3d5b3966	0.053521536
57	0xbc39e1de	-0.011345355
58	0xbd151991	-0.036401335
59	0xbe823ddc	-0.2543782
60	0x3d9b72eb	0.07590278
61	0x3e23c63a	0.15993586
62	0x3d5302fc	0.051516518
63	0x3ed349ea	0.4126733
64	0xbfcac62b	-1.5841726
65	0x3ca0a502	0.019609932
66	0x3e2522ce	0.16126558
67	0x3d902332	0.07037963
68	0x3c01db22	0.0079257805
69	0x3f20fff0	0.6289053
70	0x3df69ade	0.12041257
71	0xbc96ebe1	-0.018423023
72	0xbdd25858	-0.102707565
73	0xbf0a5a9d	-0.54044515
74	0xbc897564	-0.016779609
75	0xbc9267d8	-0.017871782
76	0xbe6bd8db	-0.23031943
77	0x3d6feb28	0.05857387
78	0xbe866686	-0.26250094
79	0xbf9c2127	-1.2197617
80	0x3938a3fb	0.00017608695
81	0x3e16259a	0.14662781
82	0xbef85c74	-0.48508036
83	0x3dde7da7	0.1086381
84	0x3dd0da81	0.10197926
85	0x3d4a0d5c	0.049329147
86	0xbd80e030	-0.0629276
87	0x3b1efa34	0.002425802
88	0xbcad6769	-0.021167474
89	0xbd1cf30b	-0.03831772
90	0x3c54f0d9	0.012996876
91	0x3d66dd34	0.0563633
92	0x3da0c35c	0.07849762
93	0xbc80ccd2	-0.015722666
94	0x3d6efafb	0.058344822
95	0xbf20f9b7	-0.62881035
96	0xbeedaeee	-0.46422523
97	0x3d88de58	0.06683034
98	0xbf1f79f3	-0.62295455
99	0xbd848663	-0.06470945
100	0x3f3a5e13	0.72799796
101	0x3db54efe	0.08852957
102	0xbd06120e	-0.032732062
103	0x3e0725a7	0.13197957
104	0xbeb64fa6	-0.35607642
105	0x3d3a766b	0.04552309
106	0x3d399687	0.04530957
107	0x3eae8c7e	0.34091562
108	0xbd8db206	-0.06918721
109	0xbeca2cea	-0.39487392
110	0x3e15f5eb	0.14644592
111	0x3ee5048c	0.44730031
112	0x3e9bff4d	0.30468217
113	0x3dd6a88b	0.10481366
114	0xbe815f3f	-0.2526798
115	0x3dbdb149	0.0926233
116	0x3f17ed50	0.59346485
117	0x3dd80b3b	0.10549017
118	0x3eab0bd9	0.33407477
119	0x3da781e9	0.08179075
120	0x3da0b859	0.078476615
121	0xbd9aff29	-0.07568199
122	0xbdec8355	-0.11548487
123	0x3ca4c7a5	0.02011473
124	0xbdf6f1c6	-0.120578334
125	0x3debe5e8	0.115184605
126	0xbae30bc0	-0.0017322227
127	0x3e2a6bd9	0.16642703
128	0x3d71cb59	0.059031818
129	0xbcbb8d75	-0.0228946
130	0xbd7709b2	-0.06031198
131	0x3d194648	0.03742054
132	0x3d4540c9	0.048157487
133	0xbcb50f89	-0.022102134
134	0xbd93aa95	-0.0721027
135	0x3d34e6c1	0.044165377
136	0x3d919d9f	0.07110142
137	0xbd1a3fd2	-0.03765852
138	0xbdade55e	-0.08491014
139	0x3d2bc938	0.041939944
140	0x3c8c64b1	0.017137857
141	0x3afe18ef	0.0019386093
142	0xbd13ecdc	-0.03611456
143	0x3d3fa6ea	0.04679004
144	0xbc6b85c2	-0.014375152
145	0xbdcab9c2	-0.09898712
146	0xbdb25004	-0.08706668
147	0xbd994b4f	-0.07485067
148	0x3ca4534b	0.020059248
149	0xbcf6a36b	-0.03010722
150	0x3d134aa1	0.035959844
151	0x3d0c0e19	0.034193132
152	0x3bab8a8c	0.005235022
153	0xbd41d6be	-0.047323935
154	0xbd988279	-0.07446761
155	0x3d5773f0	0.0526008
156	0x3c4ea3b3	0.012612271
157	0xbda0ba17	-0.07847994
158	0x3c801c52	0.015638504
159	0xbd2d7139	-0.042344306
160	0xbdacbeed	-0.08434854
161	0xbc8abe37	-0.016936405
162	0x3c02c935	0.007982542
163	0xbd90f7ff	-0.070785515
164	0xbb1db443	-0.0024063743
165	0xbd5df136	-0.054185115
166	0xbc80a528	-0.015703753
167	0xbdbd8d64	-0.09255484
168	0x3d476a3f	0.04868531
169	0xbdc34312	-0.09534277
170	0xbdb2d741	-0.08732463
171	0x3d3786a8	0.044806153
172	0xbd380926	-0.0449306
173	0xbdaaf77a	-0.08347984
174	0xbdbba025	-0.091614045
175	0x3cdbee42	0.026847009
176	0xbbaab0d0	-0.005209066
177	0x3add3109	0.0016875576
178	0xbb32dc23	-0.0027291856
179	0xbd0d6f57	-0.03453001
180	0xbd9a29d6	-0.07527511
181	0x3d321ad4	0.043482617
182	0xbd51938a	-0.051166095
183	0x3d8cb11d	0.06869719
184	0x3d84376d	0.06455884
185	0x3c00620b	0.007835875
186	0x3d783c37	0.0606043
187	0x3c946284	0.018113382
188	0xbdc37f07	-0.09545713
189	0xbd0806b4	-0.033209518
190	0x3c95ba8d	0.01827743
191	0xbdabf8be	-0.08397053
192	0x3da05418	0.078285396
193	0x3d111e23	0.03542913
194	0x3c217236	0.00985389
195	0xbd394e61	-0.045240764
196	0x3d2d473d	0.042304266
197	0xbc350948	-0.011049576
198	0xbc9df25a	-0.019280601
199	0xbdaf4e7d	-0.08559892
200	0x3d2895b7	0.041158404
201	0x3b28e849	0.0025773218
202	0xbdc4026d	-0.09570775
203	0x3d56033a	0.05224917
204	0xbd1c9394	-0.03822668
205	0x3d6c485d	0.0576862
206	0x3c92bcb7	0.017912252
207	0xbd7645d4	-0.060125187
208	0x3c23cec2	0.009998025
209	0x3c2eb7dd	0.010663954
210	0xbdbbf425	-0.09177426
211	0x3bb2b0e5	0.0054532164
212	0xbd7946d6	-0.06085857
213	0xbda19696	-0.0789005
214	0xbc934a91	-0.017979892
215	0xbd60cd87	-0.054883506
216	0xb8a83f56	-8.0226615e-05
217	0x3d5c87bc	0.053840384
218	0x3d9a6158	0.07538098
219	0xbdcd51c7	-0.100253634
220	0xbd1c0f5e	-0.038100593
221	0x3cef7369	0.029229837
222	0xbcc8e17a	-0.024521578
223	0x3cd199c2	0.025586013
224	0x3d64be22	0.055845387
225	0x3d12cf70	0.03584236
226	0xbda23fb7	-0.07922309
227	0x3d1b2544	0.037877336
228	0x3d32ee5e	0.043684356
229	0x3d29ff48	0.04150322
230	0xba1c5be6	-0.00059646217
231	0x3cc6d96a	0.024273593
232	0xbdbaf5d9	-0.09128923
233	0xbdabc2e2	-0.0838678
234	0x3d2e85b0	0.042607963
235	0xbd6e6daf	-0.05821007
236	0xbdbeedab	-0.09322675
237	0xbd782ec8	-0.06059149
238	0x3d8f4d43	0.069971584
239	0x3c7e2aed	0.015513164
240	0xbd44cdbc	-0.048047766
241	0xbc126163	-0.008934352
242	0x3c38730b	0.011257897
243	0x3d88d733	0.06681671
244	0x3da43953	0.08018746
245	0xbd078e83	-0.033094894
246	0x3d09b546	0.03362014
247	0xbd3018c0	-0.042992353
248	0x3d178160	0.036988616
249	0x3b78c5f5	0.0037959788
250	0x3c192ec7	0.0093495315
251	0xbda2a539	-0.0794167
252	0x3d3d7b94	0.04626043
253	0xbccc655f	-0.024950681
254	0xbca0c42e	-0.019624796
255	0x3ce71795	0.028209487

decoders.0.decoder_net.2.bias f4 [128]
0	0xbca7eb10	-0.020497829
1	0xbdc51be0	-0.09624457
2	0x3e54a7e2	0.20767167
3	0x3e76a61e	0.24086806
4	0x3cea798a	0.028622407
5	0xbc728a88	-0.014803536
6	0x3e0ca705	0.13735588
7	0xbca3a95d	-0.01997822
8	0xbbde0f53	-0.006776729
9	0x3e072905	0.13199241
10	0x3d463a46	0.048395418
11	0x3e1b1423	0.151444
12	0x3e0485e7	0.12941705
13	0xbdb6cc6e	-0.089257106
14	0xbdcdde2a	-0.1005214
15	0xbc947e29	-0.018126564
16	0x3e0cf2bb	0.1376447
17	0x3da3a284	0.07989982
18	0x3e10d900	0.14145279
19	0xbd810f9f	-0.063018076
20	0x3e4d7912	0.20065716
21	0xbc9323e1	-0.017961444
22	0x3c9b39df	0.018948494
23	0x3e475e94	0.19469672
24	0xbd9ad7dd	-0.07560704
25	0x3d2fcd1a	0.04292021
26	0xbd97c600	-0.074108124
27	0x3e0ab30d	0.13544865
28	0xbd856773	-0.06513872
29	0x3d6a48e9	0.05719844
30	0xbd468b38	-0.048472613
31	0x38baed7c	8.913406e-05
32	0x3bd36015	0.006450663
33	0x3da18412	0.078865185
34	0xbd604147	-0.054749753
35	0x3e15a55b	0.1461386
36	0x3e40d42b	0.18830936
37	0xbdba6aee	-0.091024265
38	0x3d15580b	0.036460917
39	0x3d4fe58e	0.05075603
40	0x3d7d0b04	0.061778083
41	0x3e0b0f8b	0.13580148
42	0x3db7163e	0.08939789
43	0xbdd25ec6	-0.10271983
44	0x3ddfdb5e	0.10930513
45	0x3dd29d86	0.102839515
46	0x3d844994	0.064593464
47	0x3e21fcb9	0.15819062
48	0x3e38842b	0.18019168
49	0x3e566804	0.20938116
50	0x3e0d8d04	0.13823324
51	0x3d059ad3	0.032618355
52	0x3da3d466	0.07999496
53	0x3e8b153c	0.27164638
54	0x3d8c6401	0.06855012
55	0xbbbb3a61	-0.0057137464
56	0xbcf10fa6	-0.029426407
57	0x3bd517a4	0.0065030623
58	0x3d12ff96	0.035888277
59	0x3d1ab534	0.037770465
60	0x3e2f821b	0.17139475
61	0x3e24a7d8	0.16079652
62	0xbb9a488b	-0.004708355
63	0x3d75b478	0.05998656
64	0x3d319174	0.043351606
65	0x3e41ef56	0.18938956
66	0x3d294016	0.041320883
67	0xbb57b1e4	-0.0032912428
68	0x3d777cc1	0.06042171
69	0x3dbe433b	0.09290167
70	0x3ca20dca	0.019781966
71	0x3e46afd8	0.19403017
72	0x3e2a32fd	0.16621013
73	0x3db2f7a9	0.08738644
74	0x3b1ba805	0.002375127
75	0x3e06d8d8	0.13168657
76	0xbdac6b06	-0.084188506
77	0x3e736ae6	0.23771247
78	0x3c511773	0.012761938
79	0x3d829b71	0.06377304
80	0xbd41cf1e	-0.047316663
81	0xbdac8e6d	-0.08425603
82	0xbdd82026	-0.10553007
83	0x3ca0d430	0.019632429
84	0x3de5639a	0.11200638
85	0x3c8b108b	0.016975662
86	0x3cde0f79	0.027106987
87	0x3d8517bd	0.06498668
88	0x3d15e710	0.03659731
89	0x3de6049c	0.11231348
90	0x3e2072c3	0.15668778
91	0x3e8c64c0	0.27420616
92	0x3d8ff9e4	0.07030085
93	0x3d9c81bc	0.07641932
94	0xbdd7d261	-0.105381735
95	0x3d400301	0.046877865
96	0xbd99e195	-0.075137295
97	0x3c674b81	0.014117123
98	0xbd9cb233	-0.07651176
99	0x3d2b0f4e	0.041762643
100	0x3c91ce77	0.017798645
101	0x3da32488	0.07965952
102	0x3c69b01a	0.014263177
103	0x3ea7368e	0.3265881
104	0x3e26f98e	0.16306135
105	0xbcc687fe	-0.024234768
106	0x3e357905	0.17721947
107	0x3e2352c1	0.15949537
108	0x3dfe7335	0.12424318
109	0xbd8fb5ab	-0.07017072
110	0x3e017034	0.12640458
111	0x3e196f7c	0.14983934
112	0xbd93a322	-0.072088495
113	0xbe337e47	-0.1752864
114	0x3d95c897	0.0731365
115	0xbc415c65	-0.011801814
116	0x3ba4bce5	0.005027401
117	0x3cc2abf3	0.023763632
118	0x3b25bb9f	0.0025288833
119	0x3e50f757	0.20406853
120	0x3dd409f0	0.10353458
121	0xbcc5bc37	-0.0241376
122	0xbbd2970f	-0.006426699
123	0x3d5e1784	0.054221645
124	0x3cecc301	0.028901579
125	0xbd8daa70	-0.06917274
126	0xbd8cc178	-0.06872839
127	0x3e48dd8a	0.1961576
