models_v103/dec2/model_rerun9.pt (torch, 307026 bytes, 26 tensors)

encoder.encoder_net.0.weight f4 [128, 50]
000000 9a 86 89 bc 62 1d b4 3c db d5 f9 3c 98 07 b9 bd
       -0.016787816 0.021986667 0.030497482 -0.090346515
000010 53 20 2a bd 49 8f 5e bd e4 40 2b bd da 84 2d 3c
       -0.041534733 -0.054335866 -0.04180993 0.010590756
000020 6d ae 5a bc ac 8d 7a bd 85 41 00 be 90 8b c3 3d
       -0.01334725 -0.061170265 -0.12524994 0.09548104
000030 0d 39 03 be 7c a5 31 bd 6e af 0e be 25 5b a6 ba
       -0.12814732 -0.04337071 -0.13934109 -0.0012691958
000040 82 59 d1 bb a7 b5 b4 bc f4 a0 a7 3d f1 13 38 be
       -0.006388844 -0.022059275 0.08184996 -0.17976357
000050 80 0c a1 3c 40 2d 3f 3e fc b4 ac 3d 30 41 ba 3c
       0.01965928 0.18669605 0.084329575 0.022736162
000060 3e 34 2b 3d a8 a7 1f 3d 71 38 d4 bd bd 50 20 3e
       0.04179787 0.03897825 -0.10362328 0.15655799
000070 f5 2e 26 be 4c 6b 97 3d 9c bb 53 bd fc d2 79 bd
       -0.1622885 0.07393512 -0.05169259 -0.060992226
000080 58 7b 33 be d2 9b 27 3e db 4c 49 bd 9e 32 1d bd
       -0.1752752 0.16368034 -0.04914556 -0.03837835
000090 c1 82 53 be 1a c9 af 3e c3 76 37 bd 30 79 63 be
       -0.20655347 0.34333116 -0.044790994 -0.22214198
0000a0 01 e6 f0 ba 0c 16 70 be 26 27 a8 bd a0 e0 f6 bd
       -0.0018379093 -0.2344591 -0.08210592 -0.120545626
0000b0 d2 fb 7d bd 51 e3 13 bd 2c 92 02 be 56 18 f6 bd
       -0.062007733 -0.036105458 -0.12751073 -0.120163605
0000c0 f9 66 8b 3e 81 c3 1e bc 22 17 cf bd ed 35 bb bc
       0.27227 -0.009690166 -0.10111834 -0.022852862
0000d0 16 ab 90 3d ee 47 e8 3d d1 26 02 bc 00 28 17 be
       0.07063882 0.113418445 -0.007943825 -0.14761353
0000e0 93 cc 2b 3d 70 b3 34 bd cf c7 21 be 4b 56 8f 3e
       0.041943144 -0.044116437 -0.15798877 0.27995524
0000f0 da d4 64 be 31 83 61 3e 1c c0 cd 3d 81 6e 7b bd
       -0.22346821 0.22022702 0.100464076 -0.06138468
000100 2b 11 c5 3d 31 5e d0 bc 2e 95 d6 3b c8 f2 c7 bc
       0.09622415 -0.025435539 0.0065485453 -0.02440776
000110 2c cb de 3d 72 fe 0f 3d c3 73 61 3d 3a 45 93 3e
       0.10878596 0.035154767 0.05504204 0.28763753
000120 0d 67 28 be 1f 09 be bc e3 be fb bd 20 e2 94 3c
       -0.16445561 -0.023197709 -0.12292268 0.018174231
000130 77 4b a2 3d a4 75 c8 3c 22 f8 94 bd dc 7c a3 3d
       0.0792455 0.024470158 -0.0727389 0.079827994
000140 61 92 e7 3d 6e 48 3e be 90 fc c3 bc 78 8d e1 3d
       0.113072164 -0.18582317 -0.023924142 0.11013311
000150 fd bb e7 3d b8 2a 8c bd dc 99 40 3d 53 d1 4d 3e
       0.11315153 -0.068440855 0.04702173 0.20099382
000160 58 dc 6a bd 70 72 de bd 4c 14 6d 3e e1 47 db bc
       -0.057339042 -0.10861671 0.23152274 -0.026767673
000170 d2 62 c5 bc 64 eb 3e be 05 39 3e bd c0 14 b5 bd
       -0.024094973 -0.18644482 -0.046441097 -0.088418484
000180 7a d4 22 3e e3 e9 05 3e 45 29 0a bd 05 ac 13 3d
       0.15901366 0.13077502 -0.033730764 0.036052722
000190 89 99 25 3d b8 6f 1e 3d ab f8 38 bd d4 14 50 bc
       0.040429626 0.038680762 -0.045159023 -0.012700278
0001a0 0c 68 2b bd fd 88 ae 3d 44 37 cd 3d 53 c0 dd 3c
       -0.041847274 0.08522222 0.10020307 0.027069246
0001b0 9e ca 82 3d 8f b4 94 bb 3e 4e 43 3d 17 b8 2e be
       0.063863024 -0.004538126 0.04768204 -0.17062412
0001c0 37 65 58 3d d5 3b f7 3d 0a 12 cb bd fb 35 e7 3d
       0.0528309 0.12071959 -0.0991555 0.11289593
0001d0 3b 6f 00 be 04 37 0f bd c5 6f fd bb 39 cf 0d 3e
       -0.12542431 -0.034964576 -0.007734271 0.1384858
0001e0 ec 61 51 3d 74 6a 80 3b ee d3 c0 bc 06 6b 10 be
       0.051118776 0.00391894 -0.023538556 -0.14103326
0001f0 da d9 20 be f7 63 d4 bd 5b 16 a0 3d 67 14 29 3e
       -0.15708104 -0.10370629 0.07816764 0.16511689
000200 23 89 b4 3d 47 54 bd bd d8 31 1b be 4a f9 5e be
       0.08815219 -0.0924459 -0.15155733 -0.21774784
000210 18 88 81 3d 66 21 f3 bc 79 b5 96 3e 48 45 f8 bd
       0.06324786 -0.029679012 0.29435328 -0.12122589
000220 89 8a 12 3d a4 21 f1 3d 3d 40 7d 3d 38 65 25 be
       0.03577665 0.117739946 0.06182884 -0.16151893
000230 4c 6c 84 3b 83 24 a2 3d 9f c1 0a be e5 c2 55 be
       0.0040412303 0.0791712 -0.13550423 -0.20875128
000240 a4 c7 40 be d0 bd 03 3e 3b 45 59 3e df 29 4d 3e
       -0.18826157 0.12865376 0.21217816 0.20035504
000250 48 5a c7 bc a5 8e 32 3e 2a c0 87 bd bb 4d 49 3d
       -0.024335042 0.17437227 -0.06628449 0.049146395
000260 84 a6 fa 3c 2e 5a df bd 55 63 38 3d 69 ef d1 bd
       0.030596979 -0.10905872 0.045016605 -0.10250742
000270 ea 75 6a 3c 27 3c a0 bd cf 02 27 be 16 eb 76 3c
       0.0143103395 -0.07823973 -0.16309665 0.015070697
000280 a3 a6 27 be 11 ec 20 be f3 f5 a8 be b8 28 92 bc
       -0.1637216 -0.15715052 -0.33000144 -0.017841682
000290 83 fc 19 bd bb df da 3d 03 6a 19 be 63 74 01 3e
       -0.03759433 0.106872045 -0.14981847 0.12642054
0002a0 9b a6 a0 bc 71 2b 6c be 8f 0b e8 bc 72 c9 2c 3d
       -0.019610694 -0.23063447 -0.028325824 0.0421843
0002b0 e8 3b d6 3c 4d db 1b 3e 91 13 f8 3c a2 58 8d be
       0.026151612 0.15220375 0.030282767 -0.27606684
0002c0 f8 fe e5 3d bc c9 67 bd 2c 3c 35 3d 07 a6 2e 3d
       0.11230272 -0.056588873 0.044246837 0.042638805
0002d0 e5 54 e6 bb 15 6a 7f bc a0 58 b4 3d 4a 24 9b bb
       -0.007029163 -0.015589257 0.088059664 -0.0047345506
0002e0 3c b0 31 3e 02 21 a1 3d 82 10 9f 3d 1c 6f b3 bd
       0.17352384 0.07867624 0.077668205 -0.08761427
0002f0 d8 7b 96 3a 26 84 35 bd ba 7c ce 3d 33 20 88 bd
       0.0011481 -0.04431548 0.100823835 -0.066467665
000300 28 17 c4 3d 2e 05 9e 3d a5 3b 31 3b 8b a9 77 bd
       0.09574729 0.07715832 0.0027043608 -0.060464423
000310 de 21 bc bd 58 23 26 bd 26 78 a7 3d fb 2f 0d 3d
       -0.09186147 -0.04056105 0.08177213 0.034469586
000320 30 b3 a9 bb 26 22 64 bc 87 fe 73 bd 3e f9 8b bd
       -0.0051788315 -0.013924157 -0.059568908 -0.068346485
000330 7a 78 03 be 58 a8 c3 bc ed 44 d3 3c 9e 82 10 3d
       -0.12838927 -0.023883983 0.025789702 0.035280816
000340 af d4 e3 bc 3b 88 83 3d 16 ed 7c bd 31 ef c0 bd
       -0.027811376 0.06422468 -0.06174954 -0.09420622
000350 99 88 3b 3d 25 ba 66 3d f0 86 1e be 43 62 41 3e
       0.045784567 0.056329865 -0.15481162 0.1888514
000360 c8 d6 26 be 37 ce 19 3e 33 d8 ce bd 0c f7 ad 3d
       -0.1629287 0.15020071 -0.100998305 0.08494386
000370 cd c8 2b be 21 3b 20 be c4 69 09 be 84 49 c3 3c
       -0.16775818 -0.15647556 -0.13419253 0.023838766
000380 38 f1 d4 bd ee 60 60 3e b4 63 2c 3e d0 7c 26 3e
       -0.10397571 0.21911976 0.16834909 0.1625855
000390 60 eb e7 bd 4d e2 27 3c c6 fd ad 3c b2 80 9a 3d
       -0.11324191 0.010246825 0.021239173 0.07544078
0003a0 39 f7 18 bd 14 a0 d0 bd 66 76 1b bd 12 0f e0 bd
       -0.037345145 -0.101867825 -0.03795471 -0.109403744
0003b0 5b 1d 4d be 76 df 73 bc 86 00 9c 3e 3d b0 f2 3c
       -0.2003073 -0.01488482 0.3046915 0.029625053
0003c0 05 cd 44 be e9 d8 33 3b a1 ca 1e bd fc 7d cc bc
       -0.19218834 0.002744252 -0.03876746 -0.024962418
0003d0 95 a4 a2 bd d9 77 83 3d b5 65 8a 3d 10 e6 0a 3d
       -0.07941548 0.064193435 0.0675768 0.03391081
0003e0 26 06 23 3e 78 67 e4 bd 88 cf c4 3c 9a 99 87 3b
       0.15920314 -0.111525476 0.02402474 0.004138184
0003f0 95 67 fa 3c 58 07 40 3c eb 22 5a bb dc 44 8d bd
       0.03056697 0.011720501 -0.0033284973 -0.068978995

encoder.encoder_net.0.bias f4 [128]
000000 4a 89 4f bf 52 e1 ba bf b0 63 dc bf 1e eb 05 3f
       -0.8106886 -1.4600012 -1.7217922 0.52311885
000010 25 68 6d bf 1e c8 06 c0 5d 54 41 3f c9 f2 0c c0
       -0.92737037 -2.1059642 0.75519353 -2.2023184
000020 82 1e 1d c0 ec e1 5e bf 37 5f e5 be ce 37 b6 bf
       -2.454987 -0.8706348 -0.44799206 -1.423578
000030 55 4d 01 3f e1 03 6e bf d0 9a da 3e d4 dd fd be
       0.50508624 -0.9297467 0.42696238 -0.49583304
000040 79 d0 ad bf 99 da a8 3e 7d 85 cf bf fe e1 83 bf
       -1.3579246 0.32979277 -1.6212612 -1.0303342
000050 22 04 8d bf 1e 9f de be 23 9b bd bf ee 8b 28 c0
       -1.1016886 -0.43480772 -1.4812969 -2.6335406
000060 8e 5b 1f bf 81 fa bb bf 27 e5 99 bf 9b f9 9e bf
       -0.62249076 -1.4685823 -1.2023057 -1.2419924
000070 7d 8b 08 bf c3 4b 87 bf 8e a4 15 c0 d5 2e c7 bf
       -0.5333784 -1.0569996 -2.3381686 -1.5561167
000080 55 da d5 bf 6c b2 00 c0 4c dd f3 bf c9 39 c8 3e
       -1.6707255 -2.01089 -1.905191 0.39106587
000090 2d 4d 0b bf 4f f9 d4 bd 39 cd 24 bf 08 26 22 c0
       -0.54414636 -0.10399114 -0.64375645 -2.5335712
0000a0 ff 2c ad 3d d3 56 f3 be 65 99 20 c0 42 4b 1e 3e
       0.08455848 -0.4752718 -2.5093625 0.15458396
0000b0 95 03 ec bf 45 23 ef bf e4 70 32 bf ce 84 21 c0
       -1.8438593 -1.8682638 -0.6970351 -2.5237308
0000c0 c5 26 1d c0 99 27 9e 3e a7 ba c0 bd cb b0 82 be
       -2.4554913 0.30889586 -0.09410601 -0.25525507
0000d0 fe 67 d9 bf 58 74 b5 be 82 f6 a5 bf 65 54 3b 3d
       -1.6984861 -0.35440326 -1.2965853 0.04573478
0000e0 87 26 15 3f 60 e9 e5 bf c3 36 45 3f 5c 85 c7 bf
       0.58261913 -1.7961845 0.77036685 -1.5587573
0000f0 c6 69 b0 bf ec 74 9a bf 48 ce bd be 0f 58 a4 bf
       -1.378228 -1.2066932 -0.37071443 -1.2839373
000100 3b f9 03 c0 fe 3b a5 bd 7c d8 11 bf d8 a1 6d bf
       -2.0620868 -0.08068083 -0.56970954 -0.9282508
000110 c0 93 56 bf 76 b6 27 3f a6 c4 84 bf 23 0d 11 3e
       -0.838192 0.6551279 -1.0372512 0.14165168
000120 51 27 19 bf f0 d3 24 bf d0 29 d2 bf 0f c8 81 bf
       -0.5982562 -0.6438589 -1.641901 -1.0139178
000130 c0 9b 2d 3f a7 6e ec 3e 52 18 5e bf fa ab 1e bf
       0.6781578 0.4617817 -0.8675586 -0.61981165
000140 46 e5 66 bf 1c a0 06 bf 0f 06 15 bf ae 42 ab bf
       -0.90193594 -0.5258806 -0.5821237 -1.3379724
000150 75 e1 80 be 01 16 aa bf d5 71 cd bf ec d8 96 bf
       -0.2517201 -1.3287965 -1.6050364 -1.1784949
000160 a1 23 20 c0 af fd 08 c0 12 33 3d be 5d 6e af bf
       -2.5021746 -2.1404836 -0.18476513 -1.3705555
000170 37 3a 08 be 17 7a b8 bf 8a 61 5b be 9c fb 29 bf
       -0.13303457 -1.4412259 -0.21423927 -0.6639955
000180 4b 76 93 bf 35 c6 7e 3f 1d 4e a6 bf 72 63 57 bf
       -1.1520475 0.9952119 -1.2992588 -0.84136117
000190 a7 ef be bf fa 73 ac bf b4 ab 87 bf 6e aa 3e be
       -1.4916886 -1.3472893 -1.0599275 -0.18619701
0001a0 15 35 08 bf 36 9e a3 bf 7e 85 a9 3f f2 55 c5 bf
       -0.53205997 -1.2782657 1.3243864 -1.5416853
0001b0 48 a4 90 be cd 41 5b bf 3b f3 ec bf 81 de c7 bf
       -0.28250337 -0.8564728 -1.8511728 -1.5614778
0001c0 5b eb 95 bf c4 4f 0e c0 0d e3 91 bf a1 54 21 c0
       -1.171245 -2.2236185 -1.1397415 -2.5207903
0001d0 7e 66 71 bf 0c 68 21 c0 dd e2 be bf 4a 3b 1d c0
       -0.94297016 -2.5219755 -1.4912983 -2.4567437
0001e0 dd a3 aa 3f 94 bd a8 bf f7 dc db bf 11 0e 05 3f
       1.3331257 -1.3182855 -1.7176808 0.5197459
0001f0 a9 5d 73 bf 49 76 a3 be de 55 b2 be 81 c6 fd bf
       -0.9506479 -0.31926182 -0.34831136 -1.9826204

encoder.encoder_net.2.weight f4 [64, 128]
000000 ca c5 58 3d 69 14 ac 3d be 2f d1 bd c4 9c 71 bd
       0.052923 0.084023304 -0.10214184 -0.058987394
000010 48 6a 96 ba 99 20 49 3d 2c cc 7b be 20 d6 13 bd
       -0.0011475766 0.049103353 -0.24589604 -0.036092877
000020 a9 0b be 3d 52 02 70 be 71 20 39 bf 1d 8b d7 3c
       0.09279568 -0.23438385 -0.72315127 0.026311452
000030 71 01 d6 bd 63 8a 03 bf b9 7f 04 be 73 ac 41 bd
       -0.10449494 -0.51383036 -0.12939347 -0.0472836
000040 3f 0d db bc 68 b5 de bc a2 50 de 3d 82 29 19 3d
       -0.026739715 -0.02718611 0.10855223 0.0373931
000050 ff eb c3 3d af 3c 05 bd 21 07 30 bc cb 7c 9b be
       0.09566497 -0.032528576 -0.010743887 -0.30368647
000060 ce de 4c bd cc 19 02 3d e1 a3 f3 3d 6c f2 9a be
       -0.05001717 0.031762883 0.11896492 -0.30263078
000070 10 cb 6b 3d 93 9a 82 bc cb a0 85 3e c0 2f fc be
       0.057566702 -0.015942847 0.26099238 -0.4925518
000080 fd 68 06 bf 08 02 a8 3c 79 22 18 3e 14 0e f9 bd
       -0.5250395 0.020508781 0.148569 -0.12160888
000090 ad c3 30 bd 86 02 48 be 26 0a 6d 3c 20 df bf 3d
       -0.04315536 -0.19532213 0.014467752 0.093687296
0000a0 cb 7d 4c be 72 aa 35 bd a0 7a 07 be 48 dd c5 3b
       -0.19969861 -0.044352002 -0.13230371 0.0060383417
0000b0 a0 69 56 3d 3b 1d 7e 3d 4c 70 89 bd 93 ef da 3c
       0.052346826 0.062039595 -0.06710872 0.026725566
0000c0 6a 0d 0a be dc d0 1c be 99 19 91 be 77 2a 1e be
       -0.1348168 -0.15314049 -0.28339842 -0.15445887
0000d0 fe 51 1d be d7 9c fb 3c 9e 51 d4 bd 39 88 29 bc
       -0.15363309 0.030714436 -0.1036713 -0.010347419
0000e0 3e 6b 93 bd 67 bc 39 be 44 40 36 be f6 a5 57 be
       -0.07198189 -0.18138276 -0.17797953 -0.21059403
0000f0 b6 f6 04 3d 4f 0b b3 3a 0e c7 3d be 4f 42 c5 bc
       0.032461844 0.0013659986 -0.18532965 -0.02407947
000100 12 b1 a8 bf 74 34 0c 3e 5d bc f3 bd cd 3d 0e be
       -1.3179038 0.13691884 -0.11901162 -0.13890763
000110 95 1e d5 3d 72 ff e1 3d 2a 8c 1b be af 16 39 be
       0.10406224 0.110350505 -0.15190187 -0.1807506
000120 b9 6f 4c bd 4f 8b db 3d 76 62 75 3e 1d cb c6 3d
       -0.049911235 0.107199304 0.23963341 0.097067095
000130 29 4c 97 3c c9 00 dc 3a 1e 86 a7 be 04 de a4 bd
       0.018468933 0.0016784902 -0.3271951 -0.080501586
000140 5a c5 55 be 77 b4 b0 bd 43 81 52 be 69 ab 29 bd
       -0.20876065 -0.08628171 -0.20557122 -0.041423235
000150 aa 85 9d bd 25 20 38 be 9a 16 75 3d ce d4 92 3d
       -0.0769151 -0.17981012 0.059836008 0.071694955
000160 65 5b e1 bc 83 cc 45 bf f5 b3 29 3e db de dc be
       -0.0275094 -0.77265185 0.16572554 -0.43138775
000170 b5 e2 e3 3d fd 2d 85 3c 1c a5 65 bd 59 0b 96 3d
       0.11127225 0.01625728 -0.056065664 0.07326383
000180 d6 f9 00 3d cc a8 26 be 38 d9 4c 3e be b4 69 3b
       0.031488262 -0.16275328 0.20004737 0.003566071
000190 77 cd b8 3d b8 31 07 bf fb 37 d9 3d fe 6f cd bb
       0.09023564 -0.5281024 0.106063806 -0.006269454
0001a0 86 0e 54 be 55 77 24 bd 6e 1c a8 3d f6 dd d6 bd
       -0.20708665 -0.040152866 0.082085475 -0.104915544
0001b0 32 dd 0a bf 56 48 29 3e 5c 90 b5 be 4e 59 93 3d
       -0.5424377 0.165315 -0.354617 0.07194768
0001c0 84 d5 53 3d 39 be 45 be 24 89 3a b9 6e 4a 9d be
       0.051717296 -0.19310845 -0.00017789431 -0.30720848
0001d0 ab 71 de be 06 d9 f0 3c f1 a3 46 3d 2a 59 05 bf
       -0.43446097 0.02940036 0.04849619 -0.5208918
0001e0 94 65 65 be 73 df 36 3e b5 e0 2c 3d d1 24 94 bd
       -0.2240203 0.17858677 0.042206485 -0.07233585
0001f0 94 93 36 3e b5 a3 82 bd 4f 38 92 bd 00 49 7a bc
       0.17829734 -0.06378881 -0.07139646 -0.015276194
000200 02 ca 8c bd f7 21 83 be b6 cb a6 3c 43 29 05 bd
       -0.068744674 -0.2561185 0.020360809 -0.032510053
000210 00 0e 8b 39 9c 58 6e bd 6a 51 bc bc 73 08 e5 bd
       0.00026522577 -0.058189973 -0.02298804 -0.11183252
000220 84 9d a2 be bd c9 62 3c 87 1d 0e bd ae 90 a6 bc
       -0.317608 0.0138420435 -0.03469613 -0.02033266
000230 2c 50 1f bc 7e ee 87 3d 88 0f f1 bc 69 c2 04 bd
       -0.009723704 0.06637286 -0.029426351 -0.032411966
000240 0e 87 33 3d 48 a8 8c 3b bb 98 ab 3c 16 2e b8 bb
       0.04382997 0.0042925216 0.020946851 -0.0056207282
000250 44 84 a7 3d f5 a0 85 3d 00 cc c2 be 4b e1 b1 bd
       0.081795245 0.06524841 -0.38046265 -0.08685549
000260 70 3d ec bc af 29 41 3d e5 92 b9 3d 53 2d 5f bd
       -0.02883789 0.047158893 0.09061221 -0.054486584
000270 25 57 09 3d 2f 3f fc bc 80 01 82 bd 54 5b 16 3d
       0.033530373 -0.030791847 -0.06347942 0.03670819
000280 e3 e8 29 bb b9 41 9b bd 0b 59 af bb 1a db 89 bd
       -0.0025926165 -0.07580895 -0.005351191 -0.067312434
000290 e9 8b 32 bd 7d 56 22 be 82 36 70 3e 36 40 4d bc
       -0.04359046 -0.15853305 0.23458293 -0.012527516
0002a0 ec 67 5f 3d 1a 5a 81 bc 81 64 46 bd 84 65 af bd
       0.054542467 -0.015790034 -0.04843569 -0.085642844
0002b0 e3 0d a5 3d 92 3b 15 3c 9e a3 0f bb 53 30 7d 3a
       0.08059289 0.009108441 -0.0021917592 0.0009658385
0002c0 57 7f c9 bd 55 5a 5e be e1 33 87 3c e5 30 1e 3e
       -0.09838741 -0.21714146 0.01650423 0.1544834
0002d0 af 17 2e bb b1 08 23 bc 4d 72 b8 bc 9f a2 7e 3b
       -0.002656441 -0.009950803 -0.02251544 0.0038854254
0002e0 7e 2f 9e bf 7d da 33 bc 16 d4 b9 3c 60 4e 31 bd
       -1.2358243 -0.010977385 0.022684138 -0.043287635
0002f0 05 a4 51 bd 03 2f cf bd 6b 4f 5f bc c9 2c ae 3c
       -0.05118181 -0.10116389 -0.013629775 0.02126159
000300 90 41 c6 bd 8c 4c d1 3d c0 60 7a 3d 48 7d 04 bd
       -0.09680474 0.10219678 0.061127424 -0.03234604
000310 63 9d 72 3d ff 48 3d bc cf 40 2a be f3 b8 7b 3d
       0.059232127 -0.011553048 -0.16626285 0.06145568
000320 16 5c ed bd 5c ae f5 3d 37 14 09 3d 18 26 d7 be
       -0.115898296 0.11996147 0.033466544 -0.4202125
000330 38 90 bc be ce 6d 33 bd 1b 15 4b 3e 3a 1f a4 3c
       -0.3682878 -0.04380589 0.1983227 0.020034421
000340 a3 77 9e bd e6 67 0d 3e af d0 02 3d 08 f8 07 3d
       -0.07737663 0.13809165 0.031937297 0.033195525
000350 ab 26 50 3c f3 00 f5 bd 4f 92 a2 bd 7e 58 8f bd
       0.012704532 -0.11963072 -0.079380624 -0.069993004
000360 0e 6f 7a bd 45 57 a4 ba c4 74 f5 bd 08 dc 1f bd
       -0.061141066 -0.0012538215 -0.11985162 -0.039028198
000370 aa 6f 89 bd 73 46 59 bf b9 38 25 3d ba 92 b8 3d
       -0.06710751 -0.8487312 0.040337298 0.09012361
000380 ca e4 02 3d fe 8c 8b bd c9 17 24 3c 88 e2 33 be
       0.03195647 -0.068140015 0.010015436 -0.17566884
000390 cd 45 f3 bd cc 74 a0 3a de e6 4b 3d 18 ec 74 3c
       -0.11878548 0.001224184 0.04978072 0.014948867
0003a0 bc f5 8b be e0 0b 89 3d 97 df e1 3d fd 18 30 be
       -0.27335918 0.06691718 0.110289745 -0.17197032
0003b0 7c 75 c1 3c 15 7d 95 3b 5e 20 ad bd e6 b4 66 be
       0.023615591 0.00456203 -0.08453439 -0.22529945
0003c0 70 57 14 bd b0 51 ed 3b 48 5b 6d 3d 0e d3 b4 3d
       -0.0362162 0.007242404 0.05794838 0.08829318
0003d0 74 40 2a 3d ec ca 21 be f3 57 0b bb f7 52 32 bd
       0.041565374 -0.15800065 -0.0021262139 -0.043536153
0003e0 53 88 25 3e 71 bf ad bd a0 46 8b bd cd a6 52 bc
       0.16165285 -0.0848378 -0.0680058 -0.012857151
0003f0 a3 13 2a 3c c8 bc 6b 3e e5 9e 85 bb 8f cc e9 bd
       0.010380658 0.23021233 -0.0040777796 -0.114159696

encoder.encoder_net.2.bias f4 [64]
000000 4e 78 bb 3e 7c fc 10 3e bd 0a 6f bd 7a f6 4b 3e
       0.36615223 0.14158815 -0.05835985 0.19918242
000010 44 7e b3 3f 9e 01 16 3f 79 a9 b9 bd ca f6 1d 3f
       1.4022908 0.5859622 -0.090655275 0.61704695
000020 3f bb c3 bc 26 b2 31 be 73 12 b3 3f 74 f0 12 3e
       -0.023892997 -0.17353114 1.3990005 0.14349538
000030 4c 1c a6 3f 9e cc d2 be ff 8c f9 bd 01 08 0a be
       1.2977386 -0.41171736 -0.12185096 -0.13479616
000040 26 10 d8 bd 3f 00 c5 bd 16 d5 ae 3e f6 e3 65 3f
       -0.10549955 -0.096191876 0.34146947 0.89800966
000050 64 1c ef 3b 0c b6 2e be d1 53 8a 3f 9a d6 8e 3c
       0.0072970856 -0.17061633 1.0806829 0.017436314
000060 2a af ff 3e b3 fb dc bd d7 3f 12 3d 13 e2 bd 3e
       0.49938327 -0.10790195 0.035705414 0.37086543
000070 bf a5 50 bc 56 dd a0 bd 4f 7b 49 3f a0 08 b2 bd
       -0.012734829 -0.078547165 0.7870378 -0.08693051
000080 55 35 85 3d 1b f5 54 3f 8b c0 6f bd bb f1 ab 3e
       0.06504313 0.831865 -0.058533233 0.33582863
000090 d0 6b 3d bd 1d 41 9d 3f 60 9a 9d bd 51 26 ec bd
       -0.046245396 1.2285496 -0.0769546 -0.11530746
0000a0 59 45 5d ba 5d 35 a1 bc 8b 80 4e 3f 9e c2 4d bc
       -0.00084408146 -0.019678766 0.8066489 -0.012558607
0000b0 54 a1 d0 3e e5 e2 04 be a7 3b c7 bd b4 d2 1f 3d
       0.40748084 -0.12977178 -0.09728175 0.0390193
0000c0 32 ff 9b 3c 92 56 12 be 9e 0c a4 3f 20 41 e5 3e
       0.019042585 -0.14290836 1.281635 0.4477625
0000d0 c0 26 cb 3d 1a 14 5b 3d 31 76 12 3f 93 3c 7f bc
       0.099195 0.053485967 0.57211596 -0.015578407
0000e0 fa 67 00 3f ca 38 59 3f 45 d3 38 3f e6 8e f3 3e
       0.50158656 0.8485228 0.7219737 0.4756996
0000f0 f5 d8 7d 3c 96 a7 7a 3f fd 3c 94 bc 85 b5 d3 3e
       0.015493621 0.97911966 -0.018095488 0.41349426

encoder.encoder_net.4.weight f4 [4, 64]
000000 b5 16 8b bc 7a 7c bf 3c 57 fa 2d 3b b6 dc 0c 3d
       -0.016978601 0.023374785 0.002654692 0.034390174
000010 2f 59 89 3b d6 8d ab bc 07 9e b1 3c 69 1c c7 3b
       0.0041915397 -0.020941656 0.021681799 0.006076385
000020 14 21 6d 3d 6d 52 b4 3b 19 be 81 3d 23 a1 5a bc
       0.057892874 0.00550299 0.063350864 -0.013344082
000030 4d a4 3f bc fa e0 97 bc 61 a6 9e 3d 59 48 9b bd
       -0.011696887 -0.018539894 0.07746578 -0.075821586
000040 53 7b be bc cf ce 2f 3c 70 88 2f bb f4 78 7a ba
       -0.023252165 0.010730459 -0.0026784204 -0.00095547666
000050 46 5e e6 3b 42 5f 9e 3c be 23 3c bd c6 52 de bc
       0.0070302812 0.019332532 -0.045932524 -0.027139079
000060 64 20 43 3d 0f a2 c0 3c 91 c7 ef bc a4 45 db 3c
       0.047638312 0.023514776 -0.029269965 0.026766606
000070 4f a4 f7 bc c4 53 5f 3c e1 f0 92 3c 51 6c 14 bd
       -0.030229716 0.013630811 0.017937126 -0.03623611
000080 c9 65 f0 bc 5e 8e 0d 3b 56 4a b0 3c 67 26 3c 3c
       -0.02934541 0.002159975 0.021519821 0.011483765
000090 05 04 d3 bb c5 4e bb bd 13 fb e1 3c 4c 12 a4 3c
       -0.006439688 -0.091458835 0.027585542 0.020028256
0000a0 6b 90 3d 3c dd 79 b1 bc 86 03 9b bc c5 f6 7f 3b
       0.011570076 -0.021664554 -0.018922579 0.0039056998
0000b0 fb f7 0a 3d ea e3 e7 3c fa 82 06 3d 13 63 2b 3c
       0.0339279 0.02830692 0.032839753 0.010460633
0000c0 21 88 ce 3a 68 ae 04 bc dd ae 66 bb 20 ec 21 3e
       0.0015757122 -0.008098222 -0.0035199441 0.15812731
0000d0 8d b2 2b 3d db 69 db bc 9a 8e 0c bb 61 73 34 3c
       0.041918326 -0.026783874 -0.0021447302 0.011013837
0000e0 fa d2 52 3d a5 fe ba b9 51 9e 8f bd fc eb 4f bc
       0.051470734 -0.0003566641 -0.07012618 -0.01269054
0000f0 d5 66 5f bc 91 22 e6 bc e6 8b e6 3c 8f cc 45 bd
       -0.013635357 -0.028092654 0.02814288 -0.048290785
000100 f6 c8 87 bd 3e a4 31 3d 91 15 bd bb 7c fc c1 bb
       -0.06630127 0.043369524 -0.005770393 -0.005919991
000110 87 fb 57 bd e6 de 0f bc a3 ff 33 bd a8 1e 26 bd
       -0.05273011 -0.0087811705 -0.043944966 -0.04055658
000120 b5 fc 85 3d 9e 11 0f 3b 4f 6c bf bb 7d 7a e4 bc
       0.06542341 0.002183057 -0.005841769 -0.027890438
000130 7d c3 a5 3d b2 39 08 bd 88 20 cc 3c c3 b2 85 3d
       0.08093927 -0.033258148 0.024917856 0.06528237
000140 e2 c4 43 bc e3 a9 83 3a 6d 73 65 bd 9c 88 33 bd
       -0.011948796 0.0010045137 -0.05601828 -0.043831453
000150 86 73 f6 3b 52 f7 a5 3c 42 7f 49 3b 8c df 56 bc
       0.0075210957 0.020259533 0.0030746018 -0.013114821
000160 7e e1 a4 3d 85 0b 84 bc 6a 54 9a 3c e0 ca 5d 3c
       0.08050822 -0.016118774 0.01883908 0.013537139
000170 dc cf 3f 3c 12 b2 1a bd 2f b4 ce 3d 6b 14 0d 3c
       0.011707272 -0.037767477 0.10092961 0.008610825
000180 ca d5 1e 3c 65 20 57 bc 9f b2 bb bc 3f 44 83 3d
       0.009694526 -0.013130282 -0.022912322 0.06409501
000190 31 dc 9b 3c 27 0e 7a 3c ca b6 e8 3c bc d7 16 3d
       0.019025894 0.015262163 0.028407473 0.036826834
0001a0 7b 2d e1 3c 7e 8f 12 39 69 e0 50 bc 33 47 cf 3c
       0.027487507 0.000139771 -0.012748816 0.025302505
0001b0 a2 67 4d bd 00 cf 95 3c 84 f7 e2 3c 4f fe 3f 3d
       -0.05014766 0.018287182 0.027705915 0.046873387
0001c0 72 79 09 3c 45 44 52 3c 70 a9 cc bd 8d 6e db bd
       0.008390771 0.01283366 -0.09993255 -0.10714445
0001d0 67 ae 03 be b9 84 93 3c 07 fd 8e 3c f4 3c 8d 3c
       -0.12859498 0.018007623 0.017454637 0.017240979
0001e0 c0 c5 da 3b 80 0e 0b bc 73 90 a9 bc e0 b4 89 3c
       0.0066764057 -0.008487344 -0.020698762 0.01680988
0001f0 7a 31 82 bb e5 a7 32 bd c7 a2 17 3d 0c 00 6b bd
       -0.003973183 -0.043617148 0.03702047 -0.05737309
000200 57 13 98 3d 58 67 c6 3d 4f e8 58 3e ab 1f 28 3d
       0.07425564 0.0968768 0.21182369 0.041045826
000210 d3 8e 88 bc 86 cb 0d 3e d6 50 7d bd 58 9b 22 3b
       -0.016669666 0.1384717 -0.06184467 0.002481183
000220 14 b2 c9 bc 75 5a 0e 3d e7 83 49 3d 02 56 90 bd
       -0.024621047 0.034754235 0.049198058 -0.07047655
000230 e1 9c 76 bd bd b5 db 3c 7c ed 75 bd 27 a4 3a bd
       -0.060208205 0.026820058 -0.060040936 -0.045566704
000240 50 b5 ed 3b 49 a7 bb bd c3 d2 e3 3d 9f 08 b4 bc
       0.00725428 -0.091627665 0.11124184 -0.021976767
000250 4c 51 91 3d b2 3f c6 3c 2b 71 40 3c 1a 19 6b 3b
       0.07095584 0.024200294 0.011745731 0.0035873116
000260 9f 2f 85 3d 47 56 97 3d 11 62 a6 bd 5d 6f 20 bd
       0.06503224 0.07389503 -0.081241734 -0.039168704
000270 6c ab 06 be 9b a0 a4 bd e0 1e 9e bd 56 dc 6c 3b
       -0.1315133 -0.080384456 -0.07720733 0.0036142073
000280 21 01 0d 3d 22 32 25 bd 01 be 79 bc c4 d0 32 3e
       0.034424905 -0.040331014 -0.015243054 0.1746245
000290 1f 96 70 bd a0 42 f4 3c b0 fc 27 bd 47 7e 99 3d
       -0.058736917 0.029816926 -0.041012466 0.074947886
0002a0 c6 70 ad bc 7a 29 8b bc 3a 59 a2 bb 54 b3 5f 3c
       -0.021171939 -0.016987551 -0.0049544843 0.013653595
0002b0 60 34 02 3e a1 67 8c bd 62 63 38 3d 05 37 5c bd
       0.12715292 -0.06855703 0.045016654 -0.05376341
0002c0 03 22 8b bc 2d 3b bb bc 45 9d 65 bc 5a 18 56 3e
       -0.016983991 -0.022855366 -0.014014547 0.20907727
0002d0 ac a6 43 bd d2 de 24 bd 27 32 04 be 6f 58 0f 3e
       -0.047766373 -0.04025156 -0.12909757 0.13998578
0002e0 48 fc ea 3c 30 ed 43 be 4e 76 ab bc 1f 3f 1e be
       0.02868475 -0.19133449 -0.020930436 -0.15453766
0002f0 d2 21 95 3d f9 ec 99 bd 20 2a c7 bd a8 b4 8a 3d
       0.07281841 -0.07515902 -0.097248316 0.06772739
000300 92 41 19 3d 38 a9 8f 3d 40 3c 08 bc b7 e1 85 3d
       0.03741605 0.07014698 -0.008315146 0.06537192
000310 c3 fc cf 3c 0c 42 c7 3c 2f dc 3e 3d bc 52 04 3c
       0.02538908 0.024323486 0.046596702 0.008076366
000320 55 ef 87 3d 82 64 11 be 49 de b7 3b da 41 c4 bd
       0.06637446 -0.14198497 0.0056112153 -0.09582873
000330 b2 5d de 3c 36 3a 54 bd ba 64 51 bd 22 f9 04 3e
       0.027144287 -0.051813327 -0.05112145 0.12985662
000340 2a 83 b8 bd a4 a7 51 bd 00 c9 24 bd bf cf e0 ba
       -0.090093926 -0.051185265 -0.04023075 -0.0017151757
000350 10 d7 a9 3d 8a 01 18 3c 0f 7d 01 bd 84 40 be 3d
       0.08292973 0.009277711 -0.031613406 0.09289649
000360 30 fe 9f 3d 3e 77 2b 3d 97 1d a1 3c 73 03 44 bd
       0.07812154 0.041861765 0.01966743 -0.047854852
000370 67 2e 3f 3d c6 93 30 3d 5a 05 5a 3d 08 cc 1f bd
       0.046675112 0.043109678 0.05322776 -0.03901294
000380 39 8a 3e bd 79 35 ac 3d a4 ba 63 bd 72 e1 71 3c
       -0.04651854 0.084086366 -0.055597916 0.014763223
000390 5e ee c5 bd 7e a3 76 bc 03 81 1d 3e db f6 2e be
       -0.096646056 -0.015053628 0.15381245 -0.17086355
0003a0 6f 8a 72 3c f4 c8 19 bd 91 ac 69 3c 67 e7 02 be
       0.014803513 -0.03754516 0.014262334 -0.12783585
0003b0 55 65 7d 3d c5 31 0b 3e 97 3e 86 bd a8 bc 85 3b
       0.061864216 0.13593204 -0.06554907 0.0040813275
0003c0 fc e0 1f 3d aa 72 b2 3d 30 53 04 3d 63 0f 17 3e
       0.03903292 0.08713277 0.032305896 0.14751963
0003d0 f4 e5 c0 3c 4e 2a 0e 3d b4 e9 90 bd fc 6a 1d 3d
       0.02354715 0.034708314 -0.07075825 0.038432106
0003e0 36 d1 41 3a fb 4a 22 be a0 18 bc 3c e0 fa 44 bd
       0.00073935406 -0.15848915 0.02296096 -0.048090816
0003f0 0f 91 15 3d 9d 19 46 bc 39 53 15 bd 67 2e 11 3d
       0.03651529 -0.012091068 -0.03645632 0.035444643

encoder.encoder_net.4.bias f4 [4]
000000 cf 4b 5c 3d e4 d2 40 3e 5f ab 26 c0 a4 30 38 c0
       0.053783234 0.18830448 -2.6042097 -2.8779688

decoders.0.decoder_net.0.weight f4 [128, 2]
000000 b1 94 3f 3f c5 d7 a6 bf d6 e4 11 bf 9b 40 52 3f
       0.7483626 -1.3034598 -0.569898 0.8212983
000010 92 a5 72 bf 71 95 9c bf b5 ed ae be ab dd 68 bf
       -0.9478389 -1.2233106 -0.3416573 -0.9096324
000020 b2 38 cf bf bb de 27 3e de 57 dd be 19 13 ed 3e
       -1.6189177 0.16393559 -0.432311 0.46303633
000030 b8 57 d3 3f 3c 76 44 bf 84 dc 5e 3f 44 46 42 bf
       1.6511145 -0.7674291 0.8705523 -0.75888467
000040 bc 40 9a bf fb 7f a5 3f 99 84 f7 bd ea ff 7e bf
       -1.2051005 1.2929682 -0.12085838 -0.99609244
000050 60 ad 8f 3f a2 be 46 be eb 25 78 3f 50 10 f5 be
       1.1224785 -0.19408658 0.9693286 -0.47864008
000060 28 a8 95 3f 59 e0 cd 3f 74 53 dc 3f 3a b6 95 be
       1.1691942 1.608409 1.7212968 -0.2924059
000070 eb 99 87 bf 73 49 b1 be a0 22 21 3f 58 0b 3e be
       -1.0593847 -0.3462635 0.6294346 -0.18559015
000080 96 3d ac 3e 9d 24 3f 40 3f 47 cd 3f c9 27 6b 3f
       0.33640736 2.9866097 1.6037368 0.9185758
000090 2f e9 fd be 52 ec 1c bf 32 95 bb 3f 5a c4 24 3f
       -0.49591967 -0.61298096 1.4654906 0.6436211
0000a0 73 c4 ed be 12 5e 18 bf f9 db 9d bf ee 50 27 be
       -0.4643894 -0.5951854 -1.2332755 -0.16339466
0000b0 43 ea 82 3f 8c 8a 7b bf 62 73 16 3f 8e d3 4b be
       1.0227741 -0.9825828 0.5876981 -0.1990492
0000c0 a3 f8 67 bf 42 47 ad bf 9c 48 9b bf dc 3c ee bd
       -0.90613765 -1.3537371 -1.2131534 -0.11632702
0000d0 49 ed 1c 3d 1b 75 2b bf a7 fb 64 3f e2 60 9c 3f
       0.03831223 -0.66975564 0.8944649 1.2217066
0000e0 a7 5e d3 bd c1 39 a0 bf 62 b1 80 bf 81 12 aa 3e
       -0.10320788 -1.2517625 -1.0054133 0.33217242
0000f0 ad c5 04 bf 30 d4 b3 bf 70 ea d7 bf f1 89 b4 be
       -0.5186413 -1.404913 -1.686842 -0.3526149
000100 38 38 97 bf 75 33 33 bf 6a c9 57 3f 39 c9 a5 3f
       -1.1814032 -0.7000039 0.8429171 1.2952033
000110 24 7d 82 bf 39 2a 94 3f e0 97 94 3f bc 78 1c bf
       -1.019444 1.1575385 1.1608849 -0.61121726
000120 ae 50 5f 3e 70 26 b4 bf 2e 51 a5 3f 58 b6 d9 be
       0.2180812 -1.407423 1.2915399 -0.4252193
000130 e8 73 99 be ae e1 65 bf c7 44 eb 3d 6b 0c 1b 3f
       -0.29971242 -0.89797485 0.114877276 0.60565823
000140 3b f4 ca be cc 48 a3 bf e2 f8 76 3f c8 74 91 bf
       -0.39639458 -1.2756591 0.96473515 -1.1363764
000150 ff 68 1e 3f 39 c8 3c be 22 9a 05 3f d0 ee e0 bf
       0.6187896 -0.18435754 0.52188313 -1.757288
000160 0c 19 0c c0 c4 56 4d 3f 34 43 93 bf 25 05 e9 be
       -2.1890287 0.8021052 -1.1504884 -0.45511737
000170 06 05 35 3f f9 64 df 3c 54 b1 f9 3e 66 26 55 bf
       0.7071079 0.027269827 0.48768103 -0.83261716
000180 61 46 aa bf 48 5e 1a bf 10 0b 2a c0 53 3a b4 3f
       -1.3302728 -0.6030011 -2.6569252 1.4080299
000190 42 80 0d be a7 bf b1 bf bf 80 7a be 43 00 8e bf
       -0.13818458 -1.3886613 -0.24463175 -1.109383
0001a0 38 31 22 be e6 57 6e bf 40 fc 4f 3e f4 84 e6 bf
       -0.15839088 -0.9310287 0.2031107 -1.8009324
0001b0 22 7e db 3f 15 43 86 3f 91 6d 0b 40 a7 56 89 bf
       1.7147868 1.0489222 2.1785624 -1.0729569
0001c0 f0 be a7 bf 42 33 a0 3f f3 ef 43 be cb 67 3b bf
       -1.3105145 1.2515643 -0.19134502 -0.7320525
0001d0 02 a0 cb bf da 4f 56 3e d7 15 91 bf 32 ca 99 3f
       -1.5908206 0.20928898 -1.133479 1.201483
0001e0 ef 33 83 bf 96 40 c4 3f 68 b9 7d bf c4 7d 88 3f
       -1.0250224 1.533221 -0.9911103 1.0663381
0001f0 3e ec 8f 3f ee 1b 32 be a9 0f 3d 3e 33 d7 60 bf
       1.124397 -0.17393467 0.18463005 -0.8782837
000200 9b 7a 05 be cd 1c b2 3e 47 31 63 3f f4 02 0a 3f
       -0.13035052 0.34787598 0.88747066 0.53910756
000210 43 f6 db 3f a9 d8 a9 be 09 34 09 bf d5 35 77 bf
       1.7184528 -0.3317311 -0.53595024 -0.96566516
000220 cb dc 10 bf 37 04 1a bf 0c 6a 7a 3e e2 b7 cf 3f
       -0.56586903 -0.6016268 0.24454516 1.6227992
000230 57 23 af 3f 63 67 b8 3f ed eb 4e 3f 38 ab e8 be
       1.368266 1.4406551 0.80828744 -0.4544313
000240 b8 32 6e 3e 59 f4 8a bd 47 a5 a3 be c4 f9 84 3f
       0.23261535 -0.06784887 -0.31962034 1.0388722
000250 f0 5a 75 3f 43 b6 05 bf 45 d9 3d bd 33 30 5b be
       0.95841885 -0.52231234 -0.046349782 -0.21405105
000260 ea c7 14 c0 8b 63 5f 3d 99 23 d2 bf 1d d0 df 3d
       -2.3247018 0.05453829 -1.6417114 0.10928366
000270 43 18 d2 bd cc 8d 3f bf 91 3a 83 bf 33 1a 90 3f
       -0.10258534 -0.7482574 -1.0252248 1.1257995
000280 8b 7a 62 3f 66 85 06 bf ea c8 46 3f ab db 9f 3d
       0.88468236 -0.525473 0.7765032 0.0780557
000290 bc a8 a8 bf 21 41 06 3f 41 58 d8 3e e7 ff 90 bd
       -1.3176494 0.5244313 0.42254832 -0.070800595
0002a0 2b 39 09 bf 65 db 40 3f 1b 71 09 be c0 f1 70 bf
       -0.53602856 0.7533477 -0.13422053 -0.9411888
0002b0 6f 02 f4 bf bc 9e bb be 0e 4e 02 3f 7b 00 35 bf
       -1.9063243 -0.36644542 0.5090035 -0.7070386
0002c0 73 95 82 3f 74 fb 42 bf 4b 77 d1 3e cc 67 3a 3f
       1.0201858 -0.76164937 0.40911326 0.7281463
0002d0 b7 0f 63 bd 21 6d 8d 3e 48 38 f7 be f2 30 b0 3f
       -0.05543491 0.2762232 -0.48285127 1.3764937
0002e0 ef e2 c5 3f 18 4b 0e 3f a2 ce 02 be 35 13 cb 3e
       1.545988 0.55583334 -0.12774137 0.3966309
0002f0 f6 7a c9 3f 27 1f d9 be d2 18 65 bf aa b5 96 3f
       1.574065 -0.4240658 -0.89491 1.177419
000300 13 b0 44 bf 26 ed e3 3f 6c b7 ce 3f de dd 52 bf
       -0.7683117 1.7806747 1.6149726 -0.8236979
000310 24 41 a4 3f 55 4c a1 3e 58 3d 56 be a6 00 80 bf
       1.2832379 0.3150355 -0.20921838 -1.0000198
000320 1d e1 d8 bf 10 67 57 be 94 01 da 3e 13 9b 66 bf
       -1.6943699 -0.21035409 0.4257933 -0.90080374
000330 58 ea 3a bf 21 d6 98 bf 3a e6 a8 be 4d 02 a5 bf
       -0.7301383 -1.1940347 -0.3298815 -1.2891327
000340 3b 54 be 3f dc 58 32 3f 10 49 ad 3f df ef 76 be
       1.4869455 0.6966684 1.3537922 -0.24114941
000350 1b 3c 17 3f 4b 1f 97 3f 1d a3 80 3f a5 e0 e9 3d
       0.5907609 1.1806425 1.0049778 0.11419801
000360 91 c8 df 3e e8 9f cf 3e 55 a0 88 3e cd a3 a0 bf
       0.43707708 0.40551686 0.26684824 -1.2549988
000370 a6 a5 22 3f 77 81 2b 3f 04 ed 96 3f fd 41 f5 3c
       0.6353401 0.6699442 1.1791081 0.029938692
000380 86 01 f5 3e 18 51 90 bf e3 0f fe bd f3 79 7c bf
       0.47852725 -1.1274748 -0.12405374 -0.9862358
000390 bf e4 b4 3f 5d 73 8c bf 58 ec 23 bf e5 c7 34 bf
       1.4132308 -1.0972706 -0.64032507 -0.70617515
0003a0 bf cb 23 3f d3 c2 17 3f 81 94 9a 3e 91 9a 0b bf
       0.63982767 0.59281653 0.30191424 -0.54532725
0003b0 2b a2 81 3f 56 9a 22 3f 4e 26 e9 be 02 96 9a 3f
       1.0127615 0.6351675 -0.45537037 1.2077029
0003c0 02 41 8b bf be 7e 37 be aa 47 b5 be 22 ed 15 40
       -1.0879214 -0.17919442 -0.35406238 2.3425984
0003d0 76 ba 80 bf 8c 27 73 3f d6 48 ae 3f 28 83 e4 3e
       -1.0056903 0.9498222 1.3615978 0.44631314
0003e0 8b d0 a5 bf 14 66 82 bf 34 ce 67 3f db ce df be
       -1.2954267 -1.0187402 0.90549016 -0.43712506
0003f0 bb ce 0d 3d 20 81 24 be 9a e6 86 be de 4d b5 bf
       0.03462098 -0.16064882 -0.2634781 -1.4164388

decoders.0.decoder_net.0.bias f4 [128]
000000 c3 5d ce be aa 13 55 3f 7c 55 19 c0 60 1d 68 3f
       -0.4030591 0.8323313 -2.3958426 0.9066982
000010 fe d6 b2 be 82 08 1d 3f 9b d1 c6 3d 73 8c 04 bd
       -0.3492965 0.61341107 0.09707948 -0.032360505
000020 26 e3 1d bf 4b 86 09 3f ad 78 32 3e c3 82 99 3d
       -0.61674726 0.5372054 0.17428847 0.07495644
000030 31 46 04 be a9 4c 13 bf c5 33 61 bf 4e 5e 9c 3e
       -0.12917401 -0.5753885 -0.8796962 0.305407
000040 63 71 4f bf ff f2 a0 be 24 ea 9a bf 64 ac 5f 3c
       -0.8103239 -0.3143539 -1.2102704 0.013651941
000050 a6 8b 9d bf 8b 21 2c bf fb 53 44 be 3f 08 a1 3e
       -1.2308242 -0.6723868 -0.19172661 0.31451604
000060 d3 a9 21 bf 31 6a 8d be 0c f4 10 3f 3e 10 63 3f
       -0.63149756 -0.2762008 0.56622386 0.8869666
000070 c7 1f 85 be b5 3f a6 bc 3c c4 06 3e 69 a5 ba bd
       -0.26000807 -0.02029405 0.13160795 -0.09113581
000080 bd c9 c2 bf 02 77 4d be b1 93 b3 be 41 8a f5 3d
       -1.5217816 -0.20064929 -0.35073617 0.119892605
000090 4a 28 d6 be 33 11 34 bf a3 fa ea 3d 7f 89 39 3f
       -0.41827613 -0.70338744 0.114735864 0.7247543
0000a0 b9 73 6f 3e 1e 82 2c bf e6 72 92 3e 25 a7 85 bf
       0.23383988 -0.67386043 0.28603286 -1.0441633
0000b0 8b 2f f7 be c2 93 6b 3e af e3 d6 3e df 2e ea 3e
       -0.4827846 0.23005584 0.41970584 0.45738885
0000c0 37 c5 80 3e 35 8d 00 b9 0a 38 10 bf a9 bf 89 bf
       0.25150463 -0.00012259635 -0.5633551 -1.0761615
0000d0 e2 51 5c 3f 2a 83 87 bf 82 d7 42 bf 57 6d 39 3e
       0.86062443 -1.0586903 -0.7611009 0.18108116
0000e0 dc 0e 18 3f 23 d5 16 3f 82 44 b5 be 5c e5 07 bf
       0.59397674 0.5891897 -0.3540383 -0.5308435
0000f0 f3 b1 8d bf 75 37 12 bf 88 75 44 3e 26 d9 2e bd
       -1.1069931 -0.5711587 0.1918546 -0.042687558
000100 81 0b 27 3f 6d 64 b7 3c e9 cd 14 bf 6e e9 7d 3e
       0.6525193 0.022386754 -0.58126694 0.24796078
000110 95 a6 0a 3f 59 19 46 bf ae af 50 bf 40 bd c4 3d
       0.54160434 -0.7738243 -0.81518066 0.09606409
000120 da 7f e1 3e 8f e1 36 3f a6 b6 d1 3d 79 7e 05 3f
       0.44042856 0.71437925 0.102399155 0.52146107
000130 48 f9 8b 3e af 0e 97 bf 9a 6c c2 3e 7c ed 14 3f
       0.27338624 -1.1801356 0.3797348 0.5817487
000140 3d 56 76 3f f6 87 22 3e 73 e9 44 3f b8 07 46 3f
       0.9622534 0.15872177 0.76918715 0.7735553
000150 cb f2 50 3f e3 66 00 bf a1 a6 47 be e7 e6 82 3f
       0.8162047 -0.5015699 -0.19497158 1.0226716
000160 0a 3d 8e bf 4f 62 3b 3f 44 44 10 3f 17 b7 02 bb
       -1.1112378 0.7319688 0.56354165 -0.0019945556
000170 75 82 8d 3e c3 47 44 3f 07 2f 47 be 77 c4 16 be
       0.27638593 0.76672 -0.19451533 -0.14723383
000180 f8 6e a8 bd f2 20 1c 3e 27 6c 33 3f 77 12 c6 3e
       -0.082242906 0.15246943 0.700869 0.38685963
000190 3e 72 c1 be 31 2b 56 3e 56 29 a7 be f7 df af bf
       -0.37782472 0.20914914 -0.32648724 -1.3740224
0001a0 b2 44 5a bf f6 ee 24 bf 69 1a 53 bf 7f 61 58 3e
       -0.8526107 -0.64427125 -0.82462174 0.21130942
0001b0 b1 b8 1b 3f 84 0a 86 be f4 80 6e 3e 6f b9 8c 3e
       0.6082869 -0.26179898 0.23291379 0.27485225
0001c0 5f e1 87 3d b0 1a 07 3f 13 2e 7b bf 5d 47 b4 bf
       0.06634783 0.52775097 -0.9811718 -1.4084278
0001d0 d7 4a cb 3e b1 54 63 3e 40 eb 2a 3f 45 55 32 3f
       0.39705536 0.22200276 0.66765213 0.6966136
0001e0 d5 a5 54 3f c5 81 bc be 02 74 36 bf 37 af b3 3e
       0.8306554 -0.36817756 -0.71270764 0.35094616
0001f0 5c d0 e1 3d 79 74 8c 3f 10 df fa 3e 51 cd 9c bf
       0.110260695 1.0973045 0.48998308 -1.2250158

decoders.0.decoder_net.2.weight f4 [128, 128]
000000 b5 49 90 bd 69 53 47 3e 2b fb fa 3d e9 12 23 be
       -0.070453085 0.19465412 0.12254938 -0.15925182
000010 4e 00 c6 bc ea eb 36 3e 97 28 4c bd 02 c9 35 3e
       -0.024170067 0.17863432 -0.049843397 0.1775246
000020 99 58 27 be 4d 39 be bd f6 2e d6 bc 42 7f b6 3d
       -0.16342391 -0.09288273 -0.02614544 0.08910991
000030 fc 77 1b 3e f9 aa 05 be 81 6b 06 3f 36 60 72 bb
       0.15182489 -0.13053502 0.5250779 -0.0036983616
000040 ec ee 47 be f5 fc 28 bf 22 31 e9 3d db 95 93 be
       -0.19524735 -0.6601098 0.113863245 -0.28825268
000050 43 3d 49 3e d1 cf bf bd 3e 27 31 3e 4d f8 8c bb
       0.19652276 -0.0936581 0.17300126 -0.0043020607
000060 8c cf 6d 3e 6b da 04 3d 10 38 1e be 5d 8f 93 3e
       0.23223704 0.032434862 -0.15451074 0.28820315
000070 40 f6 16 be c4 81 bc bd 2c 1c af 3d 58 eb f2 bc
       -0.14742374 -0.09204438 0.08550295 -0.029653236
000080 88 33 37 be 63 e9 52 3e 47 35 13 bd 48 9a c7 3d
       -0.17890751 0.20596842 -0.03593948 0.09746224
000090 92 33 80 bd 9e ea f2 bc 6d 03 c1 3d 7d b8 89 3e
       -0.06259836 -0.02965289 0.094244815 0.26898566
0000a0 fc cf 84 3c 01 92 6c 3e ce 16 be bd 77 7f 83 3c
       0.016212456 0.23102571 -0.092816934 0.01605199
0000b0 10 89 be bd 49 0d 4a be bd 35 76 3d dc ab f5 3c
       -0.09303486 -0.1973163 0.060109843 0.029989175
0000c0 8d ad 13 be 8e af 0b be de 59 75 3d 18 72 dc 3e
       -0.14421673 -0.13641188 0.059900157 0.43055797
0000d0 cd f0 e1 bd 3c 80 b0 bd ba 38 f9 be 77 e4 95 3d
       -0.11032257 -0.08618209 -0.4867609 0.07318967
0000e0 3e 39 32 bc 08 dc 21 bd c3 e7 9a 3d ee 75 e8 bd
       -0.010877905 -0.03951648 0.07563736 -0.11350618
0000f0 9f d4 12 be ad 99 d6 bc 2d 57 a0 bd c3 d6 60 be
       -0.14338921 -0.026196325 -0.078291275 -0.21956925
000100 f6 e6 cf 3d 48 ed ad 3c 71 c2 7f be e6 8b 88 3e
       0.10151474 0.021231309 -0.24976517 0.26669234
000110 89 69 8f bd c3 d0 20 bf d6 c1 fb 3d fd e7 59 3d
       -0.07002551 -0.62818545 0.12292831 0.053199757
000120 68 14 fc 3d d5 72 1b 3e 13 72 e0 3d 80 27 8d bb
       0.1230858 0.15180524 0.10959258 -0.0043076873
000130 1e 00 00 3d 90 15 a3 be 69 99 7a be 12 b0 d1 3d
       0.03125011 -0.31852388 -0.24472584 0.10238661
000140 83 d5 87 bd f9 5b 32 3d c8 8c 31 3e 1c 7b a6 3d
       -0.06632521 0.043544743 0.1733886 0.0812895
000150 cb ea 5e 3e d3 3a 06 be 2a 60 11 be 43 8a 5a be
       0.21769254 -0.13108377 -0.1419684 -0.21341805
000160 fc e7 9d 3f 4b 5c 72 3e 41 da 4c 3e a5 f1 0f 3d
       1.2336421 0.2366802 0.20005132 0.03514256
000170 39 66 60 bd 3f d2 2b 3e 02 03 eb 3d 57 6c 24 be
       -0.054784987 0.16779421 0.11475183 -0.16056953
000180 d0 32 12 bd 15 48 de 3d 82 0b 22 3e a7 08 d5 bd
       -0.03569299 0.10853592 0.15824702 -0.10402041
000190 c4 ae f5 bd 21 41 a4 bd 55 c0 46 3e 56 68 5c 3e
       -0.119962245 -0.08020235 0.19409306 0.21524176
0001a0 aa b1 15 bf 12 e3 a9 bc 4f 56 6c 3e 8b c0 e1 3c
       -0.5847422 -0.020738158 0.23079799 0.027557632
0001b0 c3 19 43 3d 21 03 30 be 75 7c b2 3d b5 bc dd bc
       0.04763199 -0.17188694 0.087151445 -0.027067522
0001c0 43 f6 04 3d 5a 9e 62 be ab 9c ed 3e d7 7c 37 3e
       0.032461416 -0.22130719 0.4640859 0.17918716
0001d0 dd 8f 26 3e 87 d8 52 3c a6 15 fa 3d 92 1a a3 3d
       0.16265817 0.012869007 0.1221116 0.07964052
0001e0 b4 28 bd bd 4b 5b 38 bd e0 2e cf bd 67 fb 08 be
       -0.09236279 -0.04500894 -0.101163626 -0.13377152
0001f0 d9 60 34 bd 2d aa 9c bc 01 bb 1f 3e 90 8c fa 3e
       -0.044037674 -0.019124115 0.1559868 0.48935366
000200 69 33 11 be f7 6a 8f 3e 01 a4 c4 bf 50 40 3f 3e
       -0.14179768 0.28011295 -1.536255 0.18676877
000210 56 17 a8 bd 31 03 9c 3e b0 6f 3b bd 2d 58 a6 bd
       -0.08207576 0.30471185 -0.04576081 -0.08122287
000220 e3 14 10 3b 93 ce 88 3e 13 6e e1 bd e8 02 2d be
       0.0021985106 0.26720104 -0.11007323 -0.1689564
000230 27 d6 af 3d 2f 1e a5 3d a0 ac 96 bf 6e 42 48 bc
       0.08585768 0.08062398 -1.1771431 -0.012222869
000240 af a1 ce 3d ba c4 68 3f 92 a4 2d be 37 ac 9e 3e
       0.100894324 0.9092518 -0.1695731 0.30990764
000250 71 bd 57 bf 4d 92 7a 3d 8d b6 3a be 99 44 08 3d
       -0.8427344 0.06117468 -0.182337 0.033268545
000260 cd ae 0f bf 3e 1b bd 3a 7a 62 87 3e 9f 18 ae be
       -0.561261 0.0014427674 0.2644232 -0.3400316
000270 b6 f4 01 be cf ad 56 3d 4b ae 86 3e eb 42 bd bb
       -0.12691006 0.05241185 0.2630485 -0.0057757995
000280 ff e8 00 c0 be e2 a0 3d 8e 95 1e 3d 08 ec 9f bd
       -2.014221 0.07855748 0.038716845 -0.07808691
000290 69 90 d8 3d bd 3f 1c 3e 1e 60 b5 3e 06 5f 94 3c
       0.10574419 0.15258689 0.35424894 0.018111717
0002a0 ff 2b 76 3e e6 69 21 3e 21 b3 7f bd b3 4e 01 3c
       0.2404022 0.15763053 -0.06242669 0.0078922985
0002b0 a9 bd 1b bf 78 e0 83 3e e8 80 d4 3d 2f 66 92 be
       -0.60836273 0.25757194 0.103761494 -0.28593585
0002c0 4a 77 fb 3e cc 96 26 bd ed 9d 23 3d ab 21 5f bf
       0.49114448 -0.040671155 0.03994553 -0.8716075
0002d0 b4 ce eb 3d 3c 34 96 be a5 2f db 3e 21 5a 92 be
       0.11514035 -0.29336727 0.42809787 -0.28584388
0002e0 7c 35 6a 3d e2 7f 61 3e ae a9 8a be ec f4 26 3e
       0.057179913 0.2202144 -0.2708258 0.16304368
0002f0 f9 bb 09 c0 aa 39 cf b9 78 82 87 be bb bd b2 bd
       -2.152098 -0.0003952508 -0.26466727 -0.087275945
000300 bd 98 38 3e ab 0e 16 3e 85 83 9d 3d 92 d2 89 3e
       0.18027015 0.14654033 0.07691101 0.26918465
000310 a0 55 d0 3e a8 15 30 3f 20 12 33 3d ea a8 82 bb
       0.40690327 0.68783045 0.043718457 -0.0039874213
000320 cc 49 28 3e 31 97 0b bd ed 86 16 be 1a 58 fb 3d
       0.16434401 -0.034079734 -0.14699908 0.122726634
000330 55 0c ae 3d 8c 34 bf bd b1 c8 b9 3e 5c d0 3c 3e
       0.08498446 -0.093361944 0.36285928 0.18438858
000340 6d aa 9a be 9e b7 35 bb 05 22 e0 3c 5f 63 c0 3d
       -0.3020815 -0.0027727853 0.027359972 0.093939535
000350 a4 72 6f 3e bb a2 00 3e 8c 47 d1 3b 59 19 8e 3d
       0.23383576 0.12562077 0.006386703 0.069384284
000360 b5 e9 17 3e 69 cf 28 bd e8 cc 58 3d 3e 83 12 be
       0.14835246 -0.041213427 0.05292979 -0.14307877
000370 bd 09 b0 bd e7 42 ed 3d 27 b1 a8 3d 12 b4 4c bd
       -0.085956074 0.11585026 0.08236914 -0.049976416
000380 55 79 7e be c5 bd be bc e7 e9 c1 bd 42 48 e4 3e
       -0.24850972 -0.023283849 -0.094684415 0.44586378
000390 45 3d 87 bd e1 e0 ce 3c 75 f6 ce be b1 36 4b bf
       -0.06603483 0.025253715 -0.40422407 -0.7938033
0003a0 40 91 8c 3e 31 8f 09 3e b4 f2 34 3e 26 c6 59 bd
       0.27454567 0.1343353 0.17670709 -0.053167485
0003b0 87 02 10 3e 38 fd 4b 3e fc c6 b9 bd ff 95 d5 bd
       0.14063464 0.19920814 -0.090711564 -0.10429
0003c0 51 6b 05 bc 20 70 bf 3e e3 de 0d 3e 8d 91 cb bc
       -0.008143262 0.37390232 0.13854556 -0.024849677
0003d0 22 aa 64 be e8 f1 01 be a6 51 3b be 96 52 8f 3d
       -0.22330526 -0.12689936 -0.18292865 0.06998174
0003e0 ac 9b ec 3d 78 ec d4 be e7 d3 af be 8a 07 46 bd
       0.115531296 -0.4158666 -0.34341356 -0.048347034
0003f0 91 59 ec 3e 48 ca 7d be 2a 31 3b 3e c2 9d 7d bf
       0.46162084 -0.24784195 0.18280473 -0.99068844

decoders.0.decoder_net.2.bias f4 [128]
000000 fa 24 0c 3e 3c 8a e5 3d 16 df 7a 3d e4 46 e3 3c
       0.1368598 0.11208007 0.061247908 0.027743764
000010 1d 11 10 3d b5 42 cc bc b7 e7 d6 bc 66 20 9c 3d
       0.03517257 -0.024934152 -0.026233537 0.07623367
000020 6d cb 81 bd 55 cb aa bc fb 36 7d bd f8 5f 61 3d
       -0.063376285 -0.02084891 -0.06182001 0.055023164
000030 64 63 f1 3d 1e 23 fb bc 90 95 8d be 5a 0d 06 be
       0.117865354 -0.030656394 -0.2765317 -0.1309103
000040 cd a8 f6 3d df 85 57 3d 14 ee 1d 3c 40 18 d5 bc
       0.12043915 0.052617904 0.009639282 -0.02601254
000050 90 19 ba 3d e3 9d af 3c 82 c6 46 3e a7 6b d1 3d
       0.09086907 0.021437591 0.19411662 0.10225611
000060 27 f3 13 be 02 42 0e 3e 74 37 e3 3d ea 26 e8 3c
       -0.14448224 0.13892367 0.11094561 0.028338868
000070 4b a1 7c bd 62 88 0e 3e aa 6a 00 be 63 82 5a bc
       -0.06167726 0.13919213 -0.12540689 -0.013336751
000080 47 8d c4 3c 34 46 0f 3d f9 27 fa 3d 31 a4 cd 39
       0.023993148 0.03497906 0.122146554 0.0003922298
000090 a4 8c 7b 3d 31 5c ac bd 53 76 02 3d c5 81 a7 3d
       0.061413422 -0.084160216 0.031851124 0.081790484
0000a0 4c ca 5b bd 9e 04 f4 bd db 3e bf bd 88 38 59 3d
       -0.053659722 -0.11914943 -0.093381606 0.053032428
0000b0 5b 4a 93 bd 7b 7e 46 3d 55 6d aa 3c cb 02 13 3d
       -0.071919166 0.048460465 0.020804087 0.035891335
0000c0 d8 c0 5e 3d 77 67 ee 3c 8d 32 a3 3d 11 76 93 3e
       0.05438313 0.02910207 0.07968626 0.28801015
0000d0 84 42 17 3e 91 33 aa 3b c1 d2 60 3e 15 d7 9f 3c
       0.14771467 0.0051941355 0.21955396 0.019511739
0000e0 98 c5 1d 3c fc af d8 3d cd 5d 64 3d 79 02 88 bc
       0.00962963 0.10580441 0.055753518 -0.016602742
0000f0 8d 55 37 bd 08 50 9f ba cd de 4f 3d 06 8b 03 3e
       -0.044759322 -0.0012154588 0.05074959 0.12846002
000100 37 43 50 3c a0 18 8e 3d 09 d6 ac 3c 01 a8 2e 3e
       0.012711338 0.069382906 0.021098154 0.17056276
000110 8a 34 87 3e 18 06 1a 3d d9 ee 18 3d 0e 7f 59 3e
       0.26407272 0.037603468 0.037337158 0.21239874
000120 0b e0 25 3e 34 e4 b2 3d 02 a4 8a bd 9b bb c8 3d
       0.16198747 0.087349325 -0.06769563 0.09801408
000130 ec 77 a3 bd ca 59 87 bd 5c 76 a6 bd 04 fd de bd
       -0.07981858 -0.06608923 -0.08128044 -0.10888103
000140 ed 56 ea bc 33 06 9b 3d ed 44 e3 bc 43 bb 5d 3d
       -0.028605903 0.07569542 -0.027742827 0.054133665
000150 28 9b 2b 3e 41 ca a7 bd 6e 1a c8 bc f0 b4 00 3e
       0.16758406 -0.08192874 -0.024426665 0.12569022
000160 26 b8 db bc ef de a1 3e 04 f6 9c 3d f6 db 71 bd
       -0.026821207 0.31615397 0.07664111 -0.05904766
000170 95 1d 01 3e c9 93 58 3e 0f 2c 8c 3e 25 01 52 3e
       0.12608941 0.21150126 0.27377364 0.20508249
000180 ab 5c 29 3e 4f fc 69 3e cc ce d9 bc b7 03 02 3d
       0.16539256 0.22850154 -0.026587866 0.031741824
000190 25 9c a1 3c a2 af 03 3e 43 97 46 3d 74 06 24 3e
       0.019727776 0.12859967 0.0484841 0.16018087
0001a0 a1 fb b2 3d bc 4d bc 3d 2d 0b 30 3b 37 2b 12 3c
       0.08739401 0.09194514 0.002686213 0.008921436
0001b0 97 31 05 3a a9 76 62 bd 7c 3a 98 bd 8e c9 a4 3d
       0.0005080937 -0.055288944 -0.0743303 0.08046256
0001c0 61 d1 aa bd 12 74 4d bd 2a 76 96 3e 89 e2 0c b9
       -0.08340717 -0.05015952 0.29387027 -0.00013435831
0001d0 1f 25 93 3d 0d 72 15 3d 6c 20 ad bd 25 40 90 3c
       0.07184815 0.03648572 -0.084534496 0.017608711
0001e0 20 6a c5 bd b3 47 29 3e 3c 11 55 3e fb 6b c6 3d
       -0.09639382 0.16531257 0.20807356 0.096885644
0001f0 ab af 06 3b 59 6e cc 3c 67 de 00 bd 14 b4 38 3e
       0.0020551484 0.024954962 -0.0314621 0.18037444
